trained/SimplePong/PPO_frequent_1728719622.8367772.pth (torch, 42226 bytes, 11 tensors)

actor.0.weight f4 [64, 5]
00000000: 14da 5fbe be74 873e a95d e0bd 7013 063e
00000010: 90c8 053f 4972 033e ca5f afbe 2f29 a43e
00000020: 4795 84be 3002 a7be 8583 fd3e 9aae a1be
00000030: 1e78 a4bc fed5 08bf a4a7 a33e 1b0b f93d
00000040: a89f febe ec21 873e 3719 6ebe 93cd cbbe
00000050: 4685 013f 6b3d 58be f59a 1cbd 9c82 efbe
00000060: 55eb de3d 90ba 33be 0481 973e a04a f13c
00000070: 4593 5bbd 78dd b63e b37b bebb ded1 37bd
00000080: 8f88 be3e 6181 843c c175 8e3d da4d d4be
00000090: 082d b43e 4d56 bf3e d326 febd 0a32 eb3d
000000a0: 9d5b deba 758b ecbe a1c5 f33d 9ff9 853d
000000b0: 3948 36bd 171e 02be 72d4 72bd 783f abbe
000000c0: 8614 9e3e ec04 c7be eed6 c1be c3fa db3d
000000d0: 06e1 d23d 1827 92bc 7375 d93e 4e2e 0a3e
000000e0: 2530 78be e6be b13e 868a bd3e a92b 0d3e
000000f0: e7dc 4f3e 32d2 cabe bc78 0cbd 02d9 62be
00000100: 38e6 8ebe 4ce7 6cbe ee7b a03e 1c7f 9bbe
00000110: ceb6 123f 6a60 10be 145b 3ebe 6a4b 033f
00000120: 7147 1ebe 92c7 1c3f ce86 753e aef0 23be
00000130: 63a4 e1be db51 fabd c53c 2f3e 7f54 093e
00000140: bb6f b83e f936 a6bc 6b72 8ebc 444d ca3e
00000150: 16cd bb3e ac9e 1ebd 1be5 f5bd e699 d6bd
00000160: 043f e63e e560 1e3e 4ae7 523e 583e 96bd
00000170: 3abf 9cbe c8f3 a8be c529 6cbe dffd 343d
00000180: 7664 9f3e b0aa cfbe 9f1f 13be 4130 8f3e
00000190: 1d9d 07be 8aca 0cbe 4aa1 83be 4220 1dbe
000001a0: e43c 77be 5fa9 403a 4879 c6bc dae3 a23e
000001b0: 8386 4dbe 677c 93be 1ac2 d33e 8912 c6be
000001c0: 0042 c03e 9f26 443e 3274 90bd 20da 953d
000001d0: 1064 ee3e 92af a83e 6224 2a3f 7f38 07be
000001e0: 6397 b3bd 2c58 e83e cc9c 1bbd dd80 8f3d
000001f0: 5a2f 9f3e d13f 103e 1acc b2be d5d8 95bc
00000200: e12e 21bf f227 a4be 9359 0fbe bf1f 14bd
00000210: a85c 963d 03ff 0c3e 55d4 b53c 96e8 fc3e
00000220: 9829 f0be e7c8 e03e bf8b ae3d ef8e a3be
00000230: 33a6 103e c43c 0abe 2e95 0bbe fdca 15bf
00000240: 3f26 4bbe 5efe f5be 50ae dc3e 43a3 6ebe
00000250: 1478 e8bd dc8d f83e d11b c93d c2bb 283e
00000260: 6c26 8f3d dcce e3bd 7f95 203e d91a 22be
00000270: ce69 a93e 8a25 953e 6677 c83d 83b8 2fbe
00000280: 94c5 733d eb75 f0bd d240 1cbe ca0e 0cbf
00000290: 9d9e b5bc f15d 10bf a9a7 033f 0ee2 bebd
000002a0: 6cf0 033f b181 f03e 494d 4ebe 5ca0 abbe
000002b0: 53a6 db3e 6ec9 c93e 6c14 9c3e 3c33 e5be
000002c0: 1cca ca3e 129f 253e b9b5 fd3e 26ef 98be
000002d0: 10a5 50be e27b 9bbe dec6 913e 0edb 59be
000002e0: d3a6 2cbe f354 cfbe 46b7 f33e 9f38 5f3e
000002f0: 871c d33e de51 1b3e 2bac 0c3f 62cd 08bf
00000300: 84b3 c1bc 9f0c 11bf 029b 9e3e 2c46 92be
00000310: 387f 6e3d b6f3 513e 0cec f13e 2d6f 9abe
00000320: 789b 3a3c 9f27 c23e 0ccb 7c3e 19ff 9c3e
00000330: 508b 4a3c bc9b dd3e 6bee 8dbe bd6e 423e
00000340: 7ea3 0fbf e902 bebe 0316 0dbe 6aa7 b23e
00000350: 1fa1 cbbe d8ac 773d e7ed 4b3e 90d6 543d
00000360: e1d8 ea3e fba2 a13e ffc1 433e 0a22 4d3e
00000370: 3d64 52be 62f7 a33e 7999 a1ba 135d cd3e
00000380: 60aa b93e f547 113f b95e c1be cb94 78be
00000390: 9939 8b3b bc27 1bbe 6efc 96be 5ef4 793e
000003a0: 70f4 edbd f0d1 503e 5bfb aabe 6214 16be
000003b0: 8189 a43e 10ff 223d 4edc 6b3e 5a9f 79be
000003c0: c238 f5be 7b1e 2a3e af60 a9be daa0 5abe
000003d0: 5c45 8dbe d4fd 1b3e 738b 983e 034f e43d
000003e0: 6574 513e 7eb4 a6bd 01ed 00be 77f2 4e3e
000003f0: 24d3 3abe f1ec 67be a0ee 4a3e 0edf cb3e
-0.21860534 0.26456255 -0.10955364 0.13093352 0.5225916 0.12836565 -0.3425277 0.3206267
-0.2589514 -0.32618856 0.49514404 -0.31578523 -0.020076808 -0.53451526 0.31963837 0.12160321
-0.49731183 0.26393068 -0.23251806 -0.39805278 0.50593984 -0.21117179 -0.038233716 -0.46779335
0.1088473 -0.17551637 0.2959062 0.02945453 -0.053607244 0.35715842 -0.005813086 -0.04487788
0.3721356 0.016174974 0.069560535 -0.41465646 0.35190606 0.3737053 -0.12409749 0.114841536
-0.0016964559 -0.46200147 0.11902929 0.06541752 -0.04450247 -0.12706791 -0.059284635 -0.3344686
0.30875033 -0.38870943 -0.3785929 0.107411884 0.10296826 -0.017840907 0.4247242 0.13494226
-0.24237116 0.34715956 0.37019747 0.13786186 0.20299111 -0.3961349 -0.03429483 -0.22153094
-0.27910018 -0.23135108 0.3134455 -0.30370414 0.5731019 -0.14099279 -0.18589431 0.5128695
-0.1545694 0.6124202 0.23977205 -0.16009781 -0.4407073 -0.12222644 0.17113025 0.13411139
0.36022744 -0.020289885 -0.017388543 0.39512074 0.36679906 -0.03872554 -0.12006589 -0.104785725
0.44969952 0.1546665 0.20596042 -0.0733611 -0.30614644 -0.3299849 -0.23062809 0.044187423
0.31131333 -0.40559912 -0.14367531 0.27966502 -0.13243528 -0.13749138 -0.2570899 -0.15344337
-0.24144322 0.0007349457 -0.024227753 0.31814462 -0.20070843 -0.2880585 0.41359025 -0.38686016
0.37550354 0.19155358 -0.070534125 0.07316995 0.46560717 0.3294645 0.66461766 -0.13205145
-0.08769109 0.4537977 -0.03799133 0.070070006 0.31090814 0.14086844 -0.34921342 -0.01829187
-0.62962157 -0.32061726 -0.13999014 -0.036163088 0.073418915 0.13769154 0.022195974 0.493962
-0.46906734 0.43903276 0.08522748 -0.31944987 0.141259 -0.13499743 -0.13631126 -0.5851286
-0.19838808 -0.4804563 0.4310174 -0.23304467 -0.11351028 0.4854573 0.09819759 0.16477874
0.0698975 -0.1112344 0.15682028 -0.15830554 0.33088535 0.29130203 0.097883984 -0.1716023
0.059514597 -0.11741241 -0.15259102 -0.54710066 -0.02217036 -0.56393343 0.51427704 -0.0932046
0.5153873 0.46973947 -0.2014667 -0.33520782 0.42900333 0.3941149 0.3048433 -0.4476565
0.39607322 0.16173962 0.49552706 -0.29869956 -0.20375466 -0.30367953 0.28472036 -0.21274969
-0.16860513 -0.404945 0.47600764 0.21798943 0.41232702 0.15167949 0.5495021 -0.5343839
-0.02364517 -0.56659883 0.30977637 -0.28569162 0.058226794 0.20503125 0.47250402 -0.30162945
0.011389606 0.37920853 0.24686831 0.30663374 0.012362316 0.43282878 -0.2772096 0.18987556
-0.56108844 -0.37111595 -0.13777928 0.34893352 -0.39771363 0.06046757 0.19914971 0.051962435
0.4586859 0.31569657 0.19116972 0.20032516 -0.2054605 0.32024676 -0.0012329064 0.40110072
0.36262798 0.5675042 -0.3776758 -0.2427551 0.0042488095 -0.15151876 -0.29489464 0.24409625
-0.116188884 0.20392585 -0.33394894 -0.14656213 0.32136157 0.039794028 0.23033258 -0.24377194
-0.47894865 0.1661319 -0.33081576 -0.21350423 -0.2759198 0.15233546 0.2979389 0.11147883
0.20454557 -0.08139895 -0.1259041 0.2020968 -0.18244606 -0.2264898 0.1981759 0.39818615

actor.0.bias f4 [64]
00000000: 51d9 2cbe 4a7d 5d3e 793b 1c3e 17fc 85be
00000010: 218b 27be 41c4 443e df11 a1bd c704 8fbe
00000020: 61c7 01bd b57b 533e b3c7 173e 1bce 70be
00000030: e973 8c3d 2dd9 73bd aecc 0bbe b79d ec3b
00000040: e7f4 aabe f1b6 b23d 6f28 b03d b5da 5ebe
00000050: 566f 803e a892 d8bd a143 1ebe 048f ccbe
00000060: dd98 9e3e 2289 b83e c01b 883d a887 aebe
00000070: b29f 843e e84d 76be fdc8 843e 44c2 afbe
00000080: 39cc 173e 93a5 823e 53ad 203e 1150 bb3d
00000090: a994 283e 889f 5d3d fe2b e4bb 5db1 b53d
000000a0: ee7e 3f3c f0a2 46be a13c 0dbe 3f89 55be
000000b0: b8ec c0bd 0a8c 693d 44ce 84be 4d29 42be
000000c0: 2a7e 1c3e ac10 70be a458 153e a79b 83be
000000d0: 5ebd c53e bd96 f23b 3928 2fbe 1504 08bd
000000e0: 0d24 ef3d a935 3c3e 907a 113e 066d b63e
000000f0: 89fc 8d3e 3446 0a3e c7ae 2abe a747 973e
-0.16879775 0.21629825 0.15257062 -0.26168892 -0.16361667 0.1921549 -0.07864737 -0.27933332
-0.031684283 0.20652659 0.14822273 -0.23516123 0.068580456 -0.059533287 -0.13652298 0.0072209495
-0.3338997 0.087262996 0.08601462 -0.21763118 0.25084943 -0.105748475 -0.15455486 -0.39952862
0.30976 0.36042124 0.06645918 -0.34087873 0.25903088 -0.24053156 0.25934592 -0.343279
0.14823999 0.25516948 0.15691118 0.09146131 0.1646296 0.05410722 -0.006963252 0.0887172
0.011687977 -0.19398093 -0.1379266 -0.20853136 -0.094201505 0.057018317 -0.25938618 -0.18961067
0.15282503 -0.2344386 0.14584595 -0.2570469 0.38621038 0.0074032233 -0.17105187 -0.033207018
0.11676798 0.18379845 0.1420691 0.35630053 0.27731732 0.13503343 -0.16668235 0.29546854

actor.2.weight f4 [64, 64]
00000000: 296a 9e3d f77d 34be 6d10 73bd 6919 54bb
00000010: 6d2b 9e3e e37d 3bbe beac e4bd 276f 33be
00000020: 665d 143e fc9f ce3d 5334 38bd b1cd d5bd
00000030: c8eb 8c3d c725 203e a246 df3d 21bd 433c
00000040: 76c3 f53d 8982 a0bc 9956 2a3d f4bc 143d
00000050: bb0d 793d 2f5d 0cbe 8fb0 1e3c 5a60 8a3d
00000060: 29d7 c9bc c4b1 e63c ba8f 803d 12fb 503e
00000070: 042b 1fbe affd 143e 396a 18be 5321 1a3d
00000080: dccd d63d 0f87 c2bd b0ab cbbc d3fe abbd
00000090: 7a17 c33c ec41 3abd 407f 3a3e c374 99bd
000000a0: 1b83 acbd e0b4 973d 3965 14bc 541b cbbd
000000b0: 388b 94bd 8989 fd3d a77e 363e 75a6 0f3d
000000c0: 1988 02bc 9fca 913d c541 1dbe 6d58 493e
000000d0: ef23 3cbe 0d4d 4bbe a1c8 6dbd ca7e aebd
000000e0: 85dd 483d 6f23 353d dc93 37bd 8d30 b0bd
000000f0: a448 babd d2d7 413d 1674 463d d5fe c8bd
00000100: 7b78 1b3e 99b2 95bd 2d7e 80be d5f7 f9bd
00000110: 4849 94be 3175 a43c 6014 0a3d e76f b33d
00000120: 0e2a 08be 14ca 1ebd 5a5a 5c3e 6c55 adbd
00000130: 0b79 9cbe 0c01 7b3e 46e0 913e 1607 ae3d
00000140: 9e67 40bd 2632 9fbd b1be 923c ce43 163d
00000150: 0cf0 143d 95a3 49bd 1bdb 1fbe 5d88 0c3e
00000160: 14d4 a33d 67dc 01be 856b b83d 2691 3fbe
00000170: 0418 81bd 5ce7 553e 0cbc 0bbd 41a1 3a3e
00000180: 0e86 a53d 6a49 aa3e 676d b93d ca9d ef3d
00000190: e9e3 573d a15b 533e c53d 2ebf 6339 0f3e
000001a0: 2b40 bc3d 5e5c efbe 0375 3a3e 25f9 b43d
000001b0: 1cc0 f23e d77a ccbe 3c65 1d3e 8048 453d
000001c0: fb24 813c 5caf dcbd 26c5 8cbc 3569 4fbe
000001d0: 1020 2d3e e54b 843e 5413 b93d 5045 7abe
000001e0: d464 82be 9de0 c2bc 85c8 5ebc 9503 f2bb
000001f0: 37f2 b23d a7a9 4ebe 32b8 773e 0360 83bd
00000200: 6623 213d b72e 3d3c cb44 203e 1996 593e
00000210: 5b16 723e 6854 9dbd bcae 39bd a983 55be
00000220: 462d 2e3d 0dc8 8dbd 828c 20be cb56 16bd
00000230: 0aec 9e3e 1e1f ad3c fcb2 e4bd 58cd 9e3d
00000240: 3be9 323d 89c0 69bc 9cc0 cb3d 8a29 0abd
00000250: d4a3 afbd 58e1 133d 14ca 823e de47 94bd
00000260: 2a8f 503d 169c 553d 738f ffbd bb1d 973e
00000270: ca0d 763d d988 053d 5328 5c3d b690 e6bd
00000280: bbaa 0e3d c2c8 95be 8db0 c2bc a1b2 0dbe
00000290: 7e86 5c3d 2560 9abe 5454 f83e 2315 5abe
000002a0: 40d0 c7bd f1d3 9e3e ac69 ddbd 7b1c 783d
000002b0: f717 6dbe 9f58 763e 4071 9e3d 5583 64bd
000002c0: 4c7e 32bd 26c1 b2bc 6b7a 9fbc 861c 993d
000002d0: d95b 55be 414e 35be 05c7 e8bd 2526 893d
000002e0: 1a3d b63c bab6 173e a68a 193e 8ae1 b7bd
000002f0: ed1f cdbd 371c 973d 339a 42bd f4f6 f43d
00000300: 2a08 a13d 7092 51bd ba37 41bd 8c8c 10be
00000310: fcc3 9dbe b49a eb3a 550b 193e d6c8 6f3c
00000320: f62e abbd 61d4 03be 1ef5 7a3d 9cca e6bd
00000330: b9af 22be 31a2 2bbc 4a2f e63d 81fc 23bd
00000340: 0462 febd 12a1 da3c 1056 81bc 1f73 83bd
00000350: 40bf b63d 7b03 86bd bbe6 39be 7f29 323d
00000360: c358 08bd b7ef 0ebd 021f 83bd 3d07 63be
00000370: 3da0 74bd 63d7 47bd 2f11 2e3e 0da3 2a3d
00000380: e676 9fbd 3c14 293e ccac f93d f9ed 6b3e
00000390: d419 bb3d 7ce2 9d3e 1de7 d7be ddce 653d
000003a0: a479 5e3d 58a5 a6be 1fb3 d23c 70eb fd3c
000003b0: eb90 773e 5a27 59be dd36 04be f6ab 443c
000003c0: c7f7 323d 85d9 a3bd 997d 6f3d a863 a0bd
000003d0: e10e e73d 7ea3 ad3e b59c acbd 4980 623d
000003e0: 503f 053d 1983 76bd 9fdb b33c dc85 f93d
000003f0: bc35 573d 63cc 59bd 58da 1d3d c587 a83d
0.07735092 -0.17626177 -0.059341837 -0.0032363778 0.30892506 -0.1830974 -0.111657605 -0.1752287
0.14488754 0.10089108 -0.044971775 -0.10439623 0.06880909 0.15639411 0.10902144 0.011946947
0.12000172 -0.019593494 0.041586492 0.036313012 0.06080411 -0.13707422 0.00968565 0.06756659
-0.02463873 0.028160937 0.06277414 0.20408276 -0.15543753 0.14549898 -0.1488427 0.037629437
0.10488483 -0.09498417 -0.02486214 -0.08398213 0.023814905 -0.045473024 0.18212605 -0.07492974
-0.08423444 0.07407546 -0.0090573365 -0.09917322 -0.07253116 0.123797484 0.17821752 0.035070855
-0.0079670185 0.07118725 -0.1535712 0.19662638 -0.18373083 -0.19853611 -0.058052663 -0.08520277
0.049039382 0.044223245 -0.044818744 -0.0860301 -0.09095886 0.047324963 0.048450552 -0.0981423
0.15182678 -0.073094554 -0.25096264 -0.12205473 -0.2896216 0.020075412 0.033710837 0.08761578
-0.13297293 -0.038766935 0.21518841 -0.084635586 -0.30561098 0.24512118 0.2849142 0.08497445
-0.046973817 -0.07773237 0.017913194 0.036685757 0.03636174 -0.04922827 -0.15610926 0.13723893
0.07999435 -0.12681733 0.09004883 -0.18707713 -0.06303409 0.20889038 -0.034114882 0.18225576
0.080822095 0.33259135 0.0905407 0.11700018 0.052707586 0.20640422 -0.68063 0.13986735
0.091919266 -0.46750158 0.18208699 0.08836583 0.47412193 -0.3993747 0.15370649 0.048164845
0.015764704 -0.10775635 -0.017183851 -0.20254977 0.16906762 0.25839153 0.0903689 -0.24440503
-0.2546755 -0.023788745 -0.013597612 -0.007385681 0.08737605 -0.20181905 0.24191359 -0.06414797
0.0393404 0.011546782 0.15651242 0.21248664 0.2364134 -0.07682115 -0.045332655 -0.20851006
0.042523645 -0.06922922 -0.156786 -0.036703866 0.3103946 0.021133002 -0.11166951 0.0775401
0.043679457 -0.014267095 0.09948847 -0.03373102 -0.085761696 0.036103576 0.25544798 -0.0724027
0.050917782 0.05215081 -0.12478533 0.2951487 0.060071744 0.03260121 0.053749394 -0.1125807
0.03483079 -0.2925473 -0.023765827 -0.13837673 0.0538392 -0.30151477 0.48501837 -0.21297126
-0.097565174 0.31021073 -0.10811171 0.060574036 -0.23153673 0.24057244 0.077364445 -0.05578931
-0.043577477 -0.021820616 -0.019467553 0.074761435 -0.20835818 -0.17705633 -0.11366085 0.066967286
0.022245932 0.14815798 0.14994296 -0.08978565 -0.10015855 0.073784284 -0.047510337 0.11961165
0.07862885 -0.051165044 -0.047172286 -0.14116114 -0.30813587 0.0017975182 0.14945729 0.014635285
-0.083585665 -0.12873985 0.06126892 -0.112691134 -0.15887345 -0.010475681 0.112394884 -0.04003573
-0.12421039 0.026688132 -0.015788108 -0.06418442 0.08923197 -0.065436326 -0.18154423 0.043496605
-0.033287775 -0.03489658 -0.06402399 -0.2217073 -0.059723128 -0.048789393 0.16998743 0.041659404
-0.0778635 0.16511625 0.121911615 0.23039998 0.09135786 0.30836856 -0.42168513 0.056105483
0.054315224 -0.32548022 0.025720177 0.030996054 0.24176376 -0.21206418 -0.12911554 0.012003889
0.04369333 -0.08000473 0.05846939 -0.07831508 0.11282135 0.33913797 -0.08428327 0.055298124
0.032531083 -0.06018362 0.02195531 0.12183735 0.05254148 -0.053173434 0.038538307 0.08229021

actor.2.bias f4 [64]
00000000: 5046 31be eb52 00bd c2f1 0ebe aa94 bc3d
00000010: 434b 8c3d 9bd1 8b3d 134e c6bd 9692 5cbd
00000020: fc4e f2bd bd0d 043d 8934 9e3c 97ad 01bd
00000030: 79cc 82bd f090 e0bb 760f 3e3d 2ad7 0cbc
00000040: 116b 97bd e8cf ccbc 9f9c 213d 6953 d53d
00000050: cff0 4e3d 9525 ea3d 5305 b63c 5c1a 0ebd
00000060: 74d4 27bd 9b7f 553e 29ce d2bd 320a 18be
00000070: f058 333d 1e8c 093e 1129 91bc a52d 1a3d
00000080: 17a0 c5bb f5e9 eb3d faae d7bc 3700 7d3d
00000090: 3747 eebd b443 523b 4dad 0e3c 107f 093c
000000a0: c685 91bd 42ee b03d 36c5 88bb 307a 8cbd
000000b0: 2c1a d83d d5cb ce3d db48 cb3d 059c 25bb
000000c0: d2f3 ed3d e428 9dbb c6bc 5b3d d2d4 acba
000000d0: 2fb7 de3d b060 bdbd aeab 54be 88ac 6d3c
000000e0: ef11 f83c c3d2 61bd 4ab9 e1bd c89c a4bd
000000f0: a8f7 fb3d cd26 1bbd f2c8 043d 6b98 b53d
-0.17311978 -0.031329077 -0.13959411 0.09208043 0.068502925 0.068270884 -0.0968286 -0.053850733
-0.11831471 0.032239664 0.01931216 -0.03165969 -0.06386656 -0.0068532154 0.046401463 -0.008596221
-0.07393468 -0.025001481 0.039456006 0.104163 0.05052262 0.114329495 0.022219336 -0.034693107
-0.040974095 0.20849459 -0.10293228 -0.14847639 0.04378599 0.13432357 -0.017719777 0.037641186
-0.006031047 0.11519233 -0.026328553 0.061767783 -0.11634677 0.0032083811 0.00870831 0.0083921105
-0.071055934 0.08639194 -0.0041739 -0.06859243 0.10551867 0.100974716 0.099260055 -0.0025269997
0.11618771 -0.0047961343 0.053646825 -0.0013185984 0.10874783 -0.09246957 -0.20768616 0.014506467
0.030281989 -0.05513264 -0.11021669 -0.08037716 0.12303096 -0.0378788 0.0324182 0.08866962

actor.4.weight f4 [3, 64]
00000000: 8ac7 df3d b18d a9be 4d59 b33e 3940 79be
00000010: c2f9 0cbf 4cd7 efbe 35f6 743e cb81 183d
00000020: 57f4 fcbc e05a 21bf 1fda ecbe 8eb8 f3be
00000030: e39d 103f f239 753e b45e 20bf f92c 18bf
00000040: b687 4d3e dfdf cb3e 51c9 c7be 7760 b3be
00000050: 8bbe 6fbe f30c d8bd 7fab 1ebf 0b33 cb3e
00000060: 3d2b 40bc 5fd2 febd c9ec 0e3f 1209 eabd
00000070: e9aa a33e c5c0 31bf 2189 1ebe 2084 05bf
00000080: 2c62 b9bd f7d7 cd3d 07f0 ebbe bd7e 17bf
00000090: 329e aebd e7ee e3be 8335 913d 44be b23d
000000a0: caf8 95be 3b92 133f 950c e2be c410 f73d
000000b0: cc12 de3e 6274 123f cfe1 92bc 1f00 0a3f
000000c0: b452 073f 620f 043f 2497 c73e c98e 79be
000000d0: b508 df3d 1a14 da3e 9117 c23d 14c1 223e
000000e0: 9d26 09bf d291 793e 7222 78be 6672 153f
000000f0: d907 dc3d 380b 1e3f 4722 6fbe bbbd 583e
00000100: 1b5b 03be e0be b03c 186f 47be 75eb c83d
00000110: 401a 26bd 9302 e43d d2a1 00be 1201 a33d
00000120: 470b 46be edd3 da3c 0708 1e3e 0be5 b03c
00000130: ac3d 883d 905e 1e3d adf7 57bc f163 253e
00000140: e765 24be 8add 053e 594b 65bc edbe 69bb
00000150: 04a8 093d 4847 283e e76e 9b3d f964 fdbd
00000160: 5fc6 573d dafa b73d 800d 07bc fe9c 04be
00000170: 1d99 ecbb fbec cf3c be17 8b3d 0af3 fcbd
00000180: eba8 e23d d356 8c3d f121 e3bd 8fe6 2a3e
00000190: 61cd 13be eac0 933d 3cc1 1bbe f4a4 96bd
000001a0: c3f2 9dbd 784c 71ba fb01 923d 20be 453d
000001b0: cdd0 a03c 4679 efbc c375 b73c ee53 2bbd
000001c0: 437e 91bc 06d3 22be ec92 d03d 47d9 323e
000001d0: 13cb 353e 8b4f 01be fafc 5bbe 98df d23d
000001e0: 95ae 2a3b 33c7 0a3d 92ba 123c a86f 1d3e
000001f0: e249 ef3d 9a39 c3bd 57bc 2b3e 8c98 d33d
00000200: 987b a23c 5d95 003f d8fb 69be dc1e cc3b
00000210: 308b 1d3f b3bf 7b3e 9282 db3b 2aa6 90be
00000220: ee76 fe3d 0dad a53e 2288 f83d cc9a e23e
00000230: 8b93 e2be 0b76 0abf cac6 c23e 6c9d 9e3e
00000240: 20c2 6b3c 146c 05bf 8688 2a3f 120d fa3e
00000250: 2538 a63e ae6b b1bc 2c3e e33e f05c 80be
00000260: 6b98 16be 6339 03be 4ca4 10bf e2e8 b53e
00000270: 8819 17bf 2a28 db3e 0dca d6bd fea4 d23e
00000280: d113 02be a07e a0be f147 073f dae6 f23e
00000290: 3c19 433e 07f9 193f 3baf 823c 9fc7 fb3d
000002a0: 0708 1f3f aa23 b0be baea 0c3e 16ab 9dbe
000002b0: 497d 09bf 1e01 d5be d2b5 42be 3160 09bf
000002c0: 8d47 1ebf fe56 7dbe 2845 e4be 2312 8d3c
000002d0: bfc0 86be 1aeb bfbe f90d a43d 4c32 f6be
000002e0: e5b7 e03e c7cf 04bf a179 fd3e 0ce5 08bf
000002f0: c3fd 89be 0245 babe 0ea1 0cbb 08c7 c3be
0.10926731 -0.33115914 0.3502907 -0.24340905 -0.550686 -0.46843946 0.23922046 0.037233155
-0.030878229 -0.6302929 -0.46260163 -0.47601742 0.56490916 0.23947886 -0.62644506 -0.5944362
0.20071301 0.39819238 -0.3902078 -0.35034534 -0.2341253 -0.10549345 -0.6198043 0.3968738
-0.011729059 -0.12442469 0.55830055 -0.11427511 0.31966332 -0.6943477 -0.15481998 -0.5215473
-0.09051928 0.10050958 -0.46081564 -0.5917776 -0.08526267 -0.44518206 0.07090285 0.087276965
-0.29291373 0.57645005 -0.44150224 0.12063745 0.43373716 0.57208836 -0.01792994 0.53906435
0.5286057 0.5158597 0.389825 -0.24370874 0.108903326 0.4259346 0.09477151 0.15893966
-0.53574544 0.24372032 -0.2423189 0.58377683 0.10743684 0.6173587 -0.2335292 0.21166126
-0.12827723 0.021575391 -0.19475973 0.09810535 -0.040552378 0.111333035 -0.1256173 0.079591885
-0.1934024 0.026712382 0.1543275 0.021593591 0.06652388 0.0386644 -0.013181609 0.16151406
-0.16054498 0.13072792 -0.013995015 -0.003566678 0.033607498 0.16433442 0.07589512 -0.12372775
0.052679416 0.08983393 -0.008242965 -0.12950513 -0.007220401 0.025381556 0.06791638 -0.123510435
0.11067375 0.06852498 -0.11090458 0.16689514 -0.14433815 0.0721453 -0.15210432 -0.07355681
-0.07712319 -0.0009204815 0.07129284 0.04827702 0.019630814 -0.029232632 0.02239502 -0.04182809
-0.017760402 -0.15900812 0.10184273 0.17465697 0.17753248 -0.12628 -0.21483222 0.102965534
0.0026044 0.033881377 0.008955615 0.15374625 0.11684014 -0.09532471 0.16771065 0.103318304
0.019834325 0.5022791 -0.22849977 0.0062292647 0.6154051 0.24584846 0.006698915 -0.28251773
0.12425028 0.3235859 0.1213534 0.44258726 -0.4425319 -0.5408637 0.3804229 0.30979478
0.014389545 -0.5211804 0.6661457 0.48838097 0.3246471 -0.021657791 0.4438337 -0.25070906
-0.1470658 -0.1281486 -0.565007 0.35529238 -0.5902333 0.4280408 -0.10487757 0.41141504
-0.12702872 -0.31346607 0.5284415 0.4744175 0.19052595 0.6014561 0.015952697 0.12293934
0.62121624 -0.3440221 0.13761416 -0.3079459 -0.53706795 -0.41602415 -0.19014671 -0.536624
-0.6182793 -0.24740216 -0.44584012 0.017220562 -0.2631893 -0.37484056 0.080104776 -0.48085248
0.438903 -0.51879543 0.49506858 -0.534745 -0.26951417 -0.36380774 -0.00214583 -0.38237786

actor.4.bias f4 [3]
00000000: 4de5 eabd 09a4 38bd 69f6 fcbd
-0.11469517 -0.04507831 -0.123516865

critic.0.weight f4 [64, 5]
00000000: 9e61 303e ea61 f3bd ebc7 8f3d 65bc ed3c
00000010: bb4e 953e 4e2e a6bd 2f0b bd3d 924f b3be
00000020: 3164 d23e f894 05bf 4f97 00bd a2ec 23bc
00000030: 94ad 7dbe 7933 34bd 7458 283f 703f 8dbd
00000040: 2419 003e ca73 7c3e 1486 b03e d397 c33f
00000050: a9d2 843c 43d1 153e a220 92be 3825 04bd
00000060: e731 21c0 e98b 08be 9736 423d 4b84 50be
00000070: 1716 203d d33e d73f f157 97be af5e b83e
00000080: c2c6 b53b 92c6 97bc d1f5 863f 05de 453e
00000090: 9d4c 803d 030c 19bd 57f9 8ebe 4de4 b63f
000000a0: 39dc 25be 3b2c 6e3e 81f1 c6be da3e 94be
000000b0: 7dbb 95bf 474e edbe d467 a33e d8de 2abe
000000c0: 417b 6fbd 8f46 12c0 b83b 8cbe 3b82 9e3e
000000d0: 4a87 883e d13d 753d d7fc 813f 995a 1c3d
000000e0: b569 953b 4df8 883e 6577 003e 03e2 0540
000000f0: f5eb 143e 2838 30be 3fa7 37bd 2526 f63d
00000100: 8a91 62bf 0a92 62be 7efc d43d 5a0b 823e
00000110: fb6a f4bd c3b6 673f bffc b0be dc7d b43e
00000120: fec1 6bbd c001 15be bd83 4fbf ec13 91be
00000130: f554 bf3e 6d75 e03e 8bcb 853e faf8 0e3e
00000140: 12a4 743e d3b2 643e bfce 91bd ce74 bbbe
00000150: 7aa1 c3bf 4e51 8cbc 293a 76be ac54 aebe
00000160: f663 683e 908b 323f cfeb 303e 04ba be3e
00000170: 532b 7d3e 25b6 5abe 7df6 523f f199 833d
00000180: ae7a 8c3c f2cd 123e 57e7 8b3e 2fc4 3c3f
00000190: be37 fcbd 85cb 94be aa9e 983e f868 cbbe
000001a0: bb64 31be b5fe 003e 7361 99be 2804 b7be
000001b0: 6e61 96be 2df9 a3bf 6162 2a3e 7a93 8bbe
000001c0: f9de 373e 8af0 b13b ea4b b6bf 72d5 26be
000001d0: f59c 46bc 58f2 b03e f510 d8be 2256 203f
000001e0: 93a9 c4bc 1cd5 44be 720a a9be fd4c e53e
000001f0: 41a8 b3bf 66ed a0be bffc c33e 2bf3 bb3e
00000200: 1ad2 34bd 569d 12bd d5d1 15be 0f55 be3d
00000210: e5a5 9cbe b175 8e3e 5f9e 613f e44a b3be
00000220: 4a7f 963d d675 9abd e503 033e 34ea c1bf
00000230: 041d 5fbe c7f2 0dbe d75c d8bd e6d7 31be
00000240: 8a37 5abf 895c 90be 849f d43c e9b2 aebe
00000250: d00d 91be f54f e0be 7a49 ad3d 779d ffbd
00000260: 248d 493d 0c7a 33be 388b e93f fe64 303e
00000270: 174d 34be 8abe c43e 6b24 8b3e 6c24 f43f
00000280: 7255 70be 787c 6cbd 8998 fd3d 4401 92be
00000290: 9dbf 473f 9612 1cbe 2043 7cbd db2a 2ebe
000002a0: 9a95 403e 0acb 23be 8178 3c3e 00cb 023e
000002b0: d492 993e 1bb4 a4bd 6414 883e dadd d43d
000002c0: 794d eabd e1dd 86be 5b92 d5bc d6c9 cebc
000002d0: 5bb7 c5bc 3b08 76be 0e03 9b3e 2599 a13e
000002e0: 3673 923f 3295 b13e 8a00 b4be 2df5 a5be
000002f0: 2606 22bd affa 17c0 d4ac a73e 0602 bfbe
00000300: f929 29be 57dd 3e3c c66c 07c0 820c 163e
00000310: d1ce bdbc 2171 d93e c11f 9e3e ef31 1cbf
00000320: fb41 55bd 59a9 843e d69e 0b3e ead8 be3e
00000330: 2bcd 44bf 9001 4abe e871 70be d671 2a3d
00000340: 010a 8c3e a001 fbbe 633c b1bd 9857 a13d
00000350: 1881 8cbc 80aa 0c3e 54b4 9f3f 2b6a 68be
00000360: 28b0 cabd 4176 99be 1207 8e3e d69b e7bd
00000370: e90f 583d dd54 0dbe 538a 753c 24ae d03d
00000380: 31ef febd 4220 283e 83b5 253e ece8 963e
00000390: aa82 36bd 5812 60bf e6f3 d93e 7140 a0be
000003a0: 547d 7c3e 9acb 57be e3a7 6fbf f56d 2ebd
000003b0: 1503 603e b2f6 753e 009a 3dbe 059c 69be
000003c0: 753d 9bbe 623f 1abd 8e9b 923e 7582 cbbe
000003d0: a3f9 b63f 2a32 67be 3a05 6cbe 12b4 27be
000003e0: dd80 7f3c d5cf 86bf 211d 1cbe fdaa a23e
000003f0: 8619 cebe 203b d2bd 967a edbb 03c1 a3bd
0.17224738 -0.1188391 0.07020553 0.029020498 0.2916163 -0.08114301 0.09230649 -0.35021645
0.41092065 -0.52180433 -0.0313943 -0.010005148 -0.24773246 -0.0439944 0.6575997 -0.06896865
0.1250959 0.24653545 0.34477293 1.5280708 0.016213732 0.14630608 -0.28540522 -0.032262057
-2.5186708 -0.13334621 0.047415342 -0.20362966 0.039083567 1.6816047 -0.2955928 0.36009738
0.0055473754 -0.018527303 1.0543767 0.19322975 0.06264613 -0.03736497 -0.27924606 1.4288422
-0.1619729 0.2325906 -0.38856128 -0.28954202 -1.1697842 -0.46348783 0.31915152 -0.1668657
-0.058467153 -2.2855566 -0.27389312 0.30958733 0.26665717 0.059873406 1.0155286 0.03817234
0.0045597204 0.26751938 0.12545545 2.0919197 0.14543135 -0.17208922 -0.044837233 0.12018994
-0.88503325 -0.22126022 0.103997216 0.25399286 -0.119344674 0.9051325 -0.3456783 0.35252273
-0.057558052 -0.14551449 -0.8106039 -0.28335512 0.37369505 0.4383959 0.26131853 0.13962165
0.23890713 0.22333841 -0.07119512 -0.36612552 -1.5283654 -0.017128613 -0.24045624 -0.34048975
0.22694382 0.69744205 0.17277454 0.37251294 0.24723558 -0.21358545 0.8240736 0.06425846
0.017148342 0.14336374 0.27324936 0.7373685 -0.123153195 -0.29061523 0.2980855 -0.39728522
-0.17323582 0.12597163 -0.2995716 -0.35745358 -0.29371208 -1.2810417 0.16639091 -0.27260953
0.17956151 0.005430286 -1.4241917 -0.1629236 -0.012122382 0.34559894 -0.42200437 0.6263143
-0.02400664 -0.1922192 -0.33015782 0.447853 -1.4035722 -0.3143112 0.38278767 0.3670896
-0.04414568 -0.03579458 -0.14630826 0.092935674 -0.30595317 0.27824166 0.8813228 -0.35018075
0.07348497 -0.07542007 0.12794454 -1.5149598 -0.21788412 -0.13862143 -0.10564583 -0.17367515
-0.85240996 -0.281956 0.02595497 -0.34120873 -0.2833085 -0.43811002 0.0846128 -0.12481206
0.049206868 -0.17527026 1.8245611 0.17226025 -0.17607532 0.3842662 0.27176222 1.9073615
-0.23470095 -0.05773589 0.123826094 -0.2851659 0.78026754 -0.15241465 -0.061587453 -0.17008536
0.18807068 -0.15995422 0.18405344 0.12772751 0.29994833 -0.08042165 0.26578057 0.10393877
-0.11440558 -0.26341155 -0.026070764 -0.025242727 -0.024135282 -0.24026577 0.30275768 0.31562153
1.144141 0.3468414 -0.3515666 -0.32413617 -0.039556645 -2.3746755 0.32749045 -0.3730623
-0.16519918 0.011649451 -2.116014 0.14653209 -0.023169907 0.42469123 0.308836 -0.6101369
-0.052064877 0.25910452 0.1363481 0.37274867 -0.7687556 -0.19727159 -0.23480952 0.04161247
0.27351382 -0.49024677 -0.08654096 0.07878035 -0.0171514 0.13736916 1.2476907 -0.2269675
-0.098968804 -0.29973033 0.2773977 -0.1130902 0.052749548 -0.13801904 0.014986592 0.10189465
-0.12447966 0.16418555 0.16182522 0.2947458 -0.044558205 -0.8752799 0.42568892 -0.31299165
0.24657184 -0.21073762 -0.9361555 -0.042585332 0.21876176 0.24019888 -0.18515778 -0.22813423
-0.30320325 -0.037658103 0.28634304 -0.39747968 1.4294933 -0.2257773 -0.23048869 -0.16377285
0.015594688 -1.0532175 -0.15245487 0.3177108 -0.40253848 -0.102651834 -0.0072472794 -0.079957984

critic.0.bias f4 [64]
00000000: c268 503d 2dca a23c 6429 9d3d 20c0 8dbe
00000010: 3ecc bc3e 1acb 7f3e 89ba 773e 423c 9ebe
00000020: 5e99 ca3e 0a50 de3e fabd 70be 77a1 cabe
00000030: c2cc 27be 214f 4f3e b0cf 9fbe aaf8 a9bd
00000040: 3ef2 82bd adce 06be fff5 92be 1a9e 0abe
00000050: d0de e7bd 7aa8 933e 641e ea3d d4c1 d1bc
00000060: 284f a93e c342 3e3e b4cc dcbe 9854 8a3e
00000070: 6b65 b53d 0549 88be cbba cebc 9482 e1be
00000080: 4c39 2bbe 5e10 4b3e 0e5e 1fbe 64ce a03d
00000090: 937a 103e 9319 e33e ef2e 933e 90cd d4be
000000a0: 7b42 d83e aae3 71be 02d5 80be 9489 63bd
000000b0: f5c6 7abe df90 5c3e c170 a13e e9eb e23e
000000c0: 9189 ea3b 0d04 363e 7cfb 8dbe 288f b1bd
000000d0: e6c5 86be 1a75 be3e 29f2 84be a956 3d3e
000000e0: 8d82 9b3e 7851 d9be a19a a33c a5dd 65be
000000f0: 31d3 e33e 1054 b83e 3eb2 b8be 6857 c43c
0.050881155 0.019871796 0.0767391 -0.27685642 0.36874574 0.24979821 0.24192251 -0.30905348
0.39570135 0.4342044 -0.2350997 -0.39576313 -0.16386703 0.20245029 -0.3121314 -0.08299382
-0.0639386 -0.13164778 -0.28703305 -0.13536873 -0.11321795 0.28839475 0.11431578 -0.02560512
0.33068204 0.18580155 -0.43124926 0.27017665 0.088572346 -0.2661821 -0.025235554 -0.44044936
-0.16721076 0.19830462 -0.15563223 0.07851866 0.14109258 0.4435545 0.28746745 -0.41563082
0.4223822 -0.23622003 -0.25162512 -0.055551127 -0.24489959 0.21539639 0.31531337 0.4432061
0.0071575125 0.17774983 -0.2773093 -0.08669883 -0.2632286 0.37198716 -0.25966004 0.1849009
0.3037304 -0.42444968 0.019971194 -0.22447832 0.44497064 0.36001635 -0.36073488 0.02396746

critic.2.weight f4 [64, 64]
00000000: 4637 3f3d dba0 6bbd 0022 a7bd 8123 51bc
00000010: 288b dd3d c043 86bb d921 bbbd 94c7 123d
00000020: 89ae 503d f96b bf3d e215 d13c 0c1b 5abd
00000030: 85c5 9b3d d3cd 4b3d 8729 203e c9b6 993d
00000040: 37c1 a6bd 7183 8dbb 38c7 a93d aba7 623d
00000050: 9fc4 96bd 2e0e 14bc f2d6 363c c224 433d
00000060: 322d dcbd 4a3b 893d 6248 b43d 5c01 543b
00000070: f76c 453d bed0 afbd 5cc7 b2bb b88d 433c
00000080: fd41 adbd 2d56 3c3d ec22 40bd 84dd 133d
00000090: 7783 5e3d 92bb 513d de28 133d 3c76 813d
000000a0: 86d1 cf3c ba59 03be 19d1 0b3c a85b ea3d
000000b0: 2683 373d d514 0e3d 2498 b2bd 4a9f 82b9
000000c0: a181 b6bc 84dc b23d 8756 00bd 984e dd3d
000000d0: 0d49 633c 9978 113d c0a2 2e3c c077 8e3c
000000e0: 6c93 92bd 0711 763d 2f52 c3ba 1401 32bb
000000f0: d5cc 43bd e23e 923d 07eb 893d 0df9 5abc
00000100: e974 30bd b1e3 b33d 9499 533d 1aa1 453e
00000110: f888 19bd 11a6 f6bd 6407 0c3d 653a 25b9
00000120: 5f11 be3c 78f4 3fbe d1ba 993a aae3 083e
00000130: 4c67 83bd b455 b4bd 52fc b73d 6c57 c3ba
00000140: 9ad1 ff3d 28c8 373d db7e 53bd 118a 9fbc
00000150: 4468 ae3d f1e9 d43b a88a dd3d cfc7 853c
00000160: 4e82 d5bc c141 043e a1ac 55bb 09d8 7bbd
00000170: 4df4 a8bd a264 af3d ebf4 2c3b d8a8 6dbb
00000180: bb29 243d 32b5 53bd 5b74 09bd b1b2 ed3b
00000190: 157a b0bc 5ab4 17be 67fa 873c aa3b 8d3c
000001a0: e5b3 68bd 5eee 0d3d cfec e03c 8555 a93d
000001b0: 3dae 213e bff4 03be 2ce7 b9bd a65f 8dbd
000001c0: b625 c03c 7087 3e3d 243b 4abd 00b6 dd3d
000001d0: ca6b 033e 9ac4 cabd e82b db3d ea98 fb3c
000001e0: be91 b93c 598c 693d 4150 f13d 9419 f93a
000001f0: f4fd debd 11f8 873c 160d 47ba de87 64bd
00000200: 8b57 aabd 2826 87bd a712 b03d b9fc d2bd
00000210: f0f2 803d 21a5 74bc 5176 293c 395e 513d
00000220: 185c ff3d b91f e1bd 8e80 a2bd fc9c 51bd
00000230: 3508 65bd 5da8 083d bfbb 863d 92cf b83c
00000240: 57a0 3bbd 0206 cfbd 64ea f33d bba6 f23c
00000250: 0042 7c3d 703b 11bd db8b 05be 5748 743d
00000260: 2343 afbd 0773 fbbd fcb2 5c3d 2dbd 2fbd
00000270: ec5e 473d cb4b aabd 7a76 b1bd 25ab 2abd
00000280: 3ab9 f53c 82d4 45bd 3efd 1bbc a643 53bd
00000290: 1ced 8ebc f775 5d3c dfb5 203e 9d16 b3bd
000002a0: 3b88 63bc 9ede 43bd 722a 9bbd 8935 003d
000002b0: 7466 65bd 16bb 17bd d490 b4bd 4635 b53c
000002c0: 5ca5 c93c 0cc8 d4bd 3498 803d e524 6dbb
000002d0: 48ce 29bd 46bf 52bd 4e4e e7bd c85c 363d
000002e0: 1375 313d 33c3 18bc f072 6abd b65a 59bd
000002f0: dae3 18bd 2fd4 70bd 5012 553d 0914 b4bd
00000300: 3bb2 92bc 755e b83c d262 31be 8cf7 b73d
00000310: 8d6d 1e3d 2d31 0cbe 43e4 22be 508d 2e3d
00000320: 2b8f 47be ec0e 9ebc 5725 2f3d d5f9 153e
00000330: 200a 5cb8 1b43 963d 9c7f f23d cd98 123e
00000340: ea62 2f3b a040 9b3d ba51 ff3c 8ac1 97bc
00000350: a80a 103e 610a 793c 3577 4fbd d164 ea3d
00000360: f8bf 98bd 4fd9 f7bd 7e87 673d 1401 bf3b
00000370: f44d e8bc 3bc7 5b3d c06d 993d b863 933d
00000380: a3d7 063e 73fe 53bd e4a8 a33d 3557 943d
00000390: abda c53d d41c 42bb ebfd e3bd 89ec 553d
000003a0: c691 40be 4d7d 543d bcfc f1bc ac8b fcbd
000003b0: 3e16 a33c b478 2dbd 0dfe 4a3d 72f6 95bd
000003c0: 58f0 9ebd 3852 9a3d c5ce 8cbd f88b 35bd
000003d0: 302c 123e 75cf 26be 6920 853d 88ed 00be
000003e0: db74 f9bd 2ac3 073e 96ba a8bd 3380 4c3d
000003f0: 31df 8bbe c3fa 89bd 45a1 9b3d 4849 2bbe
0.046683572 -0.05752645 -0.08160782 -0.012764812 0.108175576 -0.004097432 -0.09137315 0.035834864
0.0509477 0.09346766 0.02552313 -0.05324845 0.07606033 0.049756836 0.15640841 0.075055666
-0.081423216 -0.0043186476 0.08289951 0.055335682 -0.07361721 -0.009036584 0.011159645 0.047642477
-0.10750808 0.067007616 0.088028684 0.0032349443 0.04819962 -0.08584736 -0.0054558944 0.011935644
-0.08459852 0.04598062 -0.046908304 0.036099926 0.054324593 0.05120427 0.035927646 0.063213795
0.025368463 -0.12827197 0.0085337395 0.11443263 0.044802807 0.034687836 -0.08720425 -0.00024914212
-0.022278609 0.08733466 -0.03133252 0.10806006 0.013872397 0.0355154 0.01065892 0.017391086
-0.07157025 0.060074832 -0.0014901812 -0.0027161287 -0.047802765 0.071409 0.06734281 -0.013365042
-0.043080244 0.08783663 0.051660135 0.19299737 -0.03748414 -0.120433934 0.034186736 -0.0001575738
0.023201643 -0.18745601 0.0011728649 0.13368097 -0.06416187 -0.08805409 0.08983673 -0.0014903373
0.1249115 0.04486862 -0.05163465 -0.019475015 0.08515981 0.0064976146 0.10817462 0.016330628
-0.02606311 0.12915708 -0.0032604116 -0.061485324 -0.08249722 0.08564116 0.00263911 -0.0036263969
0.04007886 -0.051686473 -0.03355823 0.0072539677 -0.021542588 -0.14814892 0.016598893 0.017240364
-0.056812186 0.034651153 0.02745667 0.08268265 0.15789123 -0.12886332 -0.09077296 -0.06903009
0.023455482 0.046515882 -0.049372807 0.10825729 0.12834087 -0.0990078 0.10701734 0.030712564
0.022652503 0.05701861 0.11782885 0.0019004815 -0.108882815 0.01659778 -0.00075931975 -0.055793636
-0.08317479 -0.065990746 0.08597308 -0.10302109 0.06296337 -0.014931948 0.01034315 0.05111525
0.12468737 -0.10992379 -0.07934676 -0.051175103 -0.05591603 0.03336369 0.065787785 0.022559915
-0.04580721 -0.10108568 0.11909941 0.029620519 0.06158638 -0.035457075 -0.13041632 0.0596393
-0.08557727 -0.12277799 0.05388163 -0.04290502 0.04867451 -0.083152376 -0.08665176 -0.041667122
0.02999555 -0.048298366 -0.009520827 -0.051578186 -0.017447047 0.013516895 0.15694378 -0.087445475
-0.01388746 -0.047819726 -0.07576455 0.031301055 -0.05600591 -0.037043653 -0.08816686 0.02212013
0.024614982 -0.103897184 0.062790304 -0.003618532 -0.04145649 -0.051451944 -0.11294232 0.044522077
0.04332454 -0.009323883 -0.05723852 -0.053065024 -0.03732667 -0.058796104 0.052019417 -0.08792884
-0.017907253 0.022505978 -0.17322853 0.08982763 0.038678695 -0.13690634 -0.15907387 0.042615235
-0.19488208 -0.019294225 0.04276022 0.14646085 -5.2461517e-05 0.07337018 0.11840746 0.14316101
0.0026761838 0.075806856 0.0311669 -0.018524904 0.14066565 0.015200228 -0.050650794 0.114450105
-0.0745849 -0.12101995 0.0565257 0.005828986 -0.028357483 0.053656798 0.07491636 0.07196754
0.13168196 -0.051756334 0.07991198 0.07243196 0.09660848 -0.0029619234 -0.111324154 0.05222753
-0.18805608 0.05187731 -0.029539458 -0.12331328 0.019908067 -0.04235144 0.049558688 -0.07322396
-0.07760686 0.07535213 -0.06875376 -0.044322938 0.14274669 -0.16290076 0.06500322 -0.12590611
-0.121804915 0.13258043 -0.082387134 0.049926948 -0.2731872 -0.06737282 0.07599119 -0.16727173

critic.2.bias f4 [64]
00000000: 9589 993d 7f69 b7bc bcb4 513d 7aec 11be
00000010: ee79 c03d 7234 393e 65a3 1bbd 69bb 513b
00000020: 39a7 27be 1d55 cfbd 14b6 e13d fdba 63bd
00000030: 07ba a3bd daca 883c a871 d0bd a3dd 49bd
00000040: 2f8d aabd 7041 b93d 1368 bf3c 3f94 953d
00000050: 2b41 0b3c 3d90 f5bd 3651 2c3d 01fd e0bc
00000060: 5a1d 9fbc 9c19 613c 3fdd f83c d03a c83d
00000070: 1b30 8d3d 12a7 74bd 3dd6 193c 09ad 493d
00000080: 6394 213d 7332 9abd d996 7f3e 7ede 2e3d
00000090: 558f cfbd a1fc adbd 00fa a5bd 42cb f2bc
000000a0: 37f4 87bd 7615 6bbe d210 173d 3d9b f4bc
000000b0: 4850 6cbc f4ee 1fbe 2bd1 1f3d 3e7d 793d
000000c0: 772a 44bd ef6f 153d 6356 9cbd da27 6fbd
000000d0: d9d9 fc3d 105d 8c3c d8c5 fabd a73c 00bc
000000e0: 5d15 8f3d e8c0 a6ba 6395 e73c 895f 5f3d
000000f0: 1cf5 70bd bd9a 71bd 9ced e63c 4164 d73c
0.07496945 -0.022389172 0.051197752 -0.14250365 0.09398256 0.18086413 -0.037997622 0.0032002574
-0.16372384 -0.10123656 0.11021057 -0.055598248 -0.07994466 0.01669829 -0.10177928 -0.049283635
-0.0832771 0.09045684 0.023365056 0.07303666 0.008499424 -0.11990402 0.042069636 -0.027464392
-0.019423176 0.013739016 0.030378936 0.097768426 0.06893941 -0.059729643 0.009389457 0.049237285
0.039448153 -0.07529154 0.24959888 0.042692654 -0.1013476 -0.08495451 -0.08104324 -0.029637937
-0.06638377 -0.22957405 0.036881275 -0.02985918 -0.014423437 -0.15618497 0.039017837 0.060910456
-0.04789206 0.0364837 -0.076336645 -0.058387615 0.12346239 0.01713422 -0.12244767 -0.007826961
0.069864966 -0.0012722285 0.028269475 0.05453447 -0.058827505 -0.05898546 0.028189473 0.026292922

critic.4.weight f4 [1, 64]
00000000: 80d2 ff39 7f72 2e3c 87db 083c 00b3 a13d
00000010: e406 753a 60c2 99bc d6cf 80bb b100 7cbd
00000020: 3cff da3b 4413 d03b 4267 d73a 5731 923b
00000030: efc2 ca3d b5ae 48bc 929d cd3b 8237 1a3c
00000040: 2990 f93b d93a a43b b21b bc3d 5e7a 283a
00000050: 5381 913b cac5 e23b b3d0 d83b 7f41 02bc
00000060: 2196 083a ae13 d5b8 5466 32bc b8f3 f5bb
00000070: 1858 1dbc 2163 f63c 3e2d e7bb 8fce 37bc
00000080: 25da e5bc 59d8 99bc e750 a4bd 1c3c 023d
00000090: 95f2 95bb 165d ecbb 5619 f63b 2f05 b7bb
000000a0: 8ad8 a43c 8f93 b63d 283b ac3b 74c2 883d
000000b0: 2b2c 133c dbe0 3d3d 014e 503c c670 733b
000000c0: 4e6c 533b 203c 1cbb 2a6a 793d c618 f73c
000000d0: f045 b53a 19fc 44ba 36ac a2bd 5a3b babb
000000e0: 27f5 8d3e 50a1 8d3e 5228 013d 5d8b 083b
000000f0: 2049 1c3c 528f 1a3b 522c ac3b 979b 373b
0.00048794225 0.010647415 0.008353121 0.0789547 0.0009347035 -0.018769443 -0.003931026 -0.061524097
0.0066832583 0.006349953 0.0016433971 0.004461448 0.09900462 -0.012248685 0.0062748874 0.009412648
0.007616062 0.005011898 0.0918497 0.00064269255 0.0044404655 0.006920551 0.0066166758 -0.007950186
0.0005210359 -0.00010160297 -0.010888655 -0.00750586 -0.009603523 0.030076565 -0.007054954 -0.011218681
-0.028058121 -0.01877992 -0.080232434 0.031795606 -0.004576037 -0.007213245 0.0075103445 -0.0055853347
0.020122785 0.08914863 0.0052560754 0.06677714 0.008982698 0.046357017 0.01271391 0.0037146076
0.00322606 -0.0023839548 0.06089226 0.03016318 0.0013830047 -0.0007514372 -0.07943003 -0.005683345
0.277261 0.27662134 0.031532593 0.002083502 0.009538919 0.002358396 0.005254307 0.0028016323
