trained/SimplePong/PPO_mcts_sparse_1728723065.6345081.pth (torch, 42338 bytes, 11 tensors)

actor.0.weight f4 [64, 5]
00000000: 7780 aabe a3d4 993e ecb9 1c3e 8599 413f
00000010: 2f47 d93e 9e1a 6c3e a28b a6be 9fb3 9d3b
00000020: 3e99 54be 2523 ed3e 3bf7 eabd 0275 b33e
00000030: ef2f c9b9 d73a fd3e 4eae f0be ee5e 72be
00000040: b716 cd3e 8222 833d a4b2 8a3c 3044 403e
00000050: 4a77 533e d269 57be aee8 0f3f 6bd1 56be
00000060: 9719 46be a413 c53e 76d8 cebe 35fd 263c
00000070: 5800 bdbe ea7a 76be f84d b83e 4d73 d3be
00000080: db61 a2be 754e 753b 699d 733e e56b 353e
00000090: 80bf 6ebe 0c40 81bd 03be 04be 01e7 cfbe
000000a0: c79f 0d3e 17de 3fbe 011d 053f df07 b9be
000000b0: cef6 c9bd 7ea3 053f 2ee9 193e eec4 97bd
000000c0: 0004 b6be fa85 a6be cada 403e 0bed 0abf
000000d0: eb4f 96bd 5f8f be3d ab7d cc3e 3986 e23e
000000e0: 8889 05bf 5bb3 893e ce8c 76be cb86 013c
000000f0: a95d 733e 2795 673e 022b dbbe 3148 0cbf
00000100: ac37 cc3e 79a0 babe 9816 723e ac26 a9be
00000110: 4cb3 293f 3dc6 cb3e dd0c babd a929 6c3e
00000120: dc07 033f 74ab 2ebe 5fa5 8cbe bcfb 553e
00000130: 9616 c7be 6f71 7f3e dc2a 21bf 9f36 103e
00000140: d41a aabd f538 203e bb20 dfbd 4f01 603e
00000150: 9a0a 6cbe e261 43be 52c1 883d 1e66 553e
00000160: a891 23be 569e 0a3d b059 de3e bc85 7bbe
00000170: 5f93 903e d241 ebbe 3102 7f3e 2f69 d33d
00000180: 36d0 723e 8b7b 4bbd bb55 a03e 7b5e e0be
00000190: b5fb 54be 738f 193e b9bc aebe 8b4c 04bd
000001a0: f617 a4be 5d01 f53e 5b4f 1d3d 9c43 913e
000001b0: 61e7 02be 88f9 c43d edb5 09be b7eb b6be
000001c0: a40d ad3e c2f5 99be a40f 76be 7f24 4bbe
000001d0: 829e 7d3c 8662 1dbe 8df6 223e 0aab 513e
000001e0: 5f2a c63c c717 d23c 403f ac3e 70ef b5be
000001f0: e2f4 373e 631d acbe 5337 eb3c 714c 55be
00000200: 6987 f03e 5210 c33d df17 753e ffb6 08bf
00000210: 23ad 52be 7075 bebd 50e3 573e 1d8a 033f
00000220: 684c 0b3d 3e6b e23d 1978 aabd d27e 78be
00000230: 9f71 013f 0f5f bcbe 304f 953e 3733 e2be
00000240: a8b2 a43e b255 44be 164d 073f 774a 43be
00000250: 64b1 a43e 17c2 b03c 87cb 8fbd 29e5 65be
00000260: 6365 4a3d aad0 9e3e 6803 153e 3d46 bdbe
00000270: 13a2 093f 2b05 6a3e 8e86 003f ff37 4a3e
00000280: 7f8f febe b888 113f 3e56 b83e 627d 893d
00000290: 13ed cf3e 5c47 9cbe 9567 363e 9392 433c
000002a0: 9864 0bbe cbee 403d c01b 953e 0aa9 d3bd
000002b0: edfd 5e3e 49b6 55be aa58 903e b429 fc3e
000002c0: 0944 c8be 2284 6ebe 5e8c 53be c3a2 373e
000002d0: 82db c5bd 5cd9 dc3e c0a4 813d 52d3 d03e
000002e0: 91fd f03d 5757 c5bd 0f87 f13d 7d96 56bd
000002f0: f663 053f d933 873c 6eb2 c6be 2dd4 433d
00000300: 9d5c 643e c5b4 1cbe 5db7 b6bd b480 afbd
00000310: a608 3c3e 05dd d43e 824e 0b3f 8440 d1be
00000320: 07f6 7b3e 6066 f2be 6290 9dbe ab60 e0be
00000330: 465d cf3e 320d 0bbf 37d9 d83c c2a1 8dbe
00000340: f8ca 223f 34a0 9b3e f1cf 7d3e 1ae7 c7bd
00000350: 4294 1a3e 6cfc 97be d781 7dbe ecad cfbe
00000360: 2748 9abd 1941 2cbe 9822 cc3c 5e6c 863d
00000370: 9421 bfbe 1b7c 703d 02df c33d 85ac fc3e
00000380: 91cb eebd 1afd 423e 5794 3a3c c459 7d3e
00000390: 19c6 7bbe 8f7d d0be df25 fe3e ca6b c4be
000003a0: 0336 4d3d 1317 dbbe ddb1 46be bdae 27be
000003b0: 6cf3 d83d f29d edbd 93b3 bbbe 9dc6 7c3e
000003c0: bf3c 483e 0d3e 0cbf 7067 d3be 1e9c debe
000003d0: 5c76 24be cc6f cabe 1a2e 593d 5545 4f3e
000003e0: d9c4 063e 0640 7dbe 1ccd 423e a2bc 6abe
000003f0: adff 22bb 9679 e8bd a2a9 3cbc 9f7b ec3e
-0.33301136 0.3004504 0.15305299 0.7562488 0.4243712 0.23057029 -0.32528406 0.0048126723
-0.20761582 0.46315876 -0.11472937 0.35050207 -0.0003837342 0.49458954 -0.47007984 -0.23669025
0.40056393 0.06403066 0.016930886 0.18776011 0.20650974 -0.21036461 0.56214416 -0.20978324
-0.19345699 0.38491547 -0.40399522 0.010192205 -0.36914325 -0.24070325 0.35996985 -0.41298905
-0.31715283 0.0037430797 0.23790516 0.1771694 -0.23315239 -0.06311044 -0.12963109 -0.4060593
0.13830481 -0.18737064 0.5199738 -0.36138818 -0.098615274 0.52202594 0.15030357 -0.07410608
-0.35549927 -0.3252409 0.18833461 -0.5426795 -0.07339462 0.093046896 0.39939627 0.4424303
-0.5216298 0.2689465 -0.2407715 0.007905672 0.23766197 0.22615491 -0.4280625 -0.54797655
0.39886224 -0.36450556 0.23641431 -0.33037317 0.6628921 0.3979968 -0.09084485 0.23062767
0.5118387 -0.17057592 -0.27469918 0.2089681 -0.3888442 0.24945615 -0.62956023 0.14083336
-0.08305898 0.15646727 -0.10894915 0.21875499 -0.23050919 -0.19080308 0.06677498 0.20839736
-0.15973532 0.033842407 0.434278 -0.24562734 0.28237435 -0.45948654 0.2490318 0.103227966
0.23712239 -0.049678367 0.31315407 -0.43822083 -0.20799144 0.14996128 -0.3412836 -0.03229956
-0.3204953 0.47852603 0.038405757 0.28371894 -0.12783577 0.09617907 -0.13448305 -0.3572671
0.3379947 -0.3007031 -0.24029404 -0.19838141 0.015479686 -0.15369615 0.15914364 0.20475402
0.024190126 0.025646104 0.33642006 -0.3553424 0.17964509 -0.3361617 0.028712904 -0.20829941
0.4697831 0.09524597 0.23934887 -0.5340423 -0.20573859 -0.09299743 0.21082807 0.5138262
0.034008414 0.11055611 -0.08323688 -0.24267128 0.50564 -0.36791274 0.29161978 -0.441797
0.32167554 -0.19173315 0.52852 -0.19071375 0.32166588 0.021576924 -0.07021242 -0.22450699
0.049413096 0.31018573 0.1455208 -0.3696765 0.5376293 0.22853534 0.50205314 0.19747923
-0.49718854 0.5684924 0.36003298 0.06713368 0.4061056 -0.30523193 0.17812951 0.0119368015
-0.13612592 0.04710273 0.29122734 -0.10334976 0.21776552 -0.20870318 0.28192645 0.49250567
-0.39114407 -0.23292592 -0.20659015 0.17933182 -0.096610084 0.43134582 0.06330252 0.40786225
0.11767114 -0.096357994 0.117933385 -0.05238961 0.52105653 0.016504215 -0.38808006 0.04780977
0.22300954 -0.15303333 -0.089216925 -0.0856947 0.18362674 0.41574875 0.5441667 -0.40869534
0.2460557 -0.4734373 -0.30774218 -0.43823752 0.4050085 -0.5431701 0.026470764 -0.27662474
0.63590956 0.30395663 0.24786355 -0.09760876 0.15095618 -0.2968477 -0.24756561 -0.4056238
-0.07533293 -0.16821708 0.02491884 0.06563638 -0.37330306 0.058712106 0.0956402 0.49350372
-0.11659921 0.19041863 0.011387906 0.24741274 -0.24587287 -0.40720794 0.49638268 -0.38363487
0.050100338 -0.42791042 -0.19403787 -0.16375251 0.10593304 -0.11602391 -0.36660442 0.2468514
0.19554423 -0.5478218 -0.41289854 -0.43478483 -0.16060776 -0.3953842 0.05302248 0.20241292
0.13161029 -0.24731454 0.19023556 -0.2292352 -0.0024871633 -0.11351316 -0.011515053 0.46188065

actor.0.bias f4 [64]
00000000: 45f9 2cbe 23fb c0bd 307e eabd 9987 573e
00000010: 3ca6 21be 1c55 34be ec40 99bb c22a 403e
00000020: d8e7 33be c4fc 97be bb3b b53e 3a71 103b
00000030: b7cc e03d 7e10 003e e852 9fbe ac77 28be
00000040: 5ea8 0bbd 6d91 24be 6961 90be 79af 33be
00000050: 2547 8e3d 3188 60be 882d 413e 2e34 833d
00000060: bd64 13be c676 10be 50bc 2f3e b4ce bdbe
00000070: f693 38be a650 19be 3576 8cbe 1bd5 6bbe
00000080: 415d c9be c82d 073e 7f4e 29bd 8404 2cbe
00000090: 6b78 4ebe 4af7 d0bb 3bd7 1c3d 7998 25be
000000a0: 9efa ac3e 472a 9f3e 1b1e cabd ddfb 8b3d
000000b0: c7f9 46be 2e0e 5e3e 884b 4cbe 8df9 0f3b
000000c0: c38d e13e 8718 933e 50c1 cc3d 05ab b1bd
000000d0: 9f2e ffbc 00e6 8abd e679 9e3e 3e13 30be
000000e0: a438 883d 5a60 f2bd 117a 8f3e 13ab aebe
000000f0: aa7d 88be 6bda 1abe 3661 fb3d fd27 7bbe
-0.16891964 -0.094229005 -0.114498496 0.2104782 -0.1578607 -0.17610592 -0.0046769287 0.18766311
-0.1756891 -0.29685032 0.35397133 0.0022040145 0.10976546 0.12506291 -0.3111794 -0.16451901
-0.034096114 -0.160711 -0.28199318 -0.17547406 0.069471635 -0.21926953 0.18865025 0.06406437
-0.14393897 -0.14107808 0.1716168 -0.37071764 -0.18025193 -0.14972171 -0.27433935 -0.23030512
-0.3932896 0.13201058 -0.041334625 -0.16798598 -0.20163123 -0.0063771354 0.038291197 -0.16171445
0.33784956 0.31086943 -0.098690234 0.068351485 -0.1943122 0.21685097 -0.19950688 0.0021968812
0.44053468 0.2872965 0.09997809 -0.086751975 -0.03115016 -0.0678215 0.30952376 -0.1719484
0.06651428 -0.11834784 0.28022817 -0.34114894 -0.26658374 -0.15122382 0.12274401 -0.24526973

actor.2.weight f4 [64, 64]
00000000: 5367 59be 3831 f23c c3f1 c5be 136a 493b
00000010: 6543 34bc fb7f 5a3e fff7 043e 17db 533e
00000020: 5284 993c 6b2b 443d db53 893e 5871 b63e
00000030: 22b0 d53d 78bf 62be f1bb cdbd 081a 663e
00000040: fd39 f5bd 4f12 ab3c 3894 a83e db07 93bc
00000050: de71 c1bd 36f0 4ebc 2f80 61bd cad0 8b3d
00000060: adaa ebbc b3b2 86bd b007 013e bc2d 563c
00000070: da78 933e 950f cebd 46e3 bd3d 8227 1abf
00000080: 675a c7be 26ca 22be d5a6 22bd 4323 613d
00000090: cf56 36be e204 da3c 2704 c6bd bb6b 4a3c
000000a0: 1652 983e 46ff e2bd dcf1 853d 368f 0abe
000000b0: 27a9 b93c 7dc1 18bd c400 aa3e 4384 e1bd
000000c0: 73c3 bc3e 0eef 9ebd 68de 6b3d 7e38 363e
000000d0: f9bf c63b 730f ffbd cf18 9c3c 949f c93e
000000e0: cb10 32be ed79 883e f84b f93d 2c7a d53d
000000f0: 4f45 46bc a597 773d 40d1 303e d40d 353e
00000100: 9c59 53be 77a9 e53d 9d33 30be 6ef5 91bd
00000110: 82e2 07be 92d8 913d 08bd b03d 90c8 2bb7
00000120: 2c93 b33c 332b 103e 7bdf 423e 2bb5 dc3d
00000130: d09f 1f3e b482 3abd 986b d7bd 6f2b 83bc
00000140: bd4b 3b3d 3ff2 e63b 7b92 5d3e f65b c43d
00000150: 7877 d5bc 1774 79bc 08b2 e1bb 5848 c3bd
00000160: b3c0 aa3a d82d 533d a38b a73e 23fa 613d
00000170: 936a 263e 42e1 b1bc 87de c23d 0eec c4be
00000180: 083a adbe d962 3abe d9b6 cfbd 50d7 2b3e
00000190: eaf9 62be b8c1 b9bd b2e3 8cbd f604 b9bd
000001a0: 0edf f83d 847d 5f3d 07ce ddbc 2703 ddbd
000001b0: 7121 11be 3299 00be f25b 633e 006a c13b
000001c0: b5e2 563e 29df 85bd 72f4 2c3c 4d73 5b3e
000001d0: b1b1 023d 1ed4 c8bc 1e5f 233d a0a0 943e
000001e0: af19 56be e34f 4a3d 0e6a 913d 887f 7b3e
000001f0: 7ea6 583d 634f 493e 95a1 863d 4412 643e
00000200: 60e0 713e 523d 5f3d 36d0 c63d 570f a8bd
00000210: 72fe 5bbe fbee 58bd 422d 923b bbc8 59be
00000220: ba6f e0bd 913b c5bd e4d3 e5bd ab73 b6be
00000230: 5bdb 08be a045 9a3e a646 0f3d fb97 34bd
00000240: f7a3 1a3d 14fe 483d 887e 53be 9389 cdbd
00000250: 720e 713e 806e e5bc 2717 54bd 9a45 1c3e
00000260: 8d27 adbd 46c7 183e e282 c5ba 47dc 34be
00000270: 71f8 5ebe 3c0f 623e 8249 ea3c 85b7 b73e
00000280: c940 643e d0e3 033d cdab 1dbe c08c f9bc
00000290: e592 1e3c 46df b63c 4c9e 253e a0c9 203c
000002a0: 520c 4dbd bcb3 8c3e f362 2fbe 6627 9b3c
000002b0: 07c0 6e3c 1bdd 40be cbc6 f8bb 82ba 253d
000002c0: 3ce4 05be 4e8c 1dbd 1ecb 69be 00fb 89be
000002d0: e393 723e 1a4e 333e 5910 a1bb 83ba 9cbe
000002e0: 6ab5 2c3d f923 97be 8a8c adbd 37b6 bbbc
000002f0: 9567 7f3d 1ede 64bd 2dc5 b8bd 8ce4 84be
00000300: 8f38 8fbe 32a3 6d3d 33db 83be 2dde 01be
00000310: d1da 21bd c02b 4d3e 55c2 473e 6e71 b03b
00000320: 568d 943c 1986 423e cdfb 433e 706e 893e
00000330: fd53 953d 3cfe 2bbe 89af 35bd c04d be3d
00000340: 0340 8bbd 53de 23bd 55d2 1a3e fdef 5a3d
00000350: 6f44 0bbe 2522 e23d 6468 91bd 232e 813d
00000360: 3910 8cbc 5d6e 1abd 4a06 b83e f9ed 403b
00000370: 60f6 823e 2330 f8bd 7f8b 8dbc 21f0 23bf
00000380: 561e b6be 1c74 fdbd 8468 fd3d 427f 503e
00000390: 2ae7 16be 8b43 9a3d b86e 9cbc 0ca8 59be
000003a0: 13a3 6e3e aa35 6ebd 9d22 103e 7c08 9dbd
000003b0: eb00 18be f8fd 51bd 3272 a83e ea1f 69bd
000003c0: f491 943e f334 e9bb e920 543e 5345 7f3e
000003d0: 4c72 bf3d 7308 d8bb 4123 773e 01e5 ad3e
000003e0: 699f b6bd 136e d23d 7bea c53d aef4 8c3e
000003f0: ff4b f53d 220d 83bd 50dc 333e 75c9 b83e
-0.21230821 0.029564485 -0.38661012 0.0030733391 -0.011002396 0.21337883 0.12985228 0.20689045
0.018739853 0.04789297 0.2682179 0.3563335 0.10433985 -0.22143352 -0.100456126 0.22470868
-0.11973951 0.020882754 0.32925582 -0.017948082 -0.094455466 -0.012630513 -0.055053886 0.06826933
-0.028767908 -0.06577053 0.12600589 0.013072427 0.2880314 -0.10061566 0.092718646 -0.60216534
-0.3893616 -0.15897426 -0.039709885 0.05496527 -0.17806552 0.026613656 -0.09668761 0.0123547865
0.29750127 -0.11083846 0.06540272 -0.13531193 0.022663666 -0.0372939 0.3320371 -0.11011555
0.36867866 -0.0776044 0.05758515 0.17794988 0.0060653654 -0.124541186 0.019054798 0.3937956
-0.17389219 0.26655522 0.12172693 0.10423693 -0.012101485 0.060447354 0.17267323 0.17681056
-0.20639652 0.112139635 -0.17207189 -0.0712689 -0.1327 0.07121386 0.08629805 -1.0239091e-05
0.021920763 0.14078979 0.19030564 0.107767425 0.15588307 -0.045534804 -0.10518569 -0.016011922
0.045726527 0.007047921 0.21637909 0.09587853 -0.026057944 -0.015225432 -0.006887678 -0.09535283
0.00130274 0.051557392 0.32723722 0.05517019 0.16251592 -0.021713857 0.095151 -0.38461345
-0.33833337 -0.1820177 -0.10142297 0.16781354 -0.22165647 -0.09070152 -0.06879367 -0.09034149
0.12151919 0.05456306 -0.02707578 -0.10791617 -0.14172913 -0.1255844 0.22203043 0.0059025288
0.2098492 -0.06536705 0.010556327 0.21430703 0.03190774 -0.024515208 0.039885633 0.29028797
-0.20908235 0.049392592 0.071003065 0.24560368 0.052893154 0.1965919 0.06573788 0.22272593
0.23620749 0.05450184 0.09707682 -0.08206051 -0.21483782 -0.052962285 0.0044609616 -0.21267979
-0.1095881 -0.09630502 -0.112220556 -0.35635123 -0.13364927 0.30131245 0.034979485 -0.044090252
0.037754025 0.049070433 -0.20653737 -0.10036006 0.23540667 -0.028006792 -0.051779892 0.15260926
-0.08454809 0.14919767 -0.0015068913 -0.17662154 -0.2177446 0.22076124 0.028599504 0.35882202
0.22290339 0.03219968 -0.15397568 -0.030462623 0.009678577 0.022323262 0.16173667 0.009813696
-0.050060578 0.27480876 -0.1712759 0.018939685 0.01457215 -0.18834345 -0.0075920573 0.04046107
-0.13075346 -0.038463883 -0.2283139 -0.2694931 0.23689227 0.17510262 -0.004915279 -0.30611047
0.042165197 -0.29519632 -0.08474071 -0.022914035 0.062354643 -0.05587589 -0.09021983 -0.25955617
-0.27972838 0.058016963 -0.25753173 -0.1268241 -0.03951532 0.2003622 0.19507726 0.0053846156
0.0181338 0.18996467 0.19139023 0.2684207 0.0729141 -0.16796201 -0.044356856 0.092921734
-0.06799319 -0.040006947 0.15119298 0.053451527 -0.13600324 0.11041669 -0.07099989 0.06307628
-0.01709758 -0.037702907 0.35942298 0.0029438718 0.25578594 -0.12118556 -0.017278431 -0.6403828
-0.3557002 -0.12375662 0.123734504 0.20361045 -0.1473662 0.07532414 -0.019095764 -0.21255511
0.23304395 -0.058156647 0.14075704 -0.07667634 -0.148441 -0.051267594 0.32899624 -0.0569152
0.29017603 -0.0071169077 0.20715679 0.24928789 0.09347972 -0.006592804 0.24134542 0.3396378
-0.08917124 0.10274901 0.09663864 0.27530426 0.11977386 -0.06398989 0.17564511 0.360912

actor.2.bias f4 [64]
00000000: 5f3c 34bc 40dc dfbd 8d5b 39bc b84f c8bc
00000010: fde4 e03d 1e88 08be 23d2 e53c be41 42bd
00000020: 293b d7bd 13c0 a5bc c92c d4bd 35e9 04be
00000030: 5946 aebd 531c ba3d 34b1 e63d d2f3 12bc
00000040: d1c8 9d3d 5538 273d a927 c33c ed52 493e
00000050: 451e 883d 8f95 c93c 842d 203d c176 89bd
00000060: e57e 2ebe 6cbb 9ebd be6a cdbd 1c6f 1a3d
00000070: a414 813d 7102 cc3d fd29 dabd 5cb3 bd3a
00000080: c595 eebd 9495 193b 403c b4bd a646 f23d
00000090: f8df bc3d ae8f 2b3b 30a1 e73c 1f87 363d
000000a0: c1af 66bd 6155 45bb b4e1 973d be49 143e
000000b0: 9bd5 4b3d 74ed 16be da75 e3bc bfc0 a73d
000000c0: 898b 2b3e 20c1 b03d c3f8 69bd 078a 8e3d
000000d0: d837 13bd d9e8 713d 44bc 103e d967 31bd
000000e0: a80e 6b3d cae4 933d 9105 6fbd 8169 b0bd
000000f0: 0106 76bd 6415 e6bd 4b98 cabc 9f9b 413d
-0.011000722 -0.10930681 -0.011313331 -0.024452075 0.10981176 -0.13333175 0.028054303 -0.047425978
-0.10509331 -0.02023319 -0.103601046 -0.12979586 -0.085095115 0.09087434 0.112642676 -0.008969264
0.07704318 0.040825207 0.023822622 0.1966054 0.066463985 0.024607448 0.039105907 -0.06712104
-0.17040594 -0.07750592 -0.10030125 0.03770362 0.06302765 0.09961403 -0.1065254 0.0014473009
-0.1164966 0.0023435103 -0.08800554 0.11829881 0.09222406 0.002617817 0.028275102 0.044562455
-0.056319956 -0.0030110704 0.07416096 0.14481255 0.049764257 -0.14739019 -0.027766157 0.0819106
0.16752447 0.08630586 -0.057122003 0.069599204 -0.03594193 0.05905995 0.14134318 -0.043311927
0.057387024 0.072213724 -0.058354918 -0.08613873 -0.06006432 -0.11234549 -0.024730822 0.047267552

actor.4.weight f4 [3, 64]
00000000: bba5 0f3f e5f1 a43e 9e3c da3c 3996 253f
00000010: 766a 9d3e 4f12 c8bd d259 c7be 5871 b83e
00000020: 0784 eabe 0c68 cd3e 99ab 373f c6a9 d5be
00000030: f58a edbe 1817 b5be fdff f33e 0a2d 21bf
00000040: 2190 7ebe c594 833d a4ac 0cbe df00 d8bc
00000050: fd66 c0be ea41 2e3d c2e7 8d3e 4d4e 143f
00000060: 67bf 783d 4cde f3be 28c8 0a3f 822d c23e
00000070: 1cb1 d53e a8da e3be f658 183f a9ce 0a3e
00000080: bc87 ba3e 84d0 e83e 62d5 113f 41e5 f8be
00000090: 012b abbe a0e8 3ebf a204 b7bd 575b 30be
000000a0: 0aae 41be 79b5 27be 07ff 70be 1d2e 42be
000000b0: 50a2 16bf 00bf 163e f5fb 1bbb 5e2c 983e
000000c0: a7ca 703e cd32 75be f20f 533d eb61 a6be
000000d0: abf1 013f d8af 873e c1f6 73be 73bb f43e
000000e0: e62a 7ebd 4014 833e 78fa 7cbe 5bd4 203f
000000f0: d025 0d3e 6a8d 043f a8fb 7cbe 4236 d83e
00000100: d923 c33d a0d1 47be 5995 31be d73e c5bd
00000110: a444 0f3e 5e23 e7bd 4961 0f3e 1c53 ed3d
00000120: cc1d a23c 5cee 283e 8e5f 1fbe e22c a2bd
00000130: 7012 f3bd f369 383e fd2a 74bc 48e3 1f3e
00000140: a330 e33d ff34 763e b771 1f3e b62e 533e
00000150: 112c 0e3e bb48 f5bd 8197 0fbe cdf3 133d
00000160: a69b 4cbe 7ba0 8f3d 3578 b03d f49f ce3d
00000170: 76b1 53be 3ec0 dcbd 26dd dbbd 9d09 6b3e
00000180: 50f0 10be c62f 5bbd 28d0 903d f8a5 e73d
00000190: 1a14 87bd 4a22 fc3d 844a 633e c040 f23d
000001a0: e6a1 09be f349 c1bc 26ea 903c 817d 4e3e
000001b0: 9020 053e cb09 55be 7bbb 2ebe 8095 713d
000001c0: d788 173e 8991 943d 12e7 f7bd 68b3 233e
000001d0: dd01 0dbe 8f69 4e3e 6f4e 0a3e 98c5 a83c
000001e0: dda2 d9bd c98b c13d 82ea 91bd 8255 65bd
000001f0: 5799 3dbe fe8a dbbd 95bc b93c 8fb2 fc3c
00000200: e534 2fbf 8599 46be eeab 983e fc02 23bf
00000210: b6bf f5be 5204 6a3e d4a5 6b3e 809f edbe
00000220: 93ce e83e 45fe 09bf 18d3 e1be 9a9b 053f
00000230: bedb 063f 0b3e 653e d82a f1be cba8 013f
00000240: 75de 023b e183 08be 7664 80bd 0f6a 66be
00000250: ea97 d33e 0e70 953e 7a7a fdbd 2d67 8dbe
00000260: 4c0f 573e 3c5b 163f 5fa6 f8be 6496 01bf
00000270: 60f7 98be 2b63 a33e 32ca efbe a694 afbe
00000280: 0a36 07be 7c0b dfbe df9f a8be 2503 ab3e
00000290: 8e6a 143f 8eb9 b83e 60a2 c53c 99d3 723d
000002a0: d606 f33e 1624 0e3f 906d e93e 59d2 873d
000002b0: 37d9 ac3e 21b3 f1bd f171 283e a768 11bf
000002c0: a8f0 08bf a3d5 d63a 5386 0b3e 1565 df3d
000002d0: f231 c2be f8e0 d1be 2828 2b3e 157b 9cbe
000002e0: d35c a03d a540 14bf 6d81 143f a2a1 dabe
000002f0: d0b3 bebc 3e68 2fbe 16a7 883c ccad d9be
0.5611226 0.322158 0.026640233 0.64682347 0.30745286 -0.09769117 -0.38935715 0.36023974
-0.45803854 0.40118444 0.7174621 -0.4173109 -0.46395078 -0.35369182 0.4765624 -0.6295935
-0.24859668 0.0642486 -0.13737732 -0.026367603 -0.37578574 0.04254333 0.2771588 0.5793198
0.06072941 -0.47630537 0.54211664 0.37925345 0.41736686 -0.4450276 0.59510744 0.13555397
0.36431682 0.45471585 0.5696622 -0.48612407 -0.33431247 -0.7457371 -0.089364305 -0.17222343
-0.18914047 -0.1637782 -0.23534785 -0.18962903 -0.5884142 0.14721298 -0.00238013 0.2972135
0.23514806 -0.2394516 0.05152888 -0.3249658 0.5075938 0.26501346 -0.23824598 0.47799262
-0.06205263 0.25601387 -0.24704921 0.6282403 0.13783956 0.5177828 -0.24705374 0.42228895
0.09528322 -0.1951356 -0.17342128 -0.096311264 0.13991028 -0.11286043 0.14001955 0.115881175
0.019789599 0.16497177 -0.15563795 -0.07918717 -0.11868751 0.18009166 -0.014902827 0.15614045
0.11093261 0.24043654 0.15570723 0.20623288 0.13883997 -0.11976763 -0.14022638 0.03612118
-0.1998125 0.07013031 0.08616678 0.100891024 -0.20673165 -0.10778855 -0.1073554 0.22952886
-0.14154172 -0.053512357 0.07070953 0.11310953 -0.06595631 0.123112276 0.22196394 0.11828756
-0.13440666 -0.023594832 0.017689776 0.20165063 0.13000703 -0.20804517 -0.17063706 0.058980465
0.14798294 0.07254321 -0.1210462 0.15986407 -0.13770242 0.20157455 0.13506483 0.020602033
-0.10626767 0.0945049 -0.07124807 -0.05598975 -0.18515526 -0.1071987 0.02267293 0.030846862
-0.68440086 -0.193945 0.29818672 -0.6367643 -0.47997826 0.2285321 0.23012477 -0.4641075
0.45470104 -0.5390361 -0.44106364 0.52190554 0.5267905 0.22386949 -0.47103 0.5064818
0.001996902 -0.13331558 -0.062691614 -0.22501396 0.4132684 0.29187053 -0.12376876 -0.2761778
0.21001929 0.5873296 -0.4856443 -0.506201 -0.29876232 0.31911597 -0.4683395 -0.34293097
-0.13204208 -0.4356345 -0.32934472 0.33400837 0.5797509 0.36079067 0.024125278 0.059283827
0.47466153 0.5552381 0.45591402 0.066319175 0.33759472 -0.11801744 0.16449715 -0.5680031
-0.5349221 0.0016390573 0.1362546 0.10907952 -0.3792873 -0.4099195 0.16714537 -0.30562654
0.07830205 -0.5791114 0.5800999 -0.4270144 -0.0232791 -0.17129609 0.016681235 -0.4251541

actor.4.bias f4 [3]
00000000: 40b0 32bd 1a94 30bc 02a6 3fbc
-0.043625116 -0.010777498 -0.011697294

critic.0.weight f4 [64, 5]
00000000: 29b3 c9be 11ca 093e 2bbd 433e e398 92be
00000010: 8167 9ebf a988 9bbe 2719 b83d 3bf5 773e
00000020: d3b3 68be f4fd 76bf dc84 37be 03e0 ccbd
00000030: b829 83bd 1015 cfbd 4a43 543e 237e 9e3e
00000040: d22e 74bd b223 5abe 9c69 95bd 53be 7d3f
00000050: 649b 983e 2183 b9be 00ea fe3e e206 afbe
00000060: 09f6 bbbf d172 6abe 4db4 2abe 83bd ed3e
00000070: 273f a23e 96bc 6abf 3da8 1e3d 415c f3bb
00000080: 20b8 bbbe aa62 d4be bf40 9a3f e641 d83e
00000090: 3889 50be f0a0 573e ebd6 443e 7baa 9c3f
000000a0: 82ac babe 2c3f a33d 93a7 893e 2711 02be
000000b0: 7e69 97bf 1e64 cbbe 344d 13bd c448 08bf
000000c0: 93ce b13b ebab 56bd 9a6f 6bbd 4d52 903e
000000d0: 3dfd c33b af46 efbd 6cd5 c53f 2a49 8f3e
000000e0: 9c16 9fbe a35f d3bd 4eba d6be bda2 bc3f
000000f0: ecfa 9d3e 6846 a73d 997d bcbd 4785 83bd
00000100: e9c5 b0bf 85f5 8e3e ff03 87be e170 2b3e
00000110: fbf4 2dbe af58 96bf 5638 58be fe9f a3be
00000120: ede2 5c3e 3797 82be 72f5 2cbf a22a 95be
00000130: d1c8 2a3e 7ad1 213e 8149 4cbe c1a4 923f
00000140: 3b55 5a3e 2872 87bd 7231 b43e db18 aa3e
00000150: 652b 1abf 7b10 c4be 62bf 8f3e 2371 c7be
00000160: 2191 a0bd f459 953e 5a2a 5c3d 4df2 5b3e
00000170: 8fc6 5abe 1772 e63c d09d a23f 2f77 5d3e
00000180: 0a65 aebd 7680 d6be 5232 d13e 5068 753f
00000190: d300 0bbe 71e5 c8bd 9530 00bf aee6 413e
000001a0: 6f4d a73f 28ab 73be b28c 4dbe 915b 56be
000001b0: d6b8 093e a8d0 973f 6fb7 15be 81ad 303e
000001c0: 8b08 a6be ac79 4bbe fbe8 95bf 2fb0 86be
000001d0: aba8 9abe 19c2 783d 74b4 edbe 5b9e 953f
000001e0: 92f1 9a3d 7276 ebbd 741b f63e d28d 4dbe
000001f0: a2f7 a5bf ced9 55be 68f3 7f3e 2626 b6be
00000200: 8445 c83e 5304 6dbd 313e 853e a0e8 46be
00000210: 0934 21bf 73b8 9dbd f03c 813e 1634 073e
00000220: 50b9 babd 6506 043f 38ec c5be 5439 69bf
00000230: d87a c33e 2d05 b5be 9333 c8bd 7328 9c3d
00000240: 4e56 4f3f 9bed be3e 7e6e 1b3e 22e0 853d
00000250: 3e7b 60be 620f 99bf 00cb 4f3e c142 a1bd
00000260: 5e97 0cbf ebe7 dfbc d100 4e3d 1d28 4c3e
00000270: ea9e 1dbe 5111 08be ee95 b03e 639f bfbf
00000280: 90dd 3ebd be24 b6bd 1796 963e 9bd9 23be
00000290: 4f9e 1f3f e247 01be 1b6a b43e 7f0f af3e
000002a0: 70c4 433e dde7 15bf 7896 0f3e f146 86be
000002b0: e0fb 203e c722 c13e abce b3bf 3495 0ebe
000002c0: 011b cbbe e91e 02be 43ba 84be 1d6f b13f
000002d0: 745d ccbd 956f 90bd 440c e03e e2f6 70be
000002e0: 25c1 27bf a685 26be eab8 3b3e f292 01bf
000002f0: c4d4 acbe b9ae 26bd 9cba 80be 4ed1 bc3e
00000300: fc23 843e bb8f d2bd 836b 85bf 46de df3d
00000310: d1b7 f4bd 5807 46be 297d ea3c 560d 803f
00000320: fc8b 91be 6297 eebd c460 213e 5ab2 f43e
00000330: 321a 87bf a138 073e 6281 9fbd 607b edbe
00000340: d7ba 46bd 1def a73f 7826 903e 0a53 013e
00000350: 2ffe 10be 95a5 e0be 8446 953f c918 873e
00000360: 1bbe 55be 766f d23c 810d 44be bfed 78bf
00000370: 832a a33d 0eab a83e b8a8 cc3d 5396 20be
00000380: 4115 ba3f da1a ad3e 933a bcbe ee33 783e
00000390: f523 8abe 1fe2 bebf f490 363e 07ab 86be
000003a0: a8fc bc3e 0f1e 043e 068c e73e f559 bbbe
000003b0: 724d b23e aad1 bdba 4c39 903e 9a0e a93f
000003c0: ef74 80be 71d8 1a3e 814e 11bc 5bd8 a7be
000003d0: 54c1 12bf b50e 153e 8f72 cabd 7446 c0be
000003e0: 91aa 91be b471 82be 8bd2 8c3e 4c93 cbbd
000003f0: 5abe fc3e 609b 983d 2edd c0bf 2cfd 8c3c
-0.393945 0.13455988 0.1911513 -0.28632268 -1.2375337 -0.303777 0.089891724 0.24214642
-0.22724847 -0.9648125 -0.17921776 -0.10003664 -0.064044416 -0.10111439 0.20728794 0.3095561
-0.059614964 -0.21302679 -0.07295534 0.99118537 0.29806054 -0.36232856 0.49787903 -0.3418494
-1.4684459 -0.22895361 -0.16670342 0.46433648 0.31688806 -0.9169401 0.038734663 -0.007426769
-0.36663914 -0.41481525 1.2051009 0.42237777 -0.20364845 0.21057487 0.1922261 1.2239527
-0.36459738 0.079710335 0.2688566 -0.12701856 -1.1829069 -0.3972482 -0.0359623 -0.5323603
0.005426237 -0.052410048 -0.05747948 0.2818779 0.005981116 -0.11683404 1.5455756 0.27985507
-0.31071937 -0.10320976 -0.41939014 1.4737164 0.308555 0.08167726 -0.09203643 -0.06421905
-1.3810397 0.27921692 -0.26370236 0.16742279 -0.16987984 -1.1745814 -0.2111524 -0.31958002
0.2157094 -0.25505993 -0.6756202 -0.2913409 0.16678168 0.15802565 -0.19949915 1.1456529
0.21321575 -0.066135705 0.35193974 0.33222088 -0.60222465 -0.38293824 0.280757 -0.38953504
-0.07840181 0.2917019 0.053751327 0.21479149 -0.21364807 0.028130574 1.270441 0.21627496
-0.085153654 -0.41894883 0.40858704 0.95862293 -0.13574533 -0.098093875 -0.5007413 0.18935654
1.3070506 -0.2379576 -0.20073202 -0.20933367 0.13449416 1.1860552 -0.14620756 0.17253686
-0.32428393 -0.19870633 -1.1711725 -0.26306292 -0.30206808 0.06073198 -0.46426737 1.1688951
0.07565607 -0.11497201 0.4806782 -0.20073631 -1.2966197 -0.20883867 0.24995196 -0.3557598
0.39115536 -0.057865452 0.2602401 -0.19424677 -0.62970024 -0.077011965 0.25241804 0.13203463
-0.09117377 0.5157226 -0.38656783 -0.911031 0.3817966 -0.3535551 -0.09775462 0.076249026
0.80991066 0.37290654 0.15178868 0.065368906 -0.21922013 -1.195782 0.20292282 -0.078740604
-0.5491847 -0.027332267 0.050293747 0.19937177 -0.15392652 -0.13287856 0.34489387 -1.4970516
-0.046598017 -0.08893727 0.29411384 -0.16000979 0.62350935 -0.12625077 0.35237202 0.3419151
0.19117904 -0.5855692 0.14022243 -0.26226 0.15721083 0.37721846 -1.4047445 -0.13924104
-0.3966904 -0.12707104 -0.25923356 1.3862034 -0.09978762 -0.070525326 0.43759358 -0.23531678
-0.6552909 -0.1626192 0.18332258 -0.50614846 -0.33756077 -0.040693972 -0.25142372 0.36878437
0.25808704 -0.10281321 -1.0423435 0.10931067 -0.11949123 -0.19338739 0.028624134 1.000407
-0.28427112 -0.11649968 0.1575957 0.4779232 -1.0554869 0.13205196 -0.0778835 -0.4638319
-0.048518028 1.3119847 0.2815435 0.12629333 -0.14159463 -0.4387633 1.1662145 0.26386097
-0.208733 0.025687914 -0.19145776 -0.9723777 0.07967093 0.32943004 0.09993118 -0.15682344
1.4537736 0.3380955 -0.3676344 0.2423856 -0.26980558 -1.4912757 0.17828733 -0.26302359
0.3691151 0.12902091 0.45224017 -0.3659207 0.3482471 -0.001448204 0.28168714 1.3207581
-0.25089213 0.15121628 -0.008868814 -0.32782254 -0.57326245 0.14556392 -0.098851316 -0.3755375
-0.28450444 -0.25477374 0.27504382 -0.09940204 0.49363977 0.074515104 -1.5067499 0.017210566

critic.0.bias f4 [64]
00000000: 0ec2 96bd d8a6 e5bd a086 f5be 58ad fabd
00000010: e335 e6be cf83 21be 7828 babc 9e63 5b3e
00000020: 41fb a6be 0690 f13e bf55 8c3d 2c5b 813e
00000030: 8b03 a1be 2186 15be e907 193e 3c2a 60be
00000040: 9fb7 13be cede 413d 18c9 2e3e 764f 923d
00000050: 4086 623e 54d1 c83e 354b 9c3e beaa 21bd
00000060: 4e37 98be 9b0a 8f3e ff1e d83e ffb8 d1be
00000070: d587 4cbd f430 e1be 148a eb3e 5b76 463d
00000080: 5f1c cfbc 8937 a2bd 5ad3 59bd b67c 633e
00000090: 12bf 83be 11c2 d63d 9da6 30be 6f24 283e
000000a0: 22e3 c4be a14f be3e b54e 0a3e e6a3 e03d
000000b0: 99a6 5a3e ed5b 573c e715 2ebd 1064 bab9
000000c0: 196a 2b3e 4179 c63e 6ded 13be 1de8 3ebe
000000d0: 8097 833e 44ef f2bd 948e 30be ad94 54bc
000000e0: 07c3 70be f6da 7bbe fca2 793d 0415 ffbe
000000f0: eafd 593e bad5 b7be 5082 a8bd e664 cabd
-0.07361232 -0.112134635 -0.47954273 -0.12240094 -0.44962987 -0.15772937 -0.022724375 0.2142472
-0.32613567 0.47180194 0.06852292 0.2526487 -0.31448016 -0.14601947 0.14944424 -0.21891111
-0.14425515 0.047331624 0.17068899 0.07144062 0.22121525 0.39222205 0.30526128 -0.039469473
-0.29729694 0.2793778 0.42211148 -0.40961453 -0.049934227 -0.4398266 0.46003783 0.048452716
-0.025282083 -0.07920749 -0.053180076 0.22215542 -0.25731713 0.10486234 -0.17251058 0.16420148
-0.3845454 0.37170127 0.13506587 0.10968761 0.21352614 0.013144475 -0.042501356 -0.00035551237
0.16739692 0.38764384 -0.1444604 -0.18643232 0.25701523 -0.118620425 -0.17241889 -0.0129749
-0.23511897 -0.24595246 0.06094645 -0.4982072 0.21288267 -0.35905248 -0.0822798 -0.09882526

critic.2.weight f4 [64, 64]
00000000: a654 bf3d cf6c 93bd bb90 f63d 3c46 31bc
00000010: 79e9 cd3c 624f a6bc c899 7dbd 8fd9 87bd
00000020: 5970 c7bd c2c4 023c 3b92 5cbd b0b3 c13c
00000030: 86c6 88bd bc20 adbd ea35 353d a666 98bb
00000040: 886a ffbd 5aab 223d ad0b 39bd 3559 a6bc
00000050: 17d0 843d 99cf a3bb 1655 d73d 3dd9 923d
00000060: bd0f 00be 50a1 7fbd d007 b0bd d219 e7bd
00000070: 2c57 bc3c 6762 ae3d f164 98bd fed7 0f3e
00000080: f26a 0abd 2686 8e3d 8ade deb8 f2aa 7fbd
00000090: 0bcf 903d 5903 7c3c 7959 803d c98a 803d
000000a0: b846 a3bc 319d a7bd 9bf1 efbc 043b 663d
000000b0: aa98 d93d 4eb2 443d 17de 7cbd 144b 9fbc
000000c0: 7f00 8b3d 9d5b dfbd 2622 173d 134f 22be
000000d0: 9ce3 03bd 7e8b 44bc a163 15be c4c0 9bbd
000000e0: 562e edbc 44dc 31bd 0679 633d 2582 833d
000000f0: 1301 963d cee4 9ebd 3fce 78bc 4442 17bc
00000100: 581b ee3c 0eb9 cd3d 88fa 2f3d 2930 d73d
00000110: 3c4f e2bc f3b9 b53d 6209 37bd 8347 1bbd
00000120: c0fa 8cbd a2b7 c8bb 23e8 133e bef3 c73d
00000130: ea66 dcbd 6552 15bd f44d 933d 5952 38bd
00000140: 14b1 0c3e 4fda c4bc 22d2 e23d 5a83 a6bc
00000150: d699 4abd 0e07 b13d f7c3 9cbc eaa3 743d
00000160: 8a2a 44bc 61aa 0bbe a009 50bd 17d0 3a3e
00000170: c708 47bd e784 26bd 4758 47bd 0fb9 b7bc
00000180: 462d 923d 8a05 983d c649 00bc 5a15 73bb
00000190: 0950 c2bd 804f ae3d cc11 123e a98e a6bd
000001a0: 0eae 3a3d d805 c5bd 8dc8 d13d 656b 6ebc
000001b0: 534e bbbd c963 87bd 0272 ee3b d693 453d
000001c0: 7179 dbbc 3fff 57bd 2a47 403d aa0b 7ebd
000001d0: f94d 7cbd a277 b9bd a2de 923d 64eb 01bd
000001e0: 26a6 923d 49a2 5bbd b88c ac3d 116e c2bc
000001f0: 3344 bcbd 1377 df3d 3f35 2e3b 44be d53d
00000200: 40b4 e8bd a187 1c3e f063 8d3c fc40 163d
00000210: ea3f 6e3c afa1 cd3d 7dda 283c 70e5 053d
00000220: cbec 82bc bc12 bcbd ec73 883d 1505 533c
00000230: 65ee cebd 775c 0e3c 16bc 7fbc 4eea 403e
00000240: b8ec 09bd b668 633d 3dac 163d c48b d5bc
00000250: 39bd d2bc 21f8 c33c cbac edbd 2c01 5dbc
00000260: 8d0b 03bc 689e 0ebe 960e 14bd 81e5 213e
00000270: 3710 f33b a6c5 d5bd 33a6 c8bd 1e21 88be
00000280: dbd5 1c3e dc8e f73d 995d e13c d95d 713d
00000290: e03e 8b3d 73b1 6a3c 7183 2c3d c431 0dbe
000002a0: e8b0 9a3c 2867 c9bd 25f6 d23d 89e2 7b3c
000002b0: 3f44 2e3d 835f 8ebd a18e 133d 3d34 bcbd
000002c0: b907 093e d7d1 dfbd e33c 1a3e dc79 fb3c
000002d0: c382 f8bd e662 bebc cbde 843d 4318 073e
000002e0: 72fc f53d 5f3b d53d 5c7f 89bd 74ed 163e
000002f0: a325 f23c 74a3 abbd 12ba 4ebd 8d97 af3d
00000300: 5eb0 c7bd a1b2 04be c4f1 95bd dedf 983c
00000310: ceb9 22bd af75 333d b161 ba3d bf4e de3d
00000320: 0ab9 a23c 8adc e5bc a311 373e 6119 433e
00000330: 7125 7d3c 9d56 893d 8a34 63bd 24d1 133e
00000340: f122 d83d 691d debd d12a b33d 4845 2f3d
00000350: cb24 e7bd a7f3 ba3d 0048 93be 5d42 8b3d
00000360: a296 c9bb e5a3 483d 98f7 163c d1ee b13c
00000370: 06c7 133d 8548 0ebd 3d3a 17be ffcb 0ebe
00000380: f655 f0bd f67a d6bd 3d32 e2bc e8a4 e83d
00000390: 8526 ab3d cfee f43d 759f cbbd 6912 a8bd
000003a0: bac8 533c 90f6 913d 12a3 9d3d 7be3 e23b
000003b0: 5532 63bd c732 733c 4b93 963d d218 823d
000003c0: 4dde 8bbd 1620 b13d 3e1e 5d3d 1c48 b93d
000003d0: 8ca0 703b b317 99bd 1295 d0bd fd75 b3bd
000003e0: 150d f93d 6754 133d a610 9e3b 1fc0 f53d
000003f0: 8f4a 2cbe 83c2 fe3d 0414 aabd 294f 183d
0.09342317 -0.07198488 0.12039324 -0.010819968 0.025135743 -0.020301525 -0.061914235 -0.06633293
-0.097382255 0.007981481 -0.053850394 0.023645252 -0.0667849 -0.08453509 0.04424087 -0.0046509085
-0.12471491 0.039714195 -0.04517715 -0.02030621 0.064850025 -0.004999113 0.10514276 0.07170341
-0.12506004 -0.0624097 -0.0859524 -0.11284222 0.022990786 0.085148625 -0.07441128 0.14047238
-0.033793397 0.069591805 -0.00010627236 -0.062418886 0.0707074 0.0153816575 0.062670656 0.06276471
-0.019931182 -0.08184279 -0.029290011 0.056208625 0.106248215 0.048021607 -0.06173524 -0.01944498
0.06787204 -0.10906146 0.0368978 -0.15850477 -0.032199487 -0.011996148 -0.14588787 -0.076051265
-0.028952759 -0.043422952 0.05553534 0.064213075 0.07324424 -0.07758485 -0.015185892 -0.009232108
0.029065773 0.10045062 0.042963535 0.10507233 -0.027625673 0.088733576 -0.044686683 -0.037909996
-0.06883764 -0.0061254064 0.14444022 0.09763287 -0.10761817 -0.03645553 0.07192603 -0.045000408
0.13739425 -0.024029879 0.11075236 -0.020326305 -0.049463116 0.08643924 -0.019136412 0.059726633
-0.011973033 -0.13639213 -0.05079043 0.18243442 -0.048592355 -0.04065409 -0.048668172 -0.02242711
0.071375415 0.074229315 -0.007830089 -0.0037091584 -0.09487922 0.08511257 0.14264601 -0.08132679
0.045576148 -0.09620255 0.1024333 -0.014551972 -0.091457985 -0.066108294 0.0072767744 0.04823669
-0.026791306 -0.052733656 0.046942867 -0.062022842 -0.061597798 -0.09056021 0.0717137 -0.031718627
0.071605965 -0.053621564 0.084252775 -0.023734124 -0.091926955 0.109113835 0.002658203 0.10436681
-0.11362505 0.15286113 0.017259568 0.036683068 0.0145416055 0.10040604 0.010305998 0.03268951
-0.015982052 -0.09183261 0.06662735 0.01287963 -0.10104064 0.0086890375 -0.015608808 0.1883938
-0.03367302 0.055519782 0.036785353 -0.026067622 -0.025724994 0.023922028 -0.11605223 -0.013489049
-0.007998359 -0.13927615 -0.036146723 0.15810205 0.0074177044 -0.10438089 -0.09797325 -0.26587766
0.15315954 0.12087795 0.027510451 0.05892739 0.06799102 0.014324534 0.04211754 -0.13788515
0.018883184 -0.098341286 0.103008546 0.015373834 0.042545553 -0.06951811 0.036024693 -0.09189651
0.13381852 -0.10928696 0.15062289 0.030697756 -0.12134316 -0.023240518 0.06487807 0.13192849
0.12011041 0.10411715 -0.06713745 0.14739019 0.029558962 -0.083807856 -0.05047042 0.08573828
-0.09750436 -0.12958767 -0.07321504 0.018661436 -0.03972798 0.043813404 0.091006644 0.108548634
0.019863624 -0.028059263 0.17877822 0.1905265 0.015450821 0.06705973 -0.055470027 0.1443525
0.105535395 -0.10845453 0.08748401 0.04279068 -0.112863146 0.09128504 -0.2876587 0.06799767
-0.00615199 0.048984427 0.009214304 0.021720322 0.036078475 -0.03473713 -0.1476831 -0.13945006
-0.11735146 -0.10472672 -0.027611846 0.11359578 0.083569564 0.119596116 -0.099425234 -0.082066365
0.012926275 0.07127106 0.07697119 0.0069240904 -0.055467922 0.014843649 0.07352313 0.0635239
-0.0682951 0.08648698 0.05398392 0.09046957 0.0036716787 -0.074752234 -0.10184683 -0.08762739
0.12160698 0.035969164 0.004823762 0.11999535 -0.16825317 0.12439444 -0.08304599 0.037184868

critic.2.bias f4 [64]
00000000: c6dd 9f3d bbfb d3bc 1160 18be 5f93 863d
00000010: 34e2 d73d 1735 083e 879e 40be aa09 4bbd
00000020: f936 4abd 2557 373d 29bc 303d 15d2 ba3d
00000030: 9bfb 5439 5ff8 07bd 39ec 5bbd 6cc6 28be
00000040: 140a 26bd f951 b53d 81fb 9f3d 8f7e 2cbd
00000050: ec1d b93b d1f3 373d 419e 82bc 2331 84bd
00000060: d9d7 073d 4d48 cb3c bd13 b83a b3ea 1f3d
00000070: 2644 283d bbcb e6bd 77a8 39bd 031f 4a3d
00000080: 17ab d5bd acb8 523d 7e04 243d b4eb f6bd
00000090: d83a b63d 56da 88bd ed08 663d d72c a7bd
000000a0: 0c1f d3bc 135b 923d 31fc 20be fb58 d0bc
000000b0: bebd 62bd a3b4 27bd 936a c13c 6706 0dbe
000000c0: 53dc af3d d759 3a3d efc1 b9bd 0af6 3a3c
000000d0: 9991 2a3d 96b6 bcbd 5514 0bbd 084d 46bd
000000e0: af2a a8bc ec61 92bd 4924 b03d af71 d43d
000000f0: 3bd0 99bd 2a55 103e 3dad c8bd 0ded f73d
0.07805972 -0.02587687 -0.14880396 0.065710776 0.10541192 0.13301502 -0.18810473 -0.049569763
-0.049368832 0.044760842 0.043148194 0.09122101 0.00020311626 -0.03319585 -0.053692076 -0.16481942
-0.040536955 0.08853526 0.078116424 -0.042112883 0.005649319 0.044910256 -0.015944602 -0.064546846
0.033164833 0.02481475 0.0014043968 0.039042186 0.041080616 -0.11269327 -0.045326676 0.04934598
-0.104330234 0.051445648 0.040043347 -0.120566756 0.08897942 -0.06682269 0.056160856 -0.081628494
-0.02577164 0.07146277 -0.15721203 -0.025433054 -0.055356734 -0.040943753 0.023610389 -0.13771974
0.085869454 0.045495834 -0.09070193 0.011411199 0.04164276 -0.09214513 -0.033954937 -0.048413306
-0.020528166 -0.07147583 0.08600671 0.10373246 -0.0751042 0.14094988 -0.097986676 0.12105761

critic.4.weight f4 [1, 64]
00000000: e581 843a 77c0 fa3a 8d5e b23a 3abe 2f3c
00000010: a002 3b3a 0c0b 20bd 7670 5d3e e680 a7bb
00000020: fef8 153c 0967 83bc 8e73 cebd 4d33 95ba
00000030: eeec 2c3e e1a1 60bb 4433 4cbc 9714 c03c
00000040: 1d7a 77ba 3df5 b3b9 236a 863b 8ca1 2fba
00000050: a207 533b a79b 1fbc cc55 dbbd 16a3 583c
00000060: 52e6 8fbc 3b6c ef3a b53f f63b aa81 c8bc
00000070: 9e6a c5bc db55 79be 25f2 b73d 144e f337
00000080: 67b6 e2bd 5b0e a13b 7b49 c23e dfd0 0d3e
00000090: 0911 36bb 6ace 3b3c a3a0 873b 947f 31bb
000000a0: aa37 79bb dbaa b73b a605 493d f5e2 a7bb
000000b0: d51d b4bb 9e38 003c 7b85 c4bb f501 a73d
000000c0: f14d 373a d964 923d 0891 b1bc 7500 863c
000000d0: 28b5 b9bc c31e 43bd b6fe 1bbb 476c d9bb
000000e0: e7eb 16ba f526 693e 65b7 43ba d4a7 a8bb
000000f0: 3621 e73c c51b 823b f70f a73a ca8b 13bd
0.0010109512 0.0019130845 0.0013608501 0.010726506 0.0007133875 -0.039073035 0.21624932 -0.0051118014
0.009153603 -0.016040342 -0.10080634 -0.0011383087 0.16887257 -0.0034276175 -0.012463395 0.023447318
-0.00094404985 -0.00034324257 0.004102008 -0.00066997926 0.0032200594 -0.0097417 -0.10709724 0.0132224765
-0.01756588 0.0018266508 0.0075149187 -0.024475891 -0.02409869 -0.24349158 0.08981732 2.9004215e-05
-0.11069947 0.0049150414 0.37946686 0.13849209 -0.002778115 0.011462787 0.0041390224 -0.00270841
-0.0038027563 0.0056050844 0.049077652 -0.005123491 -0.0054967203 0.007825999 -0.0059973574 0.0815467
0.000699251 0.071481414 -0.021675602 0.01635764 -0.02266939 -0.04763676 -0.0023802943 -0.006635222
-0.0005757198 0.22768767 -0.00074659876 -0.00514696 0.028214078 0.0039705955 0.0012745847 -0.036021985
