trained/SimplePong/PPO_frequent_1728760753.142975.pth (torch, 42210 bytes, 11 tensors)

actor.0.weight f4 [64, 5]
00000000: 2d50 53be 7ba2 f63e f5fd c8bd 8e3e a83e
00000010: 2298 a5be 4593 adbe 61bc 673d f3ca 9abe
00000020: 1647 d33e f727 b6be 68d3 6fbe 3b34 4c3d
00000030: 3335 74be d510 153e 5f76 a23e 2b69 2ebe
00000040: d959 d73d bcc7 38be 5601 323e d388 663e
00000050: b39a 99be 0cac 283e cc01 413e a783 083f
00000060: 2251 eebd e100 ce3e b6cf 20bd 24c8 04be
00000070: 2740 82be 494f 91be e4fe df3e c458 803e
00000080: 9087 16be 939a 9b3e bd6b 5b3d e8fb 01bf
00000090: 4a7d fb3e b238 82be 04d6 ee3e 9149 43be
000000a0: b914 4b3e fd1b 063f a2e7 bebd c6ff c83e
000000b0: 1471 e1bb cd91 03be d785 0bbe 0fee d33d
000000c0: 671d 87bd 3e58 a53e 0fca b53e 2d16 4fbe
000000d0: 203c 4a3d 66f8 ccbe 0be2 0a3e 7f48 d73e
000000e0: 5a70 94be 853f 313e d09c 01bf f3f4 ac3e
000000f0: 7c36 e23e c847 d3be d432 983e cb2e 33be
00000100: c84d 1dbd 5cbd 223e 79e1 d4be 3b14 4e3b
00000110: 193b 933e 5528 8a3d a4a3 01bf 6044 853e
00000120: 024c c43d f41d f4bc 0c32 af3e 3f18 4ebe
00000130: 0636 02bf cc0d 14bc 84f0 13bf 6285 693e
00000140: 989c dcba 9aa1 9e3e e5c9 9dbe 4218 fb3e
00000150: 2ce0 e53e d84b bfbe 2b4f ab3e 2a51 093e
00000160: ad13 2e3d bb0d e33c 6a7c 293e 8cc7 9bbd
00000170: f555 39bc 1437 05bf fd1f 5a3d f4cd febe
00000180: 30fd bf3d 5716 f1bd c310 e33e 92b0 ba3d
00000190: 7c88 bdbe d70f f63e 25dc c03e 9232 bf3e
000001a0: ecbd b83d 150b 1c3e 8cf7 b03e 6d83 bdbe
000001b0: 92c0 3b3f 5800 16be d684 86be 0d77 71be
000001c0: e9a2 d23e 8de2 1bbf 43f2 8b3d d09e 893e
000001d0: 6f02 0b3d 5694 1ebb 5983 13bf 67b2 a4be
000001e0: 42ec 5bbd 5b0c e5be 31f4 123d cebe e1be
000001f0: a8b2 973e dcca fbbd 6a2b 023f c227 a63e
00000200: ac20 e03e ddfc 45be 065b fe3d 30c2 fabc
00000210: d25e 22bc 9fad aebe ea5c f0be d723 f2be
00000220: c865 703c a7a1 7d3e b686 94be 530b 98bc
00000230: 8150 073f eb6e 84be a90a 02be 641b d2be
00000240: 3c86 2a3e f790 543e 0406 13bf 0020 543e
00000250: 4f61 8fbe 2e46 9e3e e934 743e b790 e13e
00000260: 427b 3abb 6255 413f f011 a1be d7d9 b9be
00000270: 514f 953e 131b 2d3e 8a5a 213f 6407 e33e
00000280: 2beb 0c3e e2ad ad3e ed22 993e 365a 023f
00000290: f083 333e 77a3 9f3e 7291 c2be 0131 a13c
000002a0: a662 0fbf 02ed 153e 49d9 00bf e858 893e
000002b0: f05b 59bd cb39 9e3e ff0f 4ebe 4b23 fabe
000002c0: fdbd a43e 9e89 0d3e 1b68 c63e 44ca b0be
000002d0: 084b 793d 7bd7 bb3e 3546 f43d f480 e03e
000002e0: f9d7 f63e d4e0 753e 503f bdbe 67c0 f33d
000002f0: 5595 c9bd e4ed 05be b17f 05bf 9e74 113f
00000300: 9c62 193e ec27 993e 754c 26be 3e3d b63d
00000310: e7d1 c63c ac52 e6bd 5fdf 1b3f 9136 6ebe
00000320: 3b5e d7be 6bd8 cd3d 8acc 3fbd 6da7 2e3f
00000330: 064d 563e 88b8 00be 9c52 493e f4a2 4fbe
00000340: 5cdd a43d a90a a23e 5cdb b33e d1ca fdbe
00000350: 8375 51be 5a31 1abf 8dba 973e 0dfb 2b3e
00000360: cac1 9abe 1f9f 55be 4aff 3ebf 2a09 c0be
00000370: 7d68 02be c61d 043f 0a2d 323e 6fa6 c9bc
00000380: f784 663d e9a2 f03e ecce 0cbf 5ad0 2bbe
00000390: 5b78 2fbf 6320 0dbe 0307 6dbd deb7 03bf
000003a0: 18b8 203d 1a2e 05bf 3843 403e c55a 17be
000003b0: ba77 6dbe 1ef8 cb3e ba89 31bf e613 883e
000003c0: 20ce 80be bd5e d13e 1391 a43d bd78 dcbc
000003d0: b37d b1be 248b 343e cecc 18be fd36 8dbd
000003e0: f3f9 23bf f424 acbe 459c 98be 019c 9cbc
000003f0: a31a 3abe 88f1 803e a602 c0be 2fcf ecbe
-0.20636053 0.48170838 -0.098140635 0.32860225 -0.3234263 -0.3390142 0.056576136 -0.30232963
0.41265172 -0.35577366 -0.23420489 0.0498545 -0.23848419 0.14557202 0.31730935 -0.17032306
0.10515184 -0.18044943 0.17383322 0.22513132 -0.3000084 0.1647188 0.18848342 0.53325886
-0.116365686 0.40235046 -0.03926059 -0.12966973 -0.2543957 -0.28380802 0.43749154 0.25067723
-0.1470015 0.30391368 0.053569544 -0.50775003 0.49119025 -0.2543388 0.46647656 -0.19071032
0.19832124 0.52386457 -0.09321524 0.3925764 -0.006879935 -0.12848587 -0.13625275 0.103481404
-0.06597405 0.32293886 0.3550572 -0.20223303 0.049373746 -0.40033263 0.13562791 0.42047498
-0.28991967 0.17309387 -0.506299 0.3378063 0.44182193 -0.41265702 0.2972628 -0.17498319
-0.038404256 0.15892547 -0.41578272 0.0031445164 0.28756025 0.06745974 -0.5064032 0.26028728
0.0958481 -0.029799439 0.3421787 -0.20126437 -0.50863683 -0.009036493 -0.5778887 0.22804788
-0.0016831337 0.30982667 -0.30818096 0.49041945 0.44897592 -0.37362552 0.33458838 0.13409868
0.042499233 0.027716508 0.16551366 -0.0760642 -0.011311998 -0.5203717 0.053253163 -0.49766505
0.093744636 -0.11771839 0.44348726 0.09115709 -0.37018192 0.4805896 0.37667957 0.3734327
0.090206 0.15238602 0.34563863 -0.37014332 0.73340714 -0.14648569 -0.2627322 -0.2358057
0.41139916 -0.60892564 0.06833317 0.26878977 0.033937868 -0.0024197302 -0.57622296 -0.3216736
-0.05369211 -0.4473599 0.03587741 -0.44090885 0.2962849 -0.12294552 0.50847495 0.32452208
0.43774927 -0.19334741 0.12419705 -0.030610174 -0.009910302 -0.34116837 -0.46945888 -0.4729297
0.014672704 0.24768697 -0.29009026 -0.018560087 0.52857214 -0.25865874 -0.12699379 -0.41036522
0.16652769 0.20758425 -0.57431054 0.20715332 -0.28003928 0.30912918 0.23848309 0.4405572
-0.0028454815 0.7552091 -0.31458998 -0.3629901 0.29162076 0.16904859 0.63028777 0.44341576
0.13761584 0.33921725 0.2990946 0.509189 0.17530799 0.311794 -0.3800159 0.019676687
-0.560099 0.14641193 -0.5033155 0.26825643 -0.053066194 0.30903468 -0.2012329 -0.4885505
0.321762 0.13822028 0.387513 -0.34529316 0.06086257 0.36687836 0.119274534 0.43848383
0.4821165 0.24011546 -0.36962366 0.11901932 -0.09842936 -0.1307903 -0.52147967 0.5681857
0.14979023 0.2991327 -0.16240104 0.088984 0.024270011 -0.11246237 0.6088771 -0.23263003
-0.4206408 0.10051044 -0.046825923 0.6822422 0.2092782 -0.12570393 0.19660419 -0.20277005
0.080500335 0.31648758 0.35128295 -0.495688 -0.20454983 -0.60231555 0.29634514 0.16794987
-0.30225974 -0.20861481 -0.7460829 -0.37506992 -0.12735172 0.5160793 0.17399994 -0.024615495
0.05627915 0.4699929 -0.5500324 -0.16778699 -0.6854302 -0.13781886 -0.057868015 -0.51452434
0.039238065 -0.5202347 0.18775642 -0.1478072 -0.23190203 0.39837736 -0.6935078 0.2657768
-0.2515726 0.40892592 0.08035483 -0.026913041 -0.34666213 0.17631203 -0.14921877 -0.06895254
-0.6405327 -0.33621943 -0.29806724 -0.019117357 -0.18174224 0.25184274 -0.3750202 -0.4625182

actor.0.bias f4 [64]
00000000: 9667 31bb c36a 8f3e ea01 4c3e 2b12 99be
00000010: da39 a23e 2416 8f3e 665f 8dbe 1f6c 123e
00000020: 7f34 c5be 5213 40bc 7184 823e 9fb0 79be
00000030: 59f4 89be 4a21 b03e 8aa4 8d3d c1a8 1d3e
00000040: 1a2f 6ebe 9954 89bd 5916 853d c505 1b3e
00000050: 8e18 d6be eeb4 9dba e3d2 d73d 787e bebd
00000060: c47d b4bd 48b9 84be 91d0 0e3d 8636 1d3e
00000070: 22fc 313d 7618 b53e f8e4 f23d 9985 afbe
00000080: 1467 acbd 378e 9bbe a9bb bd3e d42c 873e
00000090: 9a25 4bbe 0c8b 913d aefc 1bbe b27c 30bc
000000a0: 7015 ccbc 3bad 8d3e de13 ac3e 71d9 723e
000000b0: 0606 09be 486c 793d 7297 883d 25c3 a2be
000000c0: f4cd c13d 3c78 64be 79f1 873e eb3e 663c
000000d0: 84c4 90be 0382 4e3e f059 7cbe fb71 74bd
000000e0: 4205 2b3e 0796 2ebe 9ec9 99be 2116 11be
000000f0: 8f60 5c3e 5fd3 c73e 2e32 853e 59ea 70be
-0.0027069799 0.2801114 0.19922605 -0.29896674 0.31684762 0.2794658 -0.27611846 0.14299057
-0.38516614 -0.011723356 0.2549167 -0.24383782 -0.26944235 0.34400398 0.06916149 0.15396406
-0.23260155 -0.06705589 0.06498403 0.1513892 -0.4181561 -0.0012032071 0.1053827 -0.09301466
-0.088130504 -0.25922608 0.034866873 0.1535283 0.043453343 0.35370225 0.118600786 -0.34281614
-0.08418098 -0.3038194 0.37057236 0.2640139 -0.19838563 0.07106599 -0.15233108 -0.010771917
-0.024912566 0.27671227 0.33608907 0.2371576 -0.13381204 0.06089428 0.06669511 -0.31789508
0.094631106 -0.22311491 0.26551417 0.014053087 -0.2827493 0.20166783 -0.24643683 -0.059679013
0.16701224 -0.17049418 -0.30036634 -0.14168598 0.21521209 0.3902845 0.26014847 -0.23526897

actor.2.weight f4 [64, 64]
00000000: 41ea 79bd 67b7 2bbe 305b 893d a8e9 8c3c
00000010: f9cd 01be 1b46 4e3d 9d59 37bd 7383 83be
00000020: a644 30bd d0c7 413d 069f c5bd b4bd 8c3e
00000030: f513 6e3e d36d 3fbe 168b d6bd 1584 9abd
00000040: 8f94 cf3d 4cd8 4dbe 1b79 a4bd 739b efbd
00000050: 975b c43c 52c7 f6bd 5896 923d 0c48 7bbd
00000060: 3c19 933d 1a65 b1bc baf8 093d 4f60 b8bd
00000070: 4acf f83d e021 33be 0b6d bcbd 41b3 113d
00000080: 6347 e2bd 6e62 8d3d 681d 5cbe 396c a7bd
00000090: 788e 9abd f788 a73d 542c 52be 4b42 30bd
000000a0: 350a e43d d3ef 85bc 312c da3d f869 903c
000000b0: 6ad6 ddbd d30d 313e 0b93 73bc 6c52 023e
000000c0: 72ed 2dbe 7437 a93b a219 3bbe 65bf e03d
000000d0: e5bb 833d cd2f 0d3d ceb6 9a3d c623 4bbe
000000e0: 3b84 de3d abcd abbc 3eae 193e f688 9fbc
000000f0: 04d6 57be f54b bfbd 00da 77bd 95ee dc3d
00000100: be2c 2cbe 8854 3dbe 661d 1abe aa8b fcbd
00000110: 1525 38bc 652b 933d 0ce7 66bd 0a5d afbe
00000120: b061 8ebd b67b 9dbd 72e4 013e 6647 4c3e
00000130: 24e4 b13e c9dc 66bc b8a2 78be 08fb 163e
00000140: f04d 0abb c46a b3be e67b 83bd 34e5 55be
00000150: 6682 7cbe 196b 24be f0dd 7a3d 3333 753d
00000160: f550 1dbb 5e4c 29bd 7a18 b2bd 10ed 12be
00000170: f662 aa3e 381c 3f3e 9f48 f7bd 93ff 08be
00000180: 4b05 c6bd c1fb bc3d 82d8 60bc 9bfa d2bb
00000190: 5da1 85bd 8ca9 983e 6ea6 fdbe c9f6 25be
000001a0: 34c0 51be 2c80 10be f7e7 bc3e e0f9 433e
000001b0: a158 9ebd 7bfe b33e a4a7 c33d 5737 253c
000001c0: d1a5 8ebd 7988 5c3d 4d16 f6bd 40f9 e0bd
000001d0: 3ec3 39be 0a13 04be b071 8ebe 98b0 76bd
000001e0: 6235 f53d e42e dbbc 82c8 613e a58a 913b
000001f0: 28f8 13be 2565 39be 49be 923d f60d 14be
00000200: bfc6 9bbe 7899 2cbe 5257 5cbd 5a40 cbbd
00000210: 7d01 a3bd ecaa 2abd d5ad 2a3d cc73 09bf
00000220: f78c 8a3d 8c44 e63d d086 59bc c55c ce3e
00000230: 9e38 d13e be06 ef3c 49f3 42be 7f31 1f3d
00000240: 7dc0 86bc 80f1 b5be bd3c 52bd a57c c7bd
00000250: 0329 06be ae2b 34be f349 a63d 6bfc 2e3d
00000260: 6098 1e3d b555 34be 4a7a d23d 411c c7bd
00000270: 6737 8b3e d71f 36bc e816 45bd a053 953c
00000280: ddf2 813d 6f03 063d 92fc c3bd 8aea 01be
00000290: 8683 a53b befe 0b3e 26d1 bcbe f2c6 13bd
000002a0: 4f92 31bd 6922 5f3d d47c 293e 942a ef3d
000002b0: a96a 3cbe 9101 0b3f 84ba 143d cd34 e5bc
000002c0: 2a3d 5cbe 39af 183e 1017 32be 258b 57bd
000002d0: 7ea8 87bb 1cac febd 16a9 fdbd f4ac 94be
000002e0: 5026 4e3e 6c11 c3bd 4ea3 b83d 5a7a b1bd
000002f0: 1868 1ebe 9459 29be e228 dbbd 0b1d 2bbc
00000300: 3539 8d3e 372a 3b3e 64d5 8f3d 1b14 1fbd
00000310: 0b1b 1f3e ee22 353c 912a cd3d 53f7 fc3e
00000320: c45c ca3d fa9c 8ebd b013 983d 7ae4 90be
00000330: b4f6 50be cc9b 1e3b f158 123e a0b1 af3c
00000340: ec85 a8bd 8362 163e 24f2 843c 734b e23d
00000350: e87c 20bb 9138 1f3e 7e0e c0bd cda7 5d3c
00000360: df1c 3dbe a388 7c3d 9ca8 b33b dfbc d83d
00000370: f23d 5fbe 56d4 42bd 006b 7abd 76b5 6c3d
00000380: 0f0a e4bc 2ec7 8ebd b80a ee3d 1608 9b3d
00000390: 3b84 e83b 9c5e 08be 1fed ea3e 8113 d9bd
000003a0: 745b b3bc 8779 b43d 2eaa e4bd e065 70be
000003b0: ec6e 203e 9daf dabe f767 0d3d 1825 e93c
000003c0: ce34 08bc a963 5dbd cf1e 1abd f27b 233b
000003d0: 777b 393d 16e3 063d 944c 443e 503a 553e
000003e0: 406c 8f3c 5028 743d d17e 60be 4972 3bbd
000003f0: 6e10 1b3e 111c 343e 6023 af3d 64a0 a63d
-0.061014418 -0.16769181 0.06706846 0.01720126 -0.12676229 0.050359827 -0.044763196 -0.25686225
-0.04303422 0.047309697 -0.09649472 0.27488482 0.232498 -0.18694238 -0.10475747 -0.07544724
0.10135757 -0.20102042 -0.080309115 -0.116995715 0.023969455 -0.12049736 0.07157582 -0.061348006
0.071825475 -0.021654654 0.03368447 -0.090027444 0.12148912 -0.17493391 -0.09200486 0.03557134
-0.11048772 0.069035396 -0.21495593 -0.08174939 -0.07546705 0.08180421 -0.20524722 -0.043031972
0.11134759 -0.016349709 0.1065296 0.017628655 -0.10831912 0.1729043 -0.014866601 0.12726754
-0.1698511 0.005164081 -0.18271497 0.109740056 0.064323224 0.034469415 0.075543985 -0.19837865
0.10865065 -0.020972094 0.15007874 -0.019474488 -0.21077734 -0.093406595 -0.060510635 0.107876934
-0.16813943 -0.18489277 -0.15050277 -0.12331326 -0.01123931 0.07186011 -0.056372687 -0.3425067
-0.06952226 -0.076896116 0.12684801 0.19949111 0.3474437 -0.014090725 -0.24280822 0.14744198
-0.0021103583 -0.35042393 -0.06420116 -0.20888215 -0.24659118 -0.1605648 0.061246812 0.05986328
-0.0024004553 -0.041332595 -0.08696075 -0.14348245 0.33278626 0.18663108 -0.12074398 -0.13378744
-0.09668978 0.09227706 -0.0137234945 -0.006438566 -0.06524918 0.29816854 -0.49541038 -0.16207422
-0.20483476 -0.14111394 0.36895725 0.19138288 -0.07731748 0.3515509 0.09553459 0.010083995
-0.06965221 0.053841088 -0.12015972 -0.10985041 -0.18140885 -0.12897888 -0.27821112 -0.060227007
0.119730726 -0.026755758 0.22049144 0.0044415765 -0.14450133 -0.1810499 0.071652 -0.1445845
-0.3042507 -0.16855419 -0.053794213 -0.099243835 -0.07959268 -0.04166691 0.041669685 -0.53692317
0.06765168 0.11243543 -0.013276771 0.40305153 0.40863508 0.02917802 -0.19038118 0.038865563
-0.016449207 -0.35535812 -0.051327456 -0.09740571 -0.13101582 -0.17594787 0.081195734 0.042721193
0.038719535 -0.1761082 0.10277231 -0.09722186 0.27190706 -0.01111599 -0.04811755 0.018228352
0.063451506 0.03271812 -0.09569658 -0.12687126 0.005051079 0.13671395 -0.36878318 -0.0360784
-0.04335242 0.054476175 0.16551524 0.11678043 -0.18400063 0.54299265 0.036310688 -0.027979279
-0.21507707 0.14910592 -0.1739161 -0.052622933 -0.004139959 -0.12435171 -0.12385766 -0.29038203
0.20131803 -0.09524807 0.09015523 -0.08665915 -0.15469396 -0.16538078 -0.10701157 -0.010443936
0.27582708 0.18277822 0.07023123 -0.038837533 0.1553766 0.011055691 0.100178845 0.49407443
0.09880975 -0.06963535 0.0742563 -0.28299314 -0.2040661 0.002420175 0.14291741 0.021447003
-0.082286686 0.14686017 0.016228743 0.11049547 -0.0024488512 0.15548922 -0.09377764 0.013528776
-0.18468045 0.061653744 0.0054827463 0.10582899 -0.21800974 -0.04756578 -0.0611372 0.057790242
-0.027836828 -0.06971584 0.11623138 0.07569902 0.007095841 -0.1331734 0.45884034 -0.10599423
-0.021894194 0.08812242 -0.11165272 -0.23476362 0.15667313 -0.42712107 0.034522977 0.02846007
-0.008313371 -0.05405012 -0.037627038 0.0024945703 0.04528376 0.03293141 0.19169837 0.20823026
0.017507672 0.059608757 -0.21923377 -0.045763288 0.15142986 0.17588831 0.08551669 0.08136061

actor.2.bias f4 [64]
00000000: bb4d c0bd 96d2 913d ef8d ecbd c7f1 233d
00000010: cce0 c3bd 5191 6f3d 7b31 d3bd c352 43bc
00000020: 4a1f 513d db10 38be 3224 1fbd 923e b9bd
00000030: 5c5c 013e d267 e13c ee8c 813d f4a5 843d
00000040: a422 96bc 888a 4b3e 89eb c6bd 413c 0abe
00000050: 6132 04be 2d7f 143e 070e d63d 4801 25bd
00000060: 9565 c03d 4ab5 24bd a842 8a3d 4616 2b3d
00000070: a74c b13d 1394 463e 221c d2bd 685e 97bd
00000080: b374 923d d48f 22be e5a5 bf3d de07 00be
00000090: 245f a63d 6227 fe3d dae5 07bd 4639 e13d
000000a0: 589e 033e 4db8 d2bd 61e3 87bd 9378 f5bc
000000b0: c84e 253d df04 9fbd e04b 3cbc fb89 f93d
000000c0: 318b 963d 224a 313e 095a 0fbd b224 7bbc
000000d0: 1ad4 da3d 7986 133e fdba bb3d fb66 1b3e
000000e0: 4dec 5cba 82f5 273e 0ead a03c e7de 793d
000000f0: 0482 023e 5ab1 2e3d 00bd e2bd 9a1b dd3d
-0.09389826 0.07120244 -0.11550509 0.0400255 -0.09564361 0.058488194 -0.10312172 -0.011921587
0.05105523 -0.1797518 -0.038852878 -0.090451375 0.12632889 0.027515326 0.06325708 0.064769655
-0.018327065 0.19877064 -0.097128935 -0.13499548 -0.12909843 0.14501639 0.10451894 -0.040284425
0.09394375 -0.040211953 0.06750995 0.04176929 0.086571984 0.19392423 -0.10259272 -0.073910534
0.07151165 -0.15875179 0.09357814 -0.12503001 0.081236154 0.124098554 -0.033178188 0.10997252
0.12853372 -0.10289059 -0.06635166 -0.02996472 0.040358335 -0.07764601 -0.011492699 0.12184521
0.073507674 0.17313436 -0.034997974 -0.015328573 0.106849864 0.14406766 0.091665246 0.15176003
-0.00084275455 0.16402248 0.019613769 0.061003592 0.1274491 0.042649604 -0.11071205 0.1079628

actor.4.weight f4 [3, 64]
00000000: 08ab 483e 2ea5 d03e 1152 043f 3e13 9abe
00000010: 9ab8 c6bd b6da 90bb a087 b9bc ce1a e7be
00000020: 6148 90be 1696 af3e 10b0 c0be 3ea8 c63e
00000030: cf08 f03e 84c7 b5be 124b 14be 23c5 97be
00000040: d48a 083f 4936 b4bd 4117 86be e356 ecbd
00000050: 4a45 80bd 610b 0dbf 35f5 33bd c765 d6be
00000060: 5fa1 edbe 78aa 8c3e 87aa 15bd d707 d73e
00000070: f278 32bf b158 54bd ebba babe 3b11 e53e
00000080: d337 d7be 2db4 533e 1030 9b3e f571 ecbb
00000090: b165 23bf c95f 5fbe 404d c2bb a0ba 0cbf
000000a0: 8e68 63bd 5459 72be 1da5 babe 96b8 043d
000000b0: f516 0ebf 672d cbbe a46d e3bd 93e2 1bbf
000000c0: bf12 c83d 931e e9bd e366 e8be d626 d83e
000000d0: c5a7 e2be 1f7a 4ebf 6816 cabe 540a bbbe
000000e0: 2273 f2be b412 41be 840f cdbe 215e eabc
000000f0: e09c d7bd 1c9c aa3e 4dd2 d83e b16f 17be
00000100: 76d2 13be 2385 2b3e b176 2cbe ae85 d53d
00000110: 55fc a33c de76 3d3d 20ae 1ebe f20f 9dbc
00000120: deac edbd 961c bebd 6ad1 b7bd e70a 6a3d
00000130: 0ada 093e 6d1e eb3a 082a f03d 14f7 233e
00000140: ebf8 b9bd 1419 f93d 1ffd e2bd b0f9 63be
00000150: a018 32bd 73b2 323e 5eac 6d3c 9905 0fbb
00000160: 5d94 38bd 34fa dc3d bd1a 8e3c 62de 27bd
00000170: f94e df3d f241 f13d ec43 16be 1a38 e3bd
00000180: 8fee d2bd e197 dcbd b548 083e 7572 3fbe
00000190: 84d5 153e 8535 4d3b 5ea1 24be 95d0 0d3e
000001a0: 49e9 e73d 5ea8 1fbe 9927 9fbd 7b47 5bbd
000001b0: c899 ca3d ba5e ca3c 0c8a 5d3c bfad d43d
000001c0: ee70 6ebc 325b 493e a4b1 a6bc 4dc7 023d
000001d0: 4874 b4bd 26b2 d43d 8f56 9ebc 2470 e93d
000001e0: 7a3d 853d fd03 6b3d 7854 423c 7c45 b23d
000001f0: 957e 5f3e f943 34be 4bb5 48bd 9a56 2b3e
00000200: 9bcd c4bc e054 35bf cdf5 b7be 17b1 8d3e
00000210: 1c5e 873e ba2a 63be c1bc 5c3e 1985 a63e
00000220: eb5c 0d3f c4a8 0bbe ebd8 2e3f a918 cbbe
00000230: e678 25bf f22a a43d b37a b5bd 35d8 a33d
00000240: 57e0 b7be 53e0 80bd 49b3 153f e252 4c3e
00000250: 72bd a93e 8778 ac3e 5338 27be c97a 243f
00000260: bfcb dd3e f2f8 0dbf b7bf 1fbd 7407 0bbf
00000270: 4e1f c73e 18cd 9fbe 56bb 1b3f 5799 a7be
00000280: d606 953e b7d0 01be af9a 1cbf 2110 8e3d
00000290: 8723 043f 2bc8 973e bacf 8f3e 14b3 d63e
000002a0: 62c1 fdbc 274e 0d3f 8f03 da3e 9a97 1f3e
000002b0: 2549 fe3e f670 ad3e 3ef1 933e 4d15 ea3e
000002c0: 3ebc abbe 8425 6abd fa92 ed3e 4494 b1be
000002d0: 710e 1c3f d542 df3e 010a f53e d40f 7c3e
000002e0: 58ad d93e c20e b2bd 6fe8 6b3e 0ad0 10be
000002f0: bd39 35be 6b2f 79be d177 88be db0e a23d
0.19596493 0.40751022 0.51687723 -0.30092806 -0.09703179 -0.0044206036 -0.022647679 -0.45137638
-0.2818022 0.34294194 -0.37634325 0.38800234 0.4688172 -0.3550378 -0.14481762 -0.2964259
0.53336835 -0.087994166 -0.26189616 -0.1154001 -0.06263216 -0.5509549 -0.04393502 -0.41874525
-0.4641218 0.27473807 -0.03653958 0.4199817 -0.697158 -0.051842395 -0.36470732 0.44739708
-0.42034778 0.206742 0.30310106 -0.007215733 -0.63827044 -0.21813883 -0.005929619 -0.5497227
-0.055519633 -0.23666888 -0.36454096 0.032402597 -0.5550378 -0.39683077 -0.11104897 -0.608926
0.097692005 -0.11382785 -0.45390996 0.4221713 -0.44268623 -0.8065509 -0.3947022 -0.36531317
-0.47353464 -0.18854791 -0.400509 -0.028609337 -0.105279684 0.33322227 0.42347947 -0.147887
-0.14435753 0.16750006 -0.16842152 0.10425888 0.020017782 0.04625594 -0.15496111 -0.019172642
-0.116052374 -0.09282796 -0.089754894 0.057139304 0.13462082 0.0017938145 0.11726767 0.16012222
-0.090806805 0.121629864 -0.11083435 -0.22263217 -0.043480515 0.17450885 0.014506428 -0.0021823405
-0.045063365 0.1078991 0.017346734 -0.040983565 0.10903735 0.11780156 -0.14674348 -0.11094685
-0.10299408 -0.10771156 0.13308986 -0.18696006 0.14632231 0.0031312418 -0.16077182 0.13849099
0.113237925 -0.1559157 -0.077712245 -0.053534966 0.09892613 0.024703372 0.0135216825 0.10384702
-0.014553292 0.19663695 -0.020348378 0.03192835 -0.088112414 0.103855416 -0.019328384 0.11398342
0.06505866 0.05737685 0.011860959 0.08704659 0.21825631 -0.17604055 -0.04900102 0.16732255
-0.024023822 -0.70832634 -0.3592972 0.2767417 0.26438987 -0.22184268 0.21556379 0.3252342
0.55219907 -0.13638598 0.6829974 -0.39667252 -0.646376 0.08016004 -0.08861294 0.080002226
-0.35913345 -0.062927864 0.5847669 0.19953492 0.33152348 0.33685705 -0.1633008 0.64249855
0.43319508 -0.55457985 -0.039001193 -0.5430825 0.3889107 -0.31211162 0.60832727 -0.32734177
0.29106778 -0.12677275 -0.6117353 0.0693667 0.5161671 0.29644904 0.2808817 0.419335
-0.030976001 0.55197376 0.4258084 0.15585175 0.4966518 0.33875245 0.2889499 0.45719376
-0.33542055 -0.057164684 0.46401197 -0.3468343 0.60959536 0.43605676 0.47859195 0.24615413
0.42515063 -0.08694221 0.23037885 -0.1414186 -0.17697807 -0.24334495 -0.26653913 0.0791299

actor.4.bias f4 [3]
00000000: cfd8 16be aa5f 393e feb6 cbbd
-0.14731143 0.18102899 -0.09947012

critic.0.weight f4 [64, 5]
00000000: f818 4fbe 389a 133e 4dfb 94bc d29d debd
00000010: e05a dbbf 43a6 8bbe dc6c 1dbe bbe3 203e
00000020: 75cc aebe 85d9 ca3f 6f33 18be 8d10 ea3d
00000030: 743e 02be 5812 53bd 60fc e13f 81fd 553e
00000040: 644f 33be 6a07 f7be 5020 dabd c928 a53f
00000050: b98d 40bd 42c3 203e 74c8 febc 4c10 53be
00000060: ee37 5dbd 5eff a1be 8b30 163e 33e9 dabd
00000070: e66c 93be 1409 0bc0 1b11 593e 3a0c 8dbe
00000080: ff83 473e 5144 bebe 7ed6 743f 7cf1 e43d
00000090: 0f06 c9bd 9008 8d3e 78a0 ebbd db9c 25bf
000000a0: 6baa 3f3e 1710 b73d 9589 1f3e e3e8 83be
000000b0: a237 8e3f c2e0 48be b6da 663e 1d15 b2be
000000c0: 8c12 c1be 9876 2bbf 326c b9bd 41b2 833e
000000d0: 1560 843e eae6 e5be e8a1 6a3f e7c9 1ebd
000000e0: 11c4 27be 4556 25be af49 acbe 4f7b 873f
000000f0: 05dd 57be 7a5c bd3d b734 babd 53cf 22be
00000100: 1d06 0cc0 5cc5 56bd 81f6 a8be a32a c73e
00000110: 9d98 04be bc0b 0840 d582 21be 96fe d83d
00000120: c51a 30be 0b89 20be 4662 28bf a4c8 50bc
00000130: 4d00 493e ff1a a73c a3d6 943e 3d91 c63f
00000140: 07f5 473e 3bd6 773d 5143 1ebe 0577 50be
00000150: 5ad4 9abf 9fec 433e faa5 9cbe 6549 a13b
00000160: f125 993e 3084 e4bf 78e3 86be 5138 863e
00000170: 3fa4 a1be b6b9 90be 5266 193f 0084 11be
00000180: 6607 803d c7b7 9cbd 0d0c 813d 2b2a 18bf
00000190: cf28 cabc 1da4 72be 18d5 80bd 5d3e cb3e
000001a0: 0784 b2bf c16f 31be ee4a bd3e ccf0 6ebe
000001b0: 1027 8dbe 66f2 f5bf 9ef3 8f3e 485a 25bd
000001c0: 537c a5be 1844 adbd 4c3c 833f 2647 b6be
000001d0: 2bfa cf3c 9e5a ae3e 603b 133e ab12 ea3f
000001e0: 5ded bcbe 3dfa 4ebe 1095 b03e 3c9e a43e
000001f0: f1b3 c33f 075f a43e cf67 fabd 5f82 acbe
00000200: 5c9a c13c 3305 b2bf a5df 6fbe fee4 c9be
00000210: 7878 afbe 76c8 02be 2165 ecbe c242 6dbe
00000220: 7555 f43d 1ca3 943e 09ea 773e 7aed 153f
00000230: 41b0 c13e 996a 98be f0ef 8bbe d4a3 ea3e
00000240: 6ec6 c9bf 06a4 223e a03e 18be bf19 ad3b
00000250: bfc0 92bd 612a 00c0 5df6 b5bc e0f8 2b3e
00000260: c2fa 903e 8635 d0be c193 dabe 22aa 2b3e
00000270: 52d1 673e c4b9 903e cce2 c1be d826 e63f
00000280: 961b 44bd e235 43be 717e 573e 8347 9c3d
00000290: 7221 903f 58b9 d4bd 74cf 84bc b7e0 67bd
000002a0: e68f ab3d b248 7c3f b33d 2a3e 64d7 16be
000002b0: 3b15 a9bd 1b00 a03e a2d6 863e 747e babe
000002c0: 6f80 963e 3655 c93d c7db 183e 251a 0cc0
000002d0: 187f 33bd b80b 7c3e b994 853e 3ba5 b0be
000002e0: 51ee 0fbf a2f6 aebe 7107 79bd c28f 2b3e
000002f0: 507d c93e 3e32 fe3f ed29 c7be 3329 cfbe
00000300: 6fcd a4be 05b0 413d 7ebd c2be 8b39 5d3e
00000310: 6108 b23e 8ac5 25bd f90f 963e bb19 f03f
00000320: 75b9 823e 5c54 00bd 62eb 46bd 1496 d3bc
00000330: cfc5 043f 4d79 5ebd f4ac 903a bea7 e1bd
00000340: 67fb a53d 0462 603f 2801 2dbd 64fa 4ebc
00000350: cbc3 a7be 7f61 a33e f2d7 0dc0 e24e 95bd
00000360: d743 a9bc 7f0f 603c c944 f63d 534d 123f
00000370: a249 84be 7891 143e bbbe b23e 13a4 c4be
00000380: 7e2a 58be 7f03 1f3d 25ae 90be bc97 933e
00000390: a86a 643e 533b 213f 0958 773e 78ac 36bd
000003a0: a36f 8dbe 9ad2 d33e 6ecc c3bf 73d4 d2be
000003b0: 550a b23e 3b18 583e d814 f23d cb25 e33f
000003c0: 3ac2 acbe e046 aa3e 83f4 9abe 1662 a5bd
000003d0: 13bf 983f 1841 273e 23ec 9cbc 619b 04be
000003e0: fe84 9ebe 8283 b2bf 1c2a 653d 3bed 8f3d
000003f0: 7541 d03b b27c 58bd 1b7a a03f 3700 e3bd
-0.20224369 0.14414299 -0.018186236 -0.108699456 -1.7137108 -0.27275285 -0.15373558 0.15711872
-0.34140363 1.5847632 -0.1486337 0.11428938 -0.12719136 -0.051531166 1.7655144 0.20897485
-0.17510754 -0.48247844 -0.10650694 1.2903072 -0.047010157 0.15699485 -0.031101443 -0.20611686
-0.054008417 -0.31640142 0.14666955 -0.106890105 -0.2879402 -2.172429 0.21197931 -0.2754839
0.19483946 -0.37161496 0.9563979 0.11178872 -0.09815609 0.27545595 -0.11505216 -0.6469247
0.18717353 0.08938616 0.15579827 -0.25763616 1.1110728 -0.19616988 0.22544369 -0.34781733
-0.37709463 -0.66977835 -0.0905384 0.25721934 0.25854555 -0.44902736 0.916533 -0.038766768
-0.16383387 -0.1614619 -0.33649966 1.0584506 -0.21080406 0.09246154 -0.09092086 -0.158994
-2.1878731 -0.05243431 -0.33000568 0.38899717 -0.12948842 2.1257162 -0.15772565 0.105954334
-0.17197712 -0.15677278 -0.65774953 -0.012743149 0.19629021 0.020398615 0.29070005 1.5513073
0.19527064 0.06050704 -0.15455367 -0.20357902 -1.2096055 0.19133233 -0.3059538 0.0049220794
0.2991176 -1.785284 -0.2634542 0.2621484 -0.31570622 -0.28266686 0.59921753 -0.1421051
0.06251411 -0.0765224 0.06301127 -0.59439343 -0.024677662 -0.23695417 -0.062906444 0.39696017
-1.3946542 -0.17327787 0.3697123 -0.23334044 -0.27568865 -1.9214599 0.28115553 -0.040369302
-0.32321414 -0.084602535 1.0252776 -0.35601157 0.025387844 0.3405351 0.14378119 1.8286947
-0.36899844 -0.20212646 0.34488726 0.32151973 1.5289289 0.3210375 -0.12226831 -0.33693215
0.023633175 -1.3907837 -0.23425157 -0.3943252 -0.34271598 -0.12771782 -0.46170905 -0.23169997
0.11930362 0.29030693 0.24210371 0.58565485 0.37829784 -0.29768828 -0.27331495 0.45828116
-1.5763681 0.15882882 -0.1486764 0.00528261 -0.0716567 -2.0025866 -0.022212202 0.16794157
0.28316313 -0.40665835 -0.42690852 0.1676412 0.22638443 0.28266728 -0.37868345 1.7980604
-0.04787787 -0.19063523 0.21044327 0.07630827 1.1260207 -0.10386914 -0.016212203 -0.05661079
0.08377056 0.98548424 0.16625099 -0.14730603 -0.082560025 0.3125008 0.26335627 -0.364246
0.29394862 0.09830706 0.14927588 -2.1890957 -0.043822378 0.24613845 0.2609003 -0.3450106
-0.56223017 -0.3417254 -0.060798112 0.16754058 0.39353418 1.9859083 -0.38899174 -0.4046112
-0.32187983 0.047287006 -0.38035196 0.21603982 0.34772018 -0.04047159 0.2930906 1.8757852
0.25532117 -0.03133045 -0.048564322 -0.025828399 0.5186433 -0.0543149 0.0011037872 -0.110183224
0.08104592 0.8764956 -0.04223743 -0.01263294 -0.32766566 0.3191032 -2.2163053 -0.07290436
-0.020662231 0.01367557 0.120248385 0.5714924 -0.25837427 0.14508617 0.3491114 -0.3840643
-0.2110996 0.038821694 -0.28257862 0.28826702 0.22306311 0.62981147 0.24154676 -0.044598073
-0.27624235 0.41371614 -1.5296762 -0.4117771 0.34773508 0.21102993 0.11820382 1.7745908
-0.33741933 0.33257198 -0.30264673 -0.08075349 1.1933311 0.16333425 -0.019155568 -0.12949897
-0.3096084 -1.3946383 0.05594836 0.0702767 0.0063554593 -0.052853294 1.2537264 -0.11084025

critic.0.bias f4 [64]
00000000: dae8 b63c f1d8 f63d 9aed 4a3e c6b3 00be
00000010: 9a22 ec3e 936c bb3e 6d86 abbd 3300 d7bb
00000020: ed60 88be 80a0 24be 1786 48be 9de6 b4be
00000030: 8314 933e 71a7 9dbe f938 64be b04e bcbd
00000040: 4eda afbe c69f 9a3e 35d1 103e df43 05be
00000050: ed98 613e 2633 bd3e ac86 883e 17d3 8dbe
00000060: e9c5 a9be 3cf3 473e 58f3 c63e 4a47 49bd
00000070: 75a1 c63d 6101 313e c481 e53e 759f ccbe
00000080: 6902 92be c888 443e 43a0 39bd 1c2c b8bc
00000090: 61dd c23e df7c a8be f18f 4fbd c6ec a1be
000000a0: a1ed d23e 2b7a 4fbd ec60 e33e c0c9 553e
000000b0: c8e3 a03e 9d3b 97be 33e3 2b3e 4a6e 9abe
000000c0: 9763 4bbe a0dc 5b3e 56a4 d1be 19d3 1ebe
000000d0: a16a d5be 23b7 d7be dd8d f9bd 35c7 e53d
000000e0: b555 fc3d 57ef e23d f625 babe 15f6 56bc
000000f0: 2bb7 c0be 9844 1ebe fcb6 1f3e 80f2 bdbe
0.02232783 0.12053097 0.198172 -0.12568578 0.4612015 0.36606273 -0.08375249 -0.006561303
-0.26636449 -0.16076851 -0.19582401 -0.35332194 0.28726587 -0.3079181 -0.22287358 -0.09194696
-0.3434624 0.30200022 0.14142306 -0.13014172 0.22030993 0.36953086 0.26665246 -0.2770011
-0.33158806 0.1952638 0.38857532 -0.049140252 0.09698764 0.17285682 0.44825566 -0.39965406
-0.28517464 0.19192803 -0.045318853 -0.02248197 0.38059524 -0.3290777 -0.050674383 -0.31625956
0.4119692 -0.050653618 0.44409883 0.20877743 0.31423783 -0.2953767 0.16785888 -0.3016227
-0.1986221 0.2147088 -0.4094569 -0.15510215 -0.41682914 -0.4213191 -0.121852614 0.11219636
0.12321035 0.11080807 -0.36357087 -0.013120194 -0.37639746 -0.15455854 0.15597147 -0.37099075

critic.2.weight f4 [64, 64]
00000000: 215a 00be 7ecb c7bd a0d2 173d 1be8 15bd
00000010: 507c 18bd 03e2 aebd 03e5 30bc a1ef 8b3c
00000020: 10a4 a4bd b428 cabc 6536 f23d 8288 d9bc
00000030: 1db0 ed3d acd7 aabd 45ce 48bd 9c04 c6bc
00000040: 19f5 57b7 9b57 b03d 1277 41bd 23ab be3d
00000050: f06a d1bd 83da 2b3d 6523 b1bd 3d56 7dbd
00000060: 63cd cd3d 2118 a53c 97ef 8e3d 4833 a8bd
00000070: 8808 093d f9be b83d b434 e93d c086 633d
00000080: 1755 0d3e 2fd6 06be 6a6a 83bd d7f3 06bd
00000090: 2745 803c 594d b73d 6db0 61bd b49d a13d
000000a0: af93 5dbd 5d3b 2fbc 3aa9 393d 9a57 173c
000000b0: 1e31 323d 86f2 6bbd 24e7 d73d 45e9 8d3d
000000c0: 4f49 b3bd eee7 b73c 2880 fa3c c62f ce3d
000000d0: 5cec 73bc 5ffd d1bd d8c2 883d 970d 26bd
000000e0: 1aed eb3d 537f bebd 7802 d3bd 8a2e 063e
000000f0: e13f ce3d c2c0 943d 891f 3bbc a045 8c3d
00000100: 5bc5 b03d 2d60 9abb 4f16 e0bd 1b8f 253e
00000110: 5fb6 5abe 4471 d1bd 3441 a2bd bcb6 a0bd
00000120: 1a02 a03d eb2c 603e 75b3 8dbd 1c54 313e
00000130: 27a4 e5bd 4e7c 703d 0115 0f3e d2df d6bd
00000140: 8365 dd3c ce50 f9bd 32e6 35bd 8f11 133e
00000150: 3436 b9bd 3524 0abe 9eb5 ff3c e676 793c
00000160: 70a0 56bd bc10 853d 5c6c de3d d567 76bd
00000170: 3ea0 6dbc 4b4d c4bd b105 8ebe be53 46bd
00000180: 7fd6 5fbd 6b42 b0bd e851 c23d cb2e 8f3c
00000190: c306 24be a41e 993c ea7f af3d ef57 a03d
000001a0: 573d 14bd 5e31 95bc 8703 d3bc 9779 dabd
000001b0: 463b 62be eb12 2c3d f4c7 d33c 4c8a 833d
000001c0: de87 913d fa95 04be 0cb0 a73d 305f d33d
000001d0: 3251 ca3d 5b48 123e dd21 2fbd 5ff1 0f3e
000001e0: eecf dabd 6cbd 30be c2d9 1abd 41a5 46be
000001f0: d386 503d fb65 42bd 5ea8 a2bd f422 5e3e
00000200: 24c2 8a3a bbf3 cabd df51 b63d bdf8 383b
00000210: 9e71 c5bc c1b6 003d 8c91 d43d 106a 81bc
00000220: 90d8 31bd a026 69bd 20d7 ed3c 08cf d83d
00000230: c1c9 65bd 5a5b 853c ca2b 273d 95e2 903d
00000240: e750 dfbc 5716 c8bd 05c5 9dbd 344b 833d
00000250: 0c7b a93d 6948 d7bb 6086 0cbe 9b53 9b3c
00000260: c9c2 a2bd de41 07be 83df 0bbd b1c7 123c
00000270: b8b6 a8bd 1074 5bbe 2140 343c fdb8 14bd
00000280: fa84 c33d 5707 5ebd f127 c53c 4d9f 12be
00000290: fa00 d63d 69a7 c3bb 2b3b cbbd 940f 3e3d
000002a0: d153 f5bd 1537 a2bd 5359 413d 618f 0c3d
000002b0: 133b d5bc 9d8b d33d e03e b1bd a99b 9f3c
000002c0: f643 113d 1fa1 033d bcc3 d63d db4c 083e
000002d0: aa21 fd3d 1bcc f93b 3c80 2b3d b1a0 33be
000002e0: d305 44bd 01b0 75bd ede2 823d 9e54 1b3d
000002f0: bc87 fb3c 54d2 e7bb 8252 6ebe 2037 e93d
00000300: 86fa 233e 9e31 c73d 416a ce3d d89f 89bd
00000310: 8709 183e 5014 39bd cafe 24be 4f4b dc3d
00000320: df59 be3c 50d1 47bd 7efa 45bc 5438 843d
00000330: a089 153e 8039 193d 7b49 1bbb 8594 1bbe
00000340: be8f 9a3b a43c 9e3b a048 1dbc 0e2a 8bbd
00000350: 50f6 903d 5e95 2c3e 8a18 e13d 8f54 b83d
00000360: 2591 a43c 1cad a93c f47d 843d fd90 1cbe
00000370: 37d9 dd3d fb1b 4f3e d06d 9fbd 8cd1 14be
00000380: fbf3 f3bc 3afd cfbd 660f 603d 328b 993b
00000390: 8d1b 36bb 4f93 e23c 3de2 bdbd ed4e c6ba
000003a0: 484b 803d c859 fbbd c779 d93d 0a81 cfbc
000003b0: 95aa 223d 31e1 d03b dff3 29bd 8b26 62bd
000003c0: 916c 983c f7e4 313e ea94 dc3c b016 e83c
000003d0: 4ddd 39be 12a6 0ebb 44a2 e1bd 53dd 213e
000003e0: dc1e 30bd e867 e63c f78a 933d a6e0 efbd
000003f0: c005 acbc 8c90 87bd d42f 063e 7961 af3d
-0.12534381 -0.0975561 0.037066102 -0.036598306 -0.03722793 -0.08539202 -0.010796788 0.017082037
-0.08039105 -0.024677612 0.11826781 -0.02655435 0.116058566 -0.083419174 -0.04902484 -0.02417212
-1.2872065e-05 0.086104594 -0.047232695 0.093099855 -0.10225475 0.041956436 -0.08649329 -0.06184982
0.1004894 0.020153107 0.06979292 -0.08212906 0.0334554 0.090208 0.113870054 0.05554843
0.1380199 -0.13167642 -0.06416781 -0.032947388 0.015657974 0.089503 -0.055099893 0.078914076
-0.05409592 -0.010695306 0.045327403 0.009237194 0.043503873 -0.057604335 0.105421335 0.06929258
-0.08754217 0.02244946 0.030578688 0.10067706 -0.014887895 -0.10253405 0.066777885 -0.040540304
0.11519833 -0.09301629 -0.10303205 0.1310369 0.10070778 0.07263328 -0.011421093 0.068492174
0.086313926 -0.004711172 -0.10941755 0.16167872 -0.21358632 -0.10226682 -0.07922593 -0.07847354
0.07812901 0.21892135 -0.06918994 0.17317241 -0.1121295 0.058712296 0.13972856 -0.10491909
0.027025944 -0.121736154 -0.044408984 0.14362167 -0.090435416 -0.13490374 0.031214532 0.0152261015
-0.0523991 0.064973325 0.10860512 -0.060157616 -0.014503537 -0.09585055 -0.27738717 -0.048419707
-0.05464792 -0.08606418 0.094882786 0.017478367 -0.16018204 0.018691368 0.085693195 0.07829272
-0.03619131 -0.018212017 -0.025758518 -0.10667723 -0.22092924 0.04201023 0.025852181 0.064228624
0.07105993 -0.12947837 0.08187875 0.1032089 0.09878768 0.14285414 -0.042756904 0.1405692
-0.10684191 -0.17259759 -0.037805326 -0.19398977 0.05090983 -0.047460537 -0.0794227 0.21693021
0.0010586423 -0.09909769 0.089023344 0.0028224431 -0.024102028 0.031424288 0.10379323 -0.015797645
-0.04341942 -0.0569216 0.029033244 0.10586363 -0.05610061 0.016278911 0.040813245 0.07074467
-0.027260257 -0.09769886 -0.07703594 0.06410828 0.082754225 -0.0065699113 -0.13723135 0.018960765
-0.079473086 -0.1320872 -0.034148704 0.008958743 -0.08237976 -0.21430993 0.011001618 -0.03630923
0.09546848 -0.05420622 0.024066897 -0.14318581 0.10449405 -0.0059708846 -0.09923395 0.046401575
-0.11978877 -0.07920662 0.047204327 0.034316424 -0.026029145 0.103293635 -0.086545706 0.019483404
0.035465203 0.03213608 0.10486552 0.13310568 0.123599365 0.007623208 0.04187034 -0.17541768
-0.047857117 -0.059982304 0.06390939 0.037922494 0.030704372 -0.0070746336 -0.23273662 0.113874674
0.16013536 0.097262606 0.1007886 -0.06719941 0.14847384 -0.045185387 -0.1611282 0.107565515
0.023236213 -0.0487836 -0.012083648 0.06456056 0.14603281 0.037408352 -0.002369492 -0.15193374
0.0047168424 0.0048290063 -0.009599835 -0.06795131 0.070782304 0.16853854 0.109910086 0.09000503
0.020088742 0.020712428 0.06469336 -0.15289684 0.10832446 0.20225517 -0.07784617 -0.14533061
-0.029779425 -0.10155721 0.054702185 0.004685783 -0.0027787418 0.027658133 -0.09271667 -0.0015129723
0.06264359 -0.12272984 0.1061893 -0.025330085 0.03971346 0.006374501 -0.04149234 -0.05521254
0.018606456 0.173725 0.026926477 0.02833113 -0.18150826 -0.0021766466 -0.11017278 0.15807085
-0.04299818 0.028125718 0.0720424 -0.1171277 -0.020998836 -0.06619367 0.13104182 0.08563513

critic.2.bias f4 [64]
00000000: b92b b9bc 5e22 aebd a3eb b9bd b846 7f3d
00000010: 498f b53b 1d5b 8a3e 449a 7dbd f006 493e
00000020: d1e3 0b3e e310 e9bd f60d 7cbd 187b d43d
00000030: 9347 9d3a b05e d0bd 856c 173d a683 c4bc
00000040: 09de a53d 15b7 11bd a528 ec3c a9ff b9bd
00000050: eefb 853c 503b 26bd d150 e9bd 1ec2 6c3d
00000060: 8d53 c6bd 007e 0cbe 5a6e 303c 3b59 14bc
00000070: c8c5 303d a555 0a3e 3075 36bd 2310 05be
00000080: 9cac 4a3c 756d 0abe 895f 26bd 92ba 89bd
00000090: 074e 3d3c 5957 6f3d 2b1d a2bd 60a9 6f3e
000000a0: 5358 913d 9d22 4bbd 89af 1ebe cfa5 7ebd
000000b0: 215b c03d 969d 10be 6598 913d af94 3dbd
000000c0: 93d5 ff3b d495 d5bd fae1 d5bd 8dec 483c
000000d0: c235 41be 4bdd 993c 80a1 823d bd69 71bd
000000e0: 5f29 11bc cf68 373d fc05 94bd 253b 88bc
000000f0: 39d7 76bd 4987 ce3c e1c1 c8bc 4df2 e53d
-0.022603856 -0.08502649 -0.09078147 0.062323302 0.0055407626 0.2702264 -0.061914697 0.19631553
0.13661124 -0.11380174 -0.06153675 0.10375041 0.001199948 -0.1017431 0.036968727 -0.023988556
0.080989905 -0.03557499 0.028827975 -0.090819664 0.016355481 -0.04058391 -0.11392368 0.057802312
-0.09683905 -0.1371994 0.010768497 -0.009054477 0.04315737 0.13509233 -0.044545352 -0.12994437
0.012370255 -0.13518317 -0.040618453 -0.067250386 0.011554248 0.05843291 -0.079157196 0.23404455
0.07096925 -0.049593557 -0.15496649 -0.062169846 0.093923815 -0.14122614 0.07109145 -0.046284374
0.0078074425 -0.10428968 -0.10443492 0.012263429 -0.18868163 0.018782279 0.0637846 -0.05893873
-0.008859961 0.044777688 -0.07227704 -0.016629765 -0.060263846 0.025210993 -0.024506511 0.11227856

critic.4.weight f4 [1, 64]
00000000: caff 2ebb c76d 023e a66b b13d 5147 58bd
00000010: 1164 6a3c d448 dbbd f3ee d23a f73b 96bd
00000020: f95e c3bc 8eb5 e83b d9a6 46ba f48a 8e3e
00000030: 8f38 463b ee2b 20bd cbde 393c e44e 5fbb
00000040: 461d 8cbb 59cf 9e3c ce3f 8c3d 872e 7339
00000050: 81c5 213e 05aa d2ba a0c5 233c 80a9 2a3b
00000060: 4580 c13b 2eb5 d33c 3d9f 30bc c047 033b
00000070: 311a c5ba e2a1 3abc 1d59 ebbb 813d babb
00000080: bd10 8bbb c46d 4b3d 2bf5 033b ce42 9bbd
00000090: a05a 243b d35e 36bd 1c4c 2d3a c86f 91bd
000000a0: 924e 08ba e6be fd3c a525 3bbd 0c43 03be
000000b0: dd10 323a 2528 bcbe 1ad1 f239 b6f2 9abb
000000c0: ad83 8bbc 1283 e33d ae78 5fb9 f269 c5ba
000000d0: 4991 cc3d a773 6bbd 51cb 19bd 77b6 4a3c
000000e0: b937 953d febb 973a 72b2 e33b 43b9 723c
000000f0: 3f54 e23a d10a c63c 45e7 383b 01b6 96ba
-0.0026702755 0.12737189 0.086631104 -0.052802388 0.014306084 -0.1070725 0.0016092941 -0.07335656
-0.023848997 0.007101721 -0.0007577963 0.27840388 0.0030246114 -0.039104395 0.011344622 -0.0034074122
-0.0042759506 0.01938598 0.06848107 0.00023191619 0.15797998 -0.0016072398 0.009995848 0.0026040971
0.0059051835 0.02584323 -0.010780153 0.002003178 -0.0015037713 -0.011391135 -0.007182254 -0.0056836014
-0.0042439387 0.049665228 0.0020135145 -0.07581101 0.002507843 -0.044524025 0.00066107675 -0.07101399
-0.0005199696 0.030974817 -0.045690197 -0.12818545 0.0006792674 -0.36749378 0.0004631363 -0.0047286404
-0.017030561 0.11108984 -0.00021311894 -0.0015061481 0.099886484 -0.05748334 -0.037547413 0.012372605
0.07286019 0.0011576412 0.0069487626 0.014814678 0.0017267539 0.02417508 0.002821402 -0.0011498333
