trained/SimplePong/PPO_mcts_sparse_1728728476.292341.pth (torch, 42322 bytes, 11 tensors)

actor.0.weight f4 [64, 5]
000000 af e3 50 3d 8b df 9b bd f4 63 83 be f4 fd 9c be
       0.050998386 -0.07610997 -0.25662196 -0.306625
000010 6c ae 3e bd e1 7c 55 be 65 1b de 3e 91 f7 3c be
       -0.04655306 -0.20848419 0.43380275 -0.18453814
000020 4d c5 2f 3f f1 73 48 be 86 11 2d be 31 33 c9 be
       0.6866043 -0.19575478 -0.16901216 -0.39296868
000030 be af a6 3d 62 21 94 be 27 ec 0d 3e f8 7b c6 bd
       0.08138989 -0.2893172 0.13859616 -0.09691614
000040 f9 c0 41 be 7d 3f 91 3c 3d a3 35 be ff ca bf be
       -0.1892127 0.017730469 -0.17738052 -0.3745956
000050 63 a5 68 be ff 52 ed 3d 90 5c ec 3d 2b 00 95 3e
       -0.2271934 0.11588096 0.115410924 0.2910169
000060 8f 8d a3 be 42 52 a7 3e ed d5 8b bd 89 43 bc be
       -0.31943938 0.32679945 -0.068279125 -0.36770275
000070 ab 30 49 3e c1 8d a4 be bb 6e 90 be 2a b1 d3 3e
       0.19647472 -0.321394 -0.2820948 0.41346103
000080 ed 1f 23 be 55 c0 1e 3f e2 f9 8f 3e 75 a2 ca 3c
       -0.15930147 0.62012225 0.28120333 0.024735669
000090 0c df a2 bc 71 ec ba 3d 3c 18 bc be 1f 42 08 be
       -0.019881748 0.09127129 -0.3673724 -0.13306473
0000a0 ed 4b 64 be c5 75 42 bc ca 68 e2 3e f9 63 81 3e
       -0.22294588 -0.011868899 0.44220573 0.25271586
0000b0 08 53 88 3e 66 96 f8 3e e8 d2 ec be 93 20 6d be
       0.26625848 0.48552245 -0.4625466 -0.23156957
0000c0 40 e9 41 3e 4d 93 8c 3c 1f 05 c4 be 19 cd 1e 3d
       0.18936634 0.017160082 -0.38285157 0.038769815
0000d0 56 97 b0 b9 24 a9 3f 3e d6 86 b9 be 3a 42 fb be
       -0.0003368209 0.18716866 -0.36235684 -0.49073964
0000e0 60 5c 0f 3f 69 52 9a 3e 58 83 0b be f6 bd 9a be
       0.5600033 0.30141 -0.13624322 -0.30223054
0000f0 49 3d 75 bc fb 7c 90 3d e7 56 3f 3d cf 58 eb 3e
       -0.014968225 0.07055088 0.046713736 0.45966193
000100 e7 76 10 bd 48 ba 27 3e 4c ab e6 be 8a 13 d1 3e
       -0.035269644 0.16379654 -0.45052564 0.4083522
000110 75 82 29 bf 38 93 ea bd b7 98 06 3f ba 25 a9 be
       -0.66214687 -0.11453861 0.52576774 -0.33036596
000120 85 3f 8a be a1 79 ed bc 24 cc 21 bd 88 e3 0f be
       -0.27001587 -0.028988661 -0.039501324 -0.1405164
000130 b8 41 2f 3d ef 96 56 be 16 23 4c bd 21 ae be be
       0.042787284 -0.20956014 -0.049838148 -0.37242225
000140 84 78 bc 3d 92 cb 65 3e 34 5d 29 be 25 9c 25 3f
       0.09202674 0.22440937 -0.1653946 0.6469138
000150 76 a8 84 3e dd 4f 22 bd 13 dc d9 be ac ef 6f 3e
       0.25909775 -0.039626945 -0.42550716 0.23431271
000160 59 50 88 3c 75 91 34 be 5a 89 ef be 40 d3 a4 3e
       0.016639875 -0.17633612 -0.46784478 0.3219242
000170 6e b4 3c 3e ae fe b2 3c 7d cb ca 3c 30 34 08 be
       0.18428203 0.021849956 0.024755234 -0.13301158
000180 47 39 b9 3e e6 69 19 be f2 a9 17 3e 47 94 14 be
       0.36176512 -0.14981803 0.14810923 -0.14509688
000190 90 16 c5 be bf 77 8c bc 1f e2 b8 3e 28 06 c1 3e
       -0.38493776 -0.017146943 0.36110017 0.3770001
0001a0 9f d9 a2 be fb 4a c8 3e cf e6 de bd 12 db 92 bc
       -0.31806657 0.39119706 -0.10883867 -0.017926726
0001b0 d1 2c bd be 3d dd 30 3e 51 c5 7b be 96 6b c9 3e
       -0.36948255 0.17271896 -0.24586989 0.39339894
0001c0 d5 b0 b1 be 4d e3 12 be 2b b0 e9 be b3 da 0a be
       -0.34705225 -0.14344521 -0.45642218 -0.1355999
0001d0 8c da d7 3e c7 4d 1d be 9d d9 f8 3e d4 5a b9 be
       0.42158926 -0.15361701 0.48603526 -0.3620211
0001e0 e9 b8 08 3e 9e 85 8a 3c 94 8a 39 bd f3 73 0f 3f
       0.13351788 0.016909417 -0.045298174 0.560363
0001f0 9f 7f a9 3e 2e e6 ca be cc 20 12 3f 92 78 6d 3d
       0.3310518 -0.39628738 0.57081294 0.057976313
000200 b9 da 04 be 33 24 91 be 71 b7 06 bf ba 12 a3 3d
       -0.12974061 -0.2834793 -0.5262366 0.07962556
000210 bb 5a 1e 3d e9 0f a4 3e 0a 9e 2b bd a2 22 a9 3d
       0.038660746 0.32043388 -0.041898765 0.08258559
000220 26 15 09 3f e3 65 00 bf 4a 8f ee 3e 2c 3d b2 be
       0.53547895 -0.50155467 0.46593696 -0.34812295
000230 78 8c d2 3e 49 93 79 be 24 82 85 bc 55 27 5e be
       0.41122794 -0.24372591 -0.016297407 -0.21694691
000240 ed 68 2d be aa 56 6a be b0 bc 0d 3f 90 0b 36 be
       -0.16934557 -0.22884622 0.5536604 -0.17777848
000250 de fc 09 be 1e fc b1 3d 22 52 9e bd c7 64 0f 3f
       -0.13475367 0.08690666 -0.07730509 0.5601315
000260 40 14 b2 be a7 be c1 3e c5 12 7a 3d 1f b6 e4 3e
       -0.34781075 0.3784077 0.061053056 0.44670197
000270 d9 a5 59 be ee 3b c1 bd af 6c 6b 3c a6 dd 07 3e
       -0.21254672 -0.09435259 0.014369174 0.13268146
000280 08 4a 65 be 6c ef 59 3e 8c 8b fd bd a1 e6 50 be
       -0.22391522 0.21282738 -0.12380132 -0.20400478
000290 5b 4a 9c 3e 84 d4 fa 3c ab 99 b7 bd 15 6d d8 be
       0.3052548 0.030618913 -0.08964857 -0.42270723
0002a0 91 e8 be be 9e 58 89 3e fb 3f a6 3e 44 1f 64 3d
       -0.3728681 0.26825422 0.32470688 0.05569388
0002b0 d5 fe a1 be 2c 95 d5 be d6 4c 95 be 32 4b 0a bf
       -0.31639734 -0.41715372 -0.29160184 -0.5402099
0002c0 45 e6 b3 3e fc e3 48 be da 52 be 3e 8d df bb 3e
       0.3513662 -0.19618219 0.37172586 0.36693993
0002d0 0a 75 2a be 0a 84 76 be 8a 74 e7 be 66 a6 7f 3e
       -0.1664621 -0.24073806 -0.452061 0.2496582
0002e0 85 80 29 3e c7 d6 f4 be b6 87 d3 3e 69 fc 93 bd
       0.16552933 -0.47820112 0.41314477 -0.07225878
0002f0 b0 b9 19 3e d2 c2 aa be 40 5e ae be 3b 43 14 3f
       0.1501224 -0.3335176 -0.34056282 0.57915086
000300 b4 e6 8e be 80 2c 2f 3f 37 97 d0 3d b2 31 b8 3e
       -0.27910388 0.68427277 0.10185092 0.35975415
000310 4f c1 d6 be fa 52 2b be 6d d6 14 bf 3d 8a 9f 3d
       -0.41944358 -0.16730872 -0.5813969 0.07790039
000320 8a bf a3 3e fd 43 8b be 69 29 02 bd fe 15 a7 bd
       0.3198207 -0.27200308 -0.031777773 -0.081584916
000330 55 02 8e 3c 9c 8a ee 3e cb 2f af be 32 c7 84 be
       0.017335096 0.46590126 -0.3421615 -0.25933224
000340 67 dc c3 bc 14 e8 6f be 9d 12 b7 3d 6b ac 10 3b
       -0.023908807 -0.23428375 0.08939097 0.0022075425
000350 05 67 c4 3e a6 07 85 bd a3 8b 1f 3f 12 14 7b 3e
       0.38359848 -0.064955994 0.62322444 0.24519375
000360 f5 0f 89 be 4d 07 ae be ba 0e 7a 3c d8 98 47 3e
       -0.26769987 -0.33989945 0.0152623 0.19491899
000370 42 1b 2b bd b7 c3 82 3e 3a b9 20 bc d4 67 96 3e
       -0.041774042 0.25539944 -0.009809786 0.2937609
000380 0f 3c 71 3d a3 62 b9 be 08 d6 9d 3c 68 f8 fb 3e
       0.058895167 -0.36208066 0.019267097 0.49212956
000390 e1 20 3e 3e c0 2d d2 3e dc 62 30 3e 45 26 e8 bd
       0.1856723 0.4105053 0.17225212 -0.11335424
0003a0 85 68 ac be 6b eb 37 be d9 23 5d 3e e3 bc 5a be
       -0.33673492 -0.17960899 0.21595706 -0.21361117
0003b0 2b 2b 9e 3e 00 12 dd be 37 fb 5d 3e f2 30 22 bd
       0.3089231 -0.43177795 0.21677862 -0.03959746
0003c0 7a 3d 06 3f 6b 2d 98 bd f0 bd ba 3e 50 c4 a7 be
       0.52437556 -0.07430538 0.36473036 -0.32766962
0003d0 90 51 29 3d 16 5d 69 be 54 b0 a1 bd 06 9e 57 3e
       0.04133755 -0.22789416 -0.0789496 0.21056375
0003e0 4c 17 ff 3d f9 6c ca 3e fa a4 f8 be 9f cb 17 3f
       0.124556154 0.39536265 -0.48563367 0.59295076
0003f0 d7 0b 95 be 2f 6b 21 3f e0 89 9f be e8 66 95 3e
       -0.29110596 0.63054174 -0.31159878 0.29180074

actor.0.bias f4 [64]
000000 0f b8 68 3d 9b 0c 6f 3e 13 41 92 3e e3 6d f0 3d
       0.056816157 0.23344652 0.28565273 0.11739709
000010 1e a2 21 3e 7f 72 58 be 32 10 47 be 51 49 b6 bb
       0.15784499 -0.21137427 -0.19439772 -0.005562939
000020 ee d7 2c bd 46 ab aa 3e de 61 9f bb 24 20 93 be
       -0.042198114 0.33333796 -0.0048639616 -0.2873546
000030 7a 19 9b bd 6c 5a 03 be 87 3d 12 3d 8c 7f 95 3d
       -0.07573219 -0.12827462 0.03570321 0.07299718
000040 ba 79 36 be a7 e1 43 3e 2e 58 4b be e7 d2 9e be
       -0.17819872 0.19129048 -0.19857857 -0.3102028
000050 cf ea 05 3e cf bc b0 be fd 76 a9 3d 23 6d 7d bc
       0.13077854 -0.3451905 0.08274648 -0.015467915
000060 10 29 80 bd e9 eb 8b bd 33 8d 2f bd 91 72 9e 3e
       -0.06257832 -0.06832106 -0.042859267 0.30946782
000070 9e 46 3a 3d b7 82 35 be e4 20 75 bd ae bc 34 be
       0.045477502 -0.17725645 -0.05984582 -0.176501
000080 87 ed 99 3e af fe 3c 3e 05 37 ec bd 4b 1b 6e 3e
       0.3006403 0.18456529 -0.11533932 0.23252599
000090 1e c8 b5 3e c3 ea 88 be b5 bc 03 3e 60 2e 25 3e
       0.3550424 -0.2674161 0.12864955 0.16130972
0000a0 6a 80 ca bd 58 9d 17 3e e3 af c7 bd 63 e1 9f 3d
       -0.09887774 0.14806116 -0.097503446 0.07806661
0000b0 78 47 4f be 9c ad 09 3d b0 fd 01 3e ba 18 e0 3d
       -0.20242107 0.033612832 0.1269443 0.10942216
0000c0 af 82 86 be a0 33 84 3e da 7d 43 be 6f 10 ae 3d
       -0.2627158 0.25820637 -0.19090977 0.08499228
0000d0 42 0c 36 be 9b 4d af bd c8 85 04 3e be fb 73 3c
       -0.17778113 -0.08559724 0.12941658 0.014891563
0000e0 fe 10 93 be 19 dc b4 be 30 e9 cc 3e ef f8 0f be
       -0.28723902 -0.3532417 0.40021658 -0.14059804
0000f0 60 99 92 be c3 f8 92 be 4c 20 f4 3b b5 4c 71 3e
       -0.2863264 -0.28705415 0.007450139 0.23564418

actor.2.weight f4 [64, 64]
000000 d7 5b 4f be 0c aa 2e 3d 45 9b 11 3e b2 6c 8d 3d
       -0.20249878 0.042642638 0.14219387 0.069054976
000010 0b 6b 21 3e 51 6e 86 be ae 97 ee bd ae 41 c5 3d
       0.1576349 -0.2625604 -0.11650024 0.09631668
000020 17 e9 f3 3d d7 9a 0a 3e 1c 76 30 bd 07 6b 89 bd
       0.11909693 0.13535629 -0.043081388 -0.06709867
000030 d9 0e f9 bd d4 7b 09 3e a1 eb 49 be 07 bf 4b be
       -0.12161035 0.13426143 -0.19718792 -0.1989709
000040 31 e3 20 be 52 29 cf 3d 6c b2 df bd 54 5e f5 bc
       -0.15711667 0.10115303 -0.10922703 -0.029952206
000050 31 bc a7 3c f9 02 d6 bd b7 90 59 be f3 a6 fe bc
       0.020475479 -0.10449786 -0.2124661 -0.031085467
000060 4b 8a ca 3d 54 b9 42 3e 8f 85 7c bd 21 a3 12 3e
       0.098896585 0.1901601 -0.06165081 0.14320041
000070 de ba 35 3d 1f 14 47 bd ac 28 18 be 74 10 f8 bd
       0.044367664 -0.048603173 -0.14859265 -0.12112513
000080 7b fb 1e 3d 44 bd 49 bd 88 81 5d be 82 b0 35 be
       0.03881405 -0.049252763 -0.21631444 -0.17743114
000090 c2 39 ad bd b5 04 28 bd 92 63 83 bd 49 70 c8 3d
       -0.08458282 -0.041020114 -0.06415476 0.09787042
0000a0 c2 f8 37 bd 73 64 67 bd b9 44 55 3e 0a 22 b9 bd
       -0.04491497 -0.05649228 0.20826997 -0.090396956
0000b0 39 dc 50 be 33 e7 45 3e 5b ea 6c 3d 22 dc 7d be
       -0.20396508 0.19326477 0.057840686 -0.24791005
0000c0 b3 07 4e 3e f0 b2 26 3c 57 32 fc bd a6 60 8f bd
       0.20120125 0.010174498 -0.12314289 -0.07000856
0000d0 bf 9d 62 3d 39 07 26 be e0 cb 43 3e e6 63 4b 3e
       0.05532622 -0.16213693 0.19120741 0.19862327
0000e0 0e 8e 0c b9 2d cc fc bd b3 a8 f8 bc e3 03 84 3e
       -0.0001340436 -0.12343631 -0.03035388 0.25784215
0000f0 0c 92 58 bd 64 72 01 bd 2f f7 a7 3d fd f5 41 3e
       -0.052873656 -0.031603232 0.082014434 0.18941493
000100 4d b2 d4 bd 3a d8 cf bd b8 26 67 3d 6a c3 fa 3c
       -0.10385571 -0.10148664 0.05643341 0.030610759
000110 fd e6 ef bc 09 01 05 3e c2 69 0b bd 08 99 e3 bc
       -0.029284948 0.12988676 -0.034036405 -0.027782932
000120 a8 c3 d9 bd e7 6f 7e 3e 7e e4 eb bd 37 9d aa be
       -0.106330216 0.24847375 -0.11518191 -0.3332307
000130 77 9a 97 bd 6a f8 15 3e 53 24 7f 3e a4 e3 4a 3d
       -0.07402509 0.14645544 0.249162 0.0495335
000140 e5 7c d0 3a 4e de e3 3d e5 64 ec bd 8a fa af bd
       0.0015906362 0.11126386 -0.115426816 -0.085927084
000150 19 c7 cd bd 75 d6 e4 3d e0 3b 80 be 84 16 25 be
       -0.100477405 0.11173717 -0.2504568 -0.1612187
000160 43 92 a3 bb c6 e4 07 bf 97 85 d1 bd c4 f4 68 bd
       -0.004991801 -0.53083456 -0.10230558 -0.05687405
000170 fb a3 8d 3e 83 98 79 be 74 b8 7a be bc 76 1a 3e
       0.2766417 -0.24374585 -0.24484426 0.15084356
000180 8c 3d 30 bd d8 c8 0c 3d 6c 23 19 3d 49 b4 95 be
       -0.043027446 0.034371227 0.037387297 -0.2923911
000190 a0 af 05 bc ad 06 cb 3b e6 44 a7 be 70 41 10 3f
       -0.008159548 0.006195864 -0.32669753 0.5634985
0001a0 e8 30 a6 3d df 24 5c 3e d3 87 99 bb fb 77 94 3d
       0.08114797 0.2149844 -0.004685381 0.07249447
0001b0 17 ec 80 3c b8 6b d8 bd f3 12 46 3c 1a ec 27 be
       0.015737576 -0.10567421 0.012089479 -0.1639866
0001c0 d0 29 36 3e 4b 54 fb 3b 6a 13 14 be 6e 36 60 3d
       0.17789388 0.0076699606 -0.14460531 0.05473941
0001d0 95 3a a7 be 9e 4b 8b 3e 85 6a ab 3d 56 2a 44 be
       -0.32661882 0.2720613 0.08369926 -0.19156775
0001e0 b0 d2 70 3e 7e e5 11 3e 0b d0 6e 3b e1 b9 b2 3e
       0.23517871 0.142477 0.0036439921 0.3490744
0001f0 59 1e 8f bd 99 04 49 3d b1 42 96 3e 18 c5 94 bd
       -0.0698821 0.04907665 0.29347757 -0.07264155
000200 98 b6 63 3d 83 fd b7 bd 88 fa 8e bd 89 3a d0 bc
       0.055594057 -0.089839004 -0.06981379 -0.025418537
000210 9d fe 8d bd 19 de 83 3e 06 46 41 3d 35 a1 c4 bd
       -0.06933329 0.25755385 0.04718592 -0.0960106
000220 f8 f0 c6 bd 6d 90 e4 bd ca 32 4b bd 91 56 f5 bd
       -0.0971393 -0.111603595 -0.049608983 -0.11979402
000230 81 ca 05 3e 6b 70 0b 3e a3 3c 31 3e 69 83 fd 3c
       0.1306553 0.13617103 0.17308287 0.03094645
000240 53 7e d3 3d 28 fa 07 be c0 c2 aa bd 36 b4 68 3b
       0.10326829 -0.13279021 -0.08337927 0.0035507805
000250 e0 9e 6d be 9e 28 c0 3d a6 81 a4 bd fd 9a 08 be
       -0.23205137 0.09382747 -0.08032541 -0.13340373
000260 92 c8 a0 bd 7d f4 8d be fe 17 c3 3d 33 94 bc bd
       -0.07850756 -0.27725592 0.095260605 -0.09207954
000270 c4 37 53 bd be ae 5a 3d df 80 5f bd b3 20 44 3e
       -0.051566854 0.053389303 -0.05456626 0.19153099
000280 5c 6b 1a be 3f 55 4b 3e 09 44 cd 3d 60 09 50 bd
       -0.15080017 0.19856738 0.10022742 -0.05079019
000290 fe 97 21 3e fc d8 ae 3c 32 4b 19 be 32 80 2c 3e
       0.15780637 0.0213437 -0.14970091 0.16845778
0002a0 f8 cc 85 3e 73 07 ba 3d 5a f0 bb bd 38 5d 13 3e
       0.2613294 0.09083452 -0.09176703 0.14391029
0002b0 e1 34 e0 bb 93 ad b8 bd ce d3 3c 3c fd 5f 3f 3e
       -0.006842241 -0.09017482 0.011525108 0.1868896
0002c0 af de be 3b 85 13 3f be dd 05 11 3e e1 5b b1 3d
       0.005824886 -0.1865979 0.14162393 0.08660103
0002d0 57 4d 9a be fd 0b 64 3e 79 1b fb bc 2a 54 52 be
       -0.3013713 0.22270198 -0.030652748 -0.20539919
0002e0 f6 35 48 bc 63 65 ca 3d 9f 1d 13 be 9a ad 3f 3d
       -0.012219897 0.09882619 -0.14366768 0.04679642
0002f0 7c 4a 2a 3e ad 8f d5 3d 0d a8 02 3e 57 63 4c be
       0.16629976 0.104277946 0.12759419 -0.1995977
000300 11 2c f2 bd 8c 3f d7 3d 50 6e 87 3c 15 11 04 be
       -0.11824811 0.105101675 0.016532093 -0.12897141
000310 db c7 5e 3d 41 47 90 bd b5 34 0c 3e 50 b7 31 bc
       0.054389816 -0.070448406 0.13691981 -0.010846928
000320 7b 39 21 bc 64 d4 0a be 0d 75 bf 3d 90 b0 0c 3e
       -0.009840365 -0.13557583 0.093484975 0.13739228
000330 ee 77 45 3c b8 bd 15 be 6b 1c a1 be e5 0a b8 3d
       0.012052519 -0.14623153 -0.31466994 0.08986453
000340 34 9c 5d bd d6 4a fe bc 9a ad e9 3c b1 05 9d 3d
       -0.054104045 -0.031041544 0.028525162 0.07667101
000350 14 2c d2 3d 7e fb 31 be 13 14 d9 3d f3 a2 ad 3e
       0.102623135 -0.17381093 0.10599532 0.33913383
000360 7e 5f 0b 3e 38 f7 b1 3e c1 52 39 bd 08 34 ca 3d
       0.13610646 0.34758925 -0.045244936 0.098732054
000370 50 92 14 be 16 86 80 3e 3d ee 8a 3e a4 06 43 be
       -0.14508939 0.251023 0.27134886 -0.19045502
000380 42 ee 46 b9 53 31 2a bd 81 dd 8f 3d 9b 15 8c 3e
       -0.0001897151 -0.041550945 0.070246704 0.27360234
000390 a6 ee f0 bd c6 7b 01 3e d2 52 9e 3e 85 ef a6 be
       -0.117642686 0.12644872 0.30922562 -0.32604614
0003a0 b7 43 99 be bd db 6b be ef af 64 3d 2e 05 08 be
       -0.29934475 -0.23033042 0.055831846 -0.13283226
0003b0 cf 7f 25 3e 7a 9e ac 3d 23 79 0c bd cd f7 64 3b
       0.16162036 0.084286645 -0.034295212 0.003493774
0003c0 61 34 6a bc fd 59 f7 3d d5 f6 a4 3d a3 a4 02 3b
       -0.014294715 0.12077711 0.08054892 0.0019934557
0003d0 0c 26 7e 3e 42 15 3f be e4 b2 63 bc ae b6 25 3e
       0.24819201 -0.18660453 -0.013897631 0.16182968
0003e0 9c 22 4a bd 0c 69 2a be 66 40 a0 3d 58 d4 ae be
       -0.049349412 -0.16641635 0.07824783 -0.3414638
0003f0 19 b5 b8 3d 4f 4d de bd 24 0d 8f be b9 75 e3 3d
       0.09018917 -0.10854589 -0.27939713 0.11106438

actor.2.bias f4 [64]
000000 67 5f 91 3d b1 22 6e 3d 58 c5 92 bd d9 61 d5 3c
       0.07098275 0.058138553 -0.071665466 0.026047634
000010 a7 a5 70 bd 26 31 0f bd bf 85 e2 3d 0d dc 64 3d
       -0.05875173 -0.03495898 0.11060666 0.05587392
000020 10 0e 4b 3d 86 dc da 3d 68 79 18 bc 88 04 13 be
       0.049573958 0.10686593 -0.009306289 -0.14357197
000030 83 bf f3 bd 68 23 42 be 36 ac 1d bd 0e 7c 35 3c
       -0.11901762 -0.18958819 -0.03849431 0.01107694
000040 30 49 1f 3c c5 16 82 3d 6d b4 2d 3e b6 07 1a 3e
       0.009722039 0.06351999 0.16963358 0.15042004
000050 74 53 31 be ba 8a d8 3d 34 be 8b 3d 65 3c 3e 3d
       -0.17316991 0.10573335 0.06823388 0.046444315
000060 43 80 cd 3d 67 fb 10 bd e9 8e 87 3d 7a a2 21 3e
       0.100342296 -0.035396006 0.06619055 0.15784636
000070 f4 7c be 3d 88 e8 1c 3e ca 3a b2 3d 84 36 4e bd
       0.09301177 0.15323079 0.087026194 -0.05034496
000080 04 d5 b8 3d 3b 99 06 be 49 88 fe 3d 04 4b d2 3d
       0.090250045 -0.1314439 0.12428338 0.10268214
000090 20 30 b6 3d 2c f5 15 3e 3b e3 13 3e 09 7c ed bc
       0.08895898 0.14644307 0.1444215 -0.028989809
0000a0 f8 ed e4 3d 49 26 73 3d cc 95 d0 bd b8 32 03 be
       0.111782014 0.059362683 -0.101848215 -0.12812316
0000b0 2c 67 46 3d 27 59 da 3d 5a 58 c6 3d bc 91 58 3d
       0.048438236 0.10661536 0.096848205 0.052873358
0000c0 8d 0b 56 be 85 a8 bb bc 94 8d 80 3c 1d 5a fd 3d
       -0.20902844 -0.022907505 0.01569251 0.12370703
0000d0 bd 8f db ba a0 52 10 3d 26 1c 9b bd fd c0 dd 3d
       -0.0016751211 0.035235047 -0.07573728 0.10827825
0000e0 65 f3 87 3c 0f 30 f5 bd 66 c7 88 bc 76 ac c1 bd
       0.016595552 -0.11972057 -0.016696643 -0.094567224
0000f0 81 db 9b bd bf 56 b9 bc a4 40 1f 3d 90 83 de 3c
       -0.076102264 -0.022624372 0.038880005 0.027162343

actor.4.weight f4 [3, 64]
000000 80 be 36 be ed d4 cb 3e dc e5 83 3e 94 34 ce be
       -0.17846107 0.39810887 0.25761306 -0.4027449
000010 16 6f da be 31 45 1b 3f 99 da b6 be a9 a7 b8 3d
       -0.42662877 0.6065245 -0.35713652 0.09016354
000020 a2 cd 8f be 81 96 35 bf 42 f8 44 3e a3 91 6b be
       -0.28086573 -0.70932776 0.19235328 -0.23004775
000030 a3 3f 14 3f 5d 21 85 3e 04 7b 0d be be dc d3 be
       0.579096 0.26002017 -0.13816458 -0.4137935
000040 cc 60 97 be 4a 1d 3d bf 42 6e 87 3d 9a 62 f0 bd
       -0.29566038 -0.73872817 0.06612827 -0.11737557
000050 3a 79 3a 3d 3e 10 a3 be b2 d8 97 3e 50 2b de be
       0.045525767 -0.3184833 0.29657513 -0.4339242
000060 30 16 d2 be f9 61 d4 3e 03 53 4c be a7 d7 fd bc
       -0.41032553 0.41480997 -0.19953541 -0.03098662
000070 4a 32 0e 3f e3 99 57 3e 8f 20 03 bf 23 44 a8 bc
       0.55545485 0.21054797 -0.51221555 -0.020540303
000080 84 b9 17 bf 68 4a 12 3f c1 72 19 bf 63 95 a1 3e
       -0.5926745 0.57144785 -0.59940726 0.31559286
000090 4c ae ad 3e 99 6a 97 be b9 f8 1b bf d5 42 c2 bd
       0.3392204 -0.29573515 -0.60926396 -0.094854034
0000a0 40 09 35 bf b3 f5 1a be 10 7e 94 be 0c c2 21 3f
       -0.7071724 -0.1513279 -0.29002428 0.6318672
0000b0 d7 99 89 be 43 7d 8c be 2c 40 1e bf ba be ac 3e
       -0.26875183 -0.27439317 -0.6181667 0.33739263
0000c0 6f 18 32 3e a2 6d b3 3e a3 93 8c 3e bc 40 c0 be
       0.17392133 0.3504458 0.27456388 -0.37549388
0000d0 03 7f 0b bf 91 bf 9a be 5a 56 da be 7e 5f ef be
       -0.5449068 -0.3022428 -0.42644006 -0.46752542
0000e0 a8 d1 84 3e 62 2c be be 10 71 2d be b2 d3 99 be
       0.25941205 -0.37143236 -0.16937661 -0.30044323
0000f0 2f 4a c4 3e 6f d3 c6 be 96 cc 3e be 42 d8 d8 be
       0.38337848 -0.38833186 -0.18632731 -0.42352492
000100 6c 0e 3a 3d ef 74 9c 3c b4 62 c2 bd be 2f a4 3d
       0.04542391 0.019098727 -0.094914824 0.080169186
000110 e0 23 2c bd 09 6a ac bd 1a ba f3 3d 80 19 4e 3d
       -0.0420264 -0.08418662 0.119007304 0.050317287
000120 13 ca 02 be b7 a8 8d 3d f0 e1 0e be 3e 28 bc bc
       -0.12772398 0.069169454 -0.13953376 -0.022968408
000130 45 a4 53 bd d0 7f 70 be 38 4d 22 be 35 75 1b 3e
       -0.05167033 -0.23486257 -0.15849769 0.1518143
000140 23 ff 8b 3d d5 e9 23 3a 6c 79 04 3e f2 40 dc 3d
       0.06835773 0.00062528 0.12936944 0.10754575
000150 4b d0 23 be c9 e0 ff 3d 0b db 6c 3e 92 2b c8 bd
       -0.15997426 0.12494046 0.23130433 -0.097739354
000160 7f 07 cb 3d 6c 67 ef bd e4 d3 42 3e 65 72 88 3d
       0.09913539 -0.11689648 0.19026142 0.06662444
000170 99 29 11 3e 6e e8 f0 3d 75 00 bc 3d 28 86 b0 3d
       0.14176024 0.117630824 0.09179775 0.08619338
000180 cc c7 e0 3d ea 94 5d bd 3d 3c 0c 3e ea 09 81 3d
       0.10975608 -0.054097094 0.13694854 0.06300719
000190 c5 68 28 bd 5d 5c ee 3d 37 7c e0 3d 35 33 52 be
       -0.04111554 0.11638711 0.10961192 -0.20527346
0001a0 2e 30 00 3e e9 71 8e 3c eb e7 3e be 2c a5 92 bc
       0.12518379 0.017388301 -0.18643157 -0.017901026
0001b0 cb dd 32 be 5b bf 32 3e a2 90 16 3c c8 83 e1 3d
       -0.1746742 0.17455809 0.009189757 0.110114634
0001c0 a8 c9 5a be 5d d9 8c 3d 02 5f e6 3c 30 03 03 3e
       -0.21365988 0.06877396 0.028121475 0.12794185
0001d0 2f a3 39 3d f7 05 33 bd 8f 7a 06 be 3b 07 16 3c
       0.04532164 -0.04370686 -0.1313269 0.009156997
0001e0 4c b0 bf bb 21 29 2c be 00 a1 e7 3c a2 7f 5d be
       -0.0058498736 -0.16812564 0.028275013 -0.2163072
0001f0 33 c9 f9 bd ae ad 14 3d 3d 2e 8d 3c ea 25 a1 3d
       -0.12196579 0.036298446 0.017233962 0.0786856
000200 26 86 30 be dc f9 31 bf 38 d8 73 3d 54 d8 83 3e
       -0.17238674 -0.6952188 0.059532374 0.25750983
000210 ff d7 33 3f 3f 3f a5 be 61 95 e8 3e 4f b1 59 be
       0.7025146 -0.32274815 0.45426467 -0.21259044
000220 02 aa 08 3f bd 14 e2 3e f6 01 e3 bd 74 aa 3a 3f
       0.5338441 0.44156447 -0.110843584 0.7291634
000230 73 e8 de be b6 00 8d bd bb 1d c2 3e cf 5e d6 3d
       -0.4353672 -0.06884901 0.37913308 0.10467302
000240 08 1f 7e 3e 70 2a c5 3e 7c ca de be 55 de 21 be
       0.24816525 0.3850894 -0.43513858 -0.15807469
000250 7f 72 3d 3e f2 ce 19 3d b2 67 04 bf 67 6d 12 3f
       0.18500708 0.037550874 -0.51720726 0.57198185
000260 6b 66 03 3f 30 9c 0b be 17 2f cf bd 02 08 69 be
       0.5132815 -0.136338 -0.101164035 -0.22756961
000270 61 c8 0e bf b1 7a b9 be 15 85 8f 3e 3a b6 04 3e
       -0.55774504 -0.3622642 0.2803122 0.12960139
000280 fc 23 bb 3e 61 a1 c7 be 88 55 a6 3e 84 f1 2d bf
       0.3655089 -0.3899031 0.3248713 -0.6794665
000290 5a c7 1f bf e2 9d 0f 3d 0e a3 b1 3e 48 68 49 3e
       -0.6241356 0.03506268 0.34694713 0.19668686
0002a0 bf 8c c5 3e 6e ec 36 bd a6 00 04 3f 9d 39 06 bf
       0.38583943 -0.04465907 0.5156349 -0.5243166
0002b0 fc 32 d9 3e b1 9d 31 3d 80 49 19 3f 24 31 19 bf
       0.4242171 0.043363277 0.5987778 -0.5984061
0002c0 26 61 8e 3d 81 a5 0e bf 34 4c 29 bf fb 2a 04 3e
       0.06952123 -0.5572129 -0.661319 0.12907021
0002d0 c7 dc a9 3e 77 9f dc 3e fe f0 37 3f eb d2 ee 3e
       0.33176252 0.43090412 0.718521 0.46645293
0002e0 4a a8 4d bf af 60 07 3f 5b 89 98 3e 94 8f 03 3f
       -0.80334914 0.528819 0.29792294 0.5139096
0002f0 0e 89 9e bd cd 66 22 3f 58 c8 df bc 30 1b 2a 3e
       -0.07740985 0.6343811 -0.027317211 0.16611934

actor.4.bias f4 [3]
000000 46 33 6d bd 58 78 17 3d bc cd 33 be
       -0.057910226 0.036980003 -0.1755895

critic.0.weight f4 [64, 5]
000000 24 f5 ae be 1d 3c 8e be e8 80 58 be 93 f5 db be
       -0.34171402 -0.27780238 -0.21142924 -0.42960796
000010 a6 7e 55 3f 4c 07 5e be 54 43 9e be 58 fc 61 3d
       0.83396375 -0.21682471 -0.30910742 0.055172294
000020 8a 9c 03 be eb 7e 9f 3f f0 98 9b be eb 7d 83 3e
       -0.12852684 1.2460607 -0.3039012 0.25682005
000030 64 f7 32 3d 3a b2 87 be 79 04 43 3f ae 8a 54 3d
       0.04369296 -0.26503164 0.761787 0.051890068
000040 db 57 6b bb 7a 33 da be d6 ef 45 be 27 8c 7e 3f
       -0.003591052 -0.42617399 -0.19329771 0.99432606
000050 c5 2e 75 3e ca cb 2f be 93 60 b9 be 70 2c 96 be
       0.23943622 -0.17167583 -0.36206493 -0.29330778
000060 5f 87 44 3f c8 20 48 be f5 1e 8e bc e5 cb 1f be
       0.7676906 -0.19543755 -0.017348746 -0.15605123
000070 58 99 ad be 28 7d 21 bd cb be 8f be 78 2a ca 3d
       -0.33906054 -0.039426 -0.2807525 0.098713815
000080 ee 59 ec 3e 6d 57 d6 be 7c 44 93 bf 5d 47 88 be
       0.4616236 -0.41863576 -1.1505275 -0.26616946
000090 3d 07 b0 3e 5e 53 fe be a1 8d 60 bd a5 d0 75 3f
       0.34380522 -0.4967298 -0.054822568 0.9602149
0000a0 1b 42 90 bb 86 47 a6 be 82 a0 c2 bd 18 fb 14 be
       -0.0044024116 -0.32476443 -0.09503271 -0.1454891
0000b0 55 e8 85 3f 9a c1 38 3e a3 81 a7 be 5a 86 37 be
       1.0461527 0.18042603 -0.32716092 -0.17922345
0000c0 aa 4a ac be 5f c7 a7 bf 34 0b e1 3e da b0 bd be
       -0.33650714 -1.3107718 0.4395386 -0.3704899
0000d0 da bc 3c bd d2 4e 09 3e 84 d1 b2 3f f5 79 db 3d
       -0.04607854 0.13408974 1.3970189 0.10716621
0000e0 c2 ab ca bd d7 48 ca bd e1 9d b0 bd 2e 3e 0a bf
       -0.098960415 -0.09877174 -0.08623863 -0.5400113
0000f0 f2 25 8d 3e a4 de 16 3e da ca b2 bc 68 12 2d bd
       0.27568012 0.14733368 -0.021825243 -0.04225388
000100 2e 11 74 3f 4e 02 fa bd f0 4f 33 bd d4 81 ef be
       0.95338714 -0.12207471 -0.043777406 -0.46778738
000110 32 34 d2 be ff 51 69 3d cd be cc be 99 65 30 3e
       -0.41055447 0.056962963 -0.3998932 0.17226256
000120 a7 aa 79 bc c2 df c3 be 22 11 c5 bf 48 05 90 be
       -0.015238441 -0.3825665 -1.5395854 -0.2812903
000130 c0 1b 5f 3e ea f2 8c 3e 3d 49 94 be c0 6e 9b 3f
       0.2178793 0.2752908 -0.28962126 1.2143173
000140 f2 47 8d be 8b 32 4c 3e 51 6a 95 3e da ea 5a be
       -0.27593952 0.19941156 0.29182675 -0.21378651
000150 38 52 db 3e 41 47 92 be 99 ad 0e be b9 b2 a1 bd
       0.42836165 -0.28569987 -0.1393341 -0.07895417
000160 24 7f 1f 3e 14 e1 b7 bf 41 44 c0 be 02 0e ce 3e
       0.15575844 -1.4365563 -0.37552074 0.40245062
000170 d1 7a 9e be 0a 00 35 3c e8 a7 99 3f e9 4a a3 be
       -0.30953076 0.011047373 1.2004366 -0.3189309
000180 19 af 19 3e da de 8a 3d fd 86 9a 3e 16 af 73 3f
       0.150082 0.06780787 0.30181113 0.95189035
000190 00 05 bb be e3 41 61 3e cb d1 64 3e 38 65 ea be
       -0.36527252 0.2199779 0.22345655 -0.4578035
0001a0 78 c4 a5 3f 8f 33 a3 be d1 15 62 3e 04 82 4c 3e
       1.2950583 -0.31875274 0.22078635 0.19971472
0001b0 11 cc 39 bd b0 4a 94 bf c6 7c 0e 3e 3a b9 b4 bd
       -0.04536063 -1.1585293 0.13914785 -0.08824392
0001c0 c3 92 85 3e 3d 9c cc bd f6 70 35 bf c8 4f 89 3e
       0.26088533 -0.099907376 -0.7087549 0.2681868
0001d0 bc 2c af be 5d 28 19 3e 07 c2 87 be 6b 79 fd 3e
       -0.34213817 0.14956804 -0.2651522 0.49506697
0001e0 6a d5 8b 3a e6 ea 80 3e 1a f0 b0 bd ed c9 0d be
       0.0010668461 0.25179213 -0.08639546 -0.1384656
0001f0 6f a9 54 3f 55 03 29 3e 7d 13 9d be c8 a0 20 3e
       0.83071035 0.16505177 -0.3067893 0.15686333
000200 c3 cb b9 3e b5 d7 ae 3f 29 79 04 3d 40 c9 65 3e
       0.3628827 1.3659579 0.03234211 0.22440052
000210 b8 3f 22 be 69 1e 12 be f4 95 ba 3f 21 84 d6 3d
       -0.1584462 -0.14269413 1.4577012 0.1047442
000220 1d 3c 7e 3d b7 49 87 be 26 80 a9 be 68 f9 4b be
       0.062069047 -0.26423427 -0.33105582 -0.1991936
000230 76 11 95 bc d8 d4 c5 3c 63 d9 a1 be 2d 2f 60 be
       -0.018196803 0.024149343 -0.31611165 -0.21892996
000240 67 87 f8 3e c4 c1 ef bd 42 a9 46 3e 28 0e e1 be
       0.48540804 -0.1170688 0.19400504 -0.43956113
000250 ec 05 76 3e 23 2a aa 3f 34 ba 1d 3e 49 b7 8a bd
       0.24025697 1.3294109 0.15403062 -0.0677324
000260 5f 7a e4 3e 72 3a 40 be a0 5e a9 bf 4a 69 9b 3d
       0.44624612 -0.18772295 -1.3232002 0.07588442
000270 e7 c2 92 be 21 a2 1d bf 1a 57 ad 3e 00 f7 9a 3d
       -0.28664324 -0.61575514 0.33855516 0.07566643
000280 6e 38 87 3b 35 44 58 bd c1 dd e7 be bd 1e cb 3e
       0.0041266 -0.052799422 -0.45286372 0.3967189
000290 6a c6 58 be 5c 21 80 be dc cf 0f 3d 1a 10 cf bd
       -0.21169439 -0.2502545 0.03511034 -0.10110493
0002a0 ee 6b f9 3c da da b6 3f da d3 93 be 02 a7 7e 3e
       0.030446973 1.4285538 -0.28872567 0.24868396
0002b0 73 2b 8c 3e df 4a e1 be 50 df 7a bf ff 77 6c 3d
       0.273769 -0.44002435 -0.97997 0.057731625
0002c0 7a b2 3a be d2 41 7d bd 90 68 c1 be 14 49 56 3f
       -0.18232146 -0.06183035 -0.37775087 0.8370526
0002d0 ff 7c fa 3c df 09 23 bd 0d 81 24 3d 9f 99 f3 bd
       0.03057718 -0.039804336 0.040162135 -0.11894535
0002e0 d7 18 ba bf f9 11 9e 3e 62 37 cd 3d 14 e6 3e 3e
       -1.453883 0.30873087 0.10020329 0.18642455
0002f0 dc ef b4 3e df 85 88 bf 2c a6 c5 be e0 a6 43 3e
       0.35339248 -1.0665854 -0.38603342 0.19106627
000300 e7 0f 0f be bb 80 85 3e 8e ad 83 3f 55 cf b5 3e
       -0.1397091 0.26074776 1.028734 0.35509744
000310 cd dd dc bd 93 71 09 be 08 30 83 3e cd a0 93 3f
       -0.10784493 -0.13422231 0.25622582 1.1533448
000320 ea a1 18 3e f2 24 de bd 79 bc fb 3d ac cb 88 be
       0.14905515 -0.108468905 0.12291808 -0.2671789
000330 19 07 5c bf 08 e6 63 3e 67 4e 8b be ac 96 d0 3e
       -0.8594833 0.22255719 -0.27208254 0.40739954
000340 bd fb b6 3e bb 3a ac bf 8e 46 89 be e4 d6 c4 3d
       0.35738936 -1.3455423 -0.2681164 0.096113
000350 cb da dc 3e 50 ef cd be 75 9f c3 bd 67 17 86 3e
       0.43135676 -0.40221643 -0.095518984 0.2618973
000360 1e 8d 6c be 06 26 00 bf 3c e6 9a bc 27 3f ab 3f
       -0.23100707 -0.5005802 -0.018908612 1.3378648
000370 dc a4 8b 3e 1f eb ee 3d ea ae 80 be 96 c2 94 3e
       0.27274215 0.116659395 -0.2513345 0.29054707
000380 16 eb b0 3f e5 28 2e be fa 51 fd bd 66 b6 b9 be
       1.3821743 -0.17007788 -0.123691514 -0.3627197
000390 9c 8b d1 be 98 85 87 3f ca eb b1 3e 55 a0 86 be
       -0.40926826 1.0587645 0.34750205 -0.262942
0003a0 ec b8 4f 3d 6e 8b 5e be 96 21 af 3f 96 63 59 be
       0.050713465 -0.21732876 1.3682125 -0.21229395
0003b0 7c 6e 48 be c6 0d d3 3e a7 bb bc bd 53 8c 99 bf
       -0.19573396 0.41221446 -0.09215479 -1.1995949
0003c0 73 02 a9 3c c4 ea 09 3e 8f 53 c9 3e bc ff e6 be
       0.02063105 0.13468462 0.39321563 -0.45116985
0003d0 ec 24 46 be 44 d3 7b bd c8 2e 97 be e2 26 2d bc
       -0.19350022 -0.061480775 -0.2952788 -0.010568352
0003e0 20 9a d4 be 29 c5 b0 bf 57 98 72 3e 2f f9 11 be
       -0.41523838 -1.3810169 0.23690926 -0.14255212
0003f0 76 89 a7 be 27 44 80 3d e6 35 e6 3d c2 16 96 bd
       -0.32722062 0.06262999 0.11240749 -0.073285595

critic.0.bias f4 [64]
000000 a5 2d f0 3e aa 03 72 3e df a8 f5 3c a2 24 94 3e
       0.46909824 0.2363421 0.02998775 0.289342
000010 7d 0a 13 3e 8f e7 65 3e 39 d8 c2 be 83 9e 86 3e
       0.1435947 0.22451614 -0.3805559 0.2629281
000020 21 e8 83 be ce 3e 19 3d 54 2d 6d bd 9f d4 33 3e
       -0.25763038 0.03741341 -0.057904556 0.17561577
000030 29 1a bb 3d cb a1 af 3e 82 49 2e 3c 9d 77 ed bc
       0.09135849 0.34303126 0.010637643 -0.0289877
000040 6b 36 ea be f6 a2 9c 3e 10 75 43 3e 67 ab 87 3e
       -0.45744643 0.3059308 0.19087625 0.26497957
000050 07 61 87 be e4 b5 85 3e 28 a9 08 bd d0 1c 5e be
       -0.26441213 0.26115334 -0.033364445 -0.21690679
000060 19 44 2f bd 02 47 42 3c e9 84 fd bc b2 3b 47 3d
       -0.042789552 0.01185775 -0.030947166 0.048640914
000070 69 61 af 3e 03 79 7a 3e 6a 6e 9d be cd 57 3a 3d
       0.34254006 0.24460225 -0.30748302 0.04549389
000080 bc dd f7 3c 92 f1 9e 3e 59 f3 07 be a2 77 0f be
       0.030257098 0.3104368 -0.13276424 -0.1401048
000090 3c 2d 34 be 71 c0 07 be 3f 0f be 3e ee 57 21 3e
       -0.1759538 -0.13257004 0.37121007 0.15756199
0000a0 86 c3 68 be 9b 9e ab be 9d 0b 21 bc af 38 b8 3e
       -0.22730836 -0.33519444 -0.009829429 0.35980746
0000b0 27 c2 5f be 51 64 8a 3e 57 d3 44 3e fe a3 a7 3d
       -0.21851407 0.2702966 0.19221245 0.08185576
0000c0 0a 8c d9 3d fa fe aa 3d 69 f3 80 bd 13 88 47 3e
       0.106224135 0.08349414 -0.06296427 0.19485502
0000d0 2e bc ac be d4 bd 62 3c 04 f1 8c 3d f8 3d cf be
       -0.3373732 0.013839204 0.068819076 -0.40476966
0000e0 f2 5d a3 3e ee cd 6e 3d e1 5d 2e be 7b 14 9f be
       0.31907612 0.05830186 -0.17028 -0.31070313
0000f0 1a 23 89 3e 0a 2b 84 be 87 32 b5 be 3f cb 83 3e
       0.26784593 -0.25814086 -0.35390112 0.25741002

critic.2.weight f4 [64, 64]
000000 69 02 ad 3d 5c e5 d8 bd a0 19 b8 3c 81 6b c6 bd
       0.08447725 -0.10590622 0.022473156 -0.096884735
000010 1c 0c c3 bc c8 5f 86 3d 1b 87 fb 3c 70 09 09 bd
       -0.023809485 0.065612376 0.030704072 -0.033456266
000020 5e 63 ac bd bb f7 51 3e 19 cc 7a 3d 9c 9a c9 bc
       -0.0841739 0.20504658 0.0612298 -0.024609856
000030 f6 54 83 3b 7e 87 75 bd 02 73 cc 3d 0b 88 7a bd
       0.004007931 -0.05994367 0.099828735 -0.061164897
000040 73 20 b3 3d 3b d0 87 3d c0 7e 77 3d e8 16 8f 3d
       0.087464236 0.06631514 0.060423613 0.06986791
000050 2e fb 21 be cc f4 d8 3c cf 9d e6 bc f2 ef df bc
       -0.15818474 0.026483916 -0.02815142 -0.027336095
000060 38 ea af bd 6a d3 25 be 94 b4 df bd ff f7 d9 bd
       -0.085895956 -0.1619393 -0.109231144 -0.106430046
000070 46 5b c4 39 25 08 6f bd 65 75 cf 3d 1c 3e 06 3e
       0.00037452037 -0.058357377 0.10129813 0.1310963
000080 4f 63 a6 3d 30 89 0e be cd 90 8a bd 5a 56 fc bd
       0.0812441 -0.1391952 -0.067659 -0.12321158
000090 75 e3 3b 3e 4f 6b 0d 3e d5 10 0c 3b b3 32 af bd
       0.18348487 0.13810466 0.0021372337 -0.08554592
0000a0 82 a3 74 bd b0 ee c8 3d e5 6b 9b 3d fb 27 d4 bd
       -0.059726246 0.09811151 0.075889386 -0.10359188
0000b0 41 31 94 bd 64 3d fa 3d b7 c6 0e bd 07 1a 81 bc
       -0.07235957 0.122187406 -0.034857478 -0.015759481
0000c0 a9 85 0a be 9b c2 db 3c fd 0a 46 3c 37 5b 5d 3c
       -0.1352755 0.026826194 0.012087581 0.013510517
0000d0 57 97 c3 bd 3d ca 58 bd 1b b9 83 3a ad b7 15 bd
       -0.0955035 -0.052927244 0.0010049673 -0.03655212
0000e0 db c8 81 bd d2 78 0e 3e 68 c0 fe 3d 5d a6 b5 bd
       -0.06337138 0.13913277 0.12439042 -0.08869622
0000f0 d0 d3 06 be f5 09 e9 bc 4f a8 bc 3d 6d 9f b2 bd
       -0.13166738 -0.02844713 0.0921179 -0.08721814
000100 f7 61 d1 bd f8 8f ce bd 7c 34 e2 bd 24 cc 8a bd
       -0.102237634 -0.100860536 -0.11045167 -0.06777218
000110 1d 70 a8 3d 84 24 ac 3c 0e bb 16 3e 66 a3 bc bd
       0.08224509 0.021013506 0.14719793 -0.09210853
000120 5a f7 0c 3e ff e7 3c 3e c1 0a 84 bc 86 e1 9b 3c
       0.13766232 0.18447874 -0.01611841 0.019028436
000130 e9 01 07 be 28 dd 93 bd d6 77 82 3e 0a f9 dd bd
       -0.13184322 -0.072199166 0.25482053 -0.10838516
000140 2a ae bd bc 4d 6f d8 3d ef 48 cb bd 4d c3 f7 bd
       -0.023154337 0.10568104 -0.0992602 -0.120977975
000150 f8 b1 ba bd f8 01 97 3d b6 10 e2 3d 71 9d 65 3d
       -0.09115976 0.073734224 0.110383436 0.05605835
000160 9c 29 93 3d 67 74 b7 bd 9b 03 f7 bd 6a 53 d1 bc
       0.07185671 -0.08957749 -0.120612346 -0.02555247
000170 0d 9e 74 3d 5f c2 6f bd 4d 95 6c 3c a7 b0 81 bd
       0.05972104 -0.058534976 0.014439893 -0.06332522
000180 7e c4 02 3e fb 5b fb bd 2d eb 8a 3d ac b1 b4 bd
       0.12770268 -0.12273403 0.067831375 -0.08822951
000190 54 5e bf 3d 3e 3e e5 3d 0a b3 20 be 68 66 93 3a
       0.093441635 0.111935124 -0.15693298 0.0011245729
0001a0 e7 02 98 3d 15 f5 7a 3e 33 87 79 bc f2 11 fa bd
       0.074224286 0.24507554 -0.015229988 -0.12210454
0001b0 8b 1e eb bd 69 0c 3d bc 5e be 72 be 10 dc ff bc
       -0.11480435 -0.011538603 -0.23705432 -0.031232864
0001c0 c2 98 38 3d 7f 39 5e 3d 71 5e 90 bd 50 82 44 bd
       0.045067556 0.05425405 -0.07049263 -0.04797584
0001d0 b6 5a 1c 3e 48 3e 0c be c1 fa dc bd b5 64 3c 3d
       0.15268978 -0.13695633 -0.10790015 0.04599448
0001e0 e3 f7 16 be bb 62 60 3b 51 9f ab 3c 6b 52 9c ba
       -0.14742999 0.0034238535 0.020949991 -0.0011926418
0001f0 fd d0 33 bd b3 7f ad 3d 86 39 d9 3d 53 4a 79 bb
       -0.04390048 0.08471622 0.10606675 -0.0038038685
000200 b2 a6 c7 3c c9 4e 6d bd f0 09 86 3d 18 85 53 3c
       0.024371479 -0.057936464 0.06544864 0.01291015
000210 b7 04 b1 3d f9 65 98 bd a1 79 e4 3c ae 7b a0 3d
       0.086434774 -0.07441325 0.027890028 0.0783609
000220 bb e5 e2 bd 18 59 8f 3d 77 7b cd bc 9e 98 a2 bd
       -0.11078974 0.06999415 -0.025083287 -0.07939266
000230 7b 92 82 3d f5 fe 5b 3d 07 f5 17 3e 9b bc 3c be
       0.06375595 0.053709943 0.14839564 -0.18431322
000240 81 61 0b be ef 93 93 3c be 13 ff 3d 3f 25 3f bd
       -0.13611414 0.018014876 0.124549374 -0.04666638
000250 94 67 20 be b1 37 2c bd 63 14 ff bd cb 4b bd 3d
       -0.15664512 -0.0420453 -0.1245506 0.09242972
000260 c4 c2 13 bc a0 56 ac 3c f2 ac 12 be a2 1e 8a bd
       -0.009018604 0.0210374 -0.14323786 -0.06744124
000270 52 53 58 3d 97 99 3d bc 1c 31 1d be 11 04 5c 3d
       0.052813835 -0.011572263 -0.15350765 0.053714816
000280 32 08 b3 bd 8a 59 36 be d2 49 df bc e4 1b 39 bd
       -0.087417975 -0.17807594 -0.02725688 -0.045192614
000290 6a d4 09 39 cf fc 8b 3c 27 09 59 3d cf 61 df 3d
       0.00013144469 0.017088322 0.052987244 0.109073274
0002a0 7c 99 b7 bc e6 63 33 bc fa 0f 8a bd 8f 7c e5 3d
       -0.022412054 -0.010949111 -0.067413285 0.11205398
0002b0 5c c4 db bc e5 1e b5 bd 30 1b 28 be 22 85 27 3d
       -0.02682703 -0.08843783 -0.16416621 0.04089845
0002c0 ac 2c 9d bd c9 29 0b 3e e7 2b 8d 3d eb 2c b3 3d
       -0.07674536 0.13590159 0.06893139 0.08748802
0002d0 5b 8a f4 bd 46 fa fb bd 57 88 e2 3d 14 82 99 3d
       -0.11940452 -0.12303595 0.11061161 0.074955136
0002e0 a5 82 06 3e 6d eb 5e bd 4f 30 d1 bc ac ee a6 bc
       0.13135774 -0.05442374 -0.02553573 -0.02037748
0002f0 a8 69 a6 3c dc e2 c9 bd 57 1c 8e 3a 80 4b ac bd
       0.020314053 -0.09857723 0.0010842186 -0.08412838
000300 a6 b9 87 3d 40 1b ec bd 86 89 52 bc d6 95 52 3b
       0.066272065 -0.11528635 -0.012850171 0.0032132766
000310 4c 67 0a 3d ed aa 4d 3d 7e 62 9f bd 66 e6 c4 3d
       0.033789918 0.050211836 -0.07782458 0.096142575
000320 8f e5 d9 bb d8 cd 0e be fb 7e 8b 3c a2 f7 99 3d
       -0.00664968 -0.1394571 0.017028322 0.07517935
000330 89 57 88 bd 5b fe 96 bd 81 2a 64 be 69 94 3f 3e
       -0.06657321 -0.07372733 -0.22281839 0.18708958
000340 3b c2 53 bd f6 7d c3 bd 2a 70 2e bd 88 aa fd bc
       -0.051698904 -0.095455095 -0.042587437 -0.030965105
000350 7b c8 17 3e c0 8b c2 bc 4b b7 8b 3d 3a 99 f7 3c
       0.14822571 -0.023748279 0.0682207 0.030224431
000360 98 af 5f bd 0f 19 b9 3d fa 48 8a bc bf 3d eb bd
       -0.05461082 0.09037983 -0.016880501 -0.114863865
000370 eb df 83 3d ea 12 ee 3d 38 4b 03 bd 5c c3 90 3c
       0.06439193 0.11624701 -0.032054156 0.01767128
000380 b0 6a 2e 3d d5 fe 5a 3d 30 7f 6d bc 90 72 db 3d
       0.042582214 0.053465683 -0.014495656 0.107152104
000390 29 30 61 bc bc 88 aa bd 43 d8 83 bc 6a 58 b8 bd
       -0.013744392 -0.08326861 -0.016094333 -0.09001239
0003a0 33 5b 05 3d 5b b5 10 3d 93 b4 e7 3b 66 60 d1 bd
       0.032557677 0.035329204 0.0070710867 -0.10223465
0003b0 df 8a 98 bd 33 c5 67 3d d4 ae ca 3d 4f 4e 85 bc
       -0.074483626 0.05658455 0.09896627 -0.016272692
0003c0 9b 46 bf bc 04 81 f0 bd 8b 77 36 3d e9 39 75 3c
       -0.023349097 -0.11743358 0.0445476 0.01496742
0003d0 9e 51 f9 3c ae 65 c0 3d fe b4 8a 3d db 59 77 3d
       0.030434426 0.09394394 0.06772803 0.060388427
0003e0 a0 43 d5 3d 2d 7d 1e bd 8d 35 be bd 1f c1 61 bd
       0.10413289 -0.038693596 -0.09287558 -0.055115815
0003f0 de 95 cf bd 6d 11 13 bd dd d5 b5 3d 98 7f c1 bb
       -0.10136007 -0.03590529 0.08878682 -0.005905103

critic.2.bias f4 [64]
000000 85 64 90 3c 5c 19 d6 3c 23 cc 06 3e a7 a3 ba 3d
       0.017626056 0.02613514 0.1316381 0.091132455
000010 df 73 d0 bd c5 6c f1 3d 2b 0f fa 3b f6 0e a4 bb
       -0.10178351 0.11788324 0.0076312027 -0.0050066663
000020 f3 c2 82 3d 30 99 9c 3d 20 d9 98 3d c6 47 a9 3b
       0.0638484 0.07646406 0.07463288 0.0051660268
000030 73 79 20 bd fe 7e 12 3e ae df 38 bd 0d b4 64 3d
       -0.039178323 0.14306256 -0.045135193 0.055835772
000040 a1 49 0b bc f6 04 b1 3d 08 18 65 3d c3 e5 35 3c
       -0.008501441 0.08643524 0.05593112 0.011102143
000050 5e 25 55 ba de 47 01 bd e1 5d a2 bc a7 e5 90 3d
       -0.00081308733 -0.03156268 -0.019820156 0.07075053
000060 1b ce 9e 3c 5a 7b 07 3e e7 76 b8 bc fd dc 0e be
       0.019385388 0.13230649 -0.022517635 -0.13951488
000070 83 13 a4 bc 4b d6 5a bc 8b b4 e8 bd d5 d0 8d bd
       -0.020028835 -0.0133567555 -0.11362561 -0.06924597
000080 e1 72 53 bc 87 7e e3 3d 39 2b 8b 3d fc 72 1b be
       -0.012905807 0.111081176 0.067953534 -0.15180582
000090 f3 d4 9e 3c 75 b5 51 bd 2f 3a 9d 3c 21 2c 04 3d
       0.019388651 -0.05119844 0.019192783 0.032268647
0000a0 a0 43 29 3e ec 8c be bd 52 82 a7 3c 54 54 91 3c
       0.16529703 -0.093042225 0.020447884 0.017740406
0000b0 72 56 a3 3d 7e ef ca bd 12 40 ad 3d b5 91 08 be
       0.079754725 -0.09908961 0.08459486 -0.13336833
0000c0 53 6e 0b bd 1e c1 29 be 00 cd 34 bd d0 e1 67 bc
       -0.03404076 -0.16577575 -0.044140816 -0.014152959
0000d0 ed 1e 80 bc 90 20 20 3e 8d fe 8c 3d 3a 0e 0b 3e
       -0.015639747 0.15637422 0.06884489 0.13579646
0000e0 96 31 ed bc 42 2b 23 be 43 fd a0 bc bd 13 bf 3c
       -0.028954308 -0.1593447 -0.019652015 0.023324842
0000f0 dd c9 9b 3c 93 cb ad 3c 0f b4 fb bd 7c 69 cd 3d
       0.019017154 0.021215236 -0.12290203 0.10029885

critic.4.weight f4 [1, 64]
000000 33 d3 b4 bc a3 a4 2f bd 93 8b f8 bb 1c ad 11 3c
       -0.022073364 -0.04288162 -0.007584998 0.00889137
000010 cc 65 1f 3a 04 42 db bc d2 77 a3 ba 20 6b 77 3c
       0.00060805376 -0.026764877 -0.0012471622 0.015101224
000020 5c 6a 4d 3a ec 77 4c 3a db ed 98 ba 44 16 e1 bd
       0.0007835978 0.0007799852 -0.0011667566 -0.10990575
000030 c0 dd 09 3d be 1a 9c bd 3f b2 7e be 19 63 df ba
       0.033658743 -0.07622288 -0.24872683 -0.0017043083
000040 44 95 24 ba b9 1e cd ba c6 a6 18 ba 06 f9 19 3b
       -0.0006278346 -0.0015649415 -0.0005823191 0.0023494377
000050 7b 73 7f bd da 95 1f b9 cf fd a8 b9 b0 94 9f b7
       -0.06236599 -0.00015219246 -0.0003223256 -1.9023515e-05
000060 ec cb 43 3b eb 02 c9 3e 5d c6 99 3a ed df 50 3e
       0.0029876186 0.3926004 0.001173209 0.20397921
000070 d1 82 1f bb 6c a2 81 3a e6 8f fc 3d f6 4f c1 3a
       -0.0024339447 0.0009890324 0.12332134 0.0014748562
000080 fe 68 f7 39 d9 64 aa ba 13 ae 08 ba ae 97 9d 3d
       0.00047189737 -0.0013000026 -0.00052139274 0.07694946
000090 5f 14 38 ba 15 57 30 bc fe 27 d6 ba 95 30 ba ba
       -0.00070220785 -0.0107629495 -0.0016338823 -0.0014205152
0000a0 7b ae 8f bd 5a c0 f1 ba ae ce 6e ba 23 2c 43 bd
       -0.070157014 -0.0018444166 -0.0009109777 -0.047649514
0000b0 d1 75 39 bd 8a 5c 6a 3b e3 ca 0f ba c3 ea e6 3d
       -0.045278374 0.0035760724 -0.00054852496 0.11275246
0000c0 11 e7 a3 39 01 51 97 3d 92 0d 03 3e cc 84 58 bd
       0.0003126194 0.07388497 0.12798145 -0.05286102
0000d0 cc 03 ce bd 9f e9 19 be 61 b4 8d 3d dd fe 43 bd
       -0.10059318 -0.15030526 0.0691917 -0.04785048
0000e0 60 9b 61 3b 2c d3 d6 3c 57 77 bf bd 83 40 a8 3b
       0.0034424886 0.026223741 -0.09348934 0.0051346435
0000f0 61 cf 24 3b d6 cb ce 3a 24 08 da 3b 04 f3 41 bd
       0.0025148022 0.00157773 0.0066538025 -0.0473509
