trained/SimplePong/PPO_mcts_frequent_1728630308.0088654.pth (torch, 42370 bytes, 11 tensors)

actor.0.weight f4 [64, 5]
0	0x3e4db690	0.20089173
1	0xbd979f6b	-0.074034534
2	0x3d8a5125	0.06753758
3	0x3b69159c	0.0035565859
4	0x3cc1e4fb	0.023668757
5	0x3e7b1a67	0.2452179
6	0xbe4a9e3b	-0.19786923
7	0xbe9be21c	-0.30445945
8	0xbed3814d	-0.41309586
9	0x3e916f74	0.28405344
10	0x3efdde18	0.49583507
11	0xbef19f07	-0.4719164
12	0x3e8b4e57	0.27208206
13	0xbec01a68	-0.37520146
14	0xbeb534bd	-0.353918
15	0x3ed921e9	0.42408684
16	0xbe48b04e	-0.19598505
17	0xbe07e5fc	-0.13271326
18	0x3e2b7112	0.16742352
19	0xbe9f2b32	-0.31087643
20	0x3db98d6b	0.090601765
21	0x3d9e8509	0.07740218
22	0xbaacfc23	-0.0013197701
23	0xbe824b87	-0.25448248
24	0x3edb1ac6	0.42793864
25	0xbec7487e	-0.38922495
26	0xbdad896e	-0.08473478
27	0xbddc1d49	-0.10747773
28	0x3e26b0c7	0.16278373
29	0xbe8a9adc	-0.27071273
30	0xbeb52363	-0.3537856
31	0x3e9d09df	0.30671594
32	0xbe851227	-0.25990412
33	0x3d429161	0.047501925
34	0xbe2f6d29	-0.17131485
35	0xbe9869db	-0.2976826
36	0x3ed2a96a	0.41144878
37	0x3c941e3c	0.018080823
38	0x3e860635	0.2617661
39	0x3c09a62a	0.008401433
40	0x3eba69e7	0.36408922
41	0xbf1ae2bc	-0.6050222
42	0x3eb7f3d2	0.35928208
43	0xbe946b31	-0.2898803
44	0x3d935108	0.0719319
45	0xbe36d29e	-0.17853782
46	0xbeabfac8	-0.33589768
47	0xbd302a51	-0.043009106
48	0x3df6f841	0.120590694
49	0xbe597905	-0.21237572
50	0x3e4e91bd	0.20172782
51	0xbdacd468	-0.08438951
52	0xbe997314	-0.2997061
53	0xbf249ab6	-0.6429857
54	0x3ed39f27	0.4133236
55	0x3e9ca7a9	0.30596665
56	0xbe3b3d4c	-0.18285102
57	0xbea8cebe	-0.32970232
58	0x3cd0c3d3	0.025484001
59	0xbe98b258	-0.29823565
60	0xbeae8d35	-0.34092107
61	0x3e8a1fb4	0.26977313
62	0x3e841bbc	0.2580241
63	0x3e4a7a89	0.19773306
64	0x3d9bd333	0.076086424
65	0x3e84709c	0.25867164
66	0xbdbbf1ab	-0.09176954
67	0xbea01670	-0.31267118
68	0xbf1d5e77	-0.61472267
69	0x3ee676da	0.45012552
70	0x3d4919b5	0.04909678
71	0x3e18dca1	0.14927913
72	0x3e8a3d5b	0.26999936
73	0xbec48c98	-0.38388515
74	0xbee27d70	-0.44236326
75	0xbec172bc	-0.37782848
76	0x3eacef99	0.33776549
77	0xbde1583c	-0.110031575
78	0x3dafe8e9	0.08589346
79	0x3e9d719a	0.30750734
80	0xbef0e24f	-0.4704766
81	0x3e374e16	0.17900881
82	0x3e451f4b	0.19250219
83	0x3f1bbbe9	0.60833603
84	0x3e709665	0.23494871
85	0x3d37ba0b	0.04485516
86	0x3dc3aae8	0.09554082
87	0x3ecfa85a	0.4055813
88	0x3ebb4df6	0.36582917
89	0xbe86610e	-0.26245922
90	0x3e9a545b	0.30142483
91	0x3e6edbff	0.2332611
92	0x3e35f77d	0.1777019
93	0xbe3657cf	-0.17806934
94	0x3e2081e8	0.15674555
95	0x3d11edf6	0.035627328
96	0xbed8394a	-0.42231208
97	0xbe66e314	-0.22547561
98	0xbd14f2a3	-0.03636421
99	0x3eb29153	0.348765
100	0xbe148f1d	-0.14507718
101	0x3e289e4e	0.16466638
102	0xbd5c3aa0	-0.053766847
103	0x3eb0bb9c	0.34518135
104	0xbd9c9a13	-0.07646575
105	0xbce74697	-0.028231902
106	0xbd6da15a	-0.058015205
107	0x3e6a7b6f	0.22898649
108	0xbd1130da	-0.03544698
109	0x3e3edb9b	0.1863846
110	0x3ee3de3e	0.44505495
111	0xbe167841	-0.1469431
112	0x3ecf7ac7	0.4052336
113	0x3d99d6f8	0.07511705
114	0xbecfcc5d	-0.40585604
115	0xbcc197d3	-0.023631966
116	0x3e92a705	0.2864305
117	0x3e3c65eb	0.18398254
118	0x3f2ff7ee	0.68737686
119	0x3d5f51c9	0.054521356
120	0x3d932812	0.07185377
121	0x3edbf0cc	0.4295715
122	0xbe6f11d3	-0.23346643
123	0x3ec63085	0.38708892
124	0xbd40c3d0	-0.04706174
125	0x3ebd6352	0.36989838
126	0xbcfb0a69	-0.030644612
127	0xbe8cd749	-0.27508
128	0xbe0bbc32	-0.1364601
129	0x3e2fe300	0.17176437
130	0x3e8ab828	0.27093625
131	0xbe9efb3a	-0.31051046
132	0xbeb57a29	-0.35444763
133	0xbe8762fe	-0.26442713
134	0x3e61ca54	0.22049838
135	0x3e33a4df	0.17543362
136	0xbd534720	-0.051581502
137	0x3e31a3ec	0.17347687
138	0xbdea03f8	-0.11426538
139	0x3e86bd1b	0.2631615
140	0xbdfa7c30	-0.12230718
141	0x3ed7f424	0.42178452
142	0xbec746af	-0.38921115
143	0x3f03cc1c	0.5148332
144	0xbed7107c	-0.42004764
145	0xbeb6c66a	-0.35698253
146	0x3ef10f29	0.4708188
147	0xbd7ccd62	-0.061719306
148	0x3e0bad72	0.13640383
149	0x3edf56f2	0.43621022
150	0xbf012820	-0.5045185
151	0xbdd7e5f5	-0.10541908
152	0x3ebe6f91	0.37194493
153	0x3f27f71d	0.6561144
154	0x3cf39bdf	0.029737411
155	0xbdb3bd0f	-0.087762944
156	0xbd11d65a	-0.035604812
157	0xbec29f75	-0.3801228
158	0x3e27790f	0.16354774
159	0xbeb2bf02	-0.34911352
160	0xbee9e71a	-0.4568413
161	0x3d955879	0.072922654
162	0xbe4ba80c	-0.19888324
163	0xbcfdf59b	-0.031000903
164	0xbd3f96fe	-0.046774857
165	0x3ee1dda1	0.44114402
166	0xbeb17eeb	-0.34667143
167	0xbdf26e43	-0.11837437
168	0xbd703639	-0.05864546
169	0xbe5e969e	-0.21737143
170	0xbe4446cf	-0.19167636
171	0x3d39db93	0.045375418
172	0x3eaa7c29	0.33297852
173	0x3ec07917	0.37592384
174	0xbd7d4fad	-0.061843563
175	0xbd930c2e	-0.071800575
176	0x3ebdd085	0.3707315
177	0x3ec62975	0.38703504
178	0x3f15e05c	0.5854547
179	0x3e5067b0	0.20352054
180	0xbea4a6cd	-0.3215851
181	0x3d32fad5	0.043696243
182	0xbd473a4f	-0.04863959
183	0x3eae5bae	0.3405432
184	0x3d291f0c	0.041289374
185	0x3e737abb	0.23777287
186	0xbce1f8fa	-0.027584542
187	0x3ea8d401	0.32974246
188	0xbe5eb49c	-0.21748585
189	0x3e79e789	0.2440473
190	0x3d8ed64c	0.06974468
191	0xbe88645d	-0.2663907
192	0x3ee9150b	0.45523867
193	0x3e7a2883	0.24429516
194	0xbdf74b4a	-0.12074907
195	0xbed2ba47	-0.41157743
196	0x3f0c9ba5	0.54924995
197	0xbcb85bed	-0.022504771
198	0x3ef8361a	0.48478776
199	0x3d2990c2	0.041397817
200	0xbed3b58a	-0.4134944
201	0x3e597549	0.21236147
202	0xb9b61bf3	-0.0003473457
203	0x3ee29827	0.44256708
204	0x3dd3a8f3	0.10334959
205	0xbd8c4537	-0.06849139
206	0xbe17d822	-0.14828542
207	0x3e91b219	0.2845619
208	0xbdb9c0ae	-0.09069954
209	0xbe9d0db2	-0.3067451
210	0xbd6b659f	-0.05746996
211	0xbe4e71c7	-0.2016059
212	0xbe02fa00	-0.1279068
213	0xbef67bb5	-0.48141256
214	0x3e06f7c5	0.13180454
215	0x3eb6e192	0.35718971
216	0xbf0e7834	-0.55652165
217	0xbe24cda7	-0.16094075
218	0xbd44c9fd	-0.048044194
219	0xbe81ac38	-0.25326705
220	0x3f07fe4f	0.5312242
221	0xbf0cff65	-0.550772
222	0xbeb0000b	-0.34375033
223	0xbeecbf30	-0.46239614
224	0x3e806fc8	0.25085282
225	0xbe68cc55	-0.22734196
226	0x3e42b6af	0.19015001
227	0x3e4eaf75	0.20184119
228	0x3c45db0f	0.012076153
229	0xbe10be7e	-0.14135167
230	0xbcdc38ea	-0.026882607
231	0xbef52b22	-0.4788447
232	0xbe89ab86	-0.26888674
233	0xbe4b3328	-0.19843733
234	0xbe650d58	-0.22368371
235	0xbe8b2a81	-0.27180865
236	0x3f0b2d1c	0.54365706
237	0x3dab6bd1	0.08370174
238	0x3f2fda6e	0.6869267
239	0x3ea59290	0.3233838
240	0x3e7fee9d	0.24993367
241	0xbf055788	-0.5208669
242	0xbe75f97c	-0.24020952
243	0xbdd27c91	-0.102776654
244	0x3b601a79	0.0034195466
245	0x3ee43897	0.44574425
246	0x3c16b876	0.009199252
247	0x3dd2b46a	0.102883175
248	0x3df34023	0.118774675
249	0xbea9b3da	-0.33145028
250	0xbe87346e	-0.26407188
251	0x3ea481dd	0.32130328
252	0xbe36728e	-0.17817137
253	0x3ebe0212	0.37110955
254	0x3e50b7e3	0.20382647
255	0x3e2b1d8e	0.16710493

actor.0.bias f4 [64]
0	0xbe9cab6e	-0.3059954
1	0x3e36bca7	0.17845403
2	0xbddbf32e	-0.10739742
3	0xbe6f56bb	-0.23372929
4	0xbdd5926f	-0.104283206
5	0x3eb0b691	0.34514287
6	0x3e000221	0.12500812
7	0xbc8a4cee	-0.016882386
8	0x3e272922	0.16324285
9	0x3e81a6eb	0.2532266
10	0x3c1cee4c	0.009578299
11	0x3e388fd8	0.18023622
12	0xbc9e4108	-0.019318119
13	0xbeb859d8	-0.36006045
14	0xbe73ffa1	-0.23827983
15	0xbe87c710	-0.2651906
16	0xbcc4ee98	-0.024039552
17	0xbe93fda1	-0.2890444
18	0x3e8bee50	0.27330256
19	0xbe8d6a7c	-0.27620304
20	0x3e3c82a6	0.18409213
21	0x3ce2b625	0.027674744
22	0xbeae3c67	-0.34030458
23	0xbe8f01ac	-0.27930963
24	0xbe5a9d77	-0.2134913
25	0xbdc42a57	-0.09578388
26	0x3e7f316d	0.24921198
27	0xbe2945da	-0.16530553
28	0x3cf7d3dd	0.030252391
29	0xbe070f07	-0.13189326
30	0xbddb0d4f	-0.10695898
31	0x3ea62ef9	0.32457712
32	0x3eb900e8	0.36133504
33	0x3deec2a4	0.116582185
34	0xbe1f724d	-0.15570946
35	0xbecfa8db	-0.40558514
36	0x3e96a6ea	0.2942422
37	0xbe2eb962	-0.17062905
38	0xbe88c61c	-0.26713645
39	0x3e095fd6	0.13415465
40	0x3e8f0846	0.27936
41	0x38d74894	0.000102655176
42	0xbe92ec66	-0.28695983
43	0x3e70ffdc	0.23535103
44	0x3ea7da98	0.3278396
45	0x3e0d704c	0.13812369
46	0x3e89dd41	0.26926616
47	0xbe9c9020	-0.3057871
48	0x3e1e0460	0.15431356
49	0xbe812f46	-0.2523138
50	0x3e5270c0	0.20550823
51	0xbea4ce4d	-0.32188645
52	0xbddf80bd	-0.10913227
53	0x3e4ec9b5	0.20194133
54	0x3e3fd634	0.18734056
55	0x3e626eab	0.22112529
56	0x3ebe8432	0.37210232
57	0xbe9c4dfa	-0.3052824
58	0xbd4fea88	-0.050760776
59	0x3c024ad7	0.0079524135
60	0x3e40e35d	0.18836732
61	0xbd7c8240	-0.061647654
62	0x3dc9ef62	0.09860112
63	0xbe7a1cda	-0.24425068

actor.2.weight f4 [64, 64]
0	0xbcde7537	-0.027155502
1	0x3e01e2d2	0.12684181
2	0x3efe8335	0.49709478
3	0x3d940ba5	0.072287835
4	0x3e233972	0.15939882
5	0xbd94d7ac	-0.07267699
6	0xbe9783e7	-0.2959282
7	0xbeb25be4	-0.34835732
8	0x3e78c898	0.2429527
9	0xbcda4e0f	-0.02664855
10	0x3c7849a1	0.015154273
11	0xbcd7c33d	-0.026338214
12	0xbe11e426	-0.14247188
13	0xbca2233a	-0.019792188
14	0xbc05ec5c	-0.008174028
15	0xbd8a5dcd	-0.06756172
16	0xbddf4e13	-0.10903563
17	0x3d5f97b2	0.054588027
18	0x3d8d8232	0.069095984
19	0x3d9997f6	0.074996874
20	0xbdf029e6	-0.117267415
21	0xbcb614e0	-0.02222675
22	0x3d505d12	0.05087001
23	0xbe043204	-0.12909704
24	0x3c7fc3b0	0.01561062
25	0xbca3ee18	-0.020010993
26	0x3e43bb77	0.19114481
27	0xbb6d4e37	-0.003620995
28	0xbe77e093	-0.24206762
29	0xbe663242	-0.2248011
30	0xbe240012	-0.16015652
31	0xbdee3414	-0.11631027
32	0xbdcfa2e6	-0.10138492
33	0x3e69da49	0.22837175
34	0xbd669d44	-0.056302324
35	0x3d5c0ab1	0.053721134
36	0xbd254b76	-0.04035517
37	0xbca9b4d1	-0.020716103
38	0x3e0de674	0.13857442
39	0xbe056cf0	-0.13029838
40	0x3a8f0b97	0.0010913488
41	0xb9c7fe4c	-0.00038145704
42	0x3db2cbe8	0.08730298
43	0x3e92de26	0.2868511
44	0x3e67c4f9	0.22633733
45	0x3d544e0d	0.051832248
46	0xbdb992f7	-0.090612344
47	0xbeabd510	-0.3356099
48	0x3e02c487	0.12770282
49	0x3e1a6cd3	0.15080576
50	0xbe371783	-0.17880063
51	0xbdbe1e4a	-0.09283121
52	0x3da07b29	0.07835991
53	0x3d0a0901	0.033699993
54	0xbe59a5eb	-0.21254699
55	0xbca8f478	-0.020624384
56	0x3cad8202	0.021180157
57	0xba4278c8	-0.00074185105
58	0x3eb789c2	0.35847288
59	0xbea5764c	-0.32316816
60	0xbde2012c	-0.1103538
61	0x3e353bf0	0.17698646
62	0x3ebfdf71	0.3747516
63	0xbd3d0104	-0.046143547
64	0x3c8c3481	0.01711488
65	0x3ce050d5	0.027382294
66	0x3e87c913	0.26520595
67	0x3d168aa3	0.036753308
68	0x3dae609a	0.08514519
69	0x3b467c46	0.0030286475
70	0xbe1cfd2e	-0.15330955
71	0xbeab2199	-0.3342407
72	0x3d144d74	0.036206678
73	0xbc022131	-0.007942484
74	0xbc9d1f6b	-0.01918002
75	0x3d919aa9	0.07109577
76	0xbe81df43	-0.25365648
77	0xbd01dd06	-0.031704925
78	0x3dc6dbdb	0.09709903
79	0xbd4122c7	-0.047152307
80	0xbdf3cd7c	-0.119044274
81	0x3c07c6a9	0.00828711
82	0xbd0c05e3	-0.0341853
83	0x3e1cc0ec	0.15307969
84	0xbdabf6e0	-0.08396697
85	0x3d9ee512	0.077585354
86	0x3e2c01ae	0.16797516
87	0xbe4484b3	-0.19191246
88	0xbbb7a147	-0.0056039426
89	0x3daa6ff9	0.08322138
90	0x3c85ae34	0.016318418
91	0x3de0b0cd	0.10971222
92	0xbdae7d99	-0.085200496
93	0xbe8c6500	-0.27420807
94	0xbc3e6d11	-0.011622683
95	0x3d2cd1e1	0.042192344
96	0xbe5ff244	-0.21869761
97	0x3e6614e2	0.22468904
98	0xbd34fd2a	-0.04418675
99	0xbe39ef9d	-0.18157811
100	0xbb21bbc6	-0.0024678572
101	0x3d268cec	0.040661737
102	0x3e2e465f	0.17019032
103	0xbe6fdca9	-0.23424019
104	0xbdbcef3b	-0.09225317
105	0x3d514da1	0.051099423
106	0x3e33ad73	0.17546634
107	0x3e6cec7e	0.2313709
108	0x3e3a0072	0.18164232
109	0xbded4c1f	-0.115867846
110	0x3d6e5f9b	0.058196645
111	0xbe059dd4	-0.13048488
112	0x3d9d6c45	0.076866664
113	0x3e1aa5b5	0.15102275
114	0xbd9e6c13	-0.07735457
115	0xbd048575	-0.032353837
116	0x3d8ba6c0	0.068189144
117	0x3cb5eb78	0.022207007
118	0xbbd13d86	-0.006385508
119	0xbe571f3c	-0.21008009
120	0xbd303b65	-0.043025393
121	0x3d15e773	0.03659768
122	0x3e69ff3a	0.22851267
123	0xbe9b4170	-0.30323362
124	0xbbdf4766	-0.0068139313
125	0x3e689634	0.22713548
126	0x3e94afe7	0.29040453
127	0x3d5dc559	0.054143284
128	0x3d1b9770	0.03798622
129	0xbd5d2f7d	-0.054000366
130	0xbe5ee14b	-0.2176563
131	0xbe4af1e4	-0.19818836
132	0x3d90e742	0.07075359
133	0x3dcaea76	0.09908001
134	0x3e44b0df	0.19208096
135	0x3efc7e56	0.49315137
136	0xbbc23ed6	-0.005927901
137	0x3d13210c	0.035920188
138	0x3d0f415c	0.03497444
139	0xbe2acc33	-0.16679458
140	0x3e89b2bd	0.2689418
141	0x3ca71591	0.020396026
142	0xbbcf9b41	-0.0063356464
143	0xbc2825be	-0.010262905
144	0x3e97fc60	0.29684734
145	0xbd8faa79	-0.07014937
146	0x3e19e99c	0.15030521
147	0xbdf699d6	-0.120410606
148	0x3c073d67	0.008254386
149	0xbd36f386	-0.044665836
150	0xbe8977cf	-0.2684922
151	0x3c9c0cb2	0.019049022
152	0xbca2d265	-0.019875715
153	0xbd4f7789	-0.050651107
154	0xbdf24059	-0.118286796
155	0xbc5815c1	-0.01318878
156	0x3e8472b2	0.25868756
157	0x3e15b2d4	0.14618999
158	0x3d22cf2d	0.03974836
159	0xbdd5e9ec	-0.10445008
160	0x3e5aeda5	0.21379717
161	0xbe639f22	-0.22228673
162	0x3d66ca0c	0.05634503
163	0xbd6bec77	-0.057598557
164	0xbc0780ad	-0.008270425
165	0xbd375790	-0.04476124
166	0x3d24353f	0.040089842
167	0x3e1c5fb0	0.15270877
168	0x3e3b0b19	0.18265952
169	0x3d1f30e5	0.03886499
170	0xbc3c9aa8	-0.011511482
171	0xbe071143	-0.13190179
172	0xbe8e6d69	-0.27817848
173	0x3e279adf	0.16367672
174	0xbd3f9309	-0.046771083
175	0x3e93b580	0.2884941
176	0xbe517c07	-0.20457469
177	0xbdbdfb43	-0.0927644
178	0x3e8ec35a	0.27883416
179	0xbd5fc83e	-0.054634325
180	0xbcf57282	-0.029961828
181	0xbe504f8d	-0.20342846
182	0xbcd158dd	-0.025555069
183	0x3dcfba60	0.1014297
184	0x3e00b1de	0.12567851
185	0xbdacc648	-0.08436257
186	0xbe2d3662	-0.16915277
187	0x3e7331e3	0.23749499
188	0x3d53ad30	0.051678836
189	0xbdf41cf1	-0.11919583
190	0xbe97e00b	-0.2966312
191	0x3d25d8e8	0.04049006
192	0xbdc0f24b	-0.09421214
193	0xbe4b48f5	-0.1985205
194	0xbef88ca2	-0.48544794
195	0xbd3ee45f	-0.04660451
196	0xbcdc98a0	-0.026928246
197	0xbc9fdbdf	-0.019514022
198	0x3e97ce0b	0.29649386
199	0x3eba6a85	0.36409393
200	0xbe88324c	-0.26600873
201	0x3d8c7f6c	0.06860241
202	0xbce589d0	-0.028019816
203	0xbe20f763	-0.1571937
204	0x3e55371d	0.20821805
205	0xbd2a26df	-0.041540977
206	0x3cf24798	0.029575154
207	0x3dde026a	0.10840304
208	0x3e1387cd	0.14407273
209	0x3d7f502a	0.06233231
210	0xbcd945b9	-0.026522504
211	0xbdd4447b	-0.10364624
212	0xbdb99caa	-0.090630844
213	0x3cd15ade	0.025556024
214	0xbe75b4ce	-0.23994753
215	0x3e3a8c93	0.18217687
216	0x3ca0bb6f	0.019620625
217	0x3d3339d1	0.04375631
218	0x3bf1483c	0.0073633473
219	0xbc6cc402	-0.014451029
220	0x3e890b15	0.26766267
221	0x3e9317b3	0.2872902
222	0x3e331a76	0.17490563
223	0x3d961058	0.07327336
224	0x3bc74cca	0.006082152
225	0xbe1a9970	-0.15097594
226	0xbdc5a1fa	-0.09650035
227	0x3e13c27a	0.14429656
228	0x3e131891	0.1436484
229	0xbe2a0eb3	-0.1660717
230	0xbdd652fe	-0.10465048
231	0x3e35b58d	0.17745037
232	0x3dc1306a	0.094330624
233	0x3bdf28b1	0.0068102707
234	0xbb3767e4	-0.0027985508
235	0xbe7e8577	-0.248556
236	0xbe9eeab8	-0.3103845
237	0xbd2aca9a	-0.041697122
238	0xbc035248	-0.008015223
239	0x3e01479e	0.12624976
240	0xbe676432	-0.22596815
241	0xbe2d1184	-0.16901213
242	0x3e22bb0a	0.15891662
243	0xbdc2941d	-0.095009066
244	0x3c5da794	0.013528723
245	0xbe59211f	-0.21204041
246	0x3dfc9ad7	0.12334221
247	0xbd028e7d	-0.03187417
248	0xbd10f544	-0.035390154
249	0x3dce4010	0.10070813
250	0xbe85968a	-0.26091415
251	0x3ea8927e	0.32924265
252	0x3c183b0a	0.00929142
253	0xbd6f8a29	-0.05848137
254	0xbe8c0772	-0.2734943
255	0x3d92a0ec	0.071596

actor.2.bias f4 [64]
0	0xbcbcb438	-0.023035154
1	0x3cc4f6dd	0.024043495
2	0x3df647ce	0.120254144
3	0x3d665136	0.056229793
4	0xbdc7fb20	-0.09764695
5	0x3d0c8ff2	0.034316964
6	0xbda72a28	-0.081623375
7	0x3da4a2e3	0.08038881
8	0xbd77f9b3	-0.060540866
9	0xbd39fd32	-0.04540748
10	0xbd7b7d1b	-0.061398607
11	0xbdb0278f	-0.08601295
12	0xbdc0c607	-0.09412771
13	0x3e1890b9	0.14898957
14	0x3c9a78af	0.018856375
15	0xbdb826d1	-0.08991779
16	0xbddfe0b6	-0.10931532
17	0xbbaac24c	-0.0052111503
18	0x3e02c8bd	0.12771888
19	0x3dcd9baf	0.1003946
20	0x3db91aba	0.09038301
21	0xbd89d36a	-0.06729777
22	0x3d7c9ed6	0.061674915
23	0x3db82966	0.08992271
24	0x3d91d90d	0.07121477
25	0xbd20bbe6	-0.039241694
26	0x3d3aa74c	0.045569703
27	0xbb7c7b96	-0.0038525811
28	0xbbc30f59	-0.0059527573
29	0xbd94aa72	-0.07259072
30	0x3da1cd6c	0.07900509
31	0x3cdee600	0.027209282
32	0xbdaa56e0	-0.08317351
33	0xbe10c4e8	-0.14137614
34	0xbc2e1691	-0.010625497
35	0x3dca1d17	0.0986883
36	0xbd17b347	-0.037036207
37	0xbd905814	-0.070480496
38	0xbbeee631	-0.0072906245
39	0x3a222270	0.0006184941
40	0xbd0618a0	-0.032738328
41	0x3d4aad27	0.049481537
42	0x3bb12bb4	0.005406821
43	0xbdebaf7a	-0.11508079
44	0xbe1a54b6	-0.15071377
45	0x3d8ce952	0.0688044
46	0x3cec3ad0	0.028836638
47	0x3dcd8d6b	0.10036739
48	0x3d02f73e	0.03197407
49	0xbba8d32d	-0.0051521272
50	0xbd3a8078	-0.045532674
51	0x3dacf50f	0.08445179
52	0x3cc341df	0.02383512
53	0xbc372012	-0.01117708
54	0x39a930c5	0.00032270528
55	0xbd774fef	-0.060378965
56	0x3c8c3d1a	0.01711898
57	0x3d9eb088	0.077485144
58	0xbe1d374f	-0.1535313
59	0x3dce1313	0.10062232
60	0xbdcf6f08	-0.101285994
61	0xbd628448	-0.055301934
62	0xbd1e3341	-0.0386231
63	0x3e2e382a	0.17013612

actor.4.weight f4 [3, 64]
0	0x3ea4bf03	0.3217698
1	0x3ea821c8	0.32838273
2	0xbef94664	-0.48686516
3	0xbe982529	-0.2971585
4	0x3f01edbd	0.50753385
5	0xbe8d029d	-0.27541056
6	0xbea6fe0f	-0.32615706
7	0x3ed4530b	0.41469607
8	0x3e1694cc	0.14705199
9	0xbe2776fb	-0.16353981
10	0x3e95c367	0.29250643
11	0x3e78d702	0.24300769
12	0xbd9c1a5b	-0.076222144
13	0xbd246580	-0.04013586
14	0x3e2f6625	0.17128809
15	0xbe895d24	-0.26828873
16	0x3efb88a5	0.4912769
17	0x3edd4e01	0.43223575
18	0x3e1b9b88	0.15196049
19	0x3c9c597f	0.019085644
20	0xbec21201	-0.3790436
21	0xbee59043	-0.44836625
22	0xbf1948b5	-0.5987657
23	0xbeca3312	-0.3949209
24	0x3e7f4ea3	0.24932341
25	0x3edfe2bc	0.43727672
26	0xbd582185	-0.05276634
27	0xbf067b2a	-0.52531683
28	0xbf05dd6b	-0.5229098
29	0x3f110898	0.5665374
30	0xbf27dc15	-0.65570194
31	0xbee276b5	-0.4423119
32	0xbe1b161c	-0.15145153
33	0xbe179bdd	-0.14805551
34	0xbedeb6e8	-0.4349892
35	0x3cd53445	0.0260259
36	0xbead9f2d	-0.33910504
37	0x3eb42d0d	0.3519062
38	0x3f12b7d4	0.5731175
39	0x3e19d4a4	0.15022522
40	0xbf096d0d	-0.53682023
41	0x3e7d958c	0.24764079
42	0x3e136edd	0.1439776
43	0xbe81f247	-0.25380155
44	0xbe422f8c	-0.1896345
45	0xbed1c94f	-0.409739
46	0x3ec5a948	0.38605714
47	0xbec5795d	-0.38569155
48	0xbee614cc	-0.44937742
49	0xbefa3bec	-0.48873842
50	0xbe23fdc5	-0.16014774
51	0xbea04640	-0.31303596
52	0x3dd847ae	0.10560547
53	0xbec07da1	-0.37595847
54	0xbef29e8f	-0.47386596
55	0x3ee6fe9d	0.4511613
56	0xbe12e7a7	-0.14346181
57	0x3e549a3f	0.20761965
58	0x3f0e1821	0.5550557
59	0xbf155ab5	-0.5834153
60	0x3ebdadf4	0.37046778
61	0xbe186e61	-0.14885856
62	0x3ef759ae	0.48310608
63	0xbf11ff82	-0.570305
64	0x3d78ed73	0.060773324
65	0xbd8f488a	-0.069962576
66	0x3dc74b59	0.09731168
67	0xbd9a2036	-0.07525675
68	0xbd971a8d	-0.07378111
69	0xbdbffbd6	-0.09374206
70	0x3cd9a0a4	0.026565857
71	0xbd277cac	-0.04089038
72	0xbe16b273	-0.1471651
73	0xbe1b1284	-0.15143782
74	0xbcae047f	-0.021242378
75	0x3e1b5917	0.15170704
76	0xbd98e4f8	-0.07465547
77	0x3e10d923	0.14145331
78	0x3dfa97b9	0.1223597
79	0xbe1a7134	-0.15082246
80	0xbceba4e6	-0.028765153
81	0xbdffd6e7	-0.12492161
82	0x3e04c0b5	0.12964137
83	0x3e20c890	0.15701509
84	0x3ca7b997	0.020474238
85	0x3e239262	0.1597381
86	0x3d95144d	0.07279263
87	0x3e0040c0	0.125247
88	0xbd6ce9c1	-0.057840113
89	0x3e11a304	0.14222342
90	0x3dbfbb43	0.09361889
91	0x3dbe2e04	0.092861205
92	0x3dbbf15a	0.091768935
93	0xbdbb5562	-0.09147145
94	0x3d93e56d	0.07221494
95	0x3d68e644	0.056860223
96	0xbe07300c	-0.13201922
97	0xbdd869ae	-0.10567032
98	0xbc1741a4	-0.009231959
99	0x3e386af8	0.18009555
100	0xbd427239	-0.047472212
101	0xbdd65e35	-0.10467187
102	0xbbdcf68b	-0.0067432574
103	0xbd8d833e	-0.06909798
104	0x3cb5e828	0.022205427
105	0xbe24d20f	-0.16095756
106	0xbda70992	-0.08156122
107	0xbdd26211	-0.10272611
108	0xbe0de047	-0.13855086
109	0x3df7ceed	0.12100015
110	0x3d9180c7	0.071046405
111	0x3ddb26d3	0.107007645
112	0xbe1300a1	-0.14355709
113	0x3dcad89e	0.09904598
114	0xbe2cede8	-0.16887629
115	0xbdf5ecbe	-0.120080456
116	0xbdbfe492	-0.09369768
117	0xbddd937f	-0.10819148
118	0x3d96b818	0.07359332
119	0xbdb63b85	-0.08898071
120	0x3e0ce190	0.1375792
121	0x3de214a5	0.11039094
122	0xbe2b94d6	-0.16755995
123	0x3e1f75a3	0.15572219
124	0xbe201cd5	-0.15635999
125	0xbcb70ef6	-0.022346001
126	0xbd690bc5	-0.05689599
127	0x3d626b11	0.055277888
128	0xbf206b7a	-0.62663996
129	0xbe4d3c15	-0.2004245
130	0x3e505a38	0.20346916
131	0x3f19389e	0.59852016
132	0xbe874f4d	-0.2642769
133	0x3ed21952	0.41034943
134	0x3e66f3ab	0.2255389
135	0xbe9e0fbe	-0.30871385
136	0xbe074759	-0.1321081
137	0x3e8bd078	0.27307487
138	0xbefcfbfd	-0.49411002
139	0xbeff3268	-0.49843144
140	0x3eacb969	0.33735207
141	0xbe82f30f	-0.25576064
142	0xbe98b7c6	-0.29827708
143	0x3ef9708c	0.4871868
144	0xbe829663	-0.2550536
145	0xbe998a4a	-0.2998832
146	0xbeb992f4	-0.3624493
147	0xbdac515f	-0.08413958
148	0x3ed1bca3	0.4096423
149	0x3ec7d9e7	0.39033434
150	0x3ec233a7	0.37930033
151	0x3f015555	0.5052083
152	0xbf02888c	-0.50989604
153	0xbf283859	-0.6571098
154	0xbdbfa17f	-0.09356975
155	0x3e9989cf	0.29987952
156	0x3ebc50ce	0.367804
157	0xbec46e4e	-0.38365406
158	0x3eb92e06	0.36167926
159	0x3dfaffcb	0.1225582
160	0x3ed0258c	0.40653646
161	0x3eb8dd0c	0.36106145
162	0x3ebc318b	0.36756548
163	0xbdf5900f	-0.119903676
164	0x3f236656	0.6382803
165	0xbe402b62	-0.18766549
166	0xbed159fd	-0.40888968
167	0xbcb7fa44	-0.022458203
168	0x3eb81e64	0.35960686
169	0xbe6e09f3	-0.23245983
170	0xbcbdd32a	-0.02317198
171	0x3ecdccb0	0.40195227
172	0x3ee47187	0.44617864
173	0x3e0fcfc1	0.14044096
174	0xbef25094	-0.473271
175	0x3e2c7dad	0.16844817
176	0x3f1113bb	0.5667073
177	0x3ece7c01	0.40328982
178	0x3eac622f	0.33668658
179	0x3ee58410	0.44827318
180	0x3be9bbcb	0.0071329824
181	0x3f1c1d00	0.6098175
182	0x3f1ffbbc	0.6249349
183	0xbe7c42ba	-0.24634829
184	0x3e31989d	0.17343374
185	0xbf017874	-0.5057442
186	0xbed617f2	-0.41815144
187	0x3e946512	0.2898336
188	0xbe976e92	-0.29576546
189	0x3f0af2f0	0.54276943
190	0xbe4eff83	-0.20214657
191	0x3e500503	0.20314412

actor.4.bias f4 [3]
0	0xbe18e8e7	-0.14932595
1	0x3d0052a2	0.031328805
2	0x3c147fa2	0.009063633

critic.0.weight f4 [64, 5]
0	0xbe4ce06b	-0.20007484
1	0x3e3402a1	0.17579128
2	0x3d4ce951	0.050027195
3	0x3c3ddde1	0.011588545
4	0x3f813642	1.0094683
5	0x3e9740d4	0.29541647
6	0xbe7222c3	-0.23646073
7	0xbe950aef	-0.29109904
8	0xbe74666e	-0.23867199
9	0x3f46cafa	0.7765347
10	0xbdf2a64a	-0.11848123
11	0x3eb676f4	0.3563763
12	0x3e910a38	0.2832811
13	0x3e89e76b	0.2693437
14	0x3edd5ce6	0.43234938
15	0xbe60b1a0	-0.21942759
16	0x3e1bc340	0.152112
17	0xbec2189a	-0.37909395
18	0xbe289ead	-0.1646678
19	0xbf97338f	-1.181261
20	0xbdeb58de	-0.114915594
21	0x3ddaedaf	0.10689866
22	0xbe57180e	-0.2100527
23	0xbe005424	-0.12532097
24	0xbfb1aef9	-1.3881522
25	0xbe25745a	-0.16157666
26	0xbe242be1	-0.16032363
27	0xbe8d5f85	-0.27611938
28	0xbd6c004f	-0.05761748
29	0xbf962d41	-1.173256
30	0x3e623e88	0.22094166
31	0xbeb025a2	-0.34403712
32	0xbb18fb5b	-0.002334318
33	0xbe1c3ba3	-0.15257125
34	0xc00debaa	-2.2175088
35	0x3dcff03e	0.101532444
36	0xbdcef052	-0.10104431
37	0xbe7fb107	-0.24969874
38	0x3eba5dbf	0.36399648
39	0xbe2616c5	-0.16219623
40	0x3de6233f	0.112371914
41	0xbe8cce6c	-0.27501237
42	0xbea5a212	-0.32350212
43	0x3e91aa34	0.28450167
44	0x3eb18051	0.3466821
45	0x3e2f5e95	0.17125924
46	0xbeaa65e6	-0.33280867
47	0xbe7369b3	-0.2377079
48	0x3e6f5fdf	0.23376416
49	0xbf973147	-1.1811913
50	0x3eaf1a2c	0.34199655
51	0xbe15c292	-0.14625004
52	0xbdda1a4a	-0.106495455
53	0xbece0283	-0.4023629
54	0xbfe2ecb4	-1.7728486
55	0xbe111c59	-0.1417097
56	0x3e334d6a	0.1751
57	0x3ec2cc50	0.38046503
58	0xbdac92e7	-0.08426457
59	0x3fc3496a	1.5256779
60	0xbec3de93	-0.38255748
61	0x3ce21b3d	0.027600879
62	0xbe5709d4	-0.20999843
63	0xbeb857dd	-0.36004534
64	0xbfb741fb	-1.4317011
65	0x3eb87cc7	0.36032698
66	0xbe99c75b	-0.3003491
67	0x3eeec4b1	0.4663444
68	0xbe9338d4	-0.28754294
69	0xbf7fb1be	-0.9988059
70	0x3eab0a0c	0.33406103
71	0x3eab0f13	0.33409938
72	0xbec6367c	-0.38713443
73	0xbdbb1c76	-0.09136288
74	0xbf0e2946	-0.5553173
75	0x3e3e3821	0.18576099
76	0xbe1f394b	-0.155492
77	0xbe64e160	-0.22351599
78	0xbcaac893	-0.020847594
79	0xbfed74b9	-1.8551246
80	0x3ec10b56	0.3770396
81	0xbea10b4a	-0.31453925
82	0xbe267d3d	-0.16258712
83	0xbc32d6ac	-0.01091544
84	0x3fa21d71	1.2665235
85	0xbe42d530	-0.19026637
86	0xbd9cd76c	-0.07658276
87	0xbec97e12	-0.39353997
88	0x3ec9e2fb	0.39430985
89	0x3fa1e97f	1.2649382
90	0x3ecce8e9	0.40021446
91	0xbe8a42d1	-0.27004102
92	0xbea16e09	-0.31529263
93	0xbe9f740b	-0.3114322
94	0xbf4a174b	-0.7894179
95	0x3e283bc4	0.16429049
96	0xbe8123ca	-0.25222617
97	0xbd5450b9	-0.051834796
98	0xbe4e20bc	-0.20129675
99	0x3fe14c0a	1.760133
100	0x3d6cb24d	0.05778723
101	0xbe384a60	-0.17997122
102	0x3d8ba9db	0.06819507
103	0x3ce5da11	0.028058084
104	0xbf48de30	-0.7846403
105	0x3df78258	0.12085408
106	0x3e28539a	0.16438141
107	0x3e848d5a	0.25889093
108	0xbecbde11	-0.3981786
109	0x3f8152c6	1.0103385
110	0x3dd81c54	0.10552278
111	0xbe80948d	-0.25113335
112	0x3ea73cbf	0.32663533
113	0x3e2e68fd	0.17032237
114	0x3f949806	1.1608894
115	0xbe46b314	-0.1940425
116	0x3e0e1148	0.1387378
117	0xbed4329d	-0.41444865
118	0xbe46d764	-0.19418103
119	0x3f8682e4	1.0508695
120	0x3d717e0f	0.05895811
121	0x3e8d6ab6	0.27620476
122	0xbe44ce3b	-0.19219296
123	0x3ea7b368	0.32754064
124	0xbfffa084	-1.997086
125	0x3c7dae55	0.0154834585
126	0xbe29b822	-0.16574147
127	0x3ddd7b46	0.10814528
128	0xbc2e7286	-0.010647422
129	0x3f896c22	1.0736125
130	0xbeb25c9b	-0.34836277
131	0x3e9df033	0.3084732
132	0xbe922f0b	-0.28551516
133	0xbe99f195	-0.30067125
134	0x3f5af1ab	0.85525006
135	0x3da2d758	0.0795123
136	0x3e830852	0.25592285
137	0xbdd536f8	-0.10410875
138	0x3e5bbfc9	0.21459879
139	0xbfa3ee4a	-1.2807095
140	0xbdc159d2	-0.0944096
141	0xbdc380e2	-0.09546067
142	0x3e9fc034	0.31201327
143	0x3ed21099	0.41028288
144	0x3fd6e8eb	1.6789831
145	0x3e97c467	0.2964203
146	0xbe079311	-0.13239695
147	0x3d8f33df	0.069923155
148	0xbe6bdcc5	-0.23033436
149	0x3fa1e207	1.2647103
150	0x3e930b8b	0.28719744
151	0x3ddeabf3	0.108726405
152	0x3db76625	0.089550294
153	0xbe6e6fbd	-0.23284812
154	0x3f5aff24	0.85545564
155	0xbdabcb30	-0.08388364
156	0x3e66127d	0.2246799
157	0xbe69b582	-0.22823146
158	0x3eca9df3	0.3957363
159	0x3d684b33	0.05671234
160	0xbe75471f	-0.23952912
161	0x3e210477	0.1572436
162	0x3ee826b0	0.45342016
163	0xbeaa4db6	-0.33262414
164	0x3f8f276a	1.1183903
165	0xbe56d660	-0.20980215
166	0x3ec5bc39	0.38620165
167	0x3d3d8a7a	0.04627464
168	0x3ec6790f	0.38764235
169	0x3ec9e461	0.39432052
170	0xbe8933e6	-0.26797408
171	0xbe9bde49	-0.30443028
172	0x3ee2cbd6	0.4429614
173	0x3da1ba90	0.07896912
174	0x3ff3d9e7	1.9050874
175	0xbe8e9408	-0.27847314
176	0xbdcd0bb4	-0.10011998
177	0xbeaa20ed	-0.33228245
178	0xbca3e1ec	-0.020005189
179	0x3f3b9f06	0.73289526
180	0xbd143022	-0.036178716
181	0xbe86df24	-0.26342118
182	0xbeca43a6	-0.39504737
183	0xbe0a7134	-0.13519746
184	0xbf1e24e6	-0.6177505
185	0x3e01c98f	0.12674545
186	0x3db96bdd	0.090537764
187	0xbdbb5755	-0.09147517
188	0x3f034e18	0.51291037
189	0x3de4c512	0.11170401
190	0xbe5e61d5	-0.21717007
191	0x3daca6e4	0.08430269
192	0xbe025eb7	-0.12731443
193	0xbebac437	-0.36477825
194	0xbf550955	-0.83217365
195	0x3e8c8e1f	0.2745218
196	0xbe9c7ec6	-0.3056547
197	0xbebc9c52	-0.36838013
198	0xbe80244d	-0.25027695
199	0xbdc63ae2	-0.096792
200	0xbe4b256c	-0.19838494
201	0x3de241ad	0.11047683
202	0x3e764b55	0.24052174
203	0x3ea43731	0.32073358
204	0x3fdb82a5	1.7149245
205	0x3e7eb7ac	0.24874753
206	0xbe627d25	-0.22118051
207	0x3e2628f0	0.16226554
208	0xbee087b2	-0.43853527
209	0xbf87871d	-1.0588108
210	0x3e8aed27	0.27134058
211	0xbe8d6d83	-0.27622613
212	0xbd0f8aa8	-0.035044342
213	0x3d1ad3b3	0.03779955
214	0x400563e4	2.0842218
215	0x3e6c6286	0.23084459
216	0x3dbe398a	0.092883185
217	0xbdcde284	-0.1005297
218	0x3ed7bdd0	0.42137003
219	0x3f09a7c7	0.5377163
220	0xbe6a739a	-0.22895661
221	0x3e2dafb4	0.16961557
222	0x3d416f6a	0.047225393
223	0x3c37f57b	0.011227961
224	0xbff2324d	-1.89216
225	0x3e330df8	0.17485797
226	0xbd83a5ff	-0.064281456
227	0x3d21bfa4	0.039489403
228	0x3e8f4b62	0.279872
229	0x3fe3700e	1.7768571
230	0xbe698520	-0.2280469
231	0xbcf3e242	-0.029770974
232	0xbec559f1	-0.38545182
233	0xbdd5c27f	-0.10437488
234	0xbf9f082a	-1.2424366
235	0x3e867aca	0.26265556
236	0xbc1c871b	-0.009553696
237	0x3e53391d	0.20627256
238	0xbd51632c	-0.05111997
239	0x3fa46aa2	1.2845042
240	0xbb877214	-0.004133472
241	0x3e9a88ac	0.30182397
242	0xbef3e82a	-0.47638065
243	0x3ec6f405	0.38858047
244	0xbfee574b	-1.862039
245	0xbe9dae90	-0.30797243
246	0x3ea3d785	0.32000366
247	0xbebbcafb	-0.366783
248	0x3d1b0123	0.03784288
249	0xbf9d91d8	-1.2310133
250	0xbe655e79	-0.2239932
251	0xbe025125	-0.12726267
252	0xbe9409ea	-0.28913814
253	0xbee4276f	-0.44561335
254	0x3f9b96d1	1.21554
255	0x3eaf01d8	0.34181094

critic.0.bias f4 [64]
0	0xbe6529d8	-0.22379243
1	0xbe9fbe6b	-0.31199965
2	0xbe8ddc88	-0.27707314
3	0x3dfef891	0.12449754
4	0x3db148bd	0.08656452
5	0x3e101010	0.14068627
6	0x3e1bdd60	0.15221167
7	0xbca80d81	-0.020514252
8	0xbe2d6091	-0.16931368
9	0x3e108612	0.14113644
10	0x3ec807ba	0.39068395
11	0xbed8ee1b	-0.4236916
12	0x3e99a6b5	0.3001
13	0x3ece399d	0.4027833
14	0xbe38aa38	-0.18033683
15	0x3e845be0	0.25851345
16	0xbeb638fc	-0.3559035
17	0xbeda32ba	-0.42616826
18	0x3e18eeb1	0.14934804
19	0xbc023018	-0.007946037
20	0x3d4fd4df	0.05074012
21	0xbefa5296	-0.48891133
22	0x3dc4f113	0.09616294
23	0x3d821a8a	0.06352718
24	0x3e3c79e6	0.18405876
25	0xbe947062	-0.2899199
26	0xbea342dc	-0.31886947
27	0x3cf8ed0e	0.030386474
28	0xbe8f2b84	-0.27962887
29	0xbe190e17	-0.14946781
30	0xbe3ac27a	-0.1823825
31	0xbd1195e8	-0.035543352
32	0xbea439fb	-0.32075486
33	0x3e7b1fc9	0.24523844
34	0xbe25cd33	-0.16191559
35	0xbecb5c87	-0.3971903
36	0x3ecca5d0	0.39970255
37	0x3bd188db	0.0063944883
38	0x3eabf2c9	0.33583668
39	0xbb964cf9	-0.0045868126
40	0xbeae130e	-0.33998913
41	0x3eb305d1	0.34965375
42	0xbe84fa83	-0.25972375
43	0x3ebf9fa5	0.37426487
44	0x3ea00739	0.3125551
45	0xbeca8bb5	-0.39559713
46	0x3e98088a	0.29694015
47	0xbdb933de	-0.09043096
48	0x3eb6421d	0.35597315
49	0xbce9bb1c	-0.028531604
50	0xbe9f402b	-0.31103644
51	0x3eb7c84e	0.35895008
52	0x3ef39b9f	0.47579667
53	0xbe8d0fbe	-0.27551073
54	0x3ec8c524	0.39212906
55	0xbe8da013	-0.2766119
56	0x3e1eda4f	0.15512966
57	0xbd13674c	-0.035987183
58	0xbd800909	-0.06251723
59	0x3e80ccc3	0.2515622
60	0xbdffc2ce	-0.12488328
61	0x3ec1215c	0.37720764
62	0xbe56f458	-0.20991647
63	0xbe27dcbe	-0.163928

critic.2.weight f4 [64, 64]
0	0xbd2b29e6	-0.041788004
1	0xbd654793	-0.05597646
2	0x3cb07d23	0.021544045
3	0xbe0321ea	-0.12805906
4	0x3c33877f	0.010957598
5	0x3dfd1cb8	0.12358993
6	0x3e2137e2	0.15743974
7	0x3db38f36	0.0876755
8	0xbd8f07e9	-0.069839306
9	0x3da55132	0.080721274
10	0x3dcc6ad0	0.0998131
11	0x3dbd65db	0.09247943
12	0x3d70f6d9	0.058829162
13	0x3d486e53	0.04893334
14	0x3d765979	0.06014392
15	0x3debec08	0.11519629
16	0xbe111864	-0.1416946
17	0xbd1750b1	-0.036942188
18	0x3d63b026	0.05558791
19	0x3c507b08	0.012724645
20	0xbd9a5933	-0.07536545
21	0xbe1fe3b4	-0.15614206
22	0x3e06448b	0.13112085
23	0xbe02f6f8	-0.12789524
24	0x3b589c64	0.00330522
25	0xbcdebe04	-0.027190216
26	0xbd92d21b	-0.07168981
27	0x3d5cfa45	0.053949613
28	0x3ca2aaa3	0.019856757
29	0x3c356ebe	0.011073766
30	0x3d3f102f	0.046646293
31	0x3ca9af58	0.020713493
32	0xbdb7e9f3	-0.08980169
33	0x3c555e8d	0.013023031
34	0xbdafb2fe	-0.08579062
35	0x3dfd832c	0.12378535
36	0xbd6e353e	-0.058156244
37	0xbdf137d9	-0.1177823
38	0x3c32470c	0.010881197
39	0x3d4b9228	0.049699932
40	0x3d9d37ca	0.076766565
41	0x3d8af79a	0.067855075
42	0x3d3c662c	0.045995876
43	0x3d07446f	0.033024248
44	0xbcba2143	-0.022720939
45	0xbe26c532	-0.16286162
46	0xbdae72d5	-0.08517996
47	0xbd200497	-0.039066877
48	0xbc8aa96b	-0.016926488
49	0xb9b51c0f	-0.00034543916
50	0xbd545986	-0.05184319
51	0x3aa9677b	0.0012924516
52	0xbdb2181e	-0.08696006
53	0x3d5faa19	0.054605577
54	0x3d0e8b3e	0.03480076
55	0x3d876be6	0.06612377
56	0xbcbca182	-0.023026232
57	0x3dfd7d8b	0.12377461
58	0x3dcde79e	0.10053943
59	0xbe36da1c	-0.1785664
60	0x3bc9f8d0	0.006163694
61	0x3dba9eae	0.09112297
62	0xbde30235	-0.11084405
63	0x3df3b8e8	0.119005024
64	0xbd43c054	-0.04779084
65	0xbda848ac	-0.08216986
66	0xbdf6c0a6	-0.120484635
67	0x3d3d5209	0.046220813
68	0x3d4d1c84	0.050076023
69	0xbdf984eb	-0.12183555
70	0xbc848ea2	-0.016181294
71	0xbdddef0f	-0.108366124
72	0x3dbadb01	0.09123803
73	0x3c9be853	0.01903168
74	0x3dffd08e	0.124909505
75	0xbd16fda5	-0.036862988
76	0x3d76c9d5	0.060251076
77	0x3dbb3e07	0.0914269
78	0xbda19f07	-0.0789166
79	0x3db754b3	0.08951702
80	0xbde8b8f6	-0.113634035
81	0x3c1dc37c	0.009629127
82	0x3e20605d	0.1566176
83	0x3dbb75cc	0.09153327
84	0x3dc0d1f9	0.09415049
85	0xbd5c315e	-0.053758018
86	0xbd26f258	-0.04075846
87	0x3d0ded73	0.034650277
88	0x3d0d7202	0.034532554
89	0xbd870d7f	-0.06594371
90	0xbd06a58e	-0.03287273
91	0xbcbf5def	-0.02336022
92	0x3d3dd0c8	0.046341687
93	0xbe00179a	-0.12509003
94	0x3dd45f40	0.1036973
95	0xbdb3cbc0	-0.087790966
96	0xbe057bcc	-0.13035506
97	0xbd9461a4	-0.07245186
98	0x3d2137ad	0.039359737
99	0xbe221a71	-0.15830399
100	0xbc9b5f79	-0.018966423
101	0x3c9f23db	0.019426277
102	0x3db0afad	0.086272575
103	0xbc809dff	-0.015700338
104	0xbe18338f	-0.14863418
105	0x3d48ad38	0.04899332
106	0xbd925bec	-0.07146439
107	0xbd312e4c	-0.043257043
108	0x3dfa5dc3	0.12224915
109	0x3c0a8b80	0.008456111
110	0xbdaea70d	-0.08527956
111	0xbdbda9b9	-0.09260888
112	0x3e08f12d	0.13373251
113	0x3cef46db	0.029208591
114	0x3d9a2d98	0.075282276
115	0x3e0acfe7	0.13555871
116	0xbc2fffa8	-0.010742106
117	0x3d800afd	0.06252096
118	0x3b83a699	0.0040176627
119	0xbd9b1200	-0.075717926
120	0x3d7bf89c	0.06151639
121	0xbd55012f	-0.052003082
122	0x3c328ddb	0.010898079
123	0x3e1fddc1	0.15611936
124	0xbcf41175	-0.02979348
125	0x3ceef240	0.029168248
126	0x3da317fd	0.0796356
127	0x3db4bac3	0.088246845
128	0xbe0c21c1	-0.13684751
129	0xbdee872b	-0.11646875
130	0x3d64b1f9	0.05583379
131	0x3d460de9	0.04835311
132	0xbd37a9bd	-0.04483961
133	0x3e0e69bb	0.1390752
134	0x3a621400	0.0008624196
135	0xbdc60aee	-0.096700534
136	0x3d70dcbb	0.058804255
137	0x3c373444	0.011181895
138	0x3e1b3f6f	0.15160917
139	0x3d0eba7e	0.03484582
140	0xbcd9fd64	-0.026610084
141	0x3cec2cc9	0.028829949
142	0x3c9de2df	0.01927322
143	0x3d5fa65b	0.05460201
144	0xbd670bc9	-0.056407724
145	0x3d61bdf5	0.055112798
146	0x3dbcce70	0.09219062
147	0xbdf8cc92	-0.12148394
148	0x3df0c5cb	0.11756476
149	0xbd69c9c1	-0.057077173
150	0xbd80f6b6	-0.062970564
151	0xbdc7c07c	-0.0975351
152	0x3b256fce	0.0025243643
153	0xbc088e69	-0.0083347345
154	0x3d8753e2	0.06607796
155	0x3cca4d4a	0.024695057
156	0xbd580012	-0.052734442
157	0x3d299b1a	0.041407682
158	0xbdd47597	-0.10373991
159	0x3b7cc283	0.0038568086
160	0xbd8b98cd	-0.06816254
161	0xbd91965f	-0.07108759
162	0x3d8a2c0a	0.06746681
163	0x3d4a9b9b	0.049464803
164	0x3a5b2f56	0.00083612406
165	0xbdca52c0	-0.098790646
166	0x3e26fcb1	0.16307332
167	0xbd8ddda0	-0.06927037
168	0xbe1fdbb8	-0.1561116
169	0x3d621504	0.055195823
170	0x3d5c8f8d	0.05384784
171	0x3d26174e	0.04054957
172	0x3e11ec89	0.14250387
173	0x3cd3298d	0.025776649
174	0x3d8233e4	0.063575536
175	0xbd4b9f5f	-0.049712535
176	0xbd3a56f8	-0.045493096
177	0x3deb2b95	0.11482922
178	0x3cbd00b9	0.023071634
179	0x3d011acd	0.0315197
180	0x3c87e4c5	0.016588578
181	0xbdaae79a	-0.08344956
182	0x3d2c57a0	0.042075753
183	0x3e06b1fa	0.1315383
184	0xba520b6d	-0.0008012567
185	0xbdde2d80	-0.10848522
186	0xbe11b1bb	-0.14227955
187	0x3d9324bc	0.07184741
188	0x3d9ce5da	0.07661028
189	0x3e181f9d	0.1485581
190	0xbbb5cb31	-0.005547904
191	0x3e03d07d	0.128725
192	0xbe78f6ab	-0.24312846
193	0xbdbbfda6	-0.09179239
194	0xbdceed6e	-0.1010388
195	0x3e23f44c	0.1601116
196	0x3e9c108d	0.30481377
197	0x3e6eae8d	0.23308773
198	0x3f3b46d8	0.73154974
199	0xbd393824	-0.045219555
200	0xbce8d812	-0.028423343
201	0x3e7b0e9f	0.24517296
202	0x3e9c7666	0.3055908
203	0xbf037ffc	-0.51367164
204	0x3e868585	0.26273742
205	0x3da7e45b	0.08197852
206	0x3dcc8739	0.09986729
207	0x3f206f93	0.6267025
208	0xbdffc956	-0.12489574
209	0xbe3fc255	-0.18726476
210	0x3d82faf0	0.06395519
211	0xbed688ac	-0.41901147
212	0x3e1381de	0.14405009
213	0xbdac1c30	-0.08403814
214	0xbd3f8c8d	-0.0467649
215	0xbd716abe	-0.058939688
216	0x3ea50a0d	0.3223423
217	0xbe527db3	-0.20555763
218	0xbd82ffd7	-0.06396454
219	0x3e2cd9d1	0.16879965
220	0xbed71e6b	-0.42015395
221	0xbeb5218d	-0.3537716
222	0xbe52389f	-0.20529412
223	0xbda94fed	-0.08267198
224	0xbe5ec691	-0.21755435
225	0x3d29e1b9	0.04147503
226	0xbea2580a	-0.31707793
227	0xbd1a3d80	-0.037656307
228	0x3e28b330	0.16474605
229	0xbda9661a	-0.082714275
230	0x3e4c7162	0.19965127
231	0xbd626f6e	-0.05528205
232	0xbed16d59	-0.40903738
233	0x3e07c8bf	0.13260172
234	0xbee372fd	-0.44423667
235	0x3d2d0b23	0.04224695
236	0x3ecfb4b6	0.4056756
237	0xbe98ab54	-0.29818213
238	0x3e453add	0.19260736
239	0xbe849b83	-0.25899896
240	0x3ec58f32	0.38585812
241	0x3d6b8f74	0.057509854
242	0xbcce5b48	-0.02519001
243	0xbd8ea868	-0.06965715
244	0x3decd932	0.11564864
245	0xbf44073d	-0.76573545
246	0xbd428118	-0.047486395
247	0x3c9b6f13	0.018973863
248	0xbce02a57	-0.02736394
249	0x3e6e59b1	0.23276402
250	0xbdc787db	-0.09742709
251	0xbd61114e	-0.054948144
252	0x3d930183	0.07178023
253	0x3e3a2844	0.18179423
254	0xbe86eb55	-0.2635142
255	0x3e27c1c6	0.16382512

critic.2.bias f4 [64]
0	0xbc983d3b	-0.018583884
1	0x3deaf36f	0.114722125
2	0x3e431e82	0.19054607
3	0x3d97b831	0.074081786
4	0xbd5a0405	-0.05322649
5	0xbe394f11	-0.18096568
6	0xbd53e44d	-0.051731396
7	0xbc8f2fd2	-0.017478857
8	0x3dbeeb17	0.093221836
9	0xbe006bed	-0.1254117
10	0x3dcc7d8c	0.09984884
11	0xbd424962	-0.047433265
12	0x3d63dae0	0.055628657
13	0x3c9c6a6e	0.019093718
14	0xbd52c28c	-0.051455066
15	0xbd4d0ea5	-0.050062794
16	0xbd1735f2	-0.03691668
17	0x3e61f2c1	0.2206526
18	0x3dd78a22	0.105243936
19	0x3afb4674	0.0019170777
20	0xbe633987	-0.22189914
21	0x3d677a0b	0.056512874
22	0x3e2be935	0.1678818
23	0x3cd10c05	0.025518427
24	0x3e0af3ee	0.13569614
25	0xbdc05243	-0.0939069
26	0xbd13d61f	-0.036092874
27	0xbdb641ef	-0.088992946
28	0xbd410ceb	-0.04713146
29	0x3d3ae9d1	0.04563314
30	0x3e0e2220	0.13880205
31	0x3c83d0cd	0.016090775
32	0x3bc6cb60	0.0060667247
33	0xbd23ebde	-0.040019862
34	0x3e1c555c	0.15266937
35	0xbd9e928c	-0.07742795
36	0xbc89153a	-0.016733754
37	0xbdac4617	-0.08411806
38	0xbd674b10	-0.05646807
39	0x3d6a75f8	0.05724141
40	0x3e4c3762	0.19943002
41	0xbda43ab4	-0.08019009
42	0xbd3a43bf	-0.045474764
43	0x3d74c33c	0.059756503
44	0xbda194fb	-0.07889744
45	0xbdeef550	-0.116678834
46	0x3d188330	0.037234485
47	0xbd30efb9	-0.043197367
48	0x3dada66b	0.08479007
49	0x3db56dc4	0.08858827
50	0x3c44b739	0.012006574
51	0xbce5cbf6	-0.028051358
52	0xbc84f260	-0.016228855
53	0xbd6f9cab	-0.05849902
54	0x3dd1a6ae	0.1023687
55	0xbcf03edc	-0.029326849
56	0x3d2a4e35	0.04157849
57	0xbe41d732	-0.18929747
58	0x3d3f1668	0.046652228
59	0x3e47d5be	0.1951513
60	0xbdd2e6e8	-0.10297948
61	0xbd0e5198	-0.034745783
62	0xbd51d1dd	-0.05122553
63	0xbdc76764	-0.09736517

critic.4.weight f4 [1, 64]
0	0xbbb50de8	-0.0055253394
1	0xbcdfe10c	-0.02732899
2	0xbd3fe0e2	-0.046845324
3	0x3e87a155	0.26490274
4	0x3d35adfb	0.044355374
5	0x3d113ff3	0.035461377
6	0x3b52ce15	0.0032166291
7	0xbc1a01b6	-0.009399822
8	0x3c70117d	0.014652607
9	0x3a4b082a	0.0007745052
10	0xbc2391d7	-0.009983501
11	0x3b8c738b	0.0042862347
12	0xbb83dfd4	-0.004024485
13	0xbd895b4f	-0.06706869
14	0xbcc819e9	-0.024426417
15	0x3ab5481f	0.0013830698
16	0xbc4c2f40	-0.012462437
17	0xbd3f093d	-0.04663967
18	0x3e209c65	0.1568466
19	0xba8c483f	-0.0010702683
20	0x3cff5c27	0.031171871
21	0xbc75f759	-0.015012586
22	0x3e353a70	0.17698073
23	0xbac4043a	-0.0014954873
24	0x3e5e0822	0.2168279
25	0x3c5cf836	0.0134869125
26	0xbaee2cbd	-0.0018171292
27	0x3d6067d9	0.054786537
28	0xbb9e2721	-0.004826442
29	0x3a7d9e1a	0.0009674743
30	0xba512161	-0.0007977691
31	0x3b8cd7fd	0.0042982087
32	0xbcc26a67	-0.023732377
33	0x3a05cea6	0.00051043404
34	0x3b0ff500	0.00219661
35	0xbd117881	-0.035515312
36	0xbd2fca8f	-0.042917784
37	0xbd487852	-0.04894287
38	0x3b099b0b	0.0020996954
39	0x3bbccb7e	0.005761563
40	0xbd7b69d6	-0.06138023
41	0x3a6c351a	0.00090105983
42	0x3babb5db	0.0052401847
43	0xbba70f5b	-0.005098266
44	0x3da68ff5	0.081329264
45	0x3dbde797	0.09272688
46	0xbcecc15b	-0.028900793
47	0x3b0001e3	0.0019532375
48	0x3bdd60b2	0.0067559117
49	0xbb0e578e	-0.0021719667
50	0x3b2aa918	0.002604073
51	0x3ab0cb94	0.0013488405
52	0x3a521fbf	0.0008015595
53	0x38638810	5.4247736e-05
54	0xb92dbcd0	-0.00016568904
55	0xb9d4ffdd	-0.00040626424
56	0x3b0c919f	0.0021449102
57	0x3d98e85f	0.07466196
58	0xbbc7a277	-0.0060923654
59	0xbe3da69d	-0.18520589
60	0x3d3e062a	0.046392597
61	0xba300e5e	-0.0006716008
62	0xbc0dcb94	-0.008654494
63	0x3da04b5a	0.07826872
