trained/SimplePong/PPO_mcts_sparse_1728745821.9496057.pth (torch, 42338 bytes, 11 tensors)

actor.0.weight f4 [64, 5]
-0.4564114 0.20516855 -0.13837613 0.5773557 0.3423901 -0.5862702 0.37248203 0.038492702
0.45076782 0.10543324 -0.3649298 0.37677667 -0.41046554 -0.109618954 0.450936 -0.17120716
0.5162855 -0.055973932 0.29285863 0.32225654 -0.46894097 0.106504574 -0.0079078525 0.018631898
0.49275142 0.084954984 0.24166463 -0.16146392 0.43906066 -0.058162063 0.088183746 0.3750926
0.04290858 0.47709012 -0.2717076 0.14171773 -0.08278279 -0.009997682 -0.5323538 0.124609135
0.46567255 -0.17513694 -0.05214055 -0.38681823 -0.11703267 0.025928995 0.20774043 -0.21261093
0.3634577 -0.22986348 -0.42374817 0.23927616 0.24167407 0.26499742 0.06349212 -0.3452908
0.3666517 -0.038099427 0.6795955 -0.35889548 -0.16222447 -0.30095467 0.30974144 -0.4473934
0.41935366 -0.18678822 -0.08872177 0.44627187 0.4370851 0.39394447 -0.50721157 0.42325735
-0.25405172 0.08708708 0.27604395 0.083542764 -0.27355948 -0.22187829 -0.05888797 -0.28853258
0.084654026 -0.36757463 -0.11932404 -0.356649 0.12867367 0.0072439187 0.43260267 -0.21989642
0.32629463 0.11712934 0.33307025 -0.091638595 0.058847878 0.120652474 -0.013237942 0.35850626
0.10880666 -0.03319032 -0.29902092 -0.26640314 0.058361217 0.1494038 -0.4418277 -0.4442107
-0.20591599 -0.19186527 0.2832744 -0.29078063 -0.21518663 0.022921313 0.18646292 -0.3066759
-0.16073461 -0.5270739 0.24667004 -0.2074278 0.25689203 0.29106593 0.6401404 0.16564502
0.35551912 -0.57963103 -0.11044564 -0.53148943 0.15776154 -0.35455176 0.25141743 -0.27809834
-0.21743342 0.39004236 0.10955115 -0.22595766 -0.0894661 -0.17966527 0.34265727 -0.14069726
0.40001094 -0.23897086 0.28706843 -0.22129062 0.27480224 -0.422642 0.160945 -0.41379657
0.004365186 -0.41874018 0.372433 -0.10717193 0.6474435 0.51396704 -0.51554376 0.35732704
0.37166938 0.7212923 -0.12891848 -0.22664435 0.15376753 -0.23766683 -0.10628312 -0.078125544
-0.5260003 0.36327258 0.26724523 -0.11026773 0.4447259 -0.30154833 -0.17959091 0.19584183
-0.12302265 0.11090483 0.2208994 -0.10965789 -0.18278888 0.16789803 0.27671525 0.02311178
-0.13553362 0.4399964 0.10335124 -0.017647894 0.11733978 -0.24684656 0.40943235 -0.12249966
-0.35824713 -0.09267092 0.13710743 -0.17646709 0.33311108 0.17825866 0.38395867 -0.4559037
0.012431065 0.016117264 -0.039296273 -0.09073079 0.37406078 0.12271195 0.09199263 0.11296054
-0.45969942 0.10046568 0.2514646 0.43201822 -0.2129905 -0.45861757 0.23632956 0.031872995
0.47392026 -0.040927976 -0.26198655 0.40441853 0.060790848 -0.17572816 0.28055373 0.3674722
-0.07668456 -0.13300626 0.074305356 -0.41326073 0.33511153 -0.35221866 -0.27423656 -0.36595774
0.06049307 0.13378641 0.3306032 -0.21070169 0.50711274 -0.07086466 -0.11665161 0.36053017
0.24830943 0.6098931 0.38406432 -0.29072714 -0.15604 0.0480225 0.46597308 -0.03704438
-0.0060226535 -0.4972225 0.19381659 -0.36716658 0.015273684 0.38020328 -0.38745156 0.013105556
-0.5437763 0.062449533 -0.20255958 0.45312044 -0.19174676 0.09829188 0.529548 0.22951435
00000000: c1ae e9be b417 523e 79b2 0dbe 95cd 133f
00000010: c14d af3e ce15 16bf f7b5 be3e 86aa 1d3d
00000020: 0acb e63e 62ed d73d 14d8 babe dfe8 c03e
00000030: 8a28 d2be e77f e0bd 15e1 e63e ee50 2fbe
00000040: 492b 043f ec44 65bd 91f1 953e cffe a43e
00000050: 0819 f0be 121f da3d f08f 01bc eca1 983c
00000060: ea49 fc3e e1fc ad3d ef76 773e cc56 25be
00000070: 8fcc e03e 583b 6ebd ae99 b43d 230c c03e
00000080: e8c0 2f3d 2845 f43e 421d 8bbe 741e 113e
00000090: 068a a9bd 51cd 23bc 5748 08bf 1333 ff3d
000000a0: a26c ee3e 1957 33be 5491 55bd 0a0d c6be
000000b0: d3ae efbd 0b69 d43c e8b9 543e aeb6 59be
000000c0: 2117 ba3e 5561 6bbe 85f5 d8be cf04 753e
000000d0: 6879 773e bead 873e 2808 823d f5c9 b0be
000000e0: c6b9 bb3e 250e 1cbd f8f9 2d3f 26c1 b7be
000000f0: 2c1e 26be bb16 9abe 6e96 9e3e bf10 e5be
00000100: 86b5 d63e 6945 3fbe c2b3 b5bd bf7d e43e
00000110: 9ec9 df3e 17b3 c93e 9ed8 01bf 30b5 d83e
00000120: 1113 82be b65a b23d a255 8d3e 7818 ab3d
00000130: fd0f 8cbe 1034 63be 8334 71bd 8bba 93be
00000140: 175f ad3d be32 bcbe 2a60 f4bd b39a b6be
00000150: 08c3 033e 655e ed3b 197e dd3e 872c 61be
00000160: 1710 a73e 82e1 ef3d 2f88 aa3e 04ad bbbd
00000170: 790a 713d a518 f73d f4e3 58bc 228e b73e
00000180: 07d6 de3d 93f2 07bd 4519 99be fe65 88be
00000190: 2c0c 6f3d 4ffd 183e 3e37 e2be 966f e3be
000001a0: a4db 52be 5478 44be 5809 913e 33e1 94be
000001b0: e259 5cbe 7ac5 bb3c 23f0 3e3e a004 9dbe
000001c0: 9d97 24be 51ee 06bf 1297 7c3e f467 54be
000001d0: 5a87 833e 9806 953e 3ee0 233f d99e 293e
000001e0: 9a06 b63e b362 14bf 5331 e2bd b10f 08bf
000001f0: 3e8c 213e cf87 b5be c9b9 803e e862 8ebe
00000200: dea6 5ebe a2b3 c73e 5a5c e03d 7261 67be
00000210: 013a b7bd 2cfa 37be c670 af3e f112 10be
00000220: 3cce cc3e c7b4 74be a2fa 923e 029a 62be
00000230: e1b2 8c3e 8864 d8be c4ce 243e 25dd d3be
00000240: d609 8f3b 1d65 d6be 8aaf be3e f57c dbbd
00000250: dbbe 253f 5893 033f adfa 03bf 92f3 b63e
00000260: 734b be3e 9da6 383f 3503 04be 7515 68be
00000270: 3c75 1d3e ef5e 73be f7aa d9bd 4900 a0bd
00000280: f5a7 06bf ddfe b93e 5ed4 883e 0cd4 e1bd
00000290: 1db3 e33e 8b64 9abe aee6 37be c38a 483e
000002a0: 4df3 fbbd 1222 e33d 7433 623e 5194 e0bd
000002b0: 022d 3bbe 76ed 2b3e 9fad 8d3e ea54 bd3c
000002c0: 53c9 0abe 3547 e13e d1a9 d33d 5192 90bc
000002d0: d74f f03d 58c5 7cbe 1ea1 d13e 1ae1 fabd
000002e0: 2b6c b7be 40ca bdbd e465 0c3e cab3 34be
000002f0: 898d aa3e 7089 363e 3b96 c43e 366c e9be
00000300: aaab 4b3c 5a08 843c 21f5 20bd 10d1 b9bd
00000310: e584 bf3e 6750 fb3d a266 bc3d db57 e73d
00000320: b95d ebbe f3c0 cd3d f8bf 803e 7e31 dd3e
00000330: 2e1a 5abe eccf eabe 6000 723e 428d 023d
00000340: ada5 f23e 18a4 27bd 1a23 86be f20f cf3e
00000350: d3ff 783d 15f2 33be bda4 8f3e 5125 bc3e
00000360: cb0c 9dbd cb32 08be 682d 983d e996 d3be
00000370: bd93 ab3e 0156 b4be bc68 8cbe d05e bbbe
00000380: 95c7 773d 4eff 083e d344 a93e 2fc2 57be
00000390: 24d2 013f 7e21 91bd 0ae7 eebd 6997 b83e
000003a0: d444 7e3e f421 1c3f 14a4 c43e 30da 94be
000003b0: f3c8 1fbe 3eb3 443d 0694 ee3e d9bb 17bd
000003c0: ae59 c5bb f393 febe db77 463e 42fd bbbe
000003d0: 793e 7a3c 01aa c23e 0d60 c6be b0b8 563c
000003e0: ec34 0bbf 15cb 7f3d c76b 4fbe 67ff e73e
000003f0: 4359 44be 414d c93d 7590 073f cf05 6b3e

actor.0.bias f4 [64]
0.045162033 0.13130653 0.36936694 -0.29130465 0.18970264 -0.2735928 -0.1976445 -0.049578305
-0.12675273 -0.07258521 0.26916295 0.363374 0.19703463 0.04518905 0.019621702 0.18805169
0.26930106 -0.12165747 -0.07271505 0.09137884 0.03455714 0.06318458 0.13234295 -0.052049458
0.29545054 0.012374466 -0.24517746 -0.00946933 -0.12791081 0.38753977 -0.2505948 0.12393152
-0.27780268 0.32652333 -0.06413017 -0.1271264 -0.29517215 -0.018623864 -0.041025393 -0.007536
0.0131181795 -0.23340997 0.31883964 -0.22027092 0.12013565 -0.24796289 -0.18922816 0.3219665
0.19721544 -0.056649286 -0.30082834 0.029681774 -0.28541023 -0.23040293 0.16435957 0.26476383
0.30884087 -0.3027687 -0.12304413 0.025979167 -0.10504247 -0.054869886 -0.118207015 0.32152167
00000000: d3fb 383d 3875 063e aa1d bd3e e225 95be
00000010: 6941 423e 5b14 8cbe 5263 4abe 9f12 4bbd
00000020: 78cb 01be 8ea7 94bd bacf 893e 280c ba3e
00000030: 72c3 493e 2718 393d b1bd a03c 9f90 403e
00000040: d4e1 893e 8d27 f9bd a1eb 94bd d424 bb3d
00000050: ca8b 0d3d eb66 813d e984 073e d031 55bd
00000060: 4b45 973e 46be 4a3c cd0f 7bbe 4025 1bbc
00000070: 0dfb 02be 9d6b c63e f64d 80be cfcf fd3d
00000080: 273c 8ebe 112e a73e ae56 83bd 6c2d 02be
00000090: ce20 97be 1391 98bc 3e0a 28bd 8df0 f6bb
000000a0: a2ed 563c 0603 6fbe f33e a33e b38e 61be
000000b0: ae09 f63d fce9 7dbe 07c5 41be cbd8 a43e
000000c0: d8f2 493e 1509 68bd 2c06 9abe 3127 f33c
000000d0: 4a21 92be bfee 6bbe e04d 283e 208f 873e
000000e0: 6420 9e3e 8004 9bbe 90fe fbbd 43d2 d43c
000000f0: 8220 d7bd 3fbf 60bd 8516 f2bd 7d9e a43e

actor.2.weight f4 [64, 64]
0.26733536 0.37940657 0.045200527 0.1562535 0.15390146 -0.013086557 -0.065040655 -0.03671743
-0.27318478 0.09497393 -0.07304409 -0.036290944 -0.060816653 0.052007616 0.3642336 -0.10011551
0.014505605 0.102158114 -0.17467426 -0.121013984 0.010057995 0.06597399 -0.2471468 -0.05626997
-0.34650138 0.03816801 0.022653412 0.14318061 -0.14862147 0.06756724 0.33099794 0.062166736
0.19583756 0.018554566 0.046836626 0.008963805 0.036500778 0.008708456 -0.33025217 -0.013814002
0.07917622 0.189728 0.08310403 -0.07887286 -0.11362597 0.09662408 0.109533235 0.0032811053
-0.09029299 -0.59753186 0.08700273 -0.2996099 -0.20075038 -0.056874372 -0.17590757 -0.0521362
-0.08433013 -0.008293165 -0.14736071 -0.073983096 -0.1770191 -0.2357949 0.27002698 0.31173575
0.206512 0.5750456 0.07387567 0.057929486 0.11521558 0.13117947 0.110724226 0.019032808
-0.38969025 -0.08725701 0.061273493 0.22867306 0.10714278 0.1416717 0.2056912 -0.09732353
-0.026342534 0.049329102 0.0058964663 0.08355351 -0.045241784 0.06872077 -0.28842697 0.17322701
-0.29941395 0.17746654 -0.06787775 0.08343961 -0.3662941 0.26940367 0.07647522 0.17601599
0.112406254 -0.013038056 -0.046808425 -0.10459536 0.048934635 -0.0532021 -0.34384972 0.06916235
0.058228325 0.1110043 0.108848885 -0.013646638 -0.22106554 0.0050373203 0.12494182 0.03808714
-0.0646862 -0.54862386 0.107673 -0.17589556 -0.2447473 -0.024857748 -0.09344517 -0.0040792623
-0.09925991 0.007571457 -0.20891003 0.006804482 -0.30656964 -0.2471079 0.1395699 0.5366223
-0.0734786 0.027747555 0.030612292 -0.0052039414 0.107838586 0.024045927 0.06253274 -0.12159772
0.009055217 -0.027572434 0.11629521 0.012140298 0.067166574 0.082629025 -0.0546604 -0.09971278
-0.08510026 -0.07944059 0.07319267 0.11122656 -0.09404323 -0.2225596 -0.091603845 0.19654585
0.03651441 -0.008430431 -0.13690236 0.015573677 -0.009124095 0.26033527 -0.069763176 -0.08982649
0.011095097 0.08003799 -0.15271443 0.06440606 -0.049071394 -0.20436686 -0.09105661 0.21659938
0.029464992 -0.07943892 0.15697512 -0.2020593 -0.048129953 -0.030502861 0.21771538 -0.046283558
0.026252324 -0.22233875 -0.1358619 0.05560258 -0.25024122 -0.060910717 0.07959069 -0.0029761507
-0.05716815 -0.17668928 0.0077684456 -0.10363204 -0.04114268 -0.028457362 -0.10830807 -0.0036942307
-0.053634655 -0.06880097 -0.026661089 -0.2488865 -0.16681427 -0.11675996 -0.034729626 -0.065308504
0.044407997 -0.13915385 0.06683617 -0.07532031 0.04210011 0.07799491 -0.2250922 0.09337289
0.018274577 -0.10297038 0.07703819 0.13973173 -0.015154229 -0.06301944 0.18144523 -0.0829957
0.08926504 -0.2333364 -0.04667356 -0.18363677 0.14073423 0.14060278 -0.17309912 0.0051755155
-0.092378326 0.12854284 0.009233588 -0.035303157 -0.13141151 -0.06539002 0.0094731 -0.020380741
-0.074542224 -0.20476134 0.078950785 -0.110826254 0.013286774 -0.09401768 -0.12621184 -0.024277188
0.06272637 0.23949927 -0.21440251 0.034237947 -0.07416323 -0.16041847 -0.037811916 -0.057262193
0.04738731 -0.0029782434 -0.0031312113 0.044337966 0.09192882 0.10040194 -0.06597286 -0.15113421
00000000: 2ee0 883e 9441 c23e 3024 393d eb00 203e
00000010: 5898 1d3e 0069 56bc 0934 85bd 0465 16bd
00000020: e0de 8bbe b181 c23d 2498 95bd d0a5 14bd
00000030: e21a 79bd f005 553d d47c ba3e 5c09 cdbd
00000040: eba8 6d3c 4638 d13d cfdd 32be 2ed6 f7bd
00000050: 4aca 243c 5f1d 873d 0d14 7dbe 577b 66bd
00000060: a168 b1be 0f56 1c3d a693 b93c f09d 123e
00000070: 3a30 18be b160 8a3d 9078 a93e 8ca2 7e3d
00000080: a489 483e bfff 973c c3d7 3f3d ecdc 123c
00000090: d781 153d e9ad 0e3c d016 a9be 2054 62bc
000000a0: 2427 a23d 0f48 423e 7232 aa3d 1888 a1bd
000000b0: bcb4 e8bd d8e2 c53d f652 e03d d007 573b
000000c0: 88eb b8bd d9f7 18bf 7d2e b23d 7866 99be
000000d0: 8291 4dbe 1af5 68bd 1d21 34be c58c 55bd
000000e0: 46b5 acbd 0ee0 07bc bae5 16be 7384 97bd
000000f0: 7f44 35be 3874 71be fa40 8a3e d49b 9f3e
00000100: e277 533e 3036 133f 214c 973d 7847 6d3d
00000110: 25f6 eb3d e953 063e 62c3 e23d b1ea 9b3c
00000120: 7b85 c7be ceb3 b2bd eaf9 7a3d 4529 6a3e
00000130: ad6d db3d 6312 113e b7a0 523e 8f51 c7bd
00000140: 4ccc d7bc 500d 4a3d 2537 c13b 1a1e ab3d
00000150: 734f 39bd 7abd 8c3d b3ac 93be 6c62 313e
00000160: c94c 99be cab9 353e 7d03 8bbd 63e2 aa3d
00000170: e68a bbbe 47ef 893e 0a9f 9c3d 893d 343e
00000180: 4035 e63d 929d 55bc 31ba 3fbd 1836 d6bd
00000190: af6f 483d 72ea 59bd 120d b0be fda4 8d3d
000001a0: d380 6e3d 3956 e33d 2aec de3d 2696 5fbc
000001b0: 015f 62be 1b10 a53b 7fe1 ff3d 4301 1c3d
000001c0: 337a 84bd 9d72 0cbf a983 dc3d f71d 34be
000001d0: 099f 7abe 7aa2 cbbc 2e60 bfbd 55ab 85bb
000001e0: c848 cbbd fc19 f83b 83ec 55be 22f8 de3b
000001f0: b2f6 9cbe da09 7dbe 69eb 0e3e 1460 093f
00000200: f37b 96bd d74e e33c a1c6 fa3c d385 aabb
00000210: 7ada dc3d f7fb c43c 2a11 803d 3a08 f9bd
00000220: 555c 143c 96df e1bc 2f2c ee3d 1ae8 463c
00000230: a18e 893d 6839 a93d 95e3 5fbd 3736 ccbd
00000240: 0c49 aebd c0b1 a2bd 0ae6 953d c0ca e33d
00000250: bd99 c0bd aae6 63be cc9a bbbd 5143 493e
00000260: 2290 153d ca1f 0abc 2230 0cbe bc28 7f3c
00000270: 3a7d 15bc aa4a 853e ffdf 8ebd f3f6 b7bd
00000280: 36c8 353c f5ea a33d 2c61 1cbe 53e7 833d
00000290: 16ff 48bd 8c45 51be e37b babd 3acc 5d3e
000002a0: 9160 f13c dfb0 a2bd 16be 203e a2e8 4ebe
000002b0: ea23 45bd 23e1 f9bc c8f0 5e3e d493 3dbd
000002c0: 1d0f d73c c5ac 63be 621f 0bbe 88bf 633d
000002d0: 9e1f 80be 847d 79bd 7200 a33d 860b 43bb
000002e0: 2629 6abd 09ee 34be 728e fe3b 093d d4bd
000002f0: 3a85 28bd 6a1f e9bc 9fd0 ddbd e81a 72bb
00000300: 03b0 5bbd 86e7 8cbd 5b68 dabc 1adc 7ebe
00000310: 5cd1 2abe d91f efbd a740 0ebd 77c0 85bd
00000320: 29e5 353d 597e 0ebe 67e1 883d 8941 9abd
00000330: 2a71 2c3d ccbb 9f3d 927e 66be 493a bf3d
00000340: 91b4 953c 22e2 d2bd 33c6 9d3d d615 0f3e
00000350: 7149 78bc 5610 81bd c7cc 393e a6f9 a9bd
00000360: 97d0 b63d bdef 6ebe c62c 3fbd 470b 3cbe
00000370: a21c 103e 2dfa 0f3e e540 31be 5f97 a93b
00000380: d930 bdbd bca0 033e 7a48 173c 0b9a 10bd
00000390: bd90 06be 34eb 85bd 1035 1b3c 83f5 a6bc
000003a0: 98a9 98bd f5ac 51be f3b0 a13d e0f8 e2bd
000003b0: c5b0 593c 578c c0bd ad3d 01be f4e0 c6bc
000003c0: af76 803d 4c3f 753e 558c 5bbe 173d 0c3d
000003d0: e4e2 97bd bd44 24be abe0 1abd c38b 6abd
000003e0: 3219 423d a22e 43bb 0235 4dbb ba9b 353d
000003f0: 2d45 bc3d 889f cd3d c71c 87bd edc2 1abe

actor.2.bias f4 [64]
0.08588661 -0.0027257237 0.19848128 0.06372641 -0.18364981 0.06901063 -0.048865657 0.004300962
-0.064746276 0.04394546 0.04996114 -0.01441159 0.030977838 -0.00077079434 -0.028628247 -0.0037879508
0.017363 0.116677456 -0.09820204 -0.1257655 0.024089413 -0.13638341 0.1258571 0.061493553
0.0040788488 0.047656517 -0.039753813 0.028558327 0.25216034 0.060624633 0.032867655 0.116203226
0.19973652 0.12217061 0.014601999 0.026886974 0.04782659 0.026689516 -0.047922064 -0.070719
-0.05159133 -0.092848316 -0.04131615 0.07278622 -0.118325755 -0.036640868 -0.11494245 0.0957207
-0.11345578 0.05333966 -0.13209741 0.07986852 -0.032431543 -0.03931863 -0.028383194 -0.07243182
0.062758856 0.098971315 -0.06460422 -0.10450586 -0.09186764 -0.10308375 0.0019921798 0.023173895
00000000: 52e5 af3d 0ea2 32bb ad3e 4b3e fe82 823d
00000010: b20e 3cbe 7255 8d3d 5b27 48bd 16ef 8c3b
00000020: b299 84bd 2800 343d 0da4 4c3d 971e 6cbc
00000030: 3cc5 fd3c 220f 4aba c985 eabc 453f 78bb
00000040: da3c 8e3c 97f4 ee3d 271e c9bd acc8 00be
00000050: 2957 c53c 18a8 0bbe afe0 003e aae0 7b3d
00000060: dda7 853b 7b33 433d e5d4 22bd 27f3 e93c
00000070: 291b 813e 8951 783d 3ca0 063d f5fb ed3d
00000080: bb87 4c3e 9634 fa3d 393d 6f3c 1242 dc3c
00000090: d0e5 433d f9a3 da3c ed49 44bd 20d5 90bd
000000a0: 6e51 53bd 4227 bebd 203b 29bd f110 953d
000000b0: c654 f2bd bc14 16bd f266 ebbd 3709 c43d
000000c0: 815b e8bd b07a 5a3d 8b44 07be 1b92 a33d
000000d0: f0d6 04bd 920c 21bd df83 e8bc 2257 94bd
000000e0: b787 803d 79b1 ca3d 384f 84bd 2b07 d6bd
000000f0: 1a25 bcbd 931d d3bd 3b8f 023b 2ed7 bd3c

actor.4.weight f4 [3, 64]
-0.2189576 -0.62090737 -0.03149123 -0.038041577 0.025687587 -0.2753112 0.5602057 0.26257133
0.2067663 -0.5125511 0.20563532 0.6919688 0.4181202 -0.035729915 0.41463673 -0.12761848
0.037545893 0.18108873 -0.22780538 -0.29587156 -0.17954487 -0.29064023 -0.44851446 0.6630005
-0.58158046 -0.3726447 0.34655735 -0.6015907 -0.06771696 -0.18841857 0.29510763 -0.5378591
-0.3510114 -0.4855706 -0.12334253 0.33900967 -0.5070829 -0.5466869 -0.5842106 0.077635854
0.47841504 0.5113564 -0.571441 0.25018167 -0.087124914 -0.16035555 0.45067638 -0.50276047
0.16770452 0.5467925 -0.21324466 -0.71391034 0.49476945 -0.4214003 -0.011209087 0.1521728
0.09080911 -0.41354573 -0.46942237 0.6146669 0.53732353 0.21985596 0.30099753 0.15792044
-0.06824668 0.12970911 0.2076572 0.05888205 -0.13541478 -0.1495328 -0.096345365 0.13745272
0.13679452 0.10552947 0.20877944 -0.046824038 0.09148325 -0.09157356 0.041010592 -0.14876473
-0.07431342 0.12810591 -0.109826975 -0.14860745 -0.071613275 -0.13280691 0.05293815 -0.04594333
0.12400609 -0.04450055 -0.056232195 0.13107057 0.23897068 0.09377908 0.06543177 0.14915197
0.09124135 0.045145728 0.01401463 0.06580693 0.08175674 0.0066803196 0.06878831 -0.061304275
-0.04022295 -0.15123521 -0.028302195 0.019304961 -0.18590902 -0.19294879 -0.0044447067 0.06313409
-0.060124334 -0.038220372 -0.051196758 0.0055513857 -0.15321892 0.004429754 -0.15319866 -0.06090481
0.12776466 0.16405502 -0.06797848 -0.07813303 0.035937462 -0.03809991 -0.007826228 0.13804951
0.44360673 0.44606304 0.003578699 -0.17445543 0.03169193 0.41098714 -0.4028864 -0.5468501
-0.4175299 0.40714908 -0.35476503 -0.34222072 -0.51890355 0.23749082 -0.35025093 0.29466975
-0.19122447 -0.5281167 0.42098412 0.5364073 0.38343623 0.5832346 0.15935247 -0.30108842
0.26357588 0.25714198 -0.4406289 0.3188744 -0.07959663 0.21041666 -0.66633064 0.2521025
0.021113396 0.1518519 0.43187177 -0.46176088 0.20054391 0.25466877 0.48487216 0.23815364
-0.10730389 -0.27837697 0.47324517 -0.25574684 0.19216037 0.34298155 -0.16285618 0.42996705
0.20586097 -0.3957437 0.6351433 0.29693896 -0.2963044 0.36817405 0.16029492 0.10181927
-0.24234167 0.088269666 0.4188462 -0.23903011 -0.30471832 0.01928882 -0.15470183 -0.18310252
00000000: 6c36 60be c9f3 1ebf f3fc 00bd 7cd1 1bbd
00000010: c66e d23c 97f5 8cbe a469 0f3f c06f 863e
00000020: 8cba 533e 8d36 03bf 1192 523e de24 313f
00000030: da13 d63e 8859 12bd 444b d43e 6bae 02be
00000040: b9c9 193d 536f 393e d045 69be 7a7c 97be
00000050: 9cda 37be ccce 94be b0a3 e5be 67ba 293f
00000060: 75e2 14bf 49cb bebe f76f b13e d901 1abf
00000070: 31af 8abd ccf0 40be 5918 973e 22b1 09bf
00000080: c4b7 b3be b69c f8be 029b fcbd ad92 ad3e
00000090: 2fd0 01bf acf3 0bbf d38e 15bf 8cff 9e3d
000000a0: d1f2 f43e 41e8 023f f549 12bf d017 803e
000000b0: 8c6e b2bd 3f34 24be 0ebf e63e e9b4 00bf
000000c0: bcba 2b3e 98fa 0b3f cf5c 5abe d4c2 36bf
000000d0: 6c52 fd3e c8c1 d7be 52a6 37bc 30d3 1b3e
000000e0: 20fa b93d 44bc d3be 2158 f0be cf5a 1d3f
000000f0: 098e 093f ec21 613e 591c 9a3e e5b5 213e
00000100: eac4 8bbd 77d2 043e 17a4 543e 4e2e 713d
00000110: 2caa 0abe 201f 19be b850 c5bd 68c0 0c3e
00000120: dd13 0c3e d61f d83d 47ca 553e 90ca 3fbd
00000130: 925b bb3d eb8a bbbd b9fa 273d c855 18be
00000140: a231 98bd 322e 033e f7ec e0bd 8d2c 18be
00000150: fba9 92bd 89fe 07be acd5 583d 132f 3cbd
00000160: e8f6 fd3d 3546 36bd bb53 66bd 5d37 063e
00000170: bbb4 743e 3f0f c03d 1801 863d 4bbb 183e
00000180: bfdc ba3d baea 383d 9e9d 653c c9c5 863d
00000190: 1470 a73d 95e6 da3b e3e0 8c3d 311a 7bbd
000001a0: d2c0 24bd 67dd 1abe 01da e7bc 7025 9e3c
000001b0: ef5e 3ebe 5e94 45be e7a4 91bb 724c 813d
000001c0: ef44 76bd f78c 1cbd b1b3 51bd 66e8 b53b
000001d0: 6ce5 1cbe 7827 913b 1ce0 1cbe 5277 79bd
000001e0: bdd4 023e 0afe 273e 4d38 8bbd 3604 a0bd
000001f0: 2933 133d a70e 1cbd 9439 00bc da5c 0d3e
00000200: 6c20 e33e 6062 e43e 9b88 6a3b 72a4 32be
00000210: 66cf 013d e86c d23e 2047 cebe 5efe 0bbf
00000220: 7bc6 d5be d875 d03e c3a3 b5be 8e37 afbe
00000230: ddd6 04bf cb30 733e 1754 b3be f4de 963e
00000240: 59d0 43be a832 07bf 3b8b d73e fd51 093f
00000250: c151 c43e dd4e 153f 4b2d 233e 4328 9abe
00000260: 6bf3 863e 1da8 833e 1c9a e1be 8143 a33e
00000270: 8f03 a3bd 7777 573e a594 2abf 9413 813e
00000280: 00f6 ac3c 117f 1b3e 4c1e dd3e ec6b ecbe
00000290: 625b 4d3e f263 823e 2a41 f83e 8cde 733e
000002a0: 24c2 dbbd 6d87 8ebe 314d f23e 40f1 82be
000002b0: b0c5 443e 479b af3e c5c3 26be a424 dc3e
000002c0: 38cd 523e eb9e cabe c098 223f 6208 983e
000002d0: 36b5 97be 4f81 bc3e 5a24 243e 9f86 d03d
000002e0: 6a28 78be bac6 b43d 0273 d63e 4fc4 74be
000002f0: 0a04 9cbe 9603 9e3c 286a 1ebe 3a7f 3bbe

actor.4.bias f4 [3]
-0.0528093 0.10165662 -0.17237973
00000000: 914e 58bd 5931 d03d 5084 30be

critic.0.weight f4 [64, 5]
0.097454235 -0.26075006 -0.31318402 0.013001807 1.2807162 0.19561473 -0.18433551 -0.21654692
-0.2398691 0.08377905 0.42343315 -0.3259232 0.0062659434 -0.20859164 -1.1847647 0.30845827
0.3734829 -0.15482381 0.12077281 1.4371227 0.2755241 0.22462443 0.017585833 0.22118515
0.9448212 0.25907278 0.1668176 -0.26907042 -0.47588563 1.0469767 0.11098795 -0.17397457
0.37385434 -0.16113335 -1.219028 0.27008054 -0.04939547 -0.17469744 -0.15077658 -1.1189681
-0.21283092 -0.034670252 -0.1998431 -0.06097638 1.02517 -0.30667487 -0.2791137 -0.17957363
-0.5213437 1.140766 0.013617538 -0.25919646 0.17189603 -0.062498316 1.08421 -0.21674493
-0.29884955 0.021783961 0.13527465 -1.1182091 -0.001566502 -0.09044977 0.41683912 -0.35314316
-1.0798173 0.3414445 -0.28122085 0.45867902 -0.17368655 -0.8929336 0.1670327 -0.05523184
0.42460746 -0.24454042 -1.0220981 -0.30395633 0.3072194 -0.53783894 -0.2760605 -0.60458213
-0.26717335 0.34331635 0.35995868 0.12795454 0.9566841 -0.21532075 0.38281938 -0.06313456
0.34841782 1.2969327 -0.037402347 -0.28171483 -0.3012744 -0.04652646 1.0407407 -0.27429536
0.2693157 -0.15000658 -0.35512757 -1.3055584 0.38980985 -0.3667489 0.58861035 0.21068524
-1.2773097 0.20487855 -0.039660648 -0.24124467 0.47812265 -1.3744739 0.36329255 -0.034206014
0.18543278 0.18188575 -1.341961 0.022873094 0.043747775 0.14220189 -0.3022849 -0.6052484
-0.11572469 0.20854013 -0.008791558 0.29034057 -1.5017449 0.11015017 0.09176698 -0.35669833
0.15076585 1.0640996 -0.22162499 0.1816837 -0.18176717 -0.20863931 -0.9351154 -0.44746485
0.3063391 0.044068698 0.17762613 -1.0910988 0.23502098 -0.17531401 0.09699363 0.46342766
-1.3839273 -0.26140985 0.12856182 0.36989793 0.17577565 0.26520163 -0.056590006 0.061357826
-0.25230163 -0.036997136 1.2526671 0.119982876 -0.015777169 0.103490286 -0.18206929 0.9158595
-0.420731 0.40240994 0.3586714 -0.3997868 -1.1268041 -0.17082115 0.30683 -0.47106504
0.3347972 1.4342906 0.23762384 0.30492896 0.27088916 -0.08209339 -1.0387881 0.32681283
-0.32712433 -0.44854373 0.32070884 0.9370445 -0.035172433 0.04571635 -0.1624896 0.20450313
0.20644099 0.09733507 -0.14696154 -0.2254927 0.10438927 -0.43296131 -0.37661254 -0.052532617
0.45172513 -0.19242123 -1.371909 -0.081360936 0.09923355 -0.15780632 0.15971166 0.961066
-0.025935147 0.22230254 -0.058551412 0.4239424 0.45601422 0.37903592 0.08361146 0.34658942
0.07204692 -1.3627386 -0.17954987 0.3313486 0.31445733 0.25485846 -1.3588406 -0.07547119
0.31024104 0.20820126 0.3272486 1.3147697 -0.040166654 -0.3369426 0.40209407 0.19785894
1.1116458 0.219043 -0.2848995 -0.25748467 -0.09593966 -0.8841962 0.08703029 -0.16704528
0.30768222 -0.36549035 -1.0335922 -0.21104164 -0.2543321 -0.0316656 -0.14108148 -1.184069
-0.35260868 0.26648322 -0.21266009 0.022744577 -1.2649224 -0.105028704 -0.23998904 0.37805238
0.02283884 -1.1023006 -0.108115226 -0.13599716 0.026292171 -0.39567977 0.38945034 -0.24515769
00000000: 1696 c73d 0881 85be a859 a0be 8805 553c
00000010: 82ee a33f 3a4f 483e 73c2 3cbe 7abe 5dbe
00000020: 3fa0 75be 5a94 ab3d 3bcc d83e 68df a6be
00000030: 8b52 cd3b 0c99 55be 5fa6 97bf 3eee 9d3e
00000040: 2739 bf3e 228a 1ebe bc57 f73d a3f3 b73f
00000050: 7f11 8d3e f203 663e 2a10 903c 5c7e 623e
00000060: cddf 713f 30a5 843e 3cd2 2a3e 99c3 89be
00000070: 48a7 f3be 5503 863f a64d e33d 6426 32be
00000080: d669 bf3e 2400 25be 1c09 9cbf ff47 8a3e
00000090: e852 4abd e3e3 32be 2d65 1abe 593a 8fbf
000000a0: 59f0 59be 6502 0ebd aba3 4cbe 5ec2 79bd
000000b0: c538 833f 7d04 9dbe fee7 8ebe 26e2 37be
000000c0: c876 05bf 9f04 923f 181c 5f3c 66b5 84be
000000d0: 8305 303e 3cfe 7fbd 65c7 8a3f 62f2 5dbe
000000e0: cf02 99be 4774 b23c 7085 0a3e 7a21 8fbf
000000f0: 1653 cdba bb3d b9bd f06b d53e 2ecf b4be
00000100: 7437 8abf d0d1 ae3e 2efc 8fbe fad7 ea3e
00000110: e3da 31be 4c97 64bf 9f0a 2b3e c83a 62bd
00000120: 2666 d93e ce68 7abe 1cd4 82bf 2aa0 9bbe
00000130: dc4b 9d3e d0af 09bf cd57 8dbe e5c5 1abf
00000140: f2ca 88be 29c7 af3e 814c b83e 8406 033e
00000150: 40e9 743f 0b7d 5cbe e700 c43e b14c 81bd
00000160: d263 b23e e401 a63f 3433 19bd ed3c 90be
00000170: a340 9abe 8892 3ebd fe36 853f 7170 8cbe
00000180: bfe3 893e 539b 19be 48d3 b5be 8a1c a7bf
00000190: 2895 c73e 83c6 bbbe 2baf 163f dfbd 573e
000001a0: e27e a3bf afcb 513e 3473 22bd d808 77be
000001b0: 7ecc f43e c3ee afbf 7b01 ba3e 9b1b 0cbd
000001c0: 17e2 3d3e 4240 3a3e 61c5 abbf 5b60 bb3c
000001d0: de30 333d 5f9d 113e 16c5 9abe 8ff1 1abf
000001e0: 1101 edbd 8b8b 553e 780a 10bc 85a7 943e
000001f0: 2d39 c0bf 6a96 e13d 54f0 bb3d 2aa1 b6be
00000200: 5d62 1a3e 6a34 883f a9f1 62be 4b0b 3a3e
00000210: 2c21 3abe 8ba5 55be b963 6fbf 1d1a e5be
00000220: 7ad8 9c3e 6181 343d a0e3 353e 20a9 8bbf
00000230: 57a9 703e 8485 33be 99a4 c63d 6446 ed3e
00000240: 8824 b1bf 83d7 85be b6a5 033e 4363 bd3e
00000250: 88fe 333e 82c8 873e ecca 67bd 5852 7b3d
00000260: ae2d 81be 4f8a 17bd 6557 a03f 95b9 f53d
00000270: 1f3f 81bc b7f2 d33d 5f70 3abe c575 6a3f
00000280: 0e6a d7be ad08 ce3e c7a3 b73e dbb0 ccbe
00000290: 1e3b 90bf bdeb 2ebe d218 9d3e 702f f1be
000002a0: 8a6a ab3e d696 b73f aa53 733e a61f 9c3e
000002b0: fcb1 8a3e 9420 a8bd 02f7 84bf 0354 a73e
000002c0: d77c a7be 86a7 e5be f333 a43e 26e2 6f3f
000002d0: f810 10bd 1141 3b3d ac63 26be 4569 513e
000002e0: 4465 533e 9c57 c73d 167d 16be 8fe7 66be
000002f0: 0bca d53d 1bad ddbe 5cd3 c0be 712c 57bd
00000300: 8448 e73e 120a 45be b79a afbf 90a0 a6bd
00000310: f63a cb3d fb97 21be 748b 233e 6c08 763f
00000320: f275 d4bc 47a3 633e 9bd3 6fbd fa0e d93e
00000330: b27a e93e ff10 c23e 7c3c ab3d 2b74 b13e
00000340: 568d 933d 386e aebf ecdb 37be 86a6 a93e
00000350: 8d00 a13e cf7c 823e 7dee adbf a490 9abd
00000360: ead7 9e3e b632 553e 218d a73e 604a a83f
00000370: ca85 24bd be83 acbe 46df cd3e 899b 4a3e
00000380: 694a 8e3f cf4c 603e 59de 91be 08d5 83be
00000390: 037c c4bd af5a 62bf f03c b23d eb0d 2bbe
000003a0: 8688 9d3e 8d21 bbbe c04c 84bf 4d1b 58be
000003b0: d137 82be cab3 01bd aa77 10be 938f 97bf
000003c0: 2089 b4be 7d70 883e 91c3 59be d652 ba3c
000003d0: fae8 a1bf 4a19 d7bd b0bf 75be 1590 c13e
000003e0: 8518 bb3c 3018 8dbf 846b ddbd d742 0bbe
000003f0: ae62 d73c 8a96 cabe 0966 c73e 9e0a 7bbe

critic.0.bias f4 [64]
0.28253734 0.14296976 -0.15975843 -0.38677087 0.036756773 0.3126518 -0.19155899 0.11291862
-0.30350757 -0.023960313 -0.089462884 -0.19637148 -0.2927486 -0.25543404 -0.17759804 0.306265
-0.30144417 -0.043048367 0.3628296 0.0369406 -0.37978262 0.14571893 -0.14041728 0.04447596
-0.3271661 0.028592732 0.11446571 -0.38313985 -0.33501905 -0.27802935 0.25553885 -0.17555206
-0.061473265 0.33049032 -0.42676914 0.3617036 0.092976354 -0.019303659 -0.27459934 0.19312085
-0.2850187 -0.48938698 -0.30845565 -0.42555782 0.055136032 0.13812815 0.3115937 0.3603764
-0.07737125 -0.25899154 -0.26903477 -0.13095754 0.14699739 0.35271135 -0.16356812 0.27017385
-0.18807854 -0.25205883 0.2310631 0.48065192 0.37252015 -0.38149312 -0.2097499 0.33938742
00000000: bca8 903e aa66 123e b797 23be d506 c6be
00000010: 458e 163d e613 a03e 0a28 44be e141 e73d
00000020: 5865 9bbe 6b48 c4bc 5138 b7bd 9b15 49be
00000030: 25e3 95be 40c8 82be 43dc 35be c4ce 9c3e
00000040: e456 9abe 7c53 30bd cdc4 b93e 074f 173d
00000050: de72 c2be 5837 153e 8cc9 0fbe 6d2c 363d
00000060: 5182 a7be 4e3b ea3c 006d ea3d e82a c4be
00000070: 9e87 abbe dd59 8ebe fdd5 823e ebc3 33be
00000080: 64cb 7bbd 0736 a93e 7c81 dabe 3731 b93e
00000090: 636a be3d b522 9ebc 4998 8cbe 79c1 453e
000000a0: f9ed 91be ee90 fabe e6ed 9dbe b7e2 d9be
000000b0: 52d6 613d 7771 0d3e 3689 9f3e 4183 b83e
000000c0: d174 9ebd 8a9a 84be edbe 89be bc19 06be
000000d0: 7c86 163e 9596 b43e 677e 27be 3a54 8a3e
000000e0: a997 40be db0d 81be ce9b 6c3e 0218 f63e
000000f0: f6ba be3e 1153 c3be aec8 56be 30c4 ad3e

critic.2.weight f4 [64, 64]
-0.06176364 -0.17483194 0.0017408058 -0.01134335 -0.006069535 0.026110493 0.14258526 -0.05496911
-0.090206794 0.05938702 0.086761616 -0.0911208 -0.018036658 0.21742274 0.105760165 -0.2501845
0.20344657 -0.00058409624 0.023348713 -0.23883311 0.17859998 -0.19983687 0.03645609 -0.113773935
-0.13252927 0.077131234 -0.16854355 0.09294461 -0.05238622 0.1427405 -0.15942392 0.20932734
-0.002728808 0.018503862 0.025126606 -0.20936865 0.015573418 -0.11576506 0.037804376 -0.10625805
-0.072894536 -0.06162634 0.04289248 0.25668207 0.23496705 -0.06424991 0.090412244 -0.13950238
-0.14286044 -0.059560895 0.092778586 0.07362642 -0.19485682 0.007705306 0.0683844 -0.18056491
0.08060788 0.049487405 -0.07196956 -0.042591095 -0.11994701 -0.0072038434 -0.0014183231 -0.16774735
0.052800853 0.09871767 -0.05986186 -0.0055751563 0.117445014 0.14424513 -0.13023303 -0.08237085
-0.117556036 0.12508827 0.0005699398 -0.04851768 -0.0026932636 -0.1113544 0.032150976 -0.120046034
0.019907266 0.07309239 0.034393817 -0.068091884 -0.055982757 -0.05811122 -0.019054526 0.09010304
-0.15911153 0.11181266 -0.19601682 -0.20506962 -0.10631579 -0.043080192 0.12658747 0.16358784
0.006482359 0.09481392 -0.10741631 0.2006309 0.016549593 0.0006299539 -0.22103581 -0.030484764
0.032613225 -0.033798344 -0.10111494 0.1758733 -0.05320608 -0.060521528 -0.1058125 -0.046260767
-0.012243532 -0.0964102 0.001610663 -0.14825162 -0.007829258 0.039347675 -0.07995315 0.0010651946
0.1164219 -0.05850926 0.1312782 0.29885486 0.26454136 0.04206455 0.07552404 -0.12549989
-0.06222099 -0.028532524 -0.08011326 -0.010114139 -0.023904134 -0.12695867 -0.0023322257 -0.118543856
-0.035735574 -0.069241785 -0.10593293 -0.09884487 0.07028672 -0.11133665 0.020488352 0.07653219
-0.008755254 -0.013122732 -0.033020575 0.0051087392 0.0350592 -0.056915578 0.13388875 -0.030598933
0.09616755 -0.11210505 -0.12518466 -0.088036776 0.06303947 -0.024381911 0.0718189 0.07838237
0.023591861 0.09645548 -0.09374281 0.057798132 0.041058134 0.05055438 -0.04336069 0.12720037
-0.008279654 -0.097975 0.13741367 -0.042840067 -0.042672038 0.07186614 -0.02466051 -0.049261026
-0.075527504 -0.059796378 0.061771013 0.0012573294 -0.06362195 -0.009459633 0.07614553 0.07741039
0.08653087 -0.038166672 0.04930624 -0.124532506 -0.10744586 0.0015520009 0.046275884 0.054209013
0.09083302 0.08765388 0.12813208 -0.10020816 -0.09143926 0.051344935 0.006535363 0.08369189
0.00016930696 0.0540257 -0.1028165 0.09112439 0.04431877 0.03449027 0.045394797 0.10727421
-0.059281595 -0.0006466053 -0.06384302 0.047051553 -0.101399705 0.11882257 -0.10128489 0.05340966
0.1343718 -0.087631635 0.03743336 0.12249007 -0.09470475 -0.07411645 0.030073535 0.05549324
0.068684794 -0.059109557 0.025524085 -0.046149634 -0.06284343 -0.12892349 0.0029072154 0.13203742
0.010057416 0.021647071 -0.0016855897 -0.0736797 -0.042803515 -0.029926104 0.0043978384 -0.057805903
0.11559745 0.12283286 0.06449101 0.021121312 -0.03881345 0.15070826 0.0861338 0.043307375
-0.00022399066 0.1342784 -0.004663922 -0.07708658 -0.09702437 0.040979333 -0.08009098 0.044738766
00000000: dffb 7cbd 2507 33be c02b e43a 75d9 39bc
00000010: f3e2 c6bb ace5 d53c df01 123e 4a27 61bd
00000020: 57be b8bd ce3f 733d 13b0 b13d 8b9d babd
00000030: 9dc1 93bc 11a4 5e3e c998 d83d 2f18 80be
00000040: 4c54 503e 091e 19ba cd45 bf3c ab90 74be
00000050: eae2 363e 09a2 4cbe fb52 153d 4f02 e9bd
00000060: c1b5 07be fbf6 9d3d ae96 2cbe be59 be3d
00000070: ef92 56bd 912a 123e 0640 23be e859 563e
00000080: cdd5 32bb 6995 973c 50d6 cd3c bc64 56be
00000090: a627 7f3c 3b16 edbd c3d8 1a3d d29d d9bd
000000a0: bb49 95bd e76b 7cbd 06b0 2f3d d56b 833e
000000b0: 349b 703e 7595 83bd 0e2a b93d b6d9 0ebe
000000c0: 024a 12be 20f6 73bd b302 be3d 73c9 963d
000000d0: 8c88 47be cb7c fc3b 1f0d 8c3d 02e6 38be
000000e0: bf15 a53d 4eb3 4a3d c764 93bd 0074 2ebd
000000f0: c7a6 f5bd 380e ecbb 07e7 b9ba f6c5 2bbe
00000100: b545 583d 7d2c ca3d b631 75bd cdaf b6bb
00000110: 0387 f03d ffb4 133e cf5b 05be 0cb2 a8bd
00000120: 38c1 f0bd 2417 003e 0368 153a 7aba 46bd
00000130: 7781 30bb c70d e4bd beb0 033d b2da f5bd
00000140: 9014 a33c 77b1 953d 88e0 0c3d c273 8bbd
00000150: 2d4e 65bd 0806 6ebd 3d18 9cbc f187 b83d
00000160: 22ee 22be 09fe e43d a2b8 48be c5fd 51be
00000170: 18bc d9bd db74 30bd 25a0 013e 9283 273e
00000180: f869 d43b cd2d c23d 15fd dbbd 3072 4d3e
00000190: 0393 873c 7e23 253a 3657 62be 2fbb f9bc
000001a0: 7295 053d 2270 0abd 5a15 cfbd 2118 343e
000001b0: 9eee 59bd 6ce5 77bd 39b4 d8bd ee7b 3dbd
000001c0: 1899 48bc b672 c5bd e21c d33a 46cf 17be
000001d0: 4a46 00bc 072b 213d 7abe a3bd 009e 8b3a
000001e0: 9b6e ee3d 68a7 6fbd cb6d 063e 8103 993e
000001f0: f771 873e e14b 2c3d 59ac 9a3d 0b83 00be
00000200: 70db 7ebd 0abd e9bc 6c12 a4bd c6b5 25bc
00000210: 9ad2 c3bc 7401 02be 41d8 18bb 1fc7 f2bd
00000220: 775f 12bd a3ce 8dbd 5df3 d8bd 2e6f cabd
00000230: 7cf2 8f3d 7804 e4bd 30d7 a73c e9bc 9c3d
00000240: 3272 0fbc ba00 57bc 9540 07bd 3667 a73b
00000250: 3c9a 0f3d 4f20 69bd 221a 093e 9daa fabc
00000260: 7ef3 c43d 5597 e5bd 6830 00be a04c b4bd
00000270: d61a 813d 93bc c7bc ca15 933d f086 a03d
00000280: b843 c13c 738a c53d 3bfc bfbd bcbd 6c3d
00000290: 932c 283d 1c12 4f3d fb9a 31bd d040 023e
000002a0: 63a7 07bc 1ea7 c8bd 2bb6 0c3e 1179 2fbd
000002b0: e0c8 2ebd 8e2e 933d d604 cabc eec5 49bd
000002c0: 2aae 9abd 0ced 74bd 9a03 7d3d f9cc a43a
000002d0: 3a4c 82bd 94fc 1abc 30f2 9b3d 5789 9e3d
000002e0: 1937 b13d a854 1cbd 57f5 493d e60a ffbd
000002f0: 930c dcbd 826c cb3a c88b 3d3d 450a 5e3d
00000300: aa06 ba3d e183 b33d 0e35 033e f039 cdbd
00000310: 8244 bbbd 114f 523d 9926 d63b a766 ab3d
00000320: fe87 3139 0d4a 5d3d 7591 d2bd 6d9f ba3d
00000330: 9987 353d ab45 0d3d e5ef 393d 95b2 db3d
00000340: 42d1 72bd f280 29ba 21c0 82bd 21b9 403d
00000350: a6aa cfbd 3f59 f33d 746e cfbd 16c4 5a3d
00000360: c398 093e 3778 b3bd b953 193d 13dc fa3d
00000370: 90f4 c1bd 5eca 97bd c65c f63c e14c 633d
00000380: 9daa 8c3d dd1c 72bd e317 d13c 6607 3dbd
00000390: 0eb4 80bd 8504 04be fb86 3e3b d134 073e
000003a0: dcc7 243c 3355 b13c 01ef dcba 62e5 96bd
000003b0: bd52 2fbd 9727 f5bc be1b 903b e2c5 6cbd
000003c0: 5bbe ec3d cb8f fb3d dd13 843d 9a06 ad3c
000003d0: dafa 1ebd 4453 1a3e eb66 b03d 1363 313d
000003e0: 09df 6ab9 4780 093e d0d3 98bb 92df 9dbd
000003f0: b7b4 c6bd f2d9 273d bd06 a4bd ff3f 373d

critic.2.bias f4 [64]
-0.12669347 0.14694485 0.0093104895 -0.08091147 -0.13981903 -0.041764095 -0.0326608 -0.080047436
-0.037910104 0.033653207 0.014683033 0.053962328 -0.04813042 0.10603634 0.1000677 0.071554855
0.081648394 -0.09509096 0.027608117 0.06872889 -0.06281745 -0.032406114 -0.10907339 0.07698315
0.14371935 0.017547105 -0.077842146 -0.06847565 -0.0585283 0.03511602 -0.018375538 0.08384311
0.083382726 -0.005342806 -0.05963157 0.06611688 0.07291942 0.06043912 0.058837056 0.10275016
0.06476876 -0.10514232 -0.06384675 0.033251204 -0.10246362 -0.00787683 0.04895934 0.023685342
0.077733114 -0.022928288 0.012734882 -0.005607476 0.03878103 0.080537744 0.0784675 0.03327044
0.023048405 -0.08784915 0.0964204 -0.026395375 0.017362235 0.07727641 0.100388005 -0.06836637
00000000: efbb 01be b678 163e 068b 183c eab4 a5bd
00000010: b82c 0fbe d410 2bbd 55c7 05bd e9ef a3bd
00000020: a047 1bbd f2d7 093d 1b91 703c 9a07 5d3d
00000030: 6724 45bd 9529 d93d 4bf0 cc3d 5a8b 923d
00000040: 4637 a73d 0dbf c2bd 6b2a e23c bbc1 8c3d
00000050: 6fa6 80bd 46bc 04bd df61 dfbd 57a9 9d3d
00000060: 2a2b 133e f2be 8f3c b46b 9fbd f63c 8cbd
00000070: 5fbb 6fbd d1d5 0f3d 4c88 96bc f0b5 ab3d
00000080: 90c4 aa3d b512 afbb 3c40 74bd 4968 873d
00000090: c756 953d 038f 773d 20ff 703d ad6e d23d
000000a0: 7ca5 843d db54 d7bd 16c2 82bd 6a32 083d
000000b0: 72d8 d1bd d20d 01bc 9789 483d c307 c23c
000000c0: 8a32 9f3d 1bd4 bbbc f7a5 503c ebbe b7bb
000000d0: dbd8 1e3d f9f0 a43d 92b3 a03d 9646 083d
000000e0: 02d0 bc3c 41ea b3bd 0f78 c53d 1d3b d8bc
000000f0: 3f3b 8e3c 1843 9e3d 3a98 cd3d ab03 8cbd

critic.4.weight f4 [1, 64]
0.05982228 0.071577884 0.00015954128 -0.0035108014 0.004634058 0.07964332 0.030029163 0.0025451577
0.00023174127 -0.0039818143 -0.0022904524 5.870928e-05 -0.00063372025 0.0012347726 0.0022738702 -0.00074040046
-0.0006609589 0.00022816604 -0.0017502024 -0.0032638342 -0.32636678 7.5919255e-05 -3.2943477e-05 0.00022558606
0.18732896 -0.13751373 -0.0014796802 0.0013242979 0.0067127426 -0.07329403 0.11542645 -0.0029319646
-0.002813164 -0.003739819 -0.0008889898 -0.043555375 -0.00079736125 -0.105541885 -0.00024803707 0.07246978
0.0988398 0.0017482167 0.016072333 -0.00035193135 0.0029810704 -0.0011971759 -0.00044018 -0.0004359637
0.0003104108 -0.0039707297 -0.1694471 -0.0023031798 0.00061980373 0.09029422 -0.043021306 -0.0022117593
0.0036219717 -0.22826406 0.000517603 -0.0005500633 -0.08246935 4.806561e-05 -0.118604675 0.19057524
00000000: 3508 753d 6d97 923d 894a 2739 7915 66bb
00000010: 4cd9 973b 091c a33d b8ff f53c a9cc 263b
00000020: 93ff 7239 e179 82bb 6a1b 16bb 9c3e 7638
00000030: 3f20 26ba 18d8 a13a 3605 153b 6f17 42ba
00000040: 3344 2dba db3f 6f39 0c67 e5ba 0de6 55bb
00000050: 8c19 a7be d736 9f38 ca2c 0ab8 4c8b 6c39
00000060: 2ad3 3f3e 66d0 0cbe d4f1 c1ba 1094 ad3a
00000070: 91f6 db3b 2e1b 96bd b464 ec3d 3426 40bb
00000080: 0f5d 38bb c017 75bb 180b 69ba 1f67 32bd
00000090: 0206 51ba 5826 d8bd f90a 82b9 096b 943d
000000a0: 856c ca3d 6b24 e53a 20aa 833c 6d83 b8b9
000000b0: 105e 433b 8fea 9cba f6c7 e6b9 0f92 e4b9
000000c0: a2be a239 e51c 82bb 8a83 2dbe f2f0 16bb
000000d0: 537a 223a 2dec b83d 1c37 30bd 2af3 10bb
000000e0: 9a5e 6d3b 0ebe 69be c0af 073a 2032 10ba
000000f0: b1e5 a8bd 0e9a 4938 02e7 f2bd 2826 433e
