trained/SimplePong/PPO_mcts_frequent_1728648255.9002476.pth (torch, 42370 bytes, 11 tensors)

actor.0.weight f4 [64, 5]
0	0x3ee1453b	0.4399813
1	0xbefece2e	-0.49766678
2	0xbe224419	-0.1584629
3	0xbe9e5380	-0.3092308
4	0x3eedb769	0.46428993
5	0xbe2c3bc4	-0.16819674
6	0xbcb2a7ff	-0.021808622
7	0x3e9ab1a7	0.30213663
8	0x3ea1fe12	0.31639153
9	0xbcdb85ec	-0.026797257
10	0xbe5f580b	-0.2181093
11	0xbcdd5e85	-0.02702261
12	0xbdca8522	-0.09888674
13	0xbf1201f2	-0.5703422
14	0xbe36f9fe	-0.17868802
15	0x3f0b2a97	0.5436186
16	0xbeb5cfc2	-0.3551007
17	0xbd89f56b	-0.06736263
18	0xbf30352c	-0.68831134
19	0x3d93e067	0.07220536
20	0x3e5088ca	0.20364681
21	0xbe1b60d1	-0.15173651
22	0x3e2de871	0.169832
23	0xbc03c032	-0.008041428
24	0x3ec0c4c7	0.3765013
25	0xbeb4b301	-0.3529282
26	0x3f05addc	0.52218413
27	0x3d64faae	0.05590313
28	0x3ec67eb5	0.38768545
29	0xbe985276	-0.29750413
30	0x3f0bfae6	0.54679716
31	0xbefad1d7	-0.4898822
32	0xbe970db9	-0.29502657
33	0xbf2cd119	-0.6750656
34	0xbecd3fdf	-0.40087792
35	0x3ea9eb36	0.33187264
36	0xbebbec8d	-0.3670391
37	0x3d44b4ce	0.04802399
38	0xbe8e3e4b	-0.277819
39	0xbe0eeaa7	-0.139567
40	0xbe5b92db	-0.2144274
41	0x3f13ed59	0.5778404
42	0xbdb2867a	-0.087170556
43	0x3f103149	0.56325203
44	0xbe033834	-0.12814409
45	0x3e1dc5d1	0.15407492
46	0xbed659a7	-0.41865274
47	0xbd629a52	-0.055322953
48	0xbdfe75eb	-0.12424835
49	0x3e62c935	0.22147067
50	0xbd7c2666	-0.061560057
51	0x3b142023	0.0022602163
52	0x3e241eea	0.16027418
53	0x3f144bd5	0.5792821
54	0xbdd6b5ce	-0.10483895
55	0x3d907dfa	0.07055278
56	0xbecb763e	-0.3973865
57	0xbe91293e	-0.28351778
58	0xbf1c13ce	-0.6096772
59	0x3da659c5	0.08122591
60	0xbd86ed1d	-0.065881945
61	0xbea2fcbe	-0.31833452
62	0xbe906be4	-0.28207314
63	0x3e3e51c3	0.18585877
64	0x3e5cdcf6	0.21568665
65	0xbe38bc4b	-0.18040578
66	0xbecf20e8	-0.40454793
67	0xbe91cab1	-0.28474954
68	0xbe9f7ac2	-0.31148344
69	0xbe0c334b	-0.13691442
70	0x3f0fbfef	0.5615224
71	0xbed6c7fd	-0.41949454
72	0xbe4055de	-0.18782756
73	0xbee1f653	-0.44133243
74	0x3ead7d61	0.3388472
75	0xbe5499a9	-0.20761742
76	0x3e2fcf32	0.17168882
77	0xbe170567	-0.14748155
78	0x3e364b23	0.178021
79	0x3f017e31	0.5058318
80	0x3ea3c0c8	0.31983018
81	0xbf0da4bc	-0.5532949
82	0x3e849c6c	0.2590059
83	0xbef12200	-0.47096252
84	0xbecb4f2f	-0.3970885
85	0x3ecd9fed	0.40161076
86	0x3e0e6664	0.13906246
87	0xbe5d8028	-0.21630919
88	0xbeabaed6	-0.33531827
89	0xbede2f60	-0.4339552
90	0x3dc32918	0.095293224
91	0xbe2de6bc	-0.1698255
92	0xbd448cbf	-0.04798579
93	0x3dfbb275	0.12289897
94	0xbe67c614	-0.22634155
95	0x3eef7ef3	0.46776542
96	0xbe6366e0	-0.22207212
97	0x3e6c0d4d	0.23051949
98	0xbf190292	-0.59769547
99	0x3e9f6a1e	0.31135648
100	0xbe17f845	-0.14840801
101	0x3ee8016a	0.4531358
102	0x3d485058	0.048904747
103	0x3ee4c1ec	0.446792
104	0xbed81ed8	-0.42211032
105	0xbe5f7d76	-0.21825203
106	0x3e78596c	0.24252862
107	0x3d3a637b	0.04550503
108	0x3ec60396	0.3867461
109	0x3ddff82c	0.10936007
110	0xbe3842ab	-0.17994182
111	0x3df233d0	0.11826289
112	0x3d4967e5	0.049171347
113	0xbd4252c5	-0.047442216
114	0x3ec25e15	0.37962404
115	0xbe7bc8e1	-0.24588348
116	0xbe2bc464	-0.16774136
117	0xbe5c6492	-0.2152274
118	0xbd9b99bb	-0.07597681
119	0x3de0f3af	0.10983979
120	0x3eb603af	0.35549685
121	0xbe54c6d0	-0.20778966
122	0x3ec6ff65	0.38866726
123	0xbe034407	-0.12818919
124	0xbead9491	-0.3390241
125	0x3cb2da27	0.021832539
126	0xbea44c0b	-0.32089266
127	0x3d4a21a4	0.04934849
128	0xbe62c886	-0.22146806
129	0xbe13321d	-0.14374585
130	0x3de07834	0.10960427
131	0xbf0d37be	-0.5516318
132	0x3ebadddb	0.36497387
133	0xbe1fcf29	-0.15606369
134	0x3e3f8fb6	0.18707165
135	0xbe083d63	-0.13304667
136	0xbed03cf8	-0.40671515
137	0x3dd641d6	0.10461776
138	0x3e0d380d	0.13790913
139	0x3d44c561	0.048039798
140	0x3d025756	0.03182157
141	0xbe8e26ce	-0.2776398
142	0x3df55b23	0.119802736
143	0xbef5981c	-0.47967613
144	0x3e2e56fc	0.1702537
145	0xbd8f2d99	-0.06991119
146	0x3e9e96e1	0.30974486
147	0xbea9fd24	-0.33200943
148	0x3e2433bc	0.1603536
149	0x3e3ccc35	0.18437274
150	0xbef4acab	-0.47787985
151	0x3e2bfdd2	0.16796044
152	0x3e2750ac	0.16339368
153	0x3eb6a970	0.35676146
154	0x3d46ffd8	0.048583835
155	0x3d21d335	0.039508063
156	0xbf040a49	-0.51578194
157	0x3e02a656	0.12758765
158	0xbf09fbfd	-0.5390013
159	0x3e98e5e2	0.29862887
160	0x3e95abf8	0.29232764
161	0xbe89a040	-0.26880074
162	0x3e185285	0.14875229
163	0xbec7fcb9	-0.3906
164	0x3e7211cb	0.236396
165	0x3ea96ba6	0.33089942
166	0xbb9a82a9	-0.004715283
167	0xbeb43df9	-0.3520353
168	0xbe0b5e98	-0.13610303
169	0xbee29de4	-0.44261086
170	0x3ede7a27	0.4345257
171	0xbe8b3fac	-0.27197015
172	0xbe27403a	-0.16333094
173	0x3dd25a9d	0.10271189
174	0x3e98fa92	0.2987867
175	0xbe264021	-0.162354
176	0x3dc95053	0.09829774
177	0x3dc584ff	0.096445076
178	0xbeb991d8	-0.36244082
179	0x3bbf1756	0.0058316393
180	0xbe60acc1	-0.219409
181	0x3ea0d97b	0.31415924
182	0xbd039aa0	-0.032129884
183	0x3e8c8b01	0.27449802
184	0x3df96b07	0.12178617
185	0x3de235f2	0.110454455
186	0xbee1fb2f	-0.4413695
187	0x3ec59d36	0.38596505
188	0xbe02b7f2	-0.12765482
189	0x3e756b02	0.23966601
190	0x3e85f9ec	0.26167238
191	0xbec1dca2	-0.37863642
192	0xbea98e34	-0.33116305
193	0x3c833357	0.016015692
194	0xbcb9958d	-0.02265432
195	0xbf0c729b	-0.54862374
196	0x3ed39851	0.41327146
197	0x3e2cc164	0.16870648
198	0xbd10c0dc	-0.035340175
199	0x3cd35d76	0.025801402
200	0xbea3f18a	-0.32020217
201	0x3e395502	0.18098834
202	0xbe7123ed	-0.23548861
203	0xbef5f33c	-0.48037136
204	0xbe97e03d	-0.29663268
205	0x3da2fd1f	0.07958435
206	0x3e78aac5	0.24283893
207	0x3e0d23f7	0.13783251
208	0xbe82ce97	-0.2554824
209	0x3ebdcee5	0.3707191
210	0x3e375f6d	0.17907496
211	0x3e36d0af	0.17853044
212	0xbe95f331	-0.29287103
213	0x3e8e80ec	0.27832735
214	0xbd0ad64f	-0.033895787
215	0x3ee76f6f	0.45202205
216	0xbdf8422f	-0.121219985
217	0x3e091e17	0.13390385
218	0xbd0caddf	-0.034345504
219	0xbe0db134	-0.13837129
220	0x3eebad7c	0.46030796
221	0xbec2dc0e	-0.38058513
222	0xbe0d1f90	-0.13781571
223	0xbe89d9a4	-0.2692386
224	0xbdb31930	-0.087450385
225	0xbe9b3534	-0.30314028
226	0x3e84bf76	0.25927323
227	0xbe8f7691	-0.28020146
228	0x3e54d0b6	0.20782742
229	0xbea5a74d	-0.32354203
230	0x3e886511	0.26639608
231	0xbe7c30e8	-0.24628031
232	0x3e6f71b3	0.23383217
233	0xbeb2ad11	-0.34897664
234	0xbec5a211	-0.3860021
235	0xbe7f8f5c	-0.24957031
236	0x3ebfc64b	0.37455973
237	0xbeb0cc9e	-0.3453111
238	0x3ebc10bb	0.36731514
239	0xbd929cb6	-0.071587965
240	0x3e1f6706	0.15566644
241	0xbc8db2bd	-0.017297143
242	0xbc029128	-0.007969178
243	0xbe988dbf	-0.29795644
244	0xbed00fb4	-0.4063698
245	0xbef456d5	-0.47722498
246	0x3cb1a124	0.021683283
247	0xbca1ca04	-0.019749649
248	0x3f026431	0.5093413
249	0x3eac95c8	0.33708024
250	0x3e60e0f3	0.21960811
251	0xbe812514	-0.252236
252	0xbdfdb9ba	-0.1238894
253	0xbe1af893	-0.15133886
254	0xbe8de87a	-0.27716428
255	0xbefac6d2	-0.48979813

actor.0.bias f4 [64]
0	0xbdd7a1cb	-0.105289064
1	0x3cca7bde	0.024717268
2	0x3e02472e	0.12722465
3	0xbdc46733	-0.09589996
4	0xbe26a2d2	-0.16273049
5	0xbe486f98	-0.1957382
6	0xbca0ecc8	-0.019644156
7	0xbda59982	-0.0808592
8	0xbe86c01f	-0.26318452
9	0x3e642790	0.22280717
10	0x3dfdb02f	0.1238712
11	0xbd229e5a	-0.039701797
12	0x3ea59d45	0.3234655
13	0x3eec0c14	0.46102965
14	0xbe325706	-0.1741601
15	0xbdafd6a8	-0.08585864
16	0xbe80f9bf	-0.2519054
17	0xbe93693c	-0.28791225
18	0x3e957255	0.2918879
19	0xbcb1f6e6	-0.021724176
20	0xbdca97d2	-0.09892239
21	0x3e687148	0.22699463
22	0xbc3478ca	-0.0110151265
23	0x3e7edcf0	0.24888968
24	0xbeb4fbba	-0.35348302
25	0x3ddac79e	0.10682605
26	0x3e4a94ef	0.19783376
27	0x3eb8ff80	0.3613243
28	0x3c95d65b	0.01829069
29	0x3d8da5bc	0.06916377
30	0xbd1912f9	-0.03737161
31	0x3e4615e9	0.19344296
32	0x3dfbe0f8	0.12298769
33	0x3e6c6136	0.23083958
34	0x3d8f6165	0.070009984
35	0x3e2242f1	0.15845849
36	0x3e33dfae	0.17565796
37	0x3d89f67c	0.06736466
38	0xbcbabe12	-0.02279571
39	0x3e73e706	0.23818597
40	0xbc995f56	-0.018722218
41	0xbe1ade34	-0.15123826
42	0xbda6f578	-0.08152288
43	0xbd960164	-0.07324484
44	0xbe03bc57	-0.12864815
45	0x3e7724d1	0.24135138
46	0xbd80d3ca	-0.062903956
47	0x3da8bf1d	0.08239577
48	0xbe56bd54	-0.2097066
49	0x3e7895ce	0.24275896
50	0x3e2b9212	0.1675494
51	0xbea5f94a	-0.32416755
52	0x3d701186	0.05861046
53	0x3e1a1c53	0.15049867
54	0x3c0c5e04	0.008567337
55	0x3e03453c	0.1281938
56	0xbe354c66	-0.17704925
57	0xbeb31c0b	-0.34982333
58	0x3e911b9f	0.28341386
59	0xbdf88bc6	-0.12136035
60	0xbd6d1140	-0.05787778
61	0xbe6a3630	-0.22872233
62	0x3eae0d6f	0.33994624
63	0x3e83ed7b	0.2576712

actor.2.weight f4 [64, 64]
0	0x3e0e2e61	0.1388488
1	0x3b0e3fbc	0.002170547
2	0x3d79f355	0.061023075
3	0x3ebb550b	0.3658832
4	0x3e15da58	0.14634073
5	0xbef3367f	-0.47502515
6	0x3e226af7	0.15861116
7	0x3ea3ac57	0.31967422
8	0xbe6a5501	-0.22883989
9	0x3e181bb2	0.14854315
10	0x3da2642f	0.07929265
11	0x3db52290	0.08844483
12	0x3cbabede	0.02279609
13	0x3d32f628	0.043691784
14	0x3e8d52a1	0.27602103
15	0x3bbaeec5	0.005704733
16	0x3d09d55e	0.03365075
17	0x3d43d6c5	0.047812242
18	0x3e11d0e9	0.14239849
19	0x3e229886	0.15878496
20	0xbe7cf837	-0.24704061
21	0xbde32a18	-0.11092013
22	0xbd7efdcd	-0.062253762
23	0x3d8fc8ac	0.07020697
24	0x3e0a3a92	0.13498905
25	0x3e223552	0.15840653
26	0x3d317c6a	0.04333154
27	0x3e0749f9	0.13211812
28	0x3d68ea1b	0.056863885
29	0xbca4e779	-0.020129906
30	0xbe8e19dc	-0.27754104
31	0x3e81f964	0.25385582
32	0xbc0a8f05	-0.00845695
33	0x3dc93a19	0.098255344
34	0x3e4dcfd3	0.2009881
35	0xbb0bd355	-0.002133568
36	0xbdba039e	-0.09082721
37	0x3de43ca4	0.11144379
38	0x3d1c22c4	0.038119093
39	0xbcdaea2e	-0.026722994
40	0xbd3e89da	-0.046518184
41	0xbc0a968b	-0.008458744
42	0xbda9c6d7	-0.08289879
43	0x3dfc587a	0.12321563
44	0x3e31c149	0.17358889
45	0xbe5cd7fb	-0.21566765
46	0x3e62ec1e	0.22160384
47	0xbe50796e	-0.20358822
48	0x3c963ce2	0.018339578
49	0xbe7437ca	-0.23849407
50	0x3e2e857e	0.1704311
51	0xbe475a50	-0.19468045
52	0x3e9adc19	0.30246046
53	0x3e8e4c22	0.2779246
54	0x3ddf2b23	0.108968996
55	0xbb023c3f	-0.0019872335
56	0x3c3540e1	0.011062832
57	0x3e9b4e9e	0.30333418
58	0xbd40cca1	-0.04707015
59	0x3ec68d4f	0.38779685
60	0xbe7ab933	-0.2448471
61	0x3de14076	0.10998623
62	0x3e548572	0.2075403
63	0x3e2f5155	0.1712087
64	0x3d77573c	0.060385928
65	0xbd3e8fc8	-0.04652384
66	0xbd96d717	-0.07365244
67	0x3e9ad965	0.30243984
68	0x3da7af8b	0.08187779
69	0xbeb2b244	-0.3490163
70	0x3e7862cc	0.24256438
71	0x3e66d34d	0.22541542
72	0xbe6efdf1	-0.23339058
73	0x3e97e27a	0.29664975
74	0x3d2de58b	0.042455237
75	0xbd88b028	-0.06674224
76	0xbcb0fb2e	-0.021604147
77	0x3cc172e8	0.023614362
78	0x3e2eb3fa	0.17060843
79	0xbe55a5f1	-0.20864083
80	0x3d28e437	0.041233268
81	0xbd932bd3	-0.07186093
82	0x3ce1aedd	0.027549202
83	0x3e3b1443	0.18269448
84	0xbd818634	-0.06324425
85	0xbc94a547	-0.018145217
86	0xbc63a06e	-0.01389323
87	0xbd9d8db1	-0.07693041
88	0x3c964529	0.018343525
89	0x3dac6cfc	0.084192246
90	0x3e00a638	0.12563407
91	0x3d99d726	0.075117394
92	0xbcec49d2	-0.028843794
93	0xbd9c48c7	-0.07631069
94	0xbe557760	-0.20846319
95	0x3e3331ef	0.17499517
96	0x3e636722	0.22207311
97	0x3e1b6eca	0.15178981
98	0x3e4437cc	0.1916191
99	0x3e04a84b	0.12954824
100	0x3c5cf6c7	0.013486571
101	0x3e51184d	0.20419426
102	0x3dcb9aa0	0.09941602
103	0xbe1ada5a	-0.15122357
104	0x3b9ce331	0.0047878255
105	0xbd834c63	-0.06411054
106	0xbc0d15ce	-0.008611156
107	0x3de344ee	0.11097132
108	0xbbb43b39	-0.005500224
109	0xbe494895	-0.19656594
110	0x3e69d415	0.22834809
111	0xbdb2cba3	-0.08730247
112	0x3c9b2928	0.018940523
113	0xbe4bb483	-0.19893079
114	0x3e42320c	0.18964404
115	0xbe8023e0	-0.2502737
116	0x3ed9f282	0.4256783
117	0x3e477a29	0.19480194
118	0x3d4b80eb	0.049683493
119	0xbde4cfb2	-0.11172427
120	0x3d86f1c6	0.065890834
121	0x3d4f37b7	0.050590243
122	0xbc815776	-0.015788775
123	0x3e3cbb87	0.18430911
124	0xbe8bd9f6	-0.27314728
125	0x3e04a57d	0.12953754
126	0x3e679b3f	0.22617815
127	0x3e20054b	0.15627019
128	0x3e63a7d2	0.22231987
129	0xbd901362	-0.07034947
130	0x3dd22fe9	0.102630444
131	0x3ef068c2	0.46954924
132	0x3dce771b	0.10081311
133	0xbeacac5c	-0.3372525
134	0x3e15786b	0.14596717
135	0x3ecb0923	0.39655408
136	0xbe62eb13	-0.22159986
137	0x3e8da1b3	0.2766243
138	0xbd8b6066	-0.06805496
139	0x3db957b7	0.090499334
140	0x3d0b90ca	0.03407363
141	0xbcf53431	-0.029932113
142	0x3e8b4bf0	0.27206373
143	0xba8ddb5a	-0.0010822818
144	0x3e6b780c	0.22995013
145	0x3d451397	0.048114385
146	0xbdb1945c	-0.086708754
147	0x3d09c2f3	0.033633184
148	0xbe5fa48f	-0.21840118
149	0xbcdfaba5	-0.027303526
150	0xbdd3817d	-0.10327432
151	0x3de1a5a0	0.110179186
152	0x3cfd257d	0.030901665
153	0x3e56ac54	0.20964175
154	0x3e2fc27c	0.17164034
155	0x3dfdc375	0.12390796
156	0x3d1e9078	0.038711995
157	0x3d4ba40f	0.049717005
158	0xbe65ecf6	-0.22453675
159	0x3e9b8526	0.30375022
160	0x3e4befe6	0.19915733
161	0x3e275b4e	0.16343424
162	0x3e1d06cb	0.15334623
163	0x3db3e48b	0.087838255
164	0x3d10a089	0.03530935
165	0xbcfe91c0	-0.031075358
166	0xbc9b99c2	-0.018994216
167	0xbca361b1	-0.019944044
168	0x3da93329	0.08261711
169	0x3db5c205	0.08874897
170	0x3c0a90a4	0.008457337
171	0x3c340c81	0.010989309
172	0x3e9730c1	0.29529384
173	0xbd94fe9e	-0.07275127
174	0x3dfd5287	0.123692565
175	0xbe5526d6	-0.20815596
176	0xbce9c12c	-0.028534494
177	0xbc79122a	-0.015202085
178	0x3e145f3f	0.14489459
179	0xbe6068be	-0.21914956
180	0x3ec3d8db	0.38251385
181	0x3e4e0b5e	0.20121524
182	0x3cdd56ac	0.027018867
183	0xbdc0d26f	-0.09415137
184	0x3dbe3bfd	0.092887856
185	0x3e8c00d2	0.27344376
186	0xbd7c93a2	-0.06166423
187	0x3ea138ab	0.31488547
188	0xbe8ca8c0	-0.27472496
189	0x3d16c844	0.036812082
190	0x3e1aad60	0.151052
191	0x3d2c300b	0.042038005
192	0xbc1a1d16	-0.009406349
193	0xbd202cb0	-0.039105117
194	0xbcdd84b3	-0.027040815
195	0xbef8a6f9	-0.4856489
196	0xbdf69a79	-0.12041182
197	0x3ec0bf72	0.3764606
198	0xbe751d4c	-0.23936957
199	0xbe2fdec0	-0.17174816
200	0x3e5e100d	0.2168581
201	0xbe7fe2c6	-0.24988851
202	0xbda75765	-0.08170966
203	0xbdf75da9	-0.12078411
204	0xbd856c47	-0.06514793
205	0xbe0466b8	-0.12929809
206	0xbd1bacf1	-0.038006727
207	0x3c70fed7	0.014709196
208	0xbc574c32	-0.013140725
209	0xbd5705db	-0.05249582
210	0x3d350613	0.044195246
211	0xbe1973a3	-0.14985518
212	0x3e0a3157	0.13495384
213	0xbd9ada39	-0.07561154
214	0xbd0af3db	-0.033923965
215	0x3e0405f7	0.128929
216	0xbdea9b45	-0.114553966
217	0xbdb57f8e	-0.0886222
218	0xbcde6c05	-0.027151117
219	0xbdc44698	-0.09583777
220	0xbbf169ad	-0.007367334
221	0x3d8b074d	0.06788502
222	0x3e7e24ac	0.24818677
223	0xbe87db4e	-0.26534504
224	0xbd467137	-0.048447814
225	0xbd1506f8	-0.0363836
226	0xbec2d2a4	-0.3805133
227	0x3d258037	0.04040548
228	0x3da44bb5	0.080222525
229	0xbacaaff9	-0.0015463821
230	0xbe08f9ee	-0.1337659
231	0x3e383cd5	0.17991956
232	0x3bb935c9	0.0056521636
233	0x3d7063df	0.058688994
234	0x3e0608f3	0.13089351
235	0xbe0fe8bc	-0.14053625
236	0xbd45091f	-0.0481044
237	0x3e4ba8f0	0.19888663
238	0xbe3f2157	-0.18665062
239	0x3e436bcd	0.19084091
240	0xbd5f7e95	-0.054564077
241	0x3e087193	0.13324575
242	0xbe3d315e	-0.18475863
243	0x3e0a947d	0.13533206
244	0xbea80472	-0.32815892
245	0xbd9322a4	-0.071843415
246	0xbe4bff33	-0.1992157
247	0x3d983fb6	0.07434027
248	0x3c0a1485	0.008427744
249	0xbe699c8f	-0.22813629
250	0x3d0a2eb7	0.033735957
251	0xbe7719b0	-0.24130893
252	0x3e1574a1	0.14595272
253	0x3c933a1c	0.017972045
254	0xbcde8fa2	-0.027168099
255	0xbe8fc4cc	-0.28079832

actor.2.bias f4 [64]
0	0xbc2735e3	-0.010205719
1	0xbce7b0ed	-0.028282607
2	0xbd849a77	-0.06474774
3	0xbdbb35c4	-0.09141114
4	0xbe4dc4dc	-0.20094627
5	0x3e0f82ba	0.14014712
6	0xbc3a5b22	-0.011374267
7	0x3e047426	0.12934932
8	0x3dad9f52	0.084776536
9	0xbdda1cb1	-0.10650004
10	0xbd392adb	-0.045206886
11	0xbc26a81e	-0.010171918
12	0xbd3a8bc8	-0.045543462
13	0xbb94f28c	-0.0045455154
14	0xbd43cb68	-0.047801405
15	0xbd86334f	-0.06552755
16	0xbcf38b37	-0.029729469
17	0x3de31db9	0.110896535
18	0xbd59a356	-0.053134285
19	0x3d6467dd	0.055763114
20	0xbdb49768	-0.08817941
21	0x3e10eb15	0.14152177
22	0x3e54f174	0.20795232
23	0x3dc6e714	0.097120434
24	0xbd45e655	-0.048315365
25	0xbd92091f	-0.07130646
26	0x3de8ade3	0.11361291
27	0x3c348c77	0.011019818
28	0xbd1dcc20	-0.038524747
29	0x3ddc3089	0.10751445
30	0xbd636753	-0.05551846
31	0x3e34d2c7	0.1765853
32	0xbd9d6001	-0.07684327
33	0x3e07324b	0.13202779
34	0x3e032ec3	0.12810807
35	0x3c3e6817	0.011621497
36	0xbda050eb	-0.07827934
37	0xbd5f3a0b	-0.054498713
38	0x3bf50b18	0.007478129
39	0xbe38fc9b	-0.18065111
40	0x3e2f2021	0.171021
41	0x3d9c453d	0.07630394
42	0x3e0ee9df	0.13956402
43	0xbd419b0f	-0.047267016
44	0xbe0fef36	-0.14056095
45	0xbd67384b	-0.05645017
46	0xbe053590	-0.13008714
47	0x3c488994	0.012239832
48	0x3d7c5082	0.061600216
49	0x3e0feedb	0.1405596
50	0xbd74fb9d	-0.05981027
51	0xbb34f97c	-0.0027614525
52	0xbdcc857c	-0.099863976
53	0x3e44efa3	0.19232039
54	0xbda2c66b	-0.079480015
55	0x3d82f983	0.06395247
56	0xbdd39084	-0.103302985
57	0x3d655195	0.055986006
58	0x3d5a9ced	0.053372312
59	0xbd8e17fb	-0.06938168
60	0x3db49726	0.08817892
61	0x3d28a28f	0.041170653
62	0xbbb29351	-0.0054496904
63	0xbc8ef3ae	-0.01745018

actor.4.weight f4 [3, 64]
0	0x3eef5fb9	0.46752718
1	0x3e8a93b8	0.27065825
2	0x3f05eff3	0.5231926
3	0xbe9aa01b	-0.30200276
4	0x3cc1786f	0.023616998
5	0xbde9b104	-0.11410716
6	0x3e167960	0.14694738
7	0xbe8f6464	-0.2800628
8	0xbed3301d	-0.41247645
9	0xbe25ff8c	-0.16210765
10	0x3f234997	0.63784164
11	0x3e6acd08	0.22929776
12	0x3f0273a0	0.5095768
13	0xbf113c37	-0.56732506
14	0xbeb3925e	-0.35072607
15	0x3f002a49	0.5006452
16	0xbe9df1cf	-0.30848548
17	0x3e7475ce	0.23873064
18	0x3f18874e	0.5958146
19	0xbe5eaa18	-0.21744573
20	0xbef8883d	-0.48541442
21	0xbeece182	-0.462658
22	0xbe1cb842	-0.15304664
23	0xbef6b3f7	-0.48184177
24	0xbf04c9d6	-0.5187048
25	0x3f0c9aa5	0.5492347
26	0xbf148688	-0.5801778
27	0xbee1adf2	-0.44078022
28	0x3e3e497b	0.18582718
29	0xbe374381	-0.17896844
30	0x3f19234f	0.598195
31	0x3e98e4b6	0.29861993
32	0x3efa5954	0.48896277
33	0xbd817898	-0.063218296
34	0xbdec740b	-0.11545571
35	0xbc023174	-0.007946361
36	0xbea9cea9	-0.33165482
37	0x3e8a959d	0.2706727
38	0xbe2d1a03	-0.16904454
39	0x3d442807	0.047889736
40	0xbe3a2724	-0.18178993
41	0x3ef0b584	0.47013485
42	0x3e09d219	0.13459052
43	0x3e9a8c95	0.3018538
44	0xbee45f67	-0.44604036
45	0xbd3b978e	-0.04579883
46	0x3f10a193	0.5649654
47	0x3f0c0168	0.54689646
48	0xbee6f19f	-0.45106217
49	0x3d290491	0.04126412
50	0xbebbbc01	-0.36666873
51	0xbf01408a	-0.50489104
52	0xbeb6668d	-0.35625115
53	0x3e6cf603	0.23140721
54	0xbe44c8fb	-0.19217293
55	0xbdf7ddf6	-0.121028826
56	0xbee51cbe	-0.4474849
57	0x3ed65e23	0.41868696
58	0xbf0f59d2	-0.5599643
59	0x3f304103	0.688492
60	0xbf0f92bc	-0.56083274
61	0xbeadc39a	-0.33938295
62	0x3dc8b682	0.098004356
63	0xbed676e3	-0.41887578
64	0x3e078d94	0.13237602
65	0x3e07fc94	0.13279945
66	0xbdaf98e5	-0.08574084
67	0xbdf5612d	-0.119814254
68	0xbe543455	-0.20723088
69	0x3d9da692	0.076977864
70	0x3d25de06	0.04049494
71	0x3e0831c0	0.13300228
72	0xbcafe97e	-0.021473642
73	0xbdd63326	-0.104589745
74	0xbda7e708	-0.081983626
75	0x3e38e8dd	0.1805758
76	0xbe42e547	-0.19032775
77	0xbd21a8d3	-0.039467644
78	0xbc2ebf92	-0.010665791
79	0xbc166bf4	-0.0091810115
80	0x3c5545f8	0.01301717
81	0x3ba492e0	0.0050223917
82	0xbce9a96c	-0.02852317
83	0xbde97c88	-0.114007056
84	0xb9ce218c	-0.00039316376
85	0x3d21fa11	0.039545123
86	0x3e539fda	0.20666447
87	0x3d85ff53	0.0654284
88	0x3b3149ff	0.0027052162
89	0xbe08ef1f	-0.13372467
90	0x3d903c06	0.070426986
91	0x3dc8d4f1	0.0980624
92	0x3e4feecb	0.20305936
93	0x3d8ff260	0.07028651
94	0xbd6629b7	-0.056192126
95	0x3e23f941	0.16013052
96	0xbd15d67d	-0.036581505
97	0x3e1f8897	0.15579449
98	0x3e17ac13	0.14811735
99	0x3d45b3e1	0.04826725
100	0xbe27b2e0	-0.16376829
101	0x3e25859e	0.16164252
102	0xbccf6382	-0.025316004
103	0xbe028101	-0.12744524
104	0x3e291eaf	0.16515611
105	0x3dacbef4	0.08434859
106	0x3e40e2da	0.18836537
107	0x3c206d04	0.009791616
108	0xbe3642c8	-0.17798913
109	0xbd0b368a	-0.03398756
110	0xbe0e9c66	-0.13926849
111	0xbd1b049b	-0.03784619
112	0x3e160bc8	0.14652932
113	0x3d575db4	0.052579597
114	0x3de79ce6	0.11309223
115	0x3df9de15	0.12200562
116	0xbdae912f	-0.08523785
117	0x3e5921e9	0.21204342
118	0xbe0b364d	-0.13594933
119	0x3e12de21	0.14342548
120	0xbe0eda6f	-0.13950513
121	0xbd0d3065	-0.03446998
122	0x3e04d6ed	0.12972613
123	0xbccea033	-0.025222873
124	0x3e1f3c42	0.1555033
125	0xbd4e080e	-0.05030065
126	0xbcc86245	-0.024460921
127	0x3d180de4	0.037122622
128	0xbed391c4	-0.41322148
129	0xbee37e00	-0.44432068
130	0xbece887d	-0.40338507
131	0x3ec9f864	0.3944732
132	0x3e4537bf	0.19259547
133	0xbd3b0ecb	-0.045668405
134	0xbeebe32e	-0.46071762
135	0x3de733bb	0.11289164
136	0x3e6bc5b6	0.2302464
137	0x3f059bf2	0.5219108
138	0xbf0262a6	-0.50931776
139	0xbeaac3c0	-0.3335247
140	0xbec33fb9	-0.38134554
141	0x3e98e3c2	0.29861265
142	0x3f2203cc	0.63287044
143	0xbf07441d	-0.5283831
144	0x3edb62e7	0.42848894
145	0xbe86e67f	-0.2634773
146	0xbeaf4d22	-0.34238535
147	0x3ef0fff0	0.47070265
148	0x3ea2061b	0.31645283
149	0x3d4022e2	0.046908267
150	0xbc7eb6f3	-0.015546548
151	0x3e5d8d68	0.21635973
152	0x3ee23417	0.44180366
153	0xbe9946cf	-0.29936835
154	0x3e5474a8	0.20747626
155	0x3e859155	0.26087442
156	0xbee136bc	-0.43987072
157	0xbdac292b	-0.0840629
158	0xbe95a998	-0.29230952
159	0xbefdd488	-0.4957621
160	0xbeda959d	-0.4269227
161	0xbe57ba99	-0.21067275
162	0x3d08147c	0.03322266
163	0xbe6e9ee4	-0.233028
164	0x3f0ba062	0.545416
165	0xbecc7475	-0.399326
166	0x3f06ff3d	0.5273321
167	0x3dd84736	0.105604574
168	0x3df61502	0.12015726
169	0xbeed8401	-0.46389773
170	0xbeb684ce	-0.35648197
171	0xbf0c1ff0	-0.5473623
172	0x3f261a51	0.64883906
173	0x3de22115	0.11041466
174	0xbe9ca07b	-0.30591187
175	0xbe87f45f	-0.26553628
176	0x3e761bd2	0.2403405
177	0xbecf0cda	-0.40439492
178	0x3e61caea	0.22050062
179	0x3e951ce9	0.2912362
180	0x3ee8b111	0.4544759
181	0xbf10c932	-0.56557
182	0x3f00762a	0.50180304
183	0xbe04ba08	-0.1296159
184	0x3f0b2ff8	0.5437007
185	0xbf26c0fc	-0.6513822
186	0x3ed2c858	0.41168475
187	0xbed7b0ff	-0.42127225
188	0x3e8ea4a8	0.27859998
189	0x3e37ba1c	0.17942089
190	0xbe9d5514	-0.30728972
191	0x3e8b1bc9	0.27169636

actor.4.bias f4 [3]
0	0xbcc47400	-0.023981094
1	0x3e6fe9f4	0.2342909
2	0xbd0bc26a	-0.034120955

critic.0.weight f4 [64, 5]
0	0x3dab6169	0.08368189
1	0xbd36c8d3	-0.044625115
2	0xbe03f3aa	-0.12885919
3	0x3eaf85f5	0.3428189
4	0x4005600d	2.0839875
5	0x3da7727c	0.08176133
6	0x3e928a7a	0.28621274
7	0xbee46410	-0.44607592
8	0xbdb63879	-0.0889749
9	0x3fbecde6	1.4906585
10	0x3db5cb36	0.0887665
11	0x3bc972cc	0.006147718
12	0xbe15ffec	-0.14648408
13	0xbec51034	-0.38488925
14	0x3f2a78f0	0.66590786
15	0x3ea8d862	0.32977587
16	0xbe91e156	-0.2849223
17	0x3d4cb4f8	0.049977273
18	0xbef40fb0	-0.4766822
19	0x3fc85f74	1.565413
20	0x3d5737a9	0.052543316
21	0xbe47fc3e	-0.19529817
22	0xbe3a0ddd	-0.18169351
23	0xbed86eba	-0.42271978
24	0xbf950cd2	-1.1644537
25	0xbe942921	-0.2893763
26	0xbd3fda64	-0.046839133
27	0x3e1a37f8	0.15060413
28	0x3d49cd72	0.049268194
29	0x3fea4eaf	1.8305262
30	0x3d9a5f99	0.07537765
31	0xbe472b4e	-0.19450113
32	0x3e073880	0.13205147
33	0x3e1c03a8	0.1523577
34	0x3f200203	0.6250307
35	0x3e168585	0.14699371
36	0xbd38e64c	-0.045141503
37	0xbddec639	-0.10877652
38	0xbeab48ff	-0.3345413
39	0xbfaee70f	-1.3664263
40	0xbeb5eb5a	-0.35531121
41	0x3e49bd98	0.1970123
42	0x3e7bb039	0.24578942
43	0x3c775dee	0.015098078
44	0x400be137	2.185621
45	0x3edd423f	0.43214604
46	0xbec8209e	-0.39087385
47	0x3e5c6dc2	0.21526244
48	0x3ea4cb5c	0.321864
49	0xbfcc7591	-1.5973378
50	0xbe6bdf34	-0.23034364
51	0x3d3b5f67	0.04574528
52	0x3d71f066	0.059067152
53	0x3e197f97	0.14990078
54	0x4003c5a6	2.0589385
55	0xbe86ba63	-0.26314077
56	0x3e9e8bed	0.3096613
57	0x3e014b77	0.12626444
58	0x3d4cac13	0.04996879
59	0xbf18f210	-0.5974436
60	0x3cc71a17	0.024304433
61	0xbcd99a77	-0.026562912
62	0xbe921029	-0.28527954
63	0xbda15eac	-0.07879385
64	0xbf76dc8e	-0.9643029
65	0x3d547922	0.051873334
66	0x3de1b435	0.110207
67	0x3e3d6a5b	0.18497603
68	0xbe12bce8	-0.14329875
69	0x3fe7222c	1.8057303
70	0x3d1b731a	0.037951566
71	0xbe936967	-0.28791353
72	0xbdb974a6	-0.09055452
73	0x3d565c3f	0.052334066
74	0xbf97e0ea	-1.1865513
75	0x3ec24d7c	0.3794974
76	0xbecd739c	-0.40127265
77	0xbd99948c	-0.07499036
78	0xbeb01823	-0.34393415
79	0xbfd80c0b	-1.6878675
80	0x3e9e352e	0.30899948
81	0x3e851a67	0.25996706
82	0x3e814600	0.25248718
83	0xbe07a570	-0.13246703
84	0x3f0bfed9	0.5468574
85	0x3d1cc872	0.038277097
86	0xbe275a47	-0.16343032
87	0x3d301f9f	0.042998906
88	0xbe0604f4	-0.13087827
89	0x3faec0c4	1.3652577
90	0x3dcc12b4	0.09964505
91	0x3de3ec7c	0.1112909
92	0xbb95baf8	-0.0045694076
93	0xbead83f4	-0.33889735
94	0x3fdd2048	1.7275476
95	0x3e8558f5	0.2604443
96	0xbeac5a94	-0.33662856
97	0x3acb41af	0.0015507246
98	0x3dc967d3	0.09834256
99	0x3fa77d4c	1.3085113
100	0xbe62c906	-0.22146997
101	0x3e12f040	0.1434946
102	0x3e5654e8	0.20930827
103	0xbeb7e954	-0.35920203
104	0x3fc23f04	1.5175481
105	0x3e32f296	0.17475352
106	0xbd0a73eb	-0.033801954
107	0xbe3045a9	-0.17214073
108	0xbd1f1923	-0.03884233
109	0x3fd9370c	1.6969924
110	0xbe563d8e	-0.20921919
111	0xbbcdaa08	-0.006276373
112	0xbefc564d	-0.49284592
113	0x3eb6531b	0.3561028
114	0x3f806cb9	1.003318
115	0x3e9b7f0f	0.30370376
116	0xbe4a73e0	-0.19770765
117	0x3e67f3c4	0.22651583
118	0xbe3bbd9e	-0.18334052
119	0x3fa01876	1.2507465
120	0xbe9e85d0	-0.30961466
121	0x3e4edd69	0.20201649
122	0xbe94601f	-0.28979585
123	0xbe438e93	-0.19097356
124	0xc00236fc	-2.034606
125	0xbe386fe1	-0.18011428
126	0xbe265683	-0.16243939
127	0xbce64147	-0.028107299
128	0xbeb52539	-0.3537996
129	0x3f274c60	0.65350914
130	0x3dade515	0.084909596
131	0x3e39b190	0.18134141
132	0x3d66ebd9	0.056377266
133	0x3cfa4d4d	0.030554438
134	0x3ff6af8d	1.9272324
135	0xbe24f865	-0.1611038
136	0xbe62e398	-0.22157133
137	0xbd8ec78e	-0.06971656
138	0xbeb4e709	-0.35332516
139	0xbfe98567	-1.8243836
140	0x3dd474b8	0.10373825
141	0xbe82caab	-0.25545248
142	0x3f0349d2	0.51284516
143	0xbca107ff	-0.019657133
144	0xbfa5e4ee	-1.2960489
145	0xbea306b6	-0.31841058
146	0x3e2dbaf2	0.16965845
147	0xbe82251e	-0.25418943
148	0x3d876dab	0.066127144
149	0xc00ad5b8	-2.1692944
150	0x3da9a68f	0.08283722
151	0x3e508ce7	0.2036625
152	0x3e256401	0.1615143
153	0x3e589004	0.21148688
154	0x3f5393f3	0.8264763
155	0xbdfcad9d	-0.123378016
156	0xbc791986	-0.015203839
157	0x3e7f1ef5	0.24914153
158	0xbc2267eb	-0.009912471
159	0x3ffbf0da	1.9682877
160	0xbeb6f1d7	-0.35731384
161	0x3e151d72	0.14562014
162	0xbe804303	-0.25051126
163	0xbe6b17b1	-0.22958256
164	0x3fd809ba	1.6877968
165	0x3c7813eb	0.015141468
166	0xbe278fc3	-0.16363434
167	0xbe587bbf	-0.21140955
168	0xbeb2475e	-0.34820074
169	0xbf98eb50	-1.1946812
170	0x3c87d1d8	0.016579553
171	0xbe32b5f2	-0.17452219
172	0x3dc58a64	0.096455365
173	0x3e7d988b	0.24765222
174	0x3f7aa998	0.9791503
175	0xbd590ae7	-0.052988913
176	0x3eb82524	0.35965836
177	0xbe8d8d27	-0.27646753
178	0xbe659edf	-0.22423886
179	0xbff96736	-1.9484622
180	0xbea95f42	-0.33080488
181	0x3eb12eff	0.34606168
182	0xbd57c8a2	-0.052681573
183	0xbcf7c019	-0.030242966
184	0xc001247e	-2.0178523
185	0x3e0e5fef	0.13903783
186	0xbea73f73	-0.32665595
187	0x3e3ff33e	0.18745133
188	0x3e455dcd	0.19274063
189	0x3f86cbd3	1.0530952
190	0x3df174e5	0.11789874
191	0x3ea81a67	0.32832643
192	0x3e60ebf5	0.2196501
193	0xbcfdda0a	-0.030987758
194	0x3d9762dd	0.073919035
195	0xbe969d2b	-0.29416785
196	0x3eb2c7ce	0.34918064
197	0x3e27a01f	0.16369675
198	0xbd581984	-0.05275871
199	0x3f906568	1.1280947
200	0x3ec0e444	0.37674153
201	0xbdc948be	-0.098283276
202	0x3e0cd5c1	0.13753416
203	0xbe21e423	-0.15809684
204	0xbff567a9	-1.917226
205	0x3e13aa28	0.14420378
206	0x3dec751b	0.115457736
207	0x3c9a1424	0.018808432
208	0xbe913f9f	-0.28368852
209	0xbfe58528	-1.7931261
210	0x3e9a7064	0.30163872
211	0x3e27d5b0	0.16390109
212	0x3e4fd64b	0.2029659
213	0x3e1baae5	0.1520191
214	0x3f816e2f	1.011175
215	0xbd1b3cac	-0.037899658
216	0x3df2325f	0.11826014
217	0x3a913ebb	0.0011081317
218	0xbeae5ae8	-0.3405373
219	0x3fec7794	1.8473992
220	0xbcd8f6e5	-0.026484916
221	0xbd4c816c	-0.049928114
222	0xbe287918	-0.16452444
223	0x3cb94354	0.022615112
224	0xbe842aff	-0.25814053
225	0xbe85196a	-0.25995952
226	0xbcb04c9f	-0.02152091
227	0xbe93699e	-0.28791517
228	0x3e4fd65d	0.20296617
229	0x3fb8a75f	1.4426078
230	0xbdb100c7	-0.086427264
231	0x3de8ef42	0.1137376
232	0xbe528c14	-0.20561248
233	0xbdf9c0b6	-0.1219496
234	0xbfce6643	-1.6124958
235	0x3e8d600c	0.2761234
236	0xbe9c2811	-0.30499318
237	0xbc971fb2	-0.01844773
238	0xbe8c22af	-0.2737021
239	0xbfb23069	-1.3921024
240	0x3e012606	0.12612161
241	0xbde58ae8	-0.11208135
242	0xbd4ba75b	-0.04972015
243	0x3eadbb1f	0.33931825
244	0x400826eb	2.1273754
245	0xbeba61ff	-0.3640289
246	0x3ed03184	0.40662777
247	0xbd20a679	-0.03922126
248	0x3e114050	0.1418469
249	0x3fae80da	1.3633072
250	0xbb9f63c2	-0.004864187
251	0x3e0f4c00	0.13993835
252	0xbdb11373	-0.08646288
253	0xbea74081	-0.326664
254	0x3fe130f3	1.7593063
255	0x3e860f41	0.26183513

critic.0.bias f4 [64]
0	0x3c76fa3c	0.015074309
1	0x3e9805a8	0.29691815
2	0x3da470c1	0.080293186
3	0x3eb79158	0.35853076
4	0xbebd69fa	-0.36994916
5	0xbe804084	-0.25049222
6	0xbee47b55	-0.44625345
7	0x3e6a5955	0.2288564
8	0xbebb28a1	-0.36554435
9	0xbe265f62	-0.16247323
10	0xbe81bf30	-0.25341177
11	0xbcb5d1db	-0.022194793
12	0xbedfc9da	-0.43708688
13	0xbe89e9c1	-0.26936153
14	0xbe793113	-0.24335127
15	0x3e1b0905	0.1514016
16	0x3e470321	0.19434787
17	0x3e111f84	0.14172179
18	0xbd55d77b	-0.05220745
19	0xbe4323d8	-0.19056642
20	0xbd27420f	-0.040834483
21	0xbdccf20b	-0.100071035
22	0xbe549715	-0.20760758
23	0xbdb5b9be	-0.08873318
24	0x3ec3c274	0.38234293
25	0xbe4718c6	-0.19443044
26	0xbe68f54c	-0.22749823
27	0x3e8f11fa	0.27943403
28	0x3ee604db	0.4492558
29	0x3edb3086	0.42810458
30	0x3e222ed2	0.15838173
31	0xbeaba4a0	-0.33524036
32	0xbca65c39	-0.020307647
33	0x3e8d22aa	0.2756551
34	0x3ecb0e92	0.39659554
35	0x3d855c76	0.06511776
36	0x3e2a3e49	0.16625322
37	0x3ecf332e	0.40468735
38	0x3f0f47b2	0.55968773
39	0xbedaada1	-0.42710593
40	0xbdada2b4	-0.08478299
41	0xbe25b69c	-0.16182941
42	0xbe363efd	-0.17797466
43	0xbdd5d3eb	-0.10440811
44	0xbf1b13ea	-0.6057726
45	0x3d0b0b68	0.033946425
46	0x3de42a4d	0.11140881
47	0xbe02b85c	-0.1276564
48	0x3cd9f5e3	0.026606506
49	0xbea35167	-0.31898043
50	0xbe92cce3	-0.2867194
51	0xbea76b27	-0.32698938
52	0xbe865291	-0.26234868
53	0xbe20ab85	-0.1569043
54	0xbe0e039d	-0.13868566
55	0x3d2e904e	0.04261809
56	0xbe0cc519	-0.13747062
57	0x3e21a772	0.15786532
58	0x3daddad0	0.08489001
59	0xbe92c0c0	-0.28662682
60	0x3e2d8e85	0.16948898
61	0xbe8a097d	-0.26960364
62	0x3e8e1724	0.2775203
63	0x3e40e0bb	0.18835728

critic.2.weight f4 [64, 64]
0	0x3dbdcddf	0.092677824
1	0xbd29b5b6	-0.04143306
2	0x3e0a1510	0.13484597
3	0x3dcdbf11	0.10046209
4	0xbdcaddbb	-0.09905573
5	0x3c8e61be	0.017380591
6	0xbc1d98fb	-0.009618993
7	0x3d40b55f	0.04704797
8	0xbda6d22c	-0.08145556
9	0xbca99e1a	-0.020705272
10	0xbc7e81c8	-0.015533872
11	0x3daa141e	0.08304618
12	0xbc837da7	-0.016051127
13	0xbde3566d	-0.11100469
14	0x3deb6a8a	0.1149493
15	0xbd6b5d34	-0.057461932
16	0xbcbb6caa	-0.022878964
17	0x3dd3adb6	0.10335867
18	0xbc99628b	-0.018723747
19	0xbc357fa2	-0.011077793
20	0xbd1b45e4	-0.03790845
21	0x3dd7abc3	0.10530808
22	0xbd91a362	-0.07111241
23	0xbcb186fc	-0.02167081
24	0xbdddac37	-0.10823863
25	0x3d901b2b	0.07036432
26	0x3dd3dafd	0.10344503
27	0xbd41ac03	-0.047283184
28	0xbe0746a9	-0.13210548
29	0x3e0dccd2	0.13847664
30	0x3d97b227	0.07407027
31	0x3dacb31a	0.084325984
32	0xbcf0e848	-0.029407635
33	0x3db788b7	0.08961623
34	0xbdc71e05	-0.09722523
35	0x3ad2e785	0.0016090727
36	0x3bd677d3	0.006545046
37	0x3cfcde2b	0.030867657
38	0x3d696052	0.056976624
39	0x3d769395	0.06019934
40	0xbd0993d6	-0.033588253
41	0x3d5da9fb	0.054117184
42	0xbdba2b9a	-0.090903476
43	0x3de7a66b	0.113110386
44	0xbd432986	-0.04764702
45	0xbd4c39ee	-0.049859934
46	0xbdcdc81a	-0.10047932
47	0x3da02396	0.078192875
48	0xbcb9f143	-0.02269805
49	0xbd8c8a54	-0.068623215
50	0x3d1358d8	0.0359734
51	0x3cb1aa17	0.02168755
52	0x3c9cf0ed	0.019157851
53	0x3da1cfff	0.07901
54	0xbd27fd6c	-0.041013166
55	0xbbf8134e	-0.0075706607
56	0x3c8f1311	0.017465146
57	0x3dbdbee0	0.09264922
58	0xbd8bfe73	-0.06835642
59	0xbe003035	-0.1251839
60	0x3e01a2be	0.12659737
61	0x3cc045a6	0.023470711
62	0xbda4376d	-0.08018384
63	0xbcf87faf	-0.030334322
64	0xbdaf5254	-0.08560625
65	0x3d5241f2	0.05133242
66	0x3dee510a	0.11636551
67	0xbd044517	-0.03229245
68	0xbd90a620	-0.07062936
69	0xbd59ddf3	-0.053190183
70	0x3d86ecb3	0.065881155
71	0xbd6aa819	-0.057289217
72	0xbd043d99	-0.032285307
73	0x3d82955e	0.06376146
74	0x3d996d51	0.074915536
75	0xbcf3d008	-0.029762283
76	0x3c941be8	0.018079713
77	0xbd94d6de	-0.07267545
78	0xbda6e00d	-0.08148203
79	0xbdb52b05	-0.08846096
80	0x3dd9c11a	0.10632534
81	0x3cc85e98	0.024459168
82	0xbd84cbf1	-0.06484211
83	0x3db7fc3e	0.08983658
84	0xbd803238	-0.062595785
85	0xbc8bb030	-0.017051786
86	0x3d8897a0	0.06669545
87	0xbd8d81de	-0.06909536
88	0x3cd7c4b5	0.026338914
89	0xbd8a9d71	-0.06768311
90	0xbdc599d2	-0.096484795
91	0x3c9d3dd9	0.01919453
92	0x3d948115	0.07251183
93	0xbd6b5c1c	-0.05746089
94	0x3dde8f23	0.10867145
95	0xba70c0da	-0.00091840106
96	0x3da195f4	0.078899294
97	0x3d9d16c4	0.07670358
98	0x3d586d9d	0.05283891
99	0x3d0fcfe1	0.03511036
100	0xbdb6a6cd	-0.089185335
101	0xbd6b169c	-0.05739461
102	0x3d343bbf	0.04400229
103	0x3cb2de89	0.021834629
104	0xbdbd5971	-0.09245575
105	0x3d03a1d8	0.032136768
106	0x3cefdd0a	0.029280204
107	0xbd6dc115	-0.058045465
108	0x3dffe6fa	0.12495227
109	0x39dd46fb	0.0004220529
110	0x3c8b3a3f	0.016995547
111	0xbdd8e2bc	-0.10590121
112	0xbc8e81b5	-0.017395834
113	0x3cda1f3a	0.026626218
114	0xbc454292	-0.012039797
115	0x3ce332db	0.02773421
116	0xbd541983	-0.051782142
117	0x3bcc4baf	0.006234608
118	0xbdd9e458	-0.10639256
119	0x3df64883	0.12025549
120	0xbd804e38	-0.06264919
121	0xbdee9e98	-0.11651343
122	0x3d8195f2	0.06327428
123	0xbddf6ddc	-0.10909626
124	0xbdaa6456	-0.08319919
125	0x3dae12d0	0.08499682
126	0x3df0ccee	0.11757837
127	0x3d96557c	0.073405236
128	0x3c9d7c03	0.019224172
129	0xbe36aad1	-0.17838599
130	0xbd9ad174	-0.07559481
131	0xbd85e1d5	-0.06537215
132	0x3d82f921	0.06395174
133	0xbd538ed6	-0.05164989
134	0x3e2bb8dc	0.16769737
135	0x3b477ce5	0.0030439433
136	0x3dad6de2	0.08468224
137	0x3d0ba22e	0.034090213
138	0x3de11885	0.10991005
139	0x3df2b69f	0.118512385
140	0x3ce0f0a1	0.02745849
141	0x3c773336	0.015087893
142	0x3d6513c7	0.055927064
143	0xbd4abb2a	-0.0494949
144	0x3dc867b7	0.09785407
145	0x3d889fdf	0.06671118
146	0x3d79aaaa	0.060953774
147	0x3dbc3e41	0.091915615
148	0x3d91de3e	0.071224675
149	0xbdd51e4e	-0.10406171
150	0x3d5e485d	0.05426823
151	0x3d6dd563	0.05806483
152	0x3d071174	0.03297563
153	0x3d991e5d	0.074764945
154	0xbdc1cff4	-0.09463492
155	0xbdc3e355	-0.095648445
156	0xbdee7dd2	-0.11645092
157	0x3d608f75	0.05482431
158	0xbce51ceb	-0.02796789
159	0xbd58b83b	-0.05291007
160	0xbd8fef0d	-0.07028017
161	0xbe09c568	-0.13454211
162	0xbe24e46c	-0.16102761
163	0x3c76302f	0.015026136
164	0x3d8f8ed9	0.07009668
165	0xbd7d4fd8	-0.061843723
166	0xbe08f6a5	-0.13375337
167	0x3e391b80	0.18076897
168	0xbced1be7	-0.028943969
169	0x3e106f9f	0.1410508
170	0xbdcc3a49	-0.099720545
171	0xbdc2d4e9	-0.09513266
172	0xbc8fd8f5	-0.017559508
173	0xbd94d223	-0.07266643
174	0xbdc7d67a	-0.09757705
175	0x3de099d9	0.10966844
176	0xbd3bddd5	-0.045865852
177	0x3dca9aeb	0.098928295
178	0xbd4f4ed3	-0.050612282
179	0x3c9f2032	0.019424532
180	0xba524ed1	-0.0008022609
181	0xbdcc3afb	-0.09972187
182	0xbd23c834	-0.03998585
183	0x3de69f00	0.112607956
184	0x3de3e215	0.11127106
185	0x3d5c950b	0.053853076
186	0x3e0d510d	0.1380045
187	0xbd49ede5	-0.04929914
188	0xbd0be4ce	-0.034153752
189	0xbd1bee5b	-0.03806911
190	0x3d054fe3	0.03254689
191	0x3ce87429	0.028375702
192	0x3ca3759c	0.019953541
193	0x3e47d1b3	0.19513588
194	0x3dc3ab4e	0.09554158
195	0x3cca7fc8	0.024719134
196	0xbd530f83	-0.051528465
197	0xbe09348c	-0.13398951
198	0xbe5317db	-0.20614569
199	0x3e35d1d9	0.17755832
200	0xbb31121f	-0.0027018858
201	0x3d02ebe6	0.03196325
202	0xbccc6476	-0.024950247
203	0xbbba9479	-0.005693969
204	0xbe31aa95	-0.17350228
205	0x3da854c8	0.08219296
206	0xbce20c64	-0.027593799
207	0xbd5a861a	-0.053350545
208	0x3db702f1	0.08936108
209	0x3d2f5fdc	0.042816028
210	0x3d32c8d9	0.043648575
211	0xbda5b3a6	-0.08090906
212	0x3de30429	0.11084778
213	0xbb3645c6	-0.0027812584
214	0xbdbfd483	-0.09366705
215	0x3ac52b33	0.0015042782
216	0x3d157ac6	0.03649404
217	0xbdfa6c47	-0.122276835
218	0x3da2432f	0.079229705
219	0xbd626f1e	-0.05528175
220	0x3c678704	0.014131311
221	0x3dfa2d69	0.122156925
222	0x3e08a31b	0.1334347
223	0xbdfdd0e5	-0.12393359
224	0x3c267949	0.010160753
225	0x3df899d9	0.12138719
226	0x3e013665	0.12618406
227	0x3d846996	0.064654514
228	0x3db1fbe8	0.086906254
229	0x3e632dba	0.22185412
230	0x3d325e26	0.04354682
231	0xbd6595b4	-0.05605097
232	0xbd9ed884	-0.07756141
233	0xbc2e0b65	-0.010622834
234	0x3b55946a	0.0032589682
235	0xbd94f49c	-0.07273218
236	0xbd12b46f	-0.035816606
237	0x3d3b1cc1	0.04568172
238	0xbe0944ef	-0.13405202
239	0xbdc91101	-0.09817696
240	0x3e552779	0.20815839
241	0xbe4349f7	-0.19071184
242	0xbd5fbfd1	-0.05462629
243	0xbe40d2c1	-0.18830396
244	0xbdfc2922	-0.12312533
245	0x3d6fb944	0.058526292
246	0xbb7eb24c	-0.0038863597
247	0x3d2a0d50	0.041516602
248	0x3d6bac91	0.05753762
249	0x3db31b57	0.08745449
250	0x3df8dc89	0.12151439
251	0xbde17bf6	-0.11009972
252	0xbd959fee	-0.07305895
253	0xbdee956c	-0.11649594
254	0x3e2e08a0	0.16995478
255	0x3d9f666b	0.077832066

critic.2.bias f4 [64]
0	0xbce92ffb	-0.028465262
1	0xbdcc6a25	-0.09981183
2	0xbce1dfc1	-0.027572514
3	0x3e2ab378	0.16670024
4	0xbdd39aa7	-0.10332232
5	0xbdfb55ee	-0.12272249
6	0xbda35836	-0.07975809
7	0x3d528eac	0.051405594
8	0x3cae8206	0.021302234
9	0x3c751f01	0.014961005
10	0xbddc2133	-0.1074852
11	0x3ce44a9e	0.027867611
12	0xbda44093	-0.08020129
13	0x3e6f382e	0.23361275
14	0x3dbaac90	0.09114945
15	0xbe116487	-0.14198504
16	0xbd62423b	-0.055238944
17	0x3b873fa2	0.0041274587
18	0x3e3f9916	0.18710741
19	0x3c8cf499	0.017206477
20	0x3d98dce8	0.074640095
21	0x3e0e7606	0.1391221
22	0x3cfd6d98	0.030936047
23	0x3da93237	0.08261531
24	0xbd993041	-0.07479907
25	0x3d06be52	0.032896347
26	0xbd8af9b7	-0.067859106
27	0x3d92df57	0.07171505
28	0xbe06e937	-0.13174902
29	0xbc98f09c	-0.018669419
30	0xbd952b8f	-0.07283699
31	0x3c8c795a	0.017147709
32	0x3e00d693	0.12581854
33	0xbd3ef6a6	-0.04662194
34	0xbc748694	-0.014924664
35	0x3e1d3df4	0.15355664
36	0xbe105b88	-0.14097416
37	0x3dad22f8	0.084539354
38	0x3d991167	0.07474022
39	0xba52f18a	-0.00080468564
40	0xbcc8b920	-0.024502337
41	0x3d535b13	0.051600527
42	0xbd83f1dc	-0.064426154
43	0x3d7a3e16	0.061094366
44	0xbcd887f8	-0.026432022
45	0xbdd28510	-0.10279286
46	0xbb841bcc	-0.004031634
47	0x3e0bce42	0.136529
48	0x3d999d35	0.07500688
49	0xbdbd9339	-0.09256596
50	0x3e0a9724	0.13534218
51	0x3cc7470a	0.024325866
52	0x3de90d5d	0.11379502
53	0xbd9cbe56	-0.07653491
54	0x3d638f66	0.055556677
55	0xbc141329	-0.009037771
56	0xbd63f7a2	-0.055656083
57	0x3d21186d	0.039329935
58	0x3d8eafdf	0.069671385
59	0x3b69cde4	0.00356757
60	0xbd332178	-0.04373309
61	0xbc8ed043	-0.017433291
62	0x3d75eb7f	0.06003904
63	0x3d838e8b	0.06423672

critic.4.weight f4 [1, 64]
0	0xbb3f70da	-0.0029211552
1	0xbb39d9b5	-0.0028358523
2	0x3d16af66	0.036788367
3	0xbd824cd1	-0.06362308
4	0xbecbcc6f	-0.39804408
5	0x3a8790a0	0.0010342784
6	0xb8bfeea1	-9.152038e-05
7	0xb9a5d307	-0.0003162848
8	0x3b8c0b5a	0.004273814
9	0xbb1ca0f8	-0.0023899656
10	0xbdfcf3b7	-0.123511724
11	0x3ccd4b60	0.025060356
12	0x3cc300b3	0.023804044
13	0xbe09ba99	-0.13450088
14	0x3ae1c585	0.0017225003
15	0xbe6333eb	-0.22187774
16	0xbc502bc2	-0.012705745
17	0x3b887fbb	0.0041656173
18	0xbd8a1384	-0.067420036
19	0xbb069be7	-0.0020539702
20	0x3aa2204b	0.0012369243
21	0xbd797bc5	-0.06090905
22	0xbd226997	-0.03965148
23	0x3aa61671	0.0012671483
24	0xba781c94	-0.00094647077
25	0x3bc13341	0.0058960025
26	0x3b44be9e	0.0030020843
27	0xb9fbe8c2	-0.0004804787
28	0x3a812639	0.000985331
29	0x3a1258a5	0.0005582667
30	0xbb24e0d9	-0.0025158434
31	0xbb2278dd	-0.0024791278
32	0xb9228e42	-0.00015502519
33	0x3b7b82bb	0.0038377482
34	0x3ae3238f	0.0017329323
35	0xbcbe297d	-0.023213143
36	0x3d9c24a2	0.07624175
37	0x3974534b	0.00023300682
38	0x3d835c20	0.06414056
39	0x3d332c5b	0.043743473
40	0x39952fb7	0.00028455045
41	0x3b6a6bda	0.003576985
42	0xb9c38b17	-0.00037296928
43	0xba1a731a	-0.0005891785
44	0x3c9cf981	0.019161941
45	0x3d9c009f	0.07617306
46	0xbc8560c0	-0.016281486
47	0x3977eac2	0.0002364321
48	0x3d80ad7e	0.06283091
49	0x3de35dc9	0.111018725
50	0x3b17f21c	0.002318508
51	0xb916f1a3	-0.00014395131
52	0x3af2ddea	0.001852927
53	0xbb904916	-0.004403244
54	0x3b12c52c	0.0022395356
55	0xb6cc3d8c	-6.0868388e-06
56	0xbe513922	-0.2043195
57	0x3b3075cf	0.0026925688
58	0xbd73b31b	-0.05949698
59	0xb9beb03c	-0.0003637093
60	0x3eb52cb7	0.35385677
61	0xbb38474a	-0.0028118663
62	0xbd8e2bda	-0.06941958
63	0xbb7faa27	-0.003901133
