trained/SimplePong/PPO_frequent_1728738274.3355732.pth (torch, 42226 bytes, 11 tensors)

actor.0.weight f4 [64, 5]
00000000: ba2a 54be 9a61 c8bd ade2 89be b5f6 953e
00000010: 828c ddbe bcc5 14bf 94ee ee3e 1741 823e
00000020: 1f12 e03e cef3 a4be 58e4 b4be ff40 513e
00000030: 69e7 89bc bd0b 8d3e cbdb 873e 4088 d43d
00000040: f4e9 79be b38c 333e 74f0 03bf 2e08 e43d
00000050: 870e b73d 6932 11bf 13f6 873e ea33 c8bd
00000060: 8cf7 943e 8cb9 413d 9566 b73e a85f a53e
00000070: 2a09 b2bb 3b02 8cbe d58e 36be 7a14 e03d
00000080: 77fb d4be f948 0a3f f56f d1be a463 15bd
00000090: 5421 25be db10 933e 1eac 2bbe e14c 883e
000000a0: 291b 4cbe 45ed 853e e526 c4bd ff96 d9bd
000000b0: b96d c93e 5c98 dbbe ad67 bb3d cb44 3ebe
000000c0: 12af 703e e013 59be ea27 a83e 79f2 973e
000000d0: 47e2 783e 25c9 b03e b66c a3bd 6a54 ff3e
000000e0: c664 91be bc5e aabe b01d 09bf 5378 2a3e
000000f0: f385 c4be ac10 023f 161d 753d 2d11 de3e
00000100: 2d82 793e 5de0 e83b ae5e bdbe 0e6b e03d
00000110: 344a 013c db08 843e 0fb7 0f3f 30e6 fdbe
00000120: 28d4 803e 036d 5bbe 075f 253d 2f51 ea3e
00000130: 2a33 64be ca50 afbe 6ffd 833d fe5a 66be
00000140: 8bdf f43e 3272 b83c 6fc9 183e cb30 b2be
00000150: f0af e83e 9fd8 bdbe f99c fc3e f6a2 2f3d
00000160: b4ef 49bd d367 95be edb1 b3bd 5e11 613e
00000170: 850f 03be 5899 b73e 3d58 04bf 3aed e2be
00000180: 8af0 32be a233 0dbe bcd8 99bd 5307 6a3e
00000190: 87d3 48be 6775 e23e 7af3 203d 01d9 d23e
000001a0: 941c e6bd 22bb 26be 1bb9 c33e 6367 993e
000001b0: 93b8 313f 19d4 e0be f22b d53e e6a0 183e
000001c0: 61ef 93be 8f2f af3e cda2 a83e cdfb eebe
000001d0: 97e9 a43c 8da3 ed3e abc1 f73e 6a09 433e
000001e0: 1874 dabe 6fd9 ec3e 3e92 503e 1b43 98bc
000001f0: ae35 db3e 9def 3fbe b461 89bd 504c 9dbe
00000200: d0b0 2abc 35d6 8c3d 0b15 97be 7c6a b13e
00000210: 47e0 fdbd 86da 8e3e 6489 c03e 1192 cc3e
00000220: 3da6 aebe 6c25 0bbe fedf 19bf bfa0 b53e
00000230: f968 b6be e7e3 033f 3f57 ec3d d789 113f
00000240: 7c7e 743e 703b e3be 72d6 7b3c dd26 623e
00000250: 07e2 153d 2163 98be 4beb f63c 2ad3 d0be
00000260: 41b1 683d 334d 23bf ffa1 60be 2687 f13e
00000270: 6035 7cbe 84fa bf3d 6014 7f3d 85e3 6a3d
00000280: aa3a fcbd 7a3b f23e 3789 19be 2d65 0b3f
00000290: 0877 8f3e 5aed f63e 9151 543e df30 ce3d
000002a0: 64ab 85be 9552 803e bbd1 0d3e 9acd cd3e
000002b0: be4f a2be fe9f d03e b203 13be 0a88 f83e
000002c0: dac5 39be ea54 87bc ac5e 19bf aed7 70bc
000002d0: 2009 e8bc bc13 7abe 0afe 493e 1cf7 8abe
000002e0: 7047 c73d a9cb 80be f445 ff3e 75f7 1f3e
000002f0: b1de fd3e c571 363d 04fb 053f aa54 03bf
00000300: f76c ddbe 4e6b 45be f9d2 c2be c34c cf3e
00000310: 3601 c8be cdef 9a3e eb5f 05bf f492 d8bd
00000320: 2ddd f6be 305e fa3e 21e4 9f3e 10fe b53d
00000330: 335d 92be 2ea5 d93d 201d ad3e 058b 8bbe
00000340: 9677 d63c 634a 943b 25dd 64be 7cee 4ebd
00000350: 7e93 28be 6ead 093f 0676 823e 2de3 45be
00000360: d57d 6d3d e7cf 2b3e dd9b af3e 97e4 f7be
00000370: f1a5 0b3e 5313 95bd e9b6 69be c689 d43d
00000380: 439e 7dbe a904 c63e 4e5c e0be 2af0 203e
00000390: df14 8ebd 6b62 89be 0f21 cc3e 74cd 95be
000003a0: 8aa3 0d3e cdf5 a2be b743 de3e 2132 09bf
000003b0: 28e9 fd3e fce6 86be 021e a73e b441 9c3e
000003c0: 32bf b2be 7859 d43e e702 afbe 8835 073e
000003d0: 0474 f93d 69ca df3e c3fd 87be da36 82be
000003e0: d7b4 16bf 53a7 c9bd 0479 823e 917e fbbe
000003f0: 76ce 4dbd 81e2 24bf 6bb8 c5be 5488 79be
-0.20719424 -0.09784241 -0.26930752 0.29289785 -0.4327126 -0.5811422 0.46666396 0.25440285
0.43763825 -0.32217258 -0.35330462 0.2043495 -0.016833978 0.27548018 0.26534876 0.1037755
-0.24405652 0.17534141 -0.5153878 0.11134373 0.08938318 -0.56717545 0.26554927 -0.09775527
0.29095113 0.047296092 0.3582045 0.32299542 -0.0054332213 -0.27345452 -0.17827924 0.109414056
-0.41598102 0.540176 -0.4090573 -0.036471978 -0.16125995 0.28723797 -0.16764876 0.26621154
-0.19932236 0.26157585 -0.09577731 -0.10624503 0.39341524 -0.42889678 0.09150634 -0.1858093
0.23504284 -0.21198988 0.32842952 0.2967718 0.24305068 0.3452846 -0.07979719 0.4986909
-0.28397197 -0.33275402 -0.53560925 0.16647463 -0.38383445 0.5080669 0.05984219 0.4337248
0.24366064 0.0071068243 -0.36986297 0.10957919 0.007891227 0.25788006 0.561387 -0.49589682
0.25161862 -0.21428303 0.04037383 0.45765063 -0.22285143 -0.34241325 0.06444823 -0.22495648
0.478268 0.02251539 0.14920591 -0.3480285 0.4544673 -0.3707933 0.4933851 0.04288002
-0.049300864 -0.29180774 -0.08774171 0.21979281 -0.12798889 0.3585918 -0.5169714 -0.44321615
-0.17474571 -0.13789228 -0.07512042 0.22854356 -0.19611941 0.44230196 0.039294697 0.41181186
-0.112359196 -0.16282323 0.38227162 0.2996169 0.6942226 -0.43911818 0.4163509 0.14905128
-0.2889357 0.34215972 0.32936707 -0.46676484 0.020130916 0.46413842 0.48389944 0.1904656
-0.42666698 0.4625964 0.20368287 -0.018586686 0.42814392 -0.18743749 -0.067080885 -0.30722284
-0.010418132 0.06876794 -0.29508242 0.34651554 -0.12396293 0.27901095 0.3760482 0.3995519
-0.34111205 -0.13588494 -0.6010741 0.35474202 -0.35626963 0.51519626 0.11540078 0.5685095
0.23876375 -0.44381285 0.015370952 0.22085138 0.03659251 -0.2976313 0.030141493 -0.40786105
0.056809667 -0.6378967 -0.21936797 0.47173423 -0.24629736 0.09373954 0.06227529 0.057345886
-0.12315877 0.47311002 -0.1499375 0.54451257 0.280205 0.4822796 0.2073424 0.10067915
-0.26107323 0.25063005 0.13849537 0.40195924 -0.31701463 0.40747064 -0.14356878 0.4854129
-0.1814188 -0.016519982 -0.5991008 -0.01469986 -0.028324664 -0.2442159 0.19725814 -0.27141654
0.097304225 -0.2515538 0.49858057 0.15621741 0.49583963 0.044542093 0.52336144 -0.5130106
-0.43247196 -0.19279215 -0.38051584 0.40488252 -0.39063424 0.30261078 -0.52099484 -0.10574904
-0.4821562 0.48899984 0.31228736 0.08886349 -0.2858673 0.10627209 0.33811283 -0.272545
0.02618007 0.004525469 -0.22349985 -0.050520405 -0.16462514 0.5378026 0.2548067 -0.19324942
0.05798133 0.16778527 0.34298602 -0.48416588 0.1363752 -0.072790764 -0.22823681 0.10377841
-0.24767403 0.3867543 -0.43820423 0.15716615 -0.069375746 -0.268329 0.39868972 -0.2925831
0.13831916 -0.31828156 0.43411037 -0.53592116 0.49591947 -0.26348102 0.32640082 0.30518878
-0.34911495 0.4147451 -0.34181902 0.13204014 0.12180331 0.43709114 -0.26560792 -0.25432473
-0.5886969 -0.09846368 0.25482953 -0.4912 -0.050245725 -0.6440812 -0.38617262 -0.24368411

actor.0.bias f4 [64]
00000000: bdea e3bc 76f3 9a3e 6d89 863e c229 353e
00000010: b81a 8a3e b34e 7dbe 2cd5 c33e f2a9 d5bd
00000020: 5b3a 85be 8d7f 903e 3db9 c0be d03c 9d3d
00000030: 79d5 fb3d 1717 29be 97a1 14be 15d2 ef3d
00000040: b174 12bc a39d 7a3d 177b 48be 456c 88bc
00000050: aa67 2ebe 3ce5 8ebe 8899 0ebe cb4d 09be
00000060: 81f9 adbd 4da9 7c3e a5d5 be3e 4b4e 8dbe
00000070: 9de3 b4bd 442a 85bc 553b 993e ff94 893e
00000080: ee95 3bbd de12 903e 44f0 fbbd 599b 503e
00000090: a452 253d 1e96 91be 4fb7 dc3e a2d6 57bc
000000a0: 0a11 b5be a340 91bd 4c67 8d3d 59d0 ccbd
000000b0: 50bf 8cbe efc8 293c e57a 43be f134 973d
000000c0: e01b 153e 9b78 a7be c119 7d3e e5ee 2a3e
000000d0: ee9a f43b daae f0bd 5025 633e 3d3b 21be
000000e0: 47f3 e83d 827b 67be 32ec 8d3d 1a56 0abe
000000f0: 5c83 c1bd 9b2c 57bd 3885 c2be 0e8b 37be
-0.027821893 0.3026387 0.26276723 0.1769171 0.2697351 -0.24737053 0.38248575 -0.10432805
-0.26021084 0.28222314 -0.37641326 0.07677615 0.12296576 -0.16512714 -0.14514767 0.11709992
-0.008938954 0.06118549 -0.19578205 -0.01665319 -0.17031732 -0.27909267 -0.13925755 -0.13408582
-0.08494855 0.24673958 0.37272373 -0.27598795 -0.08832476 -0.016255505 0.2992808 0.26871487
-0.04579728 0.28139395 -0.123016864 0.2037176 0.040362015 -0.28434843 0.43108603 -0.013173731
-0.35364562 -0.070924066 0.06904468 -0.10000677 -0.2748971 0.010362848 -0.1908985 0.07383145
0.14561415 -0.32709202 0.24716856 0.16692694 0.007464758 -0.117521 0.22182202 -0.15745254
0.113745265 -0.22605708 0.06929816 -0.13509408 -0.09448883 -0.052532773 -0.37992263 -0.17924139

actor.2.weight f4 [64, 64]
00000000: 4842 0dbd 29f0 88bd a874 053e 5174 21be
00000010: 2701 52be 1328 ab3d 8b00 fb3d 8bfb 30bd
00000020: 7a17 9d3d c822 133e 0ff3 6cbd a3f1 87be
00000030: efbe a3bb 1494 95bd 8797 f8be 2970 97bd
00000040: 554d 523c 2a7a 3c3d 43dd f53b a499 573d
00000050: b608 1a3e 2477 813e 34e8 48bd 9b8d 9ebb
00000060: d1c0 d53d 4e02 833c d8ff eb3d 8b3c 993d
00000070: f2ec 903e 4b5c 253e e725 28bc 3553 43bd
00000080: 04fd 273e ffe6 e6bc 41f1 a33d 02e0 59be
00000090: c0c7 9e3d e9ce 383e ca78 5ebe 9e4e 56be
000000a0: 3188 d43d 5fb5 b23d ba21 3ebd afba 293e
000000b0: 7f24 113e 273b 47be 66f2 b4be f493 9e3e
000000c0: 2032 953e ddf5 e73d 8f82 13be 70d2 46bd
000000d0: 7148 3f3d ae74 82bc e676 bebd 3fe5 dcbd
000000e0: 0e0c a2bb 3e12 febd 361a 2ebd 9780 403d
000000f0: 3dac f4bd 1ffc 673d 7610 58be c82c 06be
00000100: 797b fb3d 0863 07be e4fc 24bd d819 a43d
00000110: 17fd 4e3e 40fd 2fbd 0507 ad3d d53f 2b3d
00000120: 2b1f 4e3d e766 79be 5aa3 1d3d 7b41 c83e
00000130: 4811 02be ad54 d43d 3328 913e 6ba6 ab3e
00000140: 29c9 b23d 883c 06be eb2a 943d 46ac 6bbc
00000150: a8bb a7be a3d4 57be d72e b0bc b70e 08be
00000160: 8a75 fabe a10d 16bd fc93 47be 7ec6 a8bc
00000170: f50e 9bbe e25e 2ebd bcc1 ec3d a855 093d
00000180: b486 c9bd 2945 803d 86ab 893d 6789 b23d
00000190: ecf4 a7bd 4b20 a5be 7e5c 8f3e 6f38 5a3e
000001a0: 63be ebbd 2c1f 573d 90bd 9bbd ceaa 4abe
000001b0: b015 0d3b 11f7 6f3e 3bc8 a93e ad08 c1be
000001c0: 29f3 12be b64f 073e 3752 7c3e d10a 52be
000001d0: 9710 06bd a493 ad3c 1e93 b7bd dc6d d4bc
000001e0: d384 87bd 7b19 2a3e 0981 1f3d 208a a2bc
000001f0: 8614 953e 7dd7 fb3d c734 e83d 3ca3 843d
00000200: 9030 a2bc 152c 3dbe 8654 b1bd c643 bf3d
00000210: ddfa 193e edff e7bd e8b1 f6bd 437a 0dbe
00000220: 9f19 d4bc bde6 5bbe 0230 383d 5de9 8c3e
00000230: 93ed 1abe 5723 8cbc 28ee e33e 49ce 3b3e
00000240: 523d ee3d 9079 9ebe 7650 42bd c868 8d3c
00000250: 36e9 cbbe 1427 25be 2d14 983d ec69 07be
00000260: ace6 e7be 8cea eb3d 174b 94ba 4711 1b3d
00000270: f78a f6be e55a cdbd 8d4b 0f3d 3df4 063e
00000280: 8655 67be d481 163d 6801 90bd 9327 cebb
00000290: 1d37 0dbd 1aaf c9be 23a6 813e 5e8b 6d3d
000002a0: be9a 42be 36e8 933d 602d ed3d b549 3abe
000002b0: c65d afbd ea04 923e 5bd9 a73e c8ef 80be
000002c0: 1830 a9be 7dd3 5c3d eac3 bf3e 8c2d 95bd
000002d0: 5bdd e83d 265d 19bd f915 8cbd 7e56 b23d
000002e0: ab5a 8bbb ddfe 173e 7135 233e b565 d5bd
000002f0: ef78 983e 71e6 063e 3f89 763e cfbe 803c
00000300: 2919 9fbd 91f1 60bd 36ff cabd 7e8d a6bd
00000310: 8cdc c83c 74e8 963d 899a 1cbd 0cbe f0bd
00000320: d395 7c3b 39cc 08be 2390 233d e25b 993e
00000330: 74e8 a0bd 25c5 df3d fcee 4d3e 8479 153e
00000340: ac84 8cbc 60f6 7abe c0b6 86bd f092 e1bd
00000350: 997e 5bbe 17fd 77bd a678 2b3e 1520 00be
00000360: 3c57 7abe 64e9 59bd 686c b2bd 25cf 363e
00000370: 2d5a 81be 7681 94bd 6b76 8dbd 8a7d 4abd
00000380: 6bbc c0bc 0834 14be bc16 db3d bec4 46bd
00000390: 9217 ecbc fe22 10be d6ab 763e 2f3f 0a3e
000003a0: bc14 0bbd f322 493d 2291 a9bd d3af 12be
000003b0: 70ba a7bd bdc4 9a3e 5e3b bc3d 8e87 37be
000003c0: eaf0 24be 1f86 623e 4587 803e 596c 5d3d
000003d0: 6dc4 74bd 78c7 8e3d a801 75bc 7ba1 0f3e
000003e0: bb61 f8bd 35b9 5bbc b4eb 0f3d b274 df3d
000003f0: e915 623e 6257 fc3c 2048 833e 1be9 083e
-0.03448704 -0.06686432 0.13032782 -0.15767027 -0.20508252 0.08357253 0.12255963 -0.04320864
0.076704934 0.14368737 -0.057848986 -0.26551542 -0.0049971263 -0.07303634 -0.48553106 -0.0739444
0.01283582 0.046014942 0.007503183 0.052636757 0.15042385 0.2528621 -0.04904957 -0.004838658
0.104371674 0.01599231 0.11523408 0.07482251 0.28305775 0.16148488 -0.010262943 -0.047686774
0.16405112 -0.02818632 0.08005 -0.21276858 0.07752943 0.1804768 -0.21725765 -0.20928428
0.10377539 0.08726 -0.046418883 0.1657512 0.14174078 -0.19456159 -0.35341185 0.30972254
0.29139805 0.113261916 -0.14405273 -0.048540533 0.046699945 -0.015924778 -0.09300022 -0.10785913
-0.0049452847 -0.12405823 -0.042505465 0.046997633 -0.11946914 0.056636926 -0.2110003 -0.1310302
0.1227941 -0.13221371 -0.040280238 0.08012742 0.20213734 -0.042966127 0.084486045 0.04180892
0.050322693 -0.2435566 0.038485862 0.39112458 -0.12701905 0.10367713 0.28350982 0.33525404
0.087297745 -0.13109028 0.072347485 -0.014384335 -0.32760358 -0.21077208 -0.02150671 -0.13286863
-0.489178 -0.03663409 -0.19490045 -0.020602461 -0.3028485 -0.042570956 0.115603894 0.033528954
-0.09840146 0.06263191 0.067221686 0.08717614 -0.08201012 -0.322512 0.28000253 0.2131059
-0.11510923 0.052519962 -0.076045156 -0.1979172 0.002152782 0.23434092 0.33160576 -0.37701932
-0.1435057 0.13214001 0.24640737 -0.20511939 -0.032730665 0.021188565 -0.08963607 -0.025931291
-0.06617131 0.16611283 0.038941417 -0.019841254 0.2911722 0.122969605 0.113381915 0.06476447
-0.019798547 -0.18473847 -0.086587 0.09339099 0.15037103 -0.11328111 -0.12045652 -0.1381617
-0.025891123 -0.21474738 0.04496766 0.27521792 -0.1512969 -0.017106695 0.44517636 0.1834041
0.1163279 -0.3095212 -0.047440015 0.017261878 -0.39826363 -0.16128188 0.07425723 -0.13224
-0.45293176 0.11519346 -0.0011313882 0.037858274 -0.48152897 -0.100271024 0.03498416 0.13179107
-0.22591218 0.036744907 -0.07031518 -0.0062913387 -0.03447639 -0.39391404 0.25322065 0.05799424
-0.19004342 0.07222025 0.1158092 -0.1819218 -0.08562808 0.28519374 0.32783017 -0.2518294
-0.33044505 0.05391263 0.37454158 -0.07284078 0.11370345 -0.03744235 -0.068401285 0.08707903
-0.004252752 0.14843316 0.15938355 -0.1041979 0.29779765 0.13173844 0.24075793 0.015715985
-0.07768471 -0.054917876 -0.09911959 -0.08132456 0.024519227 0.07368556 -0.038233314 -0.117549986
0.003854145 -0.13359155 0.03993238 0.29952914 -0.07856837 0.10926274 0.20110697 0.14597136
-0.017153107 -0.24508047 -0.065778255 -0.11014354 -0.21435012 -0.0605441 0.16745242 -0.12512238
-0.2444734 -0.053201094 -0.08712083 0.17852457 -0.2526411 -0.07251255 -0.06907352 -0.04943613
-0.023527345 -0.14472973 0.106976956 -0.04852747 -0.028819833 -0.14075848 0.24088988 0.13500665
-0.03395532 0.049105596 -0.08279635 -0.14324884 -0.08189857 0.30228224 0.09191011 -0.17922804
-0.16107526 0.22121476 0.25103202 0.054058407 -0.05975764 0.069716394 -0.014954008 0.14026444
-0.121280156 -0.013410856 0.035136893 0.1091093 0.2207867 0.030803386 0.25640965 0.13370173

actor.2.bias f4 [64]
00000000: 343e 0ebe 8c4e b0bd fbc1 90bc be66 14be
00000010: 6569 2c3e ce3f e73c f4bf 403e 36fb 9fbd
00000020: b72a d33d 94bf 473e 285f 58be 9445 ac3d
00000030: 6757 a43b 1351 033e e726 ff3d 464e 563d
00000040: 08fd 54bc 0b19 383d c9d0 d13d e835 cf3d
00000050: 69fb f7bc 4c32 693d fcdf 0ebd 5a3c 27be
00000060: cfe1 fa3c 3795 76bd 08e5 773d 3791 e33c
00000070: a358 e13d 3f8e 923d b1bb 103e 3479 5cbc
00000080: 120e 483d cbbf 733d 6e94 8b3d e20a 573d
00000090: b640 fdbc 8e86 e9bc 5d8d cbbd e107 c1ba
000000a0: a203 59be 3dec f3bd c169 ea3d 8686 36bd
000000b0: bd66 d13c 89e0 053e eedb efbc bdfe 1ebd
000000c0: 3255 68bd 399c 0bbe 829b ffbd e284 debd
000000d0: 62bf 56bd 959f b8bd 98e5 2f3e c8cc afbc
000000e0: 2b2d 72bd 628e ec3d aa08 cfbd 4968 543d
000000f0: e26f c83c 3810 86bd e0f1 febc 706e 403d
-0.13890916 -0.086087316 -0.017670622 -0.14492318 0.1683708 0.028228667 0.18823224 -0.078115866
0.103108816 0.19506675 -0.21130049 0.084117085 0.005015302 0.12823896 0.12458592 0.05232074
-0.0129997805 0.044945758 0.10244901 0.10117704 -0.030271249 0.056932732 -0.034881577 -0.16331616
0.030625252 -0.060200896 0.060521156 0.027779205 0.11003234 0.071560375 0.14134099 -0.013456631
0.048841543 0.05950908 0.0681542 0.052500613 -0.030914646 -0.028506543 -0.09939072 -0.001472708
-0.21192792 -0.11910293 0.11445952 -0.044561885 0.025561685 0.13073935 -0.029279675 -0.038817156
-0.056721874 -0.13633813 -0.12480833 -0.10865189 -0.05242861 -0.09014813 0.17177427 -0.021459952
-0.059125107 0.11550595 -0.101090744 0.051857267 0.024467412 -0.06546062 -0.031121194 0.04698032

actor.4.weight f4 [3, 64]
00000000: 66b4 c1bd 4153 483f 2949 103f 35b6 9e3e
00000010: ef5b 84bc ea4e 23bf 19ea bbbd b8cb 01bf
00000020: 5624 ed3e 87fe 65bd 0104 083e 0a79 ab3e
00000030: 1528 6c3d 539b 9a3c a486 01bf db7d d1be
00000040: 80aa 2f3f 946e 11bf 9e20 8b3e 9a60 96bd
00000050: fbc3 32be c441 043f ad23 8ebe 7b97 c9bd
00000060: 61eb f93c 4cfe 17bf f925 793e 01fd 6c3e
00000070: ae1e fcbe fac1 7bbe 4c76 f73e 3c85 9c3e
00000080: 5f6f 313e f057 ec3e 3d74 a6be 0e27 3a3f
00000090: 00ed 94be dbc4 243f 0d00 76be a54b 7a3e
000000a0: 5ec5 7d3d 363d af3e f121 edbe 6a64 793d
000000b0: d9ce 9dbe 67ff 583d 5b13 5a3e bda9 163f
000000c0: e0f7 02be 4e84 1f3f a0fd be3e c1b8 b9be
000000d0: 8787 0abf 2b7e 94be e449 59bd fdb7 debe
000000e0: 0288 8d3e cdb5 8abe 6d0f 0b3e 0f1e 2bbf
000000f0: 78a5 9b3e 6852 343f 2def 8dbe 0bdd 0ebf
00000100: 355c e4bd 51d9 30be c401 e3bd e39d b7bc
00000110: 0dd9 e03d 846b 333e 5b49 0c3e 7037 1ebe
00000120: 246d e03c e322 123e a0ed ccbd fccf c13d
00000130: dbdd 87bd bdaa 603e 513e 1c3d 01cd 2b3c
00000140: 5db4 48bd 4976 d83d fe72 8cbd 3c3b f43d
00000150: 6d1f bbbc 5d54 babd ee07 1d3e 068a f6bd
00000160: c9a2 d1bd 7c3f 483d 3919 44bd e798 7b3d
00000170: 4dc3 8b3d bf8e edbd 3d51 093e db72 54bd
00000180: c322 0cbd 12e2 83bd 8873 e3bd a8b1 a7bd
00000190: 9625 ec3d 95e2 e1bd 6fb6 6fbd c071 f63c
000001a0: 3398 2cbe 082a 06be 1235 023e 0c30 923d
000001b0: 9594 d1bc 30af ef3d d8ea 263e a976 c23d
000001c0: cc06 2cbe 3181 903b 2a19 02be 8339 6ebc
000001d0: 0d25 aabc 33ae 5bbd 42af e93d b674 e5bd
000001e0: 5dc7 0c3e de9a 1d3e 104e cabc 2a09 af3c
000001f0: df06 51bd 9cde e1bd 74a0 23bd e817 52bc
00000200: 3bfd d43e d8c7 00bf c96d 17bf 81c3 653c
00000210: 1ca4 88bd 8a63 a13e cc02 ddbd d30e 213f
00000220: d1e7 41bf 2d82 0cbe 3709 ef3d 4b43 cabe
00000230: 2cfb b93d 2275 7cbd d837 a13e 528f c93e
00000240: 893a b2be 3ce2 e43e 18a5 06bf b55e 6abe
00000250: a76f db3e fed3 61be a459 8b3c b835 653e
00000260: d089 bd3d 8b28 a73e a707 35be 07b8 bbbe
00000270: 0918 ad3e 2bc2 e23e 538d 01bf 2cae 06be
00000280: c95d c1be e277 12bf ea39 873e 0ad9 dcbe
00000290: 71b4 da3e 0760 c3be 02bd fe3e 2377 c9be
000002a0: bd5a 843d d5ce 0abe 9f21 4b3e eb7f 1dbe
000002b0: fcc1 113f 09c6 24be 43e0 86be bbb9 02bf
000002c0: 453d 993e 0e85 4abe 134e 8dbe 9b27 053f
000002d0: 896d 063f 5d48 063f 642e eebd 23d7 203f
000002e0: 5e2b d3be d69f 953e 8658 41bd ddef 9c3e
000002f0: 9873 69bd 5b47 b5be cba6 493e 99c9 9f3e
-0.094582364 0.78252035 0.56361634 0.30998388 -0.016157119 -0.6379229 -0.0917551 -0.50701475
0.46316785 -0.05615094 0.13282777 0.33490783 0.057655413 0.018872892 -0.5059607 -0.40916333
0.6861954 -0.56809354 0.27173322 -0.07342644 -0.17457573 0.5166285 -0.27761593 -0.09843346
0.030507745 -0.593724 0.24330892 0.23143388 -0.49242157 -0.24585715 0.4833244 0.305704
0.17327641 0.4616084 -0.32510558 0.7271584 -0.29087067 0.6436288 -0.24023457 0.24442919
0.061955802 0.34226388 -0.46314958 0.060886778 -0.30821875 0.052977946 0.21296446 0.5885275
-0.1278987 0.62311256 0.37302876 -0.3627377 -0.5411305 -0.2900251 -0.053048983 -0.43499747
0.27642828 -0.27091828 0.13580103 -0.6684274 0.3039968 0.7043824 -0.2772154 -0.55806035
-0.111503996 -0.172704 -0.11084321 -0.022414153 0.10978899 0.17521483 0.13699858 -0.15450835
0.027395792 0.1427112 -0.10006261 0.09463498 -0.066341124 0.21940131 0.038145367 0.010485888
-0.049000133 0.10569436 -0.068578705 0.119253606 -0.022842133 -0.09098122 0.15335056 -0.12038045
-0.10236127 0.04888867 -0.047875617 0.061425116 0.0682436 -0.11599492 0.13409896 -0.051867347
-0.03421284 -0.06439604 -0.1110602 -0.08188182 0.115306064 -0.11029545 -0.05852359 0.030083537
-0.16854934 -0.13101971 0.12715557 0.071380705 -0.025583545 0.11703336 0.16300523 0.09495289
-0.16799468 0.004409932 -0.12704912 -0.014540079 -0.02076962 -0.053632926 0.11410381 -0.112039015
0.13747926 0.15391108 -0.024695426 0.021366674 -0.051031943 -0.110287875 -0.039947942 -0.0128230825
0.4159945 -0.5030494 -0.59151894 0.014023663 -0.066719264 0.31521255 -0.10791549 0.62913245
-0.7574435 -0.13721533 0.116716795 -0.39504465 0.0908111 -0.061635144 0.31487918 0.39367157
-0.34810284 0.44703853 -0.52595663 -0.2288769 0.4285862 -0.22053525 0.017010517 0.22383773
0.09254801 0.3264812 -0.176787 -0.3666384 0.338074 0.44288763 -0.5060627 -0.13152379
-0.37766865 -0.57214177 0.26411372 -0.43134338 0.4271579 -0.381592 0.49753577 -0.39348707
0.064626195 -0.13555463 0.19837044 -0.15380828 0.5693662 -0.1609117 -0.26342973 -0.5106465
0.29929557 -0.19777319 -0.27598628 0.5201356 0.5251089 0.5245417 -0.11629942 0.6282827
-0.41244024 0.29223508 -0.047203563 0.3065175 -0.056995004 -0.35406002 0.19692533 0.31208494

actor.4.bias f4 [3]
00000000: c24d b5bd d40e 333e fc87 13bd
-0.08852722 0.17486125 -0.036018357

critic.0.weight f4 [64, 5]
00000000: fd5a 003e a39b 98be cf87 3bbe f5bf 6b3b
00000010: 094d 14c0 543b b23e f0c1 82be 7012 9f3e
00000020: 6c91 bebe eb53 553f ad6d 96be bd82 8c3e
00000030: 6bb0 323d a267 3d3e 7ecb a2bf 263d c1be
00000040: ee64 b03e 0aa1 c3be 59bb 1c3e c65a 7b3f
00000050: 1b69 e5bd 850c ba3d 0392 123e 7be7 ec3d
00000060: 6894 0840 893a 51be fd9e a4bd 46ae d63d
00000070: faac 8dbe a89d d8bf 8f8a f83c 18be 65be
00000080: 56c2 fabd f160 813e 542c 093f a9d8 cbbb
00000090: 2d6f 763e 7a79 963e 3047 44be 420a 5b3f
000000a0: a379 afbe 0d7e c83d a62f 8ebe 7239 1e3d
000000b0: 2b7f c8bf 5b6d 54bd 3749 43be b200 103d
000000c0: 7260 8e3e 242e af3f 2458 4dbe 482d a63e
000000d0: c839 79bd 5889 713c bd9c cabf 73ae e03e
000000e0: 4ef6 b1be 67ef d5be 06f3 023e db62 6e3f
000000f0: c320 a13c 46aa e3bd 54d3 88be 101d 1b39
00000100: 3959 ca3b e92c 7e3e 200f 9dbe cf62 a43e
00000110: cb36 a5bc c932 eb3f 9de8 a6be 2951 c4bd
00000120: a0c0 3b3e 58be 643e bc85 0040 717c b7be
00000130: 611e 5e3d 5a3b c2bd 7f12 133e 90f2 89bf
00000140: 4d48 7ebe 8d1d 493e 553e df3d f809 433e
00000150: 082f bfbf 1f9f 02be 9ce1 cf3e 72da 3e3d
00000160: b315 9bbe fea2 c43f 3c43 4abe 145d 783e
00000170: a28a 7fbe 925c e3bd 0406 dbbf 80c6 a2be
00000180: 140d c83e a7bb 833c d96c 903e d0a3 f63f
00000190: 4104 8b3e 71db debd 985c 7fbe ad58 62be
000001a0: 337c 0fbf 3236 213e f1d1 16be 9217 92bd
000001b0: 5d8e 693e e5b5 1240 2d20 1b3e 9673 353e
000001c0: 363b e5be 322d 9e3e 0eec ac3f 9559 8dbd
000001d0: 82cf 813e 50b6 c7be 86ce e6be dd54 ff3f
000001e0: b876 94be 6ae6 af3e dbe6 293e c508 a73c
000001f0: 1499 973f 7e61 fb3e c39e d2be 19ab a23d
00000200: 3744 d1be 2cf3 ea3f 6747 653e ccf5 a7bd
00000210: ffdb ed3e ac0c d4bd 3d3b 6fbf 6aa5 793e
00000220: 6e0f 36be 3da2 1a3d 13c7 e23e aca5 afbf
00000230: 3d9e 973e d6c0 c83d 9d1d 92bb 11df b03d
00000240: 6243 acbf 9baa 213e 27a0 83be be02 2dbe
00000250: 3a85 4cbe 12e8 a43f b991 e93e d395 b2be
00000260: 72c9 df3e a57c e1be 7bf5 22bf 1668 a13b
00000270: 868c 19be 90a5 68bd 95da 703d 9e2e b6bf
00000280: ca01 233e 43d3 813e 167d a33e 742e 6abe
00000290: d6e3 873c c75e b3be b3f0 b93e 0300 6c3e
000002a0: c11a 383e 3e9a 0a40 94de 663e a4eb 853d
000002b0: fe8c f93c b192 d13e b771 19bf a482 853e
000002c0: cb21 713d 8202 91bc 9e80 e7bd 4ab2 973f
000002d0: 62ff e0bd 66ea 92be 1205 de3d 5542 993e
000002e0: bd2d fc3f f8ed 4abb 6663 6f3e 82f8 983e
000002f0: b5b2 aabe 1ea3 2f3e 03c4 a6bd b8ae 52bd
00000300: f1f6 5fbc 6eda d3bc f2a0 fa3f 027f 7f3c
00000310: 5404 8bbe f6f4 dd3d def3 a53d 8048 0140
00000320: 747f 623d 6731 c6bd a049 c93d dcc8 c03e
00000330: 50dc cbbf f4f5 d1bd 7e52 dfbc 83b9 873e
00000340: eb5a a23e 5e79 e33f 6908 8cbe 1f0d 99bd
00000350: 0e25 a6be b6ab 023e 0d9b d93f 4c6e 3f3b
00000360: 9b07 a33a 60f7 643d e1ba c8be 7560 ac3f
00000370: 189a 733e 5229 113e 9fc7 d9bd 03f3 9a3e
00000380: 582d 733f c3ac 6abe eb4a 043e d4d8 44be
00000390: 3288 6dbd a0b8 edbf fa00 4abe a2b3 a23d
000003a0: 7ecc a4be f43e d93e 48f6 babf a0dc 31be
000003b0: 6d3c 293e 3bd6 07be b666 8d3e acb0 803f
000003c0: e108 9b3e 0d11 13bd 5678 4dbe 435b 143a
000003d0: fe69 13c0 bb61 28be 5532 543e b169 b03d
000003e0: dff1 89be 88c7 af3f a11f 633c 65a0 83bd
000003f0: 0aca acbc 557e 45be 71e7 a53f a004 94bd
0.1253471 -0.2980624 -0.18313526 0.003597257 -2.3172019 0.3481089 -0.25538588 0.31068754
-0.37220323 0.83331174 -0.2938055 0.27443495 0.043625277 0.18496564 -1.2718351 -0.37741965
0.34452003 -0.382088 0.15305842 0.98185384 -0.11201688 0.09084419 0.14313512 0.11567589
2.134058 -0.20432486 -0.08038137 0.10482459 -0.27671033 -1.6923113 0.030339507 -0.22435796
-0.12244098 0.25269273 0.53583264 -0.0062208963 0.24065848 0.29389554 -0.19167781 0.8556253
-0.3427249 0.09789667 -0.27770728 0.038629003 -1.5663809 -0.051862102 -0.19070898 0.035156913
0.27807957 1.3685956 -0.20053154 0.32456422 -0.06084612 0.014742218 -1.5829083 0.43883094
-0.34758228 -0.41784212 0.12788019 0.9311959 0.019668942 -0.111164615 -0.2672373 0.00014792779
0.006175187 0.2482182 -0.30675602 0.32106635 -0.020167729 1.8374873 -0.32599345 -0.095857926
0.183352 0.22338235 2.0081625 -0.3583713 0.05422819 -0.09483977 0.14362524 -1.0777149
-0.24832268 0.19640179 0.10900561 0.19046772 -1.4936228 -0.12756012 0.40601814 0.046595044
-0.30289993 1.5362241 -0.1975221 0.24254256 -0.24955228 -0.11101641 -1.7111211 -0.31792068
0.39072478 0.01608069 0.28208044 1.9268742 0.27151683 -0.10881699 -0.24937665 -0.2210414
-0.5604889 0.1574333 -0.14728524 -0.07133402 0.22808214 2.292352 0.15148993 0.17719874
-0.44771737 0.30893856 1.3509538 -0.06901852 0.25353628 -0.3900628 -0.4507944 1.9947773
-0.28996825 0.3435548 0.1659197 0.020389924 1.1843591 0.49097818 -0.4113675 0.079427905
-0.40872356 1.835546 0.22390519 -0.08201179 0.46456906 -0.103539795 -0.93449765 0.24379507
-0.17779323 0.03775238 0.44292507 -1.3722434 0.29612914 0.098024055 -0.0044590966 0.086362965
-1.3458064 0.15787737 -0.25708124 -0.16895577 -0.19972697 1.2883322 0.4561899 -0.34879932
0.43708378 -0.4404041 -0.63655823 0.004925738 -0.14995012 -0.056798518 0.058802206 -1.4232976
0.15918651 0.25356492 0.3193137 -0.22869283 0.016588133 -0.35033247 0.3631645 0.2304688
0.17978956 2.1656642 0.22545844 0.065390855 0.030462738 0.4093223 -0.5993914 0.26076233
0.058870118 -0.017701391 -0.11303829 1.1851285 -0.109862104 -0.28694457 0.10840811 0.2993342
1.9701458 -0.0030964594 0.23377761 0.29877096 -0.33339468 0.17152068 -0.08142855 -0.051436156
-0.013669715 -0.025860991 1.9580367 0.015594246 -0.2715174 0.10837738 0.081031546 2.02005
0.05529733 -0.096773915 0.09828496 0.37653244 -1.5926609 -0.1025199 -0.027261015 0.26508722
0.3170999 1.7771413 -0.27350166 -0.07473206 -0.32450145 0.12760815 1.7000443 0.002921003
0.001243818 0.055899978 -0.39205077 1.3466936 0.23789251 0.14175919 -0.10633778 0.30263528
0.94991064 -0.22917466 0.12919204 -0.19223338 -0.057991214 -1.8571968 -0.19726935 0.079444185
-0.32187265 0.42430842 -1.4606409 -0.17369318 0.16526957 -0.13265316 0.27617425 1.0053916
0.30280212 -0.035904933 -0.20065436 0.0005659351 -2.3033442 -0.16443531 0.20722325 0.08613909
-0.26942345 1.3732767 0.013862521 -0.06427077 -0.021092433 -0.19286473 1.2961255 -0.07227445

critic.0.bias f4 [64]
00000000: 7017 e23e caf4 8dbe b047 773e 4809 8a3e
00000010: d107 aebe 6d0d 23be 8c8b a4be 5431 8ebe
00000020: 1445 b13e 2ec1 9e3e 589c 793e 94b7 853d
00000030: 03d9 983d 9300 e0be 32fa 06bd e307 9a3e
00000040: 089e 71be b179 423e 66d9 b33e 8c9c 14bd
00000050: 4af7 ffbe e65e 16be c796 81be cda8 253e
00000060: 7e53 9e3e c9a8 aabe 110b 27be f33e 71bd
00000070: 8265 68be 852d e4bd 101a cc3e 2d88 b33c
00000080: cc1c 063e 71ba afbe 647a 8b3e 5ea1 a4be
00000090: 2719 313a 7e10 a63e 48f9 d33d 7734 b03d
000000a0: 5726 78be 27dd aebe 1642 10be 6fe6 76be
000000b0: b56e 863c aa51 943e 01f7 df3e 4a46 f73d
000000c0: d91c 863e 7a72 9ebe 365e ca3e 806c 4cbe
000000d0: 86d5 ab3e 2e3c ba3d a065 1ebc 3db1 5abe
000000e0: 0e9a 863e 8c41 c5be 81c5 813b 9aba d7bd
000000f0: f198 8fbc 52f7 87bd 8465 8b3d e33b 413d
0.44158506 -0.27725822 0.2414844 0.26960206 -0.33990338 -0.1592309 -0.32137716 -0.2777201
0.34623015 0.3100676 0.24376047 0.065291554 0.07463267 -0.43750438 -0.03295345 0.30084142
-0.2359544 0.18991734 0.351268 -0.036282107 -0.49993354 -0.14684638 -0.25310346 0.16177674
0.30923074 -0.33331898 -0.16312815 -0.058897924 -0.22694972 -0.11141495 0.39863634 0.02191552
0.13096923 -0.3432193 0.27241814 -0.32154363 0.0006755762 0.32434458 0.10350281 0.08603757
-0.24233375 -0.341531 -0.1408771 -0.24111341 0.016410211 0.28968555 0.43743137 0.120739534
0.26193884 -0.30946714 0.39525002 -0.19963264 0.33561343 0.090935096 -0.009667784 -0.21356674
0.2628941 -0.3852657 0.003960312 -0.10533638 -0.017528983 -0.066389695 0.06806472 0.047176253

critic.2.weight f4 [64, 64]
00000000: 51ac acbd 087b 223d 162b babd d88d 73bd
00000010: 5579 2bbd 66f1 9fbc 3cbb bbbd 1411 20bd
00000020: 3194 a43d ca21 08bd e113 e2bd 088f 81bd
00000030: 345c 773d a5bd 56bd 74ad aabd e91d 0c3e
00000040: 65e3 b7bd d6a0 cfbd 23c8 b13d e54c 803c
00000050: 3626 a43c 331e 04bd d283 59bd 4ff3 d03c
00000060: 7bd8 9cbd 20ce 7e3d acb2 f1bc 8165 ccbc
00000070: d3e4 bebd d09b 51bd b538 d5bd 500f 00bd
00000080: d7ec debc 6e29 df3d ae54 933d 8d68 d33d
00000090: 3408 523d 7c9f 873d e9f0 d1bd 068d aebd
000000a0: 3857 2b3d 29ba 3fbc e647 0cbe 6e12 dd3d
000000b0: 1546 b23d 9575 263c 6fc1 bbbd 54db 95bd
000000c0: 5c54 c63c 1f24 d03d e0b4 bb3c 35d5 7fbd
000000d0: 6444 b53d 3e05 f6b9 cdd6 27bd f8d1 c9bd
000000e0: 9ad6 f1bd 8086 a1bd 6f9b fd3d fb25 00be
000000f0: 66c3 cbbd 5bbb bdbc 7bce 83bd 6d2a be3c
00000100: bd3a 193b 9f67 8f3d cc17 62bd 8485 aa3d
00000110: d6d3 03be 6317 a23c a471 3a3c 4627 7c3d
00000120: e8e6 3fbd c337 dd3c abdd bf3c 15dd 003d
00000130: 4cb7 b4bd de6a edbc e5b0 fdbc 9ded bd3c
00000140: a7b7 be3d 4c24 7e3d 44b9 803d 33e8 713d
00000150: 1e5f 82bd 48da af3a d89f 613c 606a 16be
00000160: 39a6 1e3e 75e7 373c a38b 963d 1d9e ef3d
00000170: 4941 39bd 6b85 cc3c 5d6d acbd b313 943d
00000180: 700f c6bd 46f0 03be c8ed fb3c 62ba acbb
00000190: c509 debc f3ba 7f3c a313 cb3c fb5e ce3d
000001a0: 8895 a6bc 7715 e0bb ee44 d33d 35aa b93c
000001b0: b28a 7d3c be3b dfbd ee66 d73d 07ba 933d
000001c0: fb14 2e3c 2461 90bd 3f14 5fbd 16ea 983d
000001d0: dd7e 1f3d fd5a 963c 25b6 6d3d 8f7f 033c
000001e0: a5bb 66ba 7b64 cf3d 7242 ac3d 8b3a 82bd
000001f0: eb6b 953c 509e fd3d 9f1e 43bd 0444 1ebe
00000200: 058b c8bd 59a0 433d 5af2 06be b46e 793e
00000210: f54f 503e 1d5b 83be 1adc fcbd be26 41bd
00000220: 9c1b 53be 1285 fc3d 4b7d 2cbe 42d8 023e
00000230: 5971 a43d cabf fa3d 8f30 0a3e 8289 a13c
00000240: 8dd2 8dbe db02 a73d d4a3 09be 4226 b93e
00000250: d592 11bd 5cb0 a63e 4c85 0e3e 1036 773d
00000260: e580 453e 5159 543c 8358 5fbe 7a12 16be
00000270: 8957 aebd b3a4 013e 7931 f23d de25 a2be
00000280: 7cad 003e c7ea 803e fd2e d43c 9675 023e
00000290: 00e7 693e b8c3 d83d 0c89 813e e803 753e
000002a0: 4f3a 37be 9a68 bf3c 593f 023e 475e 803d
000002b0: e295 16bc 6088 86be 2cb2 38be d943 2d3e
000002c0: e71b 6bbe 09a8 0d3d 097c 803e 60f0 7b3e
000002d0: abdf 79be 141a c7bd c128 ea3c 2194 d93d
000002e0: a3d3 b5bb 57fd 923e c3d9 b33d a766 a33e
000002f0: e266 73be 6c22 973e a8e9 02be ac87 21bf
00000300: b47f 79bd b10d 433d c95b d63d 83e7 64bd
00000310: 98e4 15be 0c82 eb3c 3d1a d9bd cdd3 02bd
00000320: a4e5 e53d 43bd c43c ccce af3d 9813 953d
00000330: 7246 1ebd ce38 31bd d3d2 b13c f2d7 84bd
00000340: 318e 04be 63ad d43d f5d8 bc3d fddb b9bd
00000350: 460c 8b3d f4a5 c7bc d7f7 c4bd 52a0 053e
00000360: 65a7 f93d 45fb 12be 40e3 9ebd 049f e6bd
00000370: 5bb2 533d 1677 08bd 9012 313e b508 cc3d
00000380: 2fb2 fd3c 74b1 1d3c ad4a 163e 94b2 cfbd
00000390: 7f23 983d 8a56 bb3d 0f2e b8bd c970 c1bc
000003a0: 3a4e d6bd 53a3 6cbd ee5a bcbd a43f 08bc
000003b0: 0467 0e3d c1c8 113e a784 9abd bea3 50bd
000003c0: c505 82bc 00f5 f6bd 876d bb3d a134 f7bd
000003d0: 61f0 233e e643 dd3c f875 76bd 5c2a 143d
000003e0: 6611 473d a0d9 8e3c 0a04 67bd 805c 02be
000003f0: 8766 ad3c 41ac 883d fcb1 10bd 70fb 7f3b
-0.08431304 0.039668113 -0.09090249 -0.059461445 -0.041863758 -0.019524287 -0.091665715 -0.039078787
0.08036078 -0.03323535 -0.11038948 -0.06326109 0.060390666 -0.052426953 -0.08333865 0.13683285
-0.08978919 -0.10138099 0.08680751 0.015661666 0.020037752 -0.032255363 -0.05310423 0.025506644
-0.07658478 0.062208295 -0.029504143 -0.024950745 -0.093209885 -0.051173985 -0.10411207 -0.031264603
-0.027212543 0.10896574 0.07193886 0.10322676 0.051277354 0.06622216 -0.10251028 -0.08522992
0.041831225 -0.011702099 -0.13699302 0.10794531 0.08704773 0.01015987 -0.09167754 -0.07317224
0.024210148 0.101631396 0.022913396 -0.06245919 0.08850935 -0.00046924682 -0.040976334 -0.098545015
-0.1180851 -0.07886982 0.12383162 -0.12514488 -0.09949379 -0.023160627 -0.064358674 0.02321359
0.0023380958 0.07002186 -0.055198476 0.08326247 -0.12873778 0.019786542 0.011379633 0.06156089
-0.04685107 0.027004128 0.02342113 0.03146084 -0.088240236 -0.028981622 -0.030968139 0.023184592
0.09312373 0.062046334 0.062853366 0.059059333 -0.063657984 0.0013416493 0.01377102 -0.14689016
0.15493096 0.011224617 0.07350852 0.117000796 -0.045228276 0.024965962 -0.08419297 0.0723032
-0.09670913 -0.12884626 0.030753031 -0.005271242 -0.027104268 0.015608537 0.024789637 0.1007671
-0.020334974 -0.0068384963 0.10315882 0.022664169 0.015474962 -0.10900067 0.10517679 0.07213216
0.010625119 -0.07049778 -0.054462668 0.07466523 0.038939346 0.018353933 0.058035035 0.008026018
-0.0008801765 0.10126587 0.08411111 -0.063588224 0.018239936 0.12383711 -0.047636624 -0.15455633
-0.09792141 0.04776034 -0.13178387 0.24358636 0.20343001 -0.2565545 -0.123466685 -0.047156088
-0.20616001 0.12330069 -0.1684467 0.12777808 0.08029432 0.12243612 0.13495086 0.01971889
-0.276997 0.081548415 -0.13441402 0.36162 -0.03554042 0.32556427 0.13918036 0.060354292
0.1928745 0.012960748 -0.21811108 -0.14655486 -0.0851279 0.12660484 0.118258424 -0.31669515
0.12566179 0.2517912 0.025901312 0.12740168 0.22842026 0.105842054 0.2529987 0.23927271
-0.17893337 0.023365308 0.12719478 0.06267982 -0.009191008 -0.2627592 -0.18036717 0.16920413
-0.22959863 0.03458408 0.2509463 0.24603415 -0.24401729 -0.09721771 0.028583886 0.106239565
-0.0055489107 0.28708908 0.08781769 0.31914255 -0.23769715 0.2951845 -0.12784445 -0.63097644
-0.060912803 0.04762048 0.104667254 -0.05588485 -0.14637983 0.028748535 -0.10600708 -0.03194027
0.11225441 0.024016028 0.08584365 0.07279128 -0.0386414 -0.043267064 0.021706974 -0.06486501
-0.12944867 0.103846334 0.09221069 -0.090751626 0.0678945 -0.024371125 -0.09617584 0.13049439
0.12190131 -0.14353664 -0.07758188 -0.112607986 0.051683765 -0.033316694 0.17292237 0.09962598
0.030968754 0.009624828 0.14676924 -0.10141483 0.07428645 0.091473654 -0.0899316 -0.02361335
-0.10464139 -0.057772946 -0.09197031 -0.008315954 0.034766212 0.14236738 -0.07544833 -0.050937407
-0.015871892 -0.12058449 0.0915175 -0.12070585 0.16009666 0.027009916 -0.060171098 0.03617321
0.048600577 0.017437756 -0.056400336 -0.12730598 0.021167053 0.0667348 -0.03532599 0.003905978

critic.2.bias f4 [64]
00000000: 2698 f33c 1942 67bd f038 293e 92b2 813e
00000010: 2f2f 85bc 0b35 123b f22e afbd 3669 5fbe
00000020: 709b 173d 618f dd3d 3242 b0bd 976e 8cbd
00000030: 5205 993d 821d 00bc 0c16 b1bc 3e00 833e
00000040: 293d 503d 0b7d cc3d 894f ce3d c3b7 c73c
00000050: 6441 58bd 98b9 6bbd 25b7 70bd 4455 003d
00000060: c4ec 0f3d 7724 b9bd 5cd8 47bd bcaf 8f3e
00000070: 8d1b 153e 8425 8f3e eeb0 a4bd c31b 34bd
00000080: 9342 9a3d dfb8 43bc 6737 bb3d 04d6 3b3d
00000090: 9715 6abb 3ec1 833d 389f 50bd 466b 773e
000000a0: 7244 c23d a082 703c 3426 723d 2903 a7bd
000000b0: ab29 29be 610b c2bd b72e 9fbc ea27 71bc
000000c0: 80e3 26bc 6fa5 733c 5328 1bbd e8c0 85bd
000000d0: e7ed 943c aa62 52be 6243 c73d f9c0 353c
000000e0: 023f 8abc 15ab ae3d 2eb6 4abd b85c c9bd
000000f0: 7065 70bd 2690 7bbd e40d 2d3e 2712 eb3c
0.029735636 -0.05645952 0.16525626 0.2533155 -0.01625785 0.0022309448 -0.08553876 -0.21817479
0.03701347 0.10818363 -0.08606376 -0.06857031 0.07471718 -0.007819535 -0.021616958 0.25586122
0.050839577 0.099847876 0.10073764 0.024379617 -0.052796736 -0.057550043 -0.05876841 0.031331316
0.035137907 -0.09040158 -0.04879032 0.28063762 0.14561291 0.2795831 -0.08041559 -0.04397179
0.07532229 -0.011945932 0.091414265 0.045858398 -0.0035718435 0.064333424 -0.050933093 0.24162015
0.09485711 0.014679581 0.059118465 -0.081548996 -0.16519801 -0.094748266 -0.019431455 -0.014718989
-0.010186076 0.014870985 -0.037880253 -0.065309346 0.018179847 -0.2054545 0.09729649 0.011093372
-0.016875748 0.08528725 -0.049490146 -0.09832138 -0.05869049 -0.061416768 0.1689983 0.02869518

critic.4.weight f4 [1, 64]
00000000: 3471 a9bb 3ffd c63b 3cad 3a3e 7211 8abd
00000010: 54ed d73b 5bc3 003f e656 d13b 0765 de3c
00000020: 5a6c 1cbb 4708 723b 56d5 6c3b e0a9 67ba
00000030: 5c6f 15bc d2fb bcba f820 37bb b001 7abd
00000040: 44da 1b3c 69a8 023b 5cf0 073b d88b 81bb
00000050: d51d c63b 2bcf a3ba 137b 11bd 8619 ea3d
00000060: 72ea c8bc 7d80 2dbd 7a5b 653e bc12 ebbd
00000070: fb10 83bd b693 9abd e789 ccba 1e7b a4bb
00000080: e38d 48bb 1004 2c3d aff2 463a cb32 ff3a
00000090: 5e02 5bbb 4d2f b23b 326a 28bc e62a 79bd
000000a0: 8693 f3bb a42c 1d3b d118 9c3b a353 783b
000000b0: a331 443d df44 f7ba b25a 39ba 49b6 c63c
000000c0: cfc1 17be d035 0a3c 0d8d 8fba b436 74ba
000000d0: b6e6 ec3c 7939 9e3d d24a f13a 37bf 9dbb
000000e0: 8792 db3d 3a7f 96bd cc08 b93b 3c77 203c
000000f0: 575e d7bb a85f 93bb fbb0 76bd 82ea d2ba
-0.0051709656 0.0060726698 0.18230146 -0.06741609 0.006589571 0.5029809 0.006388533 0.027147783
-0.0023868294 0.0036931203 0.00361379 -0.0008837264 -0.009120788 -0.001441831 -0.0027943235 -0.061036766
0.009512488 0.0019936806 0.002074263 -0.0039534383 0.0060460367 -0.0012497654 -0.035517763 0.114306495
-0.024525855 -0.042358864 0.22398177 -0.11478183 -0.06399723 -0.07547705 -0.0015605063 -0.0050195595
-0.003060215 0.04199606 0.0007589263 0.0019470094 -0.003341816 0.0054377676 -0.010279225 -0.060831927
-0.0074333576 0.0023982907 0.0047637005 0.0037891648 0.0478989 -0.001886513 -0.00070707046 0.024256842
-0.14820026 0.008435681 -0.0010952071 -0.0009316013 0.028918605 0.07725806 0.0018409139 -0.0048140544
0.10721307 -0.07348485 0.0056468006 0.009794053 -0.0065725255 -0.004497487 -0.060227375 -0.0016091617
