trained/SimplePong/PPO_sparse_1728829172.1277993.pth (torch, 42194 bytes, 11 tensors)

actor.0.weight f4 [64, 5]
000000 40 64 8f be b8 fd 88 3e 94 8f 7e be 2f 90 0f be
       -0.28006172 0.26756072 -0.24859458 -0.14019845
000010 28 58 ec 3d 91 78 b4 bc c9 82 fb bd 8a 6c e9 3e
       0.11540252 -0.022030147 -0.12280805 0.4559062
000020 e6 b6 1c bf d4 1c a9 3e a4 e8 07 3f c3 3d cd be
       -0.6121658 0.33029807 0.53089356 -0.40086183
000030 38 f1 da 3e b9 b6 a7 bd d4 05 6c 3e 72 96 ef 3d
       0.4276216 -0.081891485 0.23049098 0.11698617
000040 72 f5 89 3e 92 be fd be 18 34 3b 3d 74 6a 05 3f
       0.26945072 -0.49559456 0.045703977 0.5211556
000050 14 51 b4 be 4c 92 48 3e a9 f8 57 3d 1f 2c d3 bc
       -0.35218108 0.19587058 0.052727375 -0.025777875
000060 e7 ef 47 3e 4c 99 1f be d9 62 b3 3d 92 1a 1f 3d
       0.19525109 -0.15585822 0.08759088 0.0388437
000070 45 01 c9 bd 86 fa 1f 3d c0 34 0f 3f 3a ee f1 be
       -0.09814695 0.039057277 0.55939865 -0.47252065
000080 69 ce 18 be a3 7b ba 3d 18 26 92 be 66 a8 88 3e
       -0.14922489 0.09105613 -0.28544688 0.26690978
000090 f7 fe 5d be 6a 0e ac bd c4 7c dd be 3a 2f 09 be
       -0.21679293 -0.08401187 -0.4325925 -0.13396922
0000a0 89 12 f5 3c 8a 9e 57 3d 4d eb 4e 3e 0f a2 08 bf
       0.029916065 0.05264143 0.20206948 -0.5337228
0000b0 20 96 ad 3e c1 f1 fa 3e 1d 3e ac be e6 23 b6 3c
       0.339036 0.4901257 -0.3364114 0.022233915
0000c0 78 78 2e bf c3 ce 93 3e a4 69 27 be e1 c3 c1 be
       -0.6815257 0.28868684 -0.16348892 -0.37844756
0000d0 aa ad 8a be c2 b4 cc bc dd f7 c0 be ea 9e 06 bf
       -0.2708562 -0.024988536 -0.37689105 -0.52586234
0000e0 62 b0 a9 3e 97 47 c6 bc 19 98 8d 3e 7e f9 aa 3c
       0.33142382 -0.024204059 0.27655104 0.02087092
0000f0 1b 2e 06 bf 2d 03 ef 3e 0d 30 b9 be 55 49 04 bd
       -0.524141 0.4668211 -0.36169472 -0.032296497
000100 1b 52 49 be 6d 1d 8c be 1f 99 e4 3d 4b 35 7c be
       -0.19660227 -0.273662 0.11162018 -0.24629705
000110 ca 55 ed 3e 23 27 53 3e ce 5c 0a bf 8c 9a 12 3e
       0.46354514 0.20620398 -0.5404786 0.14316767
000120 71 4c bd be 63 53 1c 3f 01 ca 0c 3f e2 97 90 bd
       -0.36972383 0.6106474 0.54995733 -0.07060219
000130 29 e8 91 3e ba ad 3d be 4d 8d e5 3d 6b 75 25 3d
       0.28497437 -0.18523303 0.112085916 0.04039518
000140 01 93 93 3e a9 bc c6 be 9d 91 48 be 6b 3d 88 3d
       0.28823093 -0.3881581 -0.19586797 0.066523395
000150 ba 92 93 be a6 b0 5b be 5b d1 91 3c dd 38 0f be
       -0.2882288 -0.21454105 0.017800024 -0.13986535
000160 d1 7c 03 3e 21 13 00 3d ed 8c 77 3e d6 82 b6 be
       0.12840582 0.031268243 0.24174853 -0.35646695
000170 14 f4 ce 3d 92 3e c0 be 40 65 98 3c 6d af 67 3e
       0.10105148 -0.37547737 0.018602967 0.22625513
000180 08 f4 be be bb 1d 65 be d3 35 cb be 65 23 f5 be
       -0.37295556 -0.22374623 -0.39689502 -0.47878566
000190 18 ab a6 3d 6d e4 51 3e cb 80 22 be cf bd 2e 3e
       0.08138102 0.20497294 -0.15869443 0.17064594
0001a0 5e a6 68 be cf 5d 86 be 59 98 ba 3c db cb a0 bb
       -0.22719714 -0.26243445 0.022777723 -0.004907114
0001b0 ef 57 34 3f 79 f7 a8 3e 65 13 3b be 7c 96 05 bf
       0.70446676 0.33001307 -0.18269117 -0.52182746
0001c0 a4 32 e4 3d 3b 98 5c be 7f a8 d5 3d 60 8f ef 3e
       0.111424714 -0.21542446 0.10432529 0.46789074
0001d0 6a e0 76 3d 26 c4 59 be 69 96 d5 3d a6 d8 ef be
       0.06027261 -0.21266231 0.10429079 -0.46844977
0001e0 a7 db 12 3d 0a 29 03 be a1 a4 2a 3d 1a 19 32 3e
       0.035854008 -0.12808624 0.04166091 0.17392388
0001f0 62 97 1e bf 92 dc 02 3f 1d 1f f3 be eb bd 43 3c
       -0.6194974 0.51117814 -0.47484675 0.011947135
000200 7e a6 60 bd ed 67 ff 3d 2e 91 9e 3e 7c 80 05 bf
       -0.05484628 0.12470994 0.30970138 -0.52149177
000210 ba cc 76 be f1 13 13 bf eb 57 a3 3e 35 8e 88 be
       -0.24101534 -0.57452303 0.31903014 -0.26670995
000220 62 7e ec 3e c9 0d 6f be 1c 27 5c be 82 ef 29 3e
       0.46190172 -0.23345102 -0.21499294 0.16595271
000230 fe 74 80 3d 39 2f 70 3e 02 ea 8b be 4d 2c 12 3f
       0.062723145 0.23455514 -0.2732697 0.5709885
000240 7e 57 36 be d2 4d 4f be 52 33 ba 3e 22 b7 b7 be
       -0.17806813 -0.2024453 0.3636728 -0.35881907
000250 8c d0 f0 bd 15 cf c6 3e ad 0c 92 3d 8b 89 80 3d
       -0.11758527 0.38829866 0.07131324 0.06276234
000260 3e db 95 3e 7c c2 eb bd 61 3f 05 3f 04 0f 00 bf
       0.2926883 -0.11511704 0.52049834 -0.5002291
000270 56 3c a7 3e 0d d4 23 be c9 82 2b 3f e1 46 ab 3e
       0.3266322 -0.1599886 0.6699644 0.33452514
000280 4b 69 a7 be aa 38 cc 3e d3 33 21 3e 2d 0a 39 3f
       -0.3269752 0.3988698 0.15742426 0.7228115
000290 a4 bb a1 3e a0 99 06 bf 94 b9 b2 3e 8e be c0 3d
       0.3158847 -0.52578163 0.3490721 0.094113454
0002a0 83 37 22 3f 50 90 11 38 6d e5 ea 3e 5e 6c b6 be
       0.63365954 3.4705095e-05 0.45878163 -0.35629553
0002b0 93 49 32 be 1e 1a bf be 91 0e e7 be 9f 71 d3 3b
       -0.17410879 -0.37324613 -0.451283 0.0064527537
0002c0 7a a4 8a be 4e 6e a2 3d 46 34 44 bf 96 11 1c be
       -0.2707861 0.07931195 -0.7664226 -0.15241084
0002d0 8f d8 c4 3d 0a e9 e7 be 58 4f 45 bd b3 e4 44 bd
       0.09611618 -0.45294982 -0.04817137 -0.048069667
0002e0 c2 cb 82 3e 3f 42 44 3e 6c a0 d0 3e 16 fd b2 be
       0.2554608 0.19165896 0.40747392 -0.34958714
0002f0 7b d2 98 3e b9 91 da 3e b9 1d ab 3e 1e ca 1c be
       0.29848084 0.42689303 0.33421114 -0.15311477
000300 60 1a ce bd 89 02 08 bf 06 6a 08 3e c0 8d 01 3f
       -0.100636244 -0.5312887 0.13321695 0.5060692
000310 15 f2 84 3d 41 ba ea 3e e0 93 21 3e f3 01 dd bd
       0.06491486 0.45845225 0.15779066 -0.107913874
000320 fc b6 26 be d0 3a c3 be f4 8f bc 3e 62 3d 08 bd
       -0.1628074 -0.38130808 0.36828578 -0.033261664
000330 c0 93 90 be 2e 6a fb 3e 13 3b 06 bf fe a4 a2 3e
       -0.28237724 0.49104446 -0.5243389 0.31766504
000340 09 38 87 3d 0c 7a 83 be 83 45 9f 3e a9 bb cc be
       0.06602485 -0.25679052 0.3110772 -0.39986923
000350 fd 7e e7 3d f8 d0 42 be 0b da c5 3c 98 87 9f be
       0.11303518 -0.19025028 0.024151823 -0.31158137
000360 e2 67 90 3e 86 cc 6f bd d5 1d 23 be 9b 5b 37 3d
       0.28204256 -0.058544658 -0.15929349 0.044765096
000370 e8 39 dc 3e 90 2f 0f bf 82 fd c0 3b 93 7b b5 be
       0.4301293 -0.5593195 0.0058895955 -0.35445842
000380 2a 84 7b 3e 4a bd c3 be 07 3e ed 3e 8f 51 9f be
       0.24562135 -0.38230354 0.46336386 -0.31116912
000390 0a fb fc 3e df 8b 96 3e 0f e0 32 be 3a a7 d9 3e
       0.49410278 0.29403588 -0.17468284 0.42510396
0003a0 95 1b e5 3d 00 71 ea 3e 45 f6 79 3e ef aa 81 3e
       0.111869015 0.45789337 0.2441035 0.25325724
0003b0 b8 a6 05 bf 63 8e 31 be 21 2c 9e be 0f 3a 90 be
       -0.5220752 -0.17339472 -0.30893043 -0.28169295
0003c0 35 6b 6a bd be e0 c6 3e 4c d9 8d be 2c 4d 20 be
       -0.057231147 0.3884334 -0.27704847 -0.15654439
0003d0 29 3a e9 3e cd ec 57 be d4 fb bd be 44 e9 60 be
       0.45552185 -0.21086426 -0.37106192 -0.21963984
0003e0 a5 13 e6 be be 02 fb be 67 00 6c bd 5c 2c b4 3d
       -0.44936863 -0.4902553 -0.05761757 0.087975234
0003f0 d0 28 c9 3e 72 67 bb be 4e 75 fd 3e a8 2c 26 3d
       0.3928895 -0.3660236 0.4950356 0.04056993

actor.0.bias f4 [64]
000000 6e 10 36 3e ef 69 a8 bd 1d 99 dd be cd 76 a5 3e
       0.17779705 -0.0822333 -0.4328088 0.323172
000010 22 0e a6 3e 40 cd 7e 3e b3 e3 c9 be 1b 03 d5 3d
       0.32432657 0.24882984 -0.39431533 0.10400983
000020 9b 5f 12 be e5 20 f1 bd 34 61 82 3c df f3 bd 3e
       -0.14294283 -0.11773852 0.01591549 0.3710012
000030 73 82 30 3e a1 1b 99 3d cd 69 d3 3e c5 bf 00 be
       0.17237262 0.07475973 0.41291657 -0.12573154
000040 48 07 53 be 56 cf 37 3e 4a b7 cd 3d 80 ea 27 3e
       -0.20608246 0.17950186 0.10044725 0.16398048
000050 dc 8d c2 bd 00 7e 0e 3e bd 11 98 3e 3d 72 84 be
       -0.09499714 0.13915253 0.29701033 -0.25868407
000060 73 98 bd bd dc 89 0d be 4b 91 36 3e 0f 27 32 be
       -0.09257593 -0.1382212 0.17828862 -0.17397712
000070 fe a9 4a 3e f8 fa a4 3e 20 ac 27 be d6 db 0e 3e
       0.1979141 0.32222724 -0.16374254 0.13951048
000080 eb fb 0b be 04 a0 b4 3e 79 5b 35 3e f9 e4 d3 3d
       -0.13670318 0.35278332 0.17710675 0.103464074
000090 7f 0f d8 bc 03 56 61 be df 7b ab be f8 fd eb be
       -0.026374577 -0.22005467 -0.33492944 -0.460922
0000a0 6c 9b 1f bd 24 5a e9 bd 23 d2 da bd 15 ed 16 3d
       -0.03896658 -0.11394146 -0.10684612 0.036847193
0000b0 d3 0d 3e 3d 56 56 8b 3d 2e f3 62 be f0 a0 55 3e
       0.046399903 0.06803577 -0.22163078 0.20862174
0000c0 a3 d3 a8 bd 05 13 e7 3d b2 b4 3f be 75 9a 4f 3e
       -0.082434915 0.112829246 -0.18721274 0.20273764
0000d0 8f 97 e6 3d a8 c8 71 be df 9f 9c 3d ad c5 d1 3d
       0.11259376 -0.236117 0.076476805 0.10242782
0000e0 c7 17 8f 3e 33 41 e4 3d 26 d7 9d bd a4 24 ab 3e
       0.27947828 0.11145248 -0.07707052 0.33426392
0000f0 f5 c6 12 3e ed bb 22 be c0 39 b9 3d be 63 36 be
       0.14333709 -0.15892 0.09044218 -0.17811486

actor.2.weight f4 [64, 64]
000000 9b 96 87 be c6 bc 2d 3e 6d d7 d5 3e c4 3d aa bd
       -0.2648209 0.16966543 0.4176592 -0.08312562
000010 7e 8b f7 3b b3 b6 bc bd 09 70 3e 3b d8 c4 3e bd
       0.0075544706 -0.092145346 0.0029058477 -0.046574444
000020 73 a7 ee 3d d6 13 f9 3e 66 32 b6 3d 5b 1f f9 bd
       0.11653032 0.48647946 0.088963315 -0.12164184
000030 b0 9c d6 be 6b b2 c3 bd eb 1d 43 be 25 94 85 3d
       -0.41916418 -0.09555515 -0.19054382 0.06522397
000040 03 4e fd 3d 2a 18 1a be d3 6e 61 3e b7 2f 35 3e
       0.12368395 -0.1504828 0.22014932 0.17693983
000050 64 38 b8 3d 7a cf 12 be 23 ee 11 3c 68 b2 03 bb
       0.08995131 -0.14336959 0.008906874 -0.0020095352
000060 29 56 da 3c a3 88 57 3e 2e 6f 87 3d de bd b0 bd
       0.026652412 0.21048217 0.06613003 -0.08629964
000070 92 93 64 bd 2c 9e 0b be d5 a0 20 3e 90 cc 92 be
       -0.055804797 -0.13634557 0.15686353 -0.28671694
000080 40 58 c4 be f8 2b 34 bd 87 96 dc 3d db d6 bb 3d
       -0.3834858 -0.043987244 0.10770898 0.0917184
000090 6f 2c b7 bd 82 9b 84 bc 84 0f e9 3c 2d 66 44 3e
       -0.08944022 -0.016187433 0.028449781 0.19179602
0000a0 3c 52 0a 3c 6c 3e d0 3e bc 85 7e 3e 64 8e 3b bd
       0.008442458 0.40672624 0.24855703 -0.04579009
0000b0 da 9d f8 3e 15 ae 9f be 96 c2 44 be e0 3b 48 3e
       0.4855793 -0.31187502 -0.19214854 0.1955409
0000c0 30 7e 71 bd 81 dc 8b 3d 7b 9a 2e 3e f6 9a 0c 3e
       -0.058958232 0.06829167 0.17051117 0.13730988
0000d0 34 e2 59 be 5b d0 8c 3d 77 0c cb bd eb a7 0b 3d
       -0.21277696 0.06875678 -0.09914487 0.034095686
0000e0 25 7e 6d 3d bc 9b cd bd 67 a9 a5 bd 35 57 87 be
       0.05798163 -0.100394696 -0.080889516 -0.2643372
0000f0 b0 07 db bb dc 1d ec bd ba d9 d5 bd 70 b2 b6 bd
       -0.006684266 -0.11529133 -0.10441919 -0.08920753
000100 62 71 49 be 80 49 dd 3c 15 8c b1 3e 5c 0d ba 3d
       -0.19672158 0.027012587 0.34677187 0.09084579
000110 05 0d a2 bd cd df d2 3d ac 4b a2 bd ca e2 47 3e
       -0.079126395 0.10296593 -0.079245895 0.19520107
000120 30 b3 13 3e 4f f9 c9 3e 33 b5 96 bd 54 47 03 be
       0.14423823 0.3944802 -0.0735878 -0.12820178
000130 fc e8 93 be f1 a4 cb bc 48 2a 94 be c7 78 2c be
       -0.2888869 -0.024858924 -0.28938508 -0.16842948
000140 38 82 78 3d 2a 7a 14 3c 0c 95 84 3d 8b 74 51 3e
       0.06067106 0.009062329 0.06473741 0.20454614
000150 8d 99 62 3d 4a 61 51 be 2c 8b f7 3c ad e6 ba 3d
       0.05532222 -0.20447269 0.03021773 0.09126029
000160 0d 4b 0c be c4 e3 a1 3e 21 5e 2d 3d 3e 9c f4 bd
       -0.13700505 0.31619084 0.042326096 -0.11943863
000170 b0 0e 13 be ec 6d 24 3c 4a 98 10 3e 02 83 dd be
       -0.14361072 0.010035973 0.14120594 -0.43264014
000180 a0 cf c2 be bf b2 cc bd 74 10 da 3c f8 cc 07 3e
       -0.3804903 -0.099950306 0.026619174 0.13261783
000190 9c 53 0f 3e f8 eb 6f bd cf 24 08 3e 23 a1 c6 3d
       0.13996738 -0.058574647 0.13295291 0.09698703
0001a0 a9 a3 ba bd a2 3a e9 3e 35 47 c3 3e 2c 35 40 bd
       -0.09113247 0.45552546 0.38140264 -0.04692571
0001b0 73 16 cd 3e 61 c9 d7 be ab 89 29 bd c9 ed 09 3e
       0.4005619 -0.42145827 -0.041391056 0.13469614
0001c0 15 15 26 be 7f 6c fe 3c 4a 04 56 3e 22 01 01 3e
       -0.1621898 0.031057594 0.20900074 0.12598088
0001d0 dd 24 c1 be 58 20 f1 3c 57 81 17 be 73 af 54 3d
       -0.37723437 0.029434368 -0.14795433 0.051925134
0001e0 57 04 7c 3d 33 9a 1f be b0 81 57 3d 0e 44 4f be
       0.061527576 -0.15586166 0.052613914 -0.20240805
0001f0 96 fa 22 3e 39 6c 0f be 58 ef d4 bd 23 29 b0 bd
       0.15915903 -0.14006127 -0.10397214 -0.08601596
000200 c8 18 d2 3d 93 5a 10 be 10 58 35 be a5 ab 8b bd
       0.10258633 -0.14097051 -0.17709374 -0.06819848
000210 2a f4 24 3c 0e 57 f6 3c 66 ce 81 3b fd 0f 8c bd
       0.010067979 0.030070808 0.003961372 -0.06838987
000220 70 d4 81 bc c2 6e 3d be f5 2a 1d 3e ae 55 90 bc
       -0.015848368 -0.18499282 0.15348418 -0.01761898
000230 57 c6 a3 3e 1e 2e 0a 3e 1b bb 83 3e e8 76 03 3b
       0.3198726 0.13494155 0.25728688 0.0020059887
000240 ec 01 91 bc 5e 62 18 bc 4d a7 f0 bd a7 24 86 bd
       -0.017701112 -0.009300796 -0.1175066 -0.0654996
000250 2a ca 16 bd 38 d7 b9 3d 40 f9 91 ba 5c d6 0c 3d
       -0.036813892 0.09074253 -0.0011136904 0.034384117
000260 ec fa bf bb d5 9b 3a bd 82 27 88 3d f0 b3 ae 37
       -0.0058587696 -0.04555877 0.066481605 2.0826206e-05
000270 19 89 c3 3d 1e 33 ac 3d fb 0a 61 be 95 c3 50 3e
       0.09547634 0.08408187 -0.21976845 0.20387109
000280 db c4 2c 3e b7 8e bf bd 1d 2d 0a be 4e 40 5d be
       0.1687197 -0.093533926 -0.13493772 -0.21606562
000290 5f be a4 3d 0c 08 ff 3d aa f2 93 bd cd a1 76 be
       0.08044123 0.12452707 -0.07224019 -0.2408516
0002a0 0b 70 42 bd 46 e4 6b be ec 75 32 be 5b 86 1e 3e
       -0.047470134 -0.23036298 -0.17427796 0.1548094
0002b0 11 b1 c8 bd d1 f5 9a 3e 9c 0e a8 3d 9b ce 85 3d
       -0.09799398 0.30265668 0.082059115 0.065335475
0002c0 90 24 20 3d 47 55 ea 3c e5 5c 59 be 2b 1d 32 be
       0.03909737 0.028605117 -0.21226843 -0.17393939
0002d0 ae b9 b8 3e 08 e0 05 3c d2 5c 53 3e 31 99 82 3d
       0.36079162 0.008171089 0.20640877 0.06376875
0002e0 ec 5c 9a bd 25 3e 00 be 57 59 f2 bd 9b 06 df 3b
       -0.07537255 -0.12523706 -0.118334465 0.0068062074
0002f0 5e c6 3a bd ce d6 13 3d d7 bc da bc ad 1a 07 3c
       -0.045599334 0.036093526 -0.026701374 0.008246106
000300 eb d6 67 be f9 42 2f 3d 91 fd 9c 3e 36 ba 23 be
       -0.22640578 0.04278848 0.30662206 -0.15989003
000310 72 0d 03 3d 45 db 9d 3d 8e 04 10 3e 28 d0 d9 3d
       0.031995244 0.07707838 0.14064237 0.10635406
000320 c2 58 46 3d 07 51 be 3e d4 d0 b0 bd 72 d4 56 bd
       0.04842449 0.37171194 -0.08633581 -0.052448697
000330 50 19 a1 be c8 0a d4 bd 5b d2 58 be 53 5c 0c be
       -0.31464624 -0.10353619 -0.21173994 -0.13707094
000340 f0 eb 56 3c 51 ac 24 bd 02 e4 17 3e 5d 6f ae 3d
       0.013117775 -0.040203396 0.14833072 0.085173346
000350 9a cd e0 bd d5 e5 8b be f2 aa a9 3d 94 d9 88 bc
       -0.109767154 -0.27323785 0.08284558 -0.016705312
000360 16 99 fa 3c 86 77 9a 3e 0f 2f 48 3e 3f 40 a1 bc
       0.030590575 0.30169314 0.19549201 -0.019683955
000370 4c aa 3a bd 45 07 6f be 4f 9c a0 3d b5 5e 9b be
       -0.045572564 -0.23342617 0.078423135 -0.30345693
000380 e9 36 90 be be 8a 05 be 18 e4 38 3e 3f 57 2f 3e
       -0.28166893 -0.13041207 0.18055761 0.17123125
000390 c0 86 ee 3d 71 58 49 3d 52 04 03 39 f3 a8 c7 3d
       0.11646795 0.04915661 0.00012494743 0.097490214
0003a0 d4 fd 12 bd 62 bc c4 3e db f6 c5 3e 53 61 d7 bd
       -0.0358866 0.38424975 0.38664898 -0.1051661
0003b0 98 f0 0c 3f 54 ac c0 be 56 a1 85 bd 6b 2d a1 3e
       0.55054617 -0.37631476 -0.06524913 0.31479964
0003c0 3f 54 fc bb 9e ad f0 3d d7 04 ab 39 e4 2a fe 3d
       -0.0077004726 0.11751865 0.00032619268 0.124105245
0003d0 b9 ed ba be ec 03 21 3e 23 fb 29 be 79 cd 0d 3e
       -0.36509493 0.15724152 -0.16599707 0.13847913
0003e0 5b 3f ce 3c 3e 53 09 bd 5b 5d 62 bc ba 7c 39 be
       0.025176695 -0.03352665 -0.013816203 -0.18113986
0003f0 19 1c e9 bc 41 f6 46 bd 53 f5 39 be 41 cb 9c 3d
       -0.02845578 -0.04857469 -0.1815999 0.07655955

actor.2.bias f4 [64]
000000 1b 4d 31 3c fb 79 9c 3d 97 5f 01 bd 05 91 2d bc
       0.010821606 0.076404534 -0.031585302 -0.010593657
000010 2f 19 c6 3b 3a b3 c7 bc ba 28 a7 bc ac 5c c7 3d
       0.0060454826 -0.024377454 -0.020405162 0.09734473
000020 5d 21 43 bc df 37 85 bd da 9d 41 bc 5b 36 e3 bd
       -0.01190981 -0.06504797 -0.01181742 -0.11094352
000030 b7 06 99 bd 1a f5 71 3c 1f 01 80 bd 0b 42 81 bd
       -0.07471984 0.014767909 -0.06250214 -0.06311425
000040 8f 0f ff bd 48 b4 2b 3d a6 d6 6a bd 27 b0 a4 3d
       -0.124541394 0.041919976 -0.05733361 0.08041411
000050 14 47 95 3d da db 21 be e3 49 ae bd ee f0 e1 3c
       0.07288948 -0.15806523 -0.085101865 0.027580705
000060 36 31 b8 3b e2 53 3a 3c 69 b2 75 3d 0a aa c7 bd
       0.005621101 0.011372538 0.0599846 -0.09749229
000070 69 eb d5 bd 73 bc 28 3e 3c ee d8 bc 6d ec 86 3d
       -0.104452915 0.16478138 -0.026480787 0.065880634
000080 3c 45 83 3d 33 6b 8b bc e3 0d 6c 3c 18 09 18 bd
       0.0640969 -0.01701889 0.014407608 -0.037118047
000090 52 ed 63 bd 18 95 b6 bc a5 57 ee 3d 0b b1 14 bd
       -0.05564625 -0.02228789 0.116378106 -0.036301654
0000a0 c4 1c 93 bd a4 55 c3 bb 29 e9 68 3d de 17 0c 3d
       -0.07183221 -0.005961137 0.056862984 0.03420245
0000b0 e0 78 bf bd db 38 a5 3d 9a b0 e8 bd b2 7e 88 3d
       -0.09349227 0.08067485 -0.11361809 0.0666479
0000c0 41 29 72 3d 77 94 c8 3d df b2 a8 3d 12 6f 2e be
       0.059121374 0.097939424 0.08237242 -0.17034557
0000d0 44 e6 f7 ba 63 d6 24 3e e5 fa 4b bd 2a 8c 04 3e
       -0.0018913229 0.16097407 -0.04979982 0.12944093
0000e0 a9 37 a7 3c 50 80 33 3e 92 d9 9c bd 9a d5 43 bd
       0.020412283 0.17529416 -0.07658686 -0.04781113
0000f0 e2 eb 04 3e 1e 1f 64 bd db 03 ed bd 46 4d f8 bc
       0.12980607 -0.05569374 -0.11573001 -0.030310284

actor.4.weight f4 [3, 64]
000000 d3 34 bc 3e 6d 49 a4 3e 12 d2 4a bd 7a f5 fc 3e
       0.36759052 0.3208727 -0.049516745 0.49406034
000010 5f a3 90 3d 6b 30 8c 3e 37 c5 f3 3e 1c d6 04 be
       0.070624106 0.2738069 0.476114 -0.12972301
000020 96 4c 30 bf c3 1e 87 3e 0e fe 5a bd 50 db 0a 3f
       -0.6886686 0.26390657 -0.05346494 0.54240894
000030 c6 e0 f6 bd 61 cd d5 3c 79 f6 05 bf 4a d6 16 3f
       -0.12054591 0.026098909 -0.5232921 0.5892073
000040 f7 48 57 3e b1 6f 92 3c 1e b3 4e be 50 25 a6 be
       0.21023928 0.017875524 -0.20185515 -0.32450342
000050 04 8a 35 bf 36 36 ee 3e af 31 fa 3e e8 ab c8 3e
       -0.7091372 0.46525735 0.4886603 0.39193654
000060 eb 22 9e be 8a a1 b0 be 08 2f 00 3f ae 33 41 3f
       -0.30886015 -0.34498245 0.50071764 0.7546948
000070 26 74 ab 3e 19 e5 52 3c 09 d3 33 3f 7d f7 da 3e
       0.33487052 0.012872004 0.7024389 0.42766944
000080 b4 2c c8 3e 54 4f bb be 10 5f 23 bf 5d 7b dc be
       0.39096606 -0.3658396 -0.6381693 -0.4306287
000090 8f 54 93 3e 58 df e6 be bd 44 8a 3d 34 a8 1e 3f
       0.2877545 -0.45092273 0.06751392 0.6197541
0000a0 db d3 bd be 4e f1 84 be b8 b5 82 bd 0d 84 20 3e
       -0.37075695 -0.2596535 -0.06382316 0.15675373
0000b0 50 ae c0 be 20 b1 01 bf 15 df 77 bd d0 51 ed be
       -0.3763299 -0.50660896 -0.060515482 -0.4635148
0000c0 c7 23 ae 3d 98 f6 3b bf ef 70 08 bf b8 4d b5 3d
       0.08502918 -0.7342315 -0.53297323 0.08852714
0000d0 96 86 80 bd c3 eb d9 be 8b 7d 2c bf 36 91 12 bf
       -0.0627567 -0.42562684 -0.67379063 -0.57252824
0000e0 fa 78 f6 3d 94 a3 26 bc 96 df d5 3e 84 da 8c bd
       0.12034793 -0.010170836 0.41772145 -0.06877616
0000f0 5c 2b 91 3e fa 3e 1c bb f6 b5 c0 3e 59 2d 3b be
       0.28353393 -0.0023841248 0.37638825 -0.18279018
000100 c4 c5 a3 3d 3c f1 45 3e 8b 05 35 be 27 00 aa 3d
       0.07996705 0.19330305 -0.17677896 0.0830081
000110 57 93 80 bd 67 04 b3 bd fe 82 cc bd 43 29 9f bc
       -0.06278103 -0.08741074 -0.09985922 -0.019428855
000120 29 ad 7d 3d 13 d2 82 bd 5c da fe 3d 09 be 6b bd
       0.061932717 -0.06387725 0.124439925 -0.05755428
000130 e8 70 d8 bd 18 fd 37 3e 21 ff 08 3e 28 27 55 3d
       -0.1056841 0.17967641 0.13378574 0.052039295
000140 82 ee 1b be 3b 8f a1 3d 58 d2 44 be 30 00 58 3d
       -0.15227702 0.07888647 -0.19220865 0.052734554
000150 66 af a8 3d db 4f d6 bd a9 3f 2c 3e a6 dd 45 3c
       0.082365796 -0.1046445 0.1682116 0.012076771
000160 eb 8f bd 3d 4a eb 91 bd 3d d4 0d 3e 6b 7e 92 bd
       0.09255966 -0.07124956 0.13850494 -0.071530186
000170 5d f8 62 bd a0 a0 38 3e a5 3a 6d bd 51 4d 2c 3e
       -0.05541264 0.18030024 -0.057917256 0.16826369
000180 0e 5f 8c 3d 06 1c 6a be 27 3e 91 3d 47 30 2a 3d
       0.06854068 -0.22862253 0.07091933 0.041549947
000190 ee 25 00 3e b1 7f 5e bc 3a eb f9 3d f2 90 97 bd
       0.12514469 -0.013580249 0.12203069 -0.07400693
0001a0 be 06 47 3d 35 c1 58 bc 7f 24 e0 3d bd 81 f1 3d
       0.048590414 -0.013229658 0.10944461 0.11792324
0001b0 e0 7e 1e be 4e 48 fe 3d 19 fd ae bd 9e 66 06 be
       -0.15478086 0.12416135 -0.08544368 -0.13125083
0001c0 ed 00 26 3e f4 73 ea 3d 3e 5c e8 bd 22 73 91 bd
       0.1621129 0.114478976 -0.11345719 -0.07102038
0001d0 c9 1e 39 bc 77 a1 a3 3d 3b b4 12 3e bc 4c fb 3d
       -0.011298844 0.07989781 0.14326565 0.12270495
0001e0 43 d0 85 bd f7 79 3a 3e bc 59 1e be cc 95 0a be
       -0.065338634 0.18210588 -0.15463918 -0.13533705
0001f0 83 15 6b 3e 05 f7 f1 bd 4f a9 eb bd 08 b6 15 be
       0.22957425 -0.11814693 -0.115069024 -0.1462022
000200 1e e3 e6 be 7c 3d 21 bf d0 7e 03 3e bc d7 e6 be
       -0.45095152 -0.6298444 0.12841344 -0.45086467
000210 c2 93 0d 3e 45 59 f8 bb 66 8a 6f be 2d 3f e3 3e
       0.13825896 -0.007579001 -0.23392639 0.44384137
000220 30 3a 90 3e 7a 40 8d be 91 cc 30 be 7c 2e 27 be
       0.28169394 -0.27588254 -0.17265536 -0.16326326
000230 85 95 82 3e 0c c2 99 be 28 75 f6 3e 3e 0a 6d be
       0.255047 -0.3003086 0.48136258 -0.23148438
000240 e3 8b 2f 3d d2 eb d6 bc fd 7c bc 3e aa 5a cb 3e
       0.042858016 -0.026235495 0.36814108 0.3971761
000250 85 cd a3 3e d5 08 66 be 49 a8 10 bf 18 3a cd be
       0.31992736 -0.22464307 -0.5650678 -0.40083385
000260 1b 37 21 3e d8 80 0f 3f f2 3f 22 bf ed 99 a4 be
       0.15743677 0.56055975 -0.6337882 -0.32148686
000270 ac 5f 04 be 62 43 72 be bc e1 c2 be 5d 84 0f bf
       -0.12927121 -0.23658517 -0.38062847 -0.56061345
000280 83 af 05 bf dc 57 fe 3e 02 4a ff 3e b9 48 e3 3d
       -0.52220935 0.49676406 0.4986115 0.11097855
000290 bf 4c 92 be a9 6d 93 3e 52 ae cb be 8e 67 8b be
       -0.28574178 0.28794602 -0.39781433 -0.27227443
0002a0 61 4b 09 3f cd 62 0a 3f 89 09 4e bd 51 9e ac be
       0.53630644 0.5405701 -0.050302062 -0.33714536
0002b0 51 89 e5 3e 7b be a2 3e 48 76 be 3e 93 b8 a2 3e
       0.44831327 0.3178595 0.37199616 0.31781444
0002c0 ba 30 91 be 13 d4 dd 3e 13 ee 93 3e ed 9e a1 3d
       -0.28357488 0.43325862 0.28892574 0.07891641
0002d0 bc f1 f0 bc a8 a6 2e 3e cc 3c ec 3e 0a 1d a5 3e
       -0.029412143 0.17055762 0.46140134 0.32248718
0002e0 d1 c0 8a bd 65 a3 92 be b8 c4 a9 be 54 44 8d 3e
       -0.06775058 -0.28640285 -0.33157897 0.27591193
0002f0 26 ae ff be 85 54 ae 3e 6f db fe bd 49 e9 be 3e
       -0.49937552 0.34048858 -0.124441974 0.37287357

actor.4.bias f4 [3]
000000 1f 58 98 bc fc c6 61 3e 3d 27 d2 bd
       -0.018596707 0.22048563 -0.1026139

critic.0.weight f4 [64, 5]
000000 d1 c7 8a 3e 04 ca 58 be ff b5 8e 3e ad 50 92 3e
       0.27105573 -0.21170813 0.27873227 0.28577176
000010 da 0d bc 3f 1c 2c 2b bd f6 25 bd 3b d8 7b dc be
       1.4691727 -0.041790113 0.0057723476 -0.43063235
000020 90 3a fc bc 3c d6 41 3f 15 f1 74 3e fa d4 5d be
       -0.030789644 0.7571752 0.2392009 -0.21663275
000030 06 5b a0 3e d9 36 4a 3e a3 a7 87 3e e8 03 09 3e
       0.31319445 0.19747485 0.26495084 0.13380396
000040 36 dc 36 3e db b7 9b 3e 8e 3d 03 3e b9 e2 a6 3f
       0.17857441 0.30413708 0.1281645 1.303794
000050 46 63 91 3d 55 0d 7e be f8 81 bf bd ac fa 15 be
       0.07099013 -0.24809773 -0.093509614 -0.14646405
000060 ed f6 89 3f 13 43 c7 3e 13 94 8f be c5 32 86 be
       1.0778481 0.3891836 -0.2804266 -0.2621061
000070 db e3 d4 3e 78 1f 46 bf a2 b6 00 ba ff b9 11 be
       0.4158009 -0.7739177 -0.0004910027 -0.14231108
000080 7f fa 22 be 38 0c c5 be de 6f 8b 3f b6 df 87 bd
       -0.15915869 -0.38485885 1.0893514 -0.06634466
000090 47 d4 25 3e 7f 5d 7e be ad f9 cd 3e 42 c7 8b 3f
       0.16194259 -0.24840353 0.4022955 1.0920184
0000a0 cf 2c 37 be 3b 3a a5 be 53 9c de 3b 39 c2 8e 3e
       -0.17888187 -0.3227099 0.0067935376 0.27882555
0000b0 6d a5 5a 3f 7e 42 a2 be bf cb 83 3e de e8 3f bd
       0.8540867 -0.31691355 0.25741383 -0.04685294
0000c0 68 2a 08 3e 35 b0 a3 bf 5d 75 7b 3e 75 c0 81 3d
       0.13297427 -1.2788149 0.2455649 0.063355364
0000d0 e5 86 d2 be 6f bc 8a 3e 8a 2f 5a 3f e5 b5 0e 3e
       -0.4111854 0.27096888 0.8522879 0.13936575
0000e0 a5 f2 5d 3e 9d cd 95 3e b6 3d ee 3e 3a 31 82 bf
       0.21674593 0.29258433 0.46531457 -1.0171273
0000f0 73 5b ee bd 2a b4 4a 3e 25 59 91 be 7e 19 81 3e
       -0.11638536 0.1979529 -0.28388324 0.25214761
000100 ef c9 4e bf 9a 7e bc 3e 45 c8 ca be b9 09 b1 be
       -0.80776876 0.3681534 -0.3960592 -0.3457773
000110 a6 f4 3d 3e 3c f5 a9 3f a3 54 f7 bd f2 f4 81 bd
       0.18550357 1.3277965 -0.1207669 -0.06345548
000120 ff 28 20 be af ca ff bc c6 50 87 3f 0f 94 bd be
       -0.15640639 -0.031224577 1.0571525 -0.37027022
000130 dd 00 e3 3d 0d 5f c7 3e 0f e9 78 be 35 75 be 3e
       0.11084149 0.38939705 -0.24307655 0.37198797
000140 a8 fc e2 bd b3 67 9e 3e 0c 95 5c be 05 ab b1 3e
       -0.110833466 0.3093849 -0.21541232 0.3470079
000150 ed 80 80 3f 85 e8 ee 3d 5d b6 2c 3e fd 59 b4 be
       1.0039345 0.11665443 0.16866441 -0.35224906
000160 3f 7a 62 3e 95 ee 03 be 72 c5 b0 3e 2c ba ac be
       0.22116946 -0.1288398 0.3452564 -0.33735788
000170 7c d7 8c 3e 08 b3 7c be 78 b2 af bf 00 42 78 3e
       0.27508152 -0.2467767 -1.3726339 0.24243927
000180 4b b9 aa be d2 6b f3 bd 2c f9 ce bd d4 1a 96 bf
       -0.33344492 -0.118857995 -0.101061195 -1.1726937
000190 0a 24 d8 3d bc 0a 28 be 68 53 e6 3e 28 12 62 be
       0.10553749 -0.16410345 0.4498551 -0.22077239
0001a0 5b e1 a6 bf bc 86 bd 3e eb 9e 8d bd c6 3a a2 3d
       -1.3037523 0.37016857 -0.06915077 0.079213664
0001b0 6d 0a 97 3e 2a b8 af bf 34 25 de be b0 39 c0 3e
       0.29500142 -1.3728077 -0.4338776 0.37544012
0001c0 e3 ad f0 bc 59 48 08 be 9d 5d 87 be 43 03 63 be
       -0.02937979 -0.13308848 -0.2643861 -0.22169213
0001d0 1f d0 24 be fc 2b 78 3e 02 c1 80 be e9 28 81 bf
       -0.16095017 0.24235529 -0.25147253 -1.009061
0001e0 4a b6 48 bd b2 da 3e 3e 08 2e 2a 3e 18 0e e5 3c
       -0.04900197 0.18638113 0.16619122 0.027960822
0001f0 de 2b 3b 3f df 15 1e 3e d9 9b bd bd 28 72 c2 3e
       0.7311381 0.1543803 -0.09258241 0.3797772
000200 5f c8 ac bc 09 e0 59 bf a3 64 b8 3a 6c 13 c4 3b
       -0.021091638 -0.85107476 0.0014068078 0.0059837606
000210 ce fe 80 3e 20 9d 11 be be 2b 61 bf 04 56 c9 3e
       0.251944 -0.14220095 -0.8795737 0.39323437
000220 1b ec 9d 3e 89 7e a6 be f1 27 f5 3d bd b5 51 3f
       0.30844197 -0.32518414 0.11970509 0.81917936
000230 11 7a 3e bd bc 13 63 3e e1 22 0f 3f d0 5b a2 3e
       -0.04650313 0.22175497 0.55912596 0.31710672
000240 03 64 05 3e 10 af 06 3c 5f 3f 6e be 30 19 a9 be
       0.13026433 0.008220449 -0.23266362 -0.3302703
000250 9d 2e c9 3d 10 b1 80 3f bc 95 ae 3e f9 bd 9e be
       0.09823344 1.0054035 0.34098613 -0.31004313
000260 22 25 00 bf b4 2c ce be 83 55 6f be 49 ef cc 3d
       -0.5005666 -0.4026848 -0.23372464 0.100065775
000270 d6 30 5d be a8 ae 4e 3e 9a 61 b6 be c3 46 b9 bf
       -0.2160066 0.20183814 -0.3562134 -1.447472
000280 da a2 48 be da 8a 95 3d 41 1c 21 bf d0 d6 2c 3e
       -0.19593373 0.073018745 -0.6293374 0.1687882
000290 11 ac 81 3f 68 f5 87 bd 62 9c d1 3d ef c0 9d be
       1.0130635 -0.066386044 0.10234906 -0.3081126
0002a0 68 b4 c9 3d 6f bd b0 3f 0e 2a b4 be 1f 72 77 3e
       0.09848863 1.380781 -0.35188335 0.24164627
0002b0 3f 78 f7 3d 19 83 3e bd 1d 37 9f bf 46 cf 43 be
       0.12083482 -0.046511743 -1.2438694 -0.19122037
0002c0 b7 69 47 3d fb e1 cc bd 25 b7 08 3d 62 e3 25 3f
       0.048684802 -0.1000404 0.033377785 0.64800084
0002d0 1a 66 9f 3d 72 8e 8c 3e c0 5b fd 3e ea 74 77 be
       0.07783146 0.27452427 0.49484062 -0.24165693
0002e0 25 f0 0b 3f 06 65 cf 3d 9d ef 47 bd fc 9e db bd
       0.54663306 0.101266906 -0.048812497 -0.10723683
0002f0 f0 f9 f4 be a2 31 8b 3f 70 7b 9d bd a7 39 89 be
       -0.47846937 1.0874522 -0.076895595 -0.26801798
000300 17 1a 4a be f3 2c 65 be d9 37 13 bf 8c ef a8 bd
       -0.19736515 -0.22380428 -0.5750709 -0.08248815
000310 34 c7 37 be 1d cc 39 be 41 b2 21 3e b1 5c 80 3f
       -0.17947084 -0.1814427 0.15790655 1.0028287
000320 fc 17 21 be 29 86 35 3d 8a 62 56 be b2 a3 7b be
       -0.15731806 0.0443174 -0.20936027 -0.24574164
000330 c9 81 05 3f 2a 04 a9 bc 0e 51 27 bd 62 8d f7 bd
       0.5215116 -0.020631868 -0.040848784 -0.120875135
000340 9f 01 bd 3e 70 52 9a 3f 39 70 39 3e 62 48 47 be
       0.369153 1.2056408 0.18109216 -0.19461206
000350 3a e1 df 3e 5d 27 87 be a8 fd 2b 3f f2 82 eb bc
       0.43726522 -0.2639722 0.67183924 -0.028748963
000360 9e 4b 38 3e ed 38 ef 3e 79 25 67 be fb a9 46 bd
       0.17997596 0.46723118 -0.22572888 -0.04850195
000370 d4 1f 80 3e b3 4a 8e be ca de 0d bf 6f 0e dc be
       0.25024283 -0.27791366 -0.55418074 -0.42979762
000380 81 ed 27 3f 4c 4c 2b bd 0e 03 49 3e b0 74 8d 3e
       0.6559678 -0.04182081 0.19630072 0.27628088
000390 83 8b 32 3e 7a 04 86 3f 99 e1 8f be 29 1c 92 be
       0.17436032 1.0470116 -0.28101805 -0.2853711
0003a0 46 c6 5b 3e 4b 68 6c 3e 9e f9 89 bf 9b b2 29 3d
       0.21462354 0.2308666 -1.0779302 0.041430097
0003b0 43 4d 8e be 4d 99 ad 3d 95 21 67 be b7 9e fe 3e
       -0.2779332 0.084765054 -0.22571404 0.49730465
0003c0 55 3a 93 be cf da 5e 3e db dd c9 be d1 37 ed be
       -0.2875544 0.21763156 -0.39427075 -0.46331647
0003d0 0c bf 86 3f 61 37 16 be 5a 96 b9 3d f3 14 26 bf
       1.0527053 -0.14669563 0.090618804 -0.64875716
0003e0 b0 9c b8 3c 70 e3 6e 3f 16 da 90 be 97 4f 88 3e
       0.022535652 0.9331579 -0.28291386 0.26623222
0003f0 3b 54 ca bd ea ed 23 3e a9 cb 9a bf e6 90 46 be
       -0.09879347 0.16008726 -1.2093402 -0.19391212

critic.0.bias f4 [64]
000000 b3 ac 22 bd c9 f5 99 3e 18 2d 9d be 7b 58 7f 3e
       -0.03971548 0.30070332 -0.30698466 0.24936096
000010 9d a3 bc 3e 0f 51 20 bc be ea 96 3e 1a d3 b7 be
       0.36843577 -0.009784951 0.2947597 -0.35903245
000020 65 cf ed 3c 81 d4 42 be 41 3e 50 3e 61 e7 cc be
       0.029029557 -0.19026376 0.20336248 -0.40020278
000030 9f ca 3b 3e c4 b2 bd 3e bb 92 66 3e ad 01 e7 3d
       0.18339013 0.3705045 0.2251691 0.112796165
000040 1a 44 a5 be 58 b1 11 3c f6 6a 87 be a9 8d 41 be
       -0.3227852 0.00889238 -0.26448792 -0.18901695
000050 1b d4 d2 be 57 b3 f5 bc c4 64 ab 3d 68 c2 2b 3e
       -0.4117745 -0.029992742 0.08368829 0.16773379
000060 d8 f8 d0 bc af c0 c1 3d 17 1d 85 bd 54 2a 1c be
       -0.025509283 0.094605796 -0.06499689 -0.15250522
000070 fc 23 b2 be 46 b0 ce 3e 53 22 a3 bd 23 22 1a be
       -0.3479308 0.4036886 -0.07965531 -0.15052085
000080 f5 b4 02 3f 0a d8 20 3e 84 25 52 bd f1 00 d5 3c
       0.5105737 0.15707412 -0.05130531 0.026001425
000090 b5 d9 b6 be 67 44 99 be 4a 37 51 3e 36 4a 50 3e
       -0.35712972 -0.29935 0.20431247 0.20340809
0000a0 52 a1 9b be 56 10 b0 bd ae 1b c2 be d5 54 8f bd
       -0.30396515 -0.08596866 -0.37911743 -0.06998602
0000b0 de 22 e0 3e 5f 6c b6 bd c6 2a 85 3e c7 29 73 3d
       0.43776602 -0.08907389 0.26009196 0.059366014
0000c0 51 2e eb 3e 81 1a 00 3f 70 af 01 3c 5b 71 61 be
       0.45933774 0.5004044 0.007915363 -0.22015898
0000d0 58 8b ae be 34 9a 20 3e 88 81 5e be fd 3c 5d be
       -0.34090686 0.15683824 -0.217291 -0.21605296
0000e0 ee a9 8d be 07 79 d6 3d 80 45 e8 be e5 32 b0 bc
       -0.2766871 0.10472303 -0.45365524 -0.021508643
0000f0 b8 da 84 be 06 04 7f 3e 15 37 be bd cc 8a 69 3d
       -0.2594812 0.24903879 -0.0928785 0.057017133

critic.2.weight f4 [64, 64]
000000 88 f4 03 be c1 aa af 3d 47 da 87 bd 24 df b8 bd
       -0.1288625 0.085774906 -0.0663343 -0.09026936
000010 f0 90 69 bd 01 71 8a 3d 89 21 20 3d 78 9e a8 bd
       -0.05702299 0.06759835 0.03909448 -0.082333505
000020 dd 69 8c bd 0b d9 7a 3d 6c 33 a2 3d fa 34 f4 3c
       -0.06856129 0.061242145 0.07919964 0.029810417
000030 fc d9 f4 3d c1 3a 2b 3e 08 85 0a 3c 4e f0 81 3d
       0.1195564 0.16721632 0.008454569 0.063446626
000040 8b ed 24 bd 5f fd 19 bd 7d 60 25 3d da 46 64 bd
       -0.0402656 -0.03759515 0.04037522 -0.05573163
000050 9b be 8a 3d 9e c1 04 3e e2 bf aa 3d fc f5 19 3c
       0.06774636 0.12964484 0.0833738 0.009397026
000060 5e 9e 75 3d 74 a2 dc 3d 4b 9f 3a bd bc 43 33 bd
       0.059965484 0.10773173 -0.04556207 -0.04376577
000070 b2 17 ee bd 92 21 43 3d a8 63 c2 3d 81 41 80 3d
       -0.11625613 0.047639437 0.09491664 0.06262494
000080 08 3a d7 bc 4f 7b 5f 3d 19 1b 8e bd c2 ef 54 3d
       -0.026272789 0.054560956 -0.06938762 0.051986463
000090 fc a0 59 bd ab 92 2f be 6f 4f 17 bc 07 80 9e bc
       -0.053132042 -0.17145793 -0.009235247 -0.019348158
0000a0 13 9a 6c 3d 16 d1 1d 3d ea 43 dc bd 93 4e a1 bd
       0.057764124 0.038529478 -0.10755141 -0.07876315
0000b0 54 9c a1 3d f7 42 86 bd a1 e7 82 bb e4 90 a7 3d
       0.07891145 -0.06555741 -0.0039948975 0.081819326
0000c0 6b c7 b6 3d c3 ec 2b 3e 4a bd 9b 3d e4 d1 9c 3d
       0.08924755 0.16789536 0.076044634 0.07657221
0000d0 8a 75 c0 bd a9 3f b5 bc b9 b0 fa bc 36 b4 04 be
       -0.09397419 -0.022125082 -0.030601846 -0.1295937
0000e0 68 4c b2 bb 30 23 9e bc e5 62 da bd 20 83 1d be
       -0.0054412372 -0.019303888 -0.10663394 -0.15382051
0000f0 0a 43 a8 bd 12 de d5 3d 0d 45 d9 3c a0 88 62 bd
       -0.08215912 0.10442747 0.026522184 -0.055306077
000100 57 5a 21 3d f5 ca e9 bd 37 9e 44 bd ba a1 8a 3a
       0.039392795 -0.11415664 -0.048002448 0.0010576763
000110 2e f1 c0 3d 2a 40 90 bd 5b a8 9f 3d fd 8f 5b bc
       0.094210014 -0.07043488 0.07795783 -0.013401029
000120 a6 81 4b 3d 90 48 b2 3d fe fa 9d bd 4d 19 a7 3d
       0.04968419 0.087052464 -0.077138886 0.081591226
000130 a3 d9 2b bd 13 75 05 3d 51 c7 9b 3d aa c6 aa bd
       -0.0419556 0.032582354 0.07606376 -0.083386734
000140 90 c1 5f 3d bd dd f0 3c 96 1b 45 3d b5 4a a7 bc
       0.054627955 0.029402608 0.04812201 -0.020421365
000150 c8 90 0d 3d e9 ca 9e bd e5 a5 ba 3d f8 02 c7 3d
       0.034561902 -0.07753546 0.09113673 0.09717363
000160 0a 96 bc 3d 40 79 a0 bd 24 22 29 bd 23 aa 5f 3d
       0.09208305 -0.078356266 -0.041292325 0.054605614
000170 b0 21 da bc 9e 33 51 bb 04 43 8e bd 38 aa 16 3c
       -0.026627392 -0.0031921635 -0.06946376 0.009195857
000180 9a 74 f1 bd 6c fe a8 bd dc 6e 25 bd ee 48 9c 3d
       -0.11789818 -0.08251652 -0.040388927 0.07631098
000190 f1 b9 eb bd 28 d6 15 3d 68 d6 87 3d 0e 3a b8 bd
       -0.11510075 0.03658119 0.066326916 -0.08995448
0001a0 7d 18 eb bc af af cf 3c f5 7b 84 bd b8 15 87 bd
       -0.0286982 0.025352327 -0.064689554 -0.065959394
0001b0 4e 34 ec 3d 38 5b ec bd bc 8e d6 3c 64 3d 03 bc
       0.11533414 -0.11540836 0.026191108 -0.008010242
0001c0 28 ef 8d 3d 92 e4 d1 bd e1 04 bc bd 2e 78 f4 bd
       0.06930381 -0.102486745 -0.09180618 -0.11936985
0001d0 af f4 ba 3c 94 03 01 3e d7 b1 14 bd dc 97 09 3d
       0.022821752 0.12599021 -0.036302414 0.03359209
0001e0 a2 fe 6b 3d 5f 0a 92 bd 79 c7 0b 3c 6c b1 0b be
       0.057615884 -0.071308844 0.008531445 -0.136419
0001f0 33 60 f7 3d 87 73 09 3e 43 7d 0f bd 43 b4 d6 3c
       0.120788954 0.13422976 -0.03503157 0.026209002
000200 fd f0 2a bc 02 51 2d be ea d4 2c bd 74 37 fb 3d
       -0.010433433 -0.16925433 -0.04219524 0.12266436
000210 24 ed 4d bd 23 1e 86 bd bd ef 0e bd 10 47 0b 3e
       -0.050274983 -0.06548717 -0.0348966 0.13601327
000220 a8 1e a7 3d ce 6f 10 be 8a ea a3 bd 2e ac 8b 3d
       0.08160144 -0.1410515 -0.08003719 0.0681995
000230 68 b4 c4 bd 2d fb 18 3d ab ee 19 bd f2 4f e6 3d
       -0.09604722 0.037348915 -0.037581127 0.11245717
000240 cf 70 3f ba fb d6 9a bd 21 a3 04 3d 63 27 ee 3a
       -0.00073028816 -0.075605355 0.032382134 0.0018169697
000250 13 2b aa 3d 63 a5 3b be b7 a0 42 bc a3 ca 80 3d
       0.08308997 -0.18324809 -0.011879138 0.0628865
000260 8f f7 92 3d 93 99 bd 3c 31 28 99 3c 55 a5 8b 3d
       0.07176124 0.023144519 0.018695923 0.06818644
000270 81 00 05 3e 7e 05 61 3d 40 59 fc bd 83 fe cd bd
       0.12988473 0.05493688 -0.123217106 -0.1005831
000280 bd 4a 1c be 88 2d 89 3c 2a df 9f 3c d1 7d e5 bc
       -0.15262885 0.016745344 0.019515593 -0.028014096
000290 ab 7d c0 bc 61 f5 bb 3d aa b9 56 bd e9 51 c8 bc
       -0.023497423 0.09177662 -0.052423157 -0.02445312
0002a0 db 2e e3 3d 7a b4 33 bd b2 bb 6e 3e e2 bf 64 bd
       0.11092921 -0.043873288 0.23313788 -0.055847056
0002b0 84 a8 24 be 6a 29 10 3e 03 53 83 bd 1f 47 80 bc
       -0.16079909 0.14078298 -0.064123176 -0.015658913
0002c0 54 7d c9 bd c0 c8 11 be ec 33 a4 bd df 50 aa bc
       -0.098383576 -0.14236736 -0.08017716 -0.020790515
0002d0 cb 15 a8 3d f1 e9 68 bc 2a a7 43 3d 35 42 8e 3e
       0.08207282 -0.014215932 0.047766842 0.27784887
0002e0 3d bc c6 3d 09 33 0e bd d6 74 58 3e 5b bc c3 3d
       0.09703872 -0.03471664 0.2113832 0.0955741
0002f0 54 3b 1e 3e 9c cb 9d bd f7 c6 c6 bc 1f f9 f1 bd
       0.1545232 -0.07704851 -0.024264796 -0.11815094
000300 aa 88 99 3a bc 14 dc bc 6b e8 e7 bd 74 9e e0 bd
       0.0011713703 -0.026865356 -0.11323627 -0.109677225
000310 a0 86 a7 3d 86 cc 6d bc 89 ff 56 3c b8 a6 e0 bb
       0.081799746 -0.014514094 0.013122448 -0.006855812
000320 5d e7 70 3d 63 34 9f 3c fe 30 55 bd 22 ab 4d 3c
       0.058814395 0.01943416 -0.052048676 0.012553008
000330 cb 9d 05 3e b6 06 cd 3d 3e 7a 84 ba 59 e8 65 bd
       0.13048474 0.10011046 -0.0010107232 -0.056129787
000340 0a 84 cb bd d8 a7 8f bc 77 a9 23 3c 3f 60 8c 3d
       -0.09937294 -0.017536089 0.009989134 0.06854295
000350 ca 41 e0 bd e7 e8 c4 3d 74 9b e8 bc 47 d7 fd bd
       -0.10950048 0.09614735 -0.028394438 -0.123945765
000360 c7 86 1e bb 7e ff 9e 3d 6b 2a e6 3c 1f 64 5e 3d
       -0.002418922 0.07763575 0.028096398 0.0542947
000370 b7 f5 d3 3d a3 28 7a bd 3c d1 6e bd 75 b5 b4 bd
       0.10349601 -0.06107391 -0.05830501 -0.08823673
000380 5d ff e0 3d a0 f4 2b bc 41 a1 82 bb 03 e3 92 3d
       0.10986207 -0.010495335 -0.003986508 0.07172205
000390 06 ed be 3d ae 3b 88 bd 52 28 49 3d 80 cb a6 3d
       0.093225524 -0.06652008 0.049110718 0.08144283
0003a0 cb b4 ac bc 9c b3 74 3d 07 ba 8b 3d 6f cf 5c 3c
       -0.021082303 0.0597416 0.06822591 0.01347719
0003b0 40 a7 b1 3b dd 5a a9 bd bc 1d 96 bd 4a e5 4d 3d
       0.005421549 -0.08269284 -0.0732989 0.050267495
0003c0 05 f5 49 bd d4 a5 85 bd 79 18 9f 3d 06 78 24 bc
       -0.049305934 -0.0652577 0.0776834 -0.010038381
0003d0 ef 42 e5 bd 4e 29 95 bd ad ef e3 bd 07 6c a6 3c
       -0.11194407 -0.07283269 -0.11129699 0.020315183
0003e0 7e 65 4e 3d 67 1d 96 3d ba 99 72 3d 55 6a 28 3d
       0.05038976 0.07329827 0.059228636 0.04111703
0003f0 fd 51 c3 3c 51 49 c9 3c ef f7 de 3c ea 7d b3 3c
       0.023842806 0.024571093 0.027217833 0.021910626

critic.2.bias f4 [64]
000000 a3 2e 0c 3e f1 68 17 bd 99 99 d7 bd 00 8c df bd
       0.13689665 -0.036965314 -0.10527343 -0.10915375
000010 f6 29 2b be c5 27 2a bd 98 9e 6f bd 90 49 a6 bd
       -0.16715226 -0.041541833 -0.058500856 -0.081195
000020 18 59 e5 3d 1b 96 41 3e 01 19 e4 bc 75 80 10 bd
       0.11198634 0.18904917 -0.027843954 -0.035278756
000030 3e 5b 6c 3c b2 58 af bc c5 23 1c 3e 3c a0 f6 bc
       0.014426051 -0.021404598 0.1524802 -0.030105703
000040 96 c8 fd 3c 51 8a 97 bd 0f d7 d8 bd d2 40 11 be
       0.030979436 -0.07399429 -0.10587894 -0.14184883
000050 03 7e b0 3d 02 21 7e bc 78 02 79 3d 65 6c dc bd
       0.08617785 -0.015510799 0.06079337 -0.10762862
000060 d4 7f 10 be 38 0d af bd cf c0 6b 3d d3 e6 f1 bd
       -0.14111263 -0.08547443 0.057556923 -0.11811604
000070 0f 32 bc bd e1 74 61 3c 61 63 0d 3e b0 4f c5 3d
       -0.091892354 0.013760776 0.13807441 0.0963434
000080 70 ad 3f 3e 79 d7 d3 bc 84 b2 23 bb df aa 65 3d
       0.18718505 -0.025859581 -0.002497823 0.05607116
000090 8e fc ac bb 99 99 95 bd 4d a8 fc bd d7 40 01 3e
       -0.0052791303 -0.07304687 -0.12336788 0.1262239
0000a0 1d 74 3c 3e e4 74 04 bb df d1 3d bd 3b 0c 80 bc
       0.18403669 -0.0020211274 -0.046342727 -0.015630832
0000b0 e9 5a 95 bb 22 3b a7 bd 29 7c a5 3d b0 41 4e bc
       -0.0045579565 -0.081655756 0.08080322 -0.012588903
0000c0 08 81 ee bc 4c 59 0c 3d 00 85 ba bd 0a b5 64 3d
       -0.029114261 0.034264848 -0.09107399 0.055836715
0000d0 de e9 85 bd 34 2f 54 bd 8e 29 42 bd 80 e5 93 3d
       -0.06538747 -0.05180283 -0.04740291 0.07221508
0000e0 34 25 b0 3c 0d 2d 99 bd f7 2e 64 3d 40 4c f2 3c
       0.021502115 -0.07479296 0.05570885 0.029577374
0000f0 d3 0b 08 be 59 6d 0b be 3d 24 b9 3d 60 9e ba 3d
       -0.1328576 -0.13615932 0.09040115 0.09112239

critic.4.weight f4 [1, 64]
000000 d5 a0 12 bc d0 f1 dc ba 19 81 44 3d fb 53 06 3c
       -0.008949478 -0.0016856734 0.04797468 0.008198733
000010 57 c8 fe 3c 9d 71 8b ba 03 40 ca 3a e6 d8 4f bb
       0.031101389 -0.0010638718 0.0015430454 -0.0031714975
000020 b4 6b 43 bd c8 a4 c3 bd fd 2d 72 3b 1f a2 2d bb
       -0.047710136 -0.09552914 0.003695368 -0.0026494337
000030 93 89 a9 ba f4 77 1e 3a 65 32 34 be 66 9a f0 39
       -0.0012934677 0.0006045096 -0.17597349 0.00045891403
000040 70 21 0e 3b 1b c2 d5 39 b5 28 49 be cc 98 26 3c
       0.002168741 0.00040771146 -0.19644435 0.010168266
000050 ba cb fd bd bb ca cd 3a e6 49 69 ba 18 07 33 3c
       -0.123923734 0.0015700677 -0.00088992564 0.010926984
000060 f2 72 f7 bd 44 f7 aa ba c6 1b 95 bd a1 6b b5 3d
       -0.12082471 -0.0013043662 -0.07280688 0.08858419
000070 8f 11 28 3b 87 a9 29 3b c3 69 99 bc 3b 01 ba ba
       0.0025645231 0.00258884 -0.018727189 -0.001419104
000080 70 a2 44 be 83 f9 5a 3c ae c5 5c b9 39 f7 a2 3c
       -0.1920259 0.013365152 -0.00021054476 0.019893276
000090 64 a1 8a 3b 90 aa e0 ba 12 fc 2f 3b aa c3 32 bd
       0.004230665 -0.0017140675 0.0026853126 -0.04364363
0000a0 ff 34 73 be 3e 26 b5 3a bc b8 04 bb 55 b5 be 3b
       -0.23750685 0.0013820601 -0.0020251712 0.0058199563
0000b0 c8 c0 bf 3a 28 e5 41 3d dd 14 06 be 8b 57 8f 3b
       0.0014629597 0.04733768 -0.13093896 0.0043744496
0000c0 89 fe 64 3c f5 62 6d 3e 2d 71 49 3c 98 31 6d 3b
       0.013976702 0.2318228 0.01229505 0.003619289
0000d0 c5 7e 8c be 78 a8 c4 bd 45 b7 3b 3c c1 e8 3f bc
       -0.27440467 -0.09602445 0.011457269 -0.011713208
0000e0 1b 66 59 3e 7e ee c9 3b 5f da f6 b9 4f 2f 08 3c
       0.21230356 0.0061624637 -0.00047083476 0.0083120605
0000f0 06 4d a9 3a d6 bc a0 bd 9c 0d 0f ba ec 90 d6 3a
       0.0012916632 -0.078485176 -0.0005457045 0.0016370094
