trained/SimplePong/PPO_mcts_sparse_1728748829.916038.pth (torch, 42322 bytes, 11 tensors)

actor.0.weight f4 [64, 5]
00000000: c250 be3d bec4 06be 754f 7b3e 7b80 763e
00000010: a22f 99bd 7b17 9e3e 30b9 40be d070 1c3e
00000020: b5db fbbe 90e7 6dbe 281b 25be 08ad 923d
00000030: 4a4a 183d 6ce6 6fbe febd 88bc 42fa 6a3e
00000040: f437 96be d264 c7be 32ba 903e 9f6f 603d
00000050: 4740 1abe 634e 0c3f 9a4f d9be 4ad9 b73e
00000060: 822c b4bd 4363 853e 77bb b6be caf9 ae3e
00000070: cf7a 28bf 95b4 e6be 704d e53e 368f a5be
00000080: ae7b 93be 9039 9dbd 9d15 9fbe 701f 093f
00000090: b3b2 77bd b191 94be 79e9 fbbe 5eff 923b
000000a0: f4e2 b2be b57b c33d aaed 0cbe 112a 17be
000000b0: e1ac 923d b287 6a3e 10c6 82be 78cc 27be
000000c0: a9f2 9f3e 789d 0f3e 5e4a 8cbe af34 fe3e
000000d0: f9bf 9abd 7470 373f 594a 94bd ed05 4bbe
000000e0: d4bd 183e 49bd 8b3e a8a6 593e 0aa2 273d
000000f0: 7d47 12be f225 c13e 1a5f a9be 5658 073f
00000100: e79c c4be a88a 86be 2e83 953e 4420 ba3e
00000110: 228b 5e3e 353e cabe 5563 cf3d 6b42 6dbd
00000120: 755f cf3d f44a 94bd c6f7 023e 0e89 c33e
00000130: e998 fdbe 7d64 713e 4cc4 2ebf 9eb6 e7bb
00000140: 88cf 00bf abf7 1ebe 75a3 323d 03b9 1bbf
00000150: c1fb 31bd e0bf 183c b2eb 0abf 5780 38bd
00000160: ef4d b9be 6ba7 b0be 40fb 243d 17d5 a9bd
00000170: 2ba3 47be f96b 24bf e7d7 d83c 9e61 76be
00000180: 254f 2bbe 48e6 3fbe 9907 cebe e843 40be
00000190: 5a2f 073e 1071 403e 56cf e83e 0f20 143f
000001a0: 136b 8bbe 1256 c03e ed78 e6be da96 88be
000001b0: 1fac c6bd 67ee a33d 5e7d e13e 2887 20bd
000001c0: ed90 d5be 0e6e e5be aafa f5be 85ba 693e
000001d0: e322 adbe 46d0 ebbe 842c adbe 2f4e c5be
000001e0: 8b94 c8be e616 c23e c622 52bb 3836 b93e
000001f0: 66e9 563e 887b 03bf 57a2 ad3e f0fc dfbd
00000200: 787f 6bbe 8ddd 983e 1d39 a93e 6ae5 46be
00000210: 649c cfbe 3390 c0bd 2f62 1c3e 72d9 b4be
00000220: f612 4f3e a2c7 953e 6690 c6bd 7d0d ae3e
00000230: 5105 a0be 18ad d93e 833d cebd ff75 0b3f
00000240: 80fd 07be 8f14 cdbb a7d3 fa3e 7040 d1bd
00000250: cb12 013f f11e 923e 87f3 f6bc d335 cf3c
00000260: b80e 86be e682 c63d 51fa 833e 48e2 a1bd
00000270: 7ceb 12bf 5206 4dbe 56fe 3bbe 3219 09be
00000280: 92ff 21be 868b a83e 94c8 88bd da33 cb3d
00000290: 0a68 d43e 39fa 13bf b64a 8abd cebe b7bd
000002a0: 5c59 7a3e bf7a 333d 6f85 fe3e 9305 c4be
000002b0: 9e58 853c 5b85 24bf f73b c2be ccf0 08bf
000002c0: fa42 ae3d 377c 0b3d 4f04 5fbd 5f9f 273e
000002d0: 15fa 513d 8228 e0be fcdf c83e a773 39bf
000002e0: 6a27 d43e 9bf2 903e b800 93be 2963 613d
000002f0: 6285 df3d f8ad 63bd 5147 453e 9aa0 a7be
00000300: a7b2 21be 38da 7dbe 4a1d 3fbe 63d0 c23e
00000310: e5e0 0bbf ec86 153d 93d4 aabe 4e89 bbbe
00000320: cf6f 0f3f 6383 f2be 3b3c a53e 2f55 173d
00000330: 4b42 2e3e 7765 05be eee3 6e3e 0455 45be
00000340: 90e4 563d e2d9 c2be 57d1 1dbe 7c53 523e
00000350: 1566 e5be f42f 67bd 6e91 96be eed1 9cbe
00000360: 2fdf 2b3e 6164 ce3e 16cd e73d ec08 39be
00000370: 03a7 983e ea12 73be a00b e1be b89e 8abc
00000380: be34 943e 1ad9 753e d861 b0be ccf9 ad3e
00000390: 0212 2cbf 3da1 13be eed5 b53e bd99 02be
000003a0: 3b11 8c3d eea6 a13d 6aef 9ebe 5a2d 7dbe
000003b0: e18a 373e fa86 073c ff6c a73e 1d7e 353e
000003c0: 9f1d 173e f363 8dbe bcb5 cbbe 8259 f5be
000003d0: 3eb0 a7be f58a a7be ebee 323e 8bad 56be
000003e0: f054 7b3e b623 83be 3785 debd 8b43 133e
000003f0: 0b9b 21bd bdc3 e93e 032a 763e f78d 283e
0.09292747 -0.13160989 0.24542029 0.24072449 -0.07479788 0.3087729 -0.18820643 0.1527741
-0.4919106 -0.23232865 -0.1612364 0.07161909 0.037180223 -0.23427743 -0.016692158 0.22947028
-0.29339564 -0.38944107 0.28267056 0.05479395 -0.15063582 0.5480711 -0.42443544 0.35907966
-0.08797552 0.26052293 -0.356899 0.3417495 -0.6581239 -0.45059648 0.44785643 -0.32335824
-0.28805298 -0.07676995 -0.31071177 0.53563595 -0.060473155 -0.29017404 -0.49201563 0.0044860085
-0.34938776 0.095450796 -0.13762537 -0.14762141 0.0716188 0.22903326 -0.25541735 -0.16386592
0.31239823 0.14024913 -0.27400488 0.4964957 -0.07556147 0.71655965 -0.07240743 -0.1982648
0.14916164 0.2729285 0.2125498 0.040926017 -0.14285083 0.37724262 -0.3308037 0.52869165
-0.38400957 -0.2627766 0.29201645 0.36352742 0.21732762 -0.39500585 0.10126368 -0.05792467
0.10125629 -0.07240859 0.1278983 0.38190502 -0.49530724 0.2357349 -0.68268275 -0.00707133
-0.5031667 -0.15524165 0.043612916 -0.6082918 -0.04345298 0.00932309 -0.5426589 -0.04504427
-0.3619227 -0.3450273 0.040278673 -0.08292597 -0.19495837 -0.64227253 0.026470138 -0.24060676
-0.1672941 -0.18740189 -0.40240172 -0.18775904 0.13201657 0.1879313 0.45470685 0.5786142
-0.2723013 0.37565666 -0.45014134 -0.2667759 -0.09700798 0.08004456 0.4404096 -0.039191395
-0.41712132 -0.44810528 -0.48042804 0.22825058 -0.3381568 -0.46057338 -0.33823025 -0.38536212
-0.3917583 0.37908095 -0.0032064184 0.36174178 0.20987472 -0.5136037 0.33912918 -0.10936916
-0.22997844 0.2985653 0.33051386 -0.19423452 -0.40549004 -0.09402504 0.15271829 -0.35322148
0.20222077 0.2925387 -0.096955106 0.33994666 -0.31254056 0.42514873 -0.10070326 0.5447692
-0.13280296 -0.0062585543 0.48989603 -0.102173686 0.504193 0.2853923 -0.03014542 0.02529422
-0.26183105 0.09692936 0.25776914 -0.07904488 -0.5739057 -0.20021942 -0.1835874 -0.13388517
-0.15820149 0.32918948 -0.06678882 0.09921999 0.41485626 -0.57803684 -0.06752531 -0.0897194
0.2444815 0.04381823 0.49711177 -0.38285503 0.016277608 -0.64265984 -0.37936375 -0.53492427
0.085088685 0.034054007 -0.05444747 0.16369389 0.051263887 -0.43780905 0.39233387 -0.72442096
0.4143632 0.28310093 -0.28711486 0.055026207 0.10914113 -0.05558583 0.19265486 -0.32739717
-0.15790807 -0.24790275 -0.18663517 0.3804961 -0.54640037 0.036505625 -0.33365306 -0.36628193
0.5602998 -0.47365865 0.32272515 0.03694647 0.17017476 -0.13026987 0.23329136 -0.19270712
0.052464068 -0.38056856 -0.15411888 0.2053966 -0.44804445 -0.056442216 -0.2940783 -0.30628914
0.16784357 0.40310958 0.11318414 -0.1806981 0.2981492 -0.23737684 -0.43954182 -0.016921386
0.2894649 0.24008599 -0.3444965 0.33979642 -0.6721498 -0.14416976 0.35514778 -0.12753959
0.06839224 0.078931674 -0.31042033 -0.24724331 0.17924072 0.008271927 0.32700345 0.1772389
0.14757393 -0.27615318 -0.3978709 -0.47919852 -0.3275165 -0.32723203 0.17473952 -0.20964639
0.2454412 -0.25613183 -0.108652525 0.14381234 -0.0394545 0.4565715 0.24039464 0.16460405

actor.0.bias f4 [64]
00000000: d501 8bbc 49ac 86be d999 313d da19 9e3e
00000010: 6953 1a3d 1228 5dbd 6977 ae3e 6a05 9abe
00000020: c641 823e 0044 3fbd bc6c 3bbe d1df 6b3e
00000030: 4d0b ae3e f07d 95be 592b f33b 84e2 34be
00000040: b4ac a53e 17cc 8bbc f821 303e ef84 713e
00000050: 4bb1 b4be c41b ae3e 89c2 843b 9a68 b43e
00000060: 693f 8fbe 8414 07be d146 293e 4303 19bd
00000070: 9763 3f3e 18e6 b7be 7986 d63d ddae ec3e
00000080: 7176 8dbc 745b c93e 046f a93e 1711 a6bc
00000090: 474a 57bd 13f8 333e 6099 6e3e 78c2 103e
000000a0: 7fd8 8fbe f910 a7bd 44b7 b93d dfab 92be
000000b0: 7426 4f3e e1da 79be d2f0 9fbc 7cb7 3dbd
000000c0: 4f6a 823e ade2 0fbc 0ed9 a8bc aed1 b9bd
000000d0: 2c23 913d 8087 cc3d 86d3 783e cb57 91be
000000e0: 1d8c 78be 5ced 99bd dfee 40bd 1ec3 49bd
000000f0: 8ccf 16be 851e 86be 023e 95be 1f21 2fbe
-0.016968647 -0.26303318 0.04335961 0.30879098 0.037677202 -0.053993292 0.34075478 -0.30082256
0.25440806 -0.04669571 -0.18303198 0.23034598 0.33992997 -0.29197645 0.007420939 -0.17664534
0.32358325 -0.017065091 0.17200458 0.23585866 -0.35291514 0.34005558 0.0040515107 0.35236055
-0.27978066 -0.1319142 0.1653092 -0.037356626 0.18690334 -0.35917735 0.104748674 0.4622716
-0.017268391 0.39327586 0.3309251 -0.020271821 -0.05256107 0.17575102 0.23300695 0.14136684
-0.2809486 -0.08157534 0.09068158 -0.28646752 0.20229512 -0.24399902 -0.019524012 -0.046317562
0.25471732 -0.008782071 -0.020611312 -0.09073196 0.07086787 0.09986782 0.2429944 -0.28387293
-0.24272199 -0.07515976 -0.047102805 -0.049258344 -0.1472761 -0.2619516 -0.2914887 -0.17102478

actor.2.weight f4 [64, 64]
00000000: 842a b6bd 8b92 b23d 8404 003d e229 5b3e
00000010: 5ffe 53bd 7c2f ee3d 3ed8 ab3d 2231 c9bc
00000020: 2845 5abd 69d8 af3c 2dbe acbe 2457 02be
00000030: ab38 32be 6aee 70be d33e 72bd 1163 543e
00000040: 0e01 ce3b 2829 003d 407b 66bd 6530 b93d
00000050: bc67 b1bd 1d96 7c3e 414e 1c3e 24f9 813e
00000060: 000d c0bd f1a9 2cbe 9bf8 863e e9ee c5bd
00000070: 2b7a 28be 5355 3cbe 3b9d d43c 0c0e 523e
00000080: b2c8 71be 44bf 8abe 69e6 743e 274c 43be
00000090: cc7d fe3d 8bc0 533e efd6 963e a8c5 c23e
000000a0: 128d b63e 4e4d 5f3d 2f15 debd 5cf9 01be
000000b0: 1b83 073e ea56 c53d 3185 d03d 7a0d 2cbe
000000c0: 9dfa d73d 3d9f 29be 787c 4f3c 7e1b 503c
000000d0: e315 c23c c95c 2ebd 0ae2 c93d d46f 64be
000000e0: 8340 4fbd 5f81 a6be cdd5 f13d 2439 9ebe
000000f0: 1cf2 babb f468 2f3e 9a18 66be 1848 0a3e
00000100: 3f6c a9bd 4aac b2bd 05f8 e43d fbd7 42bc
00000110: f243 103e a957 86be 73fa 9a39 553e cfbd
00000120: 561c 6a3e aa88 e5bd a1f2 ec3d 0550 7f3d
00000130: 38a1 b9bb d29d 0b3e 1635 dcbd 517d 69be
00000140: 4bd9 a03c 3b16 753c 3154 59bd ee50 5ebd
00000150: b1f4 10bd bf3a 11be 635a 60be c1ca a2bd
00000160: 2753 223e bb2c fa3c 2275 3abe da8e 263e
00000170: d7ef 483e dd11 a8bc 5407 853d 0e9c f3bd
00000180: 6e3c 653e 1886 6c3e 8dbb 5dbd f688 ad3d
00000190: 60db 1dbc 0231 97bd 5994 20bd c06b d6be
000001a0: 06d2 c1be 67a7 f13d 0f8a a03d c2e6 76bd
000001b0: 2891 fcbd 3ed0 0fbe 6100 23be 51d5 283e
000001c0: f15c edbd a8bd 8c3d 8f00 b53d 87f9 233d
000001d0: 89e4 1bbd a63e a33d ef51 03be 7373 323d
000001e0: 3a13 51be 4022 ab3e e84b 4abe 9a5d be3e
000001f0: a484 b6bd 95b9 cabe 9a2b d23d 20af e1bc
00000200: 5c66 1ebe 4003 903d 62ff 4bbe d6a8 a8bd
00000210: 101c 3c3d d232 383d 475b b2bd 5cd1 353e
00000220: f606 443b 0fd7 bb3c 8d51 8cbd e2c4 5bbd
00000230: 1ca4 18be 3e1b b33d 319a cdbd 5238 8d3e
00000240: b6cf 293d 8034 4f3e b76c 1bbe ce15 a8bd
00000250: 88ec 92bb 7736 ab3d 7310 6a3c 5772 e33c
00000260: 2bf7 4b3e f7ee f13b b9ec 72bc 6f79 46be
00000270: 7223 73be 9c46 743d 2581 1f3e a12b c3bd
00000280: 5464 11be 0250 06be b5bf 5cbe 6838 183a
00000290: b33a 8dbd 56e3 aabd a927 09be bc79 4abd
000002a0: 141a 833e 755a 063e 2ac6 9dbb 0774 be3c
000002b0: 0a11 323e a13b 293e 69e6 bbbc acb0 013d
000002c0: 56ce 353e 61d3 4eb8 ed69 b13d 2133 56be
000002d0: 94d2 273d 713d efbd 8f94 4a3c 2129 33bd
000002e0: 6f82 0d3e d3e3 a6be f345 343e 8de2 0bbe
000002f0: 6d62 b23d 2732 1e3e 0408 0ebc a85a 57bd
00000300: 5ede 1b3d 658d dc3c 5ddd a73d dc2a 2a3d
00000310: 2b8f b9bd d715 5e3e ab34 cb3c cd81 253d
00000320: 789e 853c 04c1 4b3e 3aac e5bd ab87 8cbd
00000330: f40f 4cbe b93e 243c 6736 c0bd 632b ab3e
00000340: bde4 84bd d1e2 9d3d 7577 07be f8d6 a4bd
00000350: 50d7 7b3d da1d fb3d cceb c63d fc5e f13d
00000360: d40b 0ebd d307 b8bd d761 573e 4364 3abe
00000370: b181 bfbd 00e4 663b af95 a1bd 6c9d 493b
00000380: ee26 8ebd eb8d dabd 70a2 98bc 2c21 31be
00000390: f75b 0d3c e2d2 c13c 024c 333d 207a 913e
000003a0: f5c9 cf3e b5d9 8abc e223 90bd 758d 693d
000003b0: 7fa3 553e 869b 2c3e bbe2 45bd 3e52 6a3d
000003c0: 9495 023d c1a3 0b3d 947f 94bd 00d8 3a3c
000003d0: c543 ff3d 996c 93bd 2c43 e63d d4a8 ca3c
000003e0: 6119 7f3d 63c3 88be a753 273e d650 96be
000003f0: a0d4 773e 269f 5c3e 1808 d3bd ed15 82bc
-0.08894828 0.08719357 0.031254306 0.21402696 -0.05175626 0.11630151 0.08390854 -0.024559561
-0.05328861 0.021465497 -0.33738843 -0.12728554 -0.1740443 -0.23528448 -0.059141945 0.20740916
0.006286747 0.03128925 -0.056269884 0.09042434 -0.08662364 0.24666639 0.15264226 0.25385392
-0.093774796 -0.16861703 0.26361546 -0.09664709 -0.16452853 -0.18391924 0.02595388 0.20513171
-0.23611715 -0.2709905 0.2391602 -0.19072019 0.124263376 0.20678918 0.29460856 0.38041425
0.35654503 0.054517083 -0.10843884 -0.1269278 0.13233607 0.09635718 0.10181654 -0.16802016
0.105458476 -0.16564651 0.012663953 0.012701867 0.023692077 -0.042568956 0.09857567 -0.22308284
-0.050598633 -0.32520577 0.118083574 -0.3090297 -0.005705131 0.1712988 -0.22470322 0.13504064
-0.082725994 -0.08724268 0.111801185 -0.011892314 0.14088419 -0.26238754 0.00029559768 -0.10119311
0.22862372 -0.11207707 0.11569715 0.062332172 -0.0056649707 0.13634422 -0.10752313 -0.2280171
0.019634863 0.014958913 -0.053058807 -0.0542764 -0.035389606 -0.14182566 -0.2190948 -0.079488285
0.15852033 0.030538907 -0.18208745 0.16265431 0.19622742 -0.02051633 0.06495538 -0.118949994
0.22386333 0.23098028 -0.05413394 0.08473389 -0.009634823 -0.073823944 -0.039203975 -0.41879082
-0.37855548 0.117995076 0.078388326 -0.06027866 -0.12332374 -0.14044282 -0.15918113 0.16487624
-0.11589993 0.068721116 0.08837997 0.04003289 -0.038059745 0.079709336 -0.12824224 0.043567132
-0.2041749 0.33424568 -0.19755518 0.37180787 -0.08912018 -0.39594713 0.102622226 -0.027549326
-0.15468735 0.0703187 -0.1992164 -0.08235328 0.0459252 0.04497034 -0.08708816 0.17755646
0.0029911376 0.022929696 -0.06851492 -0.05365456 -0.14906353 0.087454304 -0.10039175 0.2758203
0.041457854 0.20234871 -0.1517819 -0.08207284 -0.004483763 0.08359998 0.014286148 0.027764482
0.19918506 0.007383223 -0.014826947 -0.1938226 -0.2374399 0.05963765 0.15576608 -0.09529806
-0.14198428 -0.13116458 -0.21557505 0.0005806745 -0.068959616 -0.08344142 -0.13394035 -0.0494325
0.25605834 0.13120444 -0.0048148828 0.023248686 0.17389312 0.16526653 -0.022937017 0.031662628
0.17754492 -4.931109e-05 0.08662782 -0.20917942 0.040972307 -0.11681641 0.012364521 -0.043740395
0.13819288 -0.3259569 0.17604809 -0.13660641 0.087101795 0.15448819 -0.008668903 -0.05257669
0.038053863 0.02692289 0.081965186 0.04154478 -0.0906051 0.21688019 0.024805387 0.04040699
0.016310915 0.19897848 -0.1121449 -0.06861814 -0.1992796 0.01002472 -0.093853764 0.3343154
-0.06488941 0.077092774 -0.13229163 -0.080488145 0.061484635 0.12261553 0.097129434 0.11785695
-0.03467925 -0.08985867 0.21033417 -0.1820231 -0.093509085 0.0035231113 -0.07889878 0.0030763997
-0.06941019 -0.106716 -0.018632144 -0.1729781 0.008627883 0.023660127 0.04377366 0.28413486
0.40583768 -0.016949514 -0.07038094 0.05701967 0.2086315 0.16856202 -0.04831193 0.05720734
0.03188093 0.034091715 -0.07250896 0.0114040375 0.12464098 -0.07198448 0.11243281 0.024738707
0.062280063 -0.26711568 0.16340505 -0.29358548 0.24202204 0.21545085 -0.10304278 -0.015879596

actor.2.bias f4 [64]
00000000: f502 c9bd 9f63 c63d b4d1 fabd 1da4 00be
00000010: be3f 04be f428 a0bb 96e0 c13c 9501 9fbc
00000020: ff4a f63b eacd 1d3e be84 093d ed3b d1bd
00000030: 116b 3fbc 37b7 a33d fc38 b63b 2a76 443e
00000040: f1b5 92bd ca1d 453d 2a6e 153d 3e9e 72bd
00000050: 6cda 54bd d036 1fbe 965b 6cbd 218d 8dbd
00000060: b23d 2a3e 4b08 b63d 3ea0 943c 43b2 113e
00000070: 2217 c5bc a247 09be eb2e 0ebe 5731 2abe
00000080: dfe1 a63d dc8a 673d a26b 84bd 90a9 013e
00000090: 44ad 653d 6a4c 703d 57ed aebc 70c4 1c3e
000000a0: 2d34 aaba 4bd6 eb3d 62ce ce3d 2ea4 17be
000000b0: dc81 6abd 2894 e2bc 83cb f13d 02c7 133d
000000c0: 9778 b0bd 3309 98bd db24 0fbe 4a4f 4c3e
000000d0: c3d8 063e 976a b23c 59e5 f23d 4475 31bd
000000e0: b978 adbc 442c de3d 1107 6d3c 1cba 12be
000000f0: d99e 85bb 3e0f 22be 905f 91bd c223 96bd
-0.09815017 0.0968697 -0.12247029 -0.12562604 -0.1291494 -0.0048876945 0.023666661 -0.019409934
0.0075162644 0.15410581 0.03357386 -0.10216508 -0.011683241 0.0799393 0.0055609923 0.19185701
-0.07163609 0.048124112 0.036482014 -0.059232943 -0.051966116 -0.15548253 -0.05770453 -0.06911684
0.16625097 0.088883005 0.018142816 0.14228158 -0.024058882 -0.13406232 -0.13885085 -0.16620384
0.0814855 0.05652891 -0.06465842 0.12662339 0.056073442 0.058666624 -0.021353407 0.1530931
-0.001298552 0.115154825 0.10097958 -0.14808723 -0.05725275 -0.027658537 0.11806395 0.03607846
-0.08616751 -0.074236296 -0.13978903 0.19952121 0.13168626 0.021779342 0.11860151 -0.043324724
-0.02117573 0.10848287 0.014467017 -0.14328808 -0.004077774 -0.15826127 -0.07098305 -0.07331039

actor.4.weight f4 [3, 64]
00000000: 1512 ca3e a92d f9be 9c7f 123e ad8b 983e
00000010: 0b12 11be 8b22 913e dc4e 1abe 34ea bebe
00000020: bfb6 333f f012 b1be 6a24 85be b605 b2be
00000030: af53 a83d e581 eb3e 096b 223f 7c3d dbbc
00000040: 602d 0b3f 82b0 2abf 3298 1c3e 37fe 963e
00000050: 5293 99be d58b 90be 2f07 073f 3139 fbbe
00000060: cb10 ccbd df72 be3e 813b 203f 0597 c7be
00000070: baaa 183f cd88 2a3f 5c3c bbbe ebcb 003e
00000080: 7fc2 823e 1807 033f e1f4 b9be 0484 4c3d
00000090: 72f6 35bd be8d a8be 0941 e33e 768d c9be
000000a0: 6cac 03bf a485 983d f1a6 913e 710b e53e
000000b0: 9a6d ca3e 0568 57be f2ce cc3b 3389 103f
000000c0: 4929 9a3e 3c10 033f 67c6 2dbd 1dc1 c7bd
000000d0: 90af e23d a038 ee3e 5cb7 52be 3fd8 273f
000000e0: 93aa bebe 8b39 67be 7014 033f b064 6dbe
000000f0: 5bae 03bf 28c4 063f 9a6d 8a3e b973 62be
00000100: f9eb d6bb faa4 0a3e 3785 2dbe 3bea 04be
00000110: 6d4f 0fbe 94f5 28be 3c03 07be a042 c8bb
00000120: 1a11 b73b 7f8f a93d c1bf 73bd cde1 abbd
00000130: 69bd 66bd c3db 3d3e 6ed4 ebbd 4150 163e
00000140: 7368 92bd d143 303d 0d4d df3d 218a 6f3d
00000150: 5983 48bd a0b5 3dbe b367 14bd 0f09 04bc
00000160: 324f f03d 0fab 00bd 666d 3f3d 3f17 4c3e
00000170: 61a9 0b3e 197a 8cbd 5406 7cbe c7a5 2dbe
00000180: 9dd6 3f3b 1f88 f7bc 4c73 fabd 1288 8f3d
00000190: a5b5 c63d 9ad6 543d 91f9 1ebe 287a d83d
000001a0: 34f3 06be 24fd a63c 01e8 4c3e 4751 12be
000001b0: 2da2 9fbc 02fc 9bba 25fe d53c 691f 56bd
000001c0: 0ee9 59bc be22 03bd 2765 06be c3b4 273e
000001d0: 7627 ff3d d459 dbbd 1b59 3d3e 7235 f3bd
000001e0: 5899 c6bd afa1 363e d538 d2bd eca9 3cbe
000001f0: 1b34 1c3e a4f5 e8bd 4f70 3abd bc9c 1abe
00000200: 0351 10bf e7bf 8d3e dd88 283d cee5 efbd
00000210: 1d68 083f 1405 0fbe a109 f63e 4bee 873e
00000220: f92d f0be d476 de3d 20f0 243f b476 2f3f
00000230: 7bb3 f43d 0b04 20bf 9259 ffbe dc4a 21be
00000240: 2083 8abe 6e1c 8f3e 19e7 f8be e7ed fdbe
00000250: 7872 e13e cb4a 1f3f cd71 acbe c309 e73e
00000260: dc92 cdbd 5f22 ffbe a662 c6be 29a0 8c3e
00000270: 53c4 fdbe 5cb8 e7be 7e00 313f f2ed dc3d
00000280: 3de1 64be 7542 36bf cb9b 333f 3984 cbbe
00000290: 96f6 233c 59a6 be3c d345 9bbe feea f53d
000002a0: f2a5 ed3e 56c1 a4be d104 05bf a6dd 5fbe
000002b0: cccb 9ebe 1302 373f 718f 8ebe 1f09 debe
000002c0: 78d0 b0be 9cc4 51be 7de8 bc3d 87d5 32be
000002d0: 6fe8 e8be 80f9 61be ce97 693c 0cb8 e5be
000002e0: 9583 d43e c192 06bd cb37 6abe f421 963e
000002f0: 7df3 883e 558e 9fbe 523d 13bf 78f0 873e
0.3946692 -0.48667648 0.14306492 0.29794064 -0.14167039 0.28346667 -0.15069145 -0.37288058
0.70200723 -0.3458476 -0.26004344 -0.34769982 0.082190864 0.4599754 0.6344457 -0.026762716
0.5436611 -0.6667558 0.15292433 0.29490826 -0.2999521 -0.28231683 0.52745336 -0.4906707
-0.099641405 0.37197015 0.62590796 -0.38982406 0.5963551 0.6661499 -0.36569488 0.12577789
0.25539014 0.511827 -0.3631964 0.049930587 -0.04442448 -0.3292064 0.44385555 -0.3936574
-0.5143497 0.07447365 0.2844768 0.44735292 0.39536744 -0.21035774 0.0062502557 0.5645935
0.30109623 0.51196647 -0.04242554 -0.0975363 0.11068642 0.46527576 -0.20577759 0.6556434
-0.37239513 -0.22580545 0.5120306 -0.2318294 -0.5143792 0.5264306 0.27036744 -0.22114457
-0.006558892 0.13539496 -0.16945349 -0.12979977 -0.13995142 -0.1649993 -0.13184828 -0.006111458
0.0055867555 0.08279323 -0.059509043 -0.083926775 -0.05633298 0.18540864 -0.11515127 0.14679052
-0.07148828 0.043033425 0.10903368 0.05848134 -0.048953388 -0.18526316 -0.036231708 -0.0080588
0.11733855 -0.031413134 0.04673519 0.19930743 0.13638832 -0.06859226 -0.24611789 -0.1695777
0.0029272207 -0.030216275 -0.122290224 0.07008375 0.09702615 0.051962472 -0.1552489 0.105701745
-0.13178712 0.020384379 0.20010377 -0.14288817 -0.019486511 -0.0011900666 0.026122162 -0.05227605
-0.0133001935 -0.032015555 -0.13124524 0.16377549 0.124586985 -0.10710493 0.18491022 -0.11875428
-0.09697217 0.17835115 -0.10264746 -0.18424195 0.15254252 -0.11374977 -0.045517262 -0.15098852
-0.56373614 0.27685472 0.041146148 -0.11713754 0.53283864 -0.13966781 0.4805422 0.2654899
-0.46910074 0.108625084 0.644289 0.685405 0.11948296 -0.6250617 -0.49873024 -0.15751213
-0.27053165 0.27951378 -0.48613814 -0.49595568 0.44032645 0.622235 -0.33680573 0.45124635
-0.10037777 -0.4983091 -0.38747138 0.27465943 -0.49563846 -0.45257843 0.69141376 0.10787572
-0.22351547 -0.71195155 0.70159596 -0.39749315 0.010007521 0.02327268 -0.3032671 0.12007712
0.4641567 -0.32178754 -0.51960474 -0.21861896 -0.3101486 0.7148754 -0.27843812 -0.43366334
-0.3453405 -0.20485157 0.09224031 -0.17464267 -0.45489833 -0.22067833 0.014257384 -0.4486698
0.4150664 -0.0328548 -0.22872846 0.2932278 0.26748267 -0.31163278 -0.5751544 0.2655065

actor.4.bias f4 [3]
00000000: 157e debc 1b5c 383e 4416 dfbc
-0.02715973 0.18003885 -0.027232297

critic.0.weight f4 [64, 5]
00000000: 650d 6d3e 07ab 4cbe 2811 203f e000 6d3e
00000010: 9d7a 86be 644a cb3e da31 abbe 5b8a 09bf
00000020: c422 adbe 8ec1 0b3f 9839 ecbd ef01 a6be
00000030: 9a65 bd3e fc24 7b3e e079 f7be 3f27 503d
00000040: 1fa0 aebe 2c36 9cbd 35ec 8dbd 8df9 953f
00000050: 650c d6be 4205 873e 88a8 8fbe 4b3a 59be
00000060: b2bc ad3f 6998 5dbd 80a0 bdbe 3509 19bd
00000070: e1b4 af3e 59d1 a23f 8fb8 b8be 2af1 683e
00000080: e49d cb3e a610 69be e08d 353e 50a3 a8bc
00000090: 5939 a0be 7575 c6be f7e0 f73e b65e 12bf
000000a0: ec95 1f3e 365a cb3e cc5d 7bbe e55f 283e
000000b0: 44e5 8a3f 4e6c 96be 9430 86be 6300 a8be
000000c0: 20b1 c3bd d726 b13f de97 823e 9106 91be
000000d0: 3203 1a3f b2fa 553e 356b 81bf 3ba2 c0be
000000e0: 7c0e c33e e4a2 b4be bc5a e13c 512a 83bf
000000f0: 3761 3fbe f2e0 ca3d 5182 c5bc b0d7 36be
00000100: 1db5 193f 4696 703e 45ad d6bd d72d 82be
00000110: 7a33 97be ae46 5ebf 7dcb a23e 9f97 cb3e
00000120: 7558 6dbe ad7e 9b3e b876 933f 92c1 673d
00000130: b006 aabd 237e b43e b6a6 adbe 43b2 82bf
00000140: 0436 ba3e 48fc 97be 3071 bc3d d6f5 56be
00000150: 6e99 b33f 8bc4 863e 52aa 563e b1fe 9cbe
00000160: e435 cebe 30eb 993f d6df 69be 0eac a03e
00000170: 11de d8be 7e7f 013d 3c6f efbe 1064 123d
00000180: fae4 b93e 84b4 003f 5278 6f3e 4ddb 5f3f
00000190: ec0b 06be 2b3f 6cbe 65a2 5abe 06b8 60bd
000001a0: 9b5c b13f c3c5 413e 4e2a 4d3d 2c87 2e3e
000001b0: 827e f3bd ccff a3bf d42c 0fbe b97d 5dbe
000001c0: cdf2 d5bd 6ff0 b6be b6c7 853f 13de a13e
000001d0: 152a c4bd fa5e e7bc b8a0 4a3e 89ef b4bf
000001e0: 0c7b 383d ffe7 f3bd 3ccb 1c3f c9d8 0dbd
000001f0: 84f6 24bf 6aa2 11bc d4d2 84be f7cf 11be
00000200: 5606 9f3e 4abd b93f 1d34 6f3e 7940 f0bc
00000210: 5e3b 71be 2989 0cbe 1b77 b33f fbbb bbbe
00000220: ebb9 663d 1049 d7be 5c42 493c c448 bbbf
00000230: 8c82 923e 58cb 94be a5cf b8bd 460f bbbd
00000240: f709 32bf ec08 abbe 124d c13e 45d4 03be
00000250: f497 993e afaa 813f 5b70 d6be ef08 62be
00000260: 4d9d 8abd e0b3 bb3e f13f 9abf 3fbc 25be
00000270: 78a0 4c3e 7c40 97be 8d4b 13be 546d 8e3f
00000280: ae17 26be db4a 7abe 5998 9e3d 2fcb 9dbe
00000290: e4c2 eb3e 8297 433d 58ae 82bd f4bb 99bb
000002a0: af96 753e 27e3 343f 6d26 dabb ebee 693e
000002b0: 1653 ca3d 35f9 c7be f5a6 5a3f 7350 81be
000002c0: 6c02 44be c18d 7f3e ad30 5cbe 940b e23e
000002d0: 391d d23c 6690 3bbe 1e0d ae3e 713e ad3e
000002e0: 3f05 a8bf 8ea6 f3bd a312 08be d693 093f
000002f0: fe70 0e3e d7b4 c5be 29e0 afbe b0ae 713e
00000300: deb9 243c 9f22 bc3e 702f 33bf 67f1 2cbe
00000310: 4e27 793d 5069 5a3e 4b73 b13e 0340 7bbf
00000320: 6429 9a3e ec1c b03d 95b4 b93e af17 4bbe
00000330: eb9a adbf 22a3 273e 3e0f cabd ca80 06be
00000340: a976 c33e 596f a7bf 6e68 8c3e 340a 3bbe
00000350: 6c53 913e 0dc9 ce3e 9650 c9bf 5b80 96bd
00000360: 8cd6 adbe f5b5 0cbe ff5c 88be 8c6d b53f
00000370: 0cb8 58be fd41 d33d bb4a 0b3e f835 d0be
00000380: 0a08 8bbf 3b2e cf3c d225 473e bbf4 e33e
00000390: 5098 b23d 01cb 75bf aee1 87be 063d 3d3e
000003a0: f3f9 923e 8d38 fcbd ffe2 abbf cea3 84be
000003b0: 305b 3d3e e0f3 f9bd 2b98 473e 5466 b5bf
000003c0: fadf c43e d735 cabd 8085 0cbf 1489 17bc
000003d0: 5481 b43f c31b 0bbe 8766 16be 55c5 f0bb
000003e0: d0ae 29be 6743 a63f d731 653c f810 39be
000003f0: 5702 0c3e 47eb ecbe 317e 95bf b7fb a43e
0.23149641 -0.19987117 0.6252618 0.23144865 -0.26265422 0.39705193 -0.3343647 -0.5372674
-0.33815587 0.54592216 -0.11534423 -0.3242335 0.36991578 0.24525827 -0.4833517 0.050818678
-0.34106538 -0.0762752 -0.069298185 1.1716782 -0.4180633 0.263712 -0.28058267 -0.21213643
1.357321 -0.054100428 -0.37036514 -0.037362296 0.34317687 1.2720138 -0.36078307 0.22748247
0.39768898 -0.22760257 0.17729902 -0.020585686 -0.31293753 -0.38761488 0.48413822 -0.5717577
0.15584534 0.39717263 -0.245475 0.16442831 1.0851216 -0.29379505 -0.26208937 -0.32812795
-0.09555268 1.3839978 0.2550649 -0.28325322 0.60161126 0.20896414 -1.0110842 -0.37623772
0.38096988 -0.35280526 0.027509086 -1.0247289 -0.18689428 0.09906186 -0.024109991 -0.17855716
0.6004198 0.23494825 -0.10482267 -0.25425598 -0.2953146 -0.868266 0.31795874 0.39764115
-0.23178275 0.30370083 1.1520605 0.056581087 -0.08302057 0.35252485 -0.33916253 -1.0210651
0.36369336 -0.29684663 0.09201276 -0.20992216 1.4031198 0.26321825 0.2096341 -0.30663064
-0.4027549 1.2024899 -0.22839293 0.31381267 -0.42356923 0.031615727 -0.46764553 0.03573996
0.36307508 0.50275445 0.23385742 0.87444 -0.13090485 -0.23070972 -0.21351011 -0.054863
1.3856386 0.18923096 0.050089173 0.17043751 -0.11889364 -1.2812438 -0.13981944 -0.2162999
-0.10446701 -0.3573031 1.0451572 0.31614742 -0.09578339 -0.02824353 0.19787872 -1.41356
0.04503922 -0.11909484 0.6124761 -0.03463057 -0.64438653 -0.00888882 -0.259421 -0.14239489
0.3105952 1.4510891 0.23359723 -0.029327618 -0.23557803 -0.13724197 1.4020723 -0.36666855
0.05632965 -0.4204793 0.012283888 -1.4631581 0.28615224 -0.2906139 -0.0902398 -0.091337726
-0.69546455 -0.33405244 0.37754112 -0.12873943 0.29998744 1.0130213 -0.41882595 -0.2207372
-0.06768284 0.3666067 -1.2050763 -0.16185091 0.19983089 -0.29541385 -0.14384289 1.1127114
-0.1621997 -0.24442618 0.07743902 -0.3081908 0.46047127 0.04775191 -0.0638091 -0.004691595
0.23983262 0.70659107 -0.0066574127 0.22845046 0.09879129 -0.39057317 0.85411006 -0.2525669
-0.19141549 0.24956419 -0.21502943 0.44149458 0.0256487 -0.18316802 0.33994383 0.33836702
-1.3126601 -0.11897002 -0.1328836 0.53741205 0.1391029 -0.38614532 -0.34350708 0.23601794
0.01005408 0.36745164 -0.6999426 -0.16888963 0.0608285 0.21329236 0.34658274 -0.9814455
0.30109704 0.085992664 0.36270586 -0.19833253 -1.3562902 0.16370824 -0.098661885 -0.13135067
0.38176468 -1.3080856 0.27423424 -0.18265611 0.28383958 0.40387765 -1.5727718 -0.073487006
-0.3395275 -0.13741286 -0.2663345 1.4174056 -0.21163958 0.10315321 0.13602726 -0.40666175
-1.0861828 0.0252906 0.19448021 0.44522652 0.087204576 -0.96012884 -0.26539367 0.1848031
0.2870632 -0.12315474 -1.3428649 -0.25906223 0.18491817 -0.122047186 0.19491641 -1.4171853
0.3845213 -0.098735504 -0.54891205 -0.009248991 1.4101968 -0.13584809 -0.14687549 -0.0073477426
-0.16570592 1.298932 0.0139889335 -0.1807288 0.13672768 -0.46273252 -1.1679136 0.32223293

critic.0.bias f4 [64]
00000000: dcfc c5be 1fea c33e cd55 9c3e a04b ac3e
00000010: 7f35 e53e 1ebc 36bc ec63 05bf 2ca0 97bb
00000020: 54f4 5ebe 0f45 b53e b399 c3be b9ae 663d
00000030: 4e52 81bc 7e02 803d ebc7 a4be 0f88 79be
00000040: 847d 7cbd 70fc bb3e e311 81bd 975f 60be
00000050: 4a36 cc3e 312f 133e 9ac9 c6be b26e 89be
00000060: 5ab1 e5be c7e8 5fbd cf07 1cbe b4b6 e5bd
00000070: b019 de3d 1842 f83d 4114 93be 8307 8a3e
00000080: 53fe 1fbe c6e7 49bd 7bfb c6bd 6440 b1be
00000090: 7c7c 9bbe 74fe c6be 4c50 ecbd ed6a 9c3e
000000a0: 76b9 69be 76f0 4bbd a866 e43c 15a2 51be
000000b0: 4295 4bbd 3938 04bf b634 cfbe 392f ad3e
000000c0: e76f ca3e fa38 bfbd 4c84 0cbd befb cfbd
000000d0: 65da d23e 6449 be3e b0f4 bb3c 99c0 bb3d
000000e0: 0fa0 32be 6b71 0ebd 0ef2 a4be 5959 47be
000000f0: de50 1fbc bf9c 553e 7031 29be 7ad9 53bb
-0.3866948 0.38264558 0.3053421 0.33651447 0.44767377 -0.011153249 -0.52105594 -0.0046272483
-0.21772891 0.3540425 -0.382032 0.056318972 -0.015786316 0.06250475 -0.32183775 -0.24368308
-0.06164314 0.36716032 -0.0630224 -0.21911465 0.3988517 0.14373471 -0.38825685 -0.26842266
-0.4486187 -0.054665353 -0.15237354 -0.112164885 0.10844743 0.121219814 -0.2872639 0.26958856
-0.1562436 -0.049293302 -0.09715935 -0.3461944 -0.30368412 -0.38866007 -0.11538753 0.30550328
-0.22824654 -0.04978987 0.027880982 -0.20471986 -0.04970289 -0.5164829 -0.40469903 0.3382509
0.395385 -0.09337039 -0.034305856 -0.10155438 0.41182247 0.37165368 0.022943825 0.091675945
-0.1744387 -0.034776133 -0.32215923 -0.19467677 -0.00972387 0.20860575 -0.16522765 -0.003232567

critic.2.weight f4 [64, 64]
00000000: ec88 2c3e 4c0d 873d ef39 eabd d5da ca3d
00000010: 4764 72bd ca60 4d3d 617d 4a3c b13a 75bc
00000020: 70c0 893d fc71 b33d 69b2 163d f2fa d6bd
00000030: 8aab a5bd 8979 f0bd e6f8 823d 76f4 6c3d
00000040: e6da 953c 00a1 ccbd 2643 143d f0b1 7ebd
00000050: 2a64 99bd 7754 5c3c a0e7 f93d 90e0 98bd
00000060: a147 e73d d1f1 48bc 13e3 34bd d024 06be
00000070: 9372 f33d aed9 5dbc 84e0 fc3d 7250 a7bd
00000080: a38f c33c 9d23 663d 98d6 f7bd 385f 5cbc
00000090: 59dc 3cbd d9ce fa3d 6408 af3c f874 cdbd
000000a0: e8e5 a8bd 97dd 373d 5824 3d3c f4c5 7fbd
000000b0: 3b90 efbd ea36 2abd 6d75 4ebd bbc2 a6bd
000000c0: 1921 babb 795c 003d 81f1 1abe ba28 9e3c
000000d0: cb81 2239 d39c b1bd ac87 0dbe 7a8a 273e
000000e0: 0904 02be 1005 89bd a3cc ae3d 912d 8abd
000000f0: b8c5 febc 94c0 cbbd 9ecb 853d 6718 94bd
00000100: f185 c33b 11df b9bc 8238 b63c 6dde f03d
00000110: d0b0 663d 2e0c d2bc e568 b9bd 3953 8b3d
00000120: c6d4 bc3d ed21 b73d f774 323d ec9a 1a3d
00000130: d70f afbb 651e 343d 9013 cfbd c7ba 77bc
00000140: 0ac5 a0bd 4b29 ca3d f52e d93d 4c71 e23d
00000150: 923f 88bd e75f ed3c 191f dfbc 12c1 793c
00000160: 9b89 5fbd 1325 f5bd de52 27be a810 adbd
00000170: 9866 abbd f928 0fbb 698e a8bd edf4 003d
00000180: 23c0 b03d 892c 00be a45b 07bd 459e 6abc
00000190: f5d1 13be 912b 9d3c 9748 95bd dc98 55bd
000001a0: 4abb 0f3d 287e 42bd dab2 9dbd 3a95 a5bd
000001b0: 11f7 debc cf9d 1fbd d498 87bd 6e64 3e3d
000001c0: 5dfe e0bd 95c9 983b c456 50bd 731d c53c
000001d0: 676e acbc e095 5dbd 4229 b33d 0a78 e9bd
000001e0: 7d30 a63d 8d24 04be 86ba eebd 83f4 7b3d
000001f0: ed5c 0bbd b97c 7abd eaa3 c93d c534 c03d
00000200: eb95 853e f418 a0be 8782 fc3a 51b0 0e3e
00000210: 6eae 523d 16e3 543c 879c ae3d dacb eebd
00000220: c21f d43d 3337 a6bd 1f67 603e 649a 4cbe
00000230: ce33 9a3d c541 5dbe 83e3 0b3e a904 5d3e
00000240: 9e97 b63e 8358 1ebe 4c7f 35be 1aba 723e
00000250: 171e 6e3d 4a73 16be a559 f2bc ce2a 6fbd
00000260: f461 7e3e 3c29 ca3d e5e2 dd3d d8ce adbd
00000270: 9fec 50bd d5cd 63bd bb08 e8bd 1720 2abe
00000280: 53d7 1b3e be73 093e bda0 273e d65b 273e
00000290: 17b3 2e3e ec3f 283e e064 dbbd 0e84 be3c
000002a0: b7a9 1e3d e558 50be bbb9 53bd 5312 183e
000002b0: 0059 91bd 46b7 8f3c 48e5 cf3d 1e97 85be
000002c0: 2e93 c4bd 9c78 853d 70d4 80bd 76cf 963d
000002d0: 3fdb 4abe 31db 01be faa6 fabd 948c 993e
000002e0: fc71 f5bd 861b cebb da9c 333e 9711 a7bc
000002f0: db39 083e e33d 3fbd aae7 16bd c3ba e3bd
00000300: 9b40 5d3d cb2d 22bd 3dc4 573d 19cf c93d
00000310: f18d d53d 40c5 003d 700a 7cbc f030 8abd
00000320: bf68 4ebd 73f5 08be 6944 f8bd ff1c d83d
00000330: eb28 9e3c 444c 103d 8962 84bd 31c8 06be
00000340: 7418 c9bd 098d 563d 1025 aebc 0bbe 9d3c
00000350: edcf 88bd d8f4 b5bd 1acd 0bbe 6c36 753c
00000360: 9a97 d4bd 771c d2bc d76e dbbb f94f 203e
00000370: f7b5 593d 1faa b3bd 3e67 ba3c 88fb 6a3b
00000380: 1606 163d 6ad7 ecbd 533a ca3c 3ef1 cdbd
00000390: 35b2 14bd 89b3 cdbd eba3 273d 6416 493d
000003a0: fce7 063d 8589 3bba 4a48 e73c 6e77 203d
000003b0: 11ea 33bd 512b 4a3d 2fa9 bc3d c1f6 223e
000003c0: df26 43bb d89e 843d b181 cb3d ecd2 0b3d
000003d0: 5513 303e 222d e9bd add0 643c 2080 10be
000003e0: 45b4 95bd 50e4 273d 4fce 38bd 4537 903d
000003f0: 58f0 ecbd f8da 133e 9856 d53c 84f7 7bbc
0.16849107 0.06594333 -0.11436831 0.0990502 -0.059177663 0.050141133 0.012358994 -0.014967606
0.06726158 0.08761975 0.03679124 -0.10497083 -0.08089359 -0.11741931 0.0639513 0.057850324
0.018292855 -0.09991646 0.03619685 -0.062181413 -0.07489808 0.013447872 0.12202382 -0.07464707
0.11292959 -0.012264685 -0.044161867 -0.1309998 0.11887088 -0.013540668 0.123475105 -0.081696406
0.023872202 0.056186307 -0.121014774 -0.013450436 -0.046108577 0.12246484 0.021366306 -0.10032076
-0.08246976 0.04488906 0.01154431 -0.062444642 -0.11697432 -0.041556276 -0.050404955 -0.08142611
-0.005680215 0.03133819 -0.15131189 0.01930653 0.00015497876 -0.0867249 -0.13821286 0.16361418
-0.12696852 -0.06690419 0.08535125 -0.06746972 -0.031100139 -0.09948841 0.065329775 -0.07231217
0.005966895 -0.022689374 0.022243742 0.11761174 0.056320965 -0.025640573 -0.0905321 0.06802983
0.09220271 0.08942018 0.043568578 0.0377454 -0.0053424644 0.0439743 -0.10111153 -0.015120215
-0.07850082 0.09871157 0.106046595 0.11056766 -0.0665275 0.028976394 -0.027236508 0.015243785
-0.05457459 -0.11969962 -0.16340205 -0.084504426 -0.083691776 -0.002184449 -0.082302876 0.03148358
0.08630397 -0.12516989 -0.03304638 -0.014319961 -0.14435561 0.019185813 -0.07289236 -0.05214773
0.035090722 -0.047483593 -0.07700129 -0.08085103 -0.02721742 -0.038968857 -0.066209465 0.046482496
-0.10986016 0.0046627023 -0.050863996 0.024061894 -0.021048738 -0.05409801 0.08748104 -0.11399849
0.08114717 -0.12904568 -0.1165667 0.06151248 -0.034024168 -0.0611541 0.09845717 0.09385065
0.2609094 -0.31269038 0.0019264974 0.13934447 0.05143588 0.012993595 0.08525949 -0.11659975
0.1035762 -0.08115997 0.21914338 -0.1998077 0.07529412 -0.2160712 0.13661008 0.21583809
0.3566255 -0.15463452 -0.17724341 0.23703805 0.058134165 -0.14692417 -0.029583761 -0.05839043
0.24842054 0.09871146 0.10834292 -0.08486718 -0.05100691 -0.05561622 -0.1132979 -0.16613804
0.15218858 0.13423058 0.1636991 0.16343626 0.17060505 0.16430634 -0.107126 0.023256328
0.03873607 -0.2034641 -0.0516908 0.1485074 -0.070970535 0.017543446 0.10151154 -0.26091856
-0.09598385 0.06517145 -0.06290519 0.07363789 -0.19810198 -0.12681271 -0.122388795 0.29990065
-0.119846314 -0.006289902 0.17540303 -0.02039413 0.1330332 -0.04668988 -0.036842026 -0.11119606
0.05401669 -0.039594453 0.05267738 0.09853954 0.10427464 0.031438112 -0.015383348 -0.06747615
-0.050392862 -0.13374881 -0.12122423 0.105524056 0.01930662 0.035228983 -0.064641066 -0.13162304
-0.09819117 0.052380595 -0.021257907 0.019255659 -0.06680284 -0.08884591 -0.13652459 0.0149665885
-0.10380478 -0.025648339 -0.0066965627 0.15655507 0.05315205 -0.087726824 0.022754308 0.003585549
0.036626898 -0.115645245 0.024686014 -0.10055779 -0.036302764 -0.10044009 0.04092781 0.04909362
0.03293608 -0.0007153976 0.028232712 0.039176397 -0.043924395 0.049357716 0.09211957 0.15914442
-0.0029777808 0.064756095 0.09936846 0.034136698 0.17194875 -0.113855615 0.013965768 -0.14111376
-0.07309774 0.04098922 -0.045118626 0.07041792 -0.115692794 0.14438999 0.026042268 -0.015378837

critic.2.bias f4 [64]
00000000: 8c17 553d d3ad 5bbd 9475 18be f354 463d
00000010: 4d74 75bd e98b a6bb 8f49 ae3c f368 383d
00000020: 71a3 80bd 97b8 0c3e 5715 42bd 52bb c93c
00000030: 2e66 db3d 9a0c 17be 4469 63bd 3389 00bd
00000040: 297a 463d e959 5dbd 7924 05be a118 9a3d
00000050: 2a9f e5bd fbe7 c53d b4f6 26bd 2cfa 25bd
00000060: d38c 233d 4a19 c43d d671 c9bd 4021 483d
00000070: c4b4 97bd 5606 2d3e 0d33 ea3d daca 113e
00000080: ba58 533d d524 80bc 6f42 3f3d 1732 debd
00000090: 4cfc f73c dfcb 0ebe 9207 2bbe 0bcc 2c3d
000000a0: a41f c13d 2d19 c6bd 2423 223c 4c70 8fbd
000000b0: 8a9d 5dbd 6ae5 893d ac70 31be ec96 b4bd
000000c0: b01f 07bc c116 2fbd a160 90bd 70d5 84bd
000000d0: fd4d 463d d749 ecbd 0075 a0bd bb2a e93d
000000e0: 0cc1 9e3c ef2a 08bd 98ce c73d fe00 19ba
000000f0: 591f a1bd ea85 a9bd 8f48 bf3c b4ae 06bc
0.05202441 -0.05363257 -0.14888602 0.048420858 -0.059925366 -0.0050825966 0.02127531 0.045021962
-0.06281174 0.1374229 -0.047383633 0.024625454 0.107128486 -0.14750901 -0.05552031 -0.031380843
0.048456345 -0.054040823 -0.13002194 0.07524229 -0.11211999 0.096633874 -0.04076262 -0.040521786
0.039929222 0.09575136 -0.098361656 0.048859835 -0.07407525 0.16896948 0.114355184 0.14237538
0.051598288 -0.015642563 0.046694215 -0.10849398 0.030271672 -0.13944958 -0.16702107 0.042186778
0.09429863 -0.09672771 0.0098960735 -0.07003841 -0.05410532 0.067332104 -0.17328137 -0.088178486
-0.008247301 -0.04274631 -0.070496805 -0.064860225 0.04841422 -0.11537521 -0.07834816 0.11385103
0.019379161 -0.03324407 0.097562015 -0.00058366347 -0.07867307 -0.08277495 0.023350028 -0.008220363

critic.4.weight f4 [1, 64]
00000000: 2c26 59bc 0f51 6a3b 958b 2b3e 4a20 f83b
00000010: e31b 743b c826 b1b9 0a27 2e3b 13fe 22bb
00000020: 3d03 45bb 1ee9 91bd 8599 bf3d bc31 80bb
00000030: 51ee d2ba 2db6 f6bd 9069 17ba 9ce6 4dbd
00000040: eb0e f23d 717f 8ebc a68b d9ba e1e9 7eba
00000050: 2d17 8fbe 14e2 87bd c90e 81be c1e9 e43a
00000060: b50f 373d 9b3f 1bba 1e18 04bc 3521 f639
00000070: 6233 ed3b f7da 24be 76da aeba 11b9 033c
00000080: 401e 1e3a c1ac 34bb d71c d03a 01b6 43ba
00000090: f77e 2bb9 c75b 0dbe 896b ae3d ea48 b13d
000000a0: 4578 08be 19f0 88b9 af59 76ba 2a6a d9bd
000000b0: 3819 353a 11c3 6f3b a8a5 1a3e c6eb a4bb
000000c0: e5ae 123c e5f9 4a3b 3bd6 4fba 65b1 473b
000000d0: cd61 e039 30be aaba c49f c13d 5ea6 e33d
000000e0: 0d59 21bb d4c4 a5ba 1459 b6ba dc15 87b9
000000f0: 7332 0c3b bbf3 92bb b896 ceba 7656 51bd
-0.01325373 0.003575388 0.16752465 0.0075722085 0.0037248067 -0.00033788965 0.0026573562 -0.0024870678
-0.0030061745 -0.07124542 0.093554534 -0.003912179 -0.0016092752 -0.12046466 -0.0005775923 -0.050268754
0.118192516 -0.017394753 -0.0016597405 -0.0009724182 -0.2794737 -0.06634918 -0.25206593 0.0017464684
0.044692714 -0.0005922259 -0.008062391 0.00046945518 0.0072387913 -0.16099153 -0.0013340253 0.008039729
0.0006031729 -0.002756879 0.0015877736 -0.00074657804 -0.00016355129 -0.13804542 0.085166045 0.086564854
-0.13327129 -0.00026118828 -0.0009397519 -0.10615952 0.000690836 0.0036584774 0.15102255 -0.005032989
0.008952831 0.0030971703 -0.0007928346 0.0030470726 0.00042797477 -0.0013026651 0.09454301 0.111157164
-0.0024619729 -0.001264716 -0.0013912045 -0.00025765493 0.0021392375 -0.0044846213 -0.001576147 -0.051107846
