trained/SimplePong/PPO_mcts_sparse_1728720259.6306398.pth (torch, 42338 bytes, 11 tensors)

actor.0.weight f4 [64, 5]
0.26914492 -0.583252 0.43987238 -0.6795842 0.2528597 -0.03533397 0.21229865 -0.21975265
0.2528355 0.19572012 0.089546755 -0.4061418 0.24844621 -0.15317182 0.3627852 0.4573705
0.04608321 -0.012229002 -0.6686224 -0.44934273 0.06525285 0.15067978 -0.3390835 -0.078256525
-0.15387505 -0.0033474106 -0.26691204 -0.32406697 0.04511794 0.008582679 -0.23059908 0.4058712
0.0043802634 0.1919291 -0.03294365 -0.2643806 -0.035792723 -0.115176775 -0.37319142 0.4666449
-0.48267037 0.24564257 0.20700511 -0.08213875 -0.31099203 -0.16881445 0.007757661 0.44275978
-0.42343095 0.19345984 -0.14790967 0.43228075 -0.2023373 0.18571022 -0.079273455 0.13686728
-0.10174045 0.2710665 -0.10854452 0.3384949 0.3257406 -0.08919572 0.09226468 -0.47134972
-0.36385727 0.5255817 -0.2538672 0.115477845 0.015783463 0.29017434 -0.21138893 -0.2172424
0.2755681 0.28795 -0.26073718 0.16082011 -0.3614341 -0.36438242 -0.19140011 -0.12391274
-0.3960893 0.52932286 0.1743779 0.10374325 0.11352833 0.3275153 -0.28591117 0.23064417
-0.661848 -0.32244593 0.28796202 -0.22640634 -0.028503008 -0.4732279 0.20794865 -0.2277574
0.28744882 -0.0853223 0.2545226 0.24528499 -0.089890495 0.2078839 0.15262765 -0.2310717
-0.10149933 -0.116770275 -0.42977715 0.27854383 -0.04936202 -0.33966598 0.23057276 -0.4983243
-0.037402246 -0.68027616 -0.27389106 -0.01519979 0.058375645 0.21397702 0.5040952 -0.10538102
-0.32443544 -0.10430822 -0.19844384 0.015317519 -0.33660573 0.13278517 -0.07057119 0.18964061
-0.5618416 0.05907327 -0.06857029 0.14359187 -0.26051614 -0.19092348 0.5197614 0.26322654
-0.191441 0.20236109 -0.15657905 0.049719084 -0.29608235 -0.33783552 0.26883543 0.17567421
-0.02546465 0.28331742 -0.17869978 0.30447516 -0.522368 0.20309702 -0.2979875 -0.05000593
0.059037577 0.24028455 -0.14655441 0.30402106 -0.06715157 -0.41655314 0.3270216 0.23898977
-0.08002093 0.30147132 -0.3064297 0.6453441 -0.2148584 -0.35929555 0.10333311 -0.1504066
0.59537446 0.25410846 0.21507527 -0.42269123 0.043385636 -0.48140818 0.44752848 0.18215676
-0.12193306 -0.2947133 0.39562982 -0.23252568 0.002730141 0.16626914 0.13178493 0.44884625
-0.23822713 -0.43792093 0.4893932 0.056053586 0.2015919 0.38163972 -0.53287745 0.47683024
-0.34014183 0.16498485 -0.12068543 -0.5445818 0.4399135 0.35328385 0.3501677 -0.020779688
0.31796926 -0.2859998 0.002524384 0.0232571 0.30811924 0.18086033 -0.3994079 0.19373547
0.1337559 0.39469442 0.4464682 -0.5056934 0.02909096 -0.19485323 0.3690441 -0.14979549
0.36295253 -0.103962466 0.08744099 0.31894854 -0.2776421 -0.04682168 0.08546418 -0.34997052
-0.21636301 -0.21774136 0.38219035 0.33589104 -0.1511035 0.35705864 -0.3545878 -0.053369038
-0.35891023 -0.33304152 0.07652207 0.3752287 -0.56455517 -0.041643463 -0.5375061 -0.21320085
0.21223307 -0.51042604 -0.051099524 -0.40210906 0.20608182 -0.33434072 0.44078287 -0.036122374
0.5066587 -0.32053944 0.52509475 -0.19297898 0.09033652 -0.20345467 0.38128006 0.52199036
00000000: 5dcd 893e 0150 15bf f436 e13e 3bf9 2dbf
00000010: d476 813e 5aba 10bd d164 593e d706 61be
00000020: a873 813e db6a 483e 4a64 b73d d1f1 cfbe
00000030: af68 7e3e 13d9 1cbe fbbe b93e 772c ea3e
00000040: bfc1 3c3d 275c 48bc d62a 2bbf 4010 e6be
00000050: 49a3 853d cd4b 1a3e 5a9c adbe f544 a0bd
00000060: 6c91 1dbe 3b60 5bbb b2a8 88be 1bec a5be
00000070: 97cd 383d 5d9e 0c3c 2a22 6cbe 5ace cf3e
00000080: 5088 8f3b 1089 443e ecef 06bd e55c 87be
00000090: 649b 12bd cde1 ebbd f212 bfbe 15ec ee3e
000000a0: 9220 f7be ba89 7b3e 26f9 533e 5c38 a8bd
000000b0: 593a 9fbe b2dd 2cbe fa33 fe3b 69b1 e23e
000000c0: f1cb d8be 561a 463e a275 17be e753 dd3e
000000d0: 8231 4fbe d22a 3e3e 1f5a a2bd f026 0c3e
000000e0: 4c5d d0bd 3ac9 8a3e 974c debd 344f ad3e
000000f0: 79c7 a63e 3fac b6bd 44f5 bc3d c054 f1be
00000100: 804b babe 868c 063f e2fa 81be a67f ec3d
00000110: 524c 813c bb91 943e 5776 58be cb74 5ebe
00000120: 4317 8d3e 2f6e 933e 587f 85be 07ae 243e
00000130: e40d b9be 5590 babe 64fe 43be f6c5 fdbd
00000140: 37cc cabe b481 073f 1f90 323e 5777 d43d
00000150: 8b81 e83d 16b0 a73e f362 92be fc2d 6c3e
00000160: df6e 29bf a217 a5be c26f 933e 10d7 67be
00000170: 247f e9bc ed4a f2be 7ef0 543e 3c39 69be
00000180: 7e2c 933e 75bd aebd c950 823e fd2b 7b3e
00000190: 8218 b8bd 84df 543e 6c4a 1c3e 0f9e 6cbe
000001a0: e1de cfbd 4125 efbd c00b dcbe 4c9d 8e3e
000001b0: d42f 4abd b3e8 adbe 441b 6c3e 5d24 ffbe
000001c0: 1933 19bd 9426 2ebf 733b 8cbe 8a08 79bc
000001d0: 4d1b 6f3d cb1c 5b3e 620c 013f 01d2 d7bd
000001e0: 671c a6be 8c9f d5bd dd34 4bbe 55f6 7a3c
000001f0: 9657 acbe d6f8 073e a187 90bd 2631 423e
00000200: dad4 0fbf d0f6 713d 956e 8cbd bf09 133e
00000210: 5f62 85be 7281 43be 150f 053f a1c5 863e
00000220: 1c09 44be bf37 4f3e 4256 20be 3da6 4b3d
00000230: 1b98 97be c7f8 acbe cca4 893e f1e3 333e
00000240: 3e9b d0bc fb0e 913e 13fd 36be 2be4 9b3e
00000250: e9b9 05bf aaf8 4f3e d191 98be 05d3 4cbd
00000260: 63d1 713d 270d 763e 5c12 16be a6a8 9b3e
00000270: c386 89bd 7446 d5be 606f a73e bcb9 743e
00000280: 03e2 a3bd 735a 9a3e 5be4 9cbe 4535 253f
00000290: d703 5cbe 96f5 b7be 4fa0 d33d 3004 1abe
000002a0: 766a 183f 811a 823e b13c 5c3e fc6a d8be
000002b0: 23b5 313d 227b f6be 7422 e53e 4d87 3a3e
000002c0: 0ab8 f9bd a9e4 96be fe8f ca3e 361b 6ebe
000002d0: 2aec 323b 7542 2a3e a1f2 063e 2dcf e53e
000002e0: d0f1 73be 2c37 e0be bf91 fa3e 7298 653d
000002f0: 1b6e 4e3e 4866 c33e a86a 08bf 1823 f43e
00000300: 1227 aebe caf1 283e ec29 f7bd b669 0bbf
00000310: 583c e13e 9fe1 b43e 2e49 b33e 2a3a aabc
00000320: decc a23e 916e 92be 2370 253b ac85 be3c
00000330: cec1 9d3e 7333 393e 317f ccbe 9762 463e
00000340: 4ff7 083e 6315 ca3e 7b97 e43e 1f75 01bf
00000350: 2a50 ee3c 9b87 47be 59f3 bc3e fd63 19be
00000360: ead4 b93e 46ea d4bd 4314 b33d 394d a33e
00000370: 1b27 8ebe 17c8 3fbd d807 af3d 562f b3be
00000380: 448e 5dbe 97f7 5ebe 74ae c33e e9f9 ab3e
00000390: e0ba 1abe 64d0 b63e 888c b5be 7e99 5abd
000003a0: 15c3 b7be 6b84 aabe 9ab7 9c3d fa1d c03e
000003b0: b086 10bf 5692 2abd 009a 09bf 5351 5abe
000003c0: a053 593e 48ab 02bf bc4d 51bd 3de1 cdbe
000003d0: 1d07 533e b52e abbe 4bae e13e 0ef5 13bd
000003e0: 62b4 013f bf1d a4be 9c6c 063f 489c 45be
000003f0: 5a02 b93d 6c56 50be 2437 c33e 29a1 053f

actor.0.bias f4 [64]
-0.20304292 0.20150541 0.11436886 -0.32641026 -0.13886113 0.35553017 0.22465062 0.22060129
0.07508467 0.07773083 0.22680384 -0.17090547 -0.003061772 -0.40906376 0.2486695 0.31025225
-0.15947641 -0.30421793 -0.12875393 -0.1275301 0.124786034 0.2167254 0.24392384 -0.026360184
0.3566328 -0.261086 -0.23693995 -0.056588985 0.19637941 -0.25801718 0.042298682 0.37630486
0.17061658 -0.025936058 0.005943529 0.033700645 -0.049903248 -0.16293535 0.29104772 -0.21314442
-0.23777808 -0.045467254 0.14889812 -0.10485186 0.23146398 -0.28502944 0.41427797 0.18611553
0.25774002 0.34028047 -0.383342 -0.25460735 -0.061934132 0.041163005 0.16549416 0.07456802
-0.28717184 -0.3808459 0.13519895 -0.102522254 -0.33826515 -0.4147252 0.07246341 -0.29466024
00000000: 7cea 4fbe 6f57 4e3e 393a ea3d 3f1f a7be
00000010: 9d31 0ebe 0d08 b63e d00a 663e 4ee5 613e
00000020: fec5 993d 5731 9f3d 443f 683e d801 2fbe
00000030: 03a8 48bb ce70 d1be 38a3 7e3e 62d9 9e3e
00000040: c94d 23be 74c2 9bbe 12d8 03be 4097 02be
00000050: d28f ff3d 43ed 5d3e 2cc7 793e 50f1 d7bc
00000060: 9398 b63e 10ad 85be 63a0 72be dac9 67bd
00000070: af17 493e d41a 84be 6241 2d3d 08ab c03e
00000080: 1db6 2e3e db77 d4bc efc1 c23b b009 0a3d
00000090: 5967 4cbd 86d8 26be 3504 953e 8842 5abe
000000a0: 197c 73be df3b 3abd c078 183e 92bc d6bd
000000b0: e504 6d3e 61ef 91be 3e1c d43e 1295 3e3e
000000c0: 80f6 833e 3e39 ae3e 6745 c4be e55b 82be
000000d0: a5ae 7dbd 8a9a 283d 4d77 293e 1eb7 983d
000000e0: 3008 93be 3cfe c2be 9871 0a3e 30f7 d1bd
000000f0: 1731 adbe dd56 d4be b267 943d b5dd 96be

actor.2.weight f4 [64, 64]
-0.2194456 -0.029040998 -0.10629039 0.031488243 0.15377477 -0.039935183 0.035307597 -0.03146981
-0.010915046 -0.09489712 0.011275472 0.004412674 -0.12407991 0.05502435 -0.049745545 -0.20895524
0.35272634 -0.12295684 -0.14816993 0.026625047 -0.11237783 0.033991013 -0.30177447 -0.0989688
0.08137228 -0.08210119 -0.03934583 -0.029415071 0.00039982627 -0.25986564 0.19711573 -0.14963266
0.086155005 0.053494442 -0.0840024 -0.04880564 -0.014240283 0.25729752 0.36212075 0.13862625
0.061854023 -0.23510608 -0.18935943 0.1723395 -0.04948896 0.16431431 -0.06136548 -0.36969313
-0.33388144 0.057094213 -0.05938168 -0.3928158 0.31210384 -0.08350087 -0.110626236 0.13422583
0.053530697 -0.06801394 -0.03309861 0.09296443 -0.15228269 0.058731608 0.39145735 0.23143694
-0.054407395 0.10805355 0.17799458 0.02964221 -0.015967598 -0.041829623 0.1054816 -0.042423785
0.016433349 0.07745264 -0.03691643 0.08247803 0.053992726 -0.1384099 0.19604377 -0.0032791935
-0.03330833 0.008198343 -0.14605668 -0.015266613 0.14190279 0.12776 0.25868526 0.16844924
-0.004108056 -0.044858284 -0.13605675 0.024726182 -0.06483254 0.021366185 -0.18833774 0.032107417
0.098094836 -0.06741898 -0.019358242 -0.02592228 0.0810444 -0.16316655 -0.1251042 -0.12995966
-0.15440759 0.029812312 0.27123484 -0.06885555 0.064754166 0.00798017 0.040689066 0.13460118
0.21264996 0.15527014 -0.08746836 -0.014113727 -0.21755967 0.09971381 0.052882396 -0.105114944
-0.13232717 -0.052163668 0.0037739754 -0.14067805 0.045430947 -0.18608665 -0.06734911 -0.0014337183
0.29778954 0.060338844 0.023455473 0.16807865 -0.13908067 -0.013094872 0.061049327 0.09234834
-0.07708113 0.0764769 -0.020193014 0.16779971 0.15667349 0.2647125 0.06417947 0.19135377
-0.38428384 0.05142677 0.12958957 0.02007396 -0.106490545 0.15150493 0.31951073 -0.06746641
-0.02972197 0.011360181 -0.0841698 0.0076224217 -0.00800472 0.09030028 0.02730255 -0.023993602
-0.15992792 -0.06595481 0.351206 0.041501805 -0.071431264 -0.14893186 -0.5039838 -0.33561558
0.010981427 0.31554836 0.24706005 -0.14366013 0.08030416 -0.014117678 -0.14232118 0.22829892
0.12142125 -0.1257347 0.07793639 0.35713238 -0.23798168 -0.14258423 0.08597686 -0.18548957
-0.05788885 0.014181796 -0.05938123 0.043794945 0.16601212 -0.000105320745 -0.46128103 -0.13136777
-0.39660865 0.12526946 -0.06738188 -0.11318172 -0.062373385 -0.06093055 0.11424161 0.00437719
0.26131573 0.17512156 0.027717358 -0.047922596 -0.13941352 -0.18460034 -0.032604787 -0.06953918
0.232693 -0.19875187 -0.2740779 0.13811205 -0.04820675 -0.070633434 -0.102491416 0.10646686
-0.020182101 -0.16943951 -0.13437413 -0.1012137 -0.021539196 -0.28781983 0.056322344 0.039154615
0.057653047 0.08315675 -0.25800642 0.028391099 0.13833344 0.29047787 0.5814094 0.18566905
0.009245873 -0.24598308 -0.114907 0.08238775 0.021870956 0.020635886 0.021870008 -0.23830764
-0.22008276 0.14591317 -0.23223162 -0.6240081 0.18940791 -0.0013568174 -0.038440008 -0.006112996
-0.111777976 -0.2583151 0.18583958 0.024010168 -0.21416876 -0.15462618 0.63129073 0.1467846
00000000: 59b6 60be 63e7 edbc c7ae d9bd d1f9 003d
00000010: 2277 1d3e 1393 23bd b39e 103d 7de6 00bd
00000020: 05d5 32bc 6c59 c2bd c2bc 383c 3198 903b
00000030: 9c1d febd 3661 613d fcc1 4bbd 5df8 55be
00000040: 8c98 b43e ccd0 fbbd dcb9 17be c51c da3c
00000050: 5926 e6bd 293a 0b3d 2f82 9abe 27b0 cabd
00000060: 83a6 a63d ab24 a8bd 1829 21bd e0f7 f0bc
00000070: c69f d139 1c0d 85be b5d8 493e 4e39 19be
00000080: 0972 b03d fd1c 5b3d 7309 acbd 6ce8 47bd
00000090: 1350 69bc 80bc 833e e467 b93e 0af4 0d3e
000000a0: a55a 7d3d a6bf 70be 70e7 41be c479 303e
000000b0: f0b4 4abd 0342 283e 5f5a 7bbd 6b48 bdbe
000000c0: 82f2 aabe 9fdb 693d 343a 73bd 271f c9be
000000d0: 13cc 9f3e 8102 abbd 0290 e2bd 7f72 093e
000000e0: 0143 5b3d e44a 8bbd 6892 07bd 2364 be3d
000000f0: feef 1bbe 8e90 703d 196d c83e cefd 6c3e
00000100: 4ada 5ebd 2e4b dd3d 3644 363e 38d4 f23c
00000110: 7bce 82bc 8a55 2bbd bd06 d83d 90c4 2dbd
00000120: 3b9f 863c 7d9f 9e3d af35 17bd 3eea a83d
00000130: 7a27 5d3d 53bb 0dbe b3bf 483e bde7 56bb
00000140: 516e 08bd 5852 063c e28f 15be d120 7abc
00000150: f74e 113e 84d3 023e 6572 843e f57d 2c3e
00000160: df9c 86bb 52bd 37bd 7652 0bbe 908e ca3c
00000170: ecc6 84bd 2308 af3c 9cdb 40be 1183 033d
00000180: f2e5 c83d f612 8abd 2d95 9ebc f65a d4bc
00000190: 9bfa a53d 2215 27be 511b 00be 2514 05be
000001a0: 061d 1ebe f338 f43c 4bdf 8a3e 2304 8dbd
000001b0: d59d 843d 42bf 023c 94a9 263d e4d4 093e
000001c0: e9c0 593e 23ff 1e3e 9d22 b3bd 433d 67bc
000001d0: f6c7 5ebe c136 cc3d 369b 583d 8146 d7bd
000001e0: c680 07be 92a9 55bd cd54 773b e80d 10be
000001f0: cd15 3a3d 808d 3ebe 55ee 89bd 9aeb bbba
00000200: df77 983e dd25 773d b125 c03c cf1c 2c3e
00000210: 2a6b 0ebe e08b 56bc dc0e 7a3d 2021 bd3d
00000220: b6dc 9dbd ec9f 9c3d d26b a5bc b0d3 2b3e
00000230: 046f 203e 6688 873e 8770 833d 3ef2 433e
00000240: dac0 c4be e0a4 523d 21b3 043e 2572 a43c
00000250: b717 dabd 1c24 1b3e e996 a33e d42b 8abd
00000260: 7d7b f3bc 0d20 3a3c 3761 acbd 82c5 f93b
00000270: 3b26 03bc 5aef b83d 99a9 df3c 3b8e c4bc
00000280: 25c4 23be 5113 87bd 46d1 b33e ccfd 293d
00000290: 8e4a 92bd 9881 18be 1505 01bf ced5 abbe
000002a0: 71eb 333c 8e8f a13e 4ffd 7c3e a41b 13be
000002b0: 8276 a43d d54d 67bc a5bc 11be 31c7 693e
000002c0: b4ab f83d 99c0 00be 1d9d 9f3d 0eda b63e
000002d0: 78b1 73be 9a01 12be a314 b03d faf0 3dbe
000002e0: dc1c 6dbd c45a 683c bc39 73bd 5462 333d
000002f0: 15ff 293e a5df dcb8 072d ecbe 4685 06be
00000300: 4a10 cbbe a346 003e 83ff 89bd d1cb e7bd
00000310: 3c7b 7fbd 5092 79bd 81f7 e93d 886e 8f3b
00000320: 2dcb 853e 1153 333e 830f e33c 7c4a 44bd
00000330: 6bc2 0ebe df07 3dbe 998c 05bd 8f6a 8ebd
00000340: 1347 6e3e 9c85 4bbe f053 8cbe 3f6d 0d3e
00000350: 7174 45bd 43a8 90bd 05e7 d1bd 4c0b da3d
00000360: ef54 a5bc 8d81 2dbe 5f99 09be 2149 cfbd
00000370: f872 b0bc 1f5d 93be 42b2 663d 9760 203d
00000380: 9a25 6c3d 164e aa3d 6b19 84be 7394 e83c
00000390: 48a7 0d3e 84b9 943e 3fd7 143f 0720 3e3e
000003a0: 017c 173c fde2 7bbe 5c54 ebbd e9ba a83d
000003b0: b82a b33c 970c a93c bb28 b33c eb06 74be
000003c0: 605d 61be 436a 153e 20ce 6dbe ffbe 1fbf
000003d0: 26f4 413e 3dd7 b1ba 4573 1dbd 874f c8bb
000003e0: daeb e4bd e041 84be bb4c 3e3e f9b0 c43c
000003f0: 0e4f 5bbe 5356 1ebe 459c 213f b44e 163e

actor.2.bias f4 [64]
-0.031072317 0.17918235 0.06970822 0.035323355 -0.0039019214 -0.046013713 0.17042185 0.15521163
-0.0714147 -0.008847414 -0.049698602 -0.072347775 0.08181151 0.037153512 0.02231822 0.070400156
-0.023843141 -0.16327435 0.044396695 -0.058280557 0.06283955 -0.10974444 0.09364739 -0.13714352
-0.070286006 -0.035465118 0.019805275 -0.025445515 -0.1634943 -0.09568816 -0.048956662 -0.106066234
0.14392713 0.031094387 0.03489193 0.015058201 -0.09481082 0.14287862 0.12030739 0.15510792
0.12638068 -0.09083834 0.012262971 -0.13816598 -0.041359805 -0.090485916 -0.064559184 0.082439296
0.17780975 0.017001545 0.07028618 -0.034679867 -0.14141946 -0.04860484 0.058554806 -0.020630617
0.093752064 0.056218974 0.0016999594 -0.02395657 -0.067936145 -0.08242277 -0.059049476 -0.045907844
00000000: 5f8b febc 947b 373e 2fc3 8e3d 39af 103d
00000010: 61b7 7fbb e078 3cbd 1183 2e3e ccef 1e3e
00000020: df41 92bd bef4 10bc c390 4bbd 122b 94bd
00000030: cb8c a73d 482e 183d b3d4 b63c f52d 903d
00000040: b152 c3bc 6431 27be 4fd9 353d 98b7 6ebd
00000050: 06b2 803d b1c1 e0bd 34ca bf3d 5a6f 0cbe
00000060: 1cf2 8fbd df43 11bd ac3e a23c 1d73 d0bc
00000070: 0d6b 27be 27f8 c3bd c886 48bd 4139 d9bd
00000080: a261 133e a8b9 fe3c d7ea 0e3d acb6 763c
00000090: 2d2c c2bd c64e 123e b963 f63d 9cd4 1e3e
000000a0: f069 013e 7409 babd a1ea 483c 627b 0dbe
000000b0: e668 29bd ae50 b9bd 9b37 84bd efd5 a83d
000000c0: c213 363e d346 8b3c 33f2 8f3d 7a0c 0ebd
000000d0: 43d0 10be de15 47bd 2ad7 6f3d 8a01 a9bc
000000e0: 1501 c03d de45 663d 2cd1 de3a 9240 c4bc
000000f0: 1b22 8bbd 45cd a8bd dddd 71bd dd09 3cbd

actor.4.weight f4 [3, 64]
-0.18370135 -0.04463608 0.28595415 -0.6399907 0.21336429 -0.35478237 -0.13967048 0.11778418
0.5992023 -0.6227422 0.5389302 -0.37554958 -0.050104607 -0.6511739 -0.59736323 0.36310086
0.5916827 0.4671038 -0.057310987 -0.04038881 -0.26778248 -0.038272373 -0.658134 0.62615216
-0.33782536 -0.3861985 -0.48040783 -0.34915975 0.5754418 -0.23391506 0.5692198 0.30150965
0.044368945 0.39425537 -0.23766442 0.5720504 0.030537289 0.22318223 -0.3688959 -0.17868255
0.19104639 -0.46351975 0.1374739 0.64413524 0.5887596 -0.20555548 -0.32454926 -0.42202598
-0.18132633 0.17504586 -0.0048300675 0.38383615 0.1065418 -0.078209564 -0.021707766 -0.0903323
-0.3661837 0.4193688 -0.71633184 -0.40826964 0.35565 -0.08855998 0.5525629 -0.14948206
-0.15052417 0.18129522 0.11576991 0.0051296838 0.06350303 -0.061234802 0.13268435 0.14626499
-0.01104584 0.061248202 -0.11267486 -0.14917961 0.0044555357 0.12836803 0.10474185 0.12120706
0.051096335 -0.16257918 0.084478356 -0.19867812 -0.04480081 -0.05722066 0.117803596 -0.10928855
-0.06973833 -0.065224215 0.0787801 0.0027017668 -0.029753745 -0.12619726 0.0881202 -0.14779742
0.18874267 -0.0012293062 0.054183163 0.087316506 -0.14559714 0.21203925 0.20641792 0.15780745
0.20460214 -0.030199582 0.046901844 -0.13879393 -0.16844833 -0.052133556 -0.040517926 -0.030465083
0.14643286 0.04294919 0.007948116 0.061406557 -0.17405987 -0.096775465 -0.010354303 -0.19548337
0.038404733 0.076734684 0.053588763 -0.12974173 -0.071883254 -0.1821316 -0.112489946 -0.18367614
0.41604444 -0.108079165 -0.42723918 0.25307134 -0.5515295 0.46305424 0.026177576 -0.40678516
-0.2132082 0.29873282 -0.18208644 0.47942543 -0.083542 0.30769348 0.2817571 -0.6281779
-0.26457572 -0.22485451 -0.004740764 0.09820396 0.37716225 0.16536823 0.2636043 -0.20684317
0.28061205 0.3697044 0.32389876 0.37666783 -0.10670769 0.49881917 -0.33694324 -0.08693126
-0.03928893 -0.32805133 0.20717667 -0.5082908 0.19730768 -0.39163682 0.09784954 0.040443417
-0.360011 0.31833252 -0.46218523 -0.29829603 -0.30298027 0.5380659 0.26354408 0.06592098
0.02584875 -0.3138362 -0.16256785 -0.35279864 -0.028926333 0.13938533 -0.28724536 0.13274662
0.14109716 -0.6526213 0.27011296 0.39267403 -0.3796926 0.33261037 -0.37373316 0.37272307
00000000: 351c 3cbe 52d4 36bd 9568 923e 6ed6 23bf
00000010: 2b7c 5a3e 09a6 b5be c705 0fbe d538 f13d
00000020: 5265 193f 086c 1fbf 54f7 093f 0948 c0be
00000030: 7d3a 4dbd 55b3 26bf ccec 18bf 5be8 b93e
00000040: 8478 173f 3b28 ef3e edbe 6abd bd6e 25bd
00000050: c91a 89be 7ec3 1cbd 787b 28bf 824b 203f
00000060: 72f7 acbe cfbb c5be 04f8 f5be 11c5 b2be
00000070: 2750 133f 6e87 6fbe 64b8 113f 795f 9a3e
00000080: 36bc 353d d7db c93e 4d5e 73be e571 123f
00000090: 5629 fa3c e289 643e ecdf bcbe 8ff8 36be
000000a0: aaa1 433e 7652 edbe f5c5 0c3e 0ce6 243f
000000b0: f3b8 163f 237d 52be 522b a6be ca13 d8be
000000c0: 9cad 39be 393f 333e 8b45 9ebb 2c86 c43e
000000d0: 9632 da3d 562c a0bd 7cd4 b1bc 2400 b9bd
000000e0: 6e7c bbbe 82b7 d63e 8661 37bf b808 d1be
000000f0: c217 b63e ef5e b5bd c374 0d3f d311 19be
00000100: 0223 1abe 74a5 393e c618 ed3d e816 a83b
00000110: e00d 823d 58d1 7abd 68de 073e 7dc6 153e
00000120: 9cf9 34bc 65df 7a3d 14c2 e6bd 8ac2 18be
00000130: beff 913b e972 033e e582 d63d 683b f83d
00000140: 644a 513d 287b 26be fd02 ad3d 4772 4bbe
00000150: 0e81 37bd 3660 6abd 0343 f13d add2 dfbd
00000160: f8d2 8ebd 4694 85bd 7657 a13d 2010 313b
00000170: 20be f3bc db39 01be 5d78 b43d 3558 17be
00000180: c245 413e ac20 a1ba 2aef 5d3d ffd2 b23d
00000190: 6b17 15be d120 593e 385f 533e 4798 213e
000001a0: 3983 513e 1d65 f7bc 261c 403d ff1f 0ebe
000001b0: b87d 2cbe ff89 55bd 20f6 25bd e991 f9bc
000001c0: 7ff2 153e 7deb 2f3d d138 023c 7185 7b3d
000001d0: c03c 32be 3732 c6bd 18a5 29bc cb2c 48be
000001e0: 484e 1d3d 1327 9d3d e47f 5b3d 04db 04be
000001f0: 8737 93bd b580 3abe 2161 e6bd 9915 3cbe
00000200: c703 d53e 9c58 ddbd 18bf dabe 9192 813e
00000210: 0a31 0dbf 7215 ed3e 5b72 d63c 2546 d0be
00000220: 4053 5abe 82f3 983e de74 3abe 4077 f53e
00000230: 1118 abbd 008a 9d3e 7742 903e 44d0 20bf
00000240: 7876 87be 4340 66be 6958 9bbb 281f c93d
00000250: 691b c13e 4a56 293e 25f7 863e b2ce 53be
00000260: 62ac 8f3e e549 bd3e 0fd6 a53e 9bda c03e
00000270: 9089 dabd 3a65 ff3e d383 acbe 0409 b2bd
00000280: 6eed 20bd 58f6 a7be 1f26 543e 591f 02bf
00000290: 060b 4a3e 9f84 c8be 5765 c83d ffa7 253d
000002a0: 5d53 b8be 7bfc a23e 8ba3 ecbe 42ba 98be
000002b0: 3b20 9bbe b0be 093f 40ef 863e 9401 873d
000002c0: c2c0 d33c 23af a0be 3078 26be 06a2 b4be
000002d0: ebf6 ecbc 07bb 0e3e d311 93be bbee 073e
000002e0: c67b 103e 3112 27bf 3f4c 8a3e 920c c93e
000002f0: 1267 c2be e84b aa3e f459 bfbe 8fd5 be3e

actor.4.bias f4 [3]
-0.10052643 0.22194108 -0.15924211
00000000: cde0 cdbd 8644 633e 5d10 23be

critic.0.weight f4 [64, 5]
0.0543515 -0.25483263 -0.29048315 -0.3702234 -0.35523218 0.26903233 -0.16546085 -0.1604506
0.2914614 -1.591956 -0.41710424 0.29552832 0.28915006 -0.13163957 -1.535496 0.3840893
0.19074337 -0.50736797 -0.14816234 1.150093 -0.32188988 -0.27647817 -0.13126414 -0.416453
0.83377254 -0.07548392 0.23503247 0.2038375 0.103208765 0.8189851 -0.3538698 0.3848955
0.28324962 0.010584095 1.0509279 0.27139017 0.3168142 0.15222009 -0.4355612 -1.2835712
0.42917395 -0.042489987 -0.061698414 -0.41390282 -0.98726296 0.074294925 -0.30740726 0.04893615
0.4208246 1.25618 -0.3054099 0.03775773 0.31740448 0.33160663 -0.61709756 0.08066672
0.13574149 -0.22517772 0.42602155 1.3826921 -0.19651304 0.26373363 0.20373355 0.3097554
-1.4258391 0.0048781764 -0.11102745 0.014518984 0.034825694 -0.78892213 -0.13929363 -0.0051829377
0.09217293 -0.330119 1.3004507 0.40254253 -0.31539035 0.073907636 -0.023795528 -1.0800014
0.2862179 0.24867272 0.2820343 0.32952937 -0.38043752 -0.116391465 -0.17649774 0.113986544
0.42687047 -0.6221495 -0.11954567 0.3093738 0.17955627 0.15160453 -0.925403 0.009166507
-0.2958101 0.052390277 -0.23536469 1.2470562 -0.2392204 -0.046697576 0.37179708 -0.30103737
-0.67746025 0.2663806 0.1975281 0.33562246 0.2501789 0.004443475 0.036299743 0.06537755
-0.0182261 -0.34713456 1.024577 0.2654743 0.075245135 0.40265095 -0.10831907 -1.303092
-0.25059527 -0.07639823 0.22683683 0.20502977 -0.88809395 0.1922861 -0.22457677 -0.12801678
0.07212311 0.44808996 -0.033089828 0.25336176 -0.17687388 0.0018745733 0.996465 0.17253411
0.09328195 0.43943092 0.31014365 -1.2227045 0.05402328 0.12625416 -0.5687442 -0.16718394
0.26798338 -0.006201317 -0.1222676 -0.36127636 -0.22408661 -0.12735823 0.3567144 -0.15864079
-0.39037734 -0.2967113 0.8151873 0.14249136 -0.3217971 0.04238371 0.30889267 0.730145
-0.1674625 -0.14576505 -0.46377653 -0.41944525 0.9846368 0.16832612 0.17243999 -0.41062433
0.43029878 -0.14452103 -0.3487775 0.37224334 0.120444015 -0.36389112 -1.2666256 -0.400489
0.33623794 -0.19195977 -0.1327636 0.90641433 0.2059332 -0.3648878 -0.29545423 -0.14042674
1.3810434 -0.13549314 -0.020295298 -0.12247118 -0.40637845 1.3723711 0.34204558 -0.35264117
-0.5670939 -0.26432627 0.27452886 -0.2570305 0.043185808 0.048524167 0.20386706 -1.2070332
-0.07606806 -0.32977447 -0.03742249 -0.043658987 1.1310495 -0.28892273 0.09841723 0.35293034
-0.18261005 -1.0560331 -0.18221551 0.11707857 -0.06880464 0.12074759 -1.5199789 0.14400122
0.15156001 0.12377725 -0.019231575 -0.77533656 -0.3935131 -0.31211376 -0.08099794 -0.25280604
0.9905656 -0.1563016 0.17593758 0.34954974 0.16460796 0.60311025 0.25743273 -0.30563906
0.03994021 0.13378184 -0.88315475 0.3040938 -0.241494 0.11382604 0.19918391 -1.1405653
0.10138993 0.12338066 -0.23702496 -0.12950152 1.2809451 0.21509632 -0.05962156 0.32264555
0.20014216 -1.5203592 0.13631064 0.3223463 0.005553036 0.094031036 1.1627371 -0.10831011
00000000: ae9f 5e3d 6c79 82be 35ba 94be ec8d bdbe
00000010: fee0 b5be 9bbe 893e 926e 29be 294d 24be
00000020: 6e3a 953e 37c5 cbbf b08e d5be 7d4f 973e
00000030: 7a0b 943e 86cc 06be 228b c4bf 5aa7 c43e
00000040: 3b52 433e dee2 01bf deb7 17be 3f36 933f
00000050: c0ce a4be 8c8e 8dbe 1b6a 06be 5439 d5be
00000060: 1e72 553f 5097 9abd 5aac 703e c7ba 503e
00000070: 1e5f d33d 02a9 513f 6c2e b5be 0611 c53e
00000080: 1806 913e e968 2d3c ce84 863f a7f3 8a3e
00000090: 7935 a23e 95df 1b3e e101 dfbe 104c a4bf
000000a0: b0bc db3e fb09 2ebd 7ab7 7cbd 12eb d3be
000000b0: 44bd 7cbf f027 983d 7c64 9dbe 4671 483d
000000c0: 5276 d73e 82ca a03f b05e 9cbe d9a7 1a3d
000000d0: d782 a23e 58c8 a93e 1bfa 1dbf 9834 a53d
000000e0: d1ff 0a3e fd94 66be 7f1f da3e 0efc b03f
000000f0: b73a 49be 1808 873e 879f 503e 4398 9e3e
00000100: e581 b6bf 1cd9 9f3b 5c62 e3bd 08e1 6d3c
00000110: 63a5 0e3d cdf6 49bf fda2 0ebe a2d5 a9bb
00000120: 29c5 bc3d 5c05 a9be 2b75 a63f 0e1a ce3e
00000130: d87a a1be e35c 973d d7ee c2bc 7c3d 8abf
00000140: 278b 923e 10a4 7e3e cd66 903e 13b8 a83e
00000150: b5c8 c2be a65e eebd d3bb 34be c771 e93d
00000160: c48e da3e 3145 1fbf 5cd4 f4bd 3e66 9e3e
00000170: 99dd 373e 383e 1b3e 36e7 6cbf 1e2f 163c
00000180: 6c74 97be 3097 563d 7103 71be 8a9f 9f3f
00000190: 31f6 74be f545 3fbd 305c be3e 9221 9abe
000001a0: 096e 2dbf 0a63 883e ce44 4a3e b5d6 ab3e
000001b0: 7317 803e 929a 913b 0aaf 143d aae4 853d
000001c0: e74e 95bc 9fbb b1be 5725 833f 3fec 873e
000001d0: 1f1a 9a3d 4428 ce3e 63d6 ddbd b8cb a6bf
000001e0: 064e 80be ad76 9cbd ea47 683e 53f3 513e
000001f0: 205a 63bf a6e6 443e 74f7 65be d516 03be
00000200: 48b5 933d 0c6c e53e 3389 07bd a2b8 813e
00000210: 6d1e 35be 3eb4 f53a 5518 7f3f c8ac 303e
00000220: 9b0a bf3d 17fd e03e 26cb 9e3e 9581 9cbf
00000230: 8447 5d3d c548 013e 3899 11bf 4432 2bbe
00000240: 1e35 893e 6b34 cbbb 6f67 fabd 37f9 b8be
00000250: f676 65be 326a 02be 45a3 b63e bb72 22be
00000260: 8adf c7be 8bea 97be 1db0 503f 41e9 113e
00000270: 97c2 a4be 8b9a 2d3d 2e27 9e3e c8ea 3a3f
00000280: 4a7b 2bbe 6f43 15be 1e74 edbe 87c1 d6be
00000290: 2811 7c3f af5d 2c3e 1c94 303e 5a3d d2be
000002a0: 1f50 dc3e 52fd 13be f792 b2be ae96 be3e
000002b0: 5aab f63d f04f babe ca20 a2bf e50c cdbe
000002c0: 6127 ac3e 1a91 44be 2ef3 07be c50a 683f
000002d0: 27e0 523e 93d2 babe c745 97be 07cc 0fbe
000002e0: 08c6 b03f b7be 0abe 5342 a6bc 2cd2 fabd
000002f0: d610 d0be dba9 af3f 9920 af3e 628d b4be
00000300: 112d 11bf c655 87be 0c8f 8c3e 8099 83be
00000310: 9ae3 303d 47c1 463d 87c2 503e 1080 9abf
00000320: 92c9 9bbd 33d8 a8be 5348 19bd c4d3 32bd
00000330: 3bc6 903f aeed 93be f98e c93d 49b3 b43e
00000340: 21fe 3abe 182c 87bf b496 3abe e4c6 ef3d
00000350: 72e9 8cbd 834a f73d ab8e c2bf 0e75 133e
00000360: 8c32 1b3e ed7e fd3d 898b 9dbc 757c 46bf
00000370: 8d7a c9be 60cd 9fbe 3fe2 a5bd cb6f 81be
00000380: b595 7d3f 870d 20be fb28 343e 2ff8 b23e
00000390: fd8e 283e 6f65 1a3f 39ce 833e b97c 9cbe
000003a0: 5898 233d 1bfe 083e 6e16 62bf 2fb2 9b3e
000003b0: 344a 77be a01d e93d def6 4b3e 0bfe 91bf
000003c0: 86a5 cf3d 00af fc3d acb6 72be 0c9c 04be
000003d0: 02f6 a33f 3642 5c3e bd35 74bd cc31 a53e
000003e0: 11f2 4c3e 219b c2bf 0495 0b3e 930a a53e
000003f0: 3ef6 b53b 5893 c03d 92d4 943f b1d1 ddbd

critic.0.bias f4 [64]
0.34744674 0.16003999 0.14665426 0.20888962 -0.050597936 -0.07133014 0.21932316 -0.44678867
-0.36999947 0.19156113 -0.3427585 0.08294022 -0.27225387 -0.116395175 -0.119663015 -0.1675258
-0.3323584 -0.3378493 -0.17053583 -0.24367277 -0.0438286 -0.30119732 0.01104005 -0.47306755
0.06572415 0.044131022 0.17359415 -0.4369894 0.16121373 -0.034885045 0.39714593 -0.22476053
0.47756124 0.27310443 0.081686884 0.01888452 0.04333299 -0.12310501 0.4050115 0.09370022
-0.12843937 -0.3520802 -0.0044386336 0.06906028 0.3793865 -0.34853378 -0.15196262 0.20495862
-0.039628025 -0.3308813 -0.32384732 0.534978 -0.10056585 -0.052265625 0.20018858 -0.2368608
0.35628325 0.23120497 0.04612943 -0.0433171 0.2618479 0.10466973 -0.23900424 0.098226175
00000000: 8ae4 b13e 86e1 233e 892c 163e 29e7 553e
00000010: c83f 4fbd 8915 92bd 4096 603e 7cc1 e4be
00000020: 9270 bdbe 9a28 443e 0b7e afbe 90dc a93d
00000030: dc64 8bbe 9860 eebd e211 f5bd e28b 2bbe
00000040: e12a aabe 95fa acbe f2a0 2ebe 5b85 79be
00000050: 9e85 33bd 8936 9abe 53e1 343c e935 f2be
00000060: 629a 863d bbc2 343d aac2 313e 13bd dfbe
00000070: 3615 253e 9fe3 0ebd b656 cb3e a027 66be
00000080: e882 f43e 58d4 8b3e 744b a73d b5b3 9a3c
00000090: ef7d 313d 7b1e fcbd ab5d cf3e e7e5 bf3d
000000a0: 9c85 03be db43 b4be f571 91bb 7a6f 8d3d
000000b0: f33e c23e 0573 b2be 179c 1bbe ace0 513e
000000c0: ff50 22bd 4669 a9be 51cf a5be 51f4 083f
000000d0: 78f5 cdbd 7b14 56bd 3cfe 4c3e a38b 72be
000000e0: c26a b63e ffc0 6c3e 37f2 3c3d 456d 31bd
000000f0: ee10 863e 155d d63d 87bd 74be ce2a c93d

critic.2.weight f4 [64, 64]
0.035884492 0.08913397 0.04442114 -0.043254126 0.021037767 0.028844768 -0.034813546 -0.00979361
0.038364537 -0.11484947 0.03602995 0.09412055 0.09259093 -0.07729113 -0.16348289 -0.0867174
-0.013554868 -0.06947219 0.055927865 0.046099693 0.048521437 0.07217404 -0.07544545 -0.09682439
-0.027896225 -0.022270363 0.11626281 0.0588825 0.029691976 0.052783713 0.057896446 -0.013866715
0.02148475 -0.00090966903 0.105006 0.06255367 0.094431706 -0.10762469 -0.025307395 -0.10744032
0.02551739 -0.05069841 0.038602788 -0.092508286 0.037716094 -0.029995304 0.05106865 0.12350225
0.13714449 -0.090419985 0.113013305 0.13049494 0.108772874 -0.007130076 0.10769601 0.02643212
-0.005099704 -0.010449355 -0.057747595 0.12382888 -0.12723342 0.104096435 -0.005541192 0.025687885
0.0022643856 -0.06726689 -0.096953414 0.040574487 -0.101671204 0.074234955 -0.13614576 0.048176885
0.03234112 0.042510755 0.13742417 -0.043014992 0.15944082 -0.0389185 -0.039179232 0.008642235
-0.0272854 -0.055816732 0.053339012 0.093766294 0.06621285 0.09577559 0.018013127 -0.030265668
-0.12963118 0.054220494 0.029027697 -0.08009379 0.050182227 -0.087014794 -0.13638234 -0.08782089
0.06145406 0.021235859 -0.10279388 0.04775806 0.041292407 0.023229105 0.04147146 0.07020061
-0.03719631 -0.017624218 0.15318377 0.04078491 0.01145888 -0.036343936 -0.08206655 0.065318726
0.09808894 -0.019757997 -0.005927716 -0.18980564 0.1072835 0.06630847 0.02765617 0.034363154
0.073775604 -0.003748221 0.049327992 0.018581284 0.030815193 0.11456271 0.090348065 0.01882817
0.020176426 -0.007847508 -0.09544648 -0.023595303 -0.044836394 -0.10134623 -0.018224223 0.1120943
-0.052945215 0.10740938 0.05229875 0.01933268 -0.089948505 -0.1416914 -0.011724727 0.04035461
-0.08476998 0.0868856 -0.08123024 -0.0033979523 -0.053122394 0.017492566 -0.059073184 0.050096944
-0.017431721 0.11570891 0.10592693 -0.11109137 0.06806229 0.03361741 -0.12830657 0.012606156
-0.12201842 -0.078272566 0.07545662 -0.059765864 0.096966445 0.06233565 0.04184895 -0.016129246
-0.07043579 0.031634487 -0.034005668 -0.011477665 -0.080896616 -0.09175956 -0.08135067 0.04687983
0.040017243 0.096578754 -0.082489386 0.0023092232 -0.01446108 0.09761789 -0.10924357 0.046140518
0.09132956 -0.100305595 -0.051618326 0.064511806 -0.038399663 -0.052274518 -0.041830014 -0.010205358
-0.18960665 -0.29132998 -0.07639208 0.13960098 -0.019213125 0.049718253 0.13400532 -0.10999641
-0.021721428 0.17186892 0.07989695 0.064303875 -0.04516626 0.11350499 0.053107604 0.0043697995
0.07037089 -0.054684408 0.08110578 0.17005686 0.11882973 0.14024235 0.11845946 0.0112837665
0.031571586 -0.104524575 -0.029045641 0.10190807 -0.063863285 -0.0401292 -0.070666134 0.15364085
-0.04457127 -0.0034023656 -0.0055070394 0.10674841 0.03490584 0.0114158895 -0.26551685 -0.01793079
0.05284134 0.13380456 -0.2908265 -0.030822124 -0.10667404 0.17605616 0.13542266 0.026493818
0.016047357 0.129143 -0.014033278 -0.19154419 -0.054380257 0.12596098 -0.024119148 -0.11829621
-0.09180571 -0.12275563 0.15800901 -0.06056627 0.14362773 -0.0106889 0.107347764 0.11198294
00000000: 9efb 123d df8b b63d f1f2 353d 3d2b 31bd
00000010: 6557 ac3c dd4b ec3c a698 0ebd 6175 20bc
00000020: 2224 1d3d 3336 ebbd 2494 133d 46c2 c03d
00000030: 50a0 bd3d d04a 9ebd 0f68 27be e498 b1bd
00000040: 3d15 5ebc 7047 8ebd 9e14 653d 08d3 3c3d
00000050: 6abe 463d fccf 933d 2583 9abd de4b c6bd
00000060: a086 e4bc 5670 b6bc 321b ee3d c72e 713d
00000070: 963c f33c bc33 583d d324 6d3d 3831 63bc
00000080: c900 b03c db76 6eba 630d d73d 231c 803d
00000090: 6965 c13d 556a dcbd 7451 cfbc ac09 dcbd
000000a0: d809 d13c 23a9 4fbd f51d 1e3d fc74 bdbd
000000b0: 317c 1a3d b6b8 f5bc 5c2d 513d bfee fc3d
000000c0: 9b6f 0c3e 1d2e b9bd 8573 e73d 77a0 053e
000000d0: 50c4 de3d 6aa3 e9bb ba8f dc3d 2c88 d83c
000000e0: 6b1b a7bb c533 2bbc be88 6cbd ff99 fd3d
000000f0: 7a49 02be 8330 d53d e392 b5bb 666f d23c
00000100: 1666 143b 39c3 89bd 838f c6bd 6f31 263d
00000110: fe38 d0bd 7f08 983d cb69 0bbe 2055 453d
00000120: 1f78 043d c21f 2e3d ecb8 0c3e 7d30 30bd
00000130: 7444 233e 0169 1fbd 677a 20bd 2998 0d3c
00000140: a285 dfbc 16a0 64bd 027a 5a3d 8b08 c03d
00000150: 9a9a 873d fe25 c43d 4490 933c b5ef f7bc
00000160: 09be 04be 4f16 5e3d 7ecb ed3c 3708 a4bd
00000170: e18b 4d3d d034 b2bd d0a7 0bbe 70db b3bd
00000180: 41b7 7b3d d3f6 ad3c 9985 d2bd f59d 433d
00000190: 3a22 293d f74a be3c fadd 293d 56c5 8f3d
000001a0: 285b 18bd aa60 90bc 35dc 1c3e 140e 273d
000001b0: 07be 3b3c 61dd 14bd 8212 a8bd d3c5 853d
000001c0: dbe2 c83d 86db a1bc 493d c2bb 695c 42be
000001d0: 74b7 db3d bccc 873d 318f e23c 61c0 0c3d
000001e0: aa17 973d b7a4 75bb 260c 4a3d c737 983c
000001f0: 2570 fc3c db9f ea3d 6808 b93d 893d 9a3c
00000200: 0849 a53c d692 00bc 7279 c3bd f04a c1bc
00000210: 5ea6 37bd 9d8e cfbd f74a 95bc b291 e53d
00000220: 15dd 58bd 73f9 db3d 3737 563d 925f 9e3c
00000230: ec36 b8bd 8d17 11be 1219 40bc e04a 253d
00000240: e29b adbd 14f1 b13d 0a5c a6bd 2eb0 5ebb
00000250: de96 59bd 924c 8f3c b9f6 71bd 7432 4d3d
00000260: f8cc 8ebc cbf8 ec3d 38f0 d83d df83 e3bd
00000270: 3e64 8b3d 69b2 093d cc62 03be 0d8a 4e3c
00000280: cbe4 f9bd 5e4d a0bd 0089 9a3d 0dcd 74bd
00000290: 5896 c63d ab53 7f3d ce69 2b3d 7b21 84bc
000002a0: a440 90bd 2a93 013d 8749 0bbd d10c 3cbc
000002b0: 20ad a5bd 70ec bbbd 2e9b a6bd 1105 403d
000002c0: 1fe9 233d 15cb c53d 32f0 a8bd 5656 173b
000002d0: 2aee 6cbc e3eb c73d 18bb dfbd d7fd 3c3d
000002e0: fe0a bb3d 056d cdbd bd6d 53bd c41e 843d
000002f0: f748 1dbd ce1d 56bd f355 2bbd 6034 27bc
00000300: 3f28 42be 3429 95be 7373 9cbd 8ff3 0e3e
00000310: d864 9dbc 5ea5 4b3d b138 093e cc45 e1bd
00000320: 23f1 b1bc 68fe 2f3e 03a1 a33d c0b1 833d
00000330: 4200 39bd 4e75 e83d 5c87 593d 8930 8f3b
00000340: 9d1e 903d c2fc 5fbd ca1a a63d 6323 2e3e
00000350: 005d f33d b19b 0f3e e09a f23d 8cdf 383c
00000360: 3551 013d fb10 d6bd 20f1 edbc 2eb5 d03d
00000370: c1ca 82bd 845e 24bd 68b9 90bd 0754 1d3e
00000380: 5d90 36bd 39fa 5ebb 6574 b4bb e99e da3d
00000390: 6df9 0e3d b609 3b3c d3f1 87be 98e3 92bc
000003a0: 2970 583d 1004 093e 36e7 94be ae7e fcbc
000003b0: eb77 dabd 1148 343e 3dac 0a3e 9009 d93c
000003c0: bf75 833c 103e 043e d6eb 65bc 2924 44be
000003d0: d5bd 5ebd eafb 003e 8595 c5bc 4945 f2bd
000003e0: a204 bcbd 4e67 fbbd 1dcd 213e 5614 78bd
000003f0: 2613 133e 7f20 2fbc 25d9 db3d 5057 e53d

critic.2.bias f4 [64]
0.09734043 -0.004595509 0.103925 -0.051024135 0.08937236 -0.03561735 0.058796924 -0.08604924
-0.13357814 0.0025375674 -0.061659805 -0.017553467 0.103027456 0.13783012 0.055309907 0.109088354
-0.113676794 -0.050970145 -0.06773623 0.1174295 0.13562049 -0.052278526 -0.05641066 0.019611208
0.039602727 -0.12364821 0.017266812 -0.04974835 -0.11684115 0.108852364 -0.014694586 0.07266224
0.07008167 -0.026877569 0.13792656 0.041636158 -0.023574622 -0.014734302 -0.09551775 0.00936843
0.0041152257 0.02284681 -0.15370233 -0.14317355 0.043158274 -0.06627485 0.050239157 0.075741716
0.053596664 -0.038967025 -0.08688881 0.050645296 0.012776675 -0.044984326 0.15204316 -0.04176306
0.059730936 0.1001355 -0.033395983 0.13889344 0.087624386 0.05772865 0.0625331 0.10267156
00000000: 6b5a c73d ec95 96bb a1d6 d43d affe 50bd
00000010: db08 b73d 80e3 11bd 0bd5 703d 953a b0bd
00000020: b5c8 08be 514d 263b fe8e 7cbd 4acc 8fbc
00000030: 0f00 d33d 5723 0d3e a48c 623d b769 df3d
00000040: 61cf e8bd 12c6 50bd 4bb9 8abd e17e f03d
00000050: 19e0 0a3e 0222 56bd dd0e 67bd afa7 a03c
00000060: 7836 223d 463b fdbd 2173 8d3c edc4 4bbd
00000070: 6a4a efbd fded de3d 90c1 70bc f1cf 943d
00000080: fb86 8f3d 592e dcbc 9f3c 0d3e ad8a 2a3d
00000090: 911f c1bc 2468 71bc cf9e c3bd 0b7e 193c
000000a0: 04d9 863b 3c29 bb3c 2564 1dbe 169c 12be
000000b0: bbc6 303d 1cbb 87bd 93c7 4d3d 791e 9b3d
000000c0: 2d88 5b3d e39b 1fbd c3f2 b1bd 7171 4f3d
000000d0: 4255 513c 7c41 38bd 34b1 1b3e be0f 2bbd
000000e0: 6da8 743d d713 cd3d 3aca 08bd 153a 0e3e
000000f0: 6a74 b33d e074 6c3d 5b11 803d 7845 d23d

critic.4.weight f4 [1, 64]
-0.0025163179 -0.0010655387 0.00063263014 0.034076758 -0.0030137529 -0.035427608 0.0014014428 -0.07381641
0.00974726 -0.07086676 -0.00024024147 0.002326117 0.0018484646 -0.1977912 0.0049126637 0.008764089
0.025735717 -0.07993977 -0.229688 0.0029764313 -0.11150004 0.0006585347 -0.0067636864 0.0011532467
-0.2153489 0.015199307 0.0090787625 0.021293428 0.13443853 -0.0038968103 0.110811286 -0.029210582
-0.0060228063 0.001364264 -0.1692334 0.008440219 -0.0016133558 0.0022024268 0.0026558149 0.16469927
2.1581938e-05 -0.0001208658 0.065378144 0.06620757 -0.0017737463 0.002004928 8.5479594e-05 -0.0042841383
-0.00040441786 -0.0045254175 -0.00023966262 0.21503446 0.0027589207 0.0019419931 -0.12303231 -0.02961386
0.006861096 0.0007710664 0.0010931727 -0.07294259 0.20932521 -0.0059744045 2.7143522e-05 -0.06894807
00000000: cfe8 24bb 8ca9 8bba 17d7 253a 1294 0b3d
00000010: 6282 45bb 8a1c 11bd 9eb0 b73a 0f2d 97bd
00000020: f9b2 1f3c 9822 91bd 54e9 7bb9 c471 183b
00000030: 2e48 f23a c789 4abe 69fa a03b 4197 0f3c
00000040: b6d3 d23c 76b7 a3bd 5533 6bbe 3b10 433b
00000050: 225a e4bd 84a1 2c3a eaa1 ddbb 8a28 973a
00000060: 6c84 5cbe 8406 793c 17bf 143c 8e6f ae3c
00000070: 41aa 093e a161 7fbb 07f1 e23d 084b efbc
00000080: f65a c5bb 1bd1 b23a 854b 2dbe d848 0a3c
00000090: 3d77 d3ba 9756 103b 2e0d 2e3b eda6 283e
000000a0: dc0a b537 5579 fdb8 fae4 853d d697 873d
000000b0: 0d7d e8ba 1c65 033b 8243 b338 f561 8cbb
000000c0: 0c08 d4b9 f449 94bb f24d 7bb9 fe31 5c3e
000000d0: 02cf 343b 7a8a fe3a 5df8 fbbd c498 f2bc
000000e0: 0bd3 e03b 6421 4a3a ca48 8f3a ed62 95bd
000000f0: 5959 563e f0c4 c3bb 45b2 e337 a534 8dbd
