trained/SimplePong/PPO_mcts_sparse_1728775272.0415254.pth (torch, 42338 bytes, 11 tensors)

actor.0.weight f4 [64, 5]
000000 f7 0f 4e 3e 91 5a a8 3e 4b 11 8c be 44 83 de 3e
       0.20123278 0.32881597 -0.27356943 0.43459523
000010 24 cd 0f be 30 bb e7 3d bd 51 ca 3e d8 14 9d be
       -0.14043099 0.11315 0.39515486 -0.30679965
000020 c5 fc c6 3e b8 d2 65 be f9 b6 e6 3e 68 81 da be
       0.38864723 -0.22443664 0.45061472 -0.42676854
000030 96 39 36 be b7 a8 02 bf 85 27 c4 3d 7f 81 c7 be
       -0.17795405 -0.5103869 0.0957785 -0.38965985
000040 19 3c 04 3f 81 16 a8 3e 9c ab de bc 79 16 44 be
       0.516542 0.3282967 -0.02718144 -0.19149198
000050 cd 40 a2 3e c5 78 f5 bd b7 c1 0a bf f3 26 76 be
       0.31690064 -0.119859256 -0.54201835 -0.24038295
000060 d8 b6 34 3e ed 91 87 3e fb 53 38 3e 48 da f4 3c
       0.17647874 0.2647852 0.18000786 0.02988924
000070 1d 17 47 3d a7 a7 a3 3e 71 c1 5d 3e 53 e0 6a be
       0.048606027 0.31963846 0.21655823 -0.22937135
000080 ec 42 bb be da dc 00 bf 63 52 8c be b1 ba 81 3e
       -0.36574495 -0.5033699 -0.27406606 0.25337747
000090 58 c4 82 be e4 66 91 3e d6 ea 0a be 59 1e e2 3e
       -0.25540423 0.28398812 -0.13566145 0.44163778
0000a0 ea ff 03 bd 89 e5 e4 3e ed d8 73 be 5d ca da 3e
       -0.03222648 0.4470637 -0.2381322 0.42732516
0000b0 7d d0 9a 3e 3c 13 e2 3d 3b 16 11 3f a0 71 01 be
       0.3023719 0.11038825 0.56674546 -0.12641001
0000c0 b7 ce cc 3e 2e e0 c8 3e 78 56 86 be 42 a8 fb be
       0.4000146 0.39233536 -0.26237845 -0.49151808
0000d0 49 d2 9f be 40 a9 5e bc ca 70 78 3e 2f 9f e0 3e
       -0.31215122 -0.013590157 0.24261776 0.43871447
0000e0 f4 e1 98 be 22 f2 d9 3b 2a cc 65 3e c9 f9 9b 3e
       -0.2985989 0.006651179 0.22441164 0.30464008
0000f0 0b c6 94 3e cc b3 d0 bd b7 b5 46 bd 0e e4 ad 3c
       0.29057345 -0.101905435 -0.04851314 0.021226909
000100 90 4f 2f be e6 6c ea 3e 35 ea 8f be c7 e5 2c be
       -0.17120194 0.45786208 -0.28108373 -0.16884528
000110 ae 51 de be 78 62 1d be bc 80 11 3f 52 e8 08 bf
       -0.43421692 -0.15369594 0.5683706 -0.5347949
000120 17 1c 8b 3d dd a3 e5 be e7 2b 53 be ef 10 c2 be
       0.06792467 -0.4485158 -0.20622216 -0.37903544
000130 59 12 0f 3f 89 09 cc 3e 39 87 8e 3e 05 2b df be
       0.5588737 0.39851025 0.27837542 -0.4358751
000140 23 9e d9 3e 3a ab 03 3c ca d8 5e 3e 58 34 2e be
       0.4250346 0.008036429 0.21762386 -0.17012155
000150 25 c7 1c 3e fd 6a 94 3e 72 87 05 bf af dd b4 3d
       0.15310343 0.28987876 -0.521598 0.08831345
000160 7d 79 b0 be 24 62 b9 be 09 72 1e be 10 1a 85 be
       -0.34467688 -0.36207688 -0.15473188 -0.25996447
000170 2b 63 f5 3e 89 2f c0 3e 9e 68 41 3e 50 21 08 3e
       0.47927222 0.37536266 0.18887565 0.13293958
000180 4b a5 a8 be 12 be 79 3d b6 3c a0 bd 80 d1 eb bd
       -0.3293861 0.06097228 -0.0782408 -0.11514568
000190 bf 11 71 3d 5e e9 38 be 3c cb 4c be 20 27 85 3e
       0.058854815 -0.18057773 -0.19999403 0.26006413
0001a0 28 ac 3d be ea 64 9a 3c 0d 7e 44 3e ef 83 91 3e
       -0.18522704 0.018846948 0.1918871 0.2842097
0001b0 ea 02 08 3f a6 b3 12 be b7 fd de 3e 60 45 f9 bd
       0.53129447 -0.14326343 0.43552944 -0.12171435
0001c0 04 56 84 3e 25 4b 3c be c3 8b 1c be a7 a9 df be
       0.25846875 -0.1838804 -0.1528769 -0.43684122
0001d0 fa bc 58 3e 4f 19 f6 3d 93 ee d2 3e 0c 11 28 3e
       0.21165839 0.12016546 0.41197643 0.16412753
0001e0 47 ec f3 3e 26 15 49 bb dd 44 c9 3d a6 db 2c bd
       0.47641203 -0.0030682771 0.09827588 -0.04220166
0001f0 43 b7 58 3e 07 c3 e3 3d f9 f4 ec 3e 88 80 3b 3e
       0.21163659 0.11121183 0.4628065 0.1831075
000200 ed 05 87 be 4e 94 26 be ae 5b b7 3e 99 f3 ed bd
       -0.2637171 -0.16267511 0.35812134 -0.11618728
000210 ea b7 b2 3d eb 09 04 bf 06 a1 93 3e aa 79 cd 3e
       0.08726485 -0.51577634 0.2883379 0.40131885
000220 3d b1 35 3d 19 d1 e7 3c f9 96 b7 3e c4 7a 04 3c
       0.04435848 0.028297948 0.3585737 0.00808591
000230 ee 69 f0 be ac 47 12 3d 8d d2 8f 3e 47 93 0d 3f
       -0.46955818 0.035712883 0.28090325 0.5530285
000240 0c 7f dd 3e d4 e2 c2 3e fe 50 f0 be e9 b1 e6 bd
       0.43260992 0.3806368 -0.46936792 -0.112644024
000250 c9 d2 c7 be 44 a4 5f be e3 53 f5 3d ce d2 c0 be
       -0.39028004 -0.21840006 0.11978891 -0.3766083
000260 13 4b 3f bd 47 39 44 3e 75 ca d0 bd a6 af b0 be
       -0.046702456 0.19162475 -0.101948656 -0.3450901
000270 e1 5b a6 be 9d 70 1d 3e 47 46 8f be d3 8c 8f be
       -0.32491973 0.1537499 -0.27983305 -0.28037128
000280 bc 09 06 bf 3f 14 a6 3e 99 72 84 3d 79 b8 da 3e
       -0.52358603 0.32437322 0.0646717 0.42718866
000290 2c 3a ea be ec ae 06 3f 49 13 24 3e 4b 52 94 be
       -0.45747507 0.5261066 0.16022982 -0.28969035
0002a0 33 4c a1 3d 29 cb 83 be 83 dc 87 3e c7 c2 03 be
       0.07875862 -0.25740936 0.26535425 -0.1286727
0002b0 a5 05 1c be d8 e1 4e 3e 0b 10 80 3d 34 d1 02 bf
       -0.15236528 0.2020334 0.0625306 -0.5110047
0002c0 b9 56 92 3e 9d 89 c4 3e 57 a0 2c 3f ba 82 a8 be
       0.2858179 0.3838624 0.6743216 -0.32912236
0002d0 05 46 bd 3e 7f be 96 be 2c 37 14 3e 58 c4 25 3e
       0.36967483 -0.29442212 0.14474171 0.1618818
0002e0 23 7a 4b be 77 98 bc 3d 0c f3 a9 be e5 b9 25 3e
       -0.1987081 0.09208768 -0.33193243 0.16184194
0002f0 15 82 d8 be f1 b7 d0 be b5 bd a7 be 6f 2f 6a 3e
       -0.42286745 -0.40765336 -0.32761922 0.22869657
000300 93 80 3d bc da cc 0a bd b6 5b b5 3e 18 39 4b 3a
       -0.011566299 -0.033886768 0.35421532 0.0007752343
000310 c5 28 86 3e 18 98 2a 3e 73 33 1d be 39 75 8e 3d
       0.2620298 0.16659582 -0.15351658 0.06955952
000320 7c f6 c7 3e 0b 01 08 bf 33 df 89 be 86 15 e3 be
       0.3905524 -0.5312659 -0.269281 -0.4435236
000330 07 b5 ab be 0d 5b 53 3e 04 ea 26 3e 0d e0 a5 bb
       -0.3353655 0.20640202 0.16300207 -0.0050621093
000340 e7 20 b2 be 7a 52 41 3e 1e 77 94 be cc 8a 89 3e
       -0.34790727 0.18879119 -0.2899713 0.26863706
000350 5b fa 91 3e 1f c7 94 3e f6 ea 95 be cc d1 d3 be
       0.2851132 0.29058167 -0.29280823 -0.41371
000360 90 36 ff 3e 41 16 5b be 3a 7a 98 3e 00 7b 9e bc
       0.49846315 -0.21395208 0.2978075 -0.01934576
000370 b9 17 9e be 08 a4 04 3e 4a d1 50 be 50 d7 d3 3e
       -0.30877474 0.12953198 -0.20392337 0.41375208
000380 68 5d bb 3e da 50 d2 3e 2b 83 90 be f9 9f ac 3e
       0.365947 0.4107731 -0.28225073 0.337158
000390 45 a5 87 3d e5 70 a5 bd f2 96 f7 be 21 c2 99 3e
       0.066233195 -0.080781735 -0.4835735 0.3003092
0003a0 65 14 6b 3e 33 e8 b8 3e 08 8f c5 3e 62 ea bb bd
       0.22956999 0.36114654 0.38585687 -0.09175564
0003b0 e4 19 5e 3e 0e 30 91 bc e7 39 dd 3d 18 99 60 be
       0.21689564 -0.01772311 0.108020596 -0.219334
0003c0 60 32 63 be d2 6f fa 3e 14 1c 2f bc fa ea f1 3e
       -0.22187185 0.48913437 -0.010687847 0.47249585
0003d0 c7 0b d1 3b 4e 52 0b be 49 73 6a 3e 04 b5 89 3d
       0.006379578 -0.13605615 0.2289554 0.06723979
0003e0 8a ba f2 3d 45 56 1c 3e 21 db 34 bd 19 0c 16 3d
       0.11851986 0.15267284 -0.04415429 0.03663263
0003f0 07 e7 a5 3c f6 0f 0a 3e 54 f3 fe 3e 32 35 a5 be
       0.020251764 0.13482651 0.4979502 -0.32267147

actor.0.bias f4 [64]
000000 5d 10 85 be 51 54 d5 be c8 ab 2f 3e ce 69 d6 bd
       -0.25989047 -0.4166589 0.17155373 -0.104693994
000010 d2 3b 5b 3e ca 0d c6 be 92 55 ba 3e 5a 1d e3 bd
       0.21409538 -0.38682395 0.3639341 -0.11089583
000020 8d c5 5e 3b bc d5 b1 be b3 d3 a7 bd 55 9b 48 be
       0.003399226 -0.3473338 -0.08194675 -0.19590504
000030 6b 8e 30 3e ad 12 87 3e 33 53 97 bd f0 84 9a be
       0.17241828 0.26381436 -0.07388916 -0.30179548
000040 8b 60 c9 be 33 3b b8 3e 17 27 bb be 69 31 e5 3d
       -0.3933147 0.35982665 -0.3655326 0.11191065
000050 e9 31 25 3e b2 d7 83 be 0e 60 83 be dd 42 d0 3d
       0.1613232 -0.257505 -0.2565922 0.10169003
000060 87 fc e9 3d 47 9a aa be c0 2c 2a be e5 cc 8f be
       0.11425119 -0.3332083 -0.16618633 -0.2808601
000070 7c ad 5f bd 6b 2c a0 3e 93 8a 86 3e f7 4c d6 3e
       -0.054608807 0.31283888 0.262776 0.41855595
000080 dc 6f 3d 3e f6 f3 8a be 4e 5d f6 3d 72 29 6f be
       0.18499702 -0.27139252 0.12029515 -0.23355654
000090 14 0b 99 bd 1f ab 4c bd 77 73 52 3b 8a 08 9f 3e
       -0.07472816 -0.04996788 0.003211228 0.31061202
0000a0 60 83 2c 3e c3 c6 38 be fe 6b 5e bd 20 ee 8a 3e
       0.1684699 -0.18044572 -0.054302208 0.271348
0000b0 f4 94 ce 3d f5 e5 39 3c 6e da ea bc 7f 1f 47 bd
       0.10087004 0.01134633 -0.028668609 -0.04861402
0000c0 c7 12 93 3e 53 60 86 be 9c 4b e9 bb 5c b7 bb be
       0.28725263 -0.26245365 -0.007119609 -0.3666333
0000d0 e9 ff 6c 3e a0 59 c1 be 7e 07 84 be a5 e8 13 be
       0.23144497 -0.3776369 -0.25786966 -0.14444216
0000e0 49 e9 2e bd 93 e5 2f bd 7e 7b d3 3d 7e dd 94 be
       -0.042702947 -0.04294355 0.10326289 -0.29075235
0000f0 07 17 34 bd c7 e0 3a 3e 46 9c a4 3d 50 2e 10 be
       -0.043967273 0.18249808 0.08037619 -0.14080167

actor.2.weight f4 [64, 64]
000000 43 63 f7 3c 60 10 b6 bd 29 2e 01 3f 00 20 fd bc
       0.030198699 -0.08889842 0.5046106 -0.030899048
000010 bf e3 21 3e 9c 6a 08 bd cd 92 05 3e 9e fa 63 3d
       0.15809534 -0.033304796 0.13044281 0.05565893
000020 d6 35 10 be 3c 4f 73 be eb 45 22 be 51 c5 d0 bd
       -0.14083037 -0.23760694 -0.15846984 -0.10193885
000030 95 eb 50 3e 16 6b 9e 3e 38 95 b2 3e 72 2f 6d be
       0.20402367 0.30941075 0.3487947 -0.2316263
000040 ed d8 e0 bd ff 19 3c 3e c9 bf 8b bd ce d7 4a 3d
       -0.10978875 0.18369292 -0.068236895 0.049522214
000050 2a ba 34 3e 08 dd 40 be e8 49 32 bd 5c 2a 1f be
       0.17649141 -0.18834317 -0.043527514 -0.15543503
000060 3a 32 31 3d fa 12 89 bd 9b 21 2d 3d 21 f2 c1 3c
       0.04326079 -0.066930726 0.042268377 0.023675026
000070 db e2 29 be 61 66 ac 3e 8b 71 7e 3e 1f 56 a4 bd
       -0.16590445 0.3367186 0.24848 -0.08024239
000080 3a 5c 99 bd 83 3a 71 3a 5a 03 da 3d 44 c1 8b be
       -0.07488294 0.00092021393 0.106451705 -0.27295887
000090 cb 9c db 3d 15 e0 9b bd 1f cc 39 be 1e bf 04 3e
       0.10723265 -0.076111 -0.18144272 0.1296353
0000a0 5f 1e 29 3e 6d 67 57 3d 48 f2 50 be f2 c1 13 3d
       0.16515492 0.05258887 -0.20404923 0.036073633
0000b0 24 57 11 bd 5e 4b 3f 3e 2b 2a 94 be f6 27 43 be
       -0.035483494 0.18681094 -0.28938422 -0.19058213
0000c0 56 d4 c2 3d b3 a9 4a bd 47 e2 0b be 63 72 b3 be
       0.09513156 -0.049478244 -0.13660537 -0.35048208
0000d0 9f 67 c1 3c 3e 51 5c bd cd ed cf bd 9f 7f e0 3c
       0.02360898 -0.053788416 -0.10152779 0.027404604
0000e0 4b e2 8f be 3e e7 fc bd 0a f8 b0 be 99 f0 17 3b
       -0.28102335 -0.123487934 -0.3456424 0.002318418
0000f0 bc e4 ac bd d8 78 43 3e 8c 24 df bc 5b 3c e4 bd
       -0.08442065 0.19089067 -0.027239107 -0.111443244
000100 ae 31 0c be 12 d7 e5 3d c6 5c 9e be 7d 06 8b 3e
       -0.13690826 0.11222662 -0.30930156 0.27153388
000110 16 92 53 be f7 38 32 bd 88 2b 21 be c2 1e 5b bd
       -0.20661196 -0.043511357 -0.15739262 -0.05349613
000120 46 17 b0 3d 12 13 cf 3c b1 ad 5f 3d 7b 98 e2 bd
       0.08598189 0.025277648 0.054609004 -0.110642396
000130 fd c4 cd bd ef c5 01 be 8a 4c 13 bf 7b 4e 45 3e
       -0.10047338 -0.12673162 -0.57538664 0.19268219
000140 e2 9e 22 be 77 48 c1 bc a7 dc ca 3d 1b cf 38 be
       -0.15880921 -0.023594124 0.09905367 -0.18047754
000150 53 ef b0 bd 65 38 b2 3d 45 52 c3 bd 32 c1 84 3e
       -0.086393975 0.08702163 -0.09537176 0.25928646
000160 4d 03 05 3d 92 e1 13 3d 43 94 2b bd ad ba 89 bb
       0.03247385 0.036103792 -0.04188944 -0.0042031617
000170 ac d4 3d 3e d6 f2 50 be 1d 40 ec 3c 9d 37 7a bd
       0.18538159 -0.20405135 0.028839165 -0.061088193
000180 d3 cb 1d 3e cd 60 03 bd 3c 43 3f 3d 50 24 83 3e
       0.15409784 -0.03207474 0.04669498 0.25613642
000190 d1 68 32 be a9 da 26 bc d6 e5 ac 3d da 89 a7 bb
       -0.17422797 -0.010183969 0.08442275 -0.0051128687
0001a0 b4 c1 96 be 19 6e ae 3d e6 c1 2f 3e ea 84 19 3e
       -0.2944466 0.08517093 0.1716381 0.14992109
0001b0 9b 3c 9b ba 81 fc 0f be c3 3c b1 3e 88 0b 82 3d
       -0.0011843623 -0.14061166 0.3461667 0.06349856
0001c0 38 91 43 3e ed 69 6d bd a3 c3 67 3d 42 8c a1 3e
       0.19098365 -0.057962347 0.056583058 0.3155232
0001d0 e9 93 a1 3d 77 76 82 bc c2 62 b4 bd 5f ff 51 bd
       0.0788954 -0.015925629 -0.08807899 -0.05126893
0001e0 a8 ff b8 3e b5 e3 1b 3e 16 de 9b 3e dd a8 1b be
       0.3613255 0.15223582 0.30442876 -0.15201135
0001f0 70 5a bc bd bc de b4 3d ce 5b c3 3c 02 21 ad bc
       -0.09196937 0.08831546 0.023847487 -0.021133903
000200 67 79 06 3d d1 59 36 bc 2a e9 4c 3e 6f df 94 be
       0.032830622 -0.011129812 0.2001082 -0.29076716
000210 d3 90 d4 3d 2f 32 34 3e 0b 0e f7 3d bc 19 0c 3e
       0.103791855 0.17597269 0.12063225 0.13681692
000220 95 5e 84 3c 4f 78 ee bc e0 9d 66 bc ff e6 03 3e
       0.016158381 -0.029110102 -0.014075726 0.12881087
000230 c0 4a 0c bd 6f 59 a8 bd 82 ba a5 3e 55 bb 40 be
       -0.034250975 -0.08220183 0.32368857 -0.18821461
000240 d9 c0 94 3d f2 1b a4 bd 45 ba 0f 3e c6 ad 63 bd
       0.07263345 -0.08013143 0.140359 -0.055585645
000250 68 9a 38 bd 25 ba 12 be 0e c5 3d bd 40 15 81 be
       -0.04506913 -0.14328821 -0.046330504 -0.25211525
000260 2a 0b 9e 3d 22 cc 6e 3d ff a8 7c 3d 46 e9 30 3e
       0.07716973 0.058300145 0.061684605 0.17276487
000270 72 df 19 be 04 6b 8f bd 35 bc bc 3c f7 d8 55 bb
       -0.15026644 -0.070028335 0.023038963 -0.0032630542
000280 ff 90 83 be fa 0c 30 3e 01 bf 76 bd 7a 19 75 bd
       -0.2569656 0.1719245 -0.06024075 -0.05983875
000290 71 d0 86 3e 24 0e df 3d 31 f3 3e be d2 56 bf bd
       0.26330903 0.10891369 -0.18647458 -0.093427315
0002a0 50 b0 a2 3e dd 02 9a bc a8 94 02 be a1 fe 7a bd
       0.3177514 -0.018800193 -0.1275202 -0.06127799
0002b0 e7 6a cd 3d 1e 8f 4c 3b 56 95 55 be 89 76 cb 3c
       0.10030156 0.0031213234 -0.20857748 0.024836795
0002c0 39 3e 03 be 21 10 c8 bb 8d b5 80 3c b1 c5 4b be
       -0.12816705 -0.0061054383 0.01571157 -0.19899632
0002d0 2a 9a 03 3c 37 47 f3 3d cb f8 51 3e 3c 6a a8 3d
       0.008032361 0.118788175 0.20505063 0.082233876
0002e0 fc 49 8f be f0 37 db bd 93 f1 90 be 01 1d f9 3d
       -0.27986133 -0.107040286 -0.28309307 0.12163735
0002f0 53 51 e8 3d a4 4e c7 3a 50 af 84 3d ac 63 98 bc
       0.11343636 0.0015205932 0.06478751 -0.018602215
000300 43 1c bf 3c f6 1a b5 3d be f4 ac be fe c5 9d 3e
       0.023328906 0.08843033 -0.33780473 0.3081512
000310 ea 52 2b be 09 00 d7 bd 9f dc 01 be eb f2 0d be
       -0.16730848 -0.104980536 -0.12681817 -0.13862197
000320 0d 8b 3c 3e ee 05 66 3e 56 18 e6 bd 43 b5 13 be
       0.18412419 0.224632 -0.112351105 -0.14424615
000330 37 9b 88 3d 12 34 1a be c1 b1 16 bf 70 71 93 3e
       0.0667023 -0.15058926 -0.5886498 0.28797483
000340 c4 a0 0d be f3 7d 78 be 2b 19 99 3d 74 26 4e be
       -0.13830858 -0.24266796 0.074755035 -0.20131856
000350 fc 01 ad 3b e8 9e 1e 3e ff be 09 be f7 00 b3 3e
       0.0052797776 0.15490305 -0.13451765 0.34961674
000360 e6 ce 71 bd 94 5b b9 3d 29 bf 84 be b9 1c 8a bd
       -0.059035204 0.0905067 -0.25927094 -0.0674376
000370 cc dc 09 3e f2 c2 36 be 63 a4 1b be b7 7a 94 bd
       0.13463134 -0.17847803 -0.15199427 -0.072499685
000380 01 e6 95 3e 05 33 a5 3b 78 72 11 3d 73 2d 76 3e
       0.29277042 0.0050414824 0.035509557 0.24040775
000390 bb 50 69 be f2 a9 19 be 0c b4 43 3e 77 ea c0 3d
       -0.22784702 -0.15006235 0.19111651 0.094197206
0003a0 07 d0 77 be 07 5d 4d 3d e0 bb 86 3e 5f 9c 90 3e
       -0.2420045 0.050137546 0.26315212 0.28244302
0003b0 97 e3 32 3e 01 ba 0c be f2 bb 8c 3e 8f 47 e9 3d
       0.17469631 -0.1374283 0.2748714 0.11390602
0003c0 a7 3c 6e 3d 12 af 11 bd d8 a6 af 3d b6 41 c3 3e
       0.05816331 -0.03556735 0.08576745 0.3813607
0003d0 69 2f 9e bd db 13 ac bd e1 81 a0 3d 86 5c 6b bd
       -0.077238865 -0.08402225 0.078372724 -0.057461284
0003e0 6b 60 12 3f 61 05 77 3e 1f 90 ae 3e c2 0b 51 bd
       0.5717837 0.24123146 0.3409433 -0.051036604
0003f0 86 f5 10 be 28 92 63 bd 09 5d bb 3b bd 37 b5 bd
       -0.1415616 -0.055559307 0.0057178778 -0.08848522

actor.2.bias f4 [64]
000000 97 39 5f bc 35 1d 4b 3d e6 02 0c bd 31 73 89 bd
       -0.01362457 0.0495884 -0.03418245 -0.06711424
000010 51 ad 1b bd 74 e6 a6 bd ca d5 61 3d 66 07 ee bd
       -0.038007084 -0.08149424 0.055135526 -0.11622505
000020 63 f4 ac 3d 6b 42 80 3c 50 68 b5 3c 36 bb 39 bd
       0.084450506 0.01565667 0.022144467 -0.045344554
000030 41 ad d7 bd 7a d1 aa 3d 8b 88 41 bd 36 51 4d 3e
       -0.105310924 0.08340736 -0.04724936 0.20050511
000040 4e 22 0d 3d fa 1c fc bd a4 0a 67 bc 9d 7c 3a bd
       0.034456544 -0.12310214 -0.014101658 -0.045528997
000050 6e db 13 be 77 00 59 3d bd 3a b0 3d 89 12 df 3d
       -0.14439175 0.05297896 0.086049534 0.10892207
000060 c2 72 e6 3d 03 bb eb bd 52 f2 73 3d 32 d4 99 bd
       0.11252357 -0.11510279 0.059557267 -0.07511176
000070 04 89 ba bd bb fc 84 3d 1b 17 1c 3c 21 28 a0 3d
       -0.09108165 0.06493517 0.009526993 0.07820154
000080 cd 99 0a be c6 6b 70 be de cd 40 be dc 60 99 bd
       -0.13535233 -0.23478612 -0.18828532 -0.074891776
000090 9d 9e 09 3e 51 7c 4d be 90 6c 27 bd 12 04 83 bd
       0.13439412 -0.20066954 -0.040875018 -0.06397261
0000a0 ec 90 df 3d 99 bd 1e 3d 83 97 c4 bd 29 58 c5 3d
       0.109163135 0.038755033 -0.09599211 0.09635956
0000b0 a9 8b a3 bd c8 ea 0f 3d 1a 24 59 3d 72 97 ab 3d
       -0.079856224 0.035136014 0.053012945 0.08378495
0000c0 11 6b 82 bd 61 46 61 be cb 74 b0 bd 95 3a a6 bd
       -0.063680775 -0.21999504 -0.086160265 -0.081166424
0000d0 2b 78 d7 3d cb 60 9b 3d b4 1b 7c 3d d0 d9 2b bd
       0.10520967 0.07586821 0.061549857 -0.04195577
0000e0 55 20 6a 3d db 0e df bd 7d 31 a9 bd 5d 90 1c 3e
       0.05715974 -0.10891505 -0.08261392 0.15289445
0000f0 02 0f 43 3d 84 82 c3 3d 6b be 6d 3e ac 1b 70 3d
       0.047621734 0.09546378 0.2321717 0.05862014

actor.4.weight f4 [3, 64]
000000 89 cf 2a 3e b8 77 03 bf 69 c4 46 3e c3 67 07 bf
       0.16680731 -0.5135455 0.19410862 -0.528927
000010 ee 79 11 3f e1 ff 79 be ad c3 9f 3e ee 7f 1c be
       0.56826675 -0.24414016 0.31203976 -0.15283176
000020 f4 b3 aa be 93 7c 93 3e cd 66 eb be 8f 9a a9 be
       -0.33340418 0.2880598 -0.45976868 -0.3312573
000030 47 1b d9 3d 66 35 0f bf 5c 56 24 3f dd 58 6c 3e
       0.10600906 -0.55940855 0.64194274 0.23080774
000040 e7 59 ba 3e fd b4 1c 3e 00 3a 15 bf b8 6a 28 3f
       0.36396715 0.15303417 -0.58291626 0.6578784
000050 78 17 12 3f e6 8a a6 be 36 17 02 3f 10 cd 4d 3e
       0.5706706 -0.32527846 0.5081667 0.20097756
000060 99 93 89 3d f4 64 21 3f 56 c0 8e 3e bf 09 e0 3e
       0.06717605 0.6304467 0.27881116 0.43757436
000070 80 8f 10 3f 15 5c 03 bf 6e be ef be 40 f8 d5 3e
       0.56468964 -0.5131238 -0.46824974 0.41790962
000080 97 a9 66 be 3e 67 26 3c c6 d5 49 3e b5 67 03 bf
       -0.22525631 0.010156451 0.19710454 -0.5133012
000090 c4 db f0 bd a2 d7 ca 3d 6e 9e 30 be 68 87 15 bf
       -0.11760667 0.0990441 -0.17247936 -0.5840974
0000a0 71 94 ee be 81 b2 58 3e 89 ee 06 3e 9f d0 10 bf
       -0.46597627 0.21161844 0.13176931 -0.5656833
0000b0 78 69 c2 be 5c a4 bc 3e 42 98 ba be cf cd fd 3e
       -0.3797109 0.36844146 -0.36444288 0.49571082
0000c0 8d 65 94 3e 4a fb 2a 3c 2b 94 81 be 48 d3 00 3f
       0.28983727 0.010435889 -0.25308356 0.5032239
0000d0 aa d4 93 3e e9 51 db bd f1 b6 e2 be bd 56 7c 3d
       0.28873187 -0.107089825 -0.44280198 0.061606158
0000e0 2f c6 c4 3e 0c de cc be 70 44 d5 3b ae 81 6f 3e
       0.38432452 -0.40013158 0.0065084025 0.23389313
0000f0 e2 1a 7f 3e be c6 84 3e 9a 14 de bc 64 13 57 3e
       0.24912599 0.25932878 -0.027109433 0.2100349
000100 06 ad 54 3e 7d 5d b0 3d f0 99 25 be f1 b5 87 bd
       0.20769128 0.086115815 -0.16172004 -0.066264994
000110 13 0d 29 3c bd eb 3d be b3 15 f4 3d 4e ef b6 3a
       0.010318059 -0.18546958 0.11918201 0.0013956816
000120 42 3e 71 3e d9 42 b9 3d 21 29 35 3d 2a 42 e7 bd
       0.23558906 0.09045953 0.044228677 -0.11291917
000130 87 1f 12 be e4 9d ed 3c 8c e5 9f bd 2f 1f fa 3d
       -0.14269839 0.029005952 -0.078074545 0.12212979
000140 c5 80 cc bd 5f 50 1f be 04 4e 81 3d 46 2f 40 3c
       -0.09985498 -0.15558003 0.063137084 0.011730021
000150 00 7e 5c be 29 6c 8e 3d d0 2c ad bd d1 44 d1 3d
       -0.2153244 0.06954224 -0.08455813 0.10218204
000160 45 94 3e 3e 15 e5 07 bc db 7a 0d be 4c 36 3d be
       0.18611248 -0.0082943635 -0.13816397 -0.18477744
000170 93 e9 15 be 61 f3 07 3e bd c2 34 bc be 42 0b 3e
       -0.14639883 0.13276435 -0.011032757 0.13599679
000180 3f 1e c7 3c d4 ef 40 be 22 f6 2d be 7c 24 96 bd
       0.024306415 -0.18841487 -0.16988423 -0.073311776
000190 e4 82 21 3e 34 67 ec bd 32 26 e3 bd 5e a1 2a 3e
       0.15772587 -0.11543122 -0.110912696 0.16663119
0001a0 e9 ec 34 3e f6 80 55 3e 17 30 29 be fe e4 86 bd
       0.17668499 0.20849976 -0.16522251 -0.065866455
0001b0 40 04 95 3c 61 d5 80 3d 2d de 83 3c bc fe 58 3c
       0.018190503 0.06290699 0.016097153 0.013244327
0001c0 25 0f 32 3c 70 9d 72 be 61 34 31 3d c0 02 99 bd
       0.010867869 -0.2369287 0.043262843 -0.07471228
0001d0 06 83 5d bd ea de 0f 3e b9 36 28 bd 68 f1 38 bd
       -0.05408003 0.14049879 -0.041067813 -0.045152098
0001e0 89 b8 e7 bc 7f d9 35 3d fb c3 8e bd 1c c6 46 3e
       -0.028286235 0.044396874 -0.06970974 0.1941151
0001f0 0f 56 17 3e cc ee b6 3d 5a 4a 35 3e 65 ea 28 3e
       0.14778922 0.08932266 0.17704144 0.16495664
000200 25 99 c7 be 12 9b 7f 3e 49 b5 ac bd 3c 49 bc 3e
       -0.38984028 0.24961498 -0.08433015 0.36774623
000210 c7 3b cc be 41 be 9f 3e e5 b1 13 bf bb 7d 29 3f
       -0.39889356 0.3119984 -0.5769332 0.66207474
000220 cc 11 80 3e b2 ee c2 be 9a a4 03 3f 31 29 27 3f
       0.25013578 -0.38072735 0.5142304 0.6529723
000230 be 2e 88 3d de 66 3e 3e bb c7 bb be 1e 9f 10 bf
       0.0664954 0.18593928 -0.3667582 -0.56492794
000240 de 16 c6 be 7a 37 94 3d 4a f1 ac 3e 30 5d a6 be
       -0.3868932 0.07237144 0.3377784 -0.3249297
000250 4a d5 6b be af 84 00 3f 66 1b d9 be a8 54 0f bf
       -0.23030582 0.5020246 -0.42403716 -0.5598855
000260 d9 8e c9 be 6e 47 30 be ed 29 45 be 77 1f 24 be
       -0.39366797 -0.17214748 -0.19254275 -0.16027628
000270 6f eb a7 be fa c3 c4 3e f1 03 cb 3e 06 8e 15 bf
       -0.3279681 0.38430768 0.39651445 -0.58419836
000280 c1 0c 1f 3f 8b 8a ea 3c b8 cc 93 bc 7b a6 11 3f
       0.62128836 0.028630516 -0.018041953 0.56894654
000290 56 57 43 be e9 c3 4a 3e f1 9a 8e 3e 47 cc ec 3e
       -0.19076285 0.19801296 0.27852586 0.462496
0002a0 e0 15 87 3e c9 ab c8 be 2c ed 6a 3e 8a 02 79 3e
       0.26383877 -0.39193562 0.22942036 0.24317375
0002b0 35 0b da 3e fb b2 eb be fe 29 f4 3e b1 96 6f be
       0.42586675 -0.4603499 0.47688287 -0.23397328
0002c0 21 d3 c0 be 1a 70 a2 3c 4c 84 05 3f f9 b9 3a be
       -0.3766108 0.019828845 0.52154994 -0.18235005
0002d0 f6 bf 87 be be 72 0e be 83 b2 83 3e 7a 76 2b 3d
       -0.26513642 -0.13910958 0.2572213 0.041861035
0002e0 51 93 d9 be 22 d2 03 3f 23 32 8d 3e e2 be db be
       -0.42495206 0.5149251 0.27577314 -0.4291907
0002f0 85 07 f7 be e8 ad 44 bf 35 e2 7e be 51 e4 08 bf
       -0.48247924 -0.7682786 -0.24890979 -0.53473383

actor.4.bias f4 [3]
000000 8e fb 08 be 52 18 1d 3e 4a e9 17 be
       -0.1337721 0.15341309 -0.14835086

critic.0.weight f4 [64, 5]
000000 ab 42 d4 bb 17 ed 85 be 3b 33 04 bf f4 43 d1 be
       -0.006477674 -0.26157448 -0.5164067 -0.40872157
000010 14 3a 9a 3f a4 a2 0c 3e 0f 73 8f be 40 61 d4 be
       1.2048974 0.13733917 -0.2801747 -0.41480446
000020 69 53 c8 3c bf e7 d5 bd 9a 1a 28 bd 25 be a4 be
       0.024453836 -0.10444593 -0.041040994 -0.3217632
000030 26 9b 40 3e 97 a1 7f be 70 e8 a6 3f 19 86 61 be
       0.18809184 -0.24963985 1.3039684 -0.2202381
000040 d5 59 83 be 79 15 bb 3e 75 d4 87 3e 8a 93 20 3f
       -0.25654474 0.3653982 0.2652928 0.62725127
000050 d9 47 d3 bd c2 22 32 3e 12 80 6c 3e 51 a0 68 3e
       -0.10316438 0.17396072 0.2309573 0.22717406
000060 ea 60 ce 3e f1 5b 73 be 18 26 00 be 61 bb 23 3f
       0.40308315 -0.23765542 -0.12514532 0.6395779
000070 4f c1 32 be 86 c0 94 bf 9e ae 12 3e 2d f8 5a 3e
       -0.17456554 -1.1621253 0.14324424 0.21383734
000080 bb 8f 4a 3e 0a 80 0c bd 4e b2 87 bf 03 02 8a 3d
       0.19781391 -0.034301795 -1.0601289 0.06738665
000090 dc 04 a2 be 1d f3 19 3e e0 54 4d 3e 53 4b 92 bf
       -0.31644332 0.15034147 0.20051908 -1.1429237
0000a0 f5 97 aa be 45 41 c6 3e 63 0a 82 3e 54 82 5b 3e
       -0.3331906 0.38721672 0.2539855 0.21436435
0000b0 dc 00 d5 be 6c c6 68 be 7f e8 1d be e7 e7 bd 3e
       -0.41602218 -0.22731942 -0.15420721 0.3709099
0000c0 20 41 0b 3e 7c fb da 3e 97 ff 34 3e 12 14 91 3e
       0.13599062 0.42769992 0.17675625 0.28335625
0000d0 46 ff 7d be e4 49 f2 3e c3 d2 8f 3f 8f b7 f4 3d
       -0.2480441 0.47322 1.1236194 0.119490735
0000e0 db 8d 94 3d c7 8a a0 bc cc 69 8c bd 8d c9 8f 3f
       0.07253619 -0.019597424 -0.06856117 1.1233383
0000f0 5e d4 a3 3e e3 a5 4a be 7d b6 ac 3e 08 5f ba bd
       0.3199796 -0.19789843 0.33732978 -0.09100157
000100 7c a4 97 bf 7d e4 8b 3e 0d 1e 6c be e8 9c a3 be
       -1.1847072 0.2732276 -0.23058338 -0.31955647
000110 4c 50 09 3e be e7 e6 be d2 23 a1 3d 09 df 75 3e
       0.13409537 -0.4509868 0.0786816 0.24010862
000120 ad e2 e8 be 54 12 d5 3e 8e 03 ce 3e 0d b0 a2 3e
       -0.4548544 0.41615546 0.40237087 0.3177494
000130 ba fb 91 be 16 35 68 3e dc f3 55 3e 10 7c 53 bf
       -0.28512365 0.226765 0.20893806 -0.8261118
000140 84 62 e3 3d a5 b4 81 3e 19 c9 c1 be 75 01 85 be
       0.11102775 0.25333133 -0.37848738 -0.25977674
000150 a0 98 94 be e1 74 91 be 15 ec b5 3e d5 1a 9c be
       -0.29022694 -0.28409484 0.3553168 -0.3048922
000160 03 2f 25 be a9 0c 92 3f 56 49 87 be 71 4a a8 3e
       -0.16131215 1.1410114 -0.26423138 0.32869294
000170 dd 92 c2 be 3d 9d b1 be e4 2c e2 3b 6e 06 48 bc
       -0.38002673 -0.34690276 0.006902324 -0.012208564
000180 ab 72 91 be 18 10 59 be 47 e3 ae 3e 1e c0 a1 3f
       -0.28407797 -0.21197546 0.34157774 1.2636755
000190 78 ef 9e be 0b ac 0a 3e ae aa 99 bc a0 c8 9b 3e
       -0.31042075 0.13542192 -0.018758144 0.30426502
0001a0 28 52 50 be 25 2e 3d 3e 87 31 da bd d4 14 13 be
       -0.2034384 0.18474634 -0.10653978 -0.14363414
0001b0 9d f4 7b 3e 8e 19 a7 bf bd 20 c0 bc 22 7c 90 3e
       0.24605031 -1.3054674 -0.02345311 0.28219706
0001c0 e9 9d a3 be 70 ed b2 3e 9d c8 8d 3f ad ac 87 3d
       -0.31956413 0.34946775 1.1076847 0.06624732
0001d0 b0 66 0a be b8 a8 01 3f 02 2e 20 be 90 a4 8b bf
       -0.13515735 0.5064807 -0.1564255 -1.0909595
0001e0 e8 10 18 be 04 23 e0 bd 4f a6 b9 be 9b e5 cf 3e
       -0.14850199 -0.10944179 -0.36259696 0.40604863
0001f0 73 34 0b 3f 40 16 60 be a5 29 af be 23 43 92 be
       0.54376906 -0.21883488 -0.3421146 -0.28566846
000200 6b c2 ee 3d 35 e8 95 3f cf f0 f4 3d e3 2c 74 bc
       0.11658176 1.1711489 0.11959993 -0.01490328
000210 ba c0 c9 bd 9c 73 0c be f3 a1 b4 bf 52 16 ba bd
       -0.09851213 -0.13715976 -1.4111923 -0.090862885
000220 f1 27 a9 be ac 21 f9 bc 21 39 fa bd 5c 79 5c bf
       -0.33038285 -0.030411564 -0.12217928 -0.8612268
000230 a8 da be be 53 a5 aa 3e 62 f2 14 be b4 d6 d1 3d
       -0.37276196 0.33329257 -0.14545587 0.102460295
000240 eb df 6b bf 1f 55 fc bc d1 1b 62 be 5d e1 27 3f
       -0.92138547 -0.030802308 -0.22080924 0.6557825
000250 12 27 ba 3e 2c 98 e6 be 08 4a 0a be 5d 0b 8e bc
       0.36357933 -0.45037973 -0.13504803 -0.017339403
000260 e8 da 09 bf 47 7a ab 3e 33 fd f2 be d9 fa d6 bd
       -0.5384965 0.33491728 -0.474588 -0.10497064
000270 94 09 59 3e 03 2d 18 3f 30 53 c9 be 8d b7 9a be
       0.2119506 0.5944368 -0.3932128 -0.30218163
000280 e5 cf 14 be 2e 29 99 3e 9e d9 26 ba 96 f8 4b 3e
       -0.1453243 0.2991423 -0.0006364825 0.19919047
000290 94 ea 88 3f 50 da c3 be 6e f8 b5 3e f4 15 b3 3b
       1.0696588 -0.38252497 0.355411 0.0054652635
0002a0 17 79 26 3a 70 5d 8b bf e6 53 bf 3c 43 03 a4 bd
       0.0006350441 -1.088789 0.023355436 -0.080084346
0002b0 fa 8d 42 3d f3 73 e4 bd 1c fc 51 bf 0d f4 88 3d
       0.04749868 -0.11154928 -0.82025313 0.06687174
0002c0 4f 18 88 bd 44 ea af be e6 06 85 3d 4e b8 65 3f
       -0.066452615 -0.34358418 0.064954564 0.8973435
0002d0 d9 d2 3c be a7 bd 2a be 6a e1 fe bd 3a 68 d9 be
       -0.18439807 -0.16673909 -0.12445338 -0.4246233
0002e0 8e 0f 99 3f 24 68 25 be d3 d2 4b 3e 87 f6 d1 bd
       1.1957872 -0.16153008 0.19904642 -0.102520995
0002f0 67 2d 78 bd 60 8c 98 bf dd a4 ad be 29 ef 95 3d
       -0.060590174 -1.1917839 -0.33914843 0.07321007
000300 8b f7 74 3e 9b 7f e8 3d 7e 5f 8f 3f 01 72 26 3d
       0.23922555 0.11352464 1.1201017 0.040636066
000310 37 75 8a bd e5 e8 4b 3e d4 12 c2 be f9 c0 9e bf
       -0.06760638 0.19913061 -0.3790499 -1.240264
000320 93 9a 8a be d0 74 9e 3e f2 0f 67 be 2d f6 6f bd
       -0.27071056 0.30948496 -0.22564676 -0.05858438
000330 ec 0d 69 3f 4f 5e a9 be bb 77 80 3e 1f c2 fa be
       0.9103687 -0.33079764 0.25091347 -0.48976228
000340 32 cf a1 be 31 ca 74 3f f5 b1 a2 3e d4 18 46 be
       -0.3160339 0.9562102 0.31776395 -0.19345409
000350 94 3d 0b 3e c2 b4 64 be 93 72 8c bf 1a 7d ef 3d
       0.13597709 -0.22334579 -1.0972465 0.11693783
000360 3c e0 d0 3e 67 e4 7f be aa f0 85 be 6a 1e 77 3f
       0.40796077 -0.24989472 -0.26160175 0.96530783
000370 12 a0 c3 3d 40 08 cb bd fd 2e 71 be 8a 0d d4 3e
       0.09552015 -0.09913683 -0.23553081 0.4141658
000380 15 fe 74 bf b5 fd 3b be 15 c4 3b 3e f1 9a ae 3e
       -0.957002 -0.183585 0.18336518 0.34102586
000390 cf 5d bb 3c 27 f4 32 3f 99 19 a0 3e 34 4a cb 3c
       0.02287188 0.69903797 0.3126953 0.024815656
0003a0 bc bc c8 be 10 dd 15 3e f2 72 82 3f e4 44 32 be
       -0.39206493 0.1463511 1.0191329 -0.17409092
0003b0 d7 62 4f be d4 ea 83 3c 57 4e 7c 3e 18 9c c1 bd
       -0.20252548 0.016103186 0.2463926 -0.09453601
0003c0 9f f2 95 3e 0d c1 0c 3e 5d 3e 56 3e fa e8 86 3e
       0.29286668 0.13745518 0.20922227 0.26349622
0003d0 e6 39 64 bf 5c 06 38 be 70 52 91 3e 3a 4d da be
       -0.89150846 -0.17971176 0.28383207 -0.42637044
0003e0 92 4b 48 3d 02 e8 0f 3f 82 59 92 bd 6a b2 3a 3e
       0.048900194 0.5621339 -0.071459785 0.18232122
0003f0 c4 b6 24 be 59 35 a0 3d 98 27 73 3f b6 a5 5c 3e
       -0.16085345 0.07822675 0.9498229 0.21547589

critic.0.bias f4 [64]
000000 59 ee ad 3e 09 14 9b 3e a9 04 99 be ed a1 9e be
       0.33970907 0.30288723 -0.29886368 -0.30982915
000010 d6 b0 46 3e 8e 87 e7 be ee fd de 3e be d0 71 bc
       0.19403395 -0.45220608 0.43553108 -0.014759241
000020 58 cb 2a 3d 83 8d e6 be 14 a9 53 be 42 1b 5a 3e
       0.04169783 -0.4502984 -0.20669967 0.2129946
000030 9e 79 b9 be fd 3b 40 3e dd 4c f1 3d cd 38 13 be
       -0.362256 0.18772884 0.11782239 -0.14377137
000040 8d 33 e7 3d f8 ed 64 3e e7 e2 02 3e de fc 52 3e
       0.112891294 0.22356403 0.12781869 0.20604274
000050 a8 2c b5 3e 20 d7 e4 bd 88 e1 a3 bd a2 47 c0 be
       0.35385633 -0.11173844 -0.08002001 -0.37554651
000060 58 ef ac 3e ac b3 d4 3e 4a 90 d6 3c cf 70 32 3e
       0.33776355 0.4154333 0.02619185 0.17425846
000070 0d 4f 11 3b f8 15 f9 be 44 2d 88 3e 74 5a bc be
       0.0022172362 -0.48649573 0.26597035 -0.3678776
000080 ee e8 b8 be 0d 2f 36 be 8f 5c 43 3e 80 a1 41 3e
       -0.3611521 -0.17791386 0.19078277 0.18909264
000090 d6 da 0a 3e 54 e6 de 3d 8a 27 a0 3d 7b 54 29 be
       0.13560042 0.10883775 0.078200415 -0.16536133
0000a0 a2 33 9c 3e 04 47 6b 3e 75 fa 23 bd 2c 5e 9e be
       0.30508143 0.22976309 -0.040033776 -0.30931222
0000b0 2a 0d 9c 3d 97 41 04 bd 6a cc ce 3e 86 d1 40 3d
       0.07619698 -0.032289114 0.4039033 0.047074817
0000c0 ea 6e 92 bd fc 0b 53 3d fc 86 f7 3d 73 52 5d 3d
       -0.071500614 0.0515251 0.12086293 0.054033708
0000d0 9e 4a 92 3e 51 80 fb 3d 75 41 b2 be 43 ac c0 be
       0.28572553 0.12280334 -0.34815565 -0.37631425
0000e0 c4 ae 79 3e f2 e9 96 bc 5b ff 92 bd 11 5a dc 3e
       0.24383074 -0.0184221 -0.071776114 0.43037465
0000f0 d8 02 88 be 31 f9 c1 3e cb 44 93 be 88 e7 0c 3e
       -0.2656467 0.3788543 -0.28763422 0.13760197

critic.2.weight f4 [64, 64]
000000 3d ce 48 3d e7 d9 1a 3e fa 39 e7 bc b0 a1 88 bc
       0.04902481 0.15122186 -0.028225888 -0.016678661
000010 66 32 ac 3d 4a a2 93 be 4b eb 17 bd 4e 7f 8e be
       0.0840805 -0.28834754 -0.037089627 -0.278315
000020 f4 22 e9 bd fd e7 05 be 1c d3 fd bc 4b 72 2d 3e
       -0.1138362 -0.13076778 -0.030984454 0.1693813
000030 34 5a 88 be 76 0a 1c bd a3 01 b3 3d e2 0c 99 be
       -0.2663132 -0.038095914 0.087405466 -0.2989264
000040 c5 a7 a8 bc ec ab a9 3e 6d 0e 3e 3e d7 a2 25 3e
       -0.020587811 0.33138978 0.1856019 0.161754
000050 71 03 c9 3c 6c 2c 07 be a0 51 fa 3d b7 8d a7 be
       0.024537774 -0.1320054 0.122226 -0.32725307
000060 c1 2f 3d 3d 80 cd 33 ba 28 9d bf be 4b b5 01 bd
       0.04618812 -0.000685893 -0.37424588 -0.031667035
000070 52 1f 23 bd 17 b8 1a be ee 56 79 ba 09 77 75 be
       -0.03982479 -0.15109287 -0.000951155 -0.2397119
000080 90 69 b3 3c d0 76 96 be 62 d2 7f bd f9 f6 69 3e
       0.021900922 -0.29387522 -0.062456496 0.22848119
000090 63 68 3a 3e 0f 6c 8b be 62 93 2e 3e b2 6a ba be
       0.18203883 -0.2723088 0.1704841 -0.36409527
0000a0 f5 46 14 3e 5e ab eb 3d 9e 70 78 be e2 9d 0e 3d
       0.14480193 0.11507295 -0.2426171 0.034818538
0000b0 2a 80 58 bc cf 51 88 bd 42 b6 33 3c aa 77 f4 bd
       -0.01321415 -0.06656229 0.010968747 -0.119368866
0000c0 ca af 3a 3d 95 78 2a 3e 28 a0 a5 3e 65 80 3b 3e
       0.0455778 0.16647561 0.32348752 0.18310697
0000d0 1e ad 84 3e 41 57 8c 3e 92 0b 77 3d f6 21 68 be
       0.25913328 0.2741032 0.06031377 -0.22669205
0000e0 10 5d 44 bd 55 93 56 3d 7d 83 21 be 6c cc b9 3e
       -0.047940314 0.0523866 -0.15772815 0.36288774
0000f0 4d 2b 23 be 9b 4e e5 3d ac 7c 63 bd 15 08 34 3e
       -0.15934487 0.111966334 -0.05553882 0.17581208
000100 f0 29 90 3d 1a f5 cf 3d 24 42 9b bd 37 a0 10 be
       0.07039249 0.10154171 -0.07580975 -0.14123617
000110 8f 39 35 3d 14 8f 59 be 8f bd 70 bd 07 b5 1e be
       0.044244345 -0.21245986 -0.058774527 -0.15498744
000120 84 2e 63 bd 4e 09 c9 bd 36 c0 02 3e 84 fb 85 3d
       -0.055464283 -0.09816228 0.12768635 0.065421134
000130 98 23 5d bd d8 28 20 bd 9e c2 4f 3d 8a 78 c9 bd
       -0.053989023 -0.03910145 0.05072271 -0.09837444
000140 06 17 dc 3c 87 57 92 3d 20 48 20 3e f3 1d e6 3d
       0.026866447 0.07145601 0.15652514 0.11236181
000150 57 1d f6 bc 6c 1f 54 be 2f 30 cd bb c1 92 55 be
       -0.030043287 -0.20715111 -0.0062618474 -0.20856763
000160 40 80 df bc dd 55 2b bd e0 39 98 be df ec e7 bc
       -0.027282834 -0.041829932 -0.29731655 -0.028311191
000170 01 8e 1d be 7d 6f 42 be e6 c8 e9 bd 84 57 bc bd
       -0.15386201 -0.18987842 -0.114152715 -0.0919638
000180 c4 a3 e1 3d f3 6d 23 be 31 2f 82 3a 95 dd 1f 3d
       0.11017564 -0.15959911 0.0009932277 0.039029676
000190 76 b3 15 3e 78 1f 3a bd 4d d9 f4 3c f6 c1 80 be
       0.1461924 -0.045440167 0.029888773 -0.2514798
0001a0 9b 3e 34 3e 58 22 b1 ba 3c 7d 1f be 0a fe 06 3e
       0.17602007 -0.0013514264 -0.15575117 0.13182846
0001b0 b1 b6 85 bc 08 e9 f9 3d 23 25 38 3e 3b c2 00 be
       -0.016322466 0.1220265 0.17982917 -0.12574093
0001c0 64 af c4 3c d1 5b a9 3b e5 2c 23 3e 00 90 08 3e
       0.024009414 0.005168416 0.15935095 0.13336182
0001d0 23 54 20 3e fb 0f 92 bc 81 a3 01 bd 78 d5 38 bc
       0.15657096 -0.017829886 -0.03165007 -0.011281364
0001e0 e5 2f 20 3e db 1d 19 3e ef 44 91 bd bb 15 ac 3d
       0.1564327 0.14952795 -0.07093226 0.08402582
0001f0 05 a2 e0 bd 83 9a 06 3d fb 60 c4 bc b0 51 91 bc
       -0.10968403 0.032862198 -0.023972025 -0.017739147
000200 67 df 03 3d 1e 14 16 3b d0 de ed 3b 1d ba a2 3d
       0.032195475 0.0022900174 0.0072592273 0.079456545
000210 44 63 fc bc 04 cd 13 be a6 f3 8e bd 49 16 80 3b
       -0.030809052 -0.14433676 -0.06980066 0.0039089066
000220 14 4e ac 3d 9c d7 bf bd 58 26 2a bd ba 31 04 3e
       0.0841333 -0.09367296 -0.041540474 0.12909594
000230 93 e3 b0 bd a1 88 38 bd a5 fa 3c bd ac 62 96 bd
       -0.08637156 -0.045052174 -0.04613747 -0.07343039
000240 c3 8c cc 3d c5 0f e1 3d da f2 11 3e 85 42 cf bd
       0.09987786 0.10989336 0.14252797 -0.101201095
000250 ed 79 91 bc 99 7b ff 3d bb 2c a0 bd dc 4c 18 3c
       -0.017758334 0.12474746 -0.07821032 0.009295668
000260 f7 52 c4 bd 23 9b 99 bd 49 40 99 3d f5 3b 46 3d
       -0.09586137 -0.07500293 0.074829645 0.048397023
000270 42 2a dc bd 44 17 31 3d cb fc 56 bd 22 8f 89 bc
       -0.107502475 0.04323508 -0.052487176 -0.016791884
000280 af eb 4f bd 27 25 94 bd 09 e4 c1 bb 15 0a 12 bd
       -0.050761875 -0.07233649 -0.0059170765 -0.035654146
000290 e2 83 65 3d 37 73 42 3d 8e ad 08 be 7a 07 fc bd
       0.056033976 0.04747316 -0.13347456 -0.123061135
0002a0 0d 30 a1 3c 0c fe 57 3d fb 0c 6d bc d9 f6 8d bd
       0.019676233 0.052732512 -0.014468427 -0.06931848
0002b0 08 ee 86 3d 57 ba d4 bd 1e 35 e1 3d a6 f6 9a ba
       0.065883696 -0.10387104 0.109964594 -0.0011822775
0002c0 43 3b 36 bd 1f 5e 75 bd 05 86 8f bd e4 92 8a ba
       -0.04449011 -0.059904214 -0.07007984 -0.0010572341
0002d0 93 9a 6a bc 9f 04 bb bd 29 b9 f6 bd 40 52 d1 bd
       -0.01431908 -0.09131741 -0.12047035 -0.10220766
0002e0 c9 68 12 3d 09 0c 1f 3d bf 86 f1 3d 1f 0a 4d bc
       0.035744462 0.038829837 0.11793279 -0.01251462
0002f0 77 35 66 bb d3 9d 03 3c bb 92 a0 3d 6a 9e 81 bd
       -0.0035127082 0.008033234 0.078404866 -0.06329043
000300 99 46 34 be 96 6e 28 be b7 32 2c bd 92 d3 a5 bd
       -0.17605056 -0.16448435 -0.042040553 -0.080969945
000310 0c e9 78 bd a3 97 1a 3e d6 4c be bd 69 0c 56 3e
       -0.060769126 0.15096907 -0.09291999 0.20903172
000320 e3 7b 8c bd fe 89 18 bc 29 a5 2b be 89 36 60 be
       -0.06859567 -0.009310244 -0.16762222 -0.21895804
000330 04 f0 e2 3e 24 55 eb 3d 70 a8 14 be a5 b3 d5 3e
       0.44323742 0.11490849 -0.14517379 0.4173862
000340 76 72 f1 bb d0 96 f3 be 38 8d 25 be 56 8b 3f be
       -0.007368381 -0.47575998 -0.16167152 -0.18705496
000350 d4 85 94 bc 08 2d 83 3e ca 58 29 be a7 df ed 3e
       -0.01813022 0.25620294 -0.16537777 0.46459696
000360 15 29 0c be ca 6d 36 bd 5a 37 e5 3e 4f a9 33 3e
       -0.13687547 -0.044538297 0.44768792 0.17545055
000370 40 77 39 3e f8 7a 4b 3e 88 7a 20 be 67 16 2c 3d
       0.18111897 0.19871128 -0.15671742 0.042013552
000380 34 b3 a0 bc 6d 6f 48 3e b3 cd f0 3c 0e 55 8a be
       -0.0196167 0.19573756 0.02939496 -0.27018017
000390 09 d5 4d be d8 dd 44 3e 9d 49 6e be 9a 73 ac 3e
       -0.20100798 0.19225252 -0.23270269 0.33681947
0003a0 ac 80 d7 bd 4d ee 6d be df b1 41 3e 81 89 0b be
       -0.10522589 -0.23235436 0.18915509 -0.13626672
0003b0 ec 22 72 3e 7b fa 0b bc b1 9f e7 bd 15 0b c6 3a
       0.23646134 -0.008543606 -0.113097556 0.0015109504
0003c0 52 3b 3d 3e 60 58 14 bd ff 90 0a be 44 60 9d be
       0.1847966 -0.036217093 -0.13531874 -0.30737507
0003d0 13 bb 8e be b4 38 4f be 4c e0 fc 3c e8 50 8b 3e
       -0.278771 -0.20236474 0.030868672 0.27210164
0003e0 9e 67 01 bb 83 96 29 be 1b 47 fb 3d 61 23 a4 be
       -0.0019745599 -0.16561322 0.12269422 -0.32058242
0003f0 f4 cb 1b 3e a4 00 5d be 81 fb a7 3d a5 aa 31 be
       0.1521452 -0.21582276 0.082022674 -0.17350252

critic.2.bias f4 [64]
000000 7b 32 79 3d c5 a8 92 bd 90 68 b0 bd 36 b3 55 3c
       0.060839158 -0.071610965 -0.08613694 0.0130432155
000010 c2 a0 c4 3d 69 e0 b8 bd 10 83 46 3d 41 88 ea 3d
       0.096009746 -0.09027178 0.048464835 0.114517696
000020 0e 2c 96 bc db 38 3c 3d 9a b0 9b bc 11 40 da 3d
       -0.018331554 0.04595266 -0.019005109 0.10656751
000030 5e 3b f2 bc d0 6a 81 bd 58 06 39 bd a8 66 d1 bd
       -0.029569324 -0.06319201 -0.045172065 -0.10224658
000040 2d 6c de 3d 04 37 1e bd 20 de 6a bd c1 a2 c6 3d
       0.10860477 -0.038626686 -0.05734074 0.096990116
000050 25 45 7d 3c e6 85 c7 3c 83 54 34 be 4b 56 a8 3d
       0.01545838 0.02435584 -0.17610364 0.08219584
000060 62 3e a2 bc a9 65 ea bd bb f4 a5 3d ed 6f 14 bd
       -0.019805137 -0.114451714 0.08103319 -0.036239553
000070 52 85 2c 3e d4 e5 c9 bd 5f 99 e2 3d 92 6c 7e 3d
       0.16847733 -0.09858289 0.110644095 0.06211526
000080 8a af f8 3c 7c d6 2e bc 1d 5a 6a 3c 3c 61 22 3d
       0.030357141 -0.010671254 0.014303711 0.03964351
000090 bc cb 28 bd af b5 84 3d 30 5a 57 3d b5 7f 9c 3a
       -0.04120992 0.06479966 0.052576244 0.0011939915
0000a0 a6 0e 3b 3c a0 80 e9 bd c1 bd 94 3c 20 a1 fa 3d
       0.011417067 -0.114014864 0.018156888 0.122377634
0000b0 2b 19 63 be cf 0a 28 be 9b 25 82 bd d8 53 f9 3d
       -0.2217757 -0.16410373 -0.06354829 0.12174195
0000c0 2e 65 0e bd 81 bc e1 3b 37 87 83 3d 8d 07 7b bd
       -0.03476446 0.0068889265 0.064222746 -0.061286498
0000d0 18 8b 82 bd 0f 05 9b 3c 86 36 be bc a5 d4 a5 bc
       -0.06374186 0.01892331 -0.023219358 -0.020242998
0000e0 07 99 1d be 6c f9 05 bd 5b 17 7d 3d 79 7e bd 3d
       -0.15390407 -0.03270857 0.06178985 0.09252638
0000f0 4e b4 41 3c 9b 12 b7 bd 66 1e 96 bd f5 5d 87 3d
       0.011822773 -0.089390956 -0.07330017 0.06609718

critic.4.weight f4 [1, 64]
000000 de 7e be 3d 6b 87 b9 3d c4 4f 15 bb 09 4e 64 be
       0.09301542 0.09059032 -0.002278314 -0.22295393
000010 0b cc f3 bd 5b 3b cc 39 0c 1f e6 bd df 38 e1 bb
       -0.119041525 0.00038954135 -0.112363905 -0.0068732346
000020 ac b7 ad bc a2 7e 31 3b 18 77 91 bd fd 82 9b 3e
       -0.021205746 0.0027083536 -0.071027935 0.30373374
000030 7c 31 76 bb 70 9a 4f bb f9 46 51 bd 82 17 4b 3d
       -0.0037566116 -0.0031677745 -0.051093075 0.049582966
000040 27 d0 40 be 40 c3 b9 3d 3a 8e fc bd 21 e9 aa 3c
       -0.18829404 0.09070444 -0.12331815 0.020863118
000050 1e aa 2b bb 9f 03 b5 3b f2 08 2c 3d 2f 87 41 bb
       -0.0026193927 0.0055241133 0.04200072 -0.0029530039
000060 fd ef e7 bd 41 1e d0 39 f1 96 2d 3d c5 5d 35 bb
       -0.11325071 0.00039695392 0.042380277 -0.00276743
000070 90 16 0a be 1b ee 81 3d a9 2c a9 bb 4b 3e 04 bd
       -0.1348517 0.06344243 -0.0051627946 -0.03228597
000080 5c 35 fb bc 8e cb aa 3a aa 86 f9 ba d2 dc d3 3a
       -0.030665092 0.0013030635 -0.0019037325 0.0016163832
000090 71 a2 62 bb 5a 21 05 bc 78 aa ab bb 19 78 ad 3d
       -0.0034581686 -0.008125627 -0.0052388273 0.084701724
0000a0 a7 14 8a bb 06 b4 8f b9 44 76 56 bc 2e 86 38 b9
       -0.0042138877 -0.00027409213 -0.01308972 -0.00017597593
0000b0 1c c3 a6 3d 20 e2 88 3d 2f 2f 49 3d fa 44 1c 3e
       0.08142683 0.06683755 0.049117263 0.15260687
0000c0 b6 ad 93 bb 93 4f b7 3b 62 b1 6d 3b e5 19 75 ba
       -0.004506792 0.005594203 0.0036269058 -0.0009349867
0000d0 35 f4 6a 3d 40 b8 8c bd ad ad 37 be 86 fe 7c bb
       0.0573618 -0.068710804 -0.17937346 -0.0038603856
0000e0 42 d3 d1 3a 88 48 38 3d cb 1d fa 3b 95 d6 18 bc
       0.0016008394 0.044991046 0.007632946 -0.009328504
0000f0 13 ce 93 39 96 69 c2 ba ac 95 fb bb 29 07 2d be
       0.00028191562 -0.0014832492 -0.0076777544 -0.16897263
