trained/SimplePong/PPO_frequent_1725191601.6096172.pth (torch, 42226 bytes, 11 tensors)

actor.0.weight f4 [64, 5]
000000 18 74 c0 be de bc e1 3d 5d 52 30 3d f1 64 b4 3e
       -0.37588573 0.11022352 0.043047298 0.35233262
000010 27 c0 82 be 3f f0 ef 3d 3e 3f bd 3e 36 23 27 be
       -0.25537226 0.11715745 0.36962312 -0.16322026
000020 26 4b 89 3e 9f 3e f3 3e ba 64 d6 bd aa 51 0f 3e
       0.26815146 0.47508714 -0.10468431 0.13995996
000030 9d 52 8c 3d 1a f5 96 3e 1f 33 ec 3e 87 1b d9 be
       0.06851695 0.29483873 0.46132752 -0.42403814
000040 07 a2 d6 3e f5 5f b1 3e 06 04 0e 3f 21 5d 56 be
       0.41920492 0.34643522 0.5547489 -0.20933963
000050 7f 89 ce bd 63 d2 57 be e5 42 dd 3e 22 a9 73 be
       -0.10084819 -0.2107635 0.432151 -0.23794988
000060 21 dc 93 3d 6a 3c 7b bd bf 3d 01 bf 8c 0e 0d 3e
       0.07219721 -0.061336912 -0.5048484 0.1377508
000070 30 dc 18 bf af 50 2e 3e 54 31 a3 bd 89 48 6a 3c
       -0.5971098 0.17022966 -0.07968393 0.01429952
000080 34 0b c3 bd 15 71 ea 3e 6e 57 aa be 61 db b5 3e
       -0.09523621 0.457894 -0.3326983 0.35518935
000090 53 94 ae be d1 17 87 3e 61 01 ad be 4b 67 6c 3b
       -0.34097537 0.26385358 -0.33790115 0.003607231
0000a0 11 05 91 3e 4b 40 ad be 47 b5 be be 11 72 1c bf
       0.28324178 -0.33838114 -0.3724768 -0.6111155
0000b0 47 e8 8d 3e 70 10 58 3d 3e ea 4c be d0 ce 30 3e
       0.27716276 0.05275005 -0.20011231 0.17266393
0000c0 64 cd 37 bf 2a 60 aa 3e 5a 83 72 3e c7 4c f3 be
       -0.71797776 0.33276492 0.23682919 -0.47519514
0000d0 7b 26 00 3e 37 a6 48 be dc f8 17 be f5 9b b9 be
       0.12514679 -0.19594656 -0.14841026 -0.36251798
0000e0 8b 10 e7 3e 82 57 9c be aa 94 3c 3f ad 40 b5 be
       0.4512981 -0.30535513 0.73664343 -0.35400906
0000f0 2d 53 d8 bd 93 8b 07 3e 3d 5c 0c 3e d9 eb 2d 3f
       -0.105627395 0.13236837 0.13707061 0.67938
000100 4f ee cb 3d 0d 2c ac 3e 5e 25 12 bf d8 77 a5 bd
       0.09957563 0.33627358 -0.5708827 -0.08079499
000110 50 3d eb bc b7 99 92 be 62 7d 7b 3e 64 48 3d 3d
       -0.02871576 -0.286329 0.24559548 0.046211615
000120 48 35 ad 3d 86 f9 e0 bd 18 17 7c 3d 25 ad a9 3e
       0.08457428 -0.10985093 0.06154546 0.3313991
000130 79 1e 80 be 34 cb b8 3e cd 5b a8 be e7 ce 5c be
       -0.2502325 0.36092532 -0.32882538 -0.21563302
000140 0e 7b c8 3e 92 93 17 bf 48 17 43 3d 8b ab d6 bd
       0.39156383 -0.5920955 0.047629625 -0.10481938
000150 5f 03 0a 3e 1d 49 6e be ab a8 72 be 84 f9 dd bd
       0.13477848 -0.23270078 -0.23697154 -0.10838607
000160 42 cf c9 be 1e b9 08 3e 8e 30 bd 3d ed e4 70 3e
       -0.39415938 0.13351867 0.09237777 0.23524828
000170 9d 82 69 3e 02 50 28 3e 79 c6 aa 3e 6a 01 0b be
       0.22803731 0.1643677 0.33354548 -0.13574758
000180 bf ff b2 bb 8b 7f 9f 3d c3 fc 12 3f 6e 75 b9 3e
       -0.005462616 0.07787999 0.57416934 0.36222404
000190 d3 2a 01 bf 1c 85 d0 3e ad cb 60 3c 3f 89 85 3e
       -0.5045597 0.40726554 0.013720435 0.26081273
0001a0 9e 07 ff 3e 9e 8b f3 be 1e d7 e0 3e f6 8f 7d be
       0.498105 -0.47567457 0.4391412 -0.24761948
0001b0 de 79 dc bc 38 cc 92 3e 76 a8 db be c4 45 87 3e
       -0.02691358 0.28671432 -0.42901963 0.26420414
0001c0 e5 3e 9a 3e bd 09 1f 3f 36 24 a7 be 5d cd a6 3e
       0.3012611 0.62124234 -0.32644814 0.32578555
0001d0 a5 1c e4 3d b6 6b 60 bd ec de dd 3e a6 7b de 3b
       0.11138276 -0.05479022 0.43334138 0.0067896424
0001e0 a5 5a e1 3e 3c e5 05 be 01 5a d1 3e d4 9b 8b bd
       0.4401447 -0.13075727 0.4088898 -0.06816831
0001f0 24 7c c6 be 0d 6d 05 3f 57 a5 9a be 7a e6 d2 3d
       -0.38766587 0.52119523 -0.3020427 0.10297866
000200 38 dd 10 bf 66 77 86 be 08 d7 c0 3e a1 54 84 bd
       -0.56587553 -0.2626297 0.37664056 -0.06461454
000210 09 04 63 3e 04 3c 57 be b4 b8 04 bd ba bf ea 3e
       0.22169508 -0.21018988 -0.03240271 0.458494
000220 de b3 a5 bd 5f e6 37 3e 51 bc 25 bf 04 30 81 be
       -0.080909476 0.17958973 -0.64740473 -0.25231946
000230 17 66 8e 3d c8 4d dc be a5 c1 65 3e ad 06 20 bf
       0.06953066 -0.43028092 0.22437151 -0.62510186
000240 73 e8 04 bf ab 1e 01 bf 6f e8 6b 3e 6b b4 ba 3d
       -0.5191719 -0.5043742 0.23037885 0.09116443
000250 b2 45 27 bd c9 03 00 3f 30 29 3a be e4 6d 13 3e
       -0.04083795 0.50005776 -0.18179774 0.14397389
000260 fc 1c 66 3e b3 0f 67 3e f9 b0 16 3f 59 2c ad 3e
       0.22471994 0.22564583 0.5886379 0.33822897
000270 00 98 d3 be 9e cd d9 be da e7 74 3d 78 dc 65 3e
       -0.41326904 -0.42539686 0.059791423 0.22447383
000280 71 5a 56 3e dc 58 46 be 4b 57 2f 3e f4 55 c6 be
       0.20932938 -0.19369835 0.17123143 -0.38737452
000290 14 a6 e6 be e0 34 1e 3e a1 e0 30 3e cb 56 31 3d
       -0.45048583 0.15449858 0.17273189 0.043295663
0002a0 cf ec b5 3e 9a 31 fe 3c e3 4f f5 3e ce 61 c2 be
       0.35532233 0.031029511 0.4791251 -0.37965244
0002b0 0b f4 c7 3d 3a 01 04 bf 02 f4 17 bc e2 56 27 bc
       0.097633444 -0.5156437 -0.009274485 -0.010213586
0002c0 65 45 df bd a0 60 ef be 82 f8 a4 3e c7 bd f8 be
       -0.10901908 -0.46753407 0.32220846 -0.4858229
0002d0 62 d6 5f 3e 6d 8b ab be 0b e9 6e bd 42 19 28 be
       0.21859124 -0.3350481 -0.058327716 -0.16415885
0002e0 19 49 c5 be 4e a9 0c 3f f8 4f 05 bf b4 0b 4d bd
       -0.38532332 0.5494584 -0.5207515 -0.05005999
0002f0 08 c3 31 bf ac f8 7f 3d 7b 72 6f bb 34 f4 ac bd
       -0.6943822 0.06249301 -0.0036536742 -0.084450155
000300 c6 8b fe be 7c c1 f2 be d9 e8 03 be 63 d5 da 3e
       -0.49716014 -0.47413242 -0.12881793 0.42740926
000310 d1 a3 eb be 62 55 12 be 40 67 54 3c d9 57 b5 3d
       -0.4602342 -0.14290383 0.01296407 0.08854646
000320 ab 82 84 be 13 f0 45 be d6 c2 f0 bd 86 ea cc 3e
       -0.25880942 -0.19329862 -0.11755912 0.40022677
000330 b2 18 b0 3e b0 75 d9 be 52 a2 01 be a7 8b 92 3d
       0.3439384 -0.424726 -0.12659577 0.07155543
000340 ad 48 f9 3e c8 e3 3a be eb ca e3 3e c9 48 91 be
       0.4868826 -0.18250954 0.44490752 -0.28375843
000350 80 9c aa 3d a2 c8 00 be 9e f2 e1 bd 3e 12 dd 3d
       0.08330631 -0.12576535 -0.11032604 0.10794495
000360 ad 74 c5 be 5f f4 82 3e 21 2f 20 bf 73 3b 70 be
       -0.3856558 0.25577065 -0.62571913 -0.23460178
000370 eb 75 27 3e 4b 94 09 bf f5 4e a7 3d f2 df d9 be
       0.16353576 -0.537419 0.08169357 -0.4255367
000380 e6 84 a4 3d 8e d7 03 bf 42 e9 83 3e 77 bb 4b be
       0.08033161 -0.51500785 0.257639 -0.19895731
000390 5b b2 46 3e fc 56 82 3e 63 42 7a bd 03 aa e8 3d
       0.19403975 0.2545699 -0.061098468 0.11360552
0003a0 49 ab d7 be c5 3b fd 3e c8 1a d1 be 89 94 ea bd
       -0.42122868 0.49459663 -0.40840745 -0.11454112
0003b0 13 52 19 3d db 72 c7 3e 2b 51 8f be 9c 81 2c bd
       0.037431788 0.38954815 -0.27991614 -0.042115793
0003c0 23 b4 04 bd 4a f6 c5 3c ea 72 f9 be 66 79 56 bc
       -0.032398354 0.024165291 -0.48720485 -0.013090467
0003d0 a6 d8 c0 bd 0f 80 e1 be 59 f2 c5 3d 20 ca d7 3e
       -0.094163224 -0.44043013 0.09665365 0.42146397
0003e0 20 1f 09 3f 41 15 d7 3e cc 01 43 be f6 c2 e0 3e
       0.5356312 0.42008403 -0.19043654 0.43898743
0003f0 0e 63 aa 3e c8 2d b6 bc 03 64 fa 3e 30 09 df 3e
       0.33278698 -0.022238627 0.48904428 0.43561697

actor.0.bias f4 [64]
000000 a9 40 63 3e 16 d0 a9 be 0e 68 89 3d 44 94 e7 bd
       0.22192635 -0.3316657 0.067093 -0.11307576
000010 b5 59 fa 3d 44 b0 38 3e 4b 09 9d 3d e9 b4 7d bc
       0.122241415 0.1803599 0.07667788 -0.015485027
000020 52 67 a5 3e 05 7b 85 3e 2e 77 6f bd 2a 3a 08 3e
       0.3230539 0.2607042 -0.058463268 0.13303438
000030 a5 8b 9e 3e 4c ba c4 3e 48 a8 a7 be 14 44 da bd
       0.30965915 0.38423383 -0.32745576 -0.10657516
000040 b1 b9 7d 3e 24 37 4a be 4c f1 5f be ed 3a db 3d
       0.24777867 -0.19747597 -0.21869391 0.107045986
000050 24 ad 7a 3e ef 4a 1d 3e 49 e2 5d 3e f7 c8 90 be
       0.2448011 0.15360616 0.21668352 -0.28278324
000060 18 3f c0 be 9e 3a 48 bd 60 7c 5b 3e db 41 95 be
       -0.37548137 -0.048884027 0.21434164 -0.29151806
000070 58 ee 12 3e 25 b8 b0 3e d0 51 1d be 4f 96 7c 3e
       0.14348733 0.3451549 -0.1536324 0.24666713
000080 c9 f7 82 3e ef aa 41 be f8 e0 8d 3d ed bd 52 3e
       0.2557967 -0.18912862 0.06927675 0.20580263
000090 6e a1 9b 3e cd a2 94 bd fc 12 52 3e 47 5c 6a bd
       0.303966 -0.07257614 0.20515054 -0.05721691
0000a0 69 4c 7e 3e a4 c8 ac 3e ef 0e 5e 3c e6 ae b9 3e
       0.24833836 0.33746827 0.013553365 0.3626625
0000b0 f6 05 4b 3e be 4d b7 3e 89 2c 62 3e 79 ab 2f be
       0.19826493 0.358015 0.22087301 -0.17155255
0000c0 2b 42 2f 3e 2e ca d8 bd ee 09 c8 be cf f7 b8 bd
       0.17115085 -0.10585438 -0.39070076 -0.09031641
0000d0 d8 8f 87 3e d2 8d 24 3e a8 7c 7a bd 4b a0 92 be
       0.26476932 0.16069725 -0.061154038 -0.2863792
0000e0 8c 8c 7d 3e 96 83 41 3c 6a b6 61 3d 99 ff e4 bc
       0.24760646 0.011811158 0.055105604 -0.02795391
0000f0 b0 80 34 be cb a8 8d be 76 e0 ae be ed 2e 79 3e
       -0.17627215 -0.2766784 -0.34155625 0.24334307

actor.2.weight f4 [64, 64]
000000 5c b4 ad 3c 15 5f 01 3d 99 49 ca 3c 3e e0 8c 3e
       0.021204166 0.031584818 0.024693297 0.27514833
000010 49 80 cc bc 9f 8f 4e be 53 29 9c 3d 9d 50 cb bc
       -0.024963515 -0.20171975 0.076250695 -0.024818713
000020 d5 fd 6f be 9e 43 08 3c a1 9d 91 be 60 13 5d 3e
       -0.23436673 0.008316902 -0.28440574 0.21589422
000030 44 dc 81 3d cd f5 61 be 7e ac dc bd 15 f9 e0 bb
       0.063408405 -0.22066422 -0.10775088 -0.0068656304
000040 18 1b 91 be 1b 59 18 bd c4 c8 01 3e 93 1b d1 3d
       -0.28340983 -0.037194353 0.12674242 0.102103375
000050 94 8e 84 3e 62 c2 6e 3e 93 47 32 3e 28 3d fa 3d
       0.25890028 0.23316339 0.17410116 0.12218696
000060 ad 33 0c be a0 62 91 be cb e4 c2 3d 9b 3b eb bd
       -0.13691588 -0.28395557 0.09516295 -0.11485978
000070 13 bf 85 be 6e cf 82 3c a5 fb ce 3d da a1 80 be
       -0.2612234 0.01596805 0.10106591 -0.25123483
000080 1e 00 46 bb 4e e2 92 bd 95 2d f5 bd d0 69 d2 3b
       -0.0030212472 -0.071720704 -0.11971585 0.0064213052
000090 95 51 0b bd 0c 38 0f bf 35 aa 28 bd fb f5 28 be
       -0.03401335 -0.55944896 -0.041177947 -0.16500084
0000a0 b7 84 23 3d 54 cb d8 3c 47 cd 27 bd 44 1c d6 bd
       0.03992149 0.026464142 -0.040967252 -0.1045461
0000b0 0e 47 f2 bd ac 88 7c 3d be 83 ca bd 57 bb 12 3d
       -0.11829959 0.061653778 -0.09888409 0.035823192
0000c0 08 70 a0 3d 5d ff 70 3e 04 f2 75 3e 3b 0b 9a be
       0.07833868 0.23534913 0.24018103 -0.30086693
0000d0 20 40 ae 3d 07 27 60 bd c2 09 e3 3d dc 17 86 3d
       0.085083246 -0.05472472 0.110858455 0.065475196
0000e0 2c 5c 08 be 54 e9 22 bd 72 05 3c 3e c0 d9 07 be
       -0.13316411 -0.0397733 0.18361452 -0.13266659
0000f0 89 db 74 be 85 17 d1 3c 73 38 1c be 76 71 a9 3c
       -0.23911871 0.02552391 -0.15255909 0.020683985
000100 97 19 3d 3e 90 f6 75 3b a6 61 5c bc ce 17 4d 3e
       0.18466793 0.0037530996 -0.013451016 0.20028612
000110 60 8f 2f bd d2 05 0b be 39 9c 3d 3a fc 62 0e be
       -0.042861342 -0.13576439 0.0007233057 -0.13904947
000120 e6 d4 be bd b3 9d 14 be f6 5b a7 bd 73 aa 40 3e
       -0.09317951 -0.14513282 -0.08171837 0.18815021
000130 46 52 0c 3e 8f 03 0d be df 14 57 3b ca d6 43 be
       0.1370326 -0.13770889 0.0032818837 -0.19124904
000140 2a e4 1f bd 81 39 64 bd ba 09 1e 3d cd d1 fa bc
       -0.039035954 -0.055718902 0.038583495 -0.030617619
000150 26 56 97 3e 83 54 9f 3e 0a 51 8b 3c 50 28 f1 3d
       0.29557914 0.31119165 0.017006416 0.11775267
000160 da 6a 39 be 1e 18 d6 bd e8 82 d7 bd 36 c2 8b be
       -0.18107167 -0.10453819 -0.10523015 -0.2729661
000170 2e 05 39 be 1b 54 9b 3d cb a3 4f bc fe c8 b5 bd
       -0.18068382 0.07584401 -0.012673329 -0.08876227
000180 87 32 9d bd 96 e7 89 3d e2 80 b7 bd 16 09 82 bd
       -0.07675653 0.06733625 -0.08960129 -0.06349389
000190 5a bf af bd 35 c7 d0 be 55 f5 0e be ae a7 62 be
       -0.08581419 -0.40776983 -0.13960774 -0.22134277
0001a0 27 6b 87 bd af 08 f5 3d 2e 95 2e be 13 cb 81 3d
       -0.066122346 0.11964547 -0.17049095 0.063375615
0001b0 dc 97 64 be e1 64 14 3e ad 8e cb bd f9 70 b1 3d
       -0.22323555 0.14491607 -0.099393226 0.08664126
0001c0 7b 98 3b 3d 37 4e 34 3e aa 84 2e 3e 0c c4 92 be
       0.045799714 0.17607962 0.17042795 -0.28665197
0001d0 6c f1 a4 3d 3c 03 0d bd e7 d5 2d bd 69 21 96 3d
       0.0805386 -0.034426913 -0.04244032 0.07330591
0001e0 37 69 13 be 47 4d 92 3c a4 be 7c 3e 42 a7 cc bd
       -0.14395605 0.017859114 0.24682099 -0.099928394
0001f0 a3 da 59 be ae 6b 31 3e 19 76 2a be 24 3e b6 bd
       -0.2127481 0.17326233 -0.16646613 -0.08898571
000200 66 c6 45 3e db 07 b4 bc 88 cd c4 3d f0 ce b0 3e
       0.19313964 -0.021976402 0.096095145 0.3453288
000210 b1 4a 90 3d 14 1f 7c be c0 ec 88 bd 9e 8b 7f be
       0.07045496 -0.2462123 -0.066857815 -0.24955603
000220 91 42 03 be de dd 5f 3d bc e3 71 be b9 13 88 3e
       -0.12818362 0.05465495 -0.2362203 0.26577547
000230 a9 3d e9 3d bd 81 af bc f5 98 6f bd 30 49 5c be
       0.11388714 -0.021424169 -0.05849548 -0.21512294
000240 58 ab 4e be 97 82 e4 bd fc b8 87 bd a9 09 94 bc
       -0.2018255 -0.111577205 -0.0662708 -0.018071013
000250 5b 65 03 3e 04 1b c6 3e ec 15 58 3d a8 d2 6e 3d
       0.12831633 0.38692486 0.05275528 0.058306366
000260 17 ca 47 bd 27 be 2f be b7 3e 17 3d 42 23 6c be
       -0.048776712 -0.17162381 0.036925044 -0.23060325
000270 4a 9b c8 bd cf a5 75 3c 43 98 40 3e 1c c4 3a be
       -0.09795244 0.014993145 0.18808083 -0.18238872
000280 44 32 46 bd 16 0f 06 3e 05 0d ab bd b2 9e ac 3d
       -0.04838778 0.13091692 -0.08352093 0.08428706
000290 a4 69 1d 3d a6 66 02 bf 0d 14 db bd af 79 63 be
       0.038430825 -0.5093788 -0.10697184 -0.22214387
0002a0 8e fa c3 bd 40 32 e7 bc 8b 6c 3e be bf 12 1f 3d
       -0.09569274 -0.028222203 -0.18596093 0.038836237
0002b0 52 35 9d be 0c 4e 15 3e 6b 49 ab 3b f6 65 8d 3c
       -0.30704743 0.14580554 0.005227258 0.017260533
0002c0 8f 36 98 bb 1e 4f b6 3c 53 dd 11 3e e7 b2 cb be
       -0.0046451758 0.022254523 0.14244585 -0.3978493
0002d0 9a 42 e1 bd 72 80 a8 3d 8e 88 19 3d 2e 45 2c 3e
       -0.10999031 0.08227624 0.037483744 0.16823265
0002e0 36 48 3f be 2a ec 1c 3e 3d 98 c4 3e e9 cb aa bd
       -0.1867989 0.15324464 0.383974 -0.08339674
0002f0 48 37 1e be 44 8f ce 3b 3c 6b 6e bd 8b c9 47 3d
       -0.15450776 0.0063036997 -0.058207735 0.04877619
000300 85 da d9 bd dd 88 08 3e 06 0c 30 be 2c 65 e4 3c
       -0.106373824 0.13333459 -0.17192087 0.027880274
000310 f2 08 80 3c be 28 0b bd 28 15 43 3e d8 ef 1c be
       0.015629265 -0.0339744 0.19051039 -0.15325868
000320 7c be 6c be a2 b3 43 be 7a bd 34 bd 43 62 8a 3e
       -0.23119539 -0.19111493 -0.04412601 0.27028093
000330 d0 c8 8a bd 6a 0a 7e be 4a 26 3a 3d 04 00 20 be
       -0.06776583 -0.2480866 0.04544667 -0.15625006
000340 fb e9 a4 bd bd 7f 3e 3e 0b 65 19 bd 96 dd 4f bd
       -0.08052441 0.18603416 -0.037449878 -0.05074843
000350 d1 44 d5 3d cc 23 1a 3d b8 4f 08 bd 17 08 f9 bc
       0.10413516 0.037631795 -0.03327915 -0.030399365
000360 a8 fd cc 3c 2a a5 00 be 11 bf 20 be ba 2f 13 be
       0.025023296 -0.12563005 -0.15697886 -0.14373675
000370 17 1b a7 bd 44 ec 72 3d 4b d8 76 bd a2 90 20 be
       -0.08159464 0.05930735 -0.060264867 -0.15680173
000380 6b ec c8 bc dd 14 76 3d f6 97 68 be bd 85 f3 3c
       -0.024526795 0.06007849 -0.22714218 0.029726857
000390 26 ce ae bd b5 6f 49 bd 0c e2 2c 3e 86 31 5b bd
       -0.085354134 -0.049178798 0.16883105 -0.053514026
0003a0 da 3f fa 3d c3 11 d6 bd f2 b0 76 be e0 c7 e7 bc
       0.1221921 -0.104526065 -0.24090937 -0.02829355
0003b0 ce 9d 1f bd 1e 52 36 bd 5b f1 32 3d d3 d1 8b bd
       -0.038968854 -0.044511907 0.043687206 -0.0682713
0003c0 cd ad 1f 3e 61 7d 4f bc 27 5e 5b 3e 64 a8 89 be
       0.15593643 -0.01266417 0.21422635 -0.26886284
0003d0 66 9a 2f bd 05 48 ef bd 6e 5b 20 3e cf 14 83 3d
       -0.042871855 -0.116836585 0.15659878 0.06400453
0003e0 62 b9 f3 bd b0 bd dc 3d bb 68 26 3e a1 d1 3d be
       -0.11900593 0.107783675 0.16250889 -0.18536998
0003f0 27 1f 19 bd e9 7b e0 bd 6e 8a 80 bd 46 0d 13 bd
       -0.037383225 -0.10961134 -0.06276403 -0.03590133

actor.2.bias f4 [64]
000000 cb 19 04 3d 8c ca b2 3d 8b ac 80 3d 9f 89 87 bd
       0.03225116 0.08730039 0.0628291 -0.06618046
000010 f0 14 0f 3c bc 3c bc 3d 1e 36 0f 3e fb 9a 8e bd
       0.008733019 0.09191272 0.13985488 -0.06963154
000020 63 1a 4f bd c1 ae 6f 3d ca 0d 5e bc c5 56 b9 3d
       -0.050562274 0.058516268 -0.013553092 0.09049753
000030 79 d4 41 be 14 53 a7 3d 97 d4 db ba 5d 9b 2a bd
       -0.18928708 0.08170143 -0.0016771731 -0.041652072
000040 8b 4c e7 3d e8 92 35 3d 00 a0 6d bd 47 be fa 3c
       0.11293896 0.044329554 -0.058013916 0.03060831
000050 8c 92 e1 3d e6 dc e0 3d b6 cb ed bd bb 15 97 3d
       0.1101428 0.10979633 -0.116111204 0.07377192
000060 55 af b4 bc b7 e9 bb bd e3 25 6a 3c 21 5d 30 3d
       -0.022056261 -0.09175437 0.014291259 0.043057565
000070 3c 3f 90 bb 36 33 9d 3c de a1 83 bc a3 2a 2e be
       -0.0044020694 0.019189458 -0.016068395 -0.17008452
000080 9f 9c 79 3c c2 53 07 3e 5f 34 68 bd fd f9 d0 bb
       0.015235095 0.13215545 -0.05669057 -0.006377457
000090 cf c3 c8 3d fe d1 39 3c 84 de b3 3b 32 78 6b 3d
       0.098029725 0.01134157 0.0054891724 0.057487674
0000a0 5f 59 d3 bb 08 a4 f8 3d 2d 4c 13 be d9 e8 24 bd
       -0.006449863 0.121406615 -0.14384528 -0.040261123
0000b0 c5 c5 47 bd 34 5b f5 bc 58 37 82 bc 9d 10 f2 3c
       -0.048772592 -0.029950716 -0.01589553 0.029548937
0000c0 42 21 a9 bd fd 03 ad bd 61 4a fa 3b 7b 94 c7 bc
       -0.082582965 -0.08448026 0.007638261 -0.024362793
0000d0 71 28 46 bd 2d 60 d5 bd 00 3c c8 3d ef e3 3d 3b
       -0.04837841 -0.10418735 0.09777069 0.002897497
0000e0 53 b1 b3 ba 5d a5 27 bd e1 b3 f8 bd 75 31 19 be
       -0.0013709463 -0.040929187 -0.12143684 -0.14960273
0000f0 ae f8 70 be a1 c5 bf bc a7 5b 39 3d 16 38 25 3d
       -0.23532364 -0.023409666 0.045253422 0.04033669

actor.4.weight f4 [3, 64]
000000 93 14 07 bf 4f 61 0d bf 0e 72 b6 be f9 55 f2 3c
       -0.5276577 -0.55226606 -0.35633892 0.02958201
000010 11 fb 87 3e eb e8 ee 3e e0 e6 53 3e 6a 05 a9 be
       0.26558736 0.46662077 0.2069354 -0.33011943
000020 c1 d8 97 be 37 4e 65 3d 2e 42 19 3f 1c fa b3 be
       -0.29657558 0.055982795 0.5986661 -0.35151756
000030 bc 6b 8f 3e ed 07 a9 3e 9e 40 04 3f 91 55 3f be
       0.28011882 0.3301386 0.516611 -0.18684985
000040 26 b2 f5 3d 87 05 96 3e e6 89 c2 be 76 57 f7 be
       0.1199687 0.29301092 -0.37995833 -0.48308915
000050 61 ad 93 bd 8c 57 9b be c8 29 09 3f fd ae 8c be
       -0.07210804 -0.3034023 0.5357938 -0.27477255
000060 ad 67 7e 3d f6 2d 9e be a2 88 93 3e 0f b8 07 bf
       0.06211059 -0.3089444 0.2881518 -0.53015226
000070 cf 23 86 3e 3b 27 0d 3f a3 f9 02 3e 13 29 cb 3d
       0.26199195 0.55137986 0.12790541 0.09919944
000080 fe 70 fc 3d b0 8f 90 be d1 bb 8c be 26 f6 20 3f
       0.12326239 -0.28234625 -0.27487043 0.6287559
000090 03 7a cb 3e d4 d9 f9 be e5 89 03 3e 17 cc de 3e
       0.39741525 -0.48799002 0.12845571 0.43515083
0000a0 40 47 33 be 5a b5 93 3e 60 4e 21 3f 2d 8b d8 3e
       -0.17507648 0.28849298 0.63010216 0.42293683
0000b0 b4 a1 b2 bc b0 43 1a bf bc 06 18 bf 13 bd 02 bf
       -0.021805622 -0.6025953 -0.59385276 -0.51069754
0000c0 6f 5c 8f be 48 d0 b8 3d 8f b0 a7 3e 1f 72 09 3f
       -0.2800021 0.090241015 0.3275189 0.5368976
0000d0 96 30 be be ca 1a 98 3e ce c7 22 3e 91 67 c9 3e
       -0.37146443 0.29707938 0.15896532 0.39336827
0000e0 fa c8 00 bf 2b 1d 98 3e 7b 9d ac 3d 0c b3 12 3f
       -0.50306666 0.29709753 0.084284745 0.57304454
0000f0 31 74 bc 3d 64 be 48 bd 45 9e eb 3e 7b c1 ee be
       0.09201849 -0.049009696 0.46019188 -0.4663199
000100 0f 99 d4 3d ad c0 0b 3d 0f 1f 86 3d 5f de 2a be
       0.10380756 0.034119297 0.06548893 -0.1668639
000110 57 15 f2 3d 4e 89 a2 bc 79 d7 03 3e 4c df 37 be
       0.118204765 -0.019840863 0.12875165 -0.17956275
000120 cc f9 39 be 4b fa ac 3d c5 c5 56 bd 9b db b8 3d
       -0.18161696 0.08446177 -0.0524347 0.090262614
000130 99 23 dc bd ed 7e b6 3d 65 80 d5 bc ac 43 b8 3d
       -0.10748977 0.08910928 -0.0260622 0.089972824
000140 76 47 d0 3d 8f fa d4 bd a7 85 e2 3c 63 90 f6 3d
       0.1016988 -0.10399353 0.027651621 0.12039258
000150 be 05 3a 3e dd 65 f2 3d 25 8e 9f bd 2d 50 34 3e
       0.18166253 0.11835835 -0.07790784 0.1760871
000160 9c 31 22 be db 99 3f be 1a 69 24 3e 7b e1 c0 3d
       -0.15839237 -0.18711035 0.16055718 0.09418007
000170 d4 f3 0e 3d d2 c1 34 bd c9 5d 24 be 4b 35 49 be
       0.0349005 -0.044130154 -0.16051401 -0.19649236
000180 54 4c 20 be 21 e7 1b 3e 49 ac 24 be b5 1f 09 3e
       -0.15654117 0.15224887 -0.16081347 0.13391002
000190 f5 b7 45 3c 42 a6 a5 bd ca 0d 1c be a5 64 16 3e
       0.012067785 -0.08088352 -0.15239635 0.1468683
0001a0 8c e4 e7 3d a5 2e ec 3d 9a bc ed bd eb fe 27 3d
       0.11322889 0.11532334 -0.116082385 0.041014593
0001b0 97 f6 2c bd 7b e6 06 3d 7f 86 ec bd 3e 15 d6 3d
       -0.042227354 0.032934647 -0.115490906 0.104532704
0001c0 29 10 b9 bd c8 0b e3 bd 2b 43 46 3e 8e 55 bc bd
       -0.090362854 -0.110862315 0.1936156 -0.09196006
0001d0 ac ff 18 3d b4 26 b3 3c d3 bd 2d 3e 8b dd 9d 3d
       0.037353203 0.021869041 0.16966943 0.077082716
0001e0 83 0b b1 bd bc bf 3a bb a3 5b 30 be c9 2b 17 be
       -0.08644774 -0.002849563 -0.17222457 -0.14762796
0001f0 ef 80 31 be 34 2d 64 be 33 10 b1 3d e2 04 44 3d
       -0.1733434 -0.22282869 0.08645668 0.04785622
000200 77 e0 ce 3e 2a 35 98 3e cc b6 b3 3e c2 ce 71 3e
       0.40405628 0.2972806 0.351004 0.23614028
000210 5f 17 06 bf 7f 74 11 bf 63 ce fc be 8d b1 fd 3e
       -0.5237941 -0.56818384 -0.4937621 0.49549523
000220 92 25 f7 3e 8f 4d bf be b1 2e 9a be 4c ee 43 3c
       0.4827085 -0.3736386 -0.30113748 0.01195867
000230 3e 3a 5c 3d 4f a4 a9 be 4b 59 f7 be ce d7 83 3d
       0.05376648 -0.3313317 -0.48310313 0.06437646
000240 dd 3f ae be 99 a8 44 be f3 1b 03 3f 13 0b e8 3d
       -0.340331 -0.1920494 0.5121452 0.11330237
000250 c9 95 40 be 7c 6d aa 3d b9 70 b9 be 7d 85 7b 3e
       -0.18807139 0.08321664 -0.36218813 0.2456264
000260 a1 e6 a1 3d a2 6f 13 3f cc a7 05 bf 50 f0 72 3e
       0.07905317 0.57592213 -0.5220916 0.23724484
000270 56 c2 aa be ba a9 0e bf 2d 89 a6 3d a7 e7 0c bb
       -0.33351392 -0.5572773 0.08131633 -0.002150038
000280 62 07 f3 bb 2a 52 39 3e d0 91 e0 3e c4 35 01 bf
       -0.0074166516 0.1809775 0.43861246 -0.50472665
000290 2c c0 2c bf c5 a9 15 3f 03 a0 93 3d 7d 16 e2 be
       -0.6748073 0.5846217 0.07208254 -0.44157782
0002a0 87 e9 53 3b 49 4d cb be 33 96 da be e4 cc 04 bf
       0.0032335238 -0.397074 -0.42692718 -0.5187514
0002b0 f0 52 c2 3e e3 f2 f5 3e 56 6f c2 3e 76 62 5d 3e
       0.379539 0.4803687 0.37975568 0.21619591
0002c0 cb f6 93 3e 56 c2 4f 3d 51 0a 19 bf 82 5a a2 be
       0.28899226 0.050722443 -0.59781367 -0.31709677
0002d0 4c ef 22 3e df 90 39 be e9 1a 9e be a6 1f 0a bf
       0.15911597 -0.1812167 -0.30879906 -0.5395454
0002e0 a8 5e b4 3e 67 53 fc bd 8e 36 59 3e b3 95 e3 be
       0.35228467 -0.12320595 0.21212217 -0.4445015
0002f0 0c 75 dc 3d 58 c1 d6 bc 84 da 82 be b4 60 96 3e
       0.107645124 -0.02621524 -0.2555734 0.29370654

actor.4.bias f4 [3]
000000 e4 e0 9b bd 3e de 78 bc 01 d5 ba 3b
       -0.07611254 -0.015189705 0.0057016616

critic.0.weight f4 [64, 5]
000000 82 62 6f bd c1 53 df 3d d9 01 40 bd be 85 5f 3e
       -0.058443554 0.10904647 -0.046876762 0.21828362
000010 c2 6a 59 bf d6 4c a4 be af 70 9b be a1 81 64 be
       -0.84928524 -0.3208987 -0.30359408 -0.22315075
000020 35 a1 19 be 97 4c 48 bf dd 71 9c bd f1 ce 93 3d
       -0.15002902 -0.78241867 -0.07638905 0.07217205
000030 1c 3d e2 be df 79 bc 3e 74 62 a8 3f 41 55 93 be
       -0.44187248 0.3681173 1.3155046 -0.2877598
000040 71 ad 97 be e9 10 bb 3e 58 9c 86 3d 72 19 3b 3f
       -0.29624513 0.3653634 0.06572789 0.730857
000050 66 84 4b 3e 11 90 d8 bd 9a 1e 56 3b 26 49 d7 3e
       0.19874725 -0.105743535 0.0032672049 0.42047995
000060 d0 c2 28 bf 2b 54 2b be 8d a6 aa 3d 05 2c ce bd
       -0.6592226 -0.16731326 0.08332548 -0.1006699
000070 f2 ca 9d be d6 e5 2c bd a7 1e c1 be d3 f6 62 be
       -0.30818897 -0.042211376 -0.37718698 -0.22164468
000080 b3 f6 c7 3e 67 18 e0 3e df c0 fe 3f ff f1 95 3e
       0.39055404 0.43768618 1.990261 0.2928619
000090 17 de 58 3d d7 7b bf be aa d1 26 be ac 54 ba bf
       0.052946176 -0.3739917 -0.16290918 -1.455709
0000a0 00 a0 40 3e 8e c9 c1 be b2 a0 cd be 16 c6 8d 3d
       0.18811035 -0.37849087 -0.40161663 0.069225475
0000b0 90 c2 b1 3e 90 57 b0 3d 01 70 49 bd 97 09 bb be
       0.34718752 0.08610451 -0.04917908 -0.36530754
0000c0 45 e0 af bd c5 98 a6 3e 12 03 a5 3e a6 ae a1 be
       -0.08587698 0.3253843 0.32228905 -0.3157856
0000d0 ee c4 82 3e 4b 85 70 be 4e 19 cc 3f f2 60 a7 be
       0.2554087 -0.23488347 1.5945222 -0.3269115
0000e0 20 a3 c5 3e 98 b1 ce 3d 74 08 98 3e 84 54 a2 3f
       0.38601017 0.10092467 0.2969395 1.2682042
0000f0 da 9f fe bd ca 31 23 be b1 6c 2b be 15 de 98 bd
       -0.12432833 -0.15936962 -0.16740681 -0.07464234
000100 42 f8 63 bf 84 84 6f be d6 28 5e be 55 3d f2 bd
       -0.89050686 -0.23390394 -0.21695265 -0.118281044
000110 95 19 08 bf cb 5e 07 be c7 5f 91 be a6 19 65 be
       -0.53164035 -0.13219754 -0.28393385 -0.22373065
000120 65 51 99 be a6 e1 a9 be bb ea 6f 3f 4b d9 af 3c
       -0.29944912 -0.3317997 0.93717545 0.021465918
000130 e6 4d de 3d 6e f7 ca bc 68 93 15 3e fe e3 ac bf
       0.10854702 -0.024776187 0.14607012 -1.3507078
000140 08 24 50 3e c9 c7 fb 3d f1 ba 8a bd 66 8f be bd
       0.20326245 0.12293965 -0.067739375 -0.09304695
000150 66 ef f5 3f 0d 98 4e 3d b0 b5 1e bb 24 14 70 3e
       1.9213684 0.050437976 -0.002421718 0.23445183
000160 11 8d 75 be d4 54 9b 3f 6f df 7b 3e 76 ff 9c 3e
       -0.23979594 1.2135262 0.24596952 0.3066365
000170 b8 0f ea 3e 2f 09 52 3e e1 cf 39 bf f4 fd 11 be
       0.45715117 0.20511316 -0.72582823 -0.14257032
000180 99 aa 03 3d 1d 07 3a be 23 85 24 3d f5 9e 31 bf
       0.032145116 -0.18166776 0.04016603 -0.69383174
000190 c0 fb 12 be 61 82 92 3e ee 54 86 3e e1 83 bd 3e
       -0.14353848 0.28615096 0.2623667 0.37014678
0001a0 80 21 74 3f 7e 89 58 3d 4b 0c 7d 3e 27 6c 02 be
       0.95363617 0.052865498 0.2471172 -0.1273657
0001b0 2e f8 24 bd ba 8a f7 bf 30 1c c8 bd 7b e7 93 3d
       -0.040275745 -1.9339211 -0.09771001 0.07221886
0001c0 dd 8f b8 3d da ee 92 3e 3c 93 e3 3f 22 45 73 3e
       0.09011815 0.28697854 1.7779307 0.23756841
0001d0 34 17 d5 be f5 9b 5e 3e 2f 2f 29 be 75 e8 7a bf
       -0.41619265 0.2173918 -0.16521905 -0.9801095
0001e0 c5 cc a4 be a2 29 8d 3e 99 f1 8d 3d 6d 01 d7 be
       -0.32187477 0.27570826 0.06930847 -0.41993275
0001f0 3f 62 d4 bf 5b 7d 7d bd 57 0d b0 be 9a fa 1b 3e
       -1.6592482 -0.061887126 -0.34385177 0.15232316
000200 4b 04 03 3c ba 56 cc 3f f3 93 8f bd cd ce 12 3e
       0.007996629 1.5963967 -0.07010641 0.143367
000210 59 0e 91 be 8a f3 c9 3e 55 49 0f c0 0b 65 27 3e
       -0.2833126 0.39443618 -2.2388508 0.16347139
000220 15 44 83 be 93 22 f2 3c 9d e6 24 3e a7 2f 1b c0
       -0.2563788 0.029557502 0.16103597 -2.4247835
000230 44 c8 18 3e 61 8c 84 be a6 c0 18 be f7 0d 02 3f
       0.14920145 -0.2588835 -0.1491724 0.5080256
000240 8c 22 dd 3f 26 64 4e be 38 05 b7 3e 1f 2d 2c 3d
       1.7276168 -0.20155391 0.3574617 0.04203522
000250 ce c9 93 be 90 ff c3 3f 74 32 67 be cb 41 81 3e
       -0.28864902 1.5312366 -0.2257784 0.2524551
000260 cd a3 4c be 3b 66 21 3d cd 44 dd be 97 26 cc 3e
       -0.1998436 0.039404135 -0.43216553 0.39873192
000270 e1 bb d1 3e 36 4b b2 3e db 35 9a be 53 ae 23 bf
       0.40963653 0.34823006 -0.30119213 -0.6393787
000280 e2 09 c4 be 90 3e 4d be 83 fd 96 be 62 2e 16 be
       -0.3828879 -0.20043397 -0.2949029 -0.14666131
000290 98 95 51 3f 0f f3 9c bc 68 ac a0 be 1c 15 c0 3e
       0.81868887 -0.019158868 -0.31381536 0.37516105
0002a0 d9 35 b8 3e d1 58 6c 3f af ad 58 be c5 8b f8 3d
       0.35978583 0.92323023 -0.21160005 0.12136034
0002b0 35 30 ed 3b ad a6 bb be 3f d3 58 bf 65 20 9c 3e
       0.0072384127 -0.366506 -0.84697336 0.30493465
0002c0 4f 14 11 3e 14 c7 55 bc 12 75 ae 3e 92 04 8b 3f
       0.14167903 -0.013047952 0.34073693 1.086077
0002d0 f1 97 88 be e6 ae 93 3e 91 36 b6 be f6 dc 74 bd
       -0.26678422 0.28844374 -0.35588506 -0.059781037
0002e0 06 e4 bb bf 0c 4b 6e 3e 26 ae b4 be c8 f0 c4 be
       -1.4678962 0.23270816 -0.35289115 -0.38464952
0002f0 f4 a8 32 be b9 4c 94 bf 6b 4a 8f bd ab ef 0d 3e
       -0.17447263 -1.1585914 -0.06996616 0.13860957
000300 da 82 84 3d cc b2 75 bd e3 87 bf 3f cb 1c 8d 3d
       0.064702705 -0.059984967 1.4963344 0.068902574
000310 fe f3 e7 bc 8a d1 88 3e 49 49 27 3e 9e 8c dc 3f
       -0.028314587 0.26722366 0.1633655 1.7230413
000320 ab b6 40 3d b4 51 36 3c e8 0f 6c 3e 01 10 0b 3e
       0.047049206 0.011127878 0.23052943 0.13580324
000330 38 a1 f0 3e f6 31 13 3d b4 2c 5f be 97 66 35 3e
       0.46998 0.03593632 -0.21794397 0.17714916
000340 81 d9 c5 3e 13 46 22 3f f2 d9 6c be fd 6b 93 be
       0.38642505 0.63388175 -0.23130015 -0.28793326
000350 19 d4 90 3e b3 ab de bc 23 8f e8 3f 4a 3b 7d 3e
       0.28286818 -0.027181482 1.8168682 0.24729648
000360 f6 4d a7 be 58 e2 6e 3d 45 76 cf bd 33 fc b2 3f
       -0.32676667 0.058321327 -0.1012998 1.3983215
000370 c8 aa 14 be 84 43 6c be aa 9f 5d be 29 ab 63 3c
       -0.14518273 -0.2307263 -0.21642938 0.013895788
000380 0d 0c 8a be 33 6e c7 bd f5 8b df 3c 6f aa d9 bd
       -0.2696232 -0.09737816 0.027288416 -0.10628211
000390 04 99 ca 3e ee 2e a6 bf e5 29 d3 bd c5 77 4f 3d
       0.39569867 -1.2983072 -0.10310725 0.05065133
0003a0 3b a9 ab 3d ba 56 cd 3d 2c dd 97 3e 90 20 28 be
       0.083818875 0.100263074 0.29660928 -0.16418672
0003b0 bf 0c 98 3e 2a 53 45 3d e8 cd ff bd eb c9 ee 3f
       0.29697224 0.048175015 -0.124904454 1.865537
0003c0 17 87 54 3e fe 56 4c be b6 0b 82 be d4 b6 ba 3e
       0.20754658 -0.1995506 -0.2539956 0.36467612
0003d0 74 6f 53 bf 50 b8 4d 3e d5 f0 96 be 79 ec 3a 3e
       -0.8259194 0.20089841 -0.29480615 0.1825427
0003e0 c8 33 38 3e c8 72 e0 3f 16 9d 11 3c f6 da 18 bd
       0.17988503 1.7535028 0.00888755 -0.037318192
0003f0 19 23 af 3e 0b 4c 93 bd 34 99 12 be ba e8 75 3d
       0.34206465 -0.071922384 -0.14316255 0.0600364

critic.0.bias f4 [64]
000000 c8 59 b5 bd 45 cc 9e 3d b7 08 bf be d1 a4 fe 3d
       -0.08855015 0.07753805 -0.37311336 0.1243378
000010 1f 51 a8 3c 59 74 33 be 2a 68 57 be fd 0f de 3e
       0.020546494 -0.17524852 -0.21035829 0.43371573
000020 d3 60 79 be 8f be 74 bd 57 7d 87 be 54 40 21 bd
       -0.24353342 -0.059752043 -0.26462814 -0.03936799
000030 ff a0 26 3e 3d 31 c1 be 7f 12 cf be cc fd b8 3e
       0.16272353 -0.37732878 -0.404438 0.36131132
000040 e7 81 9e bd 73 67 fe bd 7b f8 d4 3d 85 49 a8 3c
       -0.07739621 -0.12422075 0.103989564 0.02054287
000050 a4 22 27 be c9 91 11 3e 4d 45 d5 bc 93 0b ac be
       -0.16321808 0.14215769 -0.026034022 -0.3360258
000060 3f 96 21 3d 89 2e 9b be 53 43 c9 3e 38 d5 5f 3e
       0.039449926 -0.3030894 0.39309177 0.2185868
000070 31 20 3d be a4 f6 0c be 1b 70 32 3e d5 5e 02 3e
       -0.18469311 -0.13765961 0.17425577 0.12731488
000080 fc 18 f3 be 29 f6 b6 be 56 ba b0 be 56 7b ba be
       -0.4748 -0.3573468 -0.34517163 -0.36422223
000090 0f df 85 3e d7 37 d4 3e ea 32 c0 3c 77 b7 48 be
       0.26146743 0.41448852 0.023461778 -0.19601236
0000a0 91 55 67 3d 5a f1 ee bd 91 5b a2 be 01 21 ba 3c
       0.056478087 -0.11667128 -0.31710485 0.022720816
0000b0 1a 7a 5b bd fb 39 c9 3e 38 74 e8 be d5 19 78 be
       -0.053583242 0.39302048 -0.45401168 -0.24228604
0000c0 41 e3 6e 3d 65 c8 bf be 5f 7d a0 bd 6e f4 dc 3e
       0.058322195 -0.37457576 -0.07836413 0.43155235
0000d0 54 96 04 3f d4 c5 ea be 06 b8 ad bd be 63 c5 bd
       0.5179188 -0.45854056 -0.08482365 -0.09638165
0000e0 87 2f 8d 3c 9b 6c 29 3e f0 43 f1 bc 83 c8 4c 3e
       0.017234577 0.16545336 -0.02945134 0.19998364
0000f0 16 a2 7c bc 92 5a af 3e 4a f5 a4 bd d1 a4 8a 3d
       -0.015419504 0.34248787 -0.08054598 0.067697175

critic.2.weight f4 [64, 64]
000000 9c 63 1a 3e 99 56 ef 3d 49 b3 0d be 88 c8 a3 bb
       0.1507706 0.11686439 -0.13837923 -0.0049982704
000010 e1 9f bb 3d a5 04 a2 3d fc 1d 87 be 4b b3 a3 3e
       0.09161354 0.07911042 -0.26390064 0.31972727
000020 75 f5 09 3d 83 f5 39 bd c9 ab a0 be a1 c3 4c be
       0.03368135 -0.045400154 -0.31381062 -0.19996502
000030 1d e2 3f 3e a5 f4 92 3c de 14 1d be 59 54 4b 3e
       0.18738599 0.017938921 -0.15339991 0.19856395
000040 43 bf de be 28 26 82 be 77 a0 c2 3d bd 69 bd 3d
       -0.43505296 -0.25419736 0.095032625 0.092486836
000050 33 3e 50 be 79 8e 9d 3e 92 10 d9 be c2 1f 2e 3d
       -0.20336227 0.3077276 -0.42395455 0.042510755
000060 59 dc 42 3f 88 07 4c be 85 de 49 3f 3d fb 66 3f
       0.76117474 -0.19924748 0.7885516 0.9022711
000070 c4 01 98 be a2 9f ec be 3c e0 53 bd 68 78 b7 3d
       -0.29688847 -0.4621554 -0.05172752 0.089585125
000080 3d 92 29 be 5b d3 4c be 06 72 df 3d b6 21 31 be
       -0.16559692 -0.200025 0.1091042 -0.17298016
000090 dd fb b3 3e 8c 43 6e 3e 21 8d 89 be b7 ce d9 be
       0.35153094 0.23267955 -0.26865485 -0.42540523
0000a0 33 5d 0b be 36 24 c1 bd 7a 89 84 be b6 8a 88 be
       -0.13609771 -0.09430735 -0.25886136 -0.26668328
0000b0 cb 2f c3 3d 70 e0 b4 3e 6b 13 a5 3c 91 c6 20 bf
       0.095306 0.35327482 0.02015086 -0.6280299
0000c0 ca 56 0f 3e bb 1f eb be ec e2 3e bd b4 ad 0c 3e
       0.13997951 -0.45922646 -0.04660313 0.13738137
0000d0 87 2d f9 3e 06 0b f0 bd df 7a e3 bc fc 2b 36 be
       0.48667547 -0.117208526 -0.02776855 -0.17790216
0000e0 97 b1 eb 3e 3e 62 19 3e 95 04 7b 3c cc 77 4e 3f
       0.46033928 0.14978883 0.015320917 0.80651546
0000f0 58 cc 1b 3e 87 a2 89 bb c8 75 c0 3d fb c6 32 3d
       0.1521467 -0.004200283 0.09397465 0.043646794
000100 88 c0 84 bd 98 92 c8 bc 17 8e 1a 3d 66 79 ac bc
       -0.06482035 -0.024483964 0.037733164 -0.021053981
000110 f7 f8 11 be 5b bf 46 3d 37 b5 e1 3c 7d 6c 86 bc
       -0.14255129 0.048522335 0.02755223 -0.016409153
000120 85 e4 c2 bb 32 c5 5b 3d 1b ba b8 3d f3 c3 e1 3d
       -0.005947652 0.053654857 0.09019872 0.110237025
000130 a8 7c a6 3d eb 5b ec 3c 8f e9 50 3d 3e af 26 be
       0.08129245 0.028852424 0.05100399 -0.16277787
000140 d7 9b 3b bd 29 66 b3 bd d7 5d 38 bd 41 d4 96 bc
       -0.045802917 -0.0875972 -0.045011368 -0.018411757
000150 72 38 b4 3d 72 98 a7 bc c5 94 5c 3d 6e 04 3d 3d
       0.087998286 -0.020458434 0.053852815 0.046146803
000160 51 dc cb bd ca 10 4a bd e4 56 c1 3d 08 bc e8 3c
       -0.099541314 -0.049332418 0.09440401 0.028409973
000170 c0 5f ba bc 9e 9b 25 bd 36 66 9b bd 87 e4 38 3d
       -0.022750735 -0.04043161 -0.075878546 0.045139816
000180 92 34 6f 3d bb c7 b5 3d ae e8 dd 3d b2 c2 e8 3d
       0.058399744 0.08875986 0.10835396 0.1136526
000190 08 81 dc bd f5 d4 0f bd 43 ac cc 3b 87 7f d9 3d
       -0.10766798 -0.0351152 0.006246121 0.10620027
0001a0 3b 8f c1 bd bf 4d 81 bd dd 87 17 3d 31 41 43 3d
       -0.09451147 -0.06313657 0.036994804 0.047669593
0001b0 0b f5 d5 bc 04 0b 31 be 84 4c c9 bc 99 ec ec 3d
       -0.026117822 -0.17289358 -0.024572618 0.11568565
0001c0 b5 3f 8c bd 92 dc 95 3d 19 90 3b bd 92 fc 00 be
       -0.06848089 0.07317461 -0.04579172 -0.12596348
0001d0 8f d8 3f bc ed c8 dc 3d 8c 4f ca 3d 45 42 71 bd
       -0.011709346 0.10780511 0.098784536 -0.05890109
0001e0 09 e4 83 3c be 93 f5 bd 41 30 1d bc 42 a9 ba ba
       0.016099947 -0.1199107 -0.009594024 -0.0014241117
0001f0 18 43 96 3d e2 37 11 be 06 85 44 3d a0 f4 9e bd
       0.07337016 -0.14181474 0.047978424 -0.07761502
000200 76 e5 ce bc 0b f3 7d 3c 81 96 26 3d 58 81 87 3c
       -0.0252559 0.0154998405 0.040670875 0.016541168
000210 59 99 b4 bd 21 18 b1 bd d9 8d 6f 3e 1d 8f 07 bd
       -0.08818311 -0.0864718 0.23393954 -0.033095468
000220 70 0b 3a 3c 62 ca 27 3e 3b fb f1 3d 9a a6 79 3d
       0.011355266 0.16385797 0.118154965 0.0609499
000230 68 19 20 bc c7 e5 79 3c 41 ab 05 3e c7 ad a7 bd
       -0.009771682 0.015252537 0.1305361 -0.08187442
000240 73 49 aa 3e 96 f7 24 3e 31 03 f6 bd 23 13 0d be
       0.33259162 0.16110072 -0.120123275 -0.13776831
000250 7d a1 7c bc 6b 84 57 be 2b 14 8c 3e d3 10 04 be
       -0.015419361 -0.21046607 0.27359137 -0.12897043
000260 a8 e3 01 bf eb fd 14 3e fe a3 02 bf 2c ce 28 bf
       -0.50738 0.14549987 -0.5103148 -0.65939593
000270 c2 69 98 3e dd 8c 5a 3e c0 9a e7 bd 4b 30 0c be
       0.29768187 0.21342798 -0.11308813 -0.13690297
000280 8e c5 e0 3d 82 e0 f9 3d cd e2 7b bc 35 99 00 3e
       0.109751806 0.122010246 -0.015373898 0.12558444
000290 25 2d 9c bd bb 75 15 be d2 65 f6 3d 4d f4 94 3e
       -0.07625798 -0.14595692 0.120311394 0.29092637
0002a0 82 b6 f8 3d dc 49 27 bd 18 22 2a 3e 10 d6 84 3e
       0.121441856 -0.040841922 0.16614568 0.25944567
0002b0 03 28 97 bd 2b c3 4f be 5b 30 0e 3e fb 28 c7 3e
       -0.073806785 -0.20289294 0.13885634 0.38898453
0002c0 a6 80 a5 bd 61 9f b4 3e 1b ca 87 bd 74 c1 0b bd
       -0.08081178 0.35277846 -0.066303454 -0.03412004
0002d0 09 88 67 be 19 51 4b bd db 0e 1c 3e ec 6b 10 3e
       -0.22610487 -0.049637888 0.15240042 0.14103669
0002e0 75 b0 d2 be b5 21 54 be d1 fe 89 bd ed 7d b1 be
       -0.4115025 -0.20715983 -0.067380555 -0.34666386
0002f0 28 c0 71 bd fb 4e 99 3d 68 a9 56 be 05 56 1e 3e
       -0.059021145 0.074857675 -0.20963061 0.15462501
000300 91 f3 c8 ba 9e 90 9f bd 37 cd 1c be 35 19 c3 bd
       -0.0015331378 -0.077912554 -0.15312658 -0.09526292
000310 0e 36 b0 3c d3 cd 50 3d 0f c7 b1 3d 64 2b bc 3c
       0.02151015 0.05097754 0.086805455 0.022969909
000320 fe 8c 46 3d 3b 6a 64 bd 1e 0d c4 bd 7e bd 59 3c
       0.048474304 -0.05576537 -0.095728144 0.013289807
000330 0a 42 b5 3d 18 83 35 bc cd 92 0e 3d 89 9d 37 3c
       0.088504866 -0.0110786185 0.03480797 0.011206993
000340 82 4a 7b 3c f0 bc 81 bd 5d 7f 5c bc d2 47 08 bd
       0.015337588 -0.06334865 -0.0134581 -0.03327162
000350 eb 7c b3 ba 3b 58 3b bd e2 68 08 bd 13 35 33 bd
       -0.0013693845 -0.04573844 -0.03330315 -0.043751787
000360 0e 73 b1 bd 08 07 c3 3d eb b1 b8 bd 61 ba 7e bd
       -0.08664523 0.095228255 -0.0901831 -0.062189464
000370 9a 39 f6 bd cf 76 40 3c 7e 20 91 bd 72 41 df bd
       -0.120227054 0.011747076 -0.070862755 -0.109011546
000380 27 5c a0 3d 1e 5c 6a 3d 9b a3 ea bd 27 41 e1 bc
       0.07830077 0.057216756 -0.114569865 -0.027496887
000390 fe a8 dd 3d c5 d8 b1 bd 07 47 6d bd ad c5 18 bb
       0.10823248 -0.08683924 -0.057929065 -0.0023311183
0003a0 67 e2 a6 3d 16 74 c3 3c 5c ec e3 bd 0d 98 d8 3c
       0.081486516 0.023859065 -0.11129066 0.026439691
0003b0 f2 92 60 3d 1a 46 e4 3d 85 5b 71 bd 07 38 3d 3b
       0.054827638 0.11146183 -0.05892517 0.0028872506
0003c0 71 5d 91 bb 14 0d 8f 3d 66 c8 d8 bd e0 2d 02 bd
       -0.004436188 0.06984916 -0.10585098 -0.03178203
0003d0 53 d3 a4 bd 10 2c 63 3d 2a 48 b5 3c 40 73 59 3c
       -0.080481194 0.055461943 0.022129137 0.013272107
0003e0 d2 8b b6 3d ba e6 56 bd d6 99 e4 3d b6 9f 6d bd
       0.08913387 -0.05246613 0.111621544 -0.05801364
0003f0 1c ae e5 bd 68 5e 48 bd 13 65 d3 3d 65 f3 03 3c
       -0.11214849 -0.048918158 0.10322013 0.008053635

critic.2.bias f4 [64]
000000 13 8a a6 3d f4 97 63 be 66 bf a4 bd 5a be fc 3d
       0.08131804 -0.22225934 -0.08044319 0.12340994
000010 aa d3 ca bd 2d c6 d5 3d 9d b1 38 3d 41 06 31 be
       -0.09903653 0.1043819 0.04509126 -0.17287542
000020 32 e3 a0 bd 42 64 4d 3d bf c1 cf 3d b0 84 7a bd
       -0.07855834 0.05014444 0.10144376 -0.061161697
000030 64 cd c9 3d 95 0f 62 be 9a 02 05 bd f1 45 71 3b
       0.09853628 -0.22076257 -0.032473184 0.003681537
000040 bc f6 16 bc 79 c8 22 bd e0 ba b3 bd 50 10 30 3c
       -0.0092140995 -0.039741967 -0.08775878 0.010746077
000050 61 84 14 3c 27 c8 0b be f6 1d 2d be 85 ac a2 3c
       0.009064765 -0.13650571 -0.1690596 0.019857654
000060 76 13 d5 bd 4b f3 88 bd 3c 4f 34 3e 4e a9 15 be
       -0.104041025 -0.066870295 0.1760835 -0.14615366
000070 11 0a d5 bd e9 e0 d1 3d cf 51 9e 3d 69 b2 ea bd
       -0.10402311 0.10247976 0.077304475 -0.1145981
000080 75 52 37 bd b5 dd e8 bc 8b f2 03 3e 07 f9 48 be
       -0.04475637 -0.02842603 0.12885492 -0.19626246
000090 b8 b2 32 3b 3c b3 99 3c e4 3c b5 3c aa 76 48 3d
       0.002726717 0.018762223 0.022123761 0.048941292
0000a0 e2 03 ab 3d 26 8c c9 3d 81 1a fa 3d be 96 c6 3d
       0.0835035 0.09841184 0.122120865 0.096967205
0000b0 57 db c9 bd a6 fe 20 3c cf cf a2 3d a8 2a 0f 3b
       -0.09856289 0.009826338 0.079497926 0.0021845493
0000c0 6a 4f ea bd 6d cd a3 3d 1e fe ec 3c d5 a0 4b bc
       -0.11440928 0.07998166 0.028929766 -0.012428482
0000d0 12 d1 45 bd af b5 42 be 22 7f 86 bc 33 eb d1 3d
       -0.048295088 -0.1901462 -0.016418044 0.10249939
0000e0 52 b2 06 bd 01 22 36 be 98 5b b6 3c 92 79 c9 3d
       -0.032884903 -0.17786409 0.022260472 0.09837641
0000f0 04 92 8e 3d 5a 9e 07 3e e5 2e 42 bd e1 e6 01 be
       0.06961444 0.13244 -0.047408003 -0.1268573

critic.4.weight f4 [1, 64]
000000 ff 1a 8d 3e a2 b9 a4 3d 5f 00 ba bd c1 ca 1c bb
       0.2755966 0.08043219 -0.09082102 -0.0023924562
000010 9b 86 aa 3a d8 1d 8f ba a6 37 a4 3a e4 e5 06 3c
       0.0013010086 -0.0010918928 0.0012528792 0.008233521
000020 21 83 08 3c 9f 1e c4 3b a4 4a bc 3b c9 ab 5d 3e
       0.008332045 0.0059850956 0.0057462025 0.21647562
000030 95 19 a0 3d 4d fc a9 3d 54 ab 2a 3c 01 ac e3 39
       0.078173794 0.08300076 0.010416824 0.00043424967
000040 4f 92 8e bc a3 cb 0f 3c d5 25 d0 3c 23 fb c8 bb
       -0.01740375 0.008776578 0.025408665 -0.0061334535
000050 99 97 97 bb 48 e7 6a bc cf 8e 00 3e 6b 9f fe bc
       -0.004626226 -0.014337368 0.12554477 -0.031081876
000060 e2 2f df 3c d5 7d de bc bc 53 05 bd bb 70 b9 3d
       0.027244512 -0.02715961 -0.03255056 0.09054705
000070 d6 f9 1d 3c 95 14 70 bc a5 f2 1e bc e5 a3 7b 3c
       0.009642085 -0.014653345 -0.009701406 0.0153589
000080 c1 a2 45 3d df 11 03 3c 1b de 33 bd e0 c3 af 3d
       0.048250917 0.007999866 -0.04391299 0.08582282
000090 4b 0d 1e 3b 8c 3a a2 bb cf fb 5f 38 52 a9 ff 3a
       0.002411681 -0.004950827 5.3401858e-05 0.0019505417
0000a0 f4 fc de bb ab e1 79 bd d8 1d 9c bc 05 b2 4c 3d
       -0.0068050567 -0.06100623 -0.0190572 0.04997446
0000b0 de 50 2f ba da e1 9a 3b f9 cf 3e bc 60 b9 fc bb
       -0.00066877704 0.0047266306 -0.011646264 -0.007712528
0000c0 ee 51 63 bd 65 04 a3 bb 13 93 54 bb 45 d8 8c 3b
       -0.055498056 -0.004974889 -0.0032436296 0.0042982423
0000d0 e4 7e 8e 3a 59 2b 02 3e 09 db ab 3c 77 56 59 ba
       0.0010871557 0.12711848 0.020978468 -0.00082907773
0000e0 a8 d8 42 b9 e6 51 87 3d 66 37 82 bb 3e 7b 81 3d
       -0.00018581992 0.06607418 -0.003973889 0.06322335
0000f0 1b 70 0a 3b 90 3f 2e bd 1f 2f 8f ba cf 9a 35 be
       0.002112395 -0.042541087 -0.0010924077 -0.17734836
