trained/SimplePong/PPO_sparse_1728839042.5457578.pth (torch, 42194 bytes, 11 tensors)

actor.0.weight f4 [64, 5]
0.20334195 -0.11552602 -0.35500282 -0.31210035 0.05615001 0.36909786 -0.46711937 0.24261914
-0.39401317 0.17684422 -0.4274157 0.17443097 -0.21717262 0.259333 0.061513346 0.21170832
-0.376097 -0.296981 -0.50043386 0.0006485245 -0.12342535 0.1460107 -0.22159232 -0.22450525
-0.2742427 0.13484493 0.044869438 -0.06053309 -0.61603856 0.08929648 -0.03338977 0.036137823
-0.052018702 0.06723011 -0.41852406 -0.19842935 0.57365006 -0.058438305 0.17417921 -0.19466004
0.4214464 -0.5922219 -0.09988448 -0.1964965 0.19616047 0.20749302 -0.04525646 -0.22249101
-0.5244732 -0.10624272 0.58295304 -0.5623959 0.36506745 -0.4309629 0.1581395 0.33875248
-0.14490245 0.21273443 -0.121331565 -0.12639692 0.012045193 -0.11205331 0.012871953 0.29594865
-0.04598834 0.09408157 -0.3591332 0.14332685 -0.60835826 0.3087524 0.028647816 -0.30213276
-0.2556095 -0.32953078 -0.38907278 -0.1478875 -0.08718934 0.04814525 0.30623668 -0.05254236
-0.13953868 -0.00075860927 -0.08092446 0.29797554 0.33106172 0.042649362 -0.39190823 0.22075024
-0.65338624 0.1308927 -0.45057008 0.28420213 0.115947284 0.15406792 0.15287355 -0.50831
0.471495 -0.05827511 0.06499647 -0.09514457 -0.45745444 0.58132476 0.29703584 0.037445143
-0.061135612 -0.35951462 0.13760038 0.30564812 0.16895539 0.31062526 -0.18633965 -0.15887684
0.5242452 0.20571022 -0.20585509 0.1433859 -0.51004803 0.2130016 -0.53865784 0.11460156
0.121718004 0.024228116 -0.02248667 -0.5313365 -0.5659469 -0.4373766 0.39854315 -0.2623181
0.007017718 0.4884351 0.055270642 -0.25092277 -0.3558746 -0.49033847 -0.5100853 -0.061656408
-0.061796304 0.00040304233 0.06287768 0.22862126 0.34598446 -0.53531784 0.23907496 -0.53307945
-0.48578897 0.28461963 -0.4122055 -0.29156265 -0.66849995 -0.23158947 0.3971328 0.18006235
-0.018390425 0.21903588 0.03139083 0.5051506 -0.03664736 -0.26496422 0.026470192 -0.5589785
-0.45453018 0.3354698 0.09350976 0.3274782 0.5408615 0.06529388 0.010576485 0.2768921
-0.17299372 0.39703372 0.1862578 -0.13136598 0.44765633 -0.4680176 0.34453836 0.41656944
-0.35793197 0.4442553 -0.045056615 -0.48071024 0.012206407 -0.15511668 -0.18316066 0.42994004
-0.5285999 0.31174412 -0.44222555 -0.13710074 -0.72694147 -0.30676752 -0.17921208 0.15310013
0.04708812 0.50782377 0.51687604 0.2556035 -0.22170964 0.19006269 -0.48140752 0.18294488
-0.34164658 0.059377573 0.08151679 0.3396346 -0.06503894 -0.44166026 0.21744032 -0.23711099
-0.13683628 0.15336262 0.11921065 -0.47009966 0.20216635 -0.45326576 -0.016093535 -0.2581998
0.36926427 -0.16295405 0.15739849 -0.3581107 0.45051232 -0.21594438 -0.3060551 -0.41839918
0.04655441 0.061090697 0.47102088 -0.28744796 0.79006606 -0.36664563 -0.270155 0.075652674
0.11122189 -0.09668106 0.34430292 -0.19774322 0.44396982 0.3274107 0.41351426 0.21711208
0.11258788 -0.3106421 0.16866553 -0.63193214 0.036174618 -0.28685254 -0.24549407 -0.21602918
-0.19645879 0.0376163 0.21912132 -0.5713431 0.3403753 -0.3197724 -0.35669398 -0.327505
00000000: df38 503e e898 ecbd eec2 b5be 9ecb 9fbe
00000010: 8efd 653d 65fa bc3e 452a efbe 2771 783e
00000020: 18bc c9be a716 353e 3bd6 dabe 089e 323e
00000030: 8062 5ebe 4cc7 843e 6bf5 7b3d 11ca 583e
00000040: c98f c0be e50d 98be 6f1c 00bf be01 2a3a
00000050: 6ec6 fcbd d483 153e 19e9 62be b4e4 65be
00000060: 8a69 8cbe ca14 0a3e 04c9 373d 8cf1 77bd
00000070: b4b4 1dbf 13e1 b63d b6c3 08bd 4105 143d
00000080: 9011 55bd f1af 893d c948 d6be 1031 4bbe
00000090: bbda 123f 015d 6fbd 095c 323e f654 47be
000000a0: d3c7 d73e db9b 17bf 3c90 ccbd 6136 49be
000000b0: 4ade 483e 0d79 543e d65e 39bd afd4 63be
000000c0: e043 06bf c895 d9bd 693c 153f 2df9 0fbf
000000d0: 1fea ba3e 2ba7 dcbe 52ef 213e f770 ad3e
000000e0: 4f61 14be 0ed7 593e af7c f8bd 326e 01be
000000f0: 3459 453c 357c e5bd e2e4 523c 9586 973e
00000100: 455e 3cbd d7ad c03d 4fe0 b7be 46c4 123e
00000110: 5ebd 1bbf cb14 9e3e d3ae ea3c 25b1 9abe
00000120: 40df 82be 42b8 a8be 8c34 c7be d26f 17be
00000130: 5390 b2bd f433 453d 0ecb 9c3e a836 57bd
00000140: 3ae3 0ebe 68dd 46ba b9bb a5bd 4090 983e
00000150: ec80 a93e 19b1 2e3d 32a8 c8be 5a0c 623e
00000160: 5244 27bf bc08 063e 1fb1 e6be f182 913e
00000170: c575 ed3d fbc3 1d3e e28a 1c3e 9b20 02bf
00000180: cb67 f13e e2b1 6ebd df1c 853d 28db c2bd
00000190: 7837 eabe b3d1 143f 1515 983e 1460 193d
000001a0: 5669 7abd 4d12 b8be 1de7 0c3e e97d 9c3e
000001b0: a402 2d3e 460a 9f3e d2cf 3ebe 9cb0 22be
000001c0: ef34 063f b3a5 523e adcb 52be c1d3 123e
000001d0: 8292 02bf 171d 5a3e 7be5 09bf 39b4 ea3d
000001e0: 4a47 f93d 0b7a c63c f735 b8bc ab05 08bf
000001f0: e5e1 10bf d3ef dfbe d90d cc3e 8f4e 86be
00000200: e3f4 e53b 2a14 fa3e 7863 623d f378 80be
00000210: 3235 b6be a50d fbbe f394 02bf 6e8b 7cbd
00000220: 1f1e 7dbd 6d4f d339 03c6 803d b11b 6a3e
00000230: e024 b13e 970a 09bf 11d0 743e e577 08bf
00000240: 55b9 f8be aab9 913e 990c d3be b347 95be
00000250: d022 2bbf ca25 6dbe fe54 cb3e 4462 383e
00000260: 84a7 96bc f14a 603e ac93 003d 8d51 013f
00000270: 8b1b 16bd 64a9 87be 04d8 d83c 3719 0fbf
00000280: 2eb8 e8be b3c2 ab3e 0c82 bf3d 39ab a73e
00000290: e675 0a3f ccb8 853d fe48 2d3c cdc4 8d3e
000002a0: 4425 31be 0148 cb3e 5dba 3e3e ce84 06be
000002b0: 3633 e53e 01a0 efbe 5567 b03e 9748 d53e
000002c0: dc42 b7be 6e75 e33e 498d 38bd a71f f6be
000002d0: 62fd 473c e8d6 1ebe 788e 3bbe 1a21 dc3e
000002e0: 5352 07bf ed9c 9f3e 636b e2be 2364 0cbe
000002f0: d618 3abf a210 9dbe 5f83 37be 48c6 1c3e
00000300: 79df 403d bd00 023f fd51 043f 76de 823e
00000310: da07 63be cb9f 423e 0c7b f6be e755 3b3e
00000320: 4dec aebe e635 733d 46f2 a63d 96e4 ad3e
00000330: 2333 85bd 4b21 e2be ada8 5e3e 39cd 72be
00000340: cf1e 0cbe 170b 1d3e b724 f43d e7b0 f0be
00000350: b204 4f3e 7312 e8be 97d6 83bc c432 84be
00000360: 3510 bd3e 6ddd 26be 122d 213e 495a b7be
00000370: 8da9 e63e 8620 5dbe 41b3 9cbe 6b38 d6be
00000380: d6af 3e3d 3d3a 7a3d a629 f13e 612c 93be
00000390: c541 4a3f fab8 bbbe c251 8abe caef 9a3d
000003a0: 4dc8 e33d b800 c6bd 7948 b03e 337d 4abe
000003b0: 0350 e33e 60a2 a73e 24b8 d33e a152 5e3e
000003c0: 7994 e63d 7b0c 9fbe a8b6 2c3e 4ec6 21bf
000003d0: d62b 143d 56de 92be cc62 7bbe c136 5dbe
000003e0: 7e2c 49be 8d13 1a3d 5761 603e 8b43 12bf
000003f0: ac45 ae3e 35b9 a3be 98a0 b6be bcae a7be

actor.0.bias f4 [64]
0.16080959 -0.291248 0.036950577 -0.16386741 -0.03131227 -0.16864328 -0.06192297 -0.21154535
0.30304644 -0.27000168 -0.25100645 -0.21244086 0.10197104 0.23404686 -0.2233013 0.2020626
0.09138268 0.013663409 0.005070378 -0.06999325 -0.22378857 -0.22285785 0.13883239 0.29585758
-0.14635156 0.104771465 0.3553538 0.13710694 -0.17527936 0.11883316 -0.35541287 -0.28971595
0.030865017 -0.078632265 -0.32291484 -0.3753551 0.36376882 0.26554427 0.03211666 -0.046037365
-0.19588925 0.09039528 -0.057572465 0.11464996 0.09671359 -0.07394818 0.12250927 -0.38293368
0.021293737 0.32814234 0.036756985 0.009903123 -0.22008888 0.09642662 0.33700615 0.018627873
0.027783908 -0.31106684 -0.3275045 0.16876824 -0.17342031 0.35292792 -0.22121273 0.37835014
00000000: 45ab 243e 751e 95be 7d59 173d dccc 27be
00000010: 4b41 00bd d3b0 2cbe f1a2 7dbd 589f 58be
00000020: e728 9b3e a93d 8abe eb83 80be 198a 59be
00000030: 31d6 d03d fba9 6f3e 19a9 64be 80e9 4e3e
00000040: d826 bb3d 7edc 5f3c 6a25 a63b 9f58 8fbd
00000050: d528 65be d934 64be 142a 0e3e a57a 973e
00000060: 2fdd 15be 6c92 d63d eff0 b53e c365 0c3e
00000070: 6f7c 33be cd5e f33d adf8 b5be a655 94be
00000080: a2d8 fc3c f409 a1bd 1855 a5be 8b2e c0be
00000090: e83f ba3e 6bf5 873e c28c 033d ad91 3cbd
000000a0: 3197 48be 2921 b93d 1bd1 6bbd 99cd ea3d
000000b0: c611 c63d 2572 97bd 24e6 fa3d e20f c4be
000000c0: 3470 ae3c 4602 a83e 7e8e 163d b540 223c
000000d0: fb5e 61be 527b c53d 128c ac3e 7b99 983c
000000e0: 149b e33c 2744 9fbe abae a7be 95d1 2c3e
000000f0: 1895 31be f8b2 b43e 9785 62be 1cb7 c13e

actor.2.weight f4 [64, 64]
-0.044781424 0.28071386 -0.112939976 0.10696701 -0.010990907 -0.04915431 -0.010108238 -0.17442204
0.18478557 0.12226208 0.43631953 0.30428213 0.059073262 0.18631782 0.0887507 -0.020838099
0.0114325 0.10966148 -0.35587484 -0.31619215 -0.34752798 -0.18729834 -0.039550714 -0.027866244
0.018121213 -0.37959382 0.055752825 -0.08055266 0.17190781 0.19465485 0.033073485 0.020473307
-0.59470093 0.010667476 0.19690265 0.25348032 -0.018120205 0.2639207 -0.22942388 0.30894282
0.063109756 -0.24695316 0.15421139 -0.29648787 0.2700514 -0.12665662 -0.13581821 -0.20397003
0.16884455 -0.04097609 0.24893382 0.008714556 0.14009151 0.22923227 0.009078523 0.09066754
-0.25478953 0.035553027 0.020878738 0.26996186 -0.034679122 -0.08781734 0.017544681 0.082094245
-0.090973064 -0.06606202 -0.015845506 -0.03804736 -0.12786119 -0.17875478 -0.047389146 -0.10608459
0.10818988 -0.23568745 -0.10709679 -0.10896067 0.1114647 0.15118839 -0.09039134 0.046023495
-0.02652408 0.035449028 0.11099863 0.032402936 0.12761065 -0.017553696 0.07773319 0.19141956
-0.0062249647 -0.05596394 0.06377356 0.02621901 -0.18521966 -0.25643557 -0.062263545 -0.17289156
0.30469975 0.21577372 -0.0129551245 -0.05158621 0.1399672 -0.043299187 0.060388196 0.043639965
0.013529505 0.031335417 0.035029113 0.12130882 -0.12805331 0.081689596 0.1673097 -0.038819984
-0.043334402 -0.013773281 -0.03701361 -0.02669481 0.12795983 -0.07969585 0.0314846 0.0185246
0.20876737 -0.032187484 0.0049327603 -0.06448882 -0.14612763 -0.058258824 0.15663044 -0.0035438885
-0.0067006988 0.3170514 0.047501095 0.20921397 -0.04841939 0.062383797 -0.055424944 -0.11980589
0.16239053 0.021602066 0.41085342 0.05009191 -0.058044918 0.04798003 0.0642445 -0.14765337
-0.054953247 0.05765918 -0.2354951 -0.03813924 -0.14708962 -0.14760786 -0.015202942 0.0006155474
0.20725584 -0.26877818 -0.045903195 0.005645929 0.25363222 0.3370638 0.14178896 0.20265573
-0.5052156 -0.083548084 0.07668776 0.1120025 -0.14286615 0.22440723 -0.29058322 0.0803034
-0.06423739 -0.07318182 0.22427848 -0.253883 0.15579326 -0.0812385 -0.19020173 -0.15965402
0.1382763 -0.018430568 0.04089684 0.11976173 -0.026930662 0.09451927 0.03141409 -0.0028590513
-0.2656682 0.001693037 -0.026560975 0.12463458 0.13445076 -0.014505032 0.015171163 -0.018369943
-0.13082434 -0.2914894 0.007237763 -0.14488539 -0.027475076 0.048596762 0.008513262 0.244928
-0.25240567 0.030179646 -0.35059056 -0.30882946 0.12072903 -0.048113246 0.097290106 -0.046758488
-0.002948021 -0.07517817 0.33505794 0.2183518 0.273789 0.029157735 -0.07053577 -0.19650485
0.03571826 0.30316487 -0.014176082 0.11091725 -0.3894063 -0.2964667 -0.13146259 -0.10769001
0.6175091 0.01523245 -0.02423272 -0.19189103 -0.008718564 -0.3628514 0.1020768 -0.18409061
0.10273965 0.23864914 -0.1298832 0.21269569 -0.36088854 0.09452979 0.11257205 0.25239483
-0.12205418 -0.010838121 -0.21143587 0.007325541 -0.1042861 -0.31139132 -0.10713703 -0.017078122
0.11139666 -0.001121087 0.13539582 -0.1755119 -0.14326857 -0.0048226607 0.014987424 -0.07032461
00000000: ba6c 37bd bab9 8f3e 134d e7bd 8511 db3d
00000010: 3513 34bc 0856 49bd 069d 25bc b19b 32be
00000020: 6e38 3d3e 8b64 fa3d 4665 df3e deca 9b3e
00000030: cef6 713d 19ca 3e3e edc2 b53d a9b4 aabc
00000040: 614f 3b3c 3396 e03d 3a35 b6be f0e3 a1be
00000050: 30ef b1be 23cb 3fbe eeff 21bd c047 e4bc
00000060: f072 943c 1f5a c2be 135d 643d cbf8 a4bd
00000070: 9a08 303e 9a53 473e 1078 073d a3b7 a73c
00000080: 523e 18bf a3c6 2e3c d9a0 493e 2cc8 813e
00000090: d370 94bc 9d20 873e 18ee 6abe c12d 9e3e
000000a0: b03f 813d 4ae1 7cbe 97e9 1d3e 42cd 97be
000000b0: 2d44 8a3e 46b2 01be ee13 0bbe 85dd 50be
000000c0: 96e5 2c3e 8bd6 27bd 82e8 7e3e 7fc7 0e3c
000000d0: 2674 0f3e ddbb 6a3e 16be 143c e7af b93d
000000e0: c673 82be 0da0 113d e309 ab3c 7138 8a3e
000000f0: b20b 0ebd 94d9 b3bd ddb9 8f3c 0721 a83d
00000100: 1650 babd 864b 87bd 6fce 81bc 8cd7 1bbd
00000110: 0bee 02be 7e0b 37be 1f1b 42bd e142 d9bd
00000120: a892 dd3d 0d58 71be 9055 dbbd c626 dfbd
00000130: 9b47 e43d 21d1 1a3e 181f b9bd 2283 3c3d
00000140: 0749 d9bc 0033 113d 4053 e33d f1b8 043d
00000150: 5eac 023e c5cc 8fbc 9432 9f3d 7d03 443e
00000160: cafa cbbb 723a 65bd b69b 823d 40c9 d63c
00000170: 39aa 3dbe 864b 83be 0f08 7fbd 7c0a 31be
00000180: 9b01 9c3e c9f3 5c3e bb41 54bc 104c 53bd
00000190: 9053 0f3e 7d5a 31bd 9d59 773d d2bf 323d
000001a0: dbaa 5d3c 9159 003d b07a 0f3d c270 f83d
000001b0: 6820 03be e04c a73d 3c53 2b3e b401 1fbd
000001c0: 6a7f 31bd 54a9 61bc 959b 17bd 13af dabc
000001d0: e707 033e 9437 a3bd fff5 003d e7c0 973c
000001e0: 1dc7 553e 06d7 03bd fea2 a13b b712 84bd
000001f0: 7ba2 15be cea0 6ebd bb63 203e 9540 68bb
00000200: 8991 dbbb 9054 a23e 8290 423d 303c 563e
00000210: 6953 46bd 2786 7f3d 4405 63bd ca5c f5bd
00000220: b449 263e d1f6 b03c 615b d23e 2d2d 4d3d
00000230: 82c0 6dbd b586 443d 9f92 833d 7232 17be
00000240: a816 61bd 082c 6c3d a125 71be e437 1cbd
00000250: a99e 16be 8426 17be c315 79bc b05c 213a
00000260: e03a 543e 4b9d 89be fd04 3cbd 7c01 b93b
00000270: 15dc 813e a093 ac3e 2031 113e fc84 4f3e
00000280: cf55 01bf 421b abbd 790e 9d3d 9161 e53d
00000290: 814b 12be 02cb 653e 53c7 94be 1c76 a43d
000002a0: e58e 83bd 5ae0 95bd 42a9 653e f4fc 81be
000002b0: 4588 1f3e 5f60 a6bd 3ec4 42be 587c 23be
000002c0: 4d98 0d3e b4fb 96bc 7283 273d a345 f53d
000002d0: b19d dcbc 5293 c13d 10ac 003d ec5e 3bbb
000002e0: aa05 88be e5e8 dd3a 6796 d9bc 6a40 ff3d
000002f0: 76ad 093e 84a6 6dbc 7890 783c 907c 96bc
00000300: d1f6 05be 193e 95be c22a ed3b d65c 14be
00000310: 6913 e1bc 660d 473d 357b 0b3c 68ce 7a3e
00000320: 513b 81be 4e3b f73c 9b80 b3be e51e 9ebe
00000330: c840 f73d 6512 45bd 0940 c73d d485 3fbd
00000340: 9633 41bb 03f7 99bd b78c ab3e 9d97 5f3e
00000350: 122e 8c3e 34dc ee3c 0f75 90bd 9138 49be
00000360: 4f4d 123d 6d38 9b3e cc42 68bc 9528 e33d
00000370: 4360 c7be 7cca 97be 219e 06be 948c dcbd
00000380: 1415 1e3f 8791 793c b283 c6bc 157f 44be
00000390: 4fd8 0ebc a9c7 b9be a40d d13d 4082 3cbe
000003a0: 2a69 d23d 7160 743e 1a00 05be e6cc 593e
000003b0: 62c6 b8be d698 c13d 2d8c e63d e539 813e
000003c0: 8bf7 f9bd 6092 31bc a582 58be 180b f03b
000003d0: f393 d5bd af6e 9fbe a96a dbbd 6be7 8bbc
000003e0: ef23 e43d 70f1 92ba 34a5 0a3e 64b9 33be
000003f0: ffb4 12be 6907 9ebb d08d 753c 5906 90bd

actor.2.bias f4 [64]
0.10042479 0.079350136 -0.08068412 0.12498841 -0.003760048 0.04438393 -0.12766227 0.04448056
0.22429706 0.07878238 -0.12923437 -0.027735114 0.060421493 -0.08952792 -9.318394e-05 -0.13019836
-0.10362122 -0.030645818 0.15792541 0.12519722 -0.04690183 -0.14347681 0.0070750327 -0.1774421
0.006716386 0.10383463 0.05274575 -0.049758505 0.03770777 0.044096094 0.0345712 0.07133927
-0.028927168 0.027913444 -0.11711236 -0.044848096 -0.06601594 -0.11084993 -0.037174385 -0.03978597
-0.060479242 0.06381313 0.043607567 -0.085316874 0.099582985 0.05806681 0.044741377 -0.00043747047
-0.07380229 -0.17552523 0.10199866 0.080484465 -0.076508276 -0.05238934 0.0034590536 0.08537974
0.25107503 0.051170364 0.09761008 0.013686053 -0.056942243 -0.20563708 0.04542545 0.104867354
00000000: 83ab cd3d 5382 a23d b73d a5bd ecf9 ff3d
00000010: 236b 76bb eccb 353d e6b9 02be 3f31 363d
00000020: 21ae 653e a858 a13d 0456 04be c034 e3bc
00000030: 877c 773d 6a5a b7bd bf6b c3b8 b852 05be
00000040: 5d37 d4bd f00c fbbc 33b7 213e b333 003e
00000050: 221c 40bd 96eb 12be add5 e73b 62b3 35be
00000060: 2115 dc3b 40a7 d43d ed0b 583d 93cf 4bbd
00000070: 7673 1a3d 1b9e 343d 889a 0d3d 531a 923d
00000080: abf8 ecbc bcaa e43c 9bd8 efbd a3b2 37bd
00000090: 5d33 87bd 4a05 e3bd 2b44 18bd 9df6 22bd
000000a0: 15b9 77bd 75b0 823d d99d 323d 9dba aebd
000000b0: 2af2 cb3d 77d7 6d3d bc42 373d 4b5c e5b9
000000c0: a825 97bd e3bc 33be ace4 d03d 0ad5 a43d
000000d0: 5fb0 9cbd 3496 56bd 4ab1 623b 93db ae3d
000000e0: e88c 803e 0498 513d cbe7 c73d 783b 603c
000000f0: 453c 69bd 8792 52be 0910 3a3d b2c4 d63d

actor.4.weight f4 [3, 64]
0.32104748 -0.09344121 0.38441423 -0.44812799 0.3510298 -0.16859363 0.6646645 0.3450821
-0.067856856 -0.364069 -0.2280821 0.04212639 0.31527176 0.5228171 -0.348036 0.019037971
0.42015302 0.07217473 0.023534514 0.23098308 -0.26525673 0.42210606 -0.30072415 0.08798747
-0.22786887 0.019605827 -0.6055049 -0.27860743 0.33820683 0.25572854 -0.26185206 -0.16817872
0.50755394 0.34693494 0.6138442 0.37416872 0.5648715 0.5473256 -0.13570283 0.4999345
0.68051606 0.4355268 0.01479068 0.50400776 0.22461283 -0.16877854 -0.6573108 0.02395942
0.29850793 0.21242319 -0.36369494 -0.38533363 -0.29314345 0.50874966 0.046197087 -0.39490762
-0.11116585 -0.13245685 0.11953675 0.36114624 0.019489855 0.26860482 -0.48707408 -0.6131166
-0.00756423 0.149746 -0.13672455 -0.0027148863 -0.16389285 -0.020661872 -0.057342738 0.06779733
0.064586 0.015477453 -0.1307808 -0.09086032 0.07274835 -0.17416444 -0.013056651 -0.12669903
0.0120807355 -0.071113504 0.14556892 0.1447943 0.037125897 -0.20903222 -0.08318284 -0.16560388
-0.125151 0.080691606 0.115471974 -0.075889476 0.13696302 0.17387235 0.030214624 0.103965744
-0.006009967 0.07499317 -0.15706822 0.05824174 -0.086562395 0.006663804 -0.13847381 -0.1560496
-0.1532013 0.062753305 0.12513389 -0.05361889 0.16179189 0.09580023 0.024528127 0.10329506
-0.072339885 -0.105338044 -0.015713254 -0.10490177 -0.13610026 -0.13173245 -0.10088493 0.10113364
0.1824517 -0.12970415 0.1990909 -0.14203347 -0.14867045 -0.19166403 0.025275562 0.116789766
-0.64041656 0.04261911 -0.17722495 0.37465525 -0.23074146 0.35900828 -0.60513276 -0.6468115
-0.15083413 0.61510044 0.50988966 0.20687184 -0.65616155 -0.2258795 0.5811112 0.1400466
-0.38131285 -0.0039564446 -0.30134007 -0.3238098 0.5960075 -0.25098127 0.53002614 0.15571219
0.4315801 -0.013488952 0.5292098 0.3671311 -0.33428904 -0.3562142 0.37873775 0.37846336
-0.50844276 -0.38444138 -0.3912635 -0.54978466 -0.24103396 -0.5072038 0.30296472 -0.40098038
-0.39287868 -0.68771815 0.03983657 -0.489696 -0.38872924 0.028211256 0.5226041 -0.14428419
-0.16892405 -0.026346993 0.49518242 0.40805423 0.5092261 -0.24926323 0.07373057 0.56656414
-0.03481137 0.27736464 -0.27826104 -0.17708977 0.12751159 0.040193673 0.2508411 0.38083026
00000000: 5660 a43e 1b5e bfbd f1d1 c43e 0871 e5be
00000010: 2eba b33e cfa3 2cbe 7427 2a3f 9aae b03e
00000020: 89f8 8abd 4167 babe 5b8e 69be b98c 2c3d
00000030: 4d6b a13e 57d7 053f c631 b2be 85f5 9b3c
00000040: 4c1e d73e 58d0 933d 74cb c03c d486 6c3e
00000050: bbcf 87be 491e d83e 84f8 99be c632 b43d
00000060: 7556 69be 669c a03c 5e02 1bbf a2a5 8ebe
00000070: 7229 ad3e daee 823e 7911 86be 0b37 2cbe
00000080: 0eef 013f 75a1 b13e e524 1d3f 0b93 bf3e
00000090: 6b9b 103f 881d 0c3f aff5 0abe 6af7 ff3e
000000a0: 4d36 2e3f 5efd de3e 9c54 723c a706 013f
000000b0: e800 663e 48d4 2cbe 8545 28bf 8c46 c43c
000000c0: 08d6 983e 7785 593e 3936 babe 734a c5be
000000d0: e616 96be 6b3d 023f 2839 3d3d 5531 cabe
000000e0: ecaa e3bd c5a2 07be afcf f43d 29e8 b83e
000000f0: 30a9 9f3c 9286 893e c661 f9be 36f5 1cbf
00000100: 5cdd f7bb 0457 193e 8501 0cbe 3cec 31bb
00000110: 87d3 27be 1643 a9bc 38e0 6abd 54d9 8a3d
00000120: aa45 843d 2595 7d3c 67eb 05be fa14 babd
00000130: 16fd 943d 2a58 32be 90eb 55bc 64bd 01be
00000140: 47ee 453c f5a3 91bd 0510 153e f544 143e
00000150: 5311 183d 8b0c 56be c45b aabd 1094 29be
00000160: 9527 00be a441 a53d 927c ec3d f16b 9bbd
00000170: 0940 0c3e 980b 323e a984 f73c feeb d43d
00000180: 42ef c4bb 0596 993d 7ed6 20be e48e 6e3d
00000190: a047 b1bd 0a5c da3b 14cc 0dbe 77cb 1fbe
000001a0: cde0 1cbe ce84 803d 1923 003e 7b9f 5bbd
000001b0: c6ac 253e e932 c43d 36ef c83c 5c8c d33d
000001c0: ef26 94bd 79bb d7bd 15b9 80bc bdd6 d6bd
000001d0: de5d 0bbe dfe4 06be c29c cebd 271f cf3d
000001e0: 9ed4 3a3e 2ad1 04be 7cde 4b3e 3971 11be
000001f0: 113d 18be 9343 44be b20e cf3c 792f ef3d
00000200: 57f2 23bf 6091 2e3d 757a 35be d0d2 bf3e
00000210: 7d47 6cbe efcf b73e fbe9 1abf 7095 25bf
00000220: 4374 1abe 3977 1d3f 2188 023f 36d6 533e
00000230: 34fa 27bf f54c 67be b4c3 143f 6068 0f3e
00000240: 703b c3be 10a5 81bb 3f49 9abe 66ca a5be
00000250: f393 183f 9e80 80be cbaf 073f 0473 1f3e
00000260: 11f8 dc3e c400 5dbc 4b7a 073f 9cf8 bb3e
00000270: ef27 abbe b561 b6be eae9 c13e f3c5 c13e
00000280: 4e29 02bf 80d5 c4be b153 c8be b0be 0cbf
00000290: 9bd1 76be 1cd8 01bf 311e 9b3e 4d4d cdbe
000002a0: 6527 c9be 4c0e 30bf ac2b 233d 6fb9 fabe
000002b0: 8507 c7be 4b1b e73c 62c9 053f 3cbf 13be
000002c0: 6dfa 2cbe a6d5 d7bc 8d88 fd3e 7cec d03e
000002d0: a45c 023f dc3e 7fbe 0e00 973d 590a 113f
000002e0: 5e96 0ebd bd02 8e3e 3b78 8ebe 0557 35be
000002f0: 6692 023e 1fa2 243d 3f6e 803e 2ffc c23e

actor.4.bias f4 [3]
0.0043649212 0.1897389 -0.028809447
00000000: 9d07 8f3b ea4a 423e ca01 ecbc

critic.0.weight f4 [64, 5]
0.24662405 -0.25207517 -0.12745124 0.013299193 0.86384636 -0.26222214 -0.26346105 -0.08514453
-0.51611716 1.159936 -0.2713068 0.34688765 0.3216379 -0.03522598 0.06717753 0.07898476
-0.055784 0.08230991 -0.38881156 1.2111647 0.054074444 -0.21769477 0.14696534 -0.29154688
-1.4846785 -0.06474686 -0.21706514 -0.2001324 0.0179866 1.0933135 0.017294792 0.2422912
-0.35920367 0.47926578 -0.98660177 0.12970755 0.034821406 -0.57513225 0.37831113 1.5066063
0.22948614 0.3276779 -0.11890877 -0.06320977 1.502514 0.011275682 0.13103609 -0.28241488
0.124891914 1.4443607 0.011080268 -0.13070922 0.14388345 -0.067042634 -1.4063929 0.21025522
-0.1676509 0.24840112 0.2984687 -1.4781786 -0.20900428 -0.30087188 -0.43280914 0.043453664
1.2667911 0.15154634 0.010070916 -0.07864916 -0.1747286 0.69756585 0.26873845 0.12751979
-0.16929816 -0.17013174 0.64612705 -0.14818832 0.0858787 0.09240667 -0.06500153 -1.4503427
-0.13713658 0.15269445 0.43328974 0.2200296 0.020021677 -0.14396356 0.25396988 -0.2910898
0.16080272 1.4730704 -0.16869898 -0.26014802 0.173323 -0.031046243 0.90572476 0.29645252
-0.044908594 -0.099121444 -0.40585876 1.016503 -0.27283138 -0.06364135 0.42411554 0.18200228
-1.3243941 -0.048228215 -0.12054877 0.32335854 -0.4280239 -1.2284669 -0.14115682 0.031962097
-0.18309627 -0.22631195 1.2840991 -0.019562386 -0.08539806 -0.21479754 0.002665484 1.232988
0.17320627 0.13149776 -0.49142304 -0.21947986 -0.8199214 -0.30758786 0.12910655 0.3107446
-0.061165757 -1.4242761 -0.13269514 -0.05577221 -0.02117544 -0.37091467 -1.4659851 -0.19053335
0.13434714 -0.24528529 0.124527134 0.51577646 0.20065947 0.2971419 0.34195817 -0.10378272
-0.68450505 -0.3583097 0.27101755 0.44277936 0.03187486 0.75060195 0.16871688 -0.41597924
0.26043513 -0.09748054 0.475388 0.3123496 -0.31995735 0.52756083 -0.021703131 1.0402122
0.17396201 0.054665305 -0.32604882 0.39119586 -0.50941265 -0.20768757 0.2982502 0.15864405
0.106124446 -1.3769556 0.027846502 0.023361104 -0.33817872 -0.07201487 1.4308519 0.08215076
-0.123811886 -0.2868416 0.2024466 1.3516427 0.3625151 -0.36518192 0.20091951 -0.0143819
-1.3987778 0.34088168 0.15986271 -0.18947037 0.21741208 1.4434437 0.05275259 -0.030639345
-0.19198862 0.12754087 0.92439926 0.25398064 -0.2613795 -0.11643406 0.16109717 0.85590744
-0.39991465 0.19468126 0.11579162 0.06414386 1.4255615 0.05229606 0.1721636 -0.46011877
-0.19304407 -0.6393098 -0.16069259 -0.32825398 -0.21810146 0.17657638 1.146302 0.23142838
-0.1691648 0.3055274 0.25992495 -1.4142339 0.41423208 -0.15288195 -0.25196755 -0.2412475
-1.1977065 0.026950821 0.058118574 0.14481765 0.30556124 -1.1583545 -0.46143714 0.079707555
-0.11069389 0.1705668 -1.5464934 0.08573842 0.11739347 -0.35837528 0.45696938 -0.062069003
0.10700645 -0.0061657126 -0.12654085 0.2926565 1.0519227 -0.052123774 -0.07243773 0.3588349
0.10366251 -1.505803 0.069709636 -0.08268021 0.29422668 0.13322337 -1.4752157 -0.16269608
00000000: 048b 7c3e ff0f 81be 9482 02be dce4 593c
00000010: 0925 5d3f fb41 86be 5ee4 86be 4160 aebd
00000020: 4120 04bf c878 943f bae8 8abe 429b b13e
00000030: b9ad a43e 1e49 10bd 5f94 893d c3c2 a13d
00000040: c37d 64bd 1992 a83d 4f12 c7be 7207 9b3f
00000050: 2a7d 5d3d 61eb 5ebe 157e 163e a245 95be
00000060: f209 bebf 009a 84bd 5346 5ebe 82ef 4cbe
00000070: a258 933c b2f1 8b3f cfad 8d3c 2f1b 783e
00000080: 8be9 b7be 5362 f53e ef91 7cbf 0ed2 043e
00000090: e4a0 0e3d de3b 13bf ffb1 c13e 7ad8 c03f
000000a0: 6afe 6a3e 66c5 a73e 7186 f3bd 2074 81bd
000000b0: 6152 c03f a3bd 383c 532e 063e af98 90be
000000c0: 55c7 ff3d d0e0 b83f 038a 353c a3d8 05be
000000d0: 2f56 133e a64d 89bd af04 b4bf 254d 573e
000000e0: adac 2bbe dd5c 7e3e e4d0 983e f534 bdbf
000000f0: 3805 56be e10b 9abe 2999 ddbe 78fc 313d
00000100: 3626 a23f f72e 1b3e 7c00 253c d012 a1bd
00000110: 0eec 32be ad93 323f 1698 893e 8c94 023e
00000120: 7f5c 2dbe 0437 2ebe 9568 253f aebe 17be
00000130: 2ce1 af3d b53f bd3d 861f 85bd d4a4 b9bf
00000140: 886d 0cbe ef5b 1c3e 27d8 dd3e 714f 613e
00000150: 8004 a43c 2f6b 13be 5708 823e b909 95be
00000160: 78a9 243e 928d bc3f 6dbf 2cbe 1f32 85be
00000170: 967b 313e b154 febc 94dd 673f a0c8 973e
00000180: 13f2 37bd 2f00 cbbd b8cc cfbe c51c 823f
00000190: 8eb0 8bbe 6556 82bd ac25 d93e ce5e 3a3e
000001a0: bf85 a9bf f38a 45bd 46e2 f6bd 408f a53e
000001b0: f325 dbbe 673e 9dbf 6a8b 10be b0ea 023d
000001c0: 977d 3bbe 52be 67be 5c5d a43f 4c41 a0bc
000001d0: 2ee5 aebd e3f3 5bbe 67af 2e3b 8dd2 9d3f
000001e0: fc5c 313e 59a7 063e cd9b fbbe 54bf 60be
000001f0: 5ee6 51bf 287c 9dbe 8234 043e eb19 9f3e
00000200: f288 7abd ae4e b6bf 3ce1 07be 6771 64bd
00000210: 1e78 adbc 87e8 bdbe 66a5 bbbf 2d1b 43be
00000220: 4c92 093e 112c 7bbe 1508 ff3d ed09 043f
00000230: ad79 4d3e fc22 983e 2415 af3e 098c d4bd
00000240: b93b 2fbf 5e74 b7be d0c2 8a3e fab3 e23e
00000250: 378f 023d 7327 403f 1ec4 2c3e 3bfb d4be
00000260: c157 853e e1a3 c7bd 0e66 f33e 49ec 9f3e
00000270: 73d1 a3be 3a0e 073f c4ca b1bc ac25 853f
00000280: 1923 323e bae8 5f3d dfef a6be d34a c83e
00000290: de68 02bf 0dac 54be 40b4 983e 9673 223e
000002a0: c657 d93d 1540 b0bf 591e e43c c95f bf3c
000002b0: c325 adbe 887c 93bd 2826 b73f a83e a83d
000002c0: 1691 fdbd e7dc 92be 294e 4f3e a102 ad3f
000002d0: 949b b93e 20f9 babe d8bd 4d3e 10a2 6bbc
000002e0: 270b b3bf 0b88 ae3e 0db3 233e 8504 42be
000002f0: 46a1 5e3e c3c2 b83f 1a13 583d 5dff fabc
00000300: aa98 44be 139a 023e 6ea5 6c3f c009 823e
00000310: 89d3 85be fb74 eebd a8f6 243e c01c 5b3f
00000320: 9dc1 ccbe 865a 473e 2824 ed3d db5d 833d
00000330: cd78 b63f 6534 563d a84b 303e b094 ebbe
00000340: 58ad 45be cfa9 23bf 998c 24be e810 a8be
00000350: fd55 5fbe 70d0 343e 06ba 923f 90fb 6c3e
00000360: 8a39 2dbe 166e 9c3e e214 853e 9e05 b5bf
00000370: 3a16 d43e 168d 1cbe e401 81be 9609 77be
00000380: 724e 99bf f8c7 dc3c be0d 6e3d 144b 143e
00000390: 8672 9c3e f644 94bf 7d41 ecbe b73d a33d
000003a0: 7ab3 e2bd 10a9 2e3e 7ff3 c5bf a097 af3d
000003b0: fd6b f03d f77c b7be e4f7 e93e 113c 7ebd
000003c0: 3326 db3d bf09 cabb ed93 01be 13d7 953e
000003d0: 67a5 863f bd7f 55bd 3c5a 94bd 35b9 b73e
000003e0: 034d d43d 27be c0bf edc3 8e3d 3e54 a9bd
000003f0: e1a4 963e b56b 083e ded3 bcbf cd99 26be

critic.0.bias f4 [64]
0.036816653 -0.011985153 -0.046000313 0.1520788 0.08826147 -0.08718937 -0.15551214 0.3644068
-0.33496195 -0.018373858 0.2478342 -0.23551936 0.41816512 -0.0029289727 0.2382205 -0.1337216
-0.32090202 0.18153146 -0.03331674 0.09927404 -0.27611226 -0.040659197 0.33114004 -0.06172808
0.12673748 -0.1701442 0.104188 0.2193655 -0.3430788 -0.15903355 -0.35801485 -0.05811831
0.28720096 -0.0061413175 0.21940844 0.26156998 -0.19579884 -0.3702871 0.112638645 0.056415897
0.15826347 0.0090528345 0.19206904 -0.18574671 -0.2077587 0.122646056 0.018371934 0.29355016
0.0783673 -0.25005797 0.049633462 0.24004464 -0.11486208 0.26330748 -0.20961422 6.47783e-05
-0.26829895 0.2189311 0.1971966 -0.36095527 -0.010395644 -0.020822896 -0.37974662 -0.15997112
00000000: 0fcd 163d 605d 44bc d36a 3cbd 8cba 1b3e
00000010: 6ec2 b43d 5790 b2bd 933e 1fbe 8793 ba3e
00000020: 2280 abbe c684 96bc 40c8 7d3e fd2b 71be
00000030: bd19 d63e 02f4 3fbb 13f0 733e 51ee 08be
00000040: 454d a4be 62e3 393e 2277 08bd 3050 cb3d
00000050: 965e 8dbe 428a 26bd 308b a93e 95d6 7cbd
00000060: 78c7 013e 483a 2ebe 8560 d53d 5aa1 603e
00000070: 06a8 afbe b1d9 22be b94d b7be 770d 6ebd
00000080: 010c 933e 1b3d c9bb 9bac 603e 80ec 853e
00000090: 7e7f 48be 4596 bdbe 17af e63d 5b14 673d
000000a0: d20f 223e 5752 143c bfad 443e 6334 3ebe
000000b0: b2be 54be db2d fb3d bd80 963c 354c 963e
000000c0: 097f a03d 9907 80be 754c 4b3d 43ce 753e
000000d0: cf3c ebbd 3dd0 863e 1ca5 56be 96d9 8738
000000e0: 7b5e 89be 792f 603e e8ed 493e 21cf b8be
000000f0: 7e52 2abc c794 aabc 266e c2be 78cf 23be

critic.2.weight f4 [64, 64]
-0.01885921 0.13502228 0.18374796 0.017313594 -0.117299944 0.03124832 -0.12681127 -0.04324919
0.043798994 0.06986088 -0.1869403 0.050040442 -0.03275008 -0.038276985 0.083983324 -0.20729242
0.22975576 -0.15680224 0.057150893 0.13775662 0.026477885 0.10554947 -0.09567692 0.032622386
-0.24603255 0.07817365 -0.17616807 -0.2365035 0.20914598 0.21982032 0.08479996 0.1345301
-0.21839216 0.042713806 0.0006057305 -0.13303465 0.08681134 0.09562054 -0.004944802 0.003454732
0.07027237 -0.16450138 0.02784046 -0.023942832 -0.14047787 -0.1399965 -0.26964298 -0.24064998
-0.04572321 0.14401054 0.0682997 0.009378369 0.0089916205 0.12972502 -0.054079887 0.0022804863
-0.088982135 -0.080677055 -0.19070923 0.07889018 -0.07580675 -0.03940231 -0.119276695 0.27396902
0.047111955 0.085523896 -0.053871457 0.09167195 -0.07126029 0.084851496 -0.06692531 0.09159112
-0.088161275 -0.0992259 -0.06823686 0.08891613 0.029312067 -0.14791296 0.09652529 0.0074278754
0.07489971 -0.104393005 -0.0018961024 0.08445208 0.022472229 -0.03284683 -0.004360756 0.047972664
-0.019758064 -0.0709095 -0.16522318 -0.052769534 0.050444096 0.0670887 -0.058823418 0.12130224
-0.107960194 0.07900226 -0.104099944 -0.09172934 -0.06579517 -0.027159683 0.03839627 0.07229063
-0.024134554 0.00535512 0.11805609 0.07911874 0.020382747 0.049979065 -0.14260769 0.13071385
-0.042825017 0.07329236 -0.05585328 -0.095743485 -0.026863439 -0.0036901645 -0.08142678 -0.012821204
0.11131096 -0.038782768 -0.021289304 -0.12428678 0.09627141 -0.031309977 -0.024635088 -0.10387543
0.020072116 -0.031789955 0.040092193 -0.13149695 -0.029181138 -0.020378713 0.113636255 0.10144431
-0.17469768 0.086643964 0.14075975 -0.08646437 -0.037649963 -0.114686765 0.052475855 0.0013796091
-0.2130527 0.11062769 0.023955442 0.102630615 0.022074455 -0.08969595 -0.030818243 -0.11682538
0.15631837 -0.015661042 0.123982355 0.1267087 0.039738897 -0.14866742 -0.092536405 -0.23218611
0.15824184 -0.0063977675 0.16565625 0.19365598 0.0033849047 -0.17073894 0.1393375 0.10180614
-0.12680815 0.122364186 0.02732729 -0.10858322 0.12724732 0.147394 0.092058286 0.057487033
-0.019967461 -0.0073935934 -0.06802773 0.05982468 0.06194115 -0.06800347 0.089371376 0.115112714
-0.044446167 0.109825395 0.15682961 -0.2032012 -0.10796911 0.04587028 -0.032250296 -0.01788912
0.13947576 0.0003173731 0.12341015 0.048206028 0.03292543 0.024509337 -0.021164754 -0.016988633
-0.02482567 0.11062645 -0.07199878 -0.0021216199 0.004826459 0.04733877 -0.083254464 -0.02921031
-0.087110475 0.0216415 0.024492038 -0.08276408 -0.12183774 -0.015875604 0.09295707 -0.13477862
0.13198294 0.080987625 0.08540819 0.05147663 -0.061848246 -0.021273145 0.040306896 -0.021747334
-0.00829594 -0.059531376 -0.0639478 -0.056300603 -0.102620065 0.011420296 -0.017756077 -0.10173774
-0.14157811 -0.029813403 0.055208337 0.0026959607 0.010519867 -0.08460248 -0.09132008 -0.03408784
0.04015153 -0.016243074 -0.045282066 -0.15627095 0.13146721 -0.0074030454 -0.04326653 -0.03135154
-0.06994173 -0.09797039 -0.0700887 0.032946557 -0.107869044 0.106027834 0.07104076 0.075975835
00000000: a17e 9abc 4843 0a3e 6d28 3c3e 3dd5 8d3c
00000010: f43a f0bd 7afc ff3c d0da 01be 1026 31bd
00000020: 9366 333d 3913 8f3d 476d 3fbe 35f7 4c3d
00000030: f324 06bd 54c8 1cbd 73ff ab3d 7744 54be
00000040: 1845 6b3e c490 20be 0e17 6a3d 1210 0d3e
00000050: 26e8 d83c 522a d83d 43f2 c3bd 0d9f 053d
00000060: f5ef 7bbe 8219 a03d 6765 34be f92d 72be
00000070: 5d2a 563e 9418 613e 9aab ad3d 42c2 093e
00000080: 32a2 5fbe acf4 2e3d e3c9 1e3a 3c3a 08be
00000090: 25ca b13d b4d4 c33d 0108 a2bb c968 623b
000000a0: f6ea 8f3d 0d73 28be ad11 e43c c223 c4bc
000000b0: 6ed9 0fbe 3e5b 0fbe a50e 8abe f36c 76be
000000c0: 4348 3bbd 8077 133e b7e0 8b3d bba7 193c
000000d0: 9751 133c a3d6 043e df82 5dbd 3674 153b
000000e0: 443c b6bd 033a a5bd 4849 43be 2d91 a13d
000000f0: 9240 9bbd 5164 21bd 5747 f4bd ab45 8c3e
00000100: 77f8 403d 2727 af3d 51a8 5cbd 81be bb3d
00000110: eaf0 91bd 9fc6 ad3d 2310 89bd 2094 bb3d
00000120: e68d b4bd f336 cbbd c4bf 8bbd a919 b63d
00000130: dc1f f03c 7f76 17be 0daf c53d 8965 f33b
00000140: 0565 993d 00cc d5bd a486 f8ba 36f5 ac3d
00000150: ae17 b83c 668a 06bd ace4 8ebb fc7e 443d
00000160: aadb a1bc 0039 91bd 4430 29be de24 58bd
00000170: 789e 4e3d cd65 893d d3f0 70bd 4f6d f83d
00000180: 3c1a ddbd f0cb a13d 5a32 d5bd 98dc bbbd
00000190: 9ebf 86bd fc7d debc 6845 1d3d 1c0d 943d
000001a0: d4b5 c5bc 017a af3b 64c7 f13d 0209 a23d
000001b0: b8f9 a63c d9b6 4c3d c007 12be dad9 053e
000001c0: 4969 2fbd 4e1a 963d 69c6 64bd 2915 c4bd
000001d0: b710 dcbc b0d6 71bb 15c3 a6bd 0710 52bc
000001e0: 00f7 e33d aeda 1ebd e866 aebc 118a febd
000001f0: f229 c53d e43e 00bd 86cf c9bc a4bc d4bd
00000200: 476e a43c 2f36 02bd b637 243d 23a7 06be
00000210: 480d efbc 42f1 a6bc 20ba e83d 09c2 cf3d
00000220: f3e3 32be 6472 b13d 5323 103e 3b14 b1bd
00000230: d936 1abd e5e0 eabd ecf0 563d 00d4 b43a
00000240: 7d2a 5abe c590 e23d 343e c43c 0030 d23d
00000250: 7dd5 b43c 83b2 b7bd 8a76 fcbc 2542 efbd
00000260: ec11 203e 964b 80bc 76ea fd3d edbf 013e
00000270: 41c5 223d 463c 18be ba83 bdbd 32c2 6dbe
00000280: 260a 223e 5da4 d1bb cba1 293e c14d 463e
00000290: 47d5 5d3b 30d6 2ebe 7dae 0e3e bd7f d03d
000002a0: ffd9 01be 139a fa3d 7bdd df3c e160 debd
000002b0: 1f4d 023e 74ee 163e 0e89 bc3d 8677 6b3d
000002c0: cd92 a3bc f545 f2bb 1f52 8bbd b90a 753d
000002d0: 01b6 7d3d 6745 8bbd 5708 b73d 37c0 eb3d
000002e0: 2f0d 36bd 23ec e03d f197 203e fa13 50be
000002f0: e91e ddbd 7ae2 3b3d e318 04bd 348c 92bc
00000300: bcd2 0e3e 1965 a639 76be fc3d af73 453d
00000310: d1dc 063d cec7 c83c b561 adbc bf2b 8bbc
00000320: 345f cbbc 1f90 e23d 1974 93bd e00a 0bbb
00000330: 4627 9e3b 4ce6 413d 5181 aabd 764a efbc
00000340: fa66 b2bd 8449 b13c 87a3 c83c 3780 a9bd
00000350: 1186 f9bd 8e0d 82bc 4760 be3d 6803 0abe
00000360: 8926 073e d7dc a53d 7dea ae3d 29d9 523d
00000370: 9654 7dbd 0545 aebc d818 253d 7727 b2bc
00000380: b2eb 07bc 2cd7 73bd 10f7 82bd 769b 66bd
00000390: 782a d2bd 311c 3b3c 3175 91bc e05b d0bd
000003a0: daf9 10be 3d3b f4bc 2322 623d b7ae 303b
000003b0: 855b 2c3c 1144 adbd 0606 bbbd b19f 0bbd
000003c0: ee75 243d 3210 85bc b079 39bd 7e05 20be
000003d0: 579f 063e 3f95 f2bb 3f38 31bd 796a 00bd
000003e0: 9c3d 8fbd b3a4 c8bd aa8a 8fbd f8f2 063d
000003f0: 72ea dcbd 1f25 d93d d17d 913d 3899 9b3d

critic.2.bias f4 [64]
-0.10507445 -0.087258644 0.10364443 0.050264146 -0.07702568 -0.025129331 -0.019696021 -0.0020414835
0.15212661 -0.031540833 -0.11432005 0.028279243 -0.04820188 0.006795588 -0.120382674 -0.018603
-0.09082059 0.021912381 -0.06479748 0.04236896 -0.09440994 0.17109698 0.091638885 0.015616618
0.075399734 0.12217907 0.10736268 -0.063637696 0.0677177 0.015117646 0.11334223 -0.031006338
0.036179233 -0.08873396 0.035613406 0.016482102 -0.052244157 0.11126783 0.08768007 0.13880754
-0.038012564 0.04948804 -0.058063462 0.09606844 0.012385434 0.07664993 0.14323246 0.027928473
-0.05689455 0.118587315 -0.08581114 0.022713205 -0.008786519 0.030076772 0.09981774 -0.007012592
0.029264262 0.052533034 0.103071444 0.0921689 -0.07634707 0.019766614 -0.0805147 -0.03614574
00000000: 4631 d7bd a9b4 b2bd 8843 d43d c7e1 4d3d
00000010: a4bf 9dbd 07dc cdbc 8d59 a1bc 69ca 05bb
00000020: 14c7 1b3e f630 01bd a120 eabd dfa9 e73c
00000030: 566f 45bd 86ad de3b 318b f6bd 5265 98bc
00000040: 2500 babd 9881 b33c 8bb4 84bd 138b 2d3d
00000050: 005a c1bd 0c34 2f3e 2bad bb3d d8dc 7f3c
00000060: 2d6b 9a3d 0539 fa3d f7e0 db3d 7b54 82bd
00000070: 94af 8a3d 01b0 773c f91f e83d 0101 febc
00000080: ad30 143d 27ba b5bd 5ddf 113d 7905 873c
00000090: f8fd 55bd 63e0 e33d 9c91 b33d 9023 0e3e
000000a0: 10b3 1bbd f9b3 4a3d f4d3 6dbd 88bf c43d
000000b0: 46ec 4a3c a3fa 9c3d 88ab 123e 41ca e43c
000000c0: 420a 69bd e8dd f23d c0bd afbd 0b11 ba3c
000000d0: 55f5 0fbc 9063 f63c 3e6d cc3d e3c9 e5bb
000000e0: 9bbb ef3c e12c 573d 1f17 d33d 0cc3 bc3d
000000f0: da5b 9cbd 98ed a13c e4e4 a4bd 8e0d 14bd

critic.4.weight f4 [1, 64]
0.11841454 0.0123368 -0.059133735 -0.0057808654 0.004995253 0.0070325914 -0.009323496 -0.0014220927
-0.07077711 0.0063661844 0.01268205 0.0016295995 -0.007322564 -0.0014665638 -0.008477798 -0.004610603
0.007448366 0.010279076 -0.001914931 0.0053206524 -0.003182755 0.18486077 0.0053177634 0.26915103
-0.16262066 0.0059802625 -0.0064162235 0.006408388 0.063531384 -0.0023670264 -0.007463021 -0.008213236
-0.04377536 -0.005764077 0.00015847098 0.014402652 -0.0063836416 0.0032131 0.0766721 -0.06964445
0.011745554 0.008125097 -0.0044215186 0.008467358 0.0054433043 -0.15435183 0.21656115 -0.008083276
-0.005871918 -0.18504563 -0.007556596 -0.00030889973 -0.03524124 -0.08851148 -0.0044259075 -0.012834441
0.00538552 0.08396314 -0.075423375 -0.013923166 0.12877266 -0.008289171 -0.0051211785 0.0054377145
00000000: 5383 f23d 4a20 4a3c 3736 72bd 6a6d bdbb
00000010: 38af a33b a771 e63b 94c1 18bc 8365 baba
00000020: 97f3 90bd 6d9b d03b 5fc8 4f3c 4998 d53a
00000030: 1ef2 efbb b739 c0ba 76e6 0abc 8b14 97bb
00000040: 6c11 f43b 9269 283c 6cfe faba de58 ae3b
00000050: c595 50bb 244c 3d3e a240 ae3b 2ace 893e
00000060: 0886 26be 14f6 c33b 2f3f d2bb 74fd d13b
00000070: be1c 823d 1d20 1bbb 5c8c f4bb cf90 06bc
00000080: cb4d 33bd 95e0 bcbb 3b2b 2639 1af9 6b3c
00000090: de2d d1bb df92 523b 4306 9d3d c0a1 8ebd
000000a0: 6d70 403c 201f 053c 63e2 90bb acba 0a3c
000000b0: bf5d b23b 680e 1ebe 35c2 5d3e b86f 04bc
000000c0: 3869 c0bb 9a7c 3dbe 529d f7bb d2f3 a1b9
000000d0: 1e59 10bd 8245 b5bd 3407 91bb 8c47 52bc
000000e0: 0479 b03b def4 ab3d 9277 9abd fe1d 64bc
000000f0: fbdc 033e 4ecf 07bc 8fcf a7bb db2e b23b
