trained/SimplePong/PPO_frequent_1728722643.3311179.pth (torch, 42226 bytes, 11 tensors)

actor.0.weight f4 [64, 5]
000000 54 59 13 3f 54 21 c1 be f3 93 92 be 5e b2 dd be
       0.5755818 -0.3772074 -0.286285 -0.43300146
000010 3a ba ca 3e 1c 09 d4 3d 13 6a 21 be d7 c3 ab be
       0.39595205 0.103533 -0.1576312 -0.3354785
000020 13 64 f1 be 85 cd b8 be b5 61 84 be b3 38 b9 3e
       -0.47146663 -0.360943 -0.25855795 0.3617607
000030 cd 1e 67 be df a0 3d 3f f1 2e 65 3d d5 98 aa 3e
       -0.22570343 0.74073595 0.05595297 0.33319727
000040 8b b1 df be 3c 09 0e bd 47 f7 27 bd 74 ca bd 3e
       -0.43690142 -0.034676775 -0.041007306 0.37068522
000050 99 d1 0c bf e3 2e 26 3e bf 71 d4 3d be 41 91 3e
       -0.5500732 0.16228823 0.10373258 0.2837047
000060 14 22 d2 be 36 dd 5a 3e 08 99 8e be 70 74 02 be
       -0.41041625 0.21373448 -0.2785113 -0.1273973
000070 1d a4 83 be 80 f2 d4 3e 70 fc 6b 3e 74 1b eb be
       -0.25711146 0.41591263 0.23045516 -0.45919383
000080 ac 18 71 3e 11 0b 04 bf 45 65 3d 3e 8c 9d 66 3e
       0.23544568 -0.51579386 0.18495663 0.22521037
000090 85 ae b9 be d6 72 66 3d a2 62 1a bd d6 a5 a9 3c
       -0.3626596 0.05626186 -0.03769172 0.02070896
0000a0 a5 23 28 3d ac 3b 99 3e 70 04 54 3d eb 92 b1 3d
       0.04104962 0.2992834 0.051762044 0.086706005
0000b0 90 33 55 3d 55 57 00 3f f4 2c 0d bf 07 7a 67 3e
       0.052051127 0.5013326 -0.5514672 0.22605143
0000c0 f5 61 36 bf f6 fc a2 3e 3d d8 f2 3e 2f 2d 5e be
       -0.7124322 0.3183362 0.47430602 -0.21696924
0000d0 a7 95 5a 3e b3 58 7f be 97 51 0a 3e fa ac da 3e
       0.2134615 -0.2493618 0.13507687 0.42710096
0000e0 75 ec 2e be 65 d2 9c 3d e6 3c 0a bf 3e d5 b5 3e
       -0.17082389 0.07657317 -0.53999174 0.35514253
0000f0 ee c8 3a 3e 38 51 94 be 01 f8 0e 3e 74 bc d3 be
       0.18240711 -0.28968215 0.13961793 -0.41354716
000100 7c fc 7b be ae eb 92 3e a5 26 8e 3d 0d 66 16 3e
       -0.24608034 0.28695434 0.069409646 0.14687367
000110 f5 bf 68 be 5e a0 af be 05 de 66 be d6 cc 03 3f
       -0.22729476 -0.34302038 -0.22545631 0.5148443
000120 59 ec 95 be 8b d6 91 3e 8d ac 81 be f1 a4 82 3e
       -0.2928188 0.28483996 -0.25326958 0.25516465
000130 ed 45 de 3e f7 3b a6 3e ed 74 54 3e 66 e3 d3 bd
       0.43412724 0.32467625 0.20747729 -0.10346107
000140 4a fc 64 be ab 45 01 bf 5a 2a 13 3c 47 3d 1d be
       -0.22361866 -0.5049693 0.008982265 -0.15355407
000150 63 5f 32 bd 51 b3 95 3d 20 52 0a bf 14 a1 90 3e
       -0.043548 0.073095925 -0.5403156 0.28247893
000160 e5 ff 25 bf 51 3d e6 be 04 eb d0 3e 41 d8 44 be
       -0.6484359 -0.44968656 0.40804303 -0.1922312
000170 73 70 0c 3e 72 bc a1 bc ce 5f 70 3e 03 05 a6 3c
       0.13714771 -0.019743178 0.23474047 0.020266062
000180 23 77 c3 3e b0 3e 8e be 48 ad c9 3e 71 7d 8c be
       0.38176832 -0.27782202 0.39390016 -0.27439454
000190 11 ec c8 3e ce a1 60 be 37 e8 80 be 91 a2 eb be
       0.39242604 -0.21936724 -0.25177166 -0.46022466
0001a0 90 53 7c be 87 46 f6 3e fd 9f 35 3d 3f e5 22 3c
       -0.24641252 0.48100683 0.04434203 0.009942352
0001b0 d4 3f c5 be 08 06 9e be ca 97 1f 3c dd 91 b1 3e
       -0.3852526 -0.30863976 0.009740779 0.34681597
0001c0 1f 76 cf be 34 ce dc bd 92 89 3d 3e 85 9a 7a be
       -0.40519807 -0.107815176 0.1850951 -0.24473007
0001d0 e4 b8 fb 3d be 48 9b 3d ad 46 82 bd ac 7f 39 3e
       0.122911245 0.07582234 -0.063611366 0.18115109
0001e0 35 f2 e2 3e e4 66 b6 be 6c 69 1d bd 31 42 09 bf
       0.44325414 -0.35625374 -0.038430616 -0.53616625
0001f0 62 43 9e bd 9a ef 36 bd 3d 19 a1 3d fb 4d e7 3c
       -0.07727696 -0.044662096 0.07866142 0.028235426
000200 2f 4e cd 3e d2 0a a6 3e 92 a1 e8 3e f0 98 39 be
       0.40098712 0.3243013 0.45435768 -0.18124747
000210 1a 3a 01 bf 67 23 b9 be 07 0e a3 3d 5b 35 e4 3e
       -0.5047928 -0.36159822 0.0796166 0.44571957
000220 0c 41 ac bd 79 89 91 bd 42 4a d4 be 88 31 57 bd
       -0.08410844 -0.07106299 -0.41462904 -0.05253747
000230 c6 9f 50 3e ad 2c d8 be 80 ec f8 3c be 4a 25 be
       0.20373449 -0.42221585 0.03038621 -0.16141793
000240 6b 14 a1 3e fe be a0 3c c1 4c 00 be 0d 7c 01 3c
       0.3146089 0.019622322 -0.1252928 0.007903111
000250 d9 e7 0c bf a8 9f f0 b9 dd 63 19 3e a0 9e 3d 3e
       -0.5504127 -0.0004589532 0.14979501 0.18517542
000260 fc cd 14 3e 38 f8 15 3f d5 09 96 3e 4f 04 f1 3e
       0.14531702 0.58581877 0.29304376 0.470736
000270 1e 3a 57 bd e6 69 d2 3b 93 34 9f bd 5f 0a db 3e
       -0.05254566 0.0064213155 -0.077736996 0.4278135
000280 e5 8b 84 3e b5 94 d8 be 65 f8 d7 3e 22 11 a2 be
       0.2588798 -0.42300954 0.42181697 -0.31653696
000290 23 28 f5 bd 9b 5d 43 be 72 79 bd 3e a3 ed 2d 3e
       -0.11970546 -0.19078676 0.37006718 0.16985182
0002a0 63 7e 16 3f d8 bd 49 bd 42 37 af 3e 32 a5 04 3e
       0.587866 -0.049253315 0.34221846 0.12953642
0002b0 62 77 4f 3e c7 c7 09 3c 58 5a 82 3e 8a fe ab 3e
       0.20260385 0.008409447 0.25459552 0.33592635
0002c0 af 79 7a bc 04 cd 9f 3c 1d 4e 52 be 8f 10 36 be
       -0.015287801 0.019506939 -0.2053761 -0.17779754
0002d0 1a 10 8f 3e a3 37 8a be b5 56 97 3e f5 00 16 bf
       0.27941972 -0.26995572 0.2955834 -0.5859521
0002e0 05 ed 9f 3e 59 59 0d 3c d2 c2 cd 3e 82 dc bf 3e
       0.3123552 0.008627259 0.401877 0.37472922
0002f0 1a 87 14 3f f4 bb 38 3e b4 27 ef bc 51 7d 72 3e
       0.5801865 0.18040448 -0.029193737 0.23680617
000300 72 ff 68 bd f7 76 06 3f 45 5e f0 3e 97 59 f4 3e
       -0.056884237 0.52525276 0.46946922 0.47724602
000310 0b 70 0d bf f2 a5 16 3e aa dc ec 3d 5e 9d 79 3d
       -0.5524909 0.1471174 0.11565526 0.060941093
000320 a7 5b 98 3e 34 f8 8a 3d a9 67 90 3e c8 fa f4 be
       0.29757425 0.06785622 0.28204086 -0.4784758
000330 67 98 fb be 1c 09 b5 be 38 ec 00 3f db d6 25 3e
       -0.4913971 -0.35358512 0.5036044 0.16195242
000340 0b a4 00 3f e2 22 54 be 43 f4 bf 3c 2d 34 4a be
       0.5025031 -0.20716432 0.023431903 -0.19746466
000350 c0 89 d0 3d f1 6f 8a be e8 8f 6a 3e 07 20 ad be
       0.10182524 -0.2703853 0.22906458 -0.33813497
000360 82 66 95 3e 03 3c 23 3d 66 dd 3f 3f 78 8a 22 3e
       0.2917977 0.039852154 0.749472 0.15873134
000370 9b 8f 09 3e db b5 8b 3d 1c 73 15 3e a0 0d 11 3e
       0.13433687 0.068217956 0.14594692 0.14165354
000380 1b 69 7f 3e 6b e2 ea be 99 8e b9 3d 4d 07 91 3e
       0.24942438 -0.45875868 0.090604015 0.28325883
000390 3c 69 1b be 08 8c 8a bd d5 d6 bd 3e 0f e6 ae be
       -0.15176862 -0.0676499 0.37077966 -0.34159896
0003a0 f8 0d 8e 3e 7d e2 b4 be 8a d1 d7 be 7c aa cc bc
       0.27745032 -0.35329047 -0.42152053 -0.024983637
0003b0 2d a0 a6 bd cd 7f 89 3e 0b 07 12 bf e0 19 90 be
       -0.0813602 0.26855317 -0.57041997 -0.2814474
0003c0 d4 35 74 be f1 06 c2 be 2d dc 73 3e 77 06 90 be
       -0.23848659 -0.3789592 0.23814459 -0.28129932
0003d0 53 af b0 3d 2a d9 6b be 63 be 89 3e a9 f7 44 be
       0.086271904 -0.2303206 0.26903066 -0.192351
0003e0 e9 9f 0f 3f e5 a3 bd be fa 91 d7 3e 71 fe f3 be
       0.5610338 -0.37039104 0.4210356 -0.4765506
0003f0 27 64 58 be b4 7f 01 3e eb e8 05 be d2 16 a6 be
       -0.21131955 0.12646371 -0.13077132 -0.32439286

actor.0.bias f4 [64]
000000 2a cc 09 be a6 4a f3 3c f8 82 12 3e 73 bd 26 be
       -0.13456789 0.029698681 0.14307773 -0.16283207
000010 6a 1b 18 3e f8 2c 88 be a8 a4 8e be 61 44 ab 3e
       0.14854208 -0.26596808 -0.27859998 0.33450606
000020 ef ea 12 be 29 03 88 be 6f ce c3 be 73 51 93 3e
       -0.14347433 -0.2656491 -0.38243434 0.28773078
000030 72 72 b8 3e 05 6c e4 bd cf c4 87 bd ab 23 89 3e
       0.36024815 -0.111534156 -0.06629335 0.26785025
000040 bb 53 83 3e 74 d9 ce 3e 87 b7 50 be 36 2a 81 be
       0.2564982 0.4040028 -0.2038251 -0.25227517
000050 2e c9 0b be ef 40 a5 be ff d2 04 be fe af 0f bc
       -0.13650963 -0.32276103 -0.12971114 -0.008769987
000060 b9 db 57 3d aa 0b 8d bd cc b0 a7 3e af 10 af be
       0.05269978 -0.0688699 0.32752073 -0.34192416
000070 0f e9 ae 3e aa 63 2b be e7 a6 c9 bd da d3 1c be
       0.34162185 -0.16737238 -0.09846287 -0.1531519
000080 31 8d ac be f6 58 90 be da ed 33 be 6d 38 88 3c
       -0.3370147 -0.28192872 -0.17571202 0.016628468
000090 3b 26 bb 3e 5a bc 3c be 63 38 b0 be ad f9 f8 3d
       0.36552605 -0.18431225 -0.3441802 0.12156997
0000a0 6c 60 a4 3d 98 66 54 be 81 04 9d 3e ad 5d 1a 3e
       0.080262035 -0.20742261 0.306675 0.15074797
0000b0 58 21 bc 3e ef 22 56 be 34 dc 55 3e 0d b2 3f 3e
       0.3674419 -0.20911764 0.20884782 0.18720265
0000c0 50 7b a1 3e 4f 11 83 3d c0 a8 58 3a f1 fa 10 3e
       0.31539392 0.06399786 0.0008264892 0.14158227
0000d0 36 96 87 be 15 c6 d6 3d 76 2b 17 be ce 68 0b be
       -0.2648179 0.10487 -0.14762673 -0.13614199
0000e0 0b c6 45 3e 5a f2 d0 3e f7 e2 1e 3e 50 8b b0 3e
       0.19313829 0.408099 0.15516268 0.34481287
0000f0 cb 92 b4 3e 04 77 de 3c 52 61 91 be 53 da a6 3e
       0.35268244 0.02715636 -0.28394562 0.32588443

actor.2.weight f4 [64, 64]
000000 dd 08 3b be d0 cb 72 be f1 0a e3 3c 54 f0 c4 bd
       -0.182651 -0.23710561 0.027715178 -0.096161515
000010 1a 42 14 3e 75 cb 0f bd 07 9d ed bc 29 2a 24 bd
       0.1447834 -0.03510614 -0.02900554 -0.04007927
000020 8a b5 83 3d 68 0f 72 be cf d9 77 bc 64 e7 38 bd
       0.0643111 -0.2363869 -0.015127613 -0.045142546
000030 5e dc 48 3c 8b f1 f5 3c 81 e6 5d 3d 52 fa 43 3e
       0.012259571 0.030022403 0.054174904 0.19138458
000040 77 58 a3 3d c4 14 a1 3c 38 1a bf bd d8 33 95 bd
       0.07975858 0.019663222 -0.09331173 -0.07285279
000050 88 e9 98 bd 82 c5 75 bd 50 21 97 bd b7 bd ed 3d
       -0.074664176 -0.06000281 -0.07379401 0.11608451
000060 d4 f1 46 be 1b da 65 3d f4 e7 9d bd 2c f4 51 be
       -0.19428188 0.056116205 -0.07710257 -0.205033
000070 c2 83 95 bd 91 fd ec 3c c8 c9 96 3b 06 b3 c9 bd
       -0.073005214 0.028929504 0.004601691 -0.09848599
000080 ee b5 1e be c9 8a 44 3e 75 78 78 bd 57 d7 22 bd
       -0.15499088 0.19193567 -0.06066175 -0.039756145
000090 94 e3 36 3d f1 37 40 3e dd b1 b5 bd 3a 34 0d 3c
       0.04465063 0.1877134 -0.08871815 0.008618409
0000a0 35 0c 07 3d 8c 5d be 3d ab c8 39 3d 21 1b 44 3e
       0.032970626 0.092951864 0.045357388 0.19150974
0000b0 69 8f d5 3d 99 a4 9b 3d 50 80 1c 3e 33 c6 e9 3d
       0.10427744 0.07599754 0.15283322 0.114147566
0000c0 dc 4f 00 3d e2 82 c7 bc b4 87 86 bd 17 d4 62 bb
       0.03132616 -0.024354402 -0.06568852 -0.0034611279
0000d0 43 a1 80 3d 3e 9b 99 bd f2 b9 bf 3d c6 77 14 be
       0.06280758 -0.07500313 0.09361638 -0.14498815
0000e0 2f c6 ff 3c 5e 00 28 be b2 2b 75 be 01 c5 e9 3d
       0.031222431 -0.1640639 -0.2394245 0.11414529
0000f0 53 5b da bc 40 19 9b 3d 53 84 2d be 75 ce fe 3d
       -0.026654875 0.075731754 -0.16945009 0.12441722
000100 8e 09 85 be ba c5 69 be 8f e2 81 3e af a4 55 bd
       -0.25983852 -0.22829333 0.25368163 -0.052159008
000110 d2 dd 9e 3e 4a 57 32 3d 6f 67 9c bb b1 ad 6a 3d
       0.3102861 0.043540277 -0.0047730724 0.05729455
000120 52 09 a2 bb 1d ba 5f be 26 db 30 be b3 e5 47 3c
       -0.0049449587 -0.2184834 -0.17271098 0.012200761
000130 15 88 1c 3c 53 73 b4 3c 4d 53 d9 3d a4 13 f2 3d
       0.009553929 0.022027647 0.106115915 0.118201524
000140 95 c3 9a 3c 04 84 41 3d 73 dc 84 bd 20 37 dc bd
       0.018892089 0.04724504 -0.0648736 -0.10752702
000150 3e 1a 3e be 19 2b 1e be ec f2 17 be 97 a5 1f 3e
       -0.18564698 -0.15446128 -0.14838761 0.15590511
000160 ff 3e c8 be 2d 42 82 3d 05 57 bc bb 87 35 89 bd
       -0.39110562 0.06360278 -0.005747678 -0.06699663
000170 6d 17 db bd 95 6d 53 bd 08 43 25 3d 58 8c 39 be
       -0.106978275 -0.051618177 0.04034713 -0.18119943
000180 64 b5 36 bd 24 e2 55 3e 5d c4 07 bd d4 52 ae bd
       -0.04460658 0.20887047 -0.03314625 -0.08511892
000190 cf a5 a0 3d 30 a7 a7 3d f5 ca d9 3b c8 41 23 bd
       0.078441255 0.08186185 0.006646509 -0.039857656
0001a0 2a f4 60 bc b1 20 82 3e 2e c0 6d 3d f6 c8 be 3d
       -0.013730088 0.25415567 0.058044605 0.09315674
0001b0 c9 4a 98 3d 7d cc e2 3d 4f 50 a9 3d 81 ad 7b 3d
       0.07436139 0.11074159 0.08267271 0.061444763
0001c0 fc fd a0 3d 51 92 78 3e af 2f 90 bd d6 b2 a1 3d
       0.07860944 0.24274565 -0.07040345 0.078954384
0001d0 69 0d 18 be c7 e7 fd bc db 7a 48 3e 10 34 13 bd
       -0.14848866 -0.03099431 0.19578116 -0.035938323
0001e0 6d 61 60 3e 3c 43 82 be 0a 25 8f be 06 fe bf 3d
       0.21912165 -0.2544192 -0.27957946 0.09374623
0001f0 b7 2d 94 bb d6 ff a8 3e b7 bf cc bd 5f b3 bf bd
       -0.004522051 0.33007687 -0.09997504 -0.09360384
000200 40 b0 9c be c4 60 92 bd 46 bb 3a 3e fd 8c c5 bd
       -0.30603218 -0.07147363 0.18235502 -0.09646032
000210 ad 2b 0f 3e 4a 29 ac bd 1c 02 09 be fa c2 e8 bd
       0.13981505 -0.08406313 -0.13379711 -0.11365314
000220 37 50 dc 3d 21 b2 9b be 96 8f 64 bd 42 1b d3 bd
       0.10757487 -0.3040934 -0.055800997 -0.103079334
000230 fe 14 c2 bd 6d 5d 83 3d af 4a 4b 3e 68 51 05 3e
       -0.0947666 0.06414304 0.19852708 0.13019335
000240 88 94 10 3d 38 5c 0d be d9 a0 70 be eb 43 07 bd
       0.0352979 -0.1380471 -0.23498859 -0.033023756
000250 76 ad 29 be 4a 5c 3b be d7 16 85 bd df a1 ad 3d
       -0.16570076 -0.18296924 -0.06498497 0.0847814
000260 5d 31 ba be 13 81 f9 3d e5 ff 8c bd 25 97 4e be
       -0.36365786 0.12182822 -0.068847455 -0.20174845
000270 12 32 26 be 14 75 e9 bd 01 31 36 3d 2a 98 5c be
       -0.16230038 -0.11399284 0.044480328 -0.21542421
000280 33 3a 02 be e4 a7 15 3e 2c 58 a4 3d bc 32 a3 3d
       -0.12717514 0.14614826 0.0802463 0.07968661
000290 76 e3 5a bd 58 d4 d8 3d 6d 53 4e 3b 90 f0 4d be
       -0.05343958 0.10587376 0.003148283 -0.20111299
0002a0 cf c6 b0 3c e2 49 f6 3e c7 13 c6 bd f0 e3 48 3e
       0.021579174 0.48103243 -0.09671741 0.19618201
0002b0 81 ac 3e bd b0 0a 63 3c 39 d4 f6 bd 7e 84 80 bc
       -0.04655123 0.013857529 -0.12052197 -0.015688177
0002c0 0d ea cd 3b c3 11 33 3e a1 b7 76 be 11 c3 1b 3d
       0.0062840045 0.17487244 -0.24093486 0.038027827
0002d0 e1 fa 1a be f1 52 81 bd 58 1f a3 3e 66 f7 ad 3d
       -0.15134765 -0.06314648 0.3185985 0.08494453
0002e0 83 a1 3d 3e 26 6b ab bd cf 88 ce be d9 ff 06 bd
       0.18518643 -0.08370046 -0.40338752 -0.03295884
0002f0 76 16 19 b8 a4 1b ff 3d 32 a7 5b 3d b4 05 4d 3d
       -3.649896e-05 0.12456444 0.053626247 0.050054267
000300 28 c8 e4 3d e6 09 3d 3e 61 0b 03 be 37 19 21 3d
       0.11170989 0.18460807 -0.1279731 0.039330687
000310 c7 8b b1 be cc 4d ba 3c 99 c9 36 3e e2 c7 63 bd
       -0.34676954 0.022742175 0.17850341 -0.055610545
000320 b6 ef 84 bd b9 13 63 3e 8d 03 06 3e d6 c6 2e bb
       -0.06491034 0.22175492 0.13087292 -0.0026668808
000330 21 93 b6 bd 12 02 f0 3d 9e 46 44 be 3a 49 be bd
       -0.08914781 0.11719145 -0.19167563 -0.092913106
000340 d7 60 3a bd 28 36 8a 3d 3c 61 1d 3e ff 55 1a bd
       -0.04550251 0.06748611 0.15369123 -0.03767967
000350 55 8e 12 3e 92 0d 8a 3c 96 32 ca 3d 0c 6d 1b be
       0.14312108 0.016852174 0.0987293 -0.15178317
000360 e2 5d d2 3e 1d 45 ef bc fb 39 f3 3d 80 1e ca 3d
       0.41087252 -0.02920776 0.11876293 0.09869099
000370 75 f7 40 3e 85 13 ee b9 3e 91 52 bd 76 15 6b 3d
       0.18844397 -0.0004540944 -0.051408045 0.057393514
000380 27 91 5a 3d 12 40 56 be 2a 3f 89 3d 21 ba 99 bd
       0.053361084 -0.20922878 0.06701501 -0.075062044
000390 36 d9 b2 3c a9 2b 33 be 67 9b 62 3c 4c a9 d8 3d
       0.02183209 -0.17497124 0.013830996 0.10579166
0003a0 a5 d0 6d bc e5 0c dc be 6f dd dc 3c a6 cd 74 bd
       -0.014515077 -0.42978588 0.026961057 -0.059766434
0003b0 01 4e a2 3d 59 b2 ff 3c ce 80 14 3e 67 67 88 bd
       0.07925034 0.031212972 0.1450226 -0.066603474
0003c0 ff c3 f6 3c b9 b2 8d be 51 c6 8e 3e e5 e1 03 bd
       0.030122755 -0.27675417 0.27885678 -0.03219785
0003d0 5e e5 a4 3d de 7d aa 3d bc 30 b9 be bb 60 55 bd
       0.08051561 0.083247885 -0.36169994 -0.052094202
0003e0 47 67 83 be 47 22 64 3e 0b 3c e8 3e a8 17 40 3d
       -0.25664732 0.22278701 0.4535831 0.04689756
0003f0 14 5e f0 3d 16 d8 1b be 7d 7a 8c bd a1 c2 2d 3d
       0.11736694 -0.15219149 -0.068593 0.04242194

actor.2.bias f4 [64]
000000 21 da 19 3d 88 4e 99 bd 11 6c 83 3d 76 e5 ca 3b
       0.03756154 -0.07485682 0.064170964 0.0061919047
000010 eb b4 90 3c a1 ae b3 38 dc 24 47 be e5 a7 1e 3d
       0.017664393 8.567912e-05 -0.19447654 0.038734335
000020 24 37 1b 3e 55 37 9b 3b 44 39 9b 3d 4c c2 3f 3d
       0.15157753 0.0047368207 0.07579282 0.046816155
000030 d4 39 64 bc ef 96 4a 3d 32 dd a4 bd 4e 5b ea 3d
       -0.013929803 0.049460348 -0.08050002 0.11443196
000040 b9 91 a1 bd f1 b7 51 3d b4 bc 16 be 0d 44 fc bd
       -0.078891225 0.05120081 -0.14720422 -0.12317667
000050 7d 6e 54 bd 5e 3d c6 bc ca a5 7d bd d9 00 98 bd
       -0.051863182 -0.024199184 -0.061925687 -0.07422037
000060 5f 18 75 bd df 95 ab bb 3b 6a 2d be 83 56 97 3d
       -0.059837695 -0.005236372 -0.16935055 0.07389548
000070 b5 9d a1 ba 02 f0 b6 3d b1 8f 91 3c f3 da 23 bd
       -0.0012330326 0.089324966 0.017768713 -0.040003728
000080 c7 8c 09 3e 46 9f cd bc 43 41 b8 3d a7 e4 bd bd
       0.13432609 -0.025100362 0.08996823 -0.092721276
000090 b3 04 a0 3c 60 2b a4 3d f4 0f e4 3d da 74 cc 3d
       0.01953349 0.080160856 0.11135855 0.09983225
0000a0 37 fa 97 bd ca 0f 00 3e 23 7e 44 bd ce 83 06 3e
       -0.074207716 0.12506023 -0.047971856 0.13136217
0000b0 53 0a 85 3c 0b d8 07 3c a8 e5 8d 3d ff bd 31 3e
       0.016240275 0.008291255 0.06928569 0.17357634
0000c0 e6 da b3 bd 58 46 19 3d 87 6f b5 3d 4f ad d1 3d
       -0.08781986 0.0374206 0.08859163 0.10238134
0000d0 39 7e 4c bd a8 b7 1b 3d 4b 93 f9 bd 84 7e 4f bd
       -0.049925063 0.038016945 -0.12186297 -0.050657764
0000e0 e8 0c a0 bc 80 65 d5 bd 4f 47 da bd 7d 05 c4 bd
       -0.019537404 -0.1041975 -0.10658132 -0.09571359
0000f0 a6 8b 9e 3c f6 7a 79 bc 4c 3c d7 bd 08 cf 3b 3e
       0.019353699 -0.01522707 -0.105095476 0.18340695

actor.4.weight f4 [3, 64]
000000 b5 07 ba bd d7 a4 8d be 2a 11 e6 be 10 5e b5 3e
       -0.09083501 -0.27664825 -0.4493497 0.35423326
000010 69 15 b1 be 7d 85 d8 be e9 8a b8 3c b9 01 1d bc
       -0.34586647 -0.42289343 0.022527175 -0.00958293
000020 f4 27 03 3e 09 85 0c 3f 60 f6 09 bf 47 9c 83 be
       0.1280821 0.54890496 -0.53891563 -0.25705168
000030 5e 71 ab be 6d 73 c9 be 0f 09 c2 be ef 53 ab 3e
       -0.3348493 -0.39345875 -0.37897536 0.33462474
000040 3b e0 a7 3e 7d 7d 28 3f 08 20 ed be 5d df 30 be
       0.32788262 0.6581648 -0.463135 -0.17272706
000050 a3 08 94 bd f0 59 ff bd 62 a7 b1 3e 42 08 0c 3f
       -0.0722821 -0.12468326 0.34698015 0.547001
000060 ab ce 75 bd 6d 6a 8e 3e 14 02 5b 3d 19 32 fc 3e
       -0.060011547 0.2781557 0.05346878 0.4925697
000070 cf 54 0c bf 9d 95 89 bb 0f e8 06 bf 4d 13 08 be
       -0.5481691 -0.0041987435 -0.52697843 -0.13288613
000080 52 9a c2 3e c7 56 d5 3e 82 07 05 3f c8 1f e3 3e
       0.38008362 0.41667768 0.5196458 0.44360185
000090 29 23 10 3f aa e3 75 be 37 b4 c9 3e 73 0f 45 3d
       0.5630365 -0.24012628 0.39395306 0.048110437
0000a0 14 ed 03 bf db 3e 97 3e 8d 39 17 3f e5 97 5d bd
       -0.5153363 0.29540142 0.5907219 -0.054099936
0000b0 06 fc 8a 3e e5 98 ba 3e 61 53 8f be 21 92 d7 3d
       0.27145404 0.36444774 -0.279933 0.10525919
0000c0 21 b5 27 be 09 2e 7a bd bf 09 dd be 3a b6 50 bc
       -0.16377689 -0.06107906 -0.43171498 -0.012738759
0000d0 2e 96 54 be 72 d5 af 3e ea 42 e6 be 33 0e e1 be
       -0.20760414 0.34342533 -0.44972926 -0.43956146
0000e0 2a c6 88 be 4c 15 b1 3d d6 de 08 3f 68 4f c4 3c
       -0.26713687 0.0864664 0.5346502 0.023963645
0000f0 a7 f1 f4 3e 57 1d bd be 14 b2 96 be 17 08 91 bd
       0.47840616 -0.36936447 -0.29432738 -0.07081621
000100 b6 e7 0c 3e a6 f2 ef 3d 15 3b d7 3c b1 d1 11 bd
       0.13760266 0.117162034 0.02627329 -0.035600368
000110 17 dd b3 bb 84 c1 a5 bd dc 3c 27 be c2 d3 1c be
       -0.0054890024 -0.08093551 -0.1633181 -0.15315154
000120 ab 25 2a 3e 8c ef 7f bc 8f b9 e3 3d 0e d9 b6 bd
       0.16615932 -0.015621077 0.11119377 -0.08928119
000130 fc 91 7b bd 20 09 c5 bc 8b 57 0b 3c 6f cb 30 bd
       -0.06141852 -0.024052203 0.008504759 -0.04316276
000140 78 e9 e6 bd 67 66 5b 3d 95 f1 62 bd 8d ee 44 be
       -0.112749994 0.053564455 -0.05540617 -0.19231625
000150 0b 57 25 3e d1 5e 27 be 45 9c db bd cc 7f 61 bd
       0.16146486 -0.16344763 -0.107231654 -0.055053517
000160 d2 07 0e 3c 43 f1 04 3e a3 78 39 be 28 56 dd bd
       0.008668857 0.12982659 -0.18112426 -0.108074486
000170 97 91 0d 3d 25 1e 88 3d 27 32 e5 3d 1c aa 16 be
       0.034562673 0.066463746 0.111912064 -0.14713329
000180 a0 3c 97 3d 44 79 35 bc e3 d9 e5 bd 4f 34 8e bd
       0.0738461 -0.011076275 -0.11223199 -0.06943571
000190 53 b8 a2 bd 25 49 13 be 37 67 ae 3d 02 f1 26 3e
       -0.07945313 -0.14383371 0.085157804 0.16302875
0001a0 2c c6 11 3d 5c 2d 55 bd 5d 73 13 bd a0 ee 0b 3c
       0.035589382 -0.05204521 -0.03599869 0.008540779
0001b0 21 41 43 3d 22 a8 d5 bd 7c 85 0e 3e e5 19 14 3e
       0.047669534 -0.104324594 0.13918108 0.14463003
0001c0 94 a6 7d bb 32 15 c8 3d 29 8d 3e bd c7 81 be 3d
       -0.0038704025 0.09769668 -0.04652134 0.09302097
0001d0 89 14 c2 bc 85 4f 4e 3d 9e 7c 8a bc 81 ed fe bd
       -0.023691433 0.050368804 -0.016905125 -0.12447644
0001e0 ef d5 0b 3e b1 4f 08 be db 37 cd bd 15 98 0f be
       0.13655828 -0.1331165 -0.10020419 -0.14022858
0001f0 bf 50 ea 3c 9a 28 97 3d 86 ad 89 bd 5c 32 7e 3d
       0.028602956 0.07380791 -0.0672255 0.062059745
000200 da a9 72 3d fa 1c d4 3d 54 4b 82 3e 35 6b bf be
       0.059244014 0.10357089 0.25448096 -0.3738648
000210 94 9c 07 3f ef 02 02 3f 84 06 9a 3c f1 14 85 3e
       0.52973294 0.50785726 0.018801935 0.2599254
000220 2f d1 70 be a3 2b ce be c4 81 93 3e 45 ee 16 3e
       -0.23517297 -0.40267667 0.2880994 0.1473933
000230 c7 c0 6c 3e 95 6d b1 3d e8 d0 00 3f 7a 58 a9 be
       0.23120414 0.08663479 0.50318766 -0.33075315
000240 88 2a 2c be 73 fe fc be 97 ff 00 3f 0f 0a ee 3e
       -0.168131 -0.4941288 0.5039 0.4649205
000250 bc c0 5d be 5d 96 63 3e b0 61 6f be db 80 c2 be
       -0.21655554 0.22225328 -0.23377109 -0.37988934
000260 20 ec e2 3e ed 5a ad be c1 fc 52 3e d4 d1 0b bf
       0.44320774 -0.33858433 0.2060423 -0.5461705
000270 7a 5e f6 3e a4 bc 7b be a2 23 9c 3e 38 20 97 3e
       0.48118955 -0.2458368 0.30495936 0.29516768
000280 bb fc f3 be 34 26 c7 be 45 8a 9b be a1 fc f9 bd
       -0.47653756 -0.38896334 -0.3037893 -0.12206388
000290 09 0c 87 be 32 fa d6 3e 90 f5 20 bf 00 d8 06 be
       -0.2637637 0.4198776 -0.628747 -0.13168335
0002a0 11 f7 fc 3e 7f a5 8c be e4 34 09 bf c9 db 70 be
       0.49407247 -0.27470013 -0.5359633 -0.23521341
0002b0 68 5b 0c bf fc 32 82 be e0 da 2e 3e f1 22 9d be
       -0.54826975 -0.25429523 0.17075682 -0.3069072
0002c0 6f c9 0f 3f a4 8a 0f be 12 a0 05 3f b6 b4 44 bc
       0.5616674 -0.14017731 0.5219737 -0.0120059755
0002d0 5e 7d 17 3f 3f b4 fb be 62 ca 05 3f 44 8f 10 3f
       0.5917567 -0.49160954 0.52261937 0.56468606
0002e0 d7 7d 55 3e 9f 41 e9 3d 2a 0e bc be ec 77 f0 3d
       0.20848785 0.11389469 -0.36729556 0.11741623
0002f0 17 5b b3 be cd 55 de 3e 79 12 e4 3e 38 ba 85 be
       -0.35030434 0.43424836 0.44545344 -0.26118636

actor.4.bias f4 [3]
000000 be 0c c0 3c 39 86 4c bd 60 89 53 bd
       0.023443576 -0.049932692 -0.051644683

critic.0.weight f4 [64, 5]
000000 f4 42 9c 3e c4 5c 7e 3e 6d 74 fe bd 02 08 b6 3e
       0.3051983 0.24840075 -0.1242455 0.35552984
000010 51 18 20 bf cb 84 82 be 02 b8 58 be 3f 15 1e 3e
       -0.62537104 -0.25491938 -0.21163943 0.15437792
000020 95 a6 69 bd b2 96 6b 3e ae 6d 7c 3e 95 99 9d 3e
       -0.05704363 0.23006704 0.24651214 0.30781236
000030 54 62 e6 3e 8d f8 93 3e e5 62 32 bf 8d 40 4b be
       0.44996893 0.28900567 -0.6968215 -0.19848843
000040 61 b4 21 3d 5d aa d8 bd 2c 3f cb 3d f5 ef af 3e
       0.039478663 -0.10579369 0.099241585 0.3436276
000050 30 b8 29 be 6c a4 51 be 40 51 a1 be 20 b5 94 bd
       -0.16574168 -0.20472878 -0.315073 -0.07261109
000060 7b ed 69 be c3 33 61 3e b3 30 d8 bd 56 45 d1 bd
       -0.22844498 0.21992402 -0.10556164 -0.10218303
000070 12 5d a9 be 74 44 02 c0 40 2f 01 bd f2 50 72 bd
       -0.3307882 -2.035428 -0.0315392 -0.059159227
000080 25 a6 d5 3e f9 78 9d bd 40 f2 8b 3f fc f0 8c 3c
       0.4172832 -0.07689089 1.0933304 0.017204754
000090 74 4c a0 be f9 3b e6 bd 66 4a 8f 3e bc fb bf be
       -0.3130833 -0.112419076 0.2798645 -0.37496746
0000a0 43 fd 1d bd 01 76 b7 bd 5d 9a 47 3e 03 f7 4a be
       -0.038571607 -0.08958054 0.19492479 -0.1982079
0000b0 c4 e1 0c 40 56 6a 57 be 9e b0 e4 3d e8 ab ed be
       2.2012796 -0.21036658 0.111664996 -0.46420217
0000c0 77 e4 3b 3e f1 16 3d 3f 12 a4 84 be e1 74 f1 3c
       0.18348871 0.7386313 -0.25906426 0.029474678
0000d0 62 fc 28 3e ae a6 6b 3e c6 c6 dc be 0e 4e 05 bd
       0.16502526 0.23012802 -0.43120402 -0.032545142
0000e0 25 1f 1f 3e 76 4b dc be f0 cb 83 bd 08 45 8f 3f
       0.15539224 -0.43026322 -0.06435382 1.1192942
0000f0 26 01 77 3d 42 98 82 bc 77 32 91 3e aa 45 07 3e
       0.06030383 -0.015941743 0.28358814 0.13210168
000100 be ca a0 3f f0 42 bb 3e b5 b9 74 be 96 b6 84 3e
       1.2561872 0.36574507 -0.23898967 0.25920552
000110 7e 9f 07 3e 37 f5 3f 3e 29 39 1a be dd 74 83 3e
       0.13244435 0.18745886 -0.15060867 0.25675097
000120 33 bd ed bd 57 ea b3 3e d1 18 ce bf 9e 65 ba 3e
       -0.116083525 0.35139725 -1.6101323 0.36405653
000130 43 21 43 be b4 68 e0 bd 57 cc 2f be 35 2b ab bf
       -0.19055657 -0.109574705 -0.17167793 -1.3372561
000140 c3 7f cd 3e 73 2e 4b 3e cc 21 d3 3e 6d f4 d4 bd
       0.40136537 0.19841938 0.41236722 -0.10398183
000150 7f 44 46 3e b2 d6 53 bc cc 56 c5 3d 9a e1 d5 bd
       0.19362067 -0.012929605 0.09635696 -0.10443421
000160 79 3b 93 3c 41 df d4 3e ff 2b c5 3e 56 1b 1c bc
       0.017972695 0.4157658 0.3851013 -0.009528002
000170 ca f5 7b 3e 0c b6 25 3e 5c b9 21 3f f5 6d b6 3d
       0.2460548 0.16182727 0.6317346 0.089076914
000180 7f d7 cc bd 34 6e fb 3b 15 7f b4 be fb ca a1 3f
       -0.1000204 0.0076730493 -0.35253206 1.264007
000190 80 39 0b be f0 dc 96 3e ca af a1 be 13 b3 a3 bd
       -0.13596153 0.29465437 -0.3157943 -0.0799314
0001a0 18 f7 29 bf e6 89 9d 3d 21 5f 37 bc df 87 1f bd
       -0.6639266 0.07692318 -0.011192114 -0.038947936
0001b0 eb 70 f3 3d 20 38 2e bf f5 75 79 bd 9d eb 0c 3e
       0.11886772 -0.6805439 -0.06090351 0.13761754
0001c0 41 eb 62 3e c0 84 5b be e8 a5 28 3f 7e ef 48 3e
       0.22160055 -0.21437359 0.6587815 0.19622609
0001d0 c7 6d 03 3e 6d 53 79 bd cb e8 b9 be f1 31 d9 3e
       0.12834845 -0.060870577 -0.3631042 0.42420915
0001e0 2b 8b b2 3d d3 59 14 be a9 a5 0b 3d a3 c9 cb 3e
       0.087179504 -0.1448739 0.034093533 0.39802274
0001f0 6b 1f 8c 3f dd 13 d7 3d c9 c8 f0 3d 22 23 ce 3c
       1.0947088 0.105018355 0.11757047 0.025163237
000200 41 57 2f 3e f8 a9 39 3e 70 a5 01 be 69 17 11 3e
       0.17123128 0.18131244 -0.12660766 0.14169087
000210 05 56 1a 3d 0f 4b 64 3e 75 64 c2 be 33 0a b9 3e
       0.03767969 0.22294258 -0.37967268 0.36140594
000220 16 3b e9 3d 84 0d 10 3e 37 5e 9f be 21 f1 a0 3f
       0.11388223 0.14067656 -0.31126568 1.2573587
000230 48 32 ab bd e4 16 61 bb 93 82 27 bb ad 29 e6 3d
       -0.083592 -0.003434592 -0.0025560006 0.11238418
000240 71 28 d3 3f 3c 01 dc bd 2e 8f a0 bd 88 e1 3d 3d
       1.6496717 -0.10742423 -0.07839809 0.04635766
000250 2d 7c a4 bd 96 12 c7 3f c1 83 0a 3e 8a db 5e 3e
       -0.08031497 1.5552547 0.13526823 0.21763435
000260 fe c9 72 be 10 6b a9 be 41 9d 4c bf 9c 15 1b be
       -0.23709866 -0.33089495 -0.7992745 -0.15144962
000270 32 43 44 be 9c bb d4 bd 6d 7a 62 3d 4f 5d ac 3e
       -0.19166258 -0.10387346 0.055292536 0.3366494
000280 94 e5 70 3e 57 fc 40 be a9 f8 83 be dc d9 de 3e
       0.23525077 -0.1884626 -0.2577565 0.4352559
000290 f9 92 83 bf 8b a2 3f be 76 96 88 3e 24 2a ec be
       -1.0279227 -0.18714349 0.26677293 -0.461259
0002a0 5d 23 40 bd a9 62 ca 3e c3 97 cb 3e 23 f2 f9 bd
       -0.046908725 0.39528397 0.39764223 -0.12204387
0002b0 29 ef f0 3e f1 fa 71 be 8e e0 23 3f 1b 40 43 3e
       0.47057465 -0.23630883 0.6401452 0.19067423
0002c0 67 d3 6d 3e 5d 80 04 3e 32 77 9a 3e a9 50 e3 be
       0.23225175 0.12939592 0.30169064 -0.44397476
0002d0 7c 5f a3 3e 1b b9 7e 3e 3d 8b ae 3e 8b 83 e8 be
       0.31908786 0.248753 0.34090605 -0.4541286
0002e0 3b fb 1c bf 54 31 c2 3d 8f 2a 9e be de 3b b6 3d
       -0.6132085 0.09482065 -0.30891845 0.088981375
0002f0 81 ef 9f be 83 43 e0 3e 8b 61 83 be 38 83 59 3e
       -0.31237414 0.43801507 -0.25660357 0.21241462
000300 60 e9 93 3e 86 5c 8e 3a 16 ed 91 3f 9e db c6 3d
       0.28888988 0.0010861314 1.1400478 0.097098574
000310 72 2f 4f 3c fa 97 e2 bd 9d 48 58 bd 16 44 8c bf
       0.012645589 -0.110641435 -0.052803624 -1.0958278
000320 78 14 2b 3d 0f 65 22 be ab 23 54 be 2f ee 64 bd
       0.041767567 -0.15858863 -0.20716731 -0.055891212
000330 d9 e4 03 bf a8 be de 3e b1 73 31 be b9 b4 54 be
       -0.5152107 0.43504834 -0.17329289 -0.20772065
000340 8e 0f 6f 3e 14 3a df bf 94 08 b9 bd 07 48 87 be
       0.23345777 -1.7439599 -0.09034839 -0.2642214
000350 05 b4 c0 be 74 67 18 be 16 6a 59 3d 3e 5b 31 3e
       -0.37637344 -0.14883214 0.053079687 0.17319962
000360 f3 f3 45 be 99 de 14 3b 06 68 9a bc 1b 74 7c 3f
       -0.1933134 0.0022715686 -0.01884843 0.9861466
000370 b0 7d d6 3d e7 e9 b1 3d ea 8a a7 3e 17 7e b2 3e
       0.10473192 0.086871915 0.3272317 0.34861824
000380 56 4b 9c 3f 91 9c 6b bd 60 f7 a4 3e 19 53 34 be
       1.2210491 -0.05752236 0.32219982 -0.17609824
000390 a2 9f 94 bd 6c cb 02 3e 32 b2 e0 bd d8 f7 39 bd
       -0.0725701 0.12772912 -0.10971488 -0.045402378
0003a0 bc dc a4 be d0 c9 1f be 84 03 ec be a3 a4 07 bb
       -0.32199657 -0.15604329 -0.46096432 -0.0020697496
0003b0 32 57 c6 bd 0f 0e a9 be 4f e7 58 3e 1c 38 cc bf
       -0.096846 -0.33018538 0.21181987 -1.5954623
0003c0 34 0c d4 3d ad 23 ca bd 28 53 d0 bd b4 63 d9 3e
       0.1035389 -0.09870086 -0.10172111 0.4245888
0003d0 44 ef 3f 3f 59 26 0b be 20 ed 4d 3e ae 52 34 be
       0.74974465 -0.13588847 0.20109987 -0.17609665
0003e0 d2 5a a2 3c 04 31 a6 bf 6e fb 39 3d 3d b8 71 bb
       0.019818697 -1.2983708 0.045405798 -0.0036883496
0003f0 87 71 81 3e 9b 0d dc be 71 2c 99 3f 0d 61 4b 3e
       0.25281927 -0.4297913 1.1966687 0.1986124

critic.0.bias f4 [64]
000000 53 60 f5 3e 11 f6 b9 be bb 4a 66 3e 88 a9 95 be
       0.47925052 -0.36320546 0.22489445 -0.29230905
000010 5a 67 91 be 4c 5d 5f 3e b7 7e ca be 9f 58 15 bd
       -0.28399163 0.21812934 -0.395498 -0.03646147
000020 d3 46 ab be bc 8e 59 be 42 81 9b 3e 33 71 d1 be
       -0.33452472 -0.21245855 0.30372053 -0.40906677
000030 6f 99 e9 be 98 d6 77 3d 16 c6 c1 3e d0 28 07 3e
       -0.45624873 0.060507387 0.3784644 0.13199162
000040 98 4d bf be cc 68 e0 bc 03 e4 d5 be b2 4c 1e be
       -0.37363887 -0.027393721 -0.41775522 -0.15458944
000050 ec 39 00 3e a6 5a 0e 3e 31 d8 e7 be 32 b3 88 be
       0.12522095 0.13901767 -0.45282128 -0.26699215
000060 67 82 2e be 24 d8 71 be 4a 98 22 3c 97 26 b0 bb
       -0.17041932 -0.23617607 0.009924004 -0.005375694
000070 54 68 48 3e 12 b4 f1 be 02 6d d3 3e 99 5d ba be
       0.19571048 -0.47207695 0.41294104 -0.36399534
000080 bc 34 3a 3d 77 6f a2 be c3 7b 3d 3e 15 85 e2 3c
       0.045460448 -0.31725666 0.18504243 0.02765135
000090 4f 1c f4 3e 40 8f ae be e5 6e 40 bd 46 d7 c0 3e
       0.47677848 -0.34093666 -0.046980757 0.3766424
0000a0 07 bc 10 3e 97 1f c5 3e 45 8f a4 be bc f5 93 3e
       0.14134227 0.38500664 -0.32140556 0.28898418
0000b0 b0 13 aa be a7 03 5d 3e 6c b1 0f be 46 9e fc 3e
       -0.33218145 0.21583425 -0.14032525 0.49339503
0000c0 21 b7 b7 3e c1 14 e2 3e 2a 7b e2 be a8 b2 a6 be
       0.35881904 0.4415646 -0.44234592 -0.3255818
0000d0 d0 3d 67 be 20 75 71 3e 44 6b 17 be c7 16 55 3e
       -0.22582173 0.23579836 -0.14787012 0.2080947
0000e0 ef e4 31 be ee 73 89 3e 17 3c 55 3e 57 bd 47 3e
       -0.17372487 0.2684626 0.20823704 0.19505821
0000f0 d2 3c 0e bd a2 09 94 be ed bf ac 3d 16 ec 73 3e
       -0.03472597 -0.289136 0.084350444 0.23820528

critic.2.weight f4 [64, 64]
000000 da f3 31 3d e9 44 e0 3d 37 3a bf bc 57 7f 1a bc
       0.043445446 0.109506436 -0.023343189 -0.009429774
000010 e3 5e bd bd e0 08 b6 bc 4b de 37 3d 05 c9 e0 bb
       -0.09246614 -0.022221029 0.04488973 -0.006859901
000020 6e e6 3b 3d 3c 96 e2 3d ae c5 c2 3c 2e 5f d7 3d
       0.04587405 0.11063811 0.023775902 0.10516201
000030 3e f3 97 bc d7 37 58 3d 6a e9 90 bd 69 41 86 3d
       -0.018548604 0.052787628 -0.0707577 0.06555445
000040 37 e9 a7 3d f7 6b 3a 3d 4b 88 d3 bc e9 1a 81 3d
       0.08198779 0.04551312 -0.025821825 0.06303961
000050 f8 ce b2 3d e0 d8 c0 3c e8 41 7a bd 65 c4 a2 3d
       0.087308824 0.023540914 -0.06109801 0.079476155
000060 46 f0 f4 bb f6 63 ac 3c 6e 77 95 3d 30 a1 c4 bd
       -0.007474932 0.021043759 0.0729817 -0.096010566
000070 cd fb 8b 3d 17 e3 b6 3d c8 d8 01 3d 69 c3 db 3d
       0.068351366 0.08930033 0.03170088 0.10730631
000080 39 14 e9 bd 78 46 ae bd b1 06 c2 3c 9e e2 c6 bc
       -0.1138081 -0.085095346 0.023684831 -0.024277981
000090 f3 ca d1 3d 08 4c ae 3d c0 9f 28 bd 89 1e c1 bd
       0.102437876 0.085105956 -0.041167974 -0.09429652
0000a0 a0 16 1b be 26 b9 a4 3c 28 b4 fc bd 35 8e db 3c
       -0.1514535 0.020107817 -0.123390496 0.026801208
0000b0 a2 6c 8e 3d 1b 9d ab 3d ac 7a c3 3d bb e0 94 3d
       0.06954314 0.08379575 0.09544882 0.072694264
0000c0 64 92 f5 bc 5c 67 e2 bd 51 af a3 bd 38 e4 f7 bd
       -0.029977031 -0.110548705 -0.07992423 -0.12104076
0000d0 1a 93 8c 3d 44 43 58 3c 2b 9e 6c bd de b4 bb 3d
       0.06863995 0.013199631 -0.05776803 0.09165357
0000e0 64 06 91 3c db 28 c2 3d 71 a0 be 3d da fd d0 bd
       0.017703243 0.09480449 0.093079455 -0.10204668
0000f0 b5 d3 03 3d cb 73 e3 bd 34 7c 1b 3e b2 71 10 be
       0.03218432 -0.1110607 0.15184098 -0.14105871
000100 a4 80 3d 3c d4 65 6e 3d 48 d6 10 3e 73 8c 84 bd
       0.011566315 0.05820258 0.14144242 -0.06472101
000110 4b 66 87 bc eb af c1 3d ac db 06 bc a9 84 9b bd
       -0.01652827 0.09457382 -0.008231085 -0.07593662
000120 3b 13 65 bd 9c 79 f9 bd 7f 17 9b bd 81 88 58 bd
       -0.055926543 -0.12181398 -0.07572841 -0.052864555
000130 69 03 a2 bd b2 a5 59 bd e7 4c eb 3d 4c dd 95 ba
       -0.07910807 -0.053136535 0.11489277 -0.001143375
000140 43 72 cf 3d 88 0c 6c 3d 21 da 96 bd ad 58 46 bd
       0.101292156 0.05762914 -0.073658235 -0.04842441
000150 8e 17 a4 39 63 91 ef 3d ad 6a ac bd 37 40 84 3d
       0.00031298067 0.11697652 -0.08418784 0.064575605
000160 34 32 35 bd 5e 08 bb 3d 1a 24 6e b9 44 f0 3b bc
       -0.04423733 0.09132455 -0.00022710898 -0.011470858
000170 0f 35 ad 3d bd 77 e4 bd 64 75 03 3e 5c cc 21 be
       0.08457386 -0.11155651 0.1283775 -0.15800613
000180 7a 15 6f bc b3 c6 ae bc 8c 8f a3 bc 1a d7 38 bd
       -0.014592523 -0.021334982 -0.01996591 -0.04512701
000190 40 36 e7 3d 91 6a 61 bd 0b 8d 99 3d ba 0a 36 3d
       0.11289644 -0.05503327 0.07497605 0.044443823
0001a0 6e c5 36 3d df bb 22 bd 57 fa 0e bd fe 67 08 bd
       0.044621877 -0.03972995 -0.03490671 -0.0333023
0001b0 38 34 c4 bc 52 82 ba 3d 9e d7 c1 bd a8 6c 66 3d
       -0.023950681 0.09106888 -0.09464954 0.056255966
0001c0 e0 c5 25 3e 06 fc ce bc 45 4d fe 3b 9f 34 5b bd
       0.16188765 -0.025266659 0.007760676 -0.05351698
0001d0 2d 1a f7 bd 6b bb 95 bd 02 84 e4 3d f1 2a 61 3d
       -0.120655395 -0.07311138 0.11157991 0.054972593
0001e0 82 c0 36 bc 88 5b 3f 3d c8 36 78 3d 42 d2 c7 bc
       -0.011154296 0.04671815 0.06059912 -0.02439225
0001f0 3f e5 db bd 59 cd 42 be 07 56 27 3d 7d 5a 1d 3e
       -0.107370846 -0.19023646 0.040853526 0.1536655
000200 b2 65 51 bd 0b 05 c1 bd 1c ab 9e 3d 0a af 40 3d
       -0.051122375 -0.0942479 0.0774748 0.04704193
000210 e2 65 e1 3d 8d 86 84 3d 52 27 46 bc 4a b2 db bc
       0.11005761 0.06470976 -0.012094336 -0.026818413
000220 5a e5 53 3d b9 ff ed bd 6b f9 a5 bd cf bf d5 bc
       0.0517324 -0.11621041 -0.08104213 -0.026092438
000230 b3 85 2a bd 49 61 94 bc bb 31 91 3c 13 27 12 3d
       -0.04163141 -0.018112795 0.017723909 0.035681795
000240 e7 d2 86 3d 7f 0a a9 3d 68 ad 80 bd 72 13 cf b9
       0.06583195 0.08253955 -0.062830746 -0.00039496605
000250 d1 b0 b3 3d b2 36 49 bd 06 93 2c 3d a1 c2 5a 3c
       0.087739594 -0.049124427 0.0421324 0.013352067
000260 e4 b5 5c 3c b8 5a 90 bd c2 ee a2 3d 4c a2 69 3d
       0.0134711005 -0.07048553 0.07955696 0.057039544
000270 23 23 cb 3d 19 30 52 3d 92 02 e2 3d 13 14 82 3d
       0.09918811 0.0513154 0.110356465 0.06351485
000280 70 a8 36 3d c8 77 19 3c c4 0e 1e bc ea 31 89 bd
       0.04459423 0.009366937 -0.009647075 -0.066989735
000290 d5 45 1b bc 93 ce ce 3b 17 76 0a bd f8 09 71 bd
       -0.0094770985 0.0063112467 -0.033804026 -0.058847398
0002a0 94 d9 ff 3d ce 97 e5 bd 66 ed cc 3d c3 f4 11 3e
       0.124926716 -0.11210595 0.10006218 0.14253525
0002b0 f1 6a 8b bd 75 9a ed 3d cd 3b 16 3d be 0f 19 b9
       -0.06807507 0.11601726 0.036678124 -0.00014597081
0002c0 b5 30 ce 3d ed db cb 3d 18 9d a1 bd 75 c3 8b bc
       0.10067884 0.09954057 -0.078912914 -0.017060975
0002d0 f6 ab 89 3d 25 05 89 3d 84 53 4a bd fa 49 cc bd
       0.06722252 0.06690434 -0.049396053 -0.099750474
0002e0 18 21 89 bd 74 60 df bd fa 22 f3 bd 15 7b 85 bd
       -0.06695765 -0.10907069 -0.118719056 -0.06517617
0002f0 c9 f0 c8 bd 6d 93 4c 3d da 6f 0e 3d e1 40 e9 3d
       -0.09811551 0.049945284 0.03477464 0.11389328
000300 71 e5 1a be b8 3d d2 3c d5 e7 0e be 52 75 05 3e
       -0.15126587 0.025664195 -0.13955624 0.13033035
000310 de 11 73 3c 63 29 0a be 93 71 b9 bd 90 b7 21 3d
       0.014835803 -0.1349235 -0.09054866 0.0394817
000320 c6 f6 03 bc 8b d2 18 3e 6a 38 a9 3c 9a 92 4f 3d
       -0.008054441 0.14924066 0.020656783 0.05067692
000330 9e d0 2f bb 40 7d f4 3c 8f 46 18 3d 1c 48 be bd
       -0.0026827226 0.02984488 0.037176665 -0.092910975
000340 65 bc bc bd c0 4c b5 bd 00 73 03 3e b8 38 17 3e
       -0.09215621 -0.088525295 0.12836838 0.1476773
000350 27 92 9f bd 97 d1 0c 3d dd 16 ad bc 15 c4 a8 3a
       -0.07791548 0.034379568 -0.021129066 0.001287582
000360 c7 f9 a1 3d cf 1e 26 bd 29 0b 98 3c a3 11 dd 3d
       0.07908969 -0.040556725 0.01856001 0.107943796
000370 e4 3d 7e bd fb aa 20 3e b6 e4 bb 3c 20 dd f8 3d
       -0.062070742 0.15690224 0.022936206 0.12151551
000380 ae 54 20 3d b3 7e 5c bc f9 17 c4 bc 6a 3e 50 bd
       0.039143257 -0.013457942 -0.023937212 -0.050840773
000390 04 bf d9 3c a1 31 44 3c a6 3f cb 3d 19 d6 27 be
       0.026580341 0.011974723 0.09924249 -0.16390266
0003a0 38 1b 70 3d 1f 55 61 bd fd 27 75 3d fd 84 dd 3c
       0.058619708 -0.05501282 0.05985259 0.027040953
0003b0 82 10 b2 3d fa 27 b9 bd 4d 0b f9 3c ef 79 e8 bd
       0.08694555 -0.09040828 0.030400896 -0.11351382
0003c0 3f 6b e4 bd 63 48 17 bd 96 af 60 bd 86 42 f4 bc
       -0.11153268 -0.036934268 -0.05485495 -0.029816877
0003d0 07 1a 10 3e d5 49 17 bd 20 93 98 bd 24 76 8a bb
       0.14072429 -0.036935646 -0.07449937 -0.0042255092
0003e0 96 40 6f bd 29 77 14 be 55 a7 e0 3d 5a a2 f4 bd
       -0.058411203 -0.14498581 0.10969416 -0.119450286
0003f0 6e 4e d9 3d bf fd f0 3d 24 2a bb bd 48 eb 28 bd
       0.106106624 0.11767148 -0.09138897 -0.041240007

critic.2.bias f4 [64]
000000 a6 4f b1 3d 60 b8 75 3d 14 20 e5 3d 3d 19 17 bd
       0.0865777 0.059990287 0.11187759 -0.036889303
000010 4e 69 91 3d a9 40 c0 bd 4f 19 d5 3b d2 4e d4 bb
       0.071001634 -0.09387333 0.006503261 -0.0064791227
000020 28 d7 08 be a0 ba b6 bc c1 a3 e9 3d 45 62 bc bd
       -0.13363326 -0.022305787 0.11408187 -0.09198431
000030 14 57 16 be d7 a4 ac bd 81 5b 4b bd 26 7e 4a 3d
       -0.14681655 -0.08429878 -0.04964781 0.04943671
000040 d9 80 d8 bd bf 49 8c bc 49 a2 8a bc bf 58 0a bd
       -0.10571451 -0.017125009 -0.016923087 -0.03377604
000050 ca 69 1a bd 70 76 f8 3c b6 9e 47 3d 7c 07 be bb
       -0.037698545 0.030329913 0.048735343 -0.005799232
000060 a0 2e cf 3c 21 e6 13 bc 09 af 3e bd dc 91 30 3e
       0.025290787 -0.009027035 -0.046553645 0.17243141
000070 82 e9 8c bd 83 cd 91 bc a1 05 01 bc da 1e 27 be
       -0.068804756 -0.017798191 -0.007874877 -0.16320363
000080 d8 b7 cf 3d a3 24 1e 3e 92 37 43 3b 04 a4 16 3e
       0.10142487 0.15443663 0.002978776 0.14711004
000090 29 e1 c9 3d 6c cc 3d bd 53 b5 1e bc d1 79 b7 bc
       0.09857399 -0.04633753 -0.009686786 -0.022396954
0000a0 a1 49 48 3d f8 2a 12 3e 0d fb 93 bd d6 c5 fa bd
       0.048898343 0.14274204 -0.072256185 -0.122447655
0000b0 84 2f 6d bd 85 26 c2 3d ae d1 39 3e 26 cc 5d 3d
       -0.057906643 0.09480003 0.18146393 0.05414977
0000c0 5f dd b5 3d 84 29 cb 3d 65 a7 de bc d1 87 82 bd
       0.08880114 0.09920028 -0.02717943 -0.06373561
0000d0 10 14 1f bd 34 65 84 3d 71 87 02 3e c6 0e f5 bc
       -0.038837492 0.064646155 0.1274698 -0.029914271
0000e0 8f 71 b0 3d ff a4 42 3d 58 77 cf 3d ec 49 6b 3c
       0.086154096 0.047520634 0.10130185 0.014360886
0000f0 f5 dd 86 bd 22 67 a5 bd ee 76 6d bd e9 e4 9b bd
       -0.06585304 -0.08076312 -0.05797475 -0.076120205

critic.4.weight f4 [1, 64]
000000 51 9d d0 3b 9d cd ac bd 77 0c df bb db a4 a9 3d
       0.00636641 -0.08437655 -0.006806906 0.08283397
000010 98 a9 51 3d 91 e2 9a ba 0e c2 bb ba 38 c6 d3 3c
       0.051187128 -0.001181679 -0.00143248 0.025851354
000020 ca c4 6d 3c 3a 3e cd b7 67 34 89 3b f8 34 db bb
       0.01451225 -2.446688e-05 0.004187155 -0.006689664
000030 a3 59 ea 3d fe 54 f6 b9 fc d8 6d 3d 02 f9 32 bd
       0.11442878 -0.000469841 0.05806826 -0.043694504
000040 62 12 93 3b ec b6 78 bd 47 43 01 3b 4f be 23 3b
       0.0044882754 -0.060721323 0.0019723938 0.002498526
000050 95 a0 9e bd 6e e5 5b 3d 1f f4 d9 bb 9d 8b 97 b9
       -0.07745472 0.053685598 -0.006651416 -0.00028904984
000060 5a cf a0 3c 94 a2 be 3b 2b 8a e9 bc d8 86 15 3e
       0.019630123 0.0058177207 -0.028508266 0.1460222
000070 b6 d0 63 bb 2b 43 80 ba f5 08 12 b9 bb a3 b5 ba
       -0.0034761853 -0.0009785643 -0.00013926982 -0.0013858
000080 7c 77 e1 ba 41 6a 65 3e 37 b8 49 bc 08 93 99 bd
       -0.0017201747 0.22403814 -0.012311987 -0.07498747
000090 8c 3e e9 bb 36 80 dd bd ca 8a 5b bc c3 65 d8 bb
       -0.007118052 -0.1081547 -0.013399789 -0.006603928
0000a0 ee bb e8 3b 32 13 97 3c 8d 9a 20 3c 62 70 a2 3b
       0.007102481 0.01844177 0.009802473 0.0049572447
0000b0 34 48 01 3d 81 56 b9 bc aa 2a 7d 3d a3 4b 27 bb
       0.031563 -0.022624256 0.061808266 -0.002552726
0000c0 b1 89 98 3a 6b 97 0e 3e 96 59 52 3c 3b 33 13 3c
       0.0011637715 0.13924949 0.012838742 0.008984382
0000d0 a3 75 27 bb 54 e2 1b bd ea 99 46 3c 90 7c c2 b9
       -0.0025552295 -0.03805764 0.012121657 -0.0003709537
0000e0 10 c3 a2 b8 2e c7 37 3b 5f c5 04 bd 96 d4 e5 b9
       -7.761095e-05 0.0028042304 -0.03241479 -0.00043836673
0000f0 56 68 a5 bc ba 69 39 3b f7 2c 25 3c ed 53 9e 3b
       -0.020191353 0.0028291778 0.010081521 0.004831782
