trained/SimplePong/PPO_frequent_1728767017.5607595.pth (torch, 42226 bytes, 11 tensors)

actor.0.weight f4 [64, 5]
-0.16383797 0.29427332 0.09587262 -0.18495812 0.0819588 -0.1588894 0.44523817 -0.18473242
0.16526595 0.19744566 0.1619452 -0.5548541 0.17261662 -0.110240854 0.20408648 -0.4114576
0.17581974 0.10013661 0.4901622 0.4502391 0.39477834 -0.30915815 0.21411066 -0.28261647
0.067364804 -0.021739941 -0.10299099 -0.060200926 -0.4544591 0.42504358 -0.25044566 0.33688936
0.026967658 0.20144282 0.41289073 0.51365244 0.17151625 -0.25086755 -0.2854389 0.34468412
0.3466209 -0.2572641 0.19635354 -0.6278589 -0.033858903 -0.31933156 -0.008715159 -0.4182713
0.043274812 -0.1321649 0.07731162 0.34313288 -0.52095556 0.3063613 0.27925086 -0.33155984
0.040781714 0.24301721 -0.3828918 -0.2032486 -0.3695832 0.28112018 -0.37472507 0.108296916
0.13056065 -0.37773424 -0.013644643 -0.066617586 0.36513078 0.0051000626 0.58445764 -0.13163851
-0.22942871 -0.052638166 0.03199946 -0.01886094 0.48502088 0.077725664 0.3990298 -0.35301527
0.3881827 -0.18620917 -0.08387725 -0.40369266 -0.08163858 0.12493404 0.51462394 -0.121045575
0.4742892 -0.04807008 -0.06719754 0.22099759 0.10246945 0.040109057 0.05311345 -0.31034195
-0.035985433 0.066581674 -0.22703819 -0.23060673 0.00067576487 -0.55222464 0.22080503 -0.5975886
0.21051146 0.41510835 -0.0026905274 0.020258091 -0.16037484 -0.36898068 0.4056976 -0.5025661
-0.24305989 0.16564402 -0.03847341 -0.34685096 0.49097675 0.37145302 0.26652613 0.03297714
-0.12400706 0.28771317 -0.3869388 0.59120965 -0.2200709 0.3854343 -0.24879776 -0.22503982
-0.09184445 -0.35241905 -0.36107036 0.40393224 -0.23230758 0.6042775 0.39612594 0.35984144
-0.06487048 -0.016535282 -0.027445659 -0.4484761 -0.49910113 0.029822946 -0.25222307 0.5179607
-0.15575999 0.21185501 -0.48897502 0.14592573 0.18766187 0.466376 -0.016871052 -0.44474116
0.36185157 -0.43272084 -0.30957305 -0.3954096 0.22628687 0.29996422 0.5110982 0.27652013
-0.15260677 0.2537546 0.13959976 0.61360604 -0.27989933 0.32966155 0.21016634 0.2311019
-0.48165506 0.39515793 -0.34706783 0.46790415 -0.021503612 0.47074455 -0.16410257 -0.45338336
0.14649887 0.0300273 0.13953148 -0.37168932 0.23803604 0.48973784 0.33473358 -0.005901606
0.17626308 0.46142933 -0.405036 -0.13874072 -0.037977774 0.19704023 -0.05540424 0.33229694
0.053072345 -0.20864041 -0.31071073 0.06622205 0.3524618 -0.063114166 0.043741517 -0.010077586
0.37014237 -0.07146751 0.31187657 -0.45251304 0.18453275 -0.28608623 0.07539453 -0.12737535
0.4571408 0.22870207 0.028722828 -0.4509386 0.057475794 -0.49990448 0.08798611 -0.118606515
0.4366059 0.15088333 -0.056347866 0.15724546 -0.35627842 0.40550542 0.16871302 -0.04064103
-0.14013402 0.23124883 -0.58894145 0.23859385 0.13175325 -0.052168343 -0.36472934 0.18566254
0.22390841 0.5663459 -0.30014345 0.03857644 -0.35725716 0.34563917 -0.527431 0.37448883
-0.3008934 0.2428995 0.040130112 -0.14227003 0.2752908 -0.042691056 -0.5047258 0.21803364
-0.3509004 -0.16174118 -0.56127894 0.42670372 0.20610803 0.6500875 0.034356363 0.29818344
00000000: 24c5 27be feaa 963e dd58 c43d a965 3dbe
00000010: 04da a73d e7b3 22be 42f6 e33e 7f2a 3dbe
00000020: 7a3b 293e 322f 4a3e f6d4 253e eb0a 0ebf
00000030: 69c2 303e f5c5 e1bd 0cfc 503e 92aa d2be
00000040: 170a 343e 6c14 cd3d 8af6 fa3e bd85 e63e
00000050: 6320 ca3e fa49 9ebe d33f 5b3e 1bb3 90be
00000060: 8ff6 893d f617 b2bc f1ec d2bd 3f95 76bd
00000070: ddae e8be 509f d93e 6a3a 80be c37c ac3e
00000080: 47eb dc3c 0747 4e3e 6a66 d33e ba7e 033f
00000090: f5a1 2f3e b671 80be 0c25 92be 707a b03e
000000a0: 4b78 b13e 1fb8 83be e710 493e 5cbb 20bf
000000b0: a2af 0abd 6d7f a3be 07ca 0ebc a827 d6be
000000c0: ee40 313d 3c56 07be 8e55 9e3d 1daf af3e
000000d0: 585d 05bf 63db 9c3e f8f9 8e3e 36c2 a9be
000000e0: ba0a 273d 81d9 783e 650a c4be 6720 50be
000000f0: 023a bdbe fcee 8f3e f7db bfbe c6ca dd3d
00000100: b1b1 053e 6266 c1be c88d 5fbc cd6e 88bd
00000110: 6cf2 ba3e 6d1e a73b 049f 153f 3fcc 06be
00000120: 5cef 6abe 1e9b 57bd de11 033d 4282 9abc
00000130: a854 f83e a22e 9f3d a24d cc3e 6bbe b4be
00000140: e2bf c63e 9ead 3ebe d6c7 abbd ceb0 cebe
00000150: 2132 a7bd 6bdd ff3d 65be 033f bee6 f7bd
00000160: 09d6 f23e 22e5 44bd dd9e 89bd 314d 623e
00000170: 81db d13d 6549 243d 7d8d 593d 24e5 9ebe
00000180: 7665 13bd f95b 883d b37c 68be 2c24 6cbe
00000190: d025 313a 985e 0dbf b71a 623e 91fb 18bf
000001a0: 5190 573e 1589 d43e 8f53 30bb 4cf4 a53c
000001b0: 4d39 24be 09eb bcbe 99b7 cf3e 2ca8 00bf
000001c0: b1e4 78be 969e 293e 4b96 1dbd 7396 b1be
000001d0: 4e61 fb3e 172f be3e 1d76 883e 0a13 073d
000001e0: 6af7 fdbd 244f 933e d81c c6be 8459 173f
000001f0: 445a 61be a557 c53e d7c4 7ebe d770 66be
00000200: f118 bcbd 4570 b4be 37de b8be 35d0 ce3e
00000210: 0ae2 6dbe eeb1 1a3f 05d1 ca3e 233d b83e
00000220: d0da 84bd 0075 87bc b8d5 e0bc a99e e5be
00000230: 2f8a ffbe 404f f43c 6223 81be 1399 043f
00000240: 8c7f 1fbe 85f0 583e ef5a fabe 8e6d 153e
00000250: 6f2a 403e d6c8 ee3e 2935 8abc 1db5 e3be
00000260: 9c44 b93e 968d ddbe 5c80 9ebe 2173 cabe
00000270: bfb7 673e e994 993e 55d7 023f 0c94 8d3e
00000280: f344 1cbe 1fec 813e 3df3 0e3e 4915 1d3f
00000290: f74e 8fbe 66c9 a83e d835 573e faa5 6c3e
000002a0: 7e9b f6be 2452 ca3e e0b2 b1be 2291 ef3e
000002b0: 5828 b0bc 6e05 f13e 810a 28be dd21 e8be
000002c0: cd03 163e d0fb f53c 57e1 0e3e 104e bebe
000002d0: b8bf 733e ebbe fa3e 3362 ab3e 4262 c1bb
000002e0: 4f7e 343e 7740 ec3e e160 cfbe 0c12 0ebe
000002f0: 958e 1bbd eac4 493e 8eef 62bd d322 aa3e
00000300: 6362 593d d5a5 55be 7a15 9fbe 6d9f 873d
00000310: e075 b43e 0042 81bd 4e2a 333d 761c 25bc
00000320: 4d83 bd3e 8f5d 92bd 49ae 9f3e caaf e7be
00000330: 27f6 3c3e e579 92be 7368 9a3d af6e 02be
00000340: 5c0e ea3e e030 6a3e 234c eb3c 6de1 e6be
00000350: bd6b 6b3d 7bf3 ffbe 1032 b43d f9e7 f2bd
00000360: cf8a df3e 2981 1a3e 05cd 66bd f404 213e
00000370: 206a b6be 689e cf3e 1bc3 2c3e 3577 26bd
00000380: 4b7f 0fbe 7ecc 6c3e dec4 16bf f251 743e
00000390: 53ea 063e 79ae 55bd cebd babe 521e 3e3e
000003a0: 3f48 653e 0bfc 103f 67ac 99be 5402 1e3d
000003b0: 69ea b6be 9ef7 b03e b805 07bf 00bd bf3e
000003c0: b30e 9abe a6ba 783e 795f 243d 3caf 11be
000003d0: eaf2 8c3e d1dc 2ebd b635 01bf 3644 5f3e
000003e0: 38a9 b3be 7b9f 25be faaf 0fbf e978 da3e
000003f0: fc0d 533e 226c 263f 42b9 0c3d 80ab 983e

actor.0.bias f4 [64]
0.03555964 0.11554431 0.28668657 -0.30945873 -0.32170323 -0.046247233 -0.20084144 -0.3598407
-0.12586215 0.2865237 0.2192682 -0.03081918 0.38526693 -0.032921374 -0.15862569 -0.20709339
-0.15753022 -0.42367515 -0.32736954 -0.063735 0.05441994 0.04355861 -0.20492534 -0.19659486
0.04644107 -0.108112395 0.15012681 0.2574427 0.11082735 -0.27170727 0.051946983 -0.18454033
-0.112935446 0.19181487 -0.060419325 0.16043055 -0.2645124 0.057287082 0.04397018 -0.19624226
-0.28492942 0.09081592 0.29561973 0.00048476932 -0.19052647 0.3709015 -0.17727536 -0.013995218
-0.006789275 0.35658002 -0.0030877127 0.061376825 0.15135512 0.2806701 -0.19337021 -0.3507117
-0.31726056 -0.14399275 -0.025142156 0.3296184 0.049563922 0.21720904 -0.30500758 0.4249669
00000000: fca6 113d 7fa2 ec3d 95c8 923e 6071 9ebe
00000010: 49b6 a4be bd6d 3dbd 61a9 4dbe 0a3d b8be
00000020: 02e2 00be 3cb3 923e d887 603e 8178 fcbc
00000030: b541 c53e 90d8 06bd c66e 22be 4a10 54be
00000040: 9a4f 21be f3eb d8be fb9c a7be 7f87 82bd
00000050: 71e7 5e3d 836a 323d f3d7 51be 2a50 49be
00000060: fe38 3e3d 086a ddbd d8ba 193e 88cf 833e
00000070: 73f9 e23d 371d 8bbe 5cc6 543d 24f8 3cbe
00000080: b34a e7bd 1e6b 443e 417a 77bd e847 243e
00000090: 2b6e 87be dca5 6a3d 131a 343d bbf3 48be
000000a0: 45e2 91be b2fd b93d 785b 973e a328 fe39
000000b0: 5f19 43be cde6 bd3e ac87 35be 334c 65bc
000000c0: 9178 debb a891 b63e 395b 4abb 4466 7b3d
000000d0: d6fc 1a3e feb3 8f3e d702 46be 7c90 b3be
000000e0: fa6f a2be d672 13be ecf6 cdbc bec3 a83e
000000f0: 8a03 4b3d 0c6c 5e3e f429 9cbe 4395 d93e

actor.2.weight f4 [64, 64]
0.06121651 0.21117215 -0.06788077 -0.017636899 -0.2334299 -0.062373746 0.023259412 -0.109892316
-0.18911119 -0.054038778 -0.07418253 0.12326219 0.08505835 -0.07596067 -0.02456384 0.20702988
-0.11351011 0.105221 0.022883698 0.054129213 0.025842672 0.0897203 -0.16809002 0.15389203
-0.056659646 -0.059587993 0.26268387 0.062146574 0.0038372232 -0.13134174 -0.055407424 0.11349857
0.20189568 0.20256457 0.33386806 0.09010182 0.03653164 -0.3697478 0.18259583 -0.008054256
-0.030666154 -0.04020203 0.025955793 0.18429603 0.08124296 -0.034666125 0.027895018 -0.09675978
0.14172289 0.076833025 0.33707693 0.05527294 0.12679906 0.080390714 0.030522684 -0.025443198
-0.1272543 -0.12084879 0.16609937 0.050855692 0.0142143695 -0.055544246 -0.119737476 -0.07209045
-0.123193115 -0.114955716 0.1434891 -0.09960689 0.13163935 0.038484737 -0.081065975 0.19269809
0.17246383 0.09353093 -0.12740429 -0.076825485 -0.2355258 -0.04973001 0.17847866 -0.20051919
0.29889393 0.014652695 -0.0054791393 0.13019143 0.20429483 0.06226225 0.22024573 -0.13108912
-0.1037398 0.06340448 -0.16772483 -0.13719302 -0.05143476 -0.017179579 0.13813107 -0.15340719
-0.164444 -0.0063551445 -0.48570406 -0.14831012 -0.09138167 0.29432634 -0.046055812 0.046833698
0.06261357 -0.065623894 -0.027293159 -0.12849045 -0.21653584 0.04471734 -0.009916746 0.064795114
-0.2798477 0.10011746 -0.37699977 0.052198112 -0.03882184 -0.07091472 0.036741268 0.012057516
0.120756395 -0.02135365 -0.20985314 -0.1114876 -0.14493452 -0.07363878 0.006046271 0.047077063
0.00477004 0.018372003 -0.1837752 0.007747145 -0.18049976 -0.07501785 0.15891875 -0.056454863
-0.31268066 0.11335211 0.0077600507 -0.06496295 0.18067646 0.15003309 -0.14547347 0.19505118
-0.12878475 0.11361431 0.0020260327 0.09077823 -0.23967227 -0.15367208 -0.09104389 0.1953363
0.012034291 -0.22549942 0.41179729 -0.039157625 0.056940172 -0.026310252 -0.0020157257 0.14109322
0.24808994 0.10427291 0.74068695 0.21972221 0.0035409147 -0.6099189 0.07170612 0.16958702
-0.056597546 0.15393768 -0.033035845 0.1685819 0.31082812 -0.06716367 0.21414867 -0.22461721
0.45552668 -0.009945483 0.42949137 0.05567166 -0.015471218 0.025535004 -0.05655344 0.23441555
-0.10092946 0.012080546 0.084283374 -0.111469336 0.1571875 0.0067912904 -0.09261389 -0.18837817
0.11044064 0.020137329 0.11494798 -0.0058463938 0.13512355 -0.071724474 -0.068586186 -0.05815683
0.2609905 -0.2139133 0.016870955 -0.061477397 -0.16665934 -0.119842246 0.06865644 -0.030924276
0.083903246 -0.027915103 0.05360746 -0.0010799926 0.028265651 0.032534968 0.017594181 -0.09869416
-0.04698678 0.12261637 -0.27729216 0.17437837 -0.23754139 -0.009025043 0.042698722 -0.25815016
-0.29601014 0.021034446 -0.5329838 -0.08853916 0.062131684 0.4426926 0.12789224 -0.062228303
0.11060108 -0.082774386 0.15037532 0.081219964 -0.19481064 0.10831676 -0.14466141 0.17606275
-0.19973716 0.17841657 -0.20125534 0.070535146 -0.03731089 0.09830111 -0.12587845 -0.08953928
0.016657662 -0.15856954 -0.10699778 0.11711098 -0.18429433 0.11389586 0.09119591 0.17257223
00000000: 2abe 7a3d 833d 583e 1305 8bbd 427b 90bc
00000010: 3f08 6fbe 9d7b 7fbd 868a be3c 390f e1bd
00000020: 5da6 41be c457 5dbd 03ed 97bd e370 fc3d
00000030: 1233 ae3d 4591 9bbd 1b3a c9bc a4ff 533e
00000040: fd77 e8bd 1c7e d73d 9876 bb3c 98b6 5d3d
00000050: 03b4 d33c 47bf b73d ca1f 2cbe df95 1d3e
00000060: f213 68bd 8a12 74bd 807e 863e 688d 7e3d
00000070: ec79 7b3b 737e 06be e5f2 62bd f071 e83d
00000080: bebd 4e3e 166d 4f3e c1f0 aa3e 4e87 b83d
00000090: 33a2 153d 954f bdbe 67fa 3a3e 00f6 03bc
000000a0: 9637 fbbc e2aa 24bd 3ea1 d43c 19b8 3c3e
000000b0: b662 a63d 11fe 0dbd 1884 e43c fe29 c6bd
000000c0: ce1f 113e a25a 9d3d 5995 ac3e e165 623d
000000d0: 9dd7 013e e3a3 a43d b50a fa3c 416e d0bc
000000e0: f44e 02be 927f f7bd f415 2a3e 0f4e 503d
000000f0: 63e3 683c 5d82 63bd ec38 f5bd 28a4 93bd
00000100: ac4c fcbd e76d ebbd ceee 123e b2fe cbbd
00000110: 77cc 063e 2ca2 1d3d eb05 a6bd a652 453e
00000120: 5c9a 303e 258d bf3d 4576 02be ae56 9dbd
00000130: ad2d 71be b2b1 4bbd 1cc3 363e e754 4dbe
00000140: a008 993e db11 703c 5a8a b3bb e750 053e
00000150: aa32 513e b306 7f3d 1988 613e 3a3c 06be
00000160: 8875 d4bd 35da 813d 0fc0 2bbe 547c 0cbe
00000170: 41ad 52bd 30bc 8cbc 3b72 0d3e c616 1dbe
00000180: 0264 28be d13e d0bb 34ae f8be 9cde 17be
00000190: 5026 bbbd f1b1 963e 05a5 3cbd b1d4 3f3d
000001a0: 8b3b 803d d265 86bd e795 dfbc 0093 03be
000001b0: 92bb 5dbe 8829 373d d979 22bc 4db3 843d
000001c0: 3348 8fbe 620a cd3d 1d06 c1be b0cd 553d
000001d0: a603 1fbd bd3b 91bd 037e 163d e38c 453c
000001e0: 214f f73d daed aebc bee3 56be 9c53 e4bd
000001f0: b769 14be eecf 96bd cc1f c63b e1d3 403d
00000200: ff4d 9c3b e280 963c 912f 3cbe c3db fd3b
00000210: eed4 38be f5a2 99bd 99bb 223e 373d 67bd
00000220: ae17 a0be 2725 e83d 0648 fe3b 4c0b 85bd
00000230: 4003 393e 46a2 193e fff6 14be 7fbb 473e
00000240: 26e0 03be 9fae e83d 30c7 043b f0e9 b93d
00000250: a66c 75be 375c 1dbe 3875 babd 3d06 483e
00000260: 7a2b 453c 52e9 66be 18d7 d23e bf63 20bd
00000270: 193a 693d 9988 d7bc 441a 04bb be7a 103e
00000280: 4a0b 7e3e 098d d53d a99d 3d3f dcfe 603e
00000290: b10e 683b a523 1cbf a9da 923d 38a8 2d3e
000002a0: d4d2 67bd d7a1 1d3e 9850 07bd bca0 2c3e
000002b0: dd24 9f3e 1b8d 89bd ca49 5b3e 0e02 66be
000002c0: cb3a e93e 61f2 22bc 4be6 db3e f707 643d
000002d0: fe7a 7dbc c92e d13c 94a4 67bd a10a 703e
000002e0: 1bb4 cebd 7bed 453c c39c ac3d 094a e4bd
000002f0: c3f5 203e 7989 de3b 5aac bdbd 35e6 40be
00000300: b42e e23d 0af7 a43c d969 eb3d 1b93 bfbb
00000310: d45d 0a3e 48e4 92bd ea76 8cbd db35 6ebd
00000320: 8ca0 853e 170c 5bbe f534 8a3c b9cf 7bbd
00000330: bfa8 2abe da6f f5bd bf9b 8c3d e854 fdbc
00000340: 77d5 ab3d 37ae e4bc 7f93 5b3d 8a8e 8dba
00000350: 5e8d e73c 6343 053d ac21 903c 2a20 cabd
00000360: 3675 40bd 4b1e fb3d 3df9 8dbe 3e90 323e
00000370: 0d3e 73be c6dd 13bc dbe4 2e3d 422c 84be
00000380: a48e 97be 6e50 ac3c a071 08bf 0554 b5bd
00000390: cb7d 7e3d 9ba8 e23e 2ff6 023e 1be3 7ebd
000003a0: d282 e23d 9e85 a9bd fdfb 193e a756 a63d
000003b0: 717c 47be 2dd5 dd3d 1f22 14be cb49 343e
000003c0: e687 4cbe d5b2 363e e115 4ebe bb74 903d
000003d0: 4ed3 18bd 1852 c93d 48e6 00be 5f60 b7bd
000003e0: a675 883c 0e60 22be a721 dbbd e2d7 ef3d
000003f0: a7b7 3cbe 3c42 e93d ecc4 ba3d c6b6 303e

actor.2.bias f4 [64]
0.08442333 -0.16483358 -0.08045409 -0.018378712 -0.060424443 -0.06097866 -0.024850368 0.16575441
-0.0035357345 -0.114301376 -0.0051592635 0.05684156 0.021506218 0.03966969 -0.14187774 0.024786312
0.120417036 -0.11658271 0.08508533 -0.009676928 -0.045470152 -0.051299796 0.034050968 -0.058187112
-0.051722787 -0.116483875 0.040590044 -0.005824013 0.058425505 0.032369733 0.09845778 0.064495966
-0.006334917 -0.12204365 -0.04981176 0.10080707 -0.03354044 -0.048357308 -0.06393476 -0.07506708
0.16592382 0.11801365 0.0138291195 -0.0951198 0.00093393424 0.034723155 0.0027942546 -0.044058297
0.059930068 -0.11753066 -0.016443694 -0.09488252 -0.009275743 -0.079363294 0.09177256 0.06976802
0.042333256 0.073390424 0.05632064 0.01157432 0.05986256 0.10612935 0.1325007 -0.04564426
00000000: 24e6 ac3d 22ca 28be 1dc5 a4bd f48e 96bc
00000010: 9f7f 77bd c2c4 79bd 0093 cbbc 86bb 293e
00000020: c8b7 67bb d716 eabd 0a0f a9bb b2d2 683d
00000030: cf2d b03c af7c 223d 6648 11be aa0c cb3c
00000040: 359d f63d eac2 eebd 3841 ae3d fa8b 1ebc
00000050: e93e 3abd bc1f 52bd 0779 0b3d 9c55 6ebd
00000060: 46db 53bd 198f eebd bf41 263d 5dd7 bebb
00000070: 954f 6f3d 2096 043d 3ca4 c93d 7616 843d
00000080: 2395 cfbb 05f2 f9bd 6b07 4cbd f073 ce3d
00000090: b361 09bd 5012 46bd 3af0 82bd c5bc 99bd
000000a0: efe7 293e 24b1 f13d 8893 623c 2bce c2bd
000000b0: 44d3 743a de39 0e3d d01f 373b 7976 34bd
000000c0: 3b79 753d eab3 f0bd edb4 86bc c451 c2bd
000000d0: 49f9 17bc 3989 a2bd 40f3 bb3d 89e2 8e3d
000000e0: a365 2d3d b84d 963d 79b0 663d 37a2 3d3c
000000f0: 7232 753d 585a d93d 43ae 073e 7af5 3abd

actor.4.weight f4 [3, 64]
-0.1669356 0.27139822 -0.472006 0.025584158 0.44655213 0.2407272 -0.41854817 -0.17232957
0.52857566 -0.3135125 -0.3056339 0.21534246 0.5175931 -0.47727677 0.1315193 -0.21042013
-0.46546414 -0.14751275 0.5260787 0.5271789 -0.50276625 -0.09387858 -0.160828 -0.3246395
0.24474719 0.30014315 0.5317782 -0.18353678 0.32137257 0.38944566 -0.43583184 0.5415406
-0.4519979 -0.57892 0.31154662 0.3508459 -0.504413 0.55849916 -0.057556845 0.3898955
-0.10176687 0.35120225 0.38447472 -0.22875917 0.12669073 0.48234713 -0.22894125 0.19533649
-0.38402256 -0.48727137 -0.17271586 0.44340366 -0.3347541 0.40057555 -0.345765 0.03191359
-0.51826406 -0.66096133 0.4002772 0.18307602 0.18379034 -0.23966421 0.06641135 0.3919366
0.18778682 -0.1912073 0.014329453 0.07810667 -0.17520846 -0.1976454 0.029209947 0.012680871
-0.0030626815 -0.2155534 -0.1593478 -0.16837536 -0.057367466 -0.072554156 -0.08591731 -0.057498664
-0.041313488 -0.16642489 0.019679777 -0.12105182 0.056396756 -0.03798538 -0.0981703 0.089849
-0.04875117 -0.14417596 -0.11783587 -0.05282789 -0.022453554 0.18384108 -0.07590661 -0.013012826
0.08646123 -0.13592035 -0.15834145 0.17499453 -0.015394093 -0.13399424 -0.11727838 -0.067330256
0.18260378 0.13199855 0.18921174 -0.021777526 0.0034304932 0.038725685 -0.03712835 -0.098118335
0.1515307 -0.09008874 -0.13256884 -0.0839486 0.04845082 -0.052928206 0.018797573 0.09710968
0.038283184 0.1538615 -0.1531859 0.22453812 0.16417128 0.07037623 0.16726325 0.025337566
0.06717091 -0.13116807 0.50239813 -0.32403567 -0.2608335 -0.16726413 0.48118788 -0.064636245
-0.24718815 0.44714242 0.48993608 -0.16382866 -0.35506532 0.50359786 0.18337935 0.5136034
0.26865745 0.3271754 -0.53733605 -0.37192658 0.41647226 0.018466964 0.3962032 0.07067206
0.017596079 -0.17355077 -0.4113724 0.39706364 -0.3580586 -0.59824705 0.5388797 -0.38423446
0.36253378 0.55104303 -0.23096019 -0.5318755 0.23533995 -0.3440881 0.35445562 -0.09342673
-0.1007698 -0.532871 -0.5972121 0.59122485 -0.3073469 -0.44637036 0.6084841 -0.024296217
0.21034044 0.36651546 0.36440742 -0.45835385 0.23944479 -0.6489068 0.6138574 -0.26653907
0.5867379 0.499864 -0.17862263 -0.38401923 -0.32189584 -0.011712543 -0.20478092 -0.5154496
00000000: 2af1 2abe b5f4 8a3e c5aa f1be de95 d13c
00000010: 7ba2 e43e 3181 763e f24b d6be 2a77 30be
00000020: bc50 073f b684 a0be 0c7c 9cbe bc82 5c3e
00000030: fb80 043f 9f5d f4be ffac 063e 6078 57be
00000040: 5151 eebe 950d 17be 18ad 063f 32f5 063f
00000050: 4ab5 00bf 6a43 c0bd 18b0 24be 2637 a6be
00000060: 029f 7a3e 5dac 993e 9e22 083f 11f1 3bbe
00000070: f28a a43e 6c65 c73e 5a25 dfbe 68a2 0a3f
00000080: 456c e7be 1a34 14bf 0a83 9f3e 13a2 b33e
00000090: 3621 01bf cdf9 0e3f bac0 6bbd 62a0 c73e
000000a0: 266b d0bd c8d0 b33e dfd9 c43e d83f 6abe
000000b0: 37bb 013e 34f6 f63e 936f 6abe 4a06 483e
000000c0: 9b9e c4be a27b f9be 6ddc 30be ce05 e33e
000000d0: e464 abbe 3d18 cd3e 1c08 b1be d3b7 023d
000000e0: f4ac 04bf c334 29bf 22f1 cc3e 4878 3b3e
000000f0: 8933 3c3e 896a 75be ad02 883d eaab c83e
00000100: 304b 403e d9cb 43be 15c6 6a3c 64f6 9f3d
00000110: d969 33be 8e63 4abe b349 ef3c 6ec3 4f3c
00000120: 45b7 48bb 08ba 5cbe 122c 23be 976a 2cbe
00000130: 26fa 6abd 4697 94bd 6af5 afbd b883 6bbd
00000140: 5538 29bd 496b 2abe 7c37 a13c 04ea f7bd
00000150: 4900 673d 8f96 1bbd 830d c9bd c102 b83d
00000160: 4faf 47bd dda2 13be ef53 f1bd 0f62 58bd
00000170: 84f0 b7bc d640 3c3e ed74 9bbd c033 55bc
00000180: 9612 b13d b42e 0bbe 4324 22be c431 333e
00000190: 8137 7cbc c935 09be a62f f0bd 72e4 89bd
000001a0: 7cfc 3a3e a12a 073e b9c0 413e c866 b2bc
000001b0: 20d2 603b d39e 1e3d e613 18bd 44f2 c8bd
000001c0: dd2a 1b3e 7280 b8bd 20c0 07be 3eed abbd
000001d0: 5e74 463d 3fcb 58bd 5efd 993c 71e1 c63d
000001e0: d4ce 1c3d de8d 1d3e c4dc 1cbe 52ed 653e
000001f0: 841c 283e 6a21 903d 0f47 2b3e ba90 cf3c
00000200: e790 893d ec50 06be 2a9d 003f 01e8 a5be
00000210: f88b 85be 4a47 2bbe 425e f63e 0260 84bd
00000220: e41e 7dbe daef e43e e7d8 fa3e b3c2 27be
00000230: 1fcb b5be caeb 003f ccc7 3b3e 837b 033f
00000240: 788d 893e 8983 a73e db8e 09bf 296d bebe
00000250: da3b d53e 0848 973c 25db ca3e 83bc 903d
00000260: a725 903c 4bb7 31be 679f d2be ed4b cb3e
00000270: 7553 b7be b826 19bf 05f4 093f 61ba c4be
00000280: 079e b93e 2811 0d3f d480 6cbe fe28 08bf
00000290: f5fc 703e 512c b0be 357b b53e 8356 bfbd
000002a0: 6660 cebd 3c6a 08bf e4e2 18bf 835a 173f
000002b0: 935c 9dbe a88a e4be 9dc5 1b3f dc08 c7bc
000002c0: 7c63 573e eaa7 bb3e 9c93 ba3e 5bad eabe
000002d0: 0431 753e c21e 26bf c225 1d3f cf77 88be
000002e0: 7434 163f 2dee ff3e dae8 36be 2b9e c4be
000002f0: 88cf a4be f7e5 3fbc 17b2 51be 81f4 03bf

actor.4.bias f4 [3]
-0.13316692 0.13331798 -0.10150678
00000000: e95c 08be 8284 083e c9e2 cfbd

critic.0.weight f4 [64, 5]
0.3302673 -0.4040265 -0.3424236 -0.15511969 0.750356 -0.1528363 -0.27715793 -0.23073845
0.076759934 -1.1439403 0.18449296 -0.020810006 -0.40914223 0.3094943 -0.96152025 -0.05510557
0.131319 0.34840664 -0.22354533 -0.39870453 -0.017597523 0.2454628 0.2632386 0.13200778
-0.22918767 0.35700226 0.29568464 0.32228622 -0.4719036 1.3309548 -0.19031931 -0.21201082
-0.33508384 -0.06120303 0.47256303 -0.1003418 -0.3011772 -0.41586977 0.21852222 0.58452505
-0.051896613 -0.2610979 0.19964209 0.4810607 -1.0846673 0.31078017 -0.117741905 0.094648294
-0.11362321 -2.2431061 -0.047065776 -0.33274123 -0.06943219 -0.28825346 -0.73301303 0.22308354
0.25443944 -0.3407363 -0.3278537 -1.0225526 0.20072882 0.16691552 -0.046947557 0.37186807
1.1812218 0.061704062 -0.35875142 0.20623694 0.14360793 1.2908701 0.008052907 -0.13244724
-0.23383515 0.30318403 -0.3889486 0.32835582 -0.25111568 0.18740599 -0.3759682 0.9270482
-0.11896066 -0.09786222 0.3366716 0.010171915 1.7913753 -0.2910167 0.03928904 0.026772654
0.3142341 1.4528722 -0.08365386 -0.23766854 0.30405685 0.012960934 2.046748 -0.30241248
-0.008226249 -0.2221664 0.32953724 0.8395676 -0.060733885 0.21497667 -0.051617403 0.26128873
-0.49384817 -0.3491286 0.36409923 -0.44553044 0.30466038 -1.2032719 0.37784636 -0.379102
-0.16371784 0.3806846 -1.6595138 0.26053303 -0.14722586 0.03097128 0.0058284826 -1.809413
0.11625885 0.33428547 0.115199536 0.2751208 0.16395952 0.29662082 -0.2277777 0.07810906
0.07457563 2.048883 -0.1115722 0.046452977 0.2272215 -0.10788153 1.0041909 0.009418895
0.035963967 0.40304217 0.2836642 1.8500627 -0.07133883 0.016336711 -0.037539404 0.33177602
-1.4958913 0.3355411 -0.3730694 0.04573843 0.2814092 -1.4840811 -0.20718771 0.13467614
-0.08926168 -0.07487157 1.2976224 0.0366471 0.1957387 0.29989147 -0.49954292 1.1914752
0.030575624 0.29041928 0.10073268 -0.3658085 -1.2516536 0.14331801 -0.26853827 0.102941275
0.08766494 1.1377544 0.22264725 -0.3380135 0.097337164 -0.0021295468 1.283705 0.04818018
0.02759656 0.17664161 -0.07128426 1.6994042 0.16138121 -0.15999712 0.33653575 -0.021892814
-0.4914827 -0.32091922 -0.08971496 -0.36702666 -0.29225302 -1.5740514 -0.08983372 0.10585982
-0.031060424 0.16065156 1.9206318 0.060619105 0.19033183 0.11702753 -0.44750667 1.4495609
-0.038771406 -0.22133444 0.053501535 0.30144548 1.6340061 0.07641086 -0.16283824 0.097676896
0.007851261 0.09207981 0.20848067 0.2633964 -0.008457937 0.23208185 1.77502 0.2856625
0.2159098 0.2865666 0.41362414 1.3101686 -0.399167 0.41299355 -0.26919603 -0.20061755
1.6478992 0.21099195 0.3123041 -0.002021624 -0.17182383 1.4926099 0.12768383 -0.1569005
0.32980746 -0.27406543 -1.2840451 -0.21831132 -0.27658215 -0.07015364 0.06358236 -0.27436617
-0.33873048 -0.17458303 -0.04948751 0.392949 1.1305109 -0.26812404 0.019199139 -0.28697717
0.17519057 -1.5433564 -0.06335748 0.14180703 0.28209496 -0.21825144 -0.52103776 0.3791564
00000000: cc18 a93e 90dc cebe 2552 afbe b2d7 1ebe
00000010: 5517 403f 1e81 1cbe a5e7 8dbe b346 6cbe
00000020: 5034 9d3d a36c 92bf b9eb 3c3e bf79 aabc
00000030: 177b d1be 0976 9e3e 3126 76bf 61b6 61bd
00000040: 7d78 063e 5b62 b23e 11e9 64be 0023 ccbe
00000050: ae28 90bc 9a5a 7b3e 36c7 863e 0c2d 073e
00000060: 2cb0 6abe 00c9 b63e fa63 973e b302 a53e
00000070: 599d f1be ba5c aa3f 11e3 42be 5d19 59be
00000080: 1c90 abbe 07b0 7abd c8f3 f13e 0080 cdbd
00000090: e633 9abe e2ec d4be 4ac4 5f3e 6fa3 153f
000000a0: 8b91 54bd a0ae 85be fa6e 4c3e 974d f63e
000000b0: 61d6 8abf 941e 9f3e ab22 f1bd f7d6 c13d
000000c0: 49b3 e8bd 0d8f 0fc0 0bc8 40bd 0f5d aabe
000000d0: 7732 8ebd f595 93be bea6 3bbf 0370 643e
000000e0: e345 823e fd74 aebe 71dc a7be 01e3 82bf
000000f0: db8b 4d3e e7eb 2a3e 154c 40bd 7e65 be3e
00000100: 4732 973f 66bd 7c3d 44ae b7be c72f 533e
00000110: f50d 133e 3b3b a53f 57f0 033c 40a0 07be
00000120: 7b72 6fbe f03a 9b3e 4524 c7be 411e a83e
00000130: 3c92 80be 5be7 3f3e e77e c0be 0853 6d3f
00000140: a6a1 f3bd fd6b c8bd 3860 ac3e 1ba8 263c
00000150: c94b e53f 2400 95be 8bed 203d 5352 db3c
00000160: 4be3 a03e b7f7 b93f b752 abbd 625f 73be
00000170: 57ad 9b3e 195a 543c ebfd 0240 cfd5 9abe
00000180: 64c7 06bc 977f 63be 1bb9 a83e e7ed 563f
00000190: 18c4 78bd d822 5c3e c56c 53bd a3c7 853e
000001a0: abd9 fcbe fcc0 b2be 376b ba3e 911c e4be
000001b0: 72fc 9b3e d004 9abf 1475 c13e a819 c2be
000001c0: a6a5 27be 18e9 c23e f36a d4bf 9664 853e
000001d0: 60c2 16be 7bb7 fd3c dbfc be3b d89a e7bf
000001e0: 1f19 ee3d 7727 ab3e bced eb3d a2dc 8c3e
000001f0: 01e5 273e afde 973e 8f3e 69be a5f7 9f3d
00000200: 1cbb 983d e620 0340 f77f e4bd 7a45 3e3d
00000210: c1ac 683e fef0 dcbd 5489 803f b551 1a3c
00000220: f44e 133d 8b5b ce3e 6f3c 913e dbce ec3f
00000230: 181a 92bd 91d4 853c ebc2 19bd 8cde a93e
00000240: 5e79 bfbf 0bcc ab3e f402 bfbe 3858 3b3d
00000250: de14 903e 5ff6 bdbf 0429 54be 8be8 093e
00000260: d4ce b6bd 4456 99bd 7e18 a63f 451b 163d
00000270: ba6f 483e 608b 993e 17c4 ffbe 4282 983f
00000280: bb79 fa3c d6b1 943e ef4c ce3d 404b bbbe
00000290: 2f36 a0bf f5c1 123e d97d 89be e0d2 d23d
000002a0: ad89 b33d f0a1 913f a4fd 633e 1b10 adbe
000002b0: b558 c73d de8f 0bbb 7250 a43f 9558 453d
000002c0: 2e12 e23c 8ae1 343e 7bfd 91bd 1486 d93f
000002d0: 1e41 253e 49d6 23be 6a4e ac3e 8f58 b3bc
000002e0: 9fa3 fbbe 864f a4be 7abc b7bd ebea bbbe
000002f0: 30a2 95be 847a c9bf befa b7bd 09cd d83d
00000300: 6e72 febc d881 243e 43d7 f53f bd4b 783d
00000310: 59e6 423e 21ac ef3d 981f e5be 368b b93f
00000320: c4ce 1ebd 7fa5 62be 6d24 5b3d 1057 9a3e
00000330: 1d27 d13f 4c7d 9c3d 11bf 26be d30a c83d
00000340: 93a2 003c 5794 bc3d f57b 553e e5db 863e
00000350: 2993 0abc dda6 6d3e db33 e33f 5b42 923e
00000360: 7517 5d3e dbb8 923e 8bc6 d33e 9bb3 a73f
00000370: 9e5f ccbe e473 d33e 10d4 89be b06e 4dbe
00000380: 5cee d23f 460e 583e 53e6 9f3e 397d 04bb
00000390: 96f2 2fbe d70d bf3f 8dbf 023e 86aa 20be
000003a0: 86dc a83e 4e52 8cbe 975b a4bf 018d 5fbe
000003b0: 2d9c 8dbe b6ac 8fbd 7837 823d b979 8cbe
000003c0: 156e adbe e5c5 32be 6ab3 4abd 9c30 c93e
000003d0: 95b4 903f 8e47 89be 8347 9d3c acee 92be
000003e0: 2865 333e b48c c5bf 91c1 81bd dd35 113e
000003f0: c06e 903e 4e7d 5fbe bb62 05bf ca20 c23e

critic.0.bias f4 [64]
-0.1781932 -0.03823686 0.19204067 -0.08701753 0.24711059 -0.57504797 0.3255932 -0.1602101
0.27625653 -0.11907369 -0.075499415 0.3893948 0.21048217 0.0571483 -0.17996994 -0.45666093
-0.33329594 0.33463487 -0.23133092 -0.27414048 0.51160705 0.52615803 0.35223782 0.39908183
0.13820612 -0.16232093 0.032792054 -0.4209766 -0.0104219755 0.06533045 -0.20039889 -0.38294435
-0.08759701 0.08331766 -0.37712163 -0.32362708 0.13245209 0.56402636 -0.1909023 -0.20492266
-0.030665357 0.4852201 -0.38975006 -0.4293623 0.20831929 -0.36284572 0.11456507 -0.17728238
-0.44268346 0.40369278 -0.011127594 0.4391632 -0.26756498 -0.037743513 0.19123402 -0.008175988
0.14019941 -0.09236091 0.07198197 -0.13169837 -0.3721411 -0.42455435 0.29620996 -0.48431447
00000000: 4778 36be 419e 1cbd 4fa6 443e 3f36 b2bd
00000010: 8f0a 7d3e 5836 13bf 27b4 a63e 1e0e 24be
00000020: 7f71 8d3e e8dc f3bd 709f 9abd c15e c73e
00000030: a388 573e 5614 6a3d 0a4a 38be 76cf e9be
00000040: c4a5 aabe 4355 ab3e 03e2 6cbe 245c 8cbe
00000050: aef8 023f 4bb2 063f 8458 b43e 7454 cc3e
00000060: e885 0d3e 7537 26be f650 063d 3f8a d7be
00000070: efc0 2abc f9cb 853d 5e35 4dbe 4811 c4be
00000080: 1066 b3bd 73a2 aa3d 1616 c1be 73b2 a5be
00000090: 85a1 073e 0864 103f e47b 43be 3fd7 51be
000000a0: ea35 fbbc c56e f83e 528d c7be 60d5 dbbe
000000b0: a751 553e eac6 b9be 17a1 ea3d 8389 35be
000000c0: 68a7 e2be d2b0 ce3e 8350 36bc 00da e03e
000000d0: 47fe 88be f198 1abd dad2 433e 94f4 05bc
000000e0: 6f90 0f3e b727 bdbd 486b 933d f0db 06be
000000f0: 4789 bebe 305f d9be d5a8 973e 11f8 f7be

critic.2.weight f4 [64, 64]
0.071182035 -0.12436576 0.003711743 -0.08365193 0.02011018 0.021190222 -0.12207238 -0.0411531
0.07893321 -0.17452997 -0.09894333 0.066453196 0.12072387 -0.042370558 -0.07016412 -0.04658249
0.0966341 0.0735446 0.0024303112 0.08532067 0.08363753 0.061304778 0.04778425 -0.07026684
0.11721908 0.016414126 -0.038146205 0.08063138 -0.08181257 -0.09919984 -0.015110287 -0.015161085
-0.042110328 0.043146 0.11328095 0.13844004 0.06696097 0.041917183 -0.00996196 0.059955534
0.09402653 0.11887303 0.027033135 0.11475592 0.041879915 0.06022388 -0.03750542 0.11881924
0.07238505 0.07286866 0.053242538 -0.08954689 -0.06154716 -0.095258534 -0.03702634 -0.13227361
-0.06809949 -0.147373 -0.003274705 -0.003994125 0.0032845975 0.09566046 -0.14096127 0.1011195
0.12359922 -0.06974002 -0.07665193 0.028711177 -0.1394902 0.04232892 -0.0358817 0.1366739
0.07433928 0.018192934 -0.018548962 0.10253631 -0.07189055 0.052824058 -0.0357316 0.06801744
-0.00097008946 0.0072848513 -0.04275976 -0.09868441 0.08930822 0.039965693 -0.10674122 0.012882662
-0.09911989 -0.04396217 -0.032333627 0.014135955 -0.09050391 -0.019043028 0.052237134 -0.06535756
-0.043957222 -0.08560588 -0.056405764 0.09252214 0.1077336 0.09033115 0.0019514026 0.056378897
0.010606928 0.05245939 0.06573073 -0.10080847 -0.022695037 -0.053332955 0.09920347 0.04936565
0.052351296 0.02195508 0.0722575 0.071673274 0.042971216 -0.0012810589 0.06412562 -0.018671457
0.100996256 -0.0049408264 -0.020604411 -0.11486687 -0.070420265 0.08150973 0.04577312 0.04341445
0.11216352 -0.06365718 -0.079687536 0.06324551 0.055500653 -0.11608297 -0.013611628 0.032543767
-0.12261499 0.099075556 -0.104350165 -0.079903916 -0.0007451346 -0.05610754 0.11040254 -0.05990784
-0.0128489155 0.037857752 -0.055761132 -0.04260325 -0.049004585 0.012750272 -0.11105635 0.073258124
-0.07923939 0.051532153 0.06110302 0.0069478457 0.014037403 -0.023435643 -0.021703692 -0.06374892
0.07128633 0.036349997 -0.063710965 -0.10920478 0.012492337 -0.027521892 -0.1206265 -0.069675036
-0.007873004 0.0066431304 -0.0635381 -0.042304248 -0.10906118 -0.091029875 0.06033978 -0.049118914
0.06467191 0.113015726 -0.018819582 0.05282461 0.16905841 -0.05639276 0.04183442 -0.04060444
0.07972946 -0.060159925 0.081337325 -0.06930878 -0.067048065 -0.060887497 0.06974723 0.0030483752
0.010337464 -0.009657604 -0.0072544357 -0.0007014273 0.04434171 0.13711424 -0.02072567 0.056873504
-0.02525187 0.007953844 0.096576504 0.08914364 0.10230023 0.044362247 0.009294327 -0.027955303
0.08328743 -0.012311823 0.06258919 -0.020074442 0.060670096 -0.09155768 0.10551063 -0.08621265
-0.016477916 0.049111567 -0.02861708 -0.13079044 -0.0010010188 -0.022101756 -0.014643648 0.082732186
-0.0049735187 -0.014582866 0.12952821 -0.08743558 -0.027382039 -0.010726262 -0.054577503 0.06280551
-0.08746683 -0.09508101 0.014226473 -0.034517217 0.0807424 -0.08103587 0.08007292 0.064262114
0.0014127315 0.045093533 -0.10960933 -0.06316193 -0.07428862 -0.08334256 0.10855079 0.008887231
-0.00845586 -0.0039288346 0.011714431 -0.032090474 -0.008223031 -0.06768121 -0.011131512 0.092266984
00000000: e3c7 913d 7ab3 febd b740 733b b451 abbd
00000010: 1bbe a43c 1e97 ad3c 1501 fabd 2790 28bd
00000020: bca7 a13d fcb7 32be cda2 cabd 9d18 883d
00000030: 143e f73d c08c 2dbd 35b2 8fbd 48cd 3ebd
00000040: 19e8 c53d 8d9e 963d db45 1f3b 9abc ae3d
00000050: 274a ab3d b81a 7b3d 6bb9 433d 10e8 8fbd
00000060: 8f10 f03d eb76 863c 323f 1cbd 1122 a53d
00000070: 598d a7bd 4929 cbbd 2391 77bc 3366 78bc
00000080: e17b 2cbd dcb9 303d d8ff e73d 3ac3 0d3e
00000090: d522 893d 5ab1 2b3d 7d37 23bc ef93 753d
000000a0: fb90 c03d b473 f33d 9874 dd3c 2705 eb3d
000000b0: 468a 2b3d 51ad 763d 499f 19bd 8057 f33d
000000c0: 9d3e 943d 2a3c 953d d914 5a3d 5c64 b7bd
000000d0: e018 7cbd e816 c3bd eea8 17bd bc72 07be
000000e0: bf77 8bbd f3e8 16be 6f9c 56bb 26e1 82bb
000000f0: 6742 573b a2e9 c33d 2758 10be be17 cf3d
00000100: 9621 fd3d dbd3 8ebd b0fb 9cbd b433 eb3c
00000110: 85d6 0ebe 1761 2d3d b1f8 12bd 3ef4 0b3e
00000120: 313f 983d 5909 953c fef3 97bc 8ffe d13d
00000130: 5a3b 93bd 0a5e 583d 4c5b 12bd ba4c 8b3d
00000140: 9a4d 7eba c3b5 ee3b dc24 2fbd 0d1b cabd
00000150: 3ae7 b63d 11b3 233d 249b dabd cd11 533c
00000160: 5eff cabd ad11 34bd 4470 04bd 7e9a 673c
00000170: 1d5a b9bd 2000 9cbc 9bf6 553d 2fda 85bd
00000180: 7d0c 34bd 2352 afbd bb09 67bd 3f7c bd3d
00000190: 6fa3 dc3d 8aff b83d 35c6 ff3a 8fed 663d
000001a0: aec8 2d3c a8df 563d d59d 863d ac74 cebd
000001b0: f1ea b9bc a873 5abd 302b cb3d a333 4a3d
000001c0: 506e 563d 24db b33c bdfb 933d 70c9 923d
000001d0: 9602 303d 34e9 a7ba 4b54 833d e2f4 98bc
000001e0: 20d7 ce3d a8e6 a1bb 95ca a8bc 523f ebbd
000001f0: 8038 90bd 93ee a63d 987c 3b3d 5ad3 313d
00000200: fdb5 e53d b25e 82bd 3833 a3bd dd86 813d
00000210: a754 633d e8bc edbd 4e03 5fbc 9d4c 053d
00000220: 911d fbbd 20e8 ca3d 8ab5 d5bd aaa4 a3bd
00000230: 2355 43ba 05d1 65bd ba1a e23d ec61 75bd
00000240: 4284 52bc bb10 1b3d c965 64bd bf80 2ebd
00000250: 08b9 48bd 84e6 503c 8371 e3bd 5b08 963d
00000260: 4348 a2bd 6113 533d 2947 7a3d c1aa e33b
00000270: 23fd 653c 1bfc bfbc f1cb b1bc cb8e 82bd
00000280: 91fe 913d bce3 143d e57a 82bd c1a6 dfbd
00000290: a9ac 4c3c 9775 e1bc 070b f7bd c9b1 8ebd
000002a0: c6fd 00bc 9eae d93b 4320 82bd 3847 2dbd
000002b0: 785b dfbd df6d babd d826 773d ea30 49bd
000002c0: b572 843d ca74 e73d 862b 9abc 9e5e 583d
000002d0: a61d 2d3e 18fc 66bd 925a 2b3d d750 26bd
000002e0: 3349 a33d 416a 76bd 2f94 a63d c3f1 8dbd
000002f0: 7f50 89bd 2b65 79bd a3d7 8e3d 40c7 473b
00000300: 775e 293c ed3a 1ebc 9eb6 edbb fddf 37ba
00000310: a79f 353d ad67 0c3e e1c8 a9bc 31f4 683d
00000320: 02dd cebc d750 023c e7c9 c53d f190 b63d
00000330: c882 d13d 30b5 353d 3c47 183c 8502 e5bc
00000340: 9a92 aa3d 87b7 49bc c32e 803d 2873 a4bc
00000350: 3581 783d 9882 bbbd f515 d83d 4290 b0bd
00000360: b2fc 86bc 3629 493d 5e6e eabc eeed 05be
00000370: 9e34 83ba be0e b5bc e9eb 6fbc 7e6f a93d
00000380: e6f8 a2bb f9ec 6ebc 0ba3 043e 6d11 b3bd
00000390: 4c50 e0bc 34bd 2fbc a98c 5fbd 2da0 803d
000003a0: cf21 b3bd d5b9 c2bd 2716 693c ed61 0dbd
000003b0: 455c a53d 22f6 a5bd 45fd a33d db9b 833d
000003c0: 672b b93a ffb3 383d db7a e0bd 0b5b 81bd
000003d0: a224 98bd 81af aabd e04f de3d c09b 113c
000003e0: 738a 0abc 74bd 80bb e3ed 3f3c 4d71 03bd
000003f0: e4b9 06bc 729c 8abd f260 36bc 79f6 bc3d

critic.2.bias f4 [64]
-0.1057549 0.07495352 0.0783271 0.039303534 0.064563505 -0.17328219 0.053276118 0.16134848
0.043717116 -0.021615423 -0.08687469 -0.10938676 -0.08980524 -0.0096669085 -0.07231615 -0.0009402872
0.042782646 0.1150563 0.14677106 0.0016614096 0.042734243 -0.005481398 -0.085841775 -0.10938699
-0.040925536 -0.018320011 -0.011670811 -0.08385619 -0.14382836 0.019797878 0.051353943 0.0973239
0.10994725 -0.047382437 -0.06114001 0.09784851 -0.035562553 0.077435546 0.06071864 -0.048200116
-0.042664863 0.04551731 -0.06376661 0.05067423 -0.04448109 0.10966681 -0.047117744 -0.11931599
-0.06016195 -0.16227138 0.080360934 -0.084500514 0.019606367 -0.00022609634 -0.17814122 0.11966879
-0.13621981 0.12938483 -0.10331319 0.05104177 0.08781537 0.013107082 0.03288434 0.08092874
00000000: 0696 d8bd 3b81 993d f569 a03d befc 203d
00000010: df39 843d e370 31be 0f38 5a3d 8938 253e
00000020: b810 333d d412 b1bc 5ceb b1bd 2a06 e0bd
00000030: cfeb b7bd f461 1ebc 7d1a 94bd 9b7d 76ba
00000040: db3c 2f3d a3a2 eb3d 274b 163e a8c3 d93a
00000050: 1a0a 2f3d 4d9d b3bb d0cd afbd 4906 e0bd
00000060: 89a1 27bd d913 96bc ee36 3fbc cbbc abbd
00000070: be47 13be 292f a23c 8358 523d c151 c73d
00000080: 062c e13d 1614 42bd f26d 7abd cd64 c83d
00000090: 0aaa 11bd 8796 9e3d 1cb4 783d 7c6d 45bd
000000a0: 5ac1 2ebd 5c70 3a3d 1298 82bd c88f 4f3d
000000b0: ce31 36bd fe98 e03d 89fe 40bd f15b f4bd
000000c0: 606c 76bd 782a 26be 4694 a43d 9b0e adbd
000000d0: 889d a03c 4614 6db9 a76a 36be e914 f53d
000000e0: 357d 0bbe 757d 043e de95 d3bd 2d11 513d
000000f0: 8bd8 b33d 16bf 563c bbb1 063d f8bd a53d

critic.4.weight f4 [1, 64]
0.020139247 -0.008942083 -0.007854222 0.002498214 -0.011253301 0.031329826 0.008531788 0.013197848
-0.009409671 0.0044626794 0.006004474 0.031153923 -0.0041499427 -0.055973653 0.006854473 0.008324309
0.33592188 0.0075378916 -0.03472626 0.019813742 -0.013305326 -0.005193191 0.009315296 0.009477943
0.007797567 0.011718738 -0.03954774 -0.18740028 0.014942208 0.009367196 0.008371924 -0.034687303
-0.034038972 -0.010597986 0.12832315 0.018419314 0.007925118 -0.01997475 -0.028220529 -0.03370382
-0.0015912915 0.013185881 0.07699655 -0.04591581 0.009972699 0.03752901 -0.015785655 -0.10295482
0.006878137 0.01798763 0.012796727 0.019633511 0.028040063 -0.016860556 0.05716645 -0.031736445
0.008352509 -0.009434965 0.09377403 0.0030478435 -0.034461845 -0.003230849 0.012832188 -0.009189016
00000000: 10fb a43c d181 12bc ffae 00bc 13b9 233b
00000010: c45f 38bc b453 003d eac8 0b3c c93b 583c
00000020: 052b 1abc ab3b 923b 2ec1 c43b 8336 ff3c
00000030: 3efc 87bb a144 65bd 7d9b e03b af62 083c
00000040: f4fd ab3e 6b00 f73b 1f3d 0ebd 6e50 a23c
00000050: 95fe 59bc a52b aabb 2f9f 183c 6049 1b3c
00000060: bc82 ff3b f3ff 3f3c d0fc 21bd dce5 3fbe
00000070: 2ad0 743c de78 193c 652a 093c 4614 0ebd
00000080: 736c 0bbd 2da3 2dbc 2567 033e 1ae4 963c
00000090: 5bd8 013c 16a2 a3bc bd2e e7bc 040d 0abd
000000a0: e292 d0ba 9809 583c 5eb0 9d3d 3712 3cbd
000000b0: 8864 233c 05b8 193d eb50 81bc fad9 d2bd
000000c0: ff61 e13b cb5a 933c 5da9 513c 75d6 a03c
000000d0: 46b4 e53c 261f 8abc 5e27 6a3d 13fe 01bd
000000e0: f6d8 083c 1d95 1abc 990c c03d 54be 473b
000000f0: dd27 0dbd a7bc 53bb 193e 523c 878d 16bc
