trained/ComplexPong/PPO_mcts_sparse_1728321820.4063509.pth (torch, 44898 bytes, 11 tensors)

actor.0.weight f4 [64, 7]
00000000: 3823 40be f340 cb3e 3992 63be 7b7a 93be
00000010: c7a6 e7be 0da9 e1be d91e 073e 16a4 603d
00000020: 798c 47bd d8c0 79bc 7506 993e 3ba5 d13c
00000030: f4d5 ab3f 4a77 c93d 916e f43e 5f5c 91be
00000040: 56aa 31be 7f40 803e 774a 2b3e aa13 9f3f
00000050: 33f9 73be ad8d 64be 6587 b4be 122f de3e
00000060: 6c59 c4bb ffbb 3e3f 8d4b b5be 815b 9ebc
00000070: b5ee 31be 9075 e0bd c0cd ee3e 78e2 ffbd
00000080: 7da8 ab3e cc76 a53e 6bd7 e83e ae46 37bd
00000090: 6f92 04bf 992c b43e 77e7 403e 71f8 bb3d
000000a0: 2cf0 86be 774e 2bbe 5601 653d 6918 863e
000000b0: b4b4 96be a154 24be 671c 04bf ef62 993e
000000c0: 95e1 a6bd 0968 8ebd caa2 a33e f10d ebbe
000000d0: e1f1 8e3d 25c8 cbbc 2a78 17bf 4ed8 01bd
000000e0: 1f0b cf3c 2a3c 013e 34c5 1fbd 2614 4ebe
000000f0: 3e26 74be 4870 b1bf 8d56 6cbe f7ae 27be
00000100: 3136 db3e c950 fbbe d4da 593e cddf 57bf
00000110: 8085 f03e 0b0d c0bd 5d36 65be 2a85 273f
00000120: 2bbb 07be 2b3a 61be d784 73bd 8374 00bf
00000130: 4e83 4c3e be0b afbe 00bd 1e3c 6dfc c63e
00000140: 70bf 343d c299 e1bc de46 833d 1350 c83d
00000150: 0cc8 8b3e 3c55 d43d 1068 74be 214b ad3e
00000160: 85f0 85be 86e8 cc3f a14b aabd 7547 8f3e
00000170: e543 85be 31bb 93be df55 ecbe 0629 563d
00000180: 57cf f1be 236a a13e d0e6 14be 3545 ef3e
00000190: 52b4 95be d610 d7be 115b 4ebe 2163 28bf
000001a0: 23e6 013d e5df a03e 6f46 683e c693 bfbe
000001b0: 7bce d23d 5433 41bf f55a d53e 9625 a7be
000001c0: 35d3 803d f4bd a7be dadd 133d 15e8 883e
000001d0: f293 763e 1d62 4b3e e666 753e 8633 313d
000001e0: c17d 1dbf 9422 323f c601 863e 9de1 543f
000001f0: 3af1 4ebe e9cc 66be 8703 60bd 00ec a03e
00000200: 6e8d c2be 20ae cd3e c440 a7bd 5c19 b63f
00000210: 1b52 4e3d 0949 b03d 1179 473e 67c6 65be
00000220: d23e b13e 3865 ffbd d014 873f c507 9b3e
00000230: 8f1f 773e ec27 a33d 1bee 88bd 52b9 c63d
00000240: 8b5d 0f3e c0f8 8c3f cfa1 12be 7ed9 953e
00000250: c2e1 c03d 64f6 72be bd5d cebe 9e06 72be
00000260: dcc8 39bf 77b2 923d dbb3 aa3e 5c0e a5be
00000270: 2b48 49be 5c48 083e 6a82 f3be 44d6 2b3f
00000280: 3b9d 95bd 6357 f13e 1c9c 39be 7dbc b5be
00000290: 5f87 153e 39fd efbe bc56 823f 41ad 80be
000002a0: dd8c 7abe 680b d13e 2190 b7be 043f f23e
000002b0: 3065 f6be d066 813f dbbd 443e d59e a9be
000002c0: da04 99bd 6d9e 893e 203d 2f3e 41d9 dd3e
000002d0: 56f8 1d3f 33d4 edbd c81d 803e 028d 743e
000002e0: c1f7 c8be 1e56 053e 8308 6abf 5561 043f
000002f0: 4edd 99be 7905 2bbe 5321 003f 2834 cdbe
00000300: b9f1 b5be 5297 023e ac08 05bf fc23 8d3e
00000310: 414e 043e fc57 f93e bfc5 1abf 7499 113e
00000320: 06bb 01bf 8675 f43e 3c2b 4abe 1843 4bbd
00000330: c1b9 733d 1184 a83e 4126 d4bd f87a 153e
00000340: 069d 64be 79a9 4fbd 7856 a0be 3ace babd
00000350: 5360 ba3e 93e9 99be 5b2b 1c3f a3b5 77bf
00000360: cec4 9e3e 50de 15be 0427 19bd 8f4e 8f3e
00000370: 1a5d 7cbe d894 133f 2fc3 89bf c00b a5b9
00000380: ea2d 79be 1150 5bbe 768d c13e 007c 943e
00000390: a429 4f3e 16b6 713e 6cda 3f3d 9d27 e2bd
000003a0: e784 82be e545 0d3f e7e6 acbe 1f5d 1d3f
000003b0: 4d2b 48bf 32dd 543e 84f6 aabe edf8 49bd
000003c0: 491b ab3e d6fc a4bd 5543 0b3f 4e04 9cbe
000003d0: 80e1 ce3d f376 753d a72d 1abe f8c5 c33e
000003e0: 5ebb 0d3e 323e 1a3f 1e54 f6bd 7e69 00bd
000003f0: 7f8c e2bd 1d33 dabe adf2 1c3f b321 6bbd
-0.18763435 0.3969799 -0.22223748 -0.28804383 -0.4524443 -0.44074288 0.13195361 0.054843985
-0.04871795 -0.015243731 0.2988774 0.025591483 1.3424668 0.09837206 0.47740605 -0.28390786
-0.17350134 0.25049207 0.16727625 1.2427876 -0.2382553 -0.2231967 -0.35259548 0.43395287
-0.005992105 0.7450561 -0.35409203 -0.019330742 -0.17376216 -0.10959923 0.4664135 -0.12494367
0.33526984 0.32317197 0.4547685 -0.04474514 -0.5178594 0.35190275 0.18838297 0.09178246
-0.26355112 -0.1672915 0.055909477 0.26190498 -0.2943474 -0.16047908 -0.5160584 0.29958293
-0.08148495 -0.06953437 0.31960136 -0.45909074 0.069797285 -0.02487571 -0.5916773 -0.031700425
0.025273858 0.12620607 -0.039006427 -0.20124874 -0.23842713 -1.386239 -0.23079892 -0.16375338
0.42814782 -0.49085072 0.21274883 -0.8432587 0.46976852 -0.09377488 -0.22384019 0.6543757
-0.13254993 -0.21994846 -0.059452858 -0.5017778 0.19971964 -0.34188646 0.009688616 0.3886446
0.04412788 -0.027539138 0.06410001 0.09780898 0.2730106 0.1036782 -0.23867822 0.3384638
-0.26160064 1.600846 -0.08315206 0.27984205 -0.26028362 -0.28853753 -0.46159264 0.052285217
-0.472285 0.31526288 -0.14541173 0.46732488 -0.29239136 -0.42005032 -0.20151927 -0.6577626
0.031713616 0.31420818 0.22683118 -0.3741743 0.10293289 -0.75468946 0.41670957 -0.32645863
0.062902845 -0.3276211 0.036100246 0.26739565 0.24079874 0.19861646 0.23965034 0.043262027
-0.6152001 0.6958401 0.26173228 0.8315676 -0.20209208 -0.22539105 -0.054690864 0.31430054
-0.37998527 0.4017191 -0.0816665 1.4226489 0.05037127 0.0860768 0.19479777 -0.22438966
0.3461824 -0.12470478 1.0553226 0.30279365 0.24133132 0.07966599 -0.0668604 0.09703316
0.14000528 1.1013412 -0.14319538 0.29267496 0.0941806 -0.23726803 -0.40305892 -0.23635337
-0.7257211 0.07162946 0.33340344 -0.32237518 -0.19656436 0.13308853 -0.47560436 0.6712382
-0.0730538 0.47136983 -0.18125957 -0.35495368 0.14602421 -0.4687288 1.0182719 -0.25132182
-0.24467798 0.40829015 -0.3585215 0.47313702 -0.48124075 1.0109501 0.19213049 -0.33128992
-0.074716285 0.26878682 0.17113161 0.43329814 0.61707056 -0.116127394 0.2502272 0.23881915
-0.3925152 0.13021132 -0.9141924 0.51711017 -0.30051655 -0.16701306 0.5005085 -0.40078855
-0.35535982 0.12753037 -0.5196636 0.27566516 0.12920476 0.4869994 -0.60457987 0.14218694
-0.50676 0.47745913 -0.19743055 -0.049624532 0.05950332 0.3291326 -0.10358859 0.1459769
-0.22325525 -0.05069873 -0.3131597 -0.09121366 0.36401615 -0.30061015 0.61003655 -0.9676153
0.31009525 -0.14635587 -0.037390724 0.27989623 -0.2464489 0.5764899 -1.076269 -0.00031480007
-0.24333921 -0.21417262 0.3780324 0.29000854 0.20230728 0.23604617 0.046839163 -0.11042712
-0.2549202 0.55184776 -0.33769915 0.61470217 -0.7819107 0.20787504 -0.33391201 -0.04930966
0.33419254 -0.08056037 0.54399616 -0.30472034 0.101016045 0.059927892 -0.15056477 0.38236976
0.13841006 0.6025115 -0.12027763 -0.031350605 -0.11061954 -0.4261712 0.61307794 -0.057405185

actor.0.bias f4 [64]
00000000: db0e 0e3e cde9 85be 0938 29bd 60dc 0c3e
00000010: 62ea 96be 75da b0bc fcd6 da3d 1c7f 3a3e
00000020: 3246 493e 2293 0abe bbb8 15be aade 5abe
00000030: 0ba2 aabe b092 fd3e b7cb a23e c234 043e
00000040: ab30 34be e0a0 2dbe 16a1 4abe a689 e6be
00000050: dc50 d0bd 85bb a43e a495 d93d cca7 1c3e
00000060: dcc3 bbbe bc88 dd3b 5b27 91bd 540b 763e
00000070: a9d9 723d d658 f1be a193 b13c d2d7 d13d
00000080: c350 44be 9360 123e 9a63 83bd da60 1f3e
00000090: d449 ba3d 6bdb dc3e 934b b73e f804 443e
000000a0: 70be 0ebe 1f35 09bb 4ca5 25be 7da4 95be
000000b0: ebea 2c3c b4d3 a9bd 5eb6 0bbc 0d53 08bd
000000c0: 2c55 813e eb35 3c3e 6a3b 3f3e 0f14 51be
000000d0: 81a2 b6be ef80 4ebe cf58 99be f4e8 d0be
000000e0: 4a82 0d3e 1f99 c03e 59c3 e6bd 4375 43bd
000000f0: aab0 43be c649 edbe 45b9 5b3e 6b49 763c
0.13872854 -0.26154938 -0.041313205 0.13755941 -0.29475695 -0.021588543 0.10685536 0.18212551
0.19655684 -0.13532689 -0.1462125 -0.21374002 -0.33326754 0.49525976 0.31796047 0.1291075
-0.1759669 -0.169559 -0.19788012 -0.45026892 -0.10171673 0.32174316 0.10624245 0.15298384
-0.36672866 0.006760685 -0.070875846 0.24027759 0.05928961 -0.4713809 0.02167684 0.102462426
-0.19171433 0.14294653 -0.06415482 0.1556429 0.09096113 0.43136153 0.35799846 0.1914252
-0.13939834 -0.0020936204 -0.16176337 -0.29227057 0.010554056 -0.08292332 -0.008527366 -0.03328233
0.25260293 0.18379943 0.18675008 -0.20417808 -0.35670856 -0.20166372 -0.29950568 -0.4080273
0.13819233 0.37616822 -0.11267728 -0.04771925 -0.1911036 -0.46345347 0.21457393 0.015032153

actor.2.weight f4 [64, 64]
00000000: bc74 633e 2179 063e 4758 78bd 469b 34bf
00000010: 607d aabe 9f17 0bbf a518 803e 6b8b 8a3e
00000020: 1643 4f3e 4699 ed3e 9fce b03d 1e39 b3be
00000030: 3141 703e f816 2b3e 094f 253f 8bfd b33e
00000040: 4cc1 a0bd f5ab a5bf a5ed c23e 7ed4 c93e
00000050: acc4 2f3e 25fa ec3e f8d5 2e3d 17d2 993e
00000060: 239c fc3e ef77 96be f6ad dd3e 50d2 383f
00000070: b7fc 913f 811b 50be d3b7 c9be 2b4a eebe
00000080: 3a61 ebbe 94b1 0cbf 40a1 afbe f958 763d
00000090: 6623 61bf 86c1 f53e 54fd 8e3f 1b49 0bbf
000000a0: a911 a23e 334b a1bb fc41 a43d f3ed 583e
000000b0: be19 2e3f 9cb1 ce3e e2b9 043f 2bb5 9fbe
000000c0: 6e1a 0bbe 21ee 013f ed18 06bf 6fa9 8f3d
000000d0: a5db d5be 3897 753f 279f c93e 4902 d2be
000000e0: b0be 973e 4c38 d83e aced 633f bb36 f9be
000000f0: d728 9fbe b5ab 32bb 9977 a6be 13af d9be
00000100: d1b2 cdbd c24a 793e 3cf9 b83e 7160 16bd
00000110: 329e 153d 2c23 f33c beae e63d 6196 e3bd
00000120: a5bd 6fbe 654b 4a3d 025b 35be 6388 223c
00000130: e130 803e a181 a53c 7448 a5be b6e6 3d3d
00000140: 58dd 063e 8526 063e 8ec4 233e f02f 253d
00000150: 8a7a a83d 8939 063c 7538 223e b518 8a3e
00000160: 7da5 253d 1b7f a33c 1f23 993d 486b 23be
00000170: b24f 343d f4f3 37be 7959 503c 888b 8d3c
00000180: 497c f73c 49a6 b8bd 1798 573c fa0e e13d
00000190: 0e6e ddbc c575 2bbe 9215 a3bd cf13 073c
000001a0: 2e21 8d3b 5fe0 45bd 2da5 873e 24ed 05bd
000001b0: 77d0 8f3d 205e 9e3c 0b00 e63d 2f29 17be
000001c0: 01ef 93bd f577 fc3c e6c8 12be f71f 53bd
000001d0: 9ea5 a73e 2c66 ea3d 38fb c4bd 272f 613d
000001e0: faef a7be 6dab c73d 9887 303d fcab a13b
000001f0: 3dbd 423e eb2a 223d 7a44 c8bd ca53 243b
00000200: ba69 12bf ef69 343e e11f 4c3e 3b9f 703f
00000210: b10f 8e3e 12f1 063f 507d 0bbf 5d14 f5bd
00000220: 5dd4 09be bfd7 19bf 549b cbbe 9a13 293d
00000230: a13a babd 72ba 033d ab5d 51bf f76a a5be
00000240: 751e 8d3e 2909 8f3f 338f dfbd 4fc9 2cbc
00000250: 2c93 053e a6c0 f6bd cfdf 6bbd 29f8 31be
00000260: b51c e8be 8bbf 943e e9cf f3be 85f3 3abf
00000270: d9bc 15bf dc19 0c3d 51a7 033e 8a48 e43c
00000280: afb2 203f 345b 063f 24ef 143e c5b5 243e
00000290: 980e 893f 59a7 58be 7428 4abf d744 b33e
000002a0: 5b17 1abd 8f86 5abd 4bef 2c3e 760f d2be
000002b0: b9e4 21bf 2486 843a 6414 a0be 6b63 2b3e
000002c0: b058 b03e 62e8 8cbe 4e65 403e 3004 333e
000002d0: dfa5 453f 842e 65bf 8858 f0be 3d70 103e
000002e0: fe93 49bf d342 49be d55a 94bf 292b 073f
000002f0: 75d1 713e 91c1 c53d 3a02 5d3c b20e 1d3f
00000300: 271d 9cbe e5ab 563f 69a6 de3e e046 96bd
00000310: e70b b33d c8f3 70bc 480f ac3c 01b3 29be
00000320: e55c fabe 5b00 533d eea0 c5bd 5b8e 633e
00000330: 11c9 3e3f c551 c8be 09da 70bf 05e1 a53d
00000340: 2402 033e 088d 833e 027e e83e c9ac 163f
00000350: a2c3 8a3e 351b 14bf c19a 223e 075b 563e
00000360: 4893 063f 716e 653d 5b1d 533d c4fa 0bbf
00000370: d522 d1ba 0e4b bb3d cbe1 cabe e6c6 dfbe
00000380: 17c4 803e 24e0 28be b2c5 0ebe 0438 5dbd
00000390: 531b 94bd 33ce e6be 4978 51bf 2264 c7be
000003a0: 3a92 a23e 2395 92be 7969 003f 84ba bd3e
000003b0: 17c4 bf3d c765 ad3e be94 503e c6d7 1fbe
000003c0: 0af5 0bbe 60af 5d39 0237 7ebe 2d01 883e
000003d0: e145 3d3f fd2c 973e 1278 9b3e f3b0 223f
000003e0: af1c 02bf 7ef9 51be dffd 1d3d f84f d83b
000003f0: 04c3 da3e 9c1d 1c3f a6c8 bfbe 75c4 3f3e
0.222125 0.13132145 -0.060631063 -0.7054943 -0.3329878 -0.5433292 0.25018802 0.27059492
0.20240435 0.46406 0.0863316 -0.35004514 0.23462369 0.1670798 0.64573723 0.35154375
-0.078493685 -1.2943102 0.38071933 0.3941993 0.17164868 0.46284595 0.042684525 0.30043098
0.49337873 -0.29388377 0.43296784 0.7219591 1.1405247 -0.20322992 -0.3939806 -0.4654096
-0.45972615 -0.5495846 -0.3430271 0.060143445 -0.8794464 0.4799921 1.117106 -0.54408425
0.316541 -0.0049222945 0.08020398 0.2118452 0.6800803 0.4036988 0.51846135 -0.31192908
-0.13584301 0.5075398 -0.52381784 0.07014739 -0.41769138 0.95933867 0.39379236 -0.41017368
0.2963767 0.4223045 0.89034534 -0.4867457 -0.31085846 -0.002726299 -0.3251312 -0.42516384
-0.10043872 0.24344924 0.3612765 -0.036713067 0.03652782 0.029679857 0.11263798 -0.11112667
-0.23412187 0.049388308 -0.17710498 0.009920212 0.25037292 0.020203413 -0.3228184 0.0463626
0.13170373 0.13100632 0.15992948 0.04032892 0.082264975 0.008192428 0.15841849 0.26971975
0.040441025 0.01995807 0.07477402 -0.15958893 0.044021316 -0.17964154 0.012716644 0.017278448
0.030210631 -0.090160914 0.01315882 0.10989185 -0.027030017 -0.16744144 -0.079630986 0.008244469
0.004306934 -0.04830968 0.26493207 -0.032696858 0.070221834 0.019331992 0.11230477 -0.14761804
-0.07223321 0.030818919 -0.14334449 -0.051544156 0.32743543 0.11445269 -0.09618229 0.05497661
-0.32800275 0.09749494 0.043098062 0.004933832 0.19017501 0.03959171 -0.09778686 0.0025074356
-0.57192576 0.17618535 0.19934036 0.93992966 0.27746347 0.52711594 -0.54488087 -0.119667746
-0.13459916 -0.6009483 -0.39766943 0.04127846 -0.09093214 0.03216023 -0.8178355 -0.3230817
0.275623 1.117467 -0.10915985 -0.010546043 0.13044423 -0.120484635 -0.057586487 -0.17379822
-0.45334402 0.29052386 -0.4761956 -0.7302783 -0.58491284 0.03420435 0.12856795 0.02786662
0.6277265 0.52482915 0.1454435 0.16084965 1.0707579 -0.21157588 -0.78967977 0.35013458
-0.03761993 -0.05335098 0.16888158 -0.4102742 -0.6323963 0.0010110778 -0.31265557 0.16737144
0.34442663 -0.27521044 0.18788645 0.17482066 0.77206224 -0.895241 -0.46942544 0.14105316
-0.78741443 -0.19654398 -1.159022 0.5280023 0.23615058 0.096560605 0.0134893 0.6135055
-0.3049099 0.8385604 0.43486336 -0.07337737 0.087425046 -0.0147065595 0.02100338 -0.16572191
-0.48898998 0.05151401 -0.096498355 0.22222273 0.74525553 -0.39124885 -0.94082695 0.0809956
0.12793785 0.25693536 0.45408636 0.588574 0.2710238 -0.57854015 0.15879346 0.20933162
0.52568483 0.05601353 0.051541667 -0.5467951 -0.0015955815 0.09145175 -0.3962539 -0.43706435
0.25149605 -0.16491753 -0.13942602 -0.0540085 -0.07231774 -0.45079193 -0.81824166 -0.38943583
0.31752187 -0.28629407 0.5016094 0.37056363 0.09363573 0.33866712 0.2036924 -0.15609655
-0.13667694 0.00021141535 -0.24825671 0.26563397 0.7393475 0.2952651 0.30365044 0.63551253
-0.5082502 -0.2050533 0.03857219 0.00660133 0.4272691 0.6098268 -0.3745777 0.18727286

actor.2.bias f4 [64]
00000000: 0200 3c3e 79a3 8f3d 6b90 c13c 0f33 45be
00000010: a4af a2bc 9dfd d4bd b494 8fbc d764 253e
00000020: cbc5 91be 39dd 26be 398e f8be 7da1 0c3d
00000030: 7262 cb3e d7d5 103e e59b 883e b55b 1e3e
00000040: 6bd6 833e 9c18 b03e 7186 2d3e 25d0 53bd
00000050: 8892 95bd ae5c 9d3d f943 803d aa5b bb3e
00000060: 9073 9c3e b072 bbbd b385 65be 5ef9 1fbe
00000070: e0e4 843e 9c0d 71be 5822 963e c181 5c3e
00000080: 3a0e 94bd 2fdf 863e 4c2b 75bd 6ed7 c03d
00000090: 6f6c 943e 7954 853e 4329 babd 0967 aa3d
000000a0: 83cd 873e b3ef 9bbd e48a 8c3e f624 1ebe
000000b0: 2471 633e 7115 94bb 348e 71bd fd78 f2bd
000000c0: 40f2 9d3e 2a0e ce3d e82e 05bc 64c9 84bd
000000d0: 51c1 da3e 6d8f 1ebe 8153 c33d 8bbc dd3d
000000e0: 712b d0be 029e 2b3e a76d a5bb 1c68 6fbc
000000f0: 0c6f 803d 0af2 bebd 054f 41bd 686b d7bd
0.18359378 0.07013602 0.023628434 -0.19257759 -0.019859143 -0.103999354 -0.017526962 0.16151749
-0.28471217 -0.16295327 -0.48546007 0.034333695 0.39723545 0.14144073 0.26681438 0.15464671
0.25749525 0.34393775 0.16945817 -0.051712174 -0.07303339 0.07683693 0.06262965 0.36593372
0.30556917 -0.09152734 -0.22414283 -0.1562247 0.25955868 -0.23540348 0.29323077 0.21533872
-0.07229276 0.2634215 -0.059855744 0.0941609 0.28988978 0.2604101 -0.09089901 0.08320434
0.2652398 -0.076140784 0.27449715 -0.15443787 0.22211128 -0.0045191576 -0.058973506 -0.11839483
0.30848885 0.10061295 -0.008128859 -0.06483725 0.42725614 -0.154844 0.095374115 0.10826977
-0.40658143 0.16759494 -0.005048472 -0.014612224 0.062711805 -0.09323509 -0.0471945 -0.10518533

actor.4.weight f4 [9, 64]
00000000: 5656 d03e 86c4 b33d b34c 73bf 0284 383e
00000010: 77c2 5b3e 5f96 05bf 38cc 07bf 2559 8cbe
00000020: abee 7c3c 1557 bb3e 174e 1a3e 337e e3be
00000030: 35fb 4cbe c8e6 babe ffdb 82be 7b70 27bf
00000040: 4629 54be 3bcb babf 786a e6be d522 69bf
00000050: c2d2 74be 18bd b4be f589 82bf f1db cdbc
00000060: 2056 b9bd 32c1 0d3f 18a1 bf3d c50c 033f
00000070: a433 44be 506e 5a3f 1734 7cbf 2f3c 37bd
00000080: bba8 a7be 41a2 4abe a03e 0bbf cb35 fcbd
00000090: 3ed4 38bf 6374 75be 82d6 07bf bad3 8c3e
000000a0: 5681 4bbe ed5a fc3d 38f9 083d 4df3 ae3e
000000b0: d8c2 79be 71a6 8e3c a3ae d03e 2d73 9dbe
000000c0: 1823 943d 48d5 303e 8628 1ebe 74d2 55be
000000d0: 8dcc 09be 7dd5 693e 266d 003e 1164 66bf
000000e0: 9582 693e 58ad 94be 4f84 e83e d525 ccbe
000000f0: 023f c83d 4bbd d8bd c08b 613f 9954 91be
00000100: 8e5d cc3d ad28 25be cec6 103d 55fe f2be
00000110: 141f 7bbe a9bf 31be 4227 2ebd 525a a03e
00000120: 5345 0bbd 2404 cdbe 7672 07be 6b3a cb3c
00000130: e612 59bd e254 d13d e367 6a3e 9a6a ad3d
00000140: 3a0d a83d 4981 b1bb de3c 9b3e cea8 b1bd
00000150: e13c 74bd da29 053e b854 f13c 5c39 b33d
00000160: d505 173e 8878 53be 2983 2fbe fa6e 9bbe
00000170: a494 6c3e c262 573d 99df 0e3e 2dbf 893d
00000180: 43a1 de3d b6a2 303d 650b b53c 7abe 08be
00000190: d28a 4a3e 197c b1bd 9caa 1abd 70c5 373d
000001a0: 82d4 eabc d094 253c 89e2 363e d938 c0be
000001b0: e599 c13e 68f2 2bbe 7dfb 0abe 3156 263e
000001c0: 80a9 4c3e ad95 953e 8b17 acbd 532d d7bd
000001d0: 0ecc 843c 609a 80be 7050 6cbe de0e 253e
000001e0: 3024 95bc b9d3 9dbd 1ded 60be e982 8b3d
000001f0: affe 83be 6bef dabd b54a 62bc 6294 a1bd
00000200: 9c25 3c3d 5fff 5fbe c6be ccbb 4f61 d2be
00000210: 7b01 cbbe 05f6 2bbe 732f 58bc 0c00 8f3e
00000220: 3e0c 1abd 630f 61be f090 5dbd d9cb 46bd
00000230: 5150 dd3c 23aa c63d 50db dc3e da21 2f3e
00000240: d5a6 843d 82e8 84bd c611 de3e 87da 36be
00000250: 5d39 61bb 140e 773d 1f17 d53c aee1 e13d
00000260: 049c 623e 6d6e c2be 21d9 5dbe a80b dcbe
00000270: 3c22 013e e628 213e 5e09 653e 3b5f 253c
00000280: bc26 993e 3124 22be 6846 ebbd 452b 083d
00000290: 8fd4 a03d de05 22be fae8 09be 0ee8 523d
000002a0: 23e5 9d3c 22c4 e33d d3e3 113e f9ee bfbe
000002b0: 5282 c33e 89db 27be f1bb 3abe e5cc c13d
000002c0: 54fa 043d dd6a be3e 11e9 64bd b344 29bd
000002d0: 8543 643d ff7d b5be f08e 8fbd 215e cd3d
000002e0: 4278 393e 9fb1 2cbe 1ae1 98be d0b1 b13d
000002f0: 6f9c 35be 192f 35be 7309 48be 413b 5a3d
00000300: 8c42 663d ebe4 723d 17b9 5d3e c403 9f3b
00000310: 54df f5bc b642 113c 140c 5cbd a33e c93a
00000320: 0310 40be 0181 0f3d 2a18 8dbe bb53 41bd
00000330: a9cf 923e 274f d7bd 031d 893d cf95 e0bd
00000340: 7267 943e c33b 623e 0c15 bdbd 23d9 513e
00000350: c9b7 8bbe 1c12 a5bd 564e dc3d 293b 3e3e
00000360: d3b6 e73d 65ce 98bc 36ce 3fbe 9523 453a
00000370: ecc1 f23d 7a4b 7dbe 652b 793d 6e07 223e
00000380: ee57 3f3d 66bb 8c3e bdc5 153d 0b9a 6d3e
00000390: 4cb5 703e 9d55 653e 2959 023e 3623 303e
000003a0: 9c31 d93d 2f96 14be 5839 d13d e37e aa3d
000003b0: 4b0f a23d 5d7f 653e fff5 8d3c 358b 063a
000003c0: 8a4b 1a3e 1d76 d63d dc96 063e 20ab 2cbe
000003d0: 7019 2b3e fdb3 843c 23d2 5abd 3c04 953e
000003e0: aa4f 79be 6620 883e 1f05 903d 3cfa 01be
000003f0: 9c1f a83d e787 86bd 2234 79be 6b78 eebd
0.4069087 0.08777718 -0.9503891 0.18019107 0.21460901 -0.52182573 -0.5304599 -0.27411762
0.015437762 0.36589876 0.15068851 -0.4443222 -0.20017703 -0.36504197 -0.2555847 -0.65406007
-0.2071887 -1.4593271 -0.45003104 -0.91068774 -0.23908523 -0.35300517 -1.0198351 -0.02512929
-0.0904963 0.5537292 0.09356898 0.5119136 -0.19160324 0.85324574 -0.9851698 -0.04473513
-0.3274592 -0.19788457 -0.54392433 -0.12314948 -0.72198856 -0.2397018 -0.5306169 0.27505285
-0.19873556 0.1232203 0.0334408 0.3417 -0.24390733 0.01741335 0.40758237 -0.30751935
0.07233256 0.1726886 -0.15445146 -0.20881063 -0.13456936 0.22835346 0.12541637 -0.8999644
0.2280372 -0.290385 0.45413443 -0.39872614 0.09777643 -0.1058298 0.88103867 -0.28384855
0.09978782 -0.16128798 0.035345845 -0.47459665 -0.24523574 -0.17358269 -0.042517908 0.3131891
-0.03400166 -0.40042222 -0.13227257 0.02480813 -0.05299654 0.10221268 0.22891192 0.08467598
0.08205648 -0.0054170233 0.30319875 -0.08674775 -0.05962837 0.13004246 0.029459342 0.08751175
0.14748318 -0.20651448 -0.17139877 -0.30358106 0.23103577 0.052584417 0.13952483 0.06725917
0.10870602 0.043123923 0.02210016 -0.13353911 0.19779518 -0.08666248 -0.037760362 0.044866025
-0.028665785 0.01010628 0.17859854 -0.3754337 0.37812725 -0.1679169 -0.13572498 0.16243817
0.19986534 0.29215756 -0.08402928 -0.10506692 0.016210582 -0.2511778 -0.2307756 0.16118953
-0.018205732 -0.077063985 -0.21965452 0.068120785 -0.25780246 -0.106901966 -0.013811757 -0.0788963
0.045934305 -0.2187476 -0.006248328 -0.41089866 -0.39649567 -0.16793068 -0.0131949065 0.27929723
-0.03760933 -0.21978526 -0.0540933 -0.048534248 0.027015837 0.0970042 0.43136072 0.17102757
0.06477133 -0.0648966 0.43372935 -0.17856799 -0.0034366467 0.06031616 0.026012002 0.11029373
0.22129828 -0.37974873 -0.2166486 -0.42977643 0.12610716 0.15738258 0.22366855 0.0100935055
0.29912364 -0.15834118 -0.11488038 0.03324439 0.07853042 -0.1582255 -0.1346778 0.051490836
0.0192743 0.11121394 0.14247064 -0.3748701 0.38185364 -0.1639234 -0.18235756 0.09462909
0.032465294 0.37190905 -0.055886332 -0.041325282 0.055728454 -0.3544769 -0.07009685 0.10027719
0.18112281 -0.16864632 -0.2985924 0.08676493 -0.17735456 -0.17693748 -0.19534855 0.053279165
0.056215808 0.059300344 0.21652637 0.004852744 -0.030013718 0.008866003 -0.053722456 0.001535375
-0.18756108 0.035035137 -0.27557498 -0.047198992 0.28674057 -0.10513144 0.06694987 -0.10966074
0.28985173 0.2209311 -0.0923253 0.20492987 -0.27288654 -0.08060095 0.10757129 0.18577255
0.11314168 -0.018653104 -0.18731007 0.0007520256 0.11853394 -0.24735823 0.0608324 0.15823147
0.046714716 0.27486724 0.03656553 0.23203294 0.2350666 0.2239594 0.12729324 0.17200932
0.10605165 -0.14510415 0.102160156 0.08324983 0.07913073 0.22411866 0.017329214 0.0005132438
0.15067878 0.10471747 0.13143486 -0.16862154 0.16708922 0.016199106 -0.05342306 0.29104793
-0.24346796 0.26587218 0.07032227 -0.12693113 0.08209154 -0.0656889 -0.24336293 -0.11644062

actor.4.bias f4 [9]
00000000: 83cb 33be 2deb 21bd d509 38be 2d2d 873e
00000010: 2d84 433e d9cb 5f3c 2e88 423e 9198 e73d
00000020: 6d27 40be
-0.17558102 -0.03953092 -0.179725 0.26401654 0.1909339 0.013659441 0.18997261 0.113083966
-0.1876504

critic.0.weight f4 [64, 7]
00000000: 56ec 8c3b baab b3bd 067f 5abd 2bdf 423f
00000010: fd09 7a3e 36ac 7d3f c94d d6bc 21d2 953e
00000020: 0108 4ebe 2872 28be a362 e23e 25f3 c6be
00000030: be7e ab3f ce37 5f3d 44d6 0dbe 5376 ae3d
00000040: edad 79bd a463 aabd aaa6 ee3e 4271 cabf
00000050: a78b e73d 0c87 533e b8b1 2cbe 55b4 b43c
00000060: 9472 cabe f745 0e3f 218f 86be d5bf 7f3d
00000070: a3d1 5cbe 8bd9 1dbe a0be a93e 8248 973e
00000080: 89c6 bf3f 73dc ddbf 472b 7fbe 2a8b 38be
00000090: 8956 a33e d7f7 1f3e c152 c1be 6793 483f
000000a0: a0d1 033f 5ef9 aebe d209 e1bd d7a0 95bd
000000b0: 892c 073e 99e0 103c a6d3 693e 8ae0 39c0
000000c0: aa69 3abd c84d c33e 409a 83be eb3c 34be
000000d0: 1eeb 903e 289e 443e 3ba5 1740 448b a6bd
000000e0: 7614 0cbe 259b a9be 27fa cd3e e3c4 d6bd
000000f0: 6fed 36be 5040 2840 520a d3bc 0285 18bd
00000100: bd40 8a3d e7be eb3d 08e4 acbd 055e 4cbe
00000110: 1d43 1cc0 509b 9d3d 52a0 82be 3674 923e
00000120: 4b84 88be b715 2fbd db51 1ebe 58ad 2640
00000130: 1ae1 903d 406b 013e 087c 51bd b698 11be
00000140: 588c f83e e47e 14bf b4a5 debe 68a9 1ebe
00000150: d4e3 963e fd6a 6dbe 65ed 1abd 7387 adbc
00000160: 4178 903e 80b2 e9bf 2280 98bd 24fa 003e
00000170: 9870 29be 95d6 46be 4b71 94bc 09c5 e4be
00000180: febb 34c0 5466 393e 59fb 36be d954 0a3e
00000190: 1708 fe3c f163 a03e 4562 873d c4d9 563e
000001a0: 3e2f 18be 6820 e13c 55bc e23d bb6e 98be
000001b0: 9046 93be 8937 c83e 7b47 a73f b00f 263d
000001c0: 8dfe 753e 92da 023e 7f20 abbe f5f8 ef3e
000001d0: 6fea 7ebe 9c57 dbbf bfec 37bd d52d 033e
000001e0: 2991 173d e556 51be 2f38 e4be f3d0 b23e
000001f0: 7be5 13c0 f6cc 32bd 4a1e 673d d209 3cbd
00000200: 4a07 a13e b846 8e3c 8d8e 1abf 82e7 bbbe
00000210: ae71 a2be a07d 35be c542 2abd 6a01 60be
00000220: 3e80 283f b0c2 6ebe ecd3 26bf 9a52 a33e
00000230: bfe9 063e d2f1 133e f55a 49be 81d3 f1be
00000240: 6e69 9cbf 88ac 1b40 3b1b 653e 6504 ca3d
00000250: aaf1 443e 11ff 76be 1c9b c73e f12e acbe
00000260: eeb4 f4bf d2c6 c7b9 2cc7 c13e 594f 023e
00000270: bf7d 44bc f9ef 76bd 524f f83e 2d82 1640
00000280: be93 c2be b10e 6b3e 4f07 14be c238 1e3e
00000290: de7a 0bbe 91bb 84be 2c0c 3b40 3086 433e
000002a0: e14a a8be 7b15 eb3d 2a57 98be 1258 01bf
000002b0: c200 1b3e 7b44 7c3f a8fe 073f 287c adbe
000002c0: 7baf 693e 15ff 073d 44da 2bbe 27c9 d03e
000002d0: 167b 17c0 a028 0ebe 9d5b c7be 0a7a 223e
000002e0: fdd7 13bf 498d 9fbe c9fa 313f 7eac be3f
000002f0: d7e5 bc3e e4b8 a4bd 0f87 e43d d84c c8bc
00000300: a526 81bd fd01 dbbd a663 3dc0 acf4 29bd
00000310: 6b8c 2fbe ba7c 403d 4483 adbe cab1 2d3d
00000320: 2424 f63e 6704 1ac0 516c a13b 7c79 353e
00000330: 353c 533e 2bb9 43bd c805 953c fd8f 2f3e
00000340: 67aa 9d3f 6322 3ebe 1cd9 38bd 2ca7 383d
00000350: 06ca c8bd cdc2 ad3e eb4c 993e 87b4 10c0
00000360: 34c2 48be 2145 1abe 061d c13d fddd debc
00000370: d935 0abe bb92 a33e 93fb 1d40 f46c a13d
00000380: 7fde 403e 6206 693d ab83 90be 8cdd 07be
00000390: f04b 3fbf 1a18 06c0 4bf7 e43e 04ba 27bd
000003a0: 930f 0ebe f975 d8be 5479 00be e7a2 8dbd
000003b0: c536 de3f c231 65bd 9986 33be 0a0a a73d
000003c0: 36b2 17be 2583 2a3f d7e3 b4bd 4c78 3b3f
000003d0: 2715 cd3d 5ffc 403c 4e20 14bd 23c3 76be
000003e0: 2ca8 063e f841 92be 131b 2fc0 f067 38be
000003f0: 6426 6fbe 3ed3 193e 3c91 073e f795 91bd
0.0043006344 -0.087729886 -0.053343795 0.7612178 0.24417873 0.990909 -0.026160138 0.29261878
-0.20120241 -0.16449797 0.4421588 -0.3885738 1.3398054 0.05449658 -0.13851267 0.08518662
-0.060956884 -0.08319786 0.4661153 -1.5815814 0.113059334 0.20656985 -0.1686467 0.022058645
-0.3954054 0.5557551 -0.26281074 0.062438805 -0.21564345 -0.15415017 0.33153248 0.29547507
1.4982463 -1.7332901 -0.24918853 -0.18021837 0.3190196 0.15621887 -0.3775845 0.7834992
0.5149174 -0.34174627 -0.10988201 -0.073060684 0.13200583 0.008842611 0.22834644 -2.9043298
-0.045510925 0.3814528 -0.2570362 -0.17601363 0.2830438 0.19200957 2.3694599 -0.081320316
-0.1367968 -0.33126178 0.40229914 -0.10486772 -0.17864011 2.6289253 -0.025761757 -0.03723622
0.06750629 0.11511021 -0.08441931 -0.1995774 -2.4415963 0.07695639 -0.2551294 0.28604287
-0.26663432 -0.04274532 -0.15460913 2.60433 0.07074185 0.12638569 -0.051143676 -0.14218411
0.48544574 -0.5800612 -0.43485796 -0.15494311 0.29470694 -0.23185344 -0.037824053 -0.021182751
0.28216746 -1.8257599 -0.074463144 0.12595421 -0.16546857 -0.19417794 -0.018120429 -0.44681576
-2.8239741 0.18105441 -0.17869319 0.1350893 0.031009717 0.3132625 0.0661054 0.20981508
-0.14861771 0.027481273 0.11071078 -0.2977198 -0.28764772 0.3910487 1.3068689 0.040542305
0.24022885 0.1277869 -0.3342323 0.46869627 -0.24894117 -1.7136111 -0.044903513 0.12810452
0.03700367 -0.20443304 -0.44574115 0.3492504 -2.3108814 -0.043652497 0.05642537 -0.045907803
0.31450874 0.017367706 -0.60373765 -0.36700064 -0.31727356 -0.17723703 -0.041567583 -0.2187554
0.6582068 -0.23316455 -0.6516712 0.31898957 0.13175105 0.14447716 -0.19663604 -0.47231677
-1.2219675 2.4324055 0.22373669 0.098641194 0.19232813 -0.24120738 0.38985527 -0.33629563
-1.9117715 -0.0003810437 0.3784727 0.12725581 -0.011992871 -0.06028745 0.48498017 2.3516953
-0.38003343 0.22954823 -0.14455913 0.15451339 -0.13621089 -0.25924352 2.922618 0.19094157
-0.32869628 0.114787064 -0.29754 -0.5052501 0.15137008 0.9854199 0.5312295 -0.33883786
0.22820847 0.03320225 -0.1678248 0.40778467 -2.3668876 -0.13882685 -0.38937083 0.15866867
-0.57751447 -0.3116248 0.6952329 1.489639 0.36894104 -0.080430776 0.11158573 -0.024450704
-0.06306199 -0.106937386 -2.959207 -0.041493103 -0.17143409 0.04699395 -0.3388921 0.04240588
0.48074448 -2.4065187 0.0049262424 0.17722124 0.20628436 -0.04778401 0.018191233 0.17144771
1.2317628 -0.18567805 -0.045128927 0.045081303 -0.09804158 0.33937684 0.29941496 -2.2610185
-0.19605333 -0.15065433 0.09429364 -0.027205462 -0.13497104 0.31947884 2.4684799 0.07882109
0.18834876 0.056890853 -0.28225455 -0.13268107 -0.74725246 -2.095221 0.4471992 -0.040948883
-0.13873129 -0.42277506 -0.12546283 -0.06915837 1.7360464 -0.055955656 -0.17531814 0.08156212
-0.14814076 0.6660636 -0.088325195 0.73230433 0.100138 0.01177892 -0.03616362 -0.24097876
0.1315009 -0.28565955 -2.7360275 -0.18008399 -0.23354489 0.15021989 0.13238996 -0.07108682

critic.0.bias f4 [64]
00000000: 6fa7 08bf 8480 bebe c240 be3d 8a3d 883e
00000010: 01a6 17be ce27 0f3f e341 563e 7d56 6cbe
00000020: 4ab5 533e 756a 20bd b9d8 a63c cdbc 1bbe
00000030: b1d4 3c3e 2e41 053e 1d12 f7bd 7246 9e3e
00000040: d8ad d0be 3788 e73e 6312 b13d 419e 08bf
00000050: d728 743e 18ca cebe d6ba 673d a5b8 56be
00000060: 5cc5 733e 099d a53e 6b0a 363e a1e7 523d
00000070: dddd fd3d 783f bb3e 1b2b a23d d32f 013e
00000080: 40c5 80be ce08 703e 1015 cbbe b909 913e
00000090: d175 943e 9197 44be 2320 dfbe 109d d83d
000000a0: f4bf 05be 0a4f c73e 43fb bc3b 459e dbbc
000000b0: 1f9e c5be a732 cebe 2bb1 823d 428f 98bd
000000c0: db7e e6be b184 9dbe 6f85 ec3e 9e7f 7c3e
000000d0: f472 b43d db7d 07be 9253 a9be 7178 0a3f
000000e0: 7b67 8a3e 7512 26bd c36b c9be cbc6 0d3f
000000f0: 1144 acbe e211 c7be 0598 fe3e 7ba1 81be
-0.53380483 -0.37207425 0.09289695 0.2660945 -0.14809419 0.5592011 0.20923571 -0.23079868
0.20674625 -0.039164025 0.020367013 -0.1520874 0.1844051 0.13013145 -0.12064002 0.3091312
-0.40757632 0.4522111 0.08646085 -0.53366476 0.23843704 -0.4038856 0.056574665 -0.20968874
0.23805755 0.3234637 0.17777412 0.05149043 0.12395833 0.3657186 0.07918378 0.126159
-0.2515049 0.23440859 -0.39664507 0.2832773 0.28996137 -0.19198443 -0.43579206 0.10576832
-0.13061506 0.3892749 0.0057672574 -0.026808867 -0.385972 -0.4027302 0.06381448 -0.07449199
-0.45018658 -0.30765298 0.46195552 0.24658057 0.08810988 -0.13231604 -0.33071572 0.5409003
0.27032074 -0.040544946 -0.39340028 0.5538146 -0.3364568 -0.3888083 0.49725357 -0.25318512

critic.2.weight f4 [64, 64]
00000000: 8a34 b1be 992f 0dbd 6501 85be 343b f6bd
00000010: 5c84 9ebe 1e25 d23e 1c57 783e 4885 a4be
00000020: a59f 46bb b42c 8a3e 8df5 c9be 04f6 8f3e
00000030: ac89 fc3d c3e1 db3c 5b9d 5e3e ab4a 57bd
00000040: 7905 c23d 3730 3f3e 4de9 fe3e 9fe7 bebe
00000050: 6b5b 913e 77c1 8a3c e574 463e 5fc8 31be
00000060: 00f7 d3be 594f ab3d a513 1dbf de08 d63e
00000070: 3982 9bbe 30ab 8d3e 1e55 833e a25e 64be
00000080: 2e19 10be 6c1f 31be 67ce 53be b23b 943e
00000090: 0387 ea3e dce4 063e c63d 05bf fea2 16bd
000000a0: 1b8c 59be 376d 283d 70d2 7fbe 5ba7 c33e
000000b0: ea99 90be 68bc 63be 4bf5 84bd a060 5e3d
000000c0: 884b b0be 7589 033e 5bf7 623e 2fa6 953e
000000d0: 38e7 d2bd 672d a6be 59df 9abe 88da 193f
000000e0: 043f fb3c ba58 c0be b56e 793d 6855 1f3f
000000f0: e4ca 73bd 4050 6cbe ac77 ef3e 50ba 403e
00000100: 69f6 833d 94ab 483d 4c64 cabc e843 cc3d
00000110: b6d1 9ebd dfa5 0e3d dc11 9e3a 9f5e 4cbc
00000120: e5fc f7bd 4e92 693c d4b8 d3bd 07d7 013c
00000130: 42f0 bbbd bcd0 633d 1ddb ebbd 76b8 8fbc
00000140: e0d0 0abd caeb bebd 00a9 a73c 5619 4abd
00000150: 8c96 933d e5d8 05bc b721 6bbd db4b a9bd
00000160: f732 273c 0be1 543d 2217 c53c 9aae 63bd
00000170: f850 c93c 6ed8 b53d 0046 62bd f87d e6bd
00000180: 24b5 ad3b f1fa 71bd a6ac 1a3c f83d de3c
00000190: 7b1d 40bd 5a5a e33d 244f e4bd 239e 16bd
000001a0: c2c7 963d 2193 c73c dbac 143c fb99 d2bb
000001b0: 95b5 80bd e98f c5bd 4a55 64bc a53d 61bd
000001c0: 41aa 353d 2a82 3a3d d2a8 8ebd 1e59 babb
000001d0: b3b3 113e d2c4 93bd 54f4 06be d6a8 d0bd
000001e0: fb0b 633d f1f3 d1bb 39d3 ff3c 289c 49bd
000001f0: 1e66 b03d 1f6e 4c3d 79ba e7bd 79f4 2c3c
00000200: cf0c c43c 4dc8 1c3e 5aa5 013d 631a da3b
00000210: 39c1 073d eb46 0d3d 1152 ce3d e349 6d3d
00000220: 087e b43d 79ec 4dbd c4a2 f73c cefc a63d
00000230: e31b cd3d db3c 223d 4026 6f3c ee4b b5bd
00000240: 3815 03be 70f5 e53c 4d02 c6bc 5fb3 c6bd
00000250: 3db3 803d 62dd 013e 1dc1 bd3d 6ad5 65bd
00000260: b1a7 aabd a454 e0bc 327c aebd f2d0 173d
00000270: 850d 4bbd ecdd debd d2fd cc3c 6b4d 173e
00000280: 8111 02bd 27a6 0bbd da19 533d 45c8 0f3d
00000290: 1e71 673d 44cf 32bd 9d4d 993d 9f34 983d
000002a0: 894d 0fbe 61ef 713d c7a6 963d 89ff 533d
000002b0: 86fe 9abc deab bebd 7e67 023d fc07 dc3b
000002c0: bf0f 2eba defe af3c d57a 78bd c129 09be
000002d0: 73c9 473c e3fc c63d f414 2abc fec4 4f3b
000002e0: 80bf 123e 98ed 32be 3e13 bfbc fbe6 a6bb
000002f0: d1c1 cebd 2dbe 803d f2b2 b33c 97b5 2ebe
00000300: 68dc 053d df32 ce3c 457f cc3d 16fe 10bd
00000310: 34b3 b6bd 9958 f3bd 2592 a73d 5e51 e7bd
00000320: 11b5 823d ade4 32bb 6f53 51bd 7702 2ebd
00000330: 744d 4dbd 2812 d63d 7371 083d 0ec3 aabd
00000340: 02e1 87bc 9d3f 843c 1d91 fe3d 2557 4abd
00000350: 4637 cbbc 7888 333e 3841 db3d 2b75 5abd
00000360: 1b4f 6cbc 899c 073d b744 6f3b 9626 a33c
00000370: 25cb 143e 5478 05be afc7 be3c bdc9 ecbc
00000380: 2c8a 223d 1006 7f3c 4888 debc e72b 1c3e
00000390: d488 343e a495 1ebe e0b3 c8bd 8d2a d1bc
000003a0: 67a6 d9bd 38f9 40bc 1dec 93bd bb88 b3bc
000003b0: b96f 2bbd 9cb6 bdbb 8df0 e3bd 8187 8b3c
000003c0: ff50 e9bd 3109 31bd 83ed 933c 945d d03d
000003d0: b7cc 6dbd 6f0c 0dbe 5ce9 a2bd b194 02be
000003e0: 25d2 7f3d 9214 37bd d8c6 05bc fd3c c43d
000003f0: 8814 4d3c 2b38 e33d fa08 5e3d 0eaa 833d
-0.34610397 -0.03446922 -0.25977626 -0.12023011 -0.30960357 0.41043943 0.2425198 -0.32132936
-0.0030307558 0.2698723 -0.39445153 0.28117383 0.12330946 0.02684105 0.21739714 -0.052561443
0.094737 0.18670736 0.4978737 -0.37286088 0.2839006 0.016937954 0.19380529 -0.17361592
-0.41399384 0.08364744 -0.613581 0.4180364 -0.3037279 0.27669668 0.25650877 -0.22301725
-0.14072105 -0.17297143 -0.20684205 0.28951794 0.4580613 0.1317324 -0.52047384 -0.036776535
-0.21244852 0.04111978 -0.2498262 0.3821362 -0.28242427 -0.2223984 -0.064920984 0.054291368
-0.34432626 0.12845404 0.22164671 0.2922835 -0.10298008 -0.32456514 -0.30248526 0.6009908
0.030669697 -0.37567693 0.060896594 0.62239695 -0.059519663 -0.23077488 0.4677099 0.18821073
0.064434834 0.048991755 -0.024706028 0.099738896 -0.07754843 0.034826156 0.0012059766 -0.012473731
-0.12108783 0.014256073 -0.103379875 0.007924802 -0.09176685 0.055618986 -0.11516402 -0.017544013
-0.033890605 -0.09322317 0.020466328 -0.04934057 0.07206449 -0.0081693875 -0.0574052 -0.082664214
0.010205022 0.05197243 0.024058882 -0.055586435 0.024574742 0.08879171 -0.05524254 -0.112544954
0.0053011347 -0.059077207 0.009440577 0.027129158 -0.046903115 0.111012176 -0.111479074 -0.036771905
0.073623195 0.024362149 0.009074415 -0.0064270473 -0.06284634 -0.09646589 -0.01393635 -0.05499043
0.04435182 0.04553429 -0.06965794 -0.005686893 0.14228706 -0.07215275 -0.13179141 -0.10188453
0.055431347 -0.006407254 0.031228648 -0.049221188 0.08613227 0.049909707 -0.11314864 0.010556334
0.023931889 0.15310784 0.031651832 0.0066559776 0.033143256 0.03449146 0.10074247 0.057931792
0.08813101 -0.050274346 0.03022898 0.081536874 0.100150846 0.039608818 0.014596522 -0.08852373
-0.12801063 0.028071135 -0.024171019 -0.09702181 0.06284187 0.12682107 0.09265349 -0.05611173
-0.08332766 -0.02738411 -0.08519782 0.0370645 -0.04957344 -0.10882172 0.025023375 0.14775626
-0.031754974 -0.034094002 0.051538326 0.0351031 0.05650436 -0.043654695 0.07485507 0.07431912
-0.13994421 0.05906618 0.07356029 0.05175737 -0.018920194 -0.09310125 0.03183698 0.006714819
-0.00066399196 0.021483835 -0.060664017 -0.13394834 0.012194025 0.09716203 -0.010380972 0.003170311
0.14330864 -0.17473447 -0.023324605 -0.005093453 -0.10095561 0.06286273 0.021935914 -0.17061459
0.0326809 0.025170742 0.09985212 -0.035398565 -0.08920899 -0.11882133 0.08182172 -0.112948164
0.06382192 -0.0027296946 -0.05110496 -0.04248282 -0.050122693 0.10452682 0.03331132 -0.08337985
-0.016586784 0.016143614 0.12430022 -0.049399514 -0.02480663 0.17532527 0.10705799 -0.053334396
-0.014423157 0.033108268 0.0036509463 0.01991586 0.14530618 -0.13034183 0.023288576 -0.02890479
0.039682552 0.01556541 -0.027164593 0.15251122 0.17630321 -0.15486771 -0.097999334 -0.025532985
-0.10627442 -0.011778168 -0.072227694 -0.021915784 -0.041854594 -0.005789591 -0.11129866 0.017032387
-0.11392402 -0.043221656 0.01805759 0.101740986 -0.05805656 -0.13774274 -0.07954666 -0.12752034
0.06245627 -0.04469735 -0.008165084 0.09581945 0.012517102 0.110946976 0.05420778 0.0642892

critic.2.bias f4 [64]
00000000: 6eb4 133e e5b6 1b3c 4b09 8ebc 0b8f 14bd
00000010: 4b83 243e 1789 75bd d965 753d 4aae 943c
00000020: 9730 32bc 5ba1 d73b ad71 53bb ceca bb3b
00000030: d992 bdbe 0580 f4bc 11a9 733d 27b5 9a3d
00000040: 4878 85bd a28d c7bc e3c3 ef3d b7df ccbb
00000050: d191 5ebd 9e56 c1bd 3b78 adbc cbb1 eb3d
00000060: ec6c b03d 8a3d c1bc 3caa 983d a3de ecbc
00000070: 68e9 ec3d a4d0 973c 8211 97bd 25a7 813d
00000080: b727 febd a7bf b7bd 061a 643d 6fb4 d5bd
00000090: 2cf0 99be 8af7 21bc 5e56 c03a bf12 debd
000000a0: 848e 52bd de2e 2a3c 4c04 55bd 23ff 95bd
000000b0: 2871 2cbd 66b7 44be 8961 a8bd 076c 9b3d
000000c0: 91c6 bf3c 5ec8 a13d a305 0dbe 9f04 b3bd
000000d0: ba66 843d f68c a8be 9c36 fd3d 20b9 ccbc
000000e0: 0c2f 97bd 39a1 943e d927 bd3d bf61 6a3d
000000f0: 168f bdbc 2abd 3dbd 1b50 dcbc c132 303d
0.14424297 0.009504055 -0.017338416 -0.03626923 0.1606571 -0.059945192 0.059911583 0.018149514
-0.0108758425 0.0065805144 -0.00322638 0.0057309633 -0.37026098 -0.0298462 0.059487406 0.07554083
-0.065170825 -0.024359528 0.11707284 -0.006252255 -0.05433828 -0.09440349 -0.021175494 0.11508521
0.08614525 -0.023588914 0.07454345 -0.028914755 0.11567956 0.018532105 -0.07376386 0.063307084
-0.12409919 -0.08972102 0.05568888 -0.104348056 -0.3006605 -0.009885678 0.0014674177 -0.10843419
-0.051405445 0.010387151 -0.05200605 -0.07324054 -0.0421001 -0.19210586 -0.08221728 0.07588964
0.023410114 0.07899545 -0.13771681 -0.08741116 0.06464906 -0.32920045 0.123639315 -0.024990618
-0.0738202 0.29029253 0.09236116 0.057222124 -0.023139518 -0.04632298 -0.026893666 0.043017153

critic.4.weight f4 [1, 64]
00000000: 24c7 20be b940 583b 4d43 da3b 1c00 9d3c
00000010: 4895 cf3d 69e5 a53b a77f 0f3e 06e8 ce3a
00000020: 9dd2 85bb 7bd1 5bbb ef11 ab3b f145 b23b
00000030: 4a8d 58bc aa5a 3d3b d42a 11bb 719a f6ba
00000040: 636e d8be 0b97 08bb e8ae b6bb 1ed7 403e
00000050: 6a37 1b3a ab3e a63b 6ee8 acbb 34d2 80be
00000060: 6314 c4bb 087d 2abb cd4f 0cbb 0db3 e5bb
00000070: 816b 3a3e 1019 d43d 2a5d 96bb 803f 803a
00000080: 2a0c f9ba 9eef 4fbd 32c4 813b de2c 30bb
00000090: fca1 52be 33aa 18bb a28f be3a 7128 973b
000000a0: f7ac 19bb 13ae 243b 4001 66bb a7dc 9a3a
000000b0: 9b76 803b 991c 46be 0390 a13b 1411 9abb
000000c0: 9a99 44bb daa9 dd3b ab30 1abe e7f4 9e3b
000000d0: 0dbc 113a 574a afbd 9026 7e3e 2e24 b1ba
000000e0: 0411 98bb bf76 9abd 3046 ed37 2b2d 923b
000000f0: 8e72 50bb 6e5b a4ba eadb 40bb 9268 19bb
-0.15700966 0.0032997562 0.006660855 0.019165091 0.10135895 0.005062748 0.14013539 0.0015785701
-0.004083945 -0.0033541608 0.0052206437 0.0054404666 -0.01321728 0.0028893151 -0.0022150772 -0.0018814338
-0.42271718 -0.0020841982 -0.0055750497 0.1883206 0.0005921038 0.0050733886 -0.005276731 -0.25160372
-0.0059838756 -0.0026014466 -0.002140987 -0.00700987 0.18205072 0.10356343 -0.0045887427 0.000978455
-0.0019000818 -0.050765626 0.003960156 -0.0026882212 -0.20569605 -0.0023294806 0.0014538656 0.0046129753
-0.0023449042 0.002512817 -0.003509596 0.0011815027 0.003920389 -0.19346847 0.0049304976 -0.004701743
-0.002999878 0.0067646326 -0.15057628 0.004850972 0.0005559333 -0.08559101 0.24819398 -0.0013514811
-0.0046407003 -0.0754218 2.8285285e-05 0.004460951 -0.0031806561 -0.0012539455 -0.0029427954 -0.0023408276
