trained/ComplexPong/PPO_sparse_1728693648.9254525.pth (torch, 44754 bytes, 11 tensors)

actor.0.weight f4 [64, 7]
000000 59 83 b4 be c8 d4 0c 3e c3 a8 87 3e be 69 1c be
       -0.3525646 0.13753045 0.26495942 -0.15274712
000010 97 28 8d 3d 6a cb 92 bf a1 b2 92 3e cd 24 b4 3d
       0.068925075 -1.1468327 0.28651908 0.08796082
000020 33 06 37 bf 04 00 e9 3e d7 df df 3d c6 83 ff 3e
       -0.71493834 0.45507824 0.10931366 0.49905223
000030 cf 44 c2 be 7c 56 50 3e 18 4b 17 3e 82 bb bf bd
       -0.37943122 0.20345491 0.1477474 -0.09361936
000040 31 53 30 bc e6 87 3d 3b 69 82 f2 be cb c2 89 3f
       -0.010762022 0.0028920113 -0.4736512 1.0762571
000050 d9 df f0 3c 36 8d db 3c 91 3d a1 bc ba 15 fd 3d
       0.029403614 0.026800733 -0.019682677 0.1235766
000060 f7 ff 7c 3e 75 43 b1 3e 24 08 57 3f 70 a9 51 3d
       0.24707018 0.34621778 0.83996797 0.05118698
000070 9c 40 b9 3c b7 7b cc 3e 9a 81 f5 be 07 6f c2 bd
       0.022613816 0.39938137 -0.4795044 -0.09493833
000080 bc 53 a9 be 8b 85 ea bc ba ce f6 bd 31 a8 b1 3d
       -0.33071697 -0.028628131 -0.12051149 0.08674658
000090 5c 5e d4 bc 9c e2 8a be 69 40 5d be 11 b4 09 bf
       -0.0259239 -0.27126014 -0.21606602 -0.53790385
0000a0 37 ab 1b bf 80 91 08 be 96 cc c8 3e 8b b7 f9 3c
       -0.6080813 -0.13336754 0.39218587 0.030483028
0000b0 19 dc f3 be 12 08 8c be 82 da 52 bf 2d 27 95 be
       -0.4762886 -0.27349907 -0.82364666 -0.2913145
0000c0 ab ac 45 bd ba 38 d8 3d c5 4c 3b 3e 4c 70 a8 3d
       -0.048260372 0.10557695 0.18291004 0.08224544
0000d0 c9 8b d3 be f5 6c 20 3c f6 92 a6 bf 10 dc 1d 3d
       -0.41317585 0.009791602 -1.3013599 0.038539946
0000e0 b9 19 4f 3e d6 06 08 bf d9 2f e6 3e 40 50 7d 3e
       0.20224656 -0.5313543 0.4495838 0.24737644
0000f0 5f e9 23 3f bc e3 43 3f 93 63 13 3e e0 3f 9a be
       0.6402797 0.7651937 0.14393453 -0.30126858
000100 cc a5 0b be d6 d9 df 3e fe 92 b8 bc b1 70 45 3f
       -0.13637465 0.43720883 -0.022531029 0.7712508
000110 d4 b1 29 bf cf a1 8b be 44 ff b2 be 80 35 a0 3e
       -0.6628697 -0.27271888 -0.34960377 0.31290817
000120 17 bb 00 bf fb 3a 52 be ed e0 dd be d5 52 7a be
       -0.50285476 -0.20530312 -0.43335667 -0.2444566
000130 2d 12 9f 3e 4a ab 0c bd 73 9e e2 3e e5 ed 26 bd
       0.31068555 -0.03434304 0.44261512 -0.040754218
000140 80 76 d0 be 14 29 1c 3d 3d 7d 96 bf 12 6d 8a be
       -0.40715408 0.038125113 -1.175697 -0.2703634
000150 35 99 13 3e b8 81 76 be 31 57 e6 3d f3 4a 10 be
       0.14413913 -0.24072921 0.11247099 -0.14091091
000160 36 e5 bb 3e 21 8e 8c be b6 d9 95 3e e1 06 82 be
       0.36698312 -0.27452186 0.29267663 -0.25395873
000170 56 58 d8 bd cc 5d 27 3e 66 a2 8f be e0 94 41 3e
       -0.10563724 0.16344374 -0.28053588 0.18904448
000180 8b 20 a4 bf e8 fa 26 3d 7d c0 87 bd f3 24 f2 3e
       -1.2822431 0.040766627 -0.06628511 0.47293815
000190 07 0f ee be 9f 2c 7c 3e 5e 8d 00 bf 9a d6 23 3f
       -0.4649584 0.24626397 -0.5021571 0.6399933
0001a0 64 11 01 3e 30 c1 b3 be c0 b1 bf be 6a c6 dd 3e
       0.1260429 -0.35108328 -0.374403 0.4331544
0001b0 00 01 28 3d a4 67 86 3e a2 7d 1e bf b5 6e 04 3e
       0.04101658 0.26250947 -0.6191045 0.12932856
0001c0 5a 09 71 be 22 3d 01 3f 16 49 92 be 7e 9a 06 3f
       -0.23538724 0.50483906 -0.28571385 0.52579486
0001d0 ac 45 19 be 2c 69 3d 3f a1 33 4a 3d c8 10 7a bc
       -0.14967984 0.73988605 0.049365643 -0.01526279
0001e0 4e 20 d3 3d c9 b2 c7 3d 1d 11 12 3c 44 93 c3 be
       0.10308896 0.097508974 0.008915213 -0.38198292
0001f0 71 62 09 3f 53 32 3f be 1c 6f 0b bd 36 9c c9 3e
       0.53665835 -0.18671541 -0.03404151 0.39376992
000200 ed e5 02 bf ba 3b cf 3d db 03 4f bf 81 c2 03 3f
       -0.5113209 0.10118814 -0.8086526 0.51468664
000210 c0 70 82 bd 52 cb fd 3d 13 a4 bc 3e 09 c2 05 bf
       -0.063691616 0.12392296 0.3684393 -0.522492
000220 94 ac 95 be 58 63 2a bf 74 4b 3e bf 09 65 82 3e
       -0.2923323 -0.66557837 -0.7433388 0.2546771
000230 37 b2 86 3e 7b 70 9e 3e 95 ed bf be be 7f 5a be
       0.26307842 0.3094519 -0.37485948 -0.21337792
000240 e5 53 2c bf c0 95 6d be 6d e2 81 be 68 a2 cc be
       -0.6731551 -0.23201656 -0.25368062 -0.39967656
000250 f0 61 aa be 51 e1 ee 3e 79 47 64 3e 30 0f 4a 3e
       -0.33277845 0.46656278 0.2229289 0.19732356
000260 86 b2 e7 3e 4a 01 3c 3b 30 5b 3d be c7 7b 0f 3f
       0.4525339 0.0028687292 -0.18491817 0.56048244
000270 c2 aa ac be c5 08 05 bd 9d 83 9d be 13 03 00 3f
       -0.33724028 -0.032479066 -0.30764475 0.5000469
000280 30 d5 90 3e e5 9f b8 be 2c 4b e7 bd 56 b8 ee 3e
       0.2828765 -0.3605949 -0.11293635 0.46625012
000290 69 82 2f 3e 7d 1b 55 3f 9c 77 c9 be e4 f3 32 be
       0.17139591 0.8324507 -0.39349067 -0.1747585
0002a0 5b 6d 87 3e 57 52 b6 be 12 a1 86 3d 87 22 82 3e
       0.2645062 -0.35609695 0.065736905 0.25416967
0002b0 e6 3a 08 3f d8 1e a2 3f 9c c7 24 3d fd ba 0b bd
       0.5321487 1.2665663 0.040229425 -0.034113873
0002c0 fd f0 a7 3d bf 91 1b bd b7 7c ed be 6c 03 ee be
       0.08200262 -0.03798079 -0.46384212 -0.46486986
0002d0 00 e8 32 bf a8 dd 02 bd c5 49 7d 3e 02 21 a1 3b
       -0.69885254 -0.03194967 0.24735172 0.004917265
0002e0 d4 ac d1 be d3 cd c5 be 9e 7b 7c bd e1 0b 81 bf
       -0.4095217 -0.38633594 -0.061641328 -1.008175
0002f0 14 6c 50 bc 0a 87 bd bd 0e 7b e3 be 5e 4f f4 3e
       -0.01272108 -0.09254272 -0.4442982 0.47716802
000300 36 fc e3 3e b2 8b c5 3e 20 c5 4d 3f b9 79 bc bd
       0.4452836 0.38583142 0.80378914 -0.09202904
000310 e5 5e 8e be ea 56 ea 3e 2f 03 cd be 6d 7c 3e be
       -0.27806774 0.45769435 -0.4004149 -0.18602152
000320 1d 6a 28 bf ad 31 0d bf 79 d4 01 3d 1f ce 9a 3e
       -0.65786916 -0.55153924 0.03169677 0.30235383
000330 d4 d2 1e 3e 3d d0 66 be 24 56 01 3f 89 d7 0f bf
       0.15510112 -0.22540374 0.50522065 -0.56188256
000340 0e 43 bd 3f 3f c0 bf bd ef 0d cb be 63 25 80 3e
       1.4786088 -0.0936284 -0.39659068 0.25028524
000350 13 4e 28 3e 23 8a cb 3e 31 2d 00 3f 83 aa f9 3e
       0.16436033 0.39753827 0.50068957 0.48762903
000360 e7 9f 9c be b3 f9 a4 3e 9c d7 fd 3e 64 e0 a9 be
       -0.30590746 0.32221755 0.4957856 -0.3317901
000370 77 72 80 be 20 ca 5c bf 94 7f de 3e 2b d3 63 3e
       -0.2508733 -0.8624592 0.4345671 0.22248523
000380 eb 0d a4 bd 60 92 94 3e 11 52 0b be 83 d3 63 be
       -0.08010467 0.29017925 -0.13605525 -0.22248654
000390 c0 96 17 bf 65 4b 7c bf 16 d7 a0 3e cc a6 a2 3c
       -0.592144 -0.9855254 0.31414098 0.019854926
0003a0 68 07 a9 3e 1d f0 4c be 3e a3 f6 be b8 5d 55 be
       0.33013463 -0.20013471 -0.4817142 -0.20836532
0003b0 9d 50 98 bf 6a 30 3c be 07 b7 5b bd 6f b9 62 be
       -1.1899601 -0.18377843 -0.053641345 -0.2214105
0003c0 17 25 3b 3e 51 cb 38 be 15 4c ac bd c9 38 ac bf
       0.18275867 -0.18046309 -0.08412949 -1.345483
0003d0 2a d5 71 be 30 18 17 3e 97 c7 8d 3e 79 4d e3 be
       -0.23616472 0.1475532 0.27691337 -0.44395044
0003e0 d3 4b 83 be cb 91 2c bf 7c 0a f9 3d 46 6b 40 bd
       -0.25643787 -0.6740996 0.12160203 -0.046977304
0003f0 b0 5b 2b 3e 78 91 25 3e 9d 5f ff be 69 20 cd bd
       0.16734195 0.16168773 -0.49877635 -0.10015947

actor.0.bias f4 [64]
000000 76 5b c4 bd 79 f3 07 3d 72 b4 24 bd 1c ae 71 be
       -0.09587757 0.033191178 -0.04021115 -0.23601574
000010 cf bd 8a 3e 21 95 9a 3e 9a 91 36 3e d2 7d 5a bd
       0.27097937 0.301919 0.1782898 -0.053342648
000020 ba 22 81 be 2c 16 82 3d d0 76 92 3e d9 a6 3b 3e
       -0.25221807 0.06351885 0.28606272 0.18325366
000030 b6 10 f8 bd 50 9b 47 3e 17 02 3f be 3e a2 e1 bd
       -0.12112562 0.19492841 -0.18653141 -0.11017273
000040 cf ad b2 be e9 cd 20 be 78 22 bf bd c6 60 97 3e
       -0.3489823 -0.15703548 -0.09332746 0.2956602
000050 19 e2 83 3e 0c 18 87 bd 56 a3 35 be bc ab ac bb
       0.25758436 -0.065963835 -0.17738089 -0.005269496
000060 f8 61 25 be 82 79 8c 3e 6a 1e f5 3e 2b c6 a9 be
       -0.16150653 0.27436453 0.47874767 -0.33159003
000070 76 a6 10 3e 7e ba d3 be 28 27 25 be 47 d9 3a be
       0.14126 -0.4135322 -0.16128218 -0.18246947
000080 59 12 f9 bd 81 af c1 3e da 0d 63 3e 5c e7 af 3e
       -0.12161703 0.3782921 0.22173253 0.343562
000090 38 ea bb 3e fd 30 8d 3e b4 4a 26 3e 73 79 71 be
       0.36702132 0.27576438 0.16239434 -0.23581485
0000a0 b3 1f 8e 3e 05 b0 85 3e df 21 6e bc f6 83 80 3e
       0.2775856 0.26110855 -0.014534443 0.25100678
0000b0 25 67 aa be f2 81 a7 3e ae a0 2b be 2e 1f b9 be
       -0.33281818 0.32716328 -0.16760513 -0.361566
0000c0 e8 40 3f 3e 9c ed f6 bd d5 ac cd 3d 0a 1a 7a 3e
       0.18677104 -0.12057039 0.10042731 0.24423996
0000d0 f4 d2 13 3b 78 9b d1 be 5b 7e ac be f1 7b ba be
       0.0022556158 -0.40938926 -0.33690152 -0.36422685
0000e0 d4 09 a6 3e 6b 6d b8 3e fe f5 03 be a5 0b 4d 3e
       0.32429373 0.3602098 -0.12886807 0.20023973
0000f0 08 33 a2 be 75 81 00 be 1c 86 f1 3c de a2 f1 3e
       -0.3167956 -0.12549384 0.029482894 0.4719457

actor.2.weight f4 [64, 64]
000000 48 fd e0 bc c5 65 95 bc 5c 3e ce 3d 0f 73 7d 3e
       -0.027464524 -0.018237004 0.10070488 0.24750923
000010 ed 18 cc be 66 c3 3e be 53 33 34 3c 2b b5 8e 3b
       -0.39862767 -0.18629226 0.010998565 0.004355093
000020 d3 9c 9c 3e 84 12 2c 3d d7 9e 93 be be 97 a1 be
       0.30588397 0.042009845 -0.28832123 -0.31561083
000030 4f d8 2d bd 70 13 9f bd 01 26 bd bc 94 8a ae 3d
       -0.042442616 -0.07767379 -0.02308941 0.085225254
000040 cf 6b 39 3e b2 6e 29 bd d1 79 0f be 1c 62 11 bf
       0.18107532 -0.041365333 -0.14011313 -0.5679033
000050 f4 97 22 be bc 2c 76 3d 09 57 5d 3d fc 00 f1 bc
       -0.15878278 0.060101256 0.05403808 -0.029419415
000060 bb b8 d5 3e 2a 2d 96 be 21 ce 23 bf 42 1f 59 3f
       0.417425 -0.29331332 -0.639864 0.8481332
000070 ad 05 de bd 92 50 85 3e 55 2a b5 3d a0 a1 f9 bc
       -0.10840926 0.26038033 0.08845965 -0.030472577
000080 61 2f d6 bd ae 76 08 bf 44 1d 38 be b2 d9 5e bf
       -0.104582556 -0.5330609 -0.17979914 -0.87050927
000090 e0 27 dc be d3 ee b7 be ad 2a b7 bd e3 4a 30 3d
       -0.42999172 -0.35924396 -0.08943687 0.043040168
0000a0 14 16 55 bf aa a7 1d 3d 75 c3 bf 3d ef ac 08 bf
       -0.83236814 0.038489975 0.09363452 -0.53388876
0000b0 e0 9c e7 3e 6e 82 06 bf e1 c3 b1 3d d2 89 76 3e
       0.45236874 -0.5254277 0.08679939 0.24076012
0000c0 3c 73 d3 bd 92 eb d7 bd a5 b5 7e be 7f a1 89 bd
       -0.103247136 -0.10542978 -0.2487398 -0.06720256
0000d0 31 2b e1 bd 24 31 bd 3e 0b 97 14 3e 67 bd f7 bc
       -0.10994566 0.36951554 0.14510743 -0.030241681
0000e0 3c 81 53 be f5 fd de be c4 e3 92 3d e7 6c c5 bd
       -0.20654768 -0.4355313 0.07172349 -0.09639912
0000f0 f4 33 f2 3e 58 28 3b 3d d3 3d e4 bb 6d c3 27 bf
       0.47305262 0.04569277 -0.006965378 -0.6553257
000100 e3 1f 2c be e9 d2 e5 3e be 80 6c bd 6d 60 cf bd
       -0.16809039 0.44887474 -0.057739966 -0.10125814
000110 fa 3a 1e be b6 f9 72 3e e3 4f 12 3e 13 f6 8d 3d
       -0.15452185 0.2372807 0.14288287 0.069317006
000120 2b e2 09 3f a9 10 54 3c 45 cb f0 bd bb 6a 81 be
       0.5386073 0.012943425 -0.117575206 -0.2527674
000130 0d 03 3d 3e 8b bf e2 3d ae c8 2c bf 14 b0 ef 3d
       0.18458195 0.1107169 -0.6749371 0.11703506
000140 e5 4b 05 bf 53 f1 83 be 09 61 2a bf e5 82 9e 3d
       -0.5206893 -0.25770053 -0.66554314 0.0773981
000150 60 21 30 bd b6 4f 11 3d 0b 8e d0 be b8 ca bf 3d
       -0.04300058 0.03547641 -0.4073337 0.093648374
000160 87 08 a3 3e cf 91 de 3d 4a 6f 76 3e 24 69 42 3d
       0.31842443 0.108676545 0.24065891 0.04746355
000170 0e 89 d9 be 10 b0 97 be 68 7d d2 be a3 b5 68 be
       -0.42487377 -0.29626513 -0.41111302 -0.22725539
000180 e3 f4 8e be 3c eb 89 bd 0c 49 83 3e 92 d6 26 be
       -0.2792121 -0.067343205 0.25641668 -0.1629279
000190 52 1c d2 bc af 65 87 bd 67 03 1f 3e 04 c5 22 be
       -0.02564827 -0.066111915 0.15528642 -0.15895468
0001a0 6d d5 ed be f0 d7 3b 3f 08 08 d8 bd d7 32 9c bd
       -0.46451893 0.7337637 -0.10548407 -0.076268844
0001b0 c6 6a 31 be dc 82 4b bc 30 d5 2d bf ad f1 ee bd
       -0.17325887 -0.012421336 -0.67903423 -0.1166719
0001c0 1c b9 49 3e 69 89 70 be 5e d2 09 be 16 b2 d4 3e
       0.1969952 -0.23489918 -0.13459155 0.4154212
0001d0 38 d3 0d be cd 00 6f be ec 6c 04 bc c2 e4 50 bf
       -0.13850105 -0.23340149 -0.00808261 -0.81599057
0001e0 29 31 07 3f 71 c5 ab be c5 ce b6 bd 26 f0 93 3e
       0.5280939 -0.33549073 -0.08926157 0.28894156
0001f0 fb 15 83 bd d9 1c 2a 3e b8 9d 8f 3d c7 46 6c 3e
       -0.06400677 0.16612567 0.07012504 0.23073874
000200 84 13 55 3d 6c b5 0b 3f e5 b0 8a bd e9 31 a1 be
       0.052020565 0.545737 -0.06772021 -0.3148339
000210 f0 fd 29 be 60 ba 1e 3e f6 25 ce 3d b6 28 4c 3c
       -0.16600776 0.15500784 0.10065834 0.012460878
000220 7e dd 13 3f c8 e6 da bc ef 8d 43 be d0 c1 7b bd
       0.57759845 -0.026721373 -0.19097112 -0.06146413
000230 d4 be 1a 3e c0 f3 0a 3e e0 53 18 bf 03 a4 62 3d
       0.15111858 0.13569546 -0.59502983 0.055332195
000240 5d c7 2f bf df 22 5c be 49 2c 95 bf 39 0d 31 3b
       -0.6866358 -0.21497677 -1.165414 0.0027015938
000250 e2 10 73 3d 49 bb 79 bd e5 74 0b bf c6 17 bd 3d
       0.059342273 -0.060969625 -0.5447524 0.0923305
000260 cf 20 b6 3e bd 9d 15 3e 12 ec aa 3e 3e a2 56 bd
       0.35571906 0.14610954 0.33383232 -0.05240082
000270 d0 db a3 be 75 26 c2 be f1 45 f9 be e7 00 14 be
       -0.3200364 -0.37919965 -0.48686174 -0.14453469
000280 e7 2b 1e 3d 7d ca 68 3d 9b 31 04 3e 7d 55 d1 bd
       0.038616087 0.056833733 0.12909548 -0.10221384
000290 26 5f 2a 3d 25 2d bd 3d 45 94 7b 3e 5e f9 76 be
       0.041594647 0.09237126 0.24568279 -0.24118564
0002a0 f2 e4 85 be 7c be 8a 3f 05 76 8e bd fd ad 0b be
       -0.26151234 1.0839381 -0.06956104 -0.1364059
0002b0 31 d4 7d be 47 3c 61 bc 56 8b 4f bf 11 c3 b0 be
       -0.24787976 -0.013747281 -0.81071985 -0.34523824
0002c0 01 a9 cc 3e 8d f9 8c be 7a 5a e3 3d d6 46 a2 3e
       0.3997269 -0.27534142 0.111012414 0.3169467
0002d0 89 7d 73 be a3 22 4c be 1d e4 42 be 7a 66 a7 bf
       -0.23778357 -0.19935088 -0.19032331 -1.3078148
0002e0 5d 1d 2f 3f c1 cf c7 bd 9e 64 e9 bd fc a7 16 3e
       0.6840418 -0.09756423 -0.11396144 0.14712518
0002f0 e0 09 39 be b5 d1 e3 3c e8 1d 83 3e 95 9f 09 3e
       -0.18070173 0.027809957 0.25608754 0.13439782
000300 25 e0 27 3e 19 b4 e4 bd 7b 4e 56 be 8f 89 8f be
       0.16394098 -0.111671634 -0.20928375 -0.28034636
000310 2c 36 e3 3d ff e4 0e 3e ac a0 09 3e 3b dc 25 3e
       0.11094317 0.13954543 0.13440198 0.16197293
000320 68 53 f6 be fa a9 4d 3e a6 e3 61 3e 75 cf e1 3e
       -0.4811051 0.20084372 0.22059497 0.4410359
000330 82 9a 88 bd f8 12 c7 3e c4 20 5e bd 08 a5 25 3e
       -0.06670095 0.3888166 -0.054230466 0.16176236
000340 39 e3 10 be 2d ea e1 bd eb b1 b1 bd 1c c3 cd 3e
       -0.14149179 -0.110309936 -0.08676513 0.4018792
000350 5f c7 1e 3e f2 e2 ae bd a7 97 8e 3d 9c 60 17 3e
       0.15505742 -0.0853938 0.06962519 0.14782947
000360 94 cb 1c bf 77 79 bc 3e a9 7f 49 3f 9a ae 61 bf
       -0.61248136 0.3681142 0.7871042 -0.88157046
000370 33 80 85 3e e6 ce 0e bf 5b 64 69 bd 34 86 81 3d
       0.2607437 -0.5578445 -0.056980472 0.06324425
000380 6f c7 0e 3e f5 6f 5f 3f 55 9f 10 3e d5 f9 03 3f
       0.13943265 0.8728021 0.1412328 0.5155309
000390 69 12 3b 3e ba 86 18 3f 87 54 64 3e 0e e8 84 3c
       0.18268742 0.59580576 0.2229787 0.016223934
0003a0 35 a3 25 3f 0f b0 f6 3d 66 bc 93 3e 16 c7 87 3d
       0.6470216 0.12045299 0.28854674 0.066297695
0003b0 d0 da 06 bf d1 b2 e0 3e ac be 36 be 59 f7 93 be
       -0.5267763 0.43886426 -0.17846173 -0.2889965
0003c0 02 93 0e 3e c7 5b 60 3e 15 f0 91 3e e4 37 37 3e
       0.13923267 0.2191001 0.2850348 0.17892414
0003d0 0b 59 95 3c 1c 30 05 bf 72 92 9e 3d a2 89 28 be
       0.018230936 -0.52026534 0.07742776 -0.16458753
0003e0 b6 d1 8c 3e 42 2d 00 3f ed 04 7f bb 65 ae e2 3d
       0.27503747 0.5006906 -0.0038912848 0.11068419
0003f0 8e 8d 0d be 4a dd 17 bd d8 5e a6 3e 7e 07 f2 3e
       -0.1382353 -0.037076272 0.32494235 0.4727134

actor.2.bias f4 [64]
000000 ec f1 7b be ec 35 bf 3e ee 52 df 3e 92 64 a1 3e
       -0.24604005 0.37345827 0.43617958 0.31522042
000010 94 58 4b be ee 0b c6 3d 36 2c b4 bd ac 04 ea 3c
       -0.19858009 0.09670244 -0.08797495 0.02856668
000020 b2 6a 7f bd 5f 57 2c 3d 0b dc 1a be fa f6 05 be
       -0.062357612 0.04207551 -0.15123002 -0.13082495
000030 15 eb a9 3e 2e f4 2a be e3 68 4b 3e b9 af 9b 3d
       0.33187166 -0.1669471 0.1986423 0.07601876
000040 6e eb 6f 3d ba 7b 35 3e df 44 05 3c 71 07 f0 bd
       0.058574133 0.17722979 0.008134096 -0.11720169
000050 28 37 b2 3c bd 7e a5 3e 7a 08 f0 bc d7 3a 97 be
       0.021754816 0.32323256 -0.029300917 -0.2953708
000060 db 98 06 be dc 79 86 3c 51 f0 04 3d 4c 73 ba ba
       -0.13144247 0.016415529 0.032455746 -0.0014225035
000070 26 2a 79 bd f3 9b b9 be bd d1 e4 3d 29 b4 21 bc
       -0.06083121 -0.36251792 0.11172817 -0.009869614
000080 a8 24 b4 bd aa eb b4 3e b6 23 c9 be ab 55 d9 3e
       -0.08796054 0.35336047 -0.39285058 0.42448172
000090 b7 83 09 3e f3 75 4a 3d 46 33 61 3e f0 fe 08 3e
       0.13429151 0.04942889 0.21992216 0.13378501
0000a0 03 21 23 3a e4 8c 3e bd f1 f8 5a 3d d0 66 05 be
       0.00062228757 -0.046521083 0.053460065 -0.13027501
0000b0 f0 30 53 3d 87 6b 06 3e e8 b7 18 3e 8d 5a ce bd
       0.051560342 0.13126956 0.14913905 -0.10075865
0000c0 9f 6c 35 be f9 f6 45 3e df d7 91 be ed fd b1 3e
       -0.17717217 0.19332494 -0.2848501 0.34764042
0000d0 22 76 bf 3d e3 d8 34 be 07 03 87 3e ea c4 a1 be
       0.09348704 -0.1766086 0.26369497 -0.31595546
0000e0 13 94 9d 3e d9 62 35 3e 12 72 50 3d c5 19 a6 be
       0.30777034 0.17713489 0.050890036 -0.32441536
0000f0 7b 67 e7 3d 39 02 3d 3e ae 2a 57 3e 7a 6d 19 3e
       0.11299034 0.18457879 0.21012375 0.14983168

actor.4.weight f4 [9, 64]
000000 a1 c3 bd be 6e 70 00 bf 3e a1 51 bf 4e a0 dd 3d
       -0.37063316 -0.50171554 -0.8188666 0.10821591
000010 f0 53 f4 3e 57 8c 32 be 71 bd c1 be d3 2b d3 3e
       0.4772029 -0.17436348 -0.37839845 0.41244373
000020 e9 e6 d9 be 3f fd cf bd a2 dc 5f be 3c 59 ef be
       -0.42558983 -0.10155725 -0.21861508 -0.46747768
000030 d1 40 1c bf 6f d1 7b 3f 92 4c bb 3e 54 52 2e be
       -0.610364 0.98366445 0.36581856 -0.17023593
000040 ed e5 09 be 47 ea dc be e8 cc e4 bc 83 71 16 3e
       -0.13466616 -0.4314749 -0.027929738 0.14691739
000050 f5 2d 10 be b4 db 69 bf be 03 18 bd cd 54 33 3e
       -0.14080031 -0.91350865 -0.037112944 0.17512818
000060 4d fe 3f bd c2 18 7f be ef 30 8d be 90 ae dd be
       -0.04687338 -0.24911788 -0.27576396 -0.43297243
000070 f2 c0 2f 3f b4 74 fd 3e 0f 45 f2 bd 0c 44 a0 be
       0.68653786 0.495031 -0.11829578 -0.31301916
000080 2a 7d e7 3e d6 1f 03 3d 48 90 71 be c0 2c 05 be
       0.4521268 0.032012783 -0.23590195 -0.13005352
000090 30 e5 95 3e ff 00 1e be 21 c9 8d 3d 23 9a 95 be
       0.2927642 -0.15430067 0.06923128 -0.2921916
0000a0 7b 01 de be de 5c b9 bc 09 59 05 bd 05 d9 1a 3f
       -0.43360505 -0.02262729 -0.032555614 0.60487396
0000b0 06 c2 e7 3e f1 a5 ed 3e 61 a1 4e bf 4a c3 4a 3f
       0.45265216 0.46415666 -0.80714995 0.7920424
0000c0 1c 31 6e 3e c9 da d3 3e 06 9a 32 3e 26 59 81 3e
       0.23260921 0.41377857 0.17441568 0.25263327
0000d0 ea ba b6 be cf d8 47 3c 5b 64 4d 3e d7 89 4a be
       -0.3568948 0.012197687 0.20057814 -0.19779144
0000e0 a4 6c 48 be 8e 48 bd 3e e0 c4 cb 3e 40 bb f7 3c
       -0.19572693 0.36969417 0.3979864 0.030240655
0000f0 6d 76 fa bd 6b 40 8c bd ae 9b 43 be 45 a4 43 be
       -0.12229619 -0.06848224 -0.19102356 -0.19105633
000100 32 e5 50 be 60 b5 67 3d e5 e9 df 3d ae c1 7e 3e
       -0.20399931 0.056569457 0.10933284 0.2487857
000110 3c 81 05 bd d3 2f 5b 3e 10 f5 7d bd 2a a2 44 be
       -0.03259395 0.21404962 -0.062001288 -0.19202486
000120 87 7c 45 be b9 e3 c6 bb 64 e0 bc 3d c2 a3 89 bd
       -0.19285785 -0.006069627 0.092224866 -0.067206874
000130 4c 4e 3d 3d 54 02 d0 3c 04 6b 9f 3d b2 27 60 3e
       0.046217248 0.025391735 0.077840835 0.21890143
000140 40 e2 ae bc a8 33 88 3e 43 7d a0 3e 25 bd b7 be
       -0.021348119 0.2660191 0.31345567 -0.35886493
000150 65 f2 41 3e 1b 87 48 bd 68 93 11 3e 75 fb 70 be
       0.18940122 -0.04895697 0.14216387 -0.23533423
000160 90 54 34 3d 5f 2c 5b 3e ca d5 20 3e 89 f7 7c 3d
       0.044025958 0.21403645 0.15706554 0.061759505
000170 df 6f c0 bd b8 45 ed 3c 17 ec 9b 3e 57 21 7a bd
       -0.09396338 0.028963909 0.3045356 -0.06106695
000180 0c bf 65 bc 98 44 c4 bb 82 07 7d bd 07 25 63 3d
       -0.0140226 -0.0059896223 -0.061774738 0.055455234
000190 8f 03 a8 3c bc e8 b6 3e 97 8d 6a 3e 8f 62 ae 3e
       0.02050951 0.35724437 0.22905575 0.3405957
0001a0 6e 10 b3 bd da 39 22 be b2 b3 b7 3e 35 14 c1 bc
       -0.08743368 -0.15842381 0.35879284 -0.023569206
0001b0 3e 74 a5 3d 0d 3e 5f bd 75 81 af 3b 63 3e 13 3e
       0.08078812 -0.054502536 0.0053560087 0.14379267
0001c0 91 6a ab be 2d df a0 3e 49 1b 91 bd d6 4d 2a 3e
       -0.3347974 0.3142027 -0.07085282 0.16631255
0001d0 ef fb cc bb 54 3b e2 3d 0c 42 0b 3e 83 a7 0d be
       -0.0062556188 0.11046472 0.13599414 -0.13833432
0001e0 d7 d2 2d bd bf f8 89 3d 62 24 95 3d d9 ea 74 bd
       -0.0424374 0.06736898 0.0728233 -0.05979428
0001f0 71 f6 a7 3e db fa bb bd ee f6 77 3d 80 c3 c0 3d
       0.32805207 -0.09178706 0.060538225 0.09412289
000200 b1 db 0a be 02 04 90 bd 33 7d cd 3d 68 dc 9e 3e
       -0.13560368 -0.070320144 0.100336455 0.31027532
000210 6b 96 42 be ac 66 05 3e 51 23 02 be a2 62 de bd
       -0.19002692 0.13027447 -0.12708785 -0.108586565
000220 5d 5c 4d be 0f 48 5d 3d 49 f5 a6 bd 7c 9c 34 bd
       -0.20054765 0.0540238 -0.08152253 -0.044094548
000230 40 b9 58 3d 99 0c 4f bd 21 e1 5b 3e 24 d6 c4 3e
       0.052911043 -0.050549123 0.21472599 0.38444626
000240 6b 49 ab 3d 18 18 80 3e 31 cd f3 3d b1 e9 e3 be
       0.08363613 0.25018382 0.119043715 -0.4451423
000250 b9 b8 11 3e 2a 45 0e 3d ea 51 18 3e 23 39 d7 bd
       0.14230622 0.03473393 0.14874998 -0.10508945
000260 07 56 b1 3d ac 06 6e 3e bd f3 9a 3e 1b 7a dc bd
       0.086589865 0.23244733 0.30264083 -0.10765477
000270 00 fb c1 bc 3b c2 07 3e 08 87 b6 3e 20 a7 68 be
       -0.023679256 0.13257687 0.35649896 -0.22720003
000280 ae 16 11 bd a7 f7 e6 bd 33 8f db 3c f3 ce b1 bd
       -0.03542202 -0.11277705 0.026801681 -0.086820506
000290 f7 e5 72 bd 6c 2b c1 3e 28 df 49 3e b0 08 9b 3e
       -0.059301343 0.3772844 0.19714034 0.30280066
0002a0 c4 61 03 3c 0b fe 2a be af 13 b3 3e 25 0c 4e bd
       0.008018915 -0.16698472 0.34975955 -0.05030455
0002b0 b7 11 03 3e 7b 75 fa bd cf 6e c2 bd 61 df 36 3e
       0.12799726 -0.12229439 -0.09493791 0.1785865
0002c0 d9 31 a2 be 96 91 92 3e b9 e4 51 3c e9 92 6f 3e
       -0.31678656 0.28626698 0.012810879 0.23395886
0002d0 f7 1d 78 bd 9f 07 b3 3d 3c b0 46 3e ba 19 6a be
       -0.06057545 0.08741688 0.19403166 -0.22861376
0002e0 28 9a 36 be 63 d4 19 3e f6 f5 f9 3a ce 81 99 bc
       -0.17832243 0.15022425 0.0019070494 -0.018738654
0002f0 e0 9c e3 3e 16 ad c9 bd c1 9c f8 3b 80 53 22 3e
       0.44455624 -0.09847467 0.007587046 0.15852165
000300 1a a1 38 be 9a e3 a1 3e 20 06 9b 3e 67 8f 34 bc
       -0.18030205 0.3161896 0.3027811 -0.011020518
000310 4a 3a e1 bd 62 53 58 3d 41 13 9d bd fa 9a 77 3d
       -0.10997446 0.052813895 -0.07669688 0.06045053
000320 f1 aa 93 3d 61 a3 b2 3c d7 1e 57 be c7 73 59 be
       0.07210339 0.02180642 -0.21007858 -0.21235572
000330 48 58 3e 3e 9f ce f5 bd b9 61 95 3e a8 64 b1 bd
       0.18588364 -0.120023005 0.2917612 -0.08661777
000340 5e 6a ed 3c 3f 1f 4b bd 67 10 c0 3d ba 29 80 bc
       0.028981384 -0.049590345 0.093781285 -0.015644897
000350 64 9a 14 3d 54 c8 89 3d b5 1a b5 bd 1a 63 45 be
       0.03628005 0.06727663 -0.088429846 -0.19276085
000360 8a 5a 47 bd b8 50 7b bc 29 7d 50 bd 11 7a 2b be
       -0.04867033 -0.015339069 -0.050900612 -0.16745783
000370 1b 3c 1a be 1d ec 68 be fc 4b c9 bc df c1 a3 3d
       -0.15061991 -0.2274632 -0.024572365 0.07995962
000380 3f 3a 67 bd d5 7d a0 3e 97 e3 29 be d2 5d 8b 3e
       -0.056452032 0.31346002 -0.16590725 0.27220017
000390 62 b7 76 3e c8 d4 3a be 46 24 36 3e 23 72 b3 ba
       0.24093392 -0.18245232 0.17787275 -0.0013690632
0003a0 d6 ee 29 bd 35 0f 23 3d 15 67 7c 3d c0 fc 21 be
       -0.041487537 0.039809424 0.061621744 -0.15819073
0003b0 e9 e6 7f 3e 34 67 13 3e 97 54 18 3e d9 25 57 be
       0.24990429 0.14394838 0.14876018 -0.21010531
0003c0 e7 c1 ea 3c 52 7d c3 3d 64 d7 9c be c3 4a 66 3e
       0.028656913 0.09545387 -0.3063308 0.22489457
0003d0 3b 0f b4 bd 82 db 4a be 8c 3e 45 3e 13 8a ce bd
       -0.087919675 -0.19810298 0.19262141 -0.10084929
0003e0 53 c8 91 3e e2 3d 39 3e 11 14 2f 3e 11 e5 20 be
       0.28473148 0.18090013 0.17097498 -0.15712382
0003f0 d2 c1 31 be 7a ba 84 3e 33 8b 85 3e e8 d3 0e bd
       -0.17359093 0.2592352 0.26082763 -0.03487006

actor.4.bias f4 [9]
000000 99 b4 74 be 2d 68 5a 3d ff 0e 57 bd da 06 a3 3e
       -0.23897018 0.053322006 -0.052504536 0.31841165
000010 91 73 a0 3e 53 12 54 3d 1c 86 46 3e 90 74 ea 3d
       0.3133817 0.051775288 0.19387096 0.11448014
000020 69 d8 53 be
       -0.20688023

critic.0.weight f4 [64, 7]
000000 f8 88 0f 3d 4c 7b ea 3c 32 cc 1a 3d 3f d9 1f bf
       0.035042733 0.028623246 0.037792392 -0.62440866
000010 17 4e 31 bc fe 6c da bf d9 15 a1 3e 56 1d e2 bc
       -0.010821841 -1.7064512 0.3146198 -0.02760188
000020 2f eb 9f 3e d1 a1 cb be 82 44 c0 3d e0 88 a8 bf
       0.31234118 -0.39771894 0.09388067 -1.3166771
000030 2d 22 95 be d1 64 d8 be eb 3f 08 be 0c c7 67 be
       -0.29127637 -0.42264417 -0.13305633 -0.22634524
000040 80 06 6f 3e 15 dd 81 3e 0c 51 9e 3f c9 4b 78 bf
       0.23342323 0.25363985 1.2368484 -0.9699064
000050 03 4a 96 3e f9 e7 c2 3d 0d 06 a3 be 93 11 58 be
       0.2935334 0.095169015 -0.31840554 -0.21100454
000060 1c 66 a7 3e 66 09 fa 3e d9 ad 94 bf ea 8d 90 3e
       0.3269509 0.48835295 -1.1615554 0.28233272
000070 df c4 f6 bc 36 42 bd 3e e9 76 94 be ba 90 ec be
       -0.030123172 0.36964577 -0.2899697 -0.46204168
000080 77 88 65 3f 71 af 88 3f fd 5c 0f 3f 9e 24 91 be
       0.89661354 1.067854 0.56001264 -0.2834825
000090 4a 2b 3a be 4e d2 b9 3e 74 d5 6a 3e 6c 30 67 bc
       -0.18180576 0.36293262 0.22932988 -0.014110666
0000a0 06 6c 36 40 28 ad 4c bc 21 a8 3f 3d fa 4e 51 3d
       2.8503432 -0.012492456 0.0467912 0.05110071
0000b0 3d 4a 57 bd 7c 80 2f 3e 35 63 9e bd 88 72 2a c0
       -0.052561034 0.17138857 -0.07733766 -2.6632404
0000c0 6b 80 13 bd c4 5f 2f 3d b9 1b 1d 3d 95 42 a3 be
       -0.03601114 0.04281594 0.038356517 -0.31886736
0000d0 b4 22 de 3e d8 e6 7d be b9 80 09 c0 20 b3 a9 3e
       0.4338585 -0.24795091 -2.1484816 0.33144474
0000e0 bc 0e 91 bd 21 27 0d 3e 3c b0 7a bc 8d 27 a6 bd
       -0.070828885 0.13784458 -0.015300807 -0.081130125
0000f0 ee f8 fa bd 2e 2c 46 c0 0b 56 55 3e 43 4d 1e 3f
       -0.12254511 -3.0964465 0.20833604 0.6183664
000100 bf ba 07 3f 68 ca e1 bd a8 12 b0 3e c0 9a 72 be
       0.53019327 -0.11024934 0.34389234 -0.23691845
000110 bf 48 d9 3f 82 ec a2 3c 43 26 00 bd af b5 55 be
       1.6975325 0.019888166 -0.03128649 -0.20870088
000120 13 2c 90 bd a6 bf f9 3e 08 99 17 bf f4 25 c2 be
       -0.070396565 0.4877903 -0.5921788 -0.3791958
000130 28 8d 06 3e f4 08 19 3f 21 9d 07 3f d1 30 4e 3e
       0.13139784 0.59779286 0.52974135 0.2013581
000140 fd b9 9b 3e 71 99 8a bf b7 da 0a 40 3d 9c d7 39
       0.30415335 -1.0828077 2.1695993 0.00041124402
000150 bb 7a 96 3d 8d 52 17 bd 06 c6 6f be 7a 4f 87 3e
       0.07347628 -0.03694396 -0.23415384 0.26427823
000160 87 91 81 3f 1a 31 8c bf b7 d9 ca 3e 23 08 1c bc
       1.0122536 -1.0952485 0.39619228 -0.009523424
000170 28 45 ac bd 6e 43 a0 bd 26 ac 15 3e ef db 0b be
       -0.08411628 -0.07825361 0.1461645 -0.13658117
000180 88 49 0b 40 49 15 11 3c 5b df d0 3e c8 c6 c0 3e
       2.176363 0.008855172 0.40795407 0.37651658
000190 23 39 ad bd 03 c0 e2 bd e1 41 dd be 6b 45 3a 40
       -0.084581636 -0.110717796 -0.43214324 2.910487
0001a0 9d ef 18 bd 7b 03 84 be 8f 6f 71 3e 25 8a a9 bd
       -0.037337888 -0.25783905 0.23577712 -0.08278302
0001b0 0a da 3c 3e a8 61 46 3f f0 3a fc bf fe 85 1f 3d
       0.1844255 0.7749276 -1.9705486 0.038946144
0001c0 f7 6b 7c 3d 63 78 4a 3d 92 12 06 be f1 52 14 be
       0.0616264 0.049431216 -0.13093022 -0.14484765
0001d0 4d b7 80 3e 60 7d 21 40 c8 dd 26 3e 2e 6a 0e be
       0.25139847 2.5232773 0.1629554 -0.13907692
0001e0 ee c1 8f 3e 91 f2 b3 be 3b 8f df bc b3 2f 18 3f
       0.28077644 -0.35146 -0.027289977 0.59447783
0001f0 ff 73 39 c0 64 66 17 be 1c 8e 94 3c f0 7a 5e 3e
       -2.8977048 -0.14785153 0.01813417 0.21726584
000200 19 e7 40 be fb e1 ac 3d df 32 38 3e 5a de 3b 40
       -0.18838157 0.0844154 0.17988156 2.9354463
000210 dc 18 b1 bd 64 96 ee bd 78 42 a2 3d 09 02 f0 be
       -0.0864732 -0.116497785 0.07922834 -0.46876553
000220 62 bd 20 be 57 1b 36 3f 97 f0 78 3f 60 0e 0e bd
       -0.15697244 0.7113547 0.9724211 -0.034681678
000230 d2 a6 db bd a4 b8 20 3c 91 63 53 3e 21 e0 68 3e
       -0.10725178 0.009809647 0.2064345 0.22741748
000240 81 36 16 3f 1a 8a ee bf 71 51 49 3e 5e be a8 bd
       0.58676916 -1.8635895 0.19659974 -0.08239435
000250 06 f1 14 3d a9 7e 2a bd 5d 41 d7 be 86 91 1f 3f
       0.03636267 -0.0416247 -0.42042056 0.62331426
000260 5c 98 1e 40 54 86 38 bd ed c9 6b 3d 3c f5 72 be
       2.4780493 -0.04504998 0.05756562 -0.23726362
000270 3e 34 53 3e 14 dc 80 be a4 04 11 bf c9 f7 17 40
       0.20625398 -0.25167906 -0.56647706 2.3744986
000280 8b 4e 64 bc e8 3c 34 bd eb 30 0e bd a9 a7 69 3b
       -0.013934742 -0.044003397 -0.03471462 0.0035652912
000290 ed 6a 87 be b0 09 cb 3e ae 09 36 c0 e5 ce 97 3d
       -0.26448765 0.39655828 -2.8443408 0.07412509
0002a0 95 42 be ba e3 b2 b6 bd d0 9d 5b 3e 8c 33 81 be
       -0.0014515693 -0.08920839 0.2144692 -0.2523464
0002b0 12 d3 0a bf 5a 3c 9f 3f 69 24 33 be 5a 42 cd bd
       -0.5422832 1.2440293 -0.17494358 -0.10022421
0002c0 37 b9 85 3e 1c 4f 9f 3c da 7c bb 3e df 23 76 3f
       0.2611787 0.019446902 0.36618692 0.96148485
0002d0 04 fa bd 3f 2a 21 bc bd c9 82 69 be 22 3d 8d be
       1.4841924 -0.09186013 -0.22803797 -0.27585703
0002e0 57 dd 21 bf 84 98 80 be 29 47 2b be 6e bd 20 40
       -0.6322836 -0.2511636 -0.16726364 2.5115619
0002f0 93 b7 36 be 41 0f 58 3d ac bd 8d bd de 5c e0 bd
       -0.17843466 0.052748922 -0.06920943 -0.10955213
000300 14 0f bb 3e 23 a2 7e bf 59 d2 04 c0 85 24 05 be
       0.3653494 -0.9946615 -2.0753386 -0.13002212
000310 59 4b 37 3e 1f 57 ba be 2a 3d 1f 3d f5 ac a9 3d
       0.17899837 -0.36394593 0.03887669 0.08284942
000320 d2 25 9d be 84 c3 24 c0 f4 ed e8 bd f0 20 2c 3d
       -0.30692917 -2.5744333 -0.11373511 0.0420236
000330 29 8b 88 bc 9d 7d 16 be 6a 85 cb be 55 3e 9f bf
       -0.01666792 -0.14696355 -0.39750224 -1.2440897
000340 31 9b b9 bf 38 2c 53 3e ab 15 06 bd 62 c1 3e 3e
       -1.4500486 0.20622337 -0.032735508 0.18628457
000350 b2 0b 1b 3d 72 96 86 3e f0 a3 bc bd 1d 55 31 40
       0.03785295 0.26286656 -0.09210956 2.77082
000360 67 a6 93 3d 98 99 9b 3d 09 f5 0e 3e c1 2b 61 be
       0.07209473 0.07597655 0.13960661 -0.21989347
000370 e1 3d 17 3d bb 8a 91 be 91 f0 23 40 be 6d 84 bd
       0.036924247 -0.28426155 2.561558 -0.06466244
000380 04 28 c1 be 43 73 df 3d 99 ea 85 3d f8 1c f8 be
       -0.37725842 0.10910656 0.065388866 -0.484596
000390 53 09 31 3f 09 b4 77 3f ab 9a b6 3e c9 7c bd bd
       0.6915485 0.96759087 0.35664877 -0.092523165
0003a0 a5 75 37 3e 44 8e 64 be 5c df b8 3d 5b c5 5b bf
       0.17915972 -0.22319895 0.090269774 -0.85848016
0003b0 10 5c 19 c0 40 5a 44 36 73 e7 63 bd 50 f0 4f 3d
       -2.396244 2.9258808e-06 -0.05564065 0.05076629
0003c0 b2 aa 40 be 3a 52 de 3e 75 e0 83 3f 9b 1b a6 bf
       -0.18815115 0.4342211 1.0302874 -1.2977175
0003d0 68 24 b8 3d 68 75 22 be b7 68 35 3d 8e 58 79 bd
       0.08991319 -0.158651 0.044289317 -0.060875468
0003e0 68 a6 13 3e b7 87 4a be 6e 0a 19 40 2e 7b 6a 3e
       0.14418948 -0.19778334 2.3912616 0.22898552
0003f0 62 63 88 be 45 71 2b 3e 61 76 02 bf 2c 7f 86 bd
       -0.26638323 0.16742428 -0.5096188 -0.06567225

critic.0.bias f4 [64]
000000 99 4b ed 3d 5f d7 f5 3e 3b 05 e3 be 22 8d 4e be
       0.11586685 0.48015878 -0.44339928 -0.20171025
000010 1b a7 15 bd dd 97 6d 3d 66 a7 22 3d 67 a2 e9 be
       -0.036536317 0.058006156 0.039710425 -0.45631716
000020 f7 cb 17 3c 2d a5 f7 bd 14 1d 6f be b4 24 a9 bd
       0.009264938 -0.12092052 -0.23350936 -0.08258954
000030 5a ef c8 be ff ec 01 be 8f 47 2e be 0c 19 3d bc
       -0.3924511 -0.12688063 -0.17019485 -0.011541616
000040 52 62 b5 bd b3 3d 02 3e ae cb de bd 95 26 9e 3e
       -0.08856644 0.12718849 -0.108786926 0.3088881
000050 94 a8 b2 be 7a cf 99 3e 02 a3 9d 3e 01 cf 77 3e
       -0.3489424 0.30041105 0.30788428 0.2420006
000060 25 90 8d 3e 82 76 e9 be 80 5b ba 3e 2a a7 77 bd
       0.27649036 -0.45598227 0.36397934 -0.060462154
000070 79 0e 99 3e 7f 9f bb 3e 43 62 b8 be 74 70 54 3e
       0.29893854 0.36645123 -0.36012468 0.20746022
000080 ae 4f 7d 3e fb 79 f1 bb 5c bd 91 be f9 0b 09 be
       0.24737427 -0.0073692775 -0.28464782 -0.13383473
000090 43 5d 39 bb a9 d3 a4 bd 33 83 0f be be d7 65 be
       -0.0028284348 -0.080481835 -0.14014892 -0.2244558
0000a0 fb 03 04 be 17 1d 22 3e 76 a7 41 bd 31 0e 6a be
       -0.12892143 0.1583141 -0.047278844 -0.22856976
0000b0 05 89 c0 3e 9a 79 9b 3e 2a 1e ab be c6 a6 7e 3e
       0.37604538 0.30366212 -0.3342145 0.24868307
0000c0 51 a2 ac 3e 3c ff ba be ff f3 8e 3e f2 a5 95 be
       0.33717588 -0.36522853 0.2792053 -0.2922817
0000d0 c7 98 62 bb 06 19 82 be cd 5b 35 be c9 7f b3 3e
       -0.0034575926 -0.25409716 -0.177108 0.3505843
0000e0 86 37 33 3e e0 34 6f 3d 70 1d 4b be 5b 09 89 be
       0.1750165 0.058400035 -0.19835448 -0.2676495
0000f0 40 87 85 3d d5 26 04 bf 9c 32 a7 3c 7c 36 c7 be
       0.065199375 -0.5162175 0.020409875 -0.38908756

critic.2.weight f4 [64, 64]
000000 15 eb 02 3d c5 a8 31 3e ee 0d bf 3d 77 f7 2a be
       0.031962473 0.17349537 0.09328829 -0.16695963
000010 de 99 2c 3d 4d 27 ec bd d7 f1 c6 3c e0 ce e3 bc
       0.042138927 -0.115309335 0.02428524 -0.027808607
000020 59 fa 32 3c 2f 2f a1 bd 27 26 d6 3c 47 3b 80 bd
       0.010923945 -0.07870328 0.02614124 -0.06261306
000030 1f c5 c8 bd 17 55 dc 3d 87 d3 08 be 78 17 a2 bb
       -0.09803223 0.10758417 -0.13361941 -0.0049466453
000040 e1 da 42 3d 50 70 e6 bd eb 99 55 bd 94 e4 d4 3d
       0.04757202 -0.11251891 -0.05214874 0.1039516
000050 14 0a 4c ba d2 76 6d bd 17 8b 27 bd 48 7c 0b bd
       -0.0007783484 -0.057974644 -0.04090413 -0.03405407
000060 0b fd a8 3d 64 50 b8 3c a5 73 f2 bd 35 f8 8a 3d
       0.08251389 0.02249927 -0.11838464 0.06785623
000070 02 fd e9 3c c0 1c 14 3d 9f 12 65 bd 82 50 c8 3d
       0.028563026 0.03616023 -0.05592596 0.09780981
000080 3e 08 31 3d 40 e3 89 3d d6 e5 b8 bd 51 32 77 3d
       0.04322075 0.067327976 -0.09028213 0.06035072
000090 25 a9 63 3d c6 1b e3 bc 6b ee 23 bc f0 05 64 3c
       0.05558123 -0.027723204 -0.010005574 0.013917431
0000a0 7f e4 ea 3c 73 e3 04 bd 00 84 bd bd cc 59 fb bc
       0.028673409 -0.032443475 -0.092536926 -0.030682467
0000b0 84 8b 00 be 6b d7 b9 bd 9a c7 2b 3e 8a 20 00 bd
       -0.12553221 -0.09074291 0.1677536 -0.03128103
0000c0 53 99 8c 3d 34 45 39 bd 77 93 40 3d 8b 1a 5f bd
       0.06865182 -0.045232013 0.047015633 -0.054468673
0000d0 5c d1 ce 3c 2c 79 ed 3d 6e 18 d1 bc 44 c5 5f 3d
       0.025246315 0.11595377 -0.025524344 0.054631487
0000e0 c9 15 10 be 78 fe da 3c 8b c9 97 3d 6c 7c 9d 3d
       -0.1407081 0.026732668 0.07411488 0.07689747
0000f0 ff 6e b4 3d c0 2d 99 3d ea 88 0a 3d d7 96 80 3d
       0.08810233 0.07479429 0.033821978 0.062787704
000100 8a 6c 96 3d fc 0c f1 3d 8e 71 fd bb 63 c4 15 be
       0.07344921 0.11770055 -0.007734484 -0.14625697
000110 a2 cc 88 bd 3c 2b 49 bd 08 75 fd 3c 16 c8 0c be
       -0.066796556 -0.049113497 0.030939594 -0.13748202
000120 91 1a 52 3d f8 dc 00 bd b4 16 08 be e4 8a 7f bd
       0.051294867 -0.031460732 -0.1328991 -0.062388316
000130 4a 27 be 3d 5a 48 b0 3d 1f a0 46 bd 14 da 33 bd
       0.092848375 0.0860755 -0.048492547 -0.043909147
000140 90 ae 0e 3b fe cd c8 bc a7 51 cf 3d 72 f8 c5 bc
       0.0021771528 -0.024512287 0.10122996 -0.02416632
000150 88 59 b8 bd bc c1 f1 3d e6 69 d0 3c c5 7a b7 bd
       -0.09001452 0.1180453 0.025441121 -0.08958963
000160 62 5a c3 bd 6a 43 b6 bc 0f 8a 91 bd 68 7b 10 be
       -0.095387235 -0.022248942 -0.07106411 -0.14109576
000170 8b 3e 84 3d 9b 7e 09 3d e0 74 5d bc c2 e0 1d bd
       0.064572416 0.033568006 -0.013516635 -0.038544424
000180 80 dc 52 bd fd 00 5d bd ae 84 f9 3d dc 11 11 bd
       -0.051479816 -0.05395602 0.1218351 -0.035417423
000190 4d 84 9a bc f5 8e e6 bb db 8b 0e bb c1 08 99 3d
       -0.018861914 -0.007036085 -0.002175084 0.07472373
0001a0 40 73 d0 3d de de 02 be 48 a7 d9 3d 20 37 dd bd
       0.10178232 -0.1278033 0.106276095 -0.1080153
0001b0 c6 4b 88 bd 3c 95 ad ba 81 fb 03 bb 61 07 a6 3c
       -0.06655078 -0.0013243328 -0.0020138922 0.02026719
0001c0 0e 4e a3 bd e9 f0 13 3c e1 ec 98 bc be 5e ad 3d
       -0.07973872 0.009029605 -0.01866764 0.08465336
0001d0 15 3b 08 3d 9b e3 e5 3b da f7 6f 3d 32 2e ab bd
       0.03325947 0.007015658 0.05858598 -0.083584204
0001e0 42 6f b8 bd 11 bb 8e 3c 73 4b d3 bd 32 70 b3 3a
       -0.09005596 0.017423185 -0.10317125 0.0013690053
0001f0 e9 2f 0f 3d 4d 60 8c bc cb ad a7 3d 33 8c ef 3d
       0.0349578 -0.017135764 0.08187445 0.11696663
000200 f3 5f b7 3c 8e 52 e7 3e a1 24 b6 be 00 f5 47 3e
       0.02238462 0.45180172 -0.3557482 0.19527054
000210 02 a9 3d be eb ca 06 bd e1 54 80 3e 83 0d 43 3c
       -0.18521503 -0.03290836 0.25064757 0.011905077
000220 97 2e 77 3e e3 3e dc bb 2a 09 b1 3e 34 fa 75 3d
       0.24138866 -0.006721364 0.34577304 0.060053065
000230 62 63 06 be 0a c6 2c 3d 15 a5 c6 bd e8 6a 46 bc
       -0.13123849 0.042181052 -0.09699456 -0.012110449
000240 16 c3 17 be 91 e3 c4 bd a5 9d ae bd da df 50 3d
       -0.14820513 -0.09613717 -0.08526162 0.05099473
000250 af ee 45 be 40 f2 87 be db c4 b2 bb b9 98 66 3d
       -0.19329332 -0.2655201 -0.005455596 0.05629799
000260 e7 47 62 3d e0 cb 09 bf 4a 17 ba 3d 82 9d ae 3e
       0.055244353 -0.53826714 0.09086473 0.34104544
000270 d2 ff 04 3f 8a b8 25 3f 88 bf 2d be 18 1f 1f 3e
       0.5195285 0.6473471 -0.16967595 0.15539205
000280 8d 5b 06 be 63 66 bd 3e 98 d5 74 be a1 17 4b 3e
       -0.13120861 0.36992177 -0.23909605 0.19833232
000290 31 40 ed 3d 94 2e 83 be 91 60 ac be f5 67 aa 3e
       0.11584509 -0.25621474 -0.33667424 0.33282438
0002a0 68 81 bf 3e 6f 8f 5f 3e 93 ed c9 3d d7 67 9f 3e
       0.37403417 0.2183206 0.09859767 0.3113391
0002b0 0c 2a 95 3e 98 07 34 3f 5c a9 a5 3e a7 14 77 3e
       0.29133642 0.7032409 0.32355773 0.24128972
0002c0 99 f8 b7 3e af b0 cf 3e 4f 88 7c 3b b6 f8 c0 3d
       0.35931852 0.40564486 0.0038533395 0.09422438
0002d0 68 e1 39 be 1d 11 48 bd d7 95 3c be ce 9c 86 3e
       -0.18152392 -0.048844445 -0.18416534 0.26291507
0002e0 90 ce 26 bd 7d 90 4c bd 41 8d 28 3d 3f 36 2e be
       -0.040724337 -0.049942482 0.041150335 -0.1701288
0002f0 f4 78 a0 3e 3c 99 b8 be 98 5a 8f 3e bb 2e 35 3e
       0.3134228 -0.3605441 0.27998805 0.17693608
000300 7e 75 4c 3d 97 1e 41 3d 3e 82 9b bd f2 2e 55 3d
       0.049916737 0.047148313 -0.07593201 0.052046724
000310 67 0b d4 bd 08 e0 d0 3d a0 c3 33 3c cc af c6 bd
       -0.10353737 0.101989806 0.010971934 -0.09701499
000320 c9 2f b5 3d c9 3d a7 bd 42 c0 a8 bd 41 10 81 3c
       0.08847005 -0.081660815 -0.08239795 0.01575482
000330 0c 2d 85 bc 95 88 e7 bd e1 ec f6 3d 07 9b 6d bd
       -0.016256832 -0.11305348 0.120569 -0.058009174
000340 35 57 a6 bc 85 93 16 bd c8 d1 ea bd d7 4b 7a bd
       -0.020305255 -0.03676178 -0.11465794 -0.061107483
000350 3e ce 77 3d f5 ca 05 3d 61 5e ec 3d 67 1f 0b 3d
       0.060499422 0.032664258 0.11541439 0.033965494
000360 d9 e8 a0 bd 42 0f f4 3c 1e 8e 9a 3d 9a 8c d2 39
       -0.07856912 0.029792432 0.07546638 0.00040159078
000370 f6 05 4f 3d 7c 0e cb 3c f4 02 34 bd 73 51 18 3d
       0.050542794 0.02478718 -0.04394813 0.03718705
000380 d1 4b ef bd 09 37 5a 3d 43 f5 7a 3d 2e b8 0b bc
       -0.11684383 0.053275142 0.061269056 -0.008527799
000390 8e 01 0c 3e de 3d 66 bc 51 79 02 3e 23 61 e3 3d
       0.13672468 -0.014052836 0.12741591 0.11102512
0003a0 17 77 27 bd ad dc d8 3d 9f a8 11 be 74 1a 60 3d
       -0.040885057 0.105889656 -0.1422448 0.054712728
0003b0 82 73 17 3e 10 b1 c4 bc 23 2c dc 3a da 30 25 bd
       0.14790156 -0.024010211 0.0016797822 -0.04032979
0003c0 fa 2b 0b bc 01 9a 27 bd bc db 0a 3d 99 41 a0 3d
       -0.008494372 -0.040918354 0.03390096 0.07825012
0003d0 5e ed ea bd bc a0 35 3a d8 6b 0a 3d 3e 74 9f bd
       -0.114710554 0.00069285533 0.033794254 -0.07785843
0003e0 ce 81 ba bd 3c f2 cc bd 0f bd 2e bc 76 57 8d bc
       -0.091067895 -0.1000714 -0.010665192 -0.017253619
0003f0 fe 13 24 bb 91 90 09 be 0a 76 24 bc 8c 4f ce 3d
       -0.002503633 -0.13434054 -0.010037908 0.10073766

critic.2.bias f4 [64]
000000 a9 e8 cf 3c 30 77 b2 3d 5d ca 71 3e dd ab cd bd
       0.025379496 0.087141395 0.23612352 -0.10042546
000010 4b 0f 89 3d 29 39 f1 bb 48 66 e1 3c a7 15 f0 3d
       0.0669237 -0.0073615503 0.027514592 0.1172288
000020 c2 93 81 3d 1a 55 eb 3c eb 02 c4 bb d8 b7 ea 3d
       0.06327011 0.028727103 -0.005981793 0.11460847
000030 06 3d 96 bd d8 3b ae 3c 2f cb 84 3d 06 96 84 3c
       -0.07335858 0.02126877 0.06484067 0.016184818
000040 74 e0 6a 3d e6 93 00 3c 88 69 c8 39 c8 98 5f be
       0.05734296 0.007847762 0.000382256 -0.21835625
000050 f9 a4 99 be 6f 30 21 bc 4d cc 42 3d 66 15 43 3d
       -0.30008677 -0.009838208 0.047558118 0.04762783
000060 ed 73 5c 3d fb bc 45 3d 7d 9e 9e be 5c ff d8 3d
       0.053821493 0.04827593 -0.30980292 0.10595581
000070 20 34 ec 3b 18 3d da 3c c9 de 98 bd ef bb 2f bd
       0.007208362 0.02664046 -0.07464368 -0.042903837
000080 b2 28 8d 3c de 64 81 bc 25 39 95 bc f9 7f 6c bc
       0.01723132 -0.015795168 -0.018215725 -0.014434808
000090 b9 4b 8c bd 2d 1f 7c 3e 5c d7 e2 bc 49 ba 6c be
       -0.068503805 0.24621268 -0.027690582 -0.23117937
0000a0 3a 69 d1 bd e7 2e 69 3d 1c d9 98 3d 78 62 c5 3d
       -0.102251485 0.056929495 0.07463285 0.09637922
0000b0 48 1b 0f 3d f1 7b a1 bb 0e e6 3c bc 5f ca 74 bd
       0.034938127 -0.004928105 -0.011529459 -0.05976331
0000c0 0a c8 56 3d 38 30 f5 bc 38 2d 1a 3d e6 bb 77 3e
       0.052436866 -0.029930219 0.03764078 0.24192771
0000d0 cb 47 89 bd 5b de 38 3d 21 22 4d 3d 94 1e 09 bd
       -0.067031465 0.04513393 0.050081376 -0.033476427
0000e0 59 1f a8 bd f8 81 92 3d 11 e9 d7 3d 0a ba bc 3d
       -0.08209104 0.07153696 0.10542501 0.09215172
0000f0 45 eb 46 bb 19 da b8 3d 41 dc a4 3d e1 91 79 bc
       -0.0030352634 0.09025974 0.080498226 -0.015232534

critic.4.weight f4 [1, 64]
000000 28 ad 97 39 59 15 28 3b e6 52 9c bd db aa d4 bb
       0.00028929976 0.002564749 -0.07632999 -0.006490094
000010 51 b0 29 3b 8e 5b db 3a e1 bc d8 ba 21 8a 71 3e
       0.0025892446 0.001673566 -0.0016535782 0.23587848
000020 13 0f 57 3e f5 0e d2 b8 91 45 6f ba 3c 80 b8 be
       0.21001844 -0.00010016366 -0.00091274927 -0.36035335
000030 f9 f2 60 39 f9 bc e8 bd de 1b c6 bb 43 c4 83 3a
       0.00021452819 -0.11364169 -0.0060458025 0.0010052997
000040 47 10 1d 3b 54 98 bf bb 05 c8 36 3a 8e 27 8f be
       0.0023966 -0.0058470163 0.0006972554 -0.27959865
000050 9f 43 0e be 53 2c 9d b9 f4 d7 df ba 77 7e 6c 3a
       -0.13892983 -0.00029978398 -0.0017077909 0.000902153
000060 60 10 25 bb b9 ba 1c 3a a4 79 90 3e 7f 1a 6b be
       -0.0025186762 0.00059787516 0.28217804 -0.22959326
000070 28 5e 6b bb 47 7a 85 be a1 26 9e ba ff 84 95 bb
       -0.0035914276 -0.26069853 -0.0012065956 -0.0045629735
000080 92 73 39 3b e6 48 95 39 b9 c6 74 bb 15 f5 ac b9
       0.0028297645 0.00028473808 -0.0037349893 -0.00032988997
000090 fc e8 b6 ba 0f cb 0a 3e 5c 71 2b bb e9 87 7c 3e
       -0.0013954933 0.13554023 -0.0026160097 0.2466122
0000a0 46 e9 bf ba 46 4d 81 3a b2 b2 07 ba 40 4f 80 3b
       -0.0014641664 0.0009864948 -0.0005176469 0.0039156973
0000b0 7b b7 10 bb bd 7a 93 3a 3b 9c b4 3a 4b 1d af bb
       -0.002208202 0.0011251789 0.001377947 -0.005344068
0000c0 8a 16 81 38 8d 7a a0 ba 58 99 00 39 fa 7d ef 3d
       6.1553976e-05 -0.0012243554 0.00012264156 0.1169395
0000d0 a6 27 0c b9 39 1c 12 3a 6f 8f 52 3a 98 d5 63 38
       -0.0001336621 0.00055736635 0.00080322375 5.4319942e-05
0000e0 fe 70 78 bb b9 4b ba 3a 49 39 48 3e 0d 1c 62 3b
       -0.0037909145 0.0014213241 0.19553103 0.0034501583
0000f0 99 9e 5b 3a 01 a5 ff 3a 1c 8c aa 3b e2 18 93 3a
       0.000837782 0.0019504131 0.0052046906 0.0011222626
