trained/ComplexPong/PPO_mcts_frequent_1728610892.8111203.pth (torch, 44994 bytes, 11 tensors)

actor.0.weight f4 [64, 7]
-0.13567206 -0.07279244 0.3768759 0.39329344 0.66757387 0.25821096 -0.34253308 0.102927804
0.492534 -0.572884 0.04752431 -0.63328636 0.22530447 0.101201996 -0.1372337 0.17747709
0.10728054 0.0056821634 0.18914527 0.055185825 -0.09155916 0.39225572 0.050524294 -0.34323347
-0.19621587 -0.07395295 -0.17745017 -0.29437262 -0.056704015 0.27109772 0.07132702 -0.48704958
-0.53051573 -0.6738305 -0.18200241 0.18267907 0.04497461 -0.0915781 0.21492496 0.058961526
0.67789257 -0.24458699 -0.3684147 0.3523746 0.014393349 0.51560384 0.4033472 0.22028832
0.105163425 0.12262417 0.23122694 -0.29355362 -0.39367518 -0.3456973 -0.26560083 0.17403218
-0.3587405 -0.3817935 0.451301 -0.05095097 0.82147735 -0.5156799 -0.05743232 0.1982427
-0.10969366 0.39713594 -0.031806022 0.12395133 0.28479668 0.10350565 0.4514342 0.20352729
-0.3912552 0.25834233 -0.5291123 0.8085326 -0.11389345 -0.15796518 0.0862087 0.18259338
0.1098261 0.37438294 -0.32637182 0.06026425 0.37883466 0.2272286 -0.5121039 -0.17776074
-0.2660836 0.44388723 0.043104194 -0.0058163307 0.39744624 -0.3782261 0.2631732 0.08569278
0.6641644 -0.2227693 0.124902725 -0.56042445 0.33054587 0.16650693 0.3583576 -0.35984233
-0.20013623 0.506215 -0.52939963 0.4885327 -0.24310829 0.20210429 -0.1809496 0.16588745
0.40257806 -0.43366235 -0.24736053 0.309505 0.15820764 0.8725306 0.21184097 -0.053851627
-0.25964496 0.1616909 0.34957469 0.09402596 0.013678136 0.24201931 0.05599137 0.55163693
-0.5370752 0.1198624 -0.76282126 0.5791128 -0.20070109 0.007302521 0.21878465 0.16748053
0.26389897 0.11138497 0.7462725 0.15988682 0.11361316 -0.10484887 -0.046827655 0.115177006
0.46237335 0.7881649 -0.20423858 0.34205362 0.11873257 -0.30741298 0.44249153 -0.4284461
1.1360724 -0.22032312 -0.2791076 0.1826644 0.15353236 0.12002508 -0.10623144 -0.040631182
0.13706322 0.036440294 -0.11519713 -0.21584342 -0.40307775 -0.16193278 -0.64342654 -0.22230458
0.21199329 0.38785765 -0.5410296 -0.20496988 -0.65767646 -0.10690781 -0.2999495 -0.10780636
-0.41822433 0.48950163 0.29715046 0.7628214 0.2707174 -0.012677804 -0.01895188 -0.054298792
0.39257163 -0.42507142 0.5092984 -0.80287594 -0.05312872 -0.15184912 0.19103578 0.044411186
-0.20408359 0.27235147 -0.7548201 -0.2141928 0.34492388 0.5170342 -0.43279114 -0.34477964
-0.3912553 0.047530558 0.10522519 -0.54231286 0.13923289 -0.034925576 -0.20741917 0.5567345
-1.1630243 0.119551554 0.17063569 0.32917172 -0.3408936 -0.23109838 -0.12895195 -0.05208024
0.019038744 -0.46491712 -0.15571633 0.4582974 0.3248966 0.37392244 0.32938015 0.08362752
-0.26854196 0.41727924 -0.6319405 0.11371873 -0.65460944 0.038269423 0.18821429 0.037925795
-0.52237326 0.545295 0.2541368 0.8519839 -0.07860723 -0.23587914 0.4050066 0.15243642
-0.17430906 -0.5131481 -0.17312594 0.1602637 0.28634223 -0.054048315 0.32804975 -0.27622086
-0.023001848 -0.27584174 0.013427597 0.0032629594 -0.062147602 0.21349713 -0.36444607 0.07959789
00000000: 9eed 0abe 3414 95bd e1f5 c03e c25d c93e
00000010: 1fe6 2a3f 3a34 843e 7f60 afbe d0cb d23d
00000020: 6b2d fc3e 87a8 12bf daa8 423d 0e1f 22bf
00000030: 37b6 663e fe42 cf3d fe86 0cbe 8ebc 353e
00000040: e6b5 db3d 7131 ba3b 4caf 413e 880a 623d
00000050: 5e83 bbbd bed5 c83e 90f2 4e3d 4cbc afbe
00000060: d0ec 48be a574 97bd 7fb5 35be 02b8 96be
00000070: 7842 68bd 52cd 8a3e e713 923d 905e f9be
00000080: e1cf 07bf 2880 2cbf d75e 3abe 3910 3b3e
00000090: 4c37 383d 4d8d bbbd 4a15 5c3e a481 713d
000000a0: 5e8a 2d3f 0375 7abe daa0 bcbe 726a b43e
000000b0: 15d2 6b3c 9dfe 033f 8683 ce3e 4393 613e
000000c0: ec5f d73d 6122 fb3d c1c6 6c3e a94c 96be
000000d0: cb8f c9be 3dff b0be d5fc 87be 7e35 323e
000000e0: d6ac b7be 707a c3be ed10 e73e f7b1 50bd
000000f0: 574c 523f 9903 04bf 273e 6bbd 2200 4b3e
00000100: 12a7 e0bd 6755 cb3e 0847 02bd 32da fd3d
00000110: dfd0 913e c5fa d33d 6222 e73e 7569 503e
00000120: 9a52 c8be 7245 843e e773 07bf fefb 4e3f
00000130: f840 e9bd a0c1 21be 308e b03d c2f9 3a3e
00000140: 82ec e03d 1faf bf3e 351a a7be a5d7 763d
00000150: 9ef6 c13e 9dae 683e 3e19 03bf e906 36be
00000160: 1c3c 88be 3045 e33e 068e 303d eb96 bebb
00000170: 137e cb3e daa6 c1be a3be 863e b27f af3d
00000180: ae06 2a3f a31d 64be 00cd ff3d fa77 0fbf
00000190: 4f3d a93e cb80 2a3e a67a b73e 413d b8be
000001a0: 83f0 4cbe 4e97 013f bc86 07bf f520 fa3e
000001b0: 61f1 78be 6df4 4e3e da4a 39be 66de 293e
000001c0: b61e ce3e fe08 debe 144c 7dbe 7077 9e3e
000001d0: 2f01 223e 2a5e 5f3f d7ec 583e 8693 5cbd
000001e0: 2ff0 84be 4d92 253e 74fb b23e af90 c03d
000001f0: 431a 603c e9d3 773e 3557 653d 1438 0d3f
00000200: c37d 09bf 6b7a f53d 4148 43bf bd40 143f
00000210: 9684 4dbe fc49 ef3b 1509 603e 0480 2b3e
00000220: c41d 873e ce1d e43d b70b 3f3f 5fb9 233e
00000230: 04ae e83d 01bb d6bd 5bce 3fbd ece1 eb3d
00000240: 33bc ec3e 2dc5 493f eb23 51be a721 af3e
00000250: 102a f33d 3c65 9dbe 408e e23e 4a5d dbbe
00000260: d26a 913f 629c 61be 31e7 8ebe 600c 3b3e
00000270: 9637 1d3e b6cf f53d df8f d9bd e26c 26bd
00000280: 4d5a 0c3e 6b42 153d 79ec ebbd 0f06 5dbe
00000290: 3560 cebe b5d1 25be 9ab7 24bf d0a3 63be
000002a0: c514 593e 4795 c63e ea80 0abf a0e3 51be
000002b0: 7c5d 28bf 7bf2 dabd fb92 99be 95c9 dcbd
000002c0: 8021 d6be f59f fa3e 1b24 983e 4348 433f
000002d0: 799b 8a3e 90b6 4fbc f940 9bbc 6968 5ebd
000002e0: 26ff c83e f6a2 d9be 6161 023f 4789 4dbf
000002f0: 809d 59bd 567e 1bbe e29e 433e 81e8 353d
00000300: 4afb 50be a771 8b3e e43b 41bf 5b55 5bbe
00000310: dd99 b03e 5a5c 043f cd96 ddbe f586 b0be
00000320: 9d52 c8be 67af 423d 4e80 d73d 04d5 0abf
00000330: 1193 0e3e 1f0e 0fbd b165 54be 2786 0e3f
00000340: fbdd 94bf 72d7 f43d 1fbb 2e3e 3289 a83e
00000350: 9b89 aebe 0ea5 6cbe fb0b 04be 1752 55bd
00000360: 24f7 9b3c 9e09 eebe 1a74 1fbe f5a5 ea3e
00000370: d958 a63e c372 bf3e 84a4 a83e e844 ab3d
00000380: 557e 89be a0a5 d53e dac6 21bf 5ee5 e83d
00000390: 7c94 27bf 66c0 1c3d 3fbb 403e 1458 1b3d
000003a0: 41ba 05bf 7498 0b3f 381e 823e 9e1b 5a3f
000003b0: d4fc a0bd 4d8a 71be 065d cf3e 4b18 1c3e
000003c0: 137e 32be ad5d 03bf ed47 31be 2b1c 243e
000003d0: 739b 923e c461 5dbd 23f6 a73e d26c 8dbe
000003e0: 5f6e bcbc 213b 8dbe 6cff 5b3c 60d7 553b
000003f0: 7c8e 7ebd fe9e 5a3e ad98 babe 3804 a33d

actor.0.bias f4 [64]
-0.2834335 -0.11310292 -0.17431536 0.33818546 0.21121068 -0.057150308 -0.4359295 0.12261208
0.18431817 -0.31610096 -0.28735596 -0.19340448 0.072140925 0.013274863 0.2314979 -0.13778414
-0.12596655 -0.27651942 -0.1206968 -0.49078164 0.13319993 -0.28720883 -0.20319998 0.5464815
0.4119979 -0.13031448 0.12358998 0.18178196 -0.08215807 0.31269056 0.26336786 -0.14962298
0.1807726 -0.046569176 0.15990335 -0.0020140286 0.16768996 0.4261087 -0.22096404 0.3105593
0.15503128 0.030099118 0.17650767 0.11420595 -0.1325223 -0.17589784 -0.24391897 0.024155881
-0.100764856 -0.21719761 -0.007908488 -0.29432607 -0.051410653 0.28645822 0.2216105 -0.28922576
0.020872448 -0.07754995 -0.25972345 0.28492466 0.39985898 0.1581486 -0.10112364 -0.15617266
00000000: 321e 91be 81a2 e7bd ba7f 32be a526 ad3e
00000010: 9d47 583e 7116 6abd 2732 dfbe 0b1c fb3d
00000020: e7bd 3c3e fcd7 a1be 5220 93be d30b 46be
00000030: 9fbe 933d d07e 593c c90d 6d3e 4917 0dbe
00000040: 60fd 00be f493 8dbe e22f f7bd bb47 fbbe
00000050: 9065 083e 090d 93be a813 50be 36e6 0b3f
00000060: 64f1 d23e 2971 05be be1c fd3d 0d25 3a3e
00000070: 7d42 a8bd fa18 a03e 27d8 863e c436 19be
00000080: 741c 393e 52bf 3ebd b4bd 233e cbfd 03bb
00000090: ebb6 2b3e eb2a da3e 6644 62be a101 9f3e
000000a0: 85c0 1e3e 6d92 f63c 6dbe 343e cfe4 e93d
000000b0: edb3 07be 901e 34be e5c5 79be 8ee2 c53c
000000c0: ce5d cebd 0d69 5ebe 9a92 01bc e8b1 96be
000000d0: fa93 52bd a7aa 923e dded 623e 6615 94be
000000e0: b2fc aa3c 82d2 9ebd 79fa 84be a5e1 913e
000000f0: 51ba cc3e b5f1 213e e919 cfbd baeb 1fbe

actor.2.weight f4 [64, 64]
0.6459764 -0.13637485 0.023475057 -0.23908482 -0.2161628 0.10405668 0.21500652 -0.49048567
0.09692534 0.08279398 0.2898711 0.059502702 -0.13723245 0.04863841 0.065607026 0.14779426
0.4263845 0.34444556 -0.20059994 0.24933353 -0.010990781 0.27268705 0.16671279 -0.34500748
-0.65269333 0.5690676 -0.2030935 -0.15619421 -0.35651758 -0.47805235 -0.36949676 0.3203593
-0.276826 0.5327904 -0.3474545 0.017142419 -0.044974025 -0.06214692 0.21551886 -0.3694063
-0.2307608 -0.21558864 0.14273645 0.010239979 0.21633554 0.060454566 -0.13276835 0.081284754
0.4540979 -0.0847626 -0.26503015 0.2206121 -0.14457162 -0.024245044 -0.02706335 0.33040497
-0.47843868 0.17305657 0.5302183 -0.5515931 -0.023576 -0.18859524 0.37256342 0.40796718
-0.09979624 -0.55576056 -0.15712556 0.26613948 -0.05005349 -0.111977756 -0.4026122 -0.1339897
0.33475754 0.0039831996 -0.34410787 -0.15579 -0.0044860626 -0.108206026 0.30957064 0.19126475
0.24017094 0.0588764 -0.82151717 -0.3879767 0.037808467 -0.20270723 -0.25436077 0.39062274
-0.08599383 0.2988825 0.18056117 0.13663581 -0.29382414 0.12062098 0.03004938 0.0791215
-0.09117883 0.45145854 -0.019497743 -0.1365718 -0.13205715 0.13311267 -0.21200432 0.17229538
-0.147766 -0.03127844 0.13102639 0.54194087 -0.24312644 -0.18147032 -0.21857676 -0.0026681193
0.06726754 -0.18084139 -0.118584 -0.15476896 -0.55629754 0.611082 0.094529755 -0.008020099
-0.26386335 0.010116761 0.01701735 -0.35902977 0.09982042 0.06634738 0.22912349 0.064996675
0.6727122 -0.28937894 -0.0067521227 -0.5927057 0.003347066 0.03548163 0.37386635 -0.24228542
0.45185307 0.1926558 -0.1418336 0.1821728 -0.41742676 -0.19317767 -0.014105134 0.14072554
-0.04483515 0.20629926 -0.2805591 0.17214485 -0.006694676 -0.0065011014 0.09233212 -0.28715232
-0.76140326 0.32988214 0.006158273 0.03476063 -0.20944153 -0.09422717 -0.36175188 0.3177467
-0.30834866 0.44049305 -0.33341825 -0.12839058 -0.118891366 -0.36065185 -0.25040787 -0.21715108
-0.08836981 -0.085627496 0.06000434 -0.0050635035 -0.19428337 0.17709705 0.069604814 -0.17720494
0.6619065 0.074346595 -0.09846936 0.2391768 -0.1739756 0.018951867 -0.3080203 0.054469265
0.046629585 -0.24596259 0.85316676 -0.30768225 -0.18543078 0.20120904 0.26283598 0.047342323
0.151022 0.06685651 -0.124214314 -0.104639016 -0.295566 0.1283379 0.109544575 -0.31197107
-0.113077156 -0.14247262 0.1136953 -0.052977823 -0.03893111 0.11052323 0.10728447 -0.10892987
0.21423212 0.107773736 0.031980075 0.055632 0.030057637 0.027389899 0.079889126 -0.056987315
-0.04306317 0.3946171 -0.22476354 0.0017386398 -0.1607854 0.035247386 0.045127925 0.08121372
0.059105884 0.16251022 -0.10906138 -0.06975114 -0.08604693 0.13914025 0.285823 0.045098003
-0.032335475 -0.097406164 0.12786913 0.116894916 0.11710193 -0.11212192 -0.13752174 0.3393297
-0.05052708 -0.23061502 -0.047581665 -0.08730661 0.03107754 -0.23147543 0.13834001 -0.062413443
0.0029697036 0.063357025 0.10904535 0.0704682 0.06704328 0.046354983 0.034171604 0.012039817
00000000: b65e 253f d9a5 0bbe c34e c03c a7d2 74be
00000010: c859 5dbe ab1b d53d ab2a 5c3e f020 fbbe
00000020: cb80 c63d e48f a93d fc69 943e 1bb9 733d
00000030: aa86 0cbe 1239 473d fa5c 863d 6157 173e
00000040: 124f da3e 2b5b b03e 126a 4dbe 4a51 7f3e
00000050: ad12 34bc a39d 8b3e c2b6 2a3e d2a4 b0be
00000060: e916 27bf 6aae 113f bef7 4fbe 60f1 1fbe
00000070: 7989 b6be 47c3 f4be ae2e bdbe 2206 a43e
00000080: 23bc 8dbe f464 083f 8ee5 b1be 426e 8c3c
00000090: af36 38bd c58d 7ebd fab0 5c3e d322 bdbe
000000a0: 8f4c 6cbe 45c3 5cbe 8129 123e 96c5 273c
000000b0: 1087 5d3e 359f 773d 6df4 07be 9f78 a63d
000000c0: 857f e83e 0498 adbd 08b2 87be 23e8 613e
000000d0: 950a 14be 8b9d c6bc f5b3 ddbc d72a a93e
000000e0: eaf5 f4be be35 313e 63bc 073f 3535 0dbf
000000f0: 7522 c1bc 1c1f 41be a2c0 be3e 13e1 d03e
00000100: f961 ccbd 5346 0ebf 86e5 20be 6f43 883e
00000110: e304 4dbd 9854 e5bd 3023 cebe 9934 09be
00000120: 5765 ab3e 8085 823b e82e b0be 6a87 1fbe
00000130: d2ff 92bb 1f9b ddbd 0b80 9e3e e8da 433e
00000140: 5fef 753e 6128 713d f34e 52bf e2a4 c6be
00000150: 0ddd 1a3d 7c92 4fbe 933b 82be b4ff c73e
00000160: 881d b0bd 2107 993e 07e5 383e 42ea 0b3e
00000170: 1e70 96be 2208 f73d 1e2a f63c 740a a23d
00000180: f7bb babd 9325 e73e bbb9 9fbc 7ad9 0bbe
00000190: fd39 07be b04e 083e a917 59be 336e 303e
000001a0: f84f 17be d21d 00bd c82b 063e a3bc 0a3f
000001b0: 23f6 78be 5bd3 39be 96d2 5fbe 9ddb 2ebb
000001c0: 90c3 893d 7c2e 39be 2bdc f2bd c17b 1ebe
000001d0: 8469 0ebf df6f 1c3f d198 c13d bc66 03bc
000001e0: 1919 87be c5c0 253c f867 8b3c c0d2 b7be
000001f0: a66e cc3d 23e1 873d 599f 6a3e fa1c 853d
00000200: de36 2c3f 7a29 94be e940 ddbb 90bb 17bf
00000210: 735a 5b3b 3055 113d 696b bf3e ab19 78be
00000220: 4959 e73e 9047 453e d43c 11be 828b 3a3e
00000230: f6b8 d5be 5ed0 45be 3819 67bc 5b1a 103e
00000240: 10a5 37bd 1d40 533e 71a5 8fbe bd46 303e
00000250: 035f dbbb 3107 d5bb 9f18 bd3d a105 93be
00000260: 53eb 42bf 50e6 a83e 57cb c93b 2a61 0e3d
00000270: d777 56be 2dfa c0bd 8b37 b9be b2af a23e
00000280: e0df 9dbe 4e88 e13e ccb5 aabe d278 03be
00000290: 517d f3bd 5ca7 b8be 7635 80be da5c 5ebe
000002a0: 3bfb b4bd 785d afbd 1cc7 753d bfeb a5bb
000002b0: 38f2 46be ee58 353e f88c 8e3d 3675 35be
000002c0: b472 293f 0743 983d 4eaa c9bd c3ea 743e
000002d0: a926 32be f240 9b3c d6b4 9dbe 2a1b 5f3d
000002e0: aafe 3e3d 9edd 7bbe 2369 5a3f 8788 9dbe
000002f0: 91e1 3dbe be09 4e3e 7092 863e 06ea 413d
00000300: 83a5 1a3e 11ec 883d 1364 febd fb4c d6bd
00000310: 6d54 97be 036b 033e e858 e03d acba 9fbe
00000320: ff94 e7bd 58e4 11be 15d9 e83d 46ff 58bd
00000330: 3a76 1fbd 015a e23d f6b7 db3d a016 dfbd
00000340: aa5f 5b3e 7ab8 dc3d 8afd 023d 61de 633d
00000350: 6f3b f63c c860 e03c e99c a33d 886b 69bd
00000360: 0263 30bd 410b ca3e 6a28 66be 12e3 e33a
00000370: eea4 24be 905f 103d 0fd8 383d 6153 a63d
00000380: 0319 723d 1469 263e 935b dfbd b0d9 8ebd
00000390: 5f39 b0bd c87a 0e3e 6457 923e afb8 383d
000003a0: 3472 04bd e27c c7bd 20f0 023e 9a66 ef3d
000003b0: 23d3 ef3d 2da0 e5bd 80d2 0cbe 9fbc ad3e
000003c0: 7cf5 4ebd 5826 6cbe fee4 42bd cfcd b2bd
000003d0: 5396 fe3c e507 6dbe 01a9 0d3e 3da5 7fbd
000003e0: 5c9f 423b 54c1 813d 2b53 df3d a251 903d
000003f0: fd4d 893d b9de 3d3d 86f7 0b3d a742 453c

actor.2.bias f4 [64]
-0.1970254 0.1360433 -0.12833959 0.005800262 -0.28524652 -0.022633078 -0.22928594 0.071638145
-0.33104256 0.19647396 -0.1582109 0.0139593575 0.32099593 0.10175368 -0.26823065 0.22265294
-0.10455259 0.13650794 0.07513677 0.2374252 -0.075901374 -0.22104703 -0.09388098 0.14536059
-0.08800627 0.11556709 0.09485809 -0.06583299 -0.04339594 -0.27100947 0.25244707 0.18255955
0.34782493 0.23447677 -0.4127707 -0.35810113 0.30880597 -0.2713183 0.16437717 0.052687503
0.09013545 -0.088917546 0.011520444 0.10288366 -0.23054533 -0.17658207 0.17844343 0.052027144
-0.259274 -0.03396976 -0.152459 -0.09052544 -0.14144154 0.21465304 -0.026802681 0.15887327
0.27554506 0.20969579 -0.13829452 0.16205364 -0.23016185 -0.0600496 0.06058415 0.21368267
00000000: 07c1 49be ef4e 0b3e 746b 03be 2010 be3b
00000010: d50b 92be 0169 b9bc efc9 6abe 05b7 923d
00000020: 697e a9be 7830 493e 0a02 22be cab5 643c
00000030: 9459 a43e 3c64 d03d 8755 89be 22ff 633e
00000040: ab1f d6bd bdc8 0b3e 4fe1 993d 971f 733e
00000050: 2e72 9bbd 275a 62be ac44 c0bd 68d9 143e
00000060: a23c b4bd 70ae ec3d f544 c23d 72d3 86bd
00000070: f1bf 31bd c1c1 8abe be40 813e e4f0 3a3e
00000080: 1c16 b23e ae1a 703e ae56 d3be 0859 b7be
00000090: d11b 9e3e 3bea 8abe 7d52 283e dace 573d
000000a0: ef98 b83d 671a b6bd 3fc0 3c3c abb4 d23d
000000b0: 1314 6cbe eed1 34be e0b9 363e 6a1a 553d
000000c0: 90bf 84be e023 0bbd 361e 1cbe 6765 b9bd
000000d0: 0dd6 10be 02ce 5b3e 4c91 dbbc adaf 223e
000000e0: 3e14 8d3e 7eba 563e 149d 0dbe 64f1 253e
000000f0: 8caf 6bbe 92f6 75bd 1627 783d a1cf 5a3e

actor.4.weight f4 [9, 64]
-0.49045146 -0.8009134 -0.30150157 -0.00046510072 1.3481631 -0.15375172 -0.29847446 0.40174678
-0.09232497 0.071407825 0.19458911 0.13137065 0.13607992 -0.028165672 -0.0022664298 -0.34971988
0.7964266 0.4916436 -0.19877476 -0.97490233 0.25553262 0.5205473 0.25618437 -0.2850551
0.53520197 -0.04690283 -0.27614567 0.13087538 0.6663627 -0.21023515 -0.017854312 0.50540257
0.13355988 -0.36100948 0.056257807 -0.054809205 -1.2004483 -0.35103083 0.48580536 -0.089860894
0.15037414 0.47703698 -0.43195292 -0.3815698 1.2161129 -0.022682978 -1.4809134 -0.29024863
-0.04989838 0.0225723 -0.1589878 -0.24303278 -0.30579957 -0.71249723 0.07123507 0.32992983
-1.196163 0.110504076 -0.16553931 -0.81289476 -0.45205826 0.3347303 -0.5630428 0.13525374
-0.31983647 0.112995714 -0.05993668 -0.13728459 0.23579867 -0.24629027 0.03167039 -0.053020224
0.010874265 -0.0847256 -0.30438188 -0.17925942 0.030996153 0.007119263 -0.40366057 0.3052855
0.085268326 0.08818296 0.30018732 -0.03525538 0.14745712 -0.24441059 -0.288071 -0.06314552
-0.15507346 0.14876296 0.36690935 -0.28715158 0.16202056 -0.17981505 0.14004305 0.074613936
-0.106305405 0.16331868 0.02243433 -0.11270339 -0.025054913 -0.25751165 0.032223012 -0.19964719
-0.2675822 -0.18864535 -0.011701733 0.4321609 0.032383967 -0.064962976 -0.12941486 0.23240995
-0.22579874 -0.30151236 -0.16199467 0.12956567 0.04935504 -0.13500029 0.11602849 0.1877515
-0.16206999 0.11076027 0.17006166 -0.01950703 -0.0936542 -0.072392784 0.2969989 0.10844712
-0.2501074 -0.0071440726 -0.052866764 -0.3085342 0.18674083 -0.2638961 -0.02146106 0.03559132
-0.16160256 -0.13211393 -0.38021645 -0.15608945 -0.20666681 -0.073118135 -0.24976802 0.41965625
0.10554164 0.07315057 0.44938937 -0.10633602 0.11886136 -0.51819205 -0.23275249 0.092277914
0.12626356 0.4109839 0.48781243 -0.14553304 0.094014674 0.03583088 0.14346638 -0.022016231
0.064216435 0.2912224 0.16839471 0.080048524 0.0099029625 -0.19082873 0.011924298 -0.2322295
-0.10049857 -0.27960947 -0.0568114 0.2908657 0.22685492 0.028527562 -0.13344105 0.16175601
-0.23833941 -0.14157385 -0.25316885 0.13756528 -0.10504117 -0.07235019 0.04412619 0.2501301
0.031567216 0.10104157 0.20237604 -0.13465679 -0.044608407 0.17360413 0.32652083 -0.12495879
-0.008862667 0.2368765 -0.2798718 0.046471316 -0.25009802 -0.031500775 -0.25352466 0.21141464
-0.0723627 0.14985707 0.1262712 0.17954494 0.15701206 0.11301472 0.07314953 -0.14690673
-0.032062735 -0.063129246 -0.08700391 0.23219547 -0.21508333 0.017680695 -0.021420486 0.18712628
0.16070305 0.040019933 0.033992935 -0.042992562 -0.053944476 -0.18038349 0.14078274 0.18984753
0.19689912 -0.10446005 -0.2589046 -0.20055746 0.38863418 -0.057210952 0.30941987 0.12617943
0.19783583 -0.010080425 -0.070422165 -0.049153212 -0.30250382 -0.20515695 0.07982573 0.123903416
-0.044226024 0.15476152 0.04131948 -0.23691903 -0.08774655 -0.046339814 -0.12613574 0.039839115
0.2512206 0.19941585 -0.18590552 -0.029632831 -0.24528609 -0.14973663 -0.12085563 0.11046985
00000000: 741c fbbe a908 4dbf 6a5e 9abe c3d8 f3b9
00000010: 9c90 ac3f 1771 1dbe a5d1 98be c1b1 cd3e
00000020: e014 bdbd 443e 923d 5e42 473e 0786 063e
00000030: 8958 0b3e b2bb e6bc 6288 14bb 7c0e b3be
00000040: 9de2 4b3f b6b8 fb3e 9c8b 4bbe 3393 79bf
00000050: 2cd5 823e 9642 053f 992a 833e bef2 91be
00000060: ff02 093f 2f1d 40bd f762 8dbe 3204 063e
00000070: bf96 2a3f e247 57be 3543 92bc 1062 013f
00000080: ecc3 083e 3cd6 b8be 966e 663d 9e7f 60bd
00000090: 4aa8 99bf 50ba b3be 7bbb f83e fd08 b8bd
000000a0: aefb 193e 313e f43e ef28 ddbe 1e5d c3be
000000b0: 96a9 9b3f a7d1 b9bc 928e bdbf 789b 94be
000000c0: 3e62 4cbd 8be9 b83c b3cd 22be 96dd 78be
000000d0: c391 9cbe 3866 36bf b1e3 913d 90ec a83e
000000e0: df1b 99bf f64f e23d 2383 29be df19 50bf
000000f0: 2e74 e7be c561 ab3e 9323 10bf f57f 0a3e
00000100: 9bc1 a3be 4c6a e73d 2a80 75bd 5594 0cbe
00000110: 3575 713e 8433 7cbe d0b8 013d bc2b 59bd
00000120: f929 323c 9e84 adbd f1d7 9bbe c88f 37be
00000130: a5eb fd3c b548 e93b 99ac cebe 624e 9c3e
00000140: 29a1 ae3d 4599 b43d 27b2 993e f267 10bd
00000150: 00ff 163e c546 7abe 0b7e 93be 7052 81bd
00000160: 94cb 1ebe 5155 183e 8bdb bb3e 8805 93be
00000170: b8e8 253e 7021 38be 7267 0f3e 31cf 983d
00000180: a6b6 d9bd 033d 273e 33c8 b73c 09d1 e6bd
00000190: f63f cdbc 91d8 83be 47fc 033d 5070 4cbe
000001a0: 8900 89be 3f2c 41be a0b8 3fbc 3244 dd3e
000001b0: 0da5 043d 4f0b 85bd 5485 04be e0fc 6d3e
000001c0: c937 67be d45f 9abe eee1 25be ddac 043e
000001d0: 8328 4a3d 843d 0abe 58a0 ed3d ee41 403e
000001e0: adf5 25be 48d6 e23d a524 2e3e 35cd 9fbc
000001f0: c6cd bfbd ab42 94bd 3d10 983e 8619 de3d
00000200: 140e 80be d318 eabb d28a 58bd 32f8 9dbe
00000210: fd38 3f3e 641d 87be 1bcf afbc 34c8 113d
00000220: 247b 25be e048 07be bbab c2be ead5 1fbe
00000230: 77a0 53be f6be 95bd 30c3 7fbe 2fdd d63e
00000240: 3726 d83d f7cf 953d 5d16 e63e b3c6 d9bd
00000250: 966d f33d 3ca8 04bf ab56 6ebe 34fc bc3d
00000260: 3c4b 013e 7b6c d23e 8dc2 f93e 9d06 15be
00000270: c48a c03d 67c3 123d dae8 123e 625b b4bc
00000280: e883 833d 1a1b 953e aa6f 2c3e 7bf0 a33d
00000290: 0940 223c 9b68 43be 215e 433c 92cd 6dbe
000002a0: 32d2 cdbd f928 8fbe 12b3 68bd 59ec 943e
000002b0: a84c 683e a2b2 e93c c5a4 08be 5ea3 253e
000002c0: 3f0f 74be bcf8 10be 599f 81be eadd 0c3e
000002d0: d31f d7bd 562c 94bd aabd 343d 0d11 803e
000002e0: a04c 013d e2ee ce3d aa3b 4f3e 78e3 09be
000002f0: 4eb7 36bd 48c5 313e bd2d a73e 65ea ffbd
00000300: b834 11bc c18f 723e 5b4b 8fbe b558 3e3d
00000310: d90c 80be f506 01bd fccd 81be 147d 583e
00000320: e532 94bd 2274 193e 3d4d 013e a1da 373e
00000330: c5c7 203e 4374 e73d 6ccf 953d b86e 16be
00000340: 3754 03bd e849 81bd 1b2f b2bd a6c4 6d3e
00000350: ce3e 5cbe 1bd7 903c 047a afbc 089e 3f3e
00000360: 578f 243e f1eb 233d 2d3c 0b3d f818 30bd
00000370: e2f4 5cbd 73b6 38be 5a29 103e 6467 423e
00000380: ec9f 493e 27ef d5bd 258f 84be ef5e 4dbe
00000390: 0ffb c63e 0856 6abd 486c 9e3e 2e35 013e
000003a0: 7a95 4a3e 5e28 25bc 7f39 90bd e154 49bd
000003b0: c8e1 9abe aa14 52be ac7b a33d 13c1 fd3d
000003c0: 5926 35bd ce79 1e3e 9d3e 293d e79a 72be
000003d0: 77b4 b3bd d1ce 3dbd ba29 01be 572e 233d
000003e0: fd9f 803e ab33 4c3e 045e 3ebe 8dc0 f2bc
000003f0: 472c 7bbe 8f54 19be 2883 f7bd 043e e23d

actor.4.bias f4 [9]
-0.1334976 -0.13537554 -0.11110792 0.18585514 0.23346564 0.036087453 0.25677052 0.30323997
-0.34293437
00000000: 98b3 08be e39f 0abe 8d8c e3bd cf50 3e3e
00000010: 9e11 6f3e 70d0 133d 6d77 833e 4542 9b3e
00000020: 1895 afbe

critic.0.weight f4 [64, 7]
0.25270298 0.15101567 0.5860771 0.34453937 0.45862958 0.8285355 -0.12270529 0.3393875
-0.18378419 -0.13824208 0.17421702 -0.42023742 1.6771806 -0.05738498 -0.20957367 -0.43184084
0.3780102 -0.2174114 0.7395147 1.4184128 0.048368208 -0.10895276 -0.316555 -0.052775014
0.32255048 0.103169374 2.4517307 0.11395017 -0.31701764 -0.1296832 0.2301125 -0.20473915
0.8073381 -1.2293254 -0.11365791 -0.26395822 0.3743716 -0.1676818 -0.0919649 -0.4909966
-0.43292812 0.13650252 -0.1291598 0.2100315 -0.03831153 -0.19602728 0.048225023 2.2091105
0.038708866 -0.07649031 -0.013352836 0.042354826 -0.03778028 0.02924047 2.0683918 -0.020162228
-0.27867097 0.1889656 0.1613089 -0.5959727 -0.22066751 0.3241926 0.06889198 0.48802844
-0.30146658 -0.2032748 -0.0406162 0.12161572 1.9720825 0.25937447 -0.26010248 0.09649976
-0.29358786 -0.41788334 -0.54710394 -0.20033926 0.27619824 -0.0048103537 -0.09827914 0.11291652
-0.14345135 -0.17651789 -1.8926252 -0.23973002 0.20002405 -0.20900346 -0.067865655 0.10144535
-0.8873878 0.9434047 0.018071938 0.30364186 -0.14763238 -0.18162109 0.07595058 0.7173325
1.1737212 -0.14892226 -0.09305077 -0.027208386 -0.04407423 0.20737159 0.32752624 2.3310747
-0.25106707 -0.35506102 0.56992006 0.018434832 -0.23474741 0.25663742 -0.39577043 -0.07188613
-0.29588196 0.16743211 0.2697987 0.1100258 -0.3078344 2.6913779 0.21281022 -0.31264028
-0.2742982 0.3578578 0.1836236 -0.32094073 2.36323 -0.047876842 0.008594074 -0.17545833
-0.0401289 -0.010182881 -0.36474144 -3.415636 0.12782311 0.03274807 0.09728854 -0.062175
-0.1076628 0.4592525 2.5233872 -0.0019224676 -0.12984268 0.15412647 -0.13770148 -0.012506486
0.5389189 2.1977952 -0.08582713 0.39131996 -0.43329528 0.06514012 0.1894524 -0.5680611
0.047073886 -0.06709604 0.1202529 0.037057668 -0.2712377 0.4486337 -0.15025873 -1.8980603
0.020305607 0.20771559 0.1360284 -0.26310617 -0.010297436 0.29563138 -2.4926 0.046017993
0.14198418 -0.24249814 0.1794867 -0.5903177 0.6151715 1.4167385 -0.12023647 -0.12990035
-0.05086499 0.11231059 -0.07617956 0.32669175 -1.6670009 0.09342196 -0.40869018 0.61716896
-0.14520511 -0.63004106 -0.38629633 0.50905234 0.1150975 -0.17035331 0.035282556 0.15757193
0.11665915 0.3720498 2.0201986 -0.010575819 0.2382067 -0.3717224 0.16828477 0.4293499
-0.39415398 -0.7003414 0.07189655 -0.24883613 0.24739417 -0.027773557 0.22188419 -0.3653571
2.8097825 0.23752245 -0.07547965 -0.21124554 0.17901812 -0.040600345 -0.20982467 1.7462317
0.13601904 0.35192928 -0.23899634 -0.094417065 0.11141108 -0.37899786 1.7783396 0.12579477
0.12408427 -0.1956208 -0.00671828 -0.0985031 -0.010041046 -2.454425 0.2885131 -0.20226946
-0.16184671 0.19651845 0.06518106 -0.16764244 -2.5199058 -0.008894409 0.21139483 -0.04907065
-0.11733204 -0.0032721371 0.43873173 1.7101564 -0.11329476 0.101374306 -0.27915242 -0.015274111
-0.08072903 0.11597673 -2.4874604 0.11887803 -0.008690907 0.057734415 -0.07697813 0.1718134
00000000: 4962 813e daa3 1a3e 2609 163f 7767 b03e
00000010: 7fd1 ea3e e71a 543f e94c fbbd 33c4 ad3e
00000020: ec31 3cbe 558f 0dbe f265 323e 5c29 d7be
00000030: dbad d63f 830c 6bbd 7b9a 56be 3e1a ddbe
00000040: 8e8a c13e 18a1 5ebe d650 3d3f 8d8e b53f
00000050: be1d 463d a022 dfbd 7f13 a2be 9d2a 58bd
00000060: 5625 a53e 774a d33d 28e9 1c40 b55e e93d
00000070: 2350 a2be accb 04be 9ca2 6b3e 24a7 51be
00000080: b6ad 4e3f 895a 9dbf 7ac5 e8bd 8825 87be
00000090: a2ad bf3e c7b4 2bbe 1858 bcbd e863 fbbe
000000a0: c1a8 ddbe 51c7 0b3e 7742 04be 7f12 573e
000000b0: 8dec 1cbd 60bb 48be 9a87 453d 1162 0d40
000000c0: 308d 1e3d f4a6 9cbd dac5 5abc 417c 2d3d
000000d0: 7fbf 1abd b689 ef3c 8860 0440 422b a5bc
000000e0: f6ad 8ebe 3380 413e 292e 253e ab91 18bf
000000f0: aaf6 61be 93fc a53e 3d17 8d3d ddde f93e
00000100: d459 9abe 4527 50be 2c5d 26bd aa11 f93d
00000110: 336d fc3f bbcc 843e 272c 85be aba1 c53d
00000120: 2651 96be cef4 d5be 010f 0cbf bc25 4dbe
00000130: db69 8d3e 2ca0 9dbb 9346 c9bd c740 e73d
00000140: e9e4 12be 1bc1 34be 8b41 f2bf c97b 75be
00000150: 1bd3 4c3e 0105 56be 26fd 8abd 94c2 cf3d
00000160: d92b 63bf f882 713f 9a0b 943c f276 9b3e
00000170: f12c 17be e1fa 39be fa8b 9b3d 1aa3 373f
00000180: 7f3c 963f 147f 18be 6791 bebd 1fe4 debc
00000190: 2e87 34bd 3859 543e 85b1 a73e 5430 1540
000001a0: dd8b 80be 8fca b5be 48e6 113f a504 973c
000001b0: a061 70be fb65 833e 6ca2 cabe 0939 93bd
000001c0: d77d 97be 5373 2b3e 0e23 8a3e 3555 e13d
000001d0: 789c 9dbe 893f 2c40 ecea 593e 6312 a0be
000001e0: d070 8cbe 2339 b73e d307 3c3e 5852 a4be
000001f0: 293f 1740 821a 44bd 29ce 0c3c 59ab 33be
00000200: 345e 24bd 19d6 26bc 64bf babe c899 5ac0
00000210: 10e4 023e d722 063d 373f c73d 36ab 7ebd
00000220: 507e dcbd 2523 eb3e 2d7f 2140 4ffb fbba
00000230: 7bf5 04be 54d3 1d3e 9e01 0dbe 01e8 4cbc
00000240: 97f6 093f ada8 0c40 22c6 afbd 175b c83e
00000250: e1d8 ddbe 2f68 853d cfff 413e 746c 11bf
00000260: 8cd0 403d a669 89bd 2747 f63d c8c9 173d
00000270: abdf 8abe 51b3 e53e 6ddd 19be a4f3 f2bf
00000280: f257 a63c 65b3 543e 074b 0b3e dab5 86be
00000290: 94b6 28bc ff5c 973e c286 1fc0 5d7d 3c3d
000002a0: 4d64 113e 6f51 78be 5dcb 373e 101f 17bf
000002b0: e17b 1d3f b057 b53f 8a3e f6bd 9904 05be
000002c0: cf57 50bd 1803 e63d 0704 9cbd 2444 a73e
000002d0: 4960 d5bf 0354 bf3d d73f d1be c9fe 1d3f
000002e0: a6b0 14be 5f4a 21bf a2c8 c5be 4151 023f
000002f0: 3db8 eb3d 1971 2ebe 7184 103d 895a 213e
00000300: feea ee3d 507d be3e ef4a 0140 3346 2dbc
00000310: 75ec 733e 6652 bebe d852 2c3e c0d3 db3e
00000320: 8dce c9be 9349 33bf 803e 933d e6ce 7ebe
00000330: e654 7d3e 5f85 e3bc 9c35 633e 1610 bbbe
00000340: 7ad3 3340 1639 733e 1395 9abd c050 58be
00000350: 8750 373e 8c4c 26bd 47dc 56be 8584 df3f
00000360: 9348 0b3e 1330 b43e 75bb 74be bc5d c1bd
00000370: 7e2b e43d 020c c2be a2a0 e33f 58d0 003e
00000380: e51f fe3d d250 48be 0425 dcbb febb c9bd
00000390: 3383 24bc 4d15 1dc0 fdb7 933e ba1f 4fbe
000003a0: 25bb 25be 223c 493e a67d 853d 76aa 2bbe
000003b0: 2346 21c0 dbb9 11bc e377 583e 4efe 48bd
000003c0: c84b f0bd 5a71 56bb 72a1 e03e 68e6 da3f
000003d0: 1507 e8bd 559d cf3d 11ed 8ebe 4440 7abc
000003e0: 4355 a5bd 3585 ed3d 8d32 1fc0 5376 f33d
000003f0: 4e64 0ebc ec7a 6c3d b6a6 9dbd daef 2f3e

critic.0.bias f4 [64]
-0.23509708 -0.24894685 -0.05827359 -0.11756974 0.3840831 -0.18527868 -0.31170794 -0.17188235
-0.04061839 -0.23213574 -0.047029473 0.3116743 -0.12253363 0.08847487 -0.0010737809 -0.27491063
-0.3788819 -0.17595123 0.19137377 -0.07075632 0.05390024 -0.112729356 0.22972812 0.090606675
-0.019872315 0.17728518 -0.20998868 -0.06945003 -0.1768745 -0.42037222 -0.022676952 -0.28346458
0.0034284492 0.19740665 -0.012733412 0.34025592 -0.034039102 0.13648298 0.29311112 0.2744861
-0.020316305 0.23612802 0.013578086 -0.2303327 -0.13621037 0.2636537 0.17880622 -0.017655151
-0.24414487 -0.08388894 -0.28508002 0.29979292 -0.20527461 0.29897854 -0.33042642 0.23643629
-0.31411496 0.086300604 0.0060464847 -0.19906722 -0.29416654 -0.4196058 0.20134424 0.054236833
00000000: 4abd 70be eceb 7ebe 4ab0 6ebd 67c8 f0bd
00000010: 8aa6 c43e b2b9 3dbe 2f98 9fbe ed01 30be
00000020: 785f 26bd feb4 6dbe faa1 40bd c693 9f3e
00000030: e9f2 fabd 5032 b53d 1cbe 8cba 16c1 8cbe
00000040: cffc c1be 8f2c 34be 7cf7 433e b1e8 90bd
00000050: 80c6 5c3d a6de e6bd d93d 6b3e fe8f b93d
00000060: 44cb a2bc 3f8a 353e 4607 57be d13b 8ebd
00000070: 971e 35be 073b d7be 04c5 b9bc 4522 91be
00000080: d5af 603b f824 4a3e cd9f 50bc 0636 ae3e
00000090: 966c 0bbd 32c2 0b3e a912 963e 7189 8c3e
000000a0: 616e a6bc 8bcb 713e 9f76 5e3c 56dc 6bbe
000000b0: bb7a 0bbe 9efd 863e fa18 373e 89a1 90bc
000000c0: 1d01 7abe f7cd abbd 02f6 91be 757e 993e
000000d0: 8233 52be b713 993e a72d a9be 5b1c 723e
000000e0: add3 a0be 5fbe b03d 9721 c63b 47d8 4bbe
000000f0: ff9c 96be 92d6 d6be 2f2d 4e3e 7127 5e3d

critic.2.weight f4 [64, 64]
0.101771794 0.11220333 0.04365856 0.01746326 -0.11041284 -0.41557986 -0.3503021 -0.31389776
-0.58092713 0.16890113 -0.4053113 0.047048315 0.02077292 0.1986986 -0.027938778 -0.35730636
-0.26967266 -0.15045032 0.2876512 0.019470964 -0.17442596 0.37086594 0.54612035 0.44186854
-0.35071093 0.1282829 -0.5995803 0.05760596 0.3516686 -0.2895822 0.00019981101 0.14483562
0.24033718 0.1642782 0.16681205 0.23727265 0.17103575 -0.08818927 0.19055176 -0.21196193
0.36147442 0.5062129 -0.49793157 0.13111842 0.04519461 -0.013638377 0.16578686 -0.089294605
0.010878425 -0.34298566 -0.035946034 0.18972115 0.08054722 0.1062561 -0.24010709 0.3232192
-0.005780687 0.45737445 0.4843376 -0.5175037 -0.10481734 -0.09974689 0.03952393 0.29982075
0.07152735 -0.08905848 -0.08425162 -0.01159241 0.03650889 -0.069238774 0.096835375 0.121717945
-0.01017612 0.089393154 0.025012238 0.10289046 -0.0015883027 0.089555904 -0.0510544 -0.014357167
-0.061782714 0.041802876 0.07198173 0.12207128 -0.032164637 -0.016608017 -0.015204603 -0.0051241396
0.102273524 0.017069995 -0.058475904 -0.001659658 0.08215886 -0.088891804 -0.052332494 0.12691613
-0.06162174 0.039768264 -0.02659056 0.07316537 -0.013537525 0.04483846 0.11259034 0.014085603
-0.0046907635 -0.025073176 0.035351157 -0.017550347 0.016941505 0.1066291 -0.03477176 -0.05220222
0.0063742874 0.07394127 0.06715536 0.055859596 0.042526577 -0.012555369 -0.007865303 -0.05601597
-0.09633786 0.016903372 -0.099878974 0.087080106 0.1086789 -0.00460248 -0.023848135 0.11597997
0.2176898 0.15974733 -0.04178722 0.105683066 -0.3356332 -0.38986593 -0.4935581 -0.22436957
-0.60508114 0.32657015 -0.19160756 0.10943649 0.2186065 0.35754928 -0.008514117 -0.5057844
-0.37561 -0.01984635 0.33592847 -0.25962484 -0.35192916 0.5101404 0.49361953 0.2800598
-0.28607216 0.043635238 -0.68622136 -0.071663655 0.68139 -0.28532922 -0.038848888 0.24007231
0.11259749 0.1475497 0.13358423 0.28100663 0.002566121 -0.09316172 0.17060617 -0.19256519
0.28822163 0.5208266 -0.68701833 0.34052888 0.28625017 0.10132215 0.11240636 0.14492004
0.021320673 -0.198907 -0.120642245 0.25853607 0.14930837 -0.2751715 -0.1959823 0.12068396
0.24546963 0.541445 0.6642928 -0.28706774 -0.08861531 -0.16620953 0.07900662 0.11099746
-0.03113691 0.12558985 0.050349534 0.028741574 -0.08560337 0.12430032 -0.10361015 0.002765551
-0.009890397 -0.005497115 -0.14892015 -0.0672028 -0.008479838 0.0054351804 -0.073865 -0.08413336
-0.070121884 0.08181114 0.07255459 -0.06365013 0.022185773 -0.009855488 -0.09061358 -0.05644227
0.10020084 -0.113400474 0.0063593322 -0.06195179 0.03657092 0.06423377 -0.05617299 -0.0731475
0.082032576 0.09957693 0.025035344 -0.024140904 0.027993916 -0.04390294 0.07284136 -0.059078492
0.03236785 -0.059242975 0.06103151 -0.08223417 0.0028857333 0.01966245 0.04827331 -0.082226045
-0.023355363 -0.099128366 -0.057855915 -0.029125696 0.023523403 -0.011182208 -0.05707445 -0.046830583
0.03373757 0.043333355 0.033472456 0.019423572 -0.05519587 0.124055624 0.05577601 -0.11155337
00000000: bb6d d03d dcca e53d 51d3 323d 1c0f 8f3c
00000010: 2120 e2bd e2c6 d4be cc5a b3be 35b7 a0be
00000020: a4b7 14bf 6bf4 2c3e f684 cfbe bcb5 403d
00000030: f92b aa3c a577 4b3e dddf e4bc dcf0 b6be
00000040: 8912 8abe a60f 1abe 0547 933e 9281 9f3c
00000050: b89c 32be 24e2 bd3e 8bce 0b3f 983c e23e
00000060: 6290 b3be 985c 033e 187e 19bf 3af4 6b3d
00000070: e80d b43e 1e44 94be 5c84 5139 ca4f 143e
00000080: f31a 763e 8b38 283e c7d0 2a3e 9af7 723e
00000090: ff23 2f3e 939c b4bd 0020 433e 8c0c 59be
000000a0: 2d13 b93e 2b97 013f e3f0 febe e843 063e
000000b0: fc1d 393d 8073 5fbc 08c4 293e 17e0 b6bd
000000c0: 6c3b 323c d19b afbe 263c 13bd 4346 423e
000000d0: f1f5 a43d cc9c d93d a2de 75be fd7c a53e
000000e0: eb6b bdbb fc2c ea3e 19fb f73e 1f7b 04bf
000000f0: 79aa d6bd 1948 ccbd d8e3 213d 1b82 993e
00000100: ee7c 923d 4b64 b6bd 1d8c acbd 17ee 3dbc
00000110: 598a 153d 0fcd 8dbd a051 c63d 4247 f93d
00000120: beb9 26bc c213 b73d 77e6 cc3c 3cb8 d23d
00000130: 982e d0ba 1669 b73d 6b1e 51bd 533a 6bbc
00000140: df0f 7dbd 7e39 2b3d 286b 933d 8200 fa3d
00000150: 11bf 03bd 890d 88bc ba1c 79bc 66e8 a7bb
00000160: c874 d13d 60d6 8b3c 6e84 6fbd e288 d9ba
00000170: e842 a83d e80c b6bd 995a 56bd 4df6 013e
00000180: 1467 7cbd 0ce4 223d 72d4 d9bc bad7 953d
00000190: 7fcc 5dbc 88a8 373d c495 e63d 4dc7 663c
000001a0: fab4 99bb 4366 cdbc 60cc 103d bfc5 8fbc
000001b0: e9c8 8a3c 5c60 da3d d56c 0ebd ffd1 55bd
000001c0: 66df d03b 856e 973d c088 893d 08cd 643d
000001d0: 5930 2e3d 09b5 4dbc 79dd 00bc 0071 65bd
000001e0: c94c c5bd f178 8a3c 598d ccbd 0e57 b23d
000001f0: 0b93 de3d 67d0 96bb 2a5d c3bc e886 ed3d
00000200: 13ea 5e3e ce94 233e 1329 2bbd 5d70 d83d
00000210: 1dd8 abbe 829c c7be a6b3 fcbe 23c1 65be
00000220: 99e6 1abf 3434 a73e c634 44be 3d20 e03d
00000230: 62da 5f3e b310 b73e cc7e 0bbc 167b 01bf
00000240: f44f c0be d094 a2bc d1fe ab3e 8ced 84be
00000250: 0f30 b4be 9098 023f b3bb fc3e 0064 8f3e
00000260: 0d78 92be ddba 323d 34ac 2fbf 65c4 92bd
00000270: 936f 2e3f ac16 92be 0320 1fbd 84d5 753e
00000280: 8399 e63d 4517 173e 4eca 083e 1ae0 8f3e
00000290: 5e2c 283b 92cb bebd 62b3 2e3e cf2f 45be
000002a0: c991 933e e454 053f 6fe0 2fbf cd59 ae3e
000002b0: 628f 923e fd81 cf3d 4e35 e63d eb65 143e
000002c0: b1a8 ae3c 47ae 4bbe 4813 f7bd d75e 843e
000002d0: 4be4 183e 47e3 8cbe 96af 48be 2729 f73d
000002e0: 645c 7b3e 249c 0a3f 180f 2a3f 8bfa 92be
000002f0: f27b b5bd d532 2abe 39ce a13d a352 e33d
00000300: d512 ffbc a09a 003e 503b 4e3d 7373 eb3c
00000310: d250 afbd 2b91 fe3d 8f31 d4bd 3f3e 353b
00000320: 550b 22bc 2521 b4bb 867e 18be 9fa1 89bd
00000330: 05ef 0abc 9919 b23b 8846 97bd 1c4e acbd
00000340: 109c 8fbd 998c a73d 8097 943d 005b 82bd
00000350: f0be b53c ea78 21bc 9d93 b9bd 0230 67bd
00000360: 1936 cd3d 823e e8bd f261 d03b 29c1 7dbd
00000370: 64cb 153d ff8c 833d a615 66bd 5bce 95bd
00000380: b200 a83d fdee cb3d ec16 cd3c 25c3 c5bc
00000390: 7f53 e53c 92d3 33bd da2d 953d 4afc 71bd
000003a0: 2794 043d c3a8 72bd 2dfc 793d 636a a8bd
000003b0: 921e 3d3b 2513 a13c 3cba 453d 2166 a8bd
000003c0: bf53 bfbc d003 cbbd 53fa 6cbd 0399 eebc
000003d0: 27b4 c03c 9435 37bc e6c6 69bd 6dd1 3fbd
000003e0: 6830 0a3d 517e 313d 6a1a 093d 2f1e 9f3c
000003f0: 1115 62bd e010 fe3d 6375 643d 1876 e4bd

critic.2.bias f4 [64]
0.31107983 -0.023108508 0.29260063 -0.0059425654 -0.054359455 -0.023791222 -0.092709176 0.34295976
0.030095274 0.043468297 0.019805854 0.07246974 0.066832535 0.03079572 0.10991352 0.07729086
0.058794867 -0.21301286 -0.06179812 0.022137875 -0.1905508 -0.060492076 0.20238878 -0.06700305
0.06983178 0.022925379 0.16062704 0.0046048383 -0.0068896743 0.11248489 0.06452485 0.058708772
-0.016756704 -0.06485802 0.121355355 -0.16582447 -0.036014818 -0.2791501 0.011471921 0.033431713
-0.062121056 -0.13384126 0.2929465 -0.4123249 0.20045897 -0.0326508 0.04635981 0.036285352
0.01131847 0.0035524408 0.09032101 0.06380998 -0.06243321 -0.077533506 0.060476433 -0.035940647
-0.2472653 0.13270412 -0.024422478 -0.07177919 0.02473958 -0.15785542 -0.27353284 0.22910616
00000000: db45 9f3e 0e4e bdbc c0cf 953e dab9 c2bb
00000010: 05a8 5ebd cfe5 c2bc 4fde bdbd 6c98 af3e
00000020: 5d8a f63c d00b 323d e33f a23c 046b 943d
00000030: 7fdf 883d 4e47 fc3c 571a e13d ac4a 9e3d
00000040: e3d2 703d 0b20 5abe 0720 7dbd 7d5a b53c
00000050: c01f 43be 8ac6 77bd 013f 4f3e e538 89bd
00000060: f703 8f3d 01ce bb3c 6a7b 243e 2fe4 963b
00000070: c7c2 e1bb 7a5e e63d 9b25 843d 9c78 703d
00000080: 5b45 89bc 48d4 84bd 2889 f83d e4cd 29be
00000090: 4684 13bd c3ec 8ebe b9f4 3b3c b1ef 083d
000000a0: a672 7ebd af0d 09be 15fd 953e 401c d3be
000000b0: 1e45 4d3e d8bc 05bd c9e3 3d3d f39f 143d
000000c0: 1b71 393c 11d0 683b 39fa b83d cfae 823d
000000d0: f7b9 7fbd e3c9 9ebd 23b6 773d 8036 13bd
000000e0: 1d33 7dbe 97e3 073e a611 c8bc f800 93bd
000000f0: a9aa ca3c daa4 21be 7f0c 8cbe ce9a 6a3e

critic.4.weight f4 [1, 64]
-0.1219421 -0.005551338 -0.14912832 -0.004065017 0.0029040957 -0.0009906258 -0.10335756 -0.12574656
-0.07601932 -0.006238753 0.0072463965 -0.0013884447 0.003607866 -0.0027429434 -0.008853512 0.00076518935
-0.00584078 0.043874808 0.0028271086 0.0076432014 0.17254636 0.0030712993 -0.049470045 0.004823371
0.0011698604 -0.0043451386 -0.07414394 0.0040989798 -0.0032670484 -0.0052174 0.00035706285 -0.0010034698
-0.0047956416 -0.24173295 0.2915073 0.037983038 -0.005717712 0.0296388 -0.004681721 -0.00088408345
0.41177776 0.08451823 -0.061036486 0.15614481 -0.07025921 -0.15491901 -0.16829295 0.006334317
-0.005881559 0.0013196465 0.0025371918 -9.379464e-05 -0.0069982233 0.003865278 -0.008542981 -0.003186523
0.1366338 0.224024 -0.0027151662 7.0508824e-05 -0.0037480711 0.23063332 0.11187852 0.32958362
00000000: c8bc f9bd 00e8 b5bb 18b5 18be d633 85bb
00000010: a452 3e3b e3d7 81ba 21ad d3bd b5c3 00be
00000020: 04b0 9bbd 746e ccbb 2e73 ed3b 79fc b5ba
00000030: f271 6c3b f4c2 33bb 520e 11bc fd96 483a
00000040: 0464 bfbb 12b6 333d 0347 393b d273 fa3b
00000050: feaf 303e da47 493b 1aa1 4abd 5e0d 9e3b
00000060: 0056 993a aa61 8ebb c7d8 97bd bc50 863b
00000070: fa1b 56bb b9f6 aabb 2a34 bb39 dc86 83ba
00000080: c224 9dbb d888 77be 7240 953e 1a94 1b3d
00000090: a55b bbbb 12cd f23c 1f69 99bb d6c1 67ba
000000a0: 89d4 d23e e517 ad3d 6501 7abd 6de4 1f3e
000000b0: 10e4 8fbd 17a3 1ebe fd54 2cbe 1a90 cf3b
000000c0: 18ba c0bb fdf7 ac3a 0447 263b 9db3 c4b8
000000d0: 5a51 e5bb 9b50 7d3b dcf7 0bbc fcd4 50bb
000000e0: bbe9 0b3e 8c66 653e eef0 31bb 23de 9338
000000f0: 33a2 75bb 242b 6c3e 9120 e53d 2fbf a83e
