trained/ComplexPong/PPO_mcts_frequent_1728470187.448545.pth (torch, 44914 bytes, 11 tensors)

actor.0.weight f4 [64, 7]
00000000: 8ee0 e03e 364c 593e b2b9 10bf f0b0 54be
00000010: 9bf8 91be 2877 c7be 7d36 673d 6a01 45be
00000020: 8bec fc3c 22e6 8c3d 1ee6 d2be 6ce0 c63e
00000030: 8f89 10bf 0545 453e 9843 1d3e 06cf e4be
00000040: 9850 f4bd 6577 513e a055 b93d 9234 003e
00000050: 144c a5bd 0a84 e53c 6ad8 d23e b545 0bbf
00000060: 6665 fb3d 8e4e 6abf 954b 95be 0b6f 9dbe
00000070: 5083 c63d 4305 a73c 2390 2dbd d5c7 243e
00000080: 75b7 653e 7799 273f 8d7b 643e 5c87 bcba
00000090: db0b 65bd 0794 833e b05e a6be c2b8 1f3f
000000a0: 718f 41bf b014 5f3e 96c1 11be 9988 edbe
000000b0: 9b18 ad3e 4a88 083e 977a f23e e8ca 3f3f
000000c0: f634 bd3e aa2f f4bd 7833 01bf 4af2 f93e
000000d0: a26b 263e 9575 263f 0c50 5ebe 2917 b8bd
000000e0: 241b 743c 7330 643e 1f0b 86be 20da f43d
000000f0: e729 22bf 6b0e 18be 8126 74be 4ef6 3ebe
00000100: ea76 b5be c67b f53e f1f1 a5bd c55c ba3e
00000110: 4427 dbbe 5377 9d3e 19b1 0cbe b77a bbbe
00000120: eb88 d43e 7db0 dbbe 3b78 413e 75f2 5dbf
00000130: 4780 c8bc dcfd 5f3e efdf 023e 737e d5be
00000140: 8666 a6be caf9 81be 4a89 9abe 8a9f 953c
00000150: 7e61 08be 69aa c13e 3934 f0be 40bf a8bd
00000160: 1f36 13bf 24c9 8fbc ab72 953e 23d7 7b3e
00000170: c65e ccbc 7ce4 b7bd b983 b03d 1749 09bf
00000180: 1d52 353f d878 043e 48b3 4a3e 68c8 63be
00000190: a096 5c3e 5eb5 173d 3375 043f 8c61 853c
000001a0: 42a4 573e 4b5b b8be 6415 f3bd 33e0 ec3e
000001b0: 1606 9a3e 68c5 0c3f f8cb a93c 38cf 613e
000001c0: 93ff 14bd 09f1 58bd 2431 b93e 52b2 973e
000001d0: 9897 063e dbd0 943e f5a5 26be d245 e6bd
000001e0: a423 ea3e 8f15 81be 446c 11bf 6f68 a0be
000001f0: e6bf 25bf 068d b2bc fa31 a83d b3fc 6c3e
00000200: a10e bebe 8e2b 03be 57b7 febe 68e8 dfbe
00000210: b104 2dbe af80 16be a30f e93e 9d7e 16bf
00000220: 91b6 c6be 05f2 cdbe 73cb 0bbe f636 4d3e
00000230: 4244 9e3d b852 ba3e ac0f aabe 3f45 aebd
00000240: cd6b 55bf 0690 eb3e 92d9 9a3c fe37 8abe
00000250: 3e32 2abb d3d6 963e f2a5 c2bd 6e01 773f
00000260: 7459 5bbf c76a cd3d e5d0 71be 5cf6 ccbe
00000270: f706 2c3f 8d1a 0c3d 91af d53e 5d27 683e
00000280: ee98 08be 7228 033c 5a4d 52bd 7b93 af3e
00000290: 0dc6 123e b97e 453e 01fa d73e f9e1 31be
000002a0: 9322 75be d7da 383e 2d20 1e3e 0e71 fa3d
000002b0: d170 4a3f 67c3 aabe fe2f 53be def9 aebe
000002c0: e411 ac3e a89e 97bd 8270 ed3e c998 b9be
000002d0: dae3 bc3e 2a19 b0be 8cbc 653e acd0 ac3e
000002e0: 2943 22bf 497b 26be c21d f9be 2ffc a93d
000002f0: b67f 113e 3f2c b13e b199 603e caf7 cf3c
00000300: 3deb 9bbe c771 65bf 55d7 003c d05a 66be
00000310: b4e4 943e 5eca 893c 9acd cebe 469d 493c
00000320: d980 51bf ab13 e13e 80c6 62be 47b8 7abd
00000330: 9942 b93e 4e2a 86be b6b4 d53c 1e39 2ebf
00000340: ec69 1d3f adc2 653e f7da 10be 1a0c c13e
00000350: ef03 8abc f6bd 16be 8807 09bf e1b3 bdbe
00000360: e965 773d 2e30 573e 1d29 01bf 0291 703e
00000370: c04d 8abc 70bd 8f3e 3ad3 14bf 4f80 febd
00000380: 4d14 a8be 290c dbbe a013 9f3e 5a1d 503e
00000390: 2a7d 6a3e a5d9 98be 5db1 89be adc9 76be
000003a0: f8f8 1f3d 47d5 cdbc d53a d63e 7de2 fe3e
000003b0: d983 583f 5c2e 0b3e ec36 5a3e 7b39 773d
000003c0: fe8a a7be 10b4 92be 03a8 49bf 0c55 4abe
000003d0: 0a5d a43e b3d5 04be 2aeb 89bd 0966 7a3e
000003e0: eebd d2be 223b 2d3f 2ccb c1be 2a44 1dbe
000003f0: e3c4 89be 0273 90be adb3 1c3f fbfa 5c3d
0.43921322 0.21220478 -0.5653335 -0.20770621 -0.28509983 -0.38958097 0.05644845 -0.1923882
0.030874511 0.06879832 -0.4119119 0.38843095 -0.564599 0.1926461 0.15357816 -0.44689196
-0.119294345 0.20455702 0.09049535 0.12520054 -0.080711514 0.028017063 0.41180736 -0.5440324
0.122751996 -0.91526115 -0.29159227 -0.30748782 0.096930146 0.020388251 -0.042373788 0.16091855
0.22433265 0.65468544 0.22312756 -0.0014383602 -0.05591951 0.25698873 -0.32494116 0.62391293
-0.756095 0.21785235 -0.14234003 -0.46393278 0.33807835 0.1333324 0.47359154 0.74918985
0.36954468 -0.11923154 -0.5046916 0.48817664 0.16251996 0.65023166 -0.21710223 -0.089887924
0.014899049 0.22284107 -0.2618036 0.119556665 -0.6334519 -0.1484925 -0.23842813 -0.18648645
-0.35442287 0.47945994 -0.08102787 0.36398903 -0.42803395 0.307551 -0.13739432 -0.36617061
0.4151071 -0.42908087 0.1889352 -0.86698085 -0.02447523 0.21874183 0.12780736 -0.41698036
-0.32500094 -0.25385886 -0.30182868 0.01826455 -0.1331844 0.37825325 -0.46914843 -0.08239603
-0.5750446 -0.017551966 0.29189047 0.24593787 -0.024947535 -0.08979127 0.08618874 -0.5362715
0.7082842 0.12936723 0.19794953 -0.22244418 0.21541834 0.0370382 0.5174133 0.016281866
0.21058753 -0.3600715 -0.11869314 0.462648 0.30082768 0.5498872 0.020727143 0.22051704
-0.036376547 -0.052964244 0.36170304 0.29628235 0.13143766 0.29065594 -0.16274245 -0.11243786
0.45730317 -0.2521176 -0.56805825 -0.31329677 -0.6474594 -0.02179576 0.08212657 0.23143272
-0.37120536 -0.12809584 -0.49749252 -0.43732 -0.16896321 -0.14697526 0.45519742 -0.58786947
-0.38811162 -0.4022371 -0.13651828 0.20040497 0.07727863 0.36391234 -0.33215082 -0.085093014
-0.83367616 0.4600832 0.018902574 -0.26995844 -0.0025969888 0.29460773 -0.09504308 0.96486557
-0.8568337 0.10030132 -0.23614843 -0.40031707 0.6719813 0.03420501 0.4173551 0.22671266
-0.13339588 0.008005248 -0.0513433 0.34292206 0.14333363 0.19286622 0.42182925 -0.17371358
-0.2393897 0.18052231 0.15441962 0.12228595 0.79078394 -0.33352205 -0.20623776 -0.3417501
0.336074 -0.07403308 0.463749 -0.36249378 0.36892587 -0.343942 0.22435206 0.33752954
-0.6338373 -0.16257967 -0.48655516 0.08300053 0.14208874 0.3460407 0.21933629 0.02538671
-0.3045291 -0.89626735 0.007863839 -0.2249558 0.29080737 0.016820129 -0.40391237 0.012305563
-0.8183723 0.43960318 -0.22146034 -0.061210897 0.36183622 -0.2620415 0.026087146 -0.68055904
0.6148975 0.22437544 -0.14146028 0.37704545 -0.016847579 -0.14720902 -0.53527117 -0.370513
0.060399923 0.21014473 -0.5045336 0.23492816 -0.016882777 0.28074217 -0.58134806 -0.12426817
-0.32827988 -0.42782715 0.3106966 0.20323697 0.22899309 -0.2985355 -0.2689313 -0.2410037
0.039055794 -0.025126113 0.4184176 0.49782172 0.84576184 0.13591903 0.21310014 0.060357552
-0.3272323 -0.28653002 -0.7877199 -0.19759005 0.32102233 -0.12972145 -0.06734307 0.24452986
-0.4116053 0.67668355 -0.3785032 -0.15358034 -0.26908025 -0.28212744 0.61211663 0.05395029

actor.0.bias f4 [64]
00000000: 6fd1 c83d 7fc7 8b3e c003 613e e645 6f3d
00000010: a92b a0bd c03c 843c e8a2 63be 033a 86bc
00000020: c573 8f3d f71c 08be 51b5 df3e e006 563e
00000030: d1f6 9bbd a932 68be c9ea eebc 3cfd 9bbe
00000040: 8267 95be 572e ed3e 0607 7b3e 1ee0 d73e
00000050: 417d 60bd 4f27 4f3d 7f3e b2bd 6edc 98be
00000060: 0d1c afbc c2a6 adbd 89e8 6a3e 9835 e03d
00000070: ef58 4f3e 2393 73be dea0 bcbd 2edd 853e
00000080: 2bdf 903e dd06 96be 3755 d73d f8c8 c23e
00000090: 97a9 35bd 094b 90bc 84bd a03d 6e6d a63e
000000a0: 5eca 213e b8d2 783d 3fc3 d7bd 60d0 92be
000000b0: fbdc 503d 9a4f 2dbe 1d38 bf3e 16cc 68be
000000c0: 58eb f7bd 454c 9cbc b0e4 e13d 4795 22bd
000000d0: 45d2 fe3d df58 4bbe 510f 8e3e cf48 103e
000000e0: 1ff5 7cbe 04b8 8dbe 714a 72be cee9 6bbe
000000f0: 29b5 e13c 2cdc a13d ee09 11be 4a77 863d
0.09805571 0.2730064 0.21974087 0.05841627 -0.078208275 0.01614225 -0.22230113 -0.016385084
0.07004503 -0.13292299 0.4369302 0.2090106 -0.07615436 -0.22675575 -0.029164689 -0.3046664
-0.29180533 0.46324417 0.24514398 0.42163175 -0.05480695 0.050574597 -0.087033264 -0.29855675
-0.02137568 -0.08479072 0.22940268 0.10947722 0.20248769 -0.23786597 -0.092103705 0.2614531
0.28295264 -0.2930211 0.105143 0.38043952 -0.044351187 -0.017613905 0.07848647 0.32505363
0.15799853 0.060747832 -0.10535287 -0.28674603 0.050991993 -0.16924897 0.373475 -0.22734103
-0.12105435 -0.019079337 0.11029947 -0.039693143 0.124424495 -0.1985812 0.2774606 0.14090274
-0.24702881 -0.27679455 -0.2366121 -0.23038408 0.027552204 0.079033226 -0.14163944 0.06565721

actor.2.weight f4 [64, 64]
00000000: aeb4 253c 8b69 1cbe 6d07 94bd ccd3 1ebe
00000010: b820 233b 7b20 0dbe 889d 683e 56aa b13c
00000020: 3b8b 4dbd 121b 95bb 1c76 28be 0f28 b0bd
00000030: 933b 3fbd eb5e 383e b681 123c d28d 2fbd
00000040: 5e98 ff3d f20b 10bf a822 65be e564 0cbf
00000050: d078 553d a5c4 9dbe 02b0 af3d 6d40 583e
00000060: e887 0bbe 0a28 cabd 2662 81bd 9ce0 76bd
00000070: 3967 183e 3f69 333e 4d33 a4bd 56c1 aa3d
00000080: bb73 12be 46c0 c33c 2676 01bd 4608 7dbe
00000090: ec54 073e 4825 e83c e144 9bbe 2467 31be
000000a0: afc0 ac3b 591d 6dbe 8dab 023e 49a7 07be
000000b0: 19d7 29be d4a8 c13d fe80 45be 06c1 6d3d
000000c0: 65c8 973e d3e3 833d 0cff 1e3d 0590 f63c
000000d0: 9bd6 e63b e0e2 d13e 02f3 f63d fff6 713d
000000e0: 630a 133e adfa e43e ec02 31bd e512 ffbc
000000f0: d981 edbd 60e1 3a3e d21d 8dbd 80c0 5a3e
00000100: e046 383e 7702 02be defb 5a3c 0585 18be
00000110: 71aa 68bb c90b a4bd b4b8 843d 2449 d4bd
00000120: eb8e bdbc 7512 29be 3e39 04be 4118 b63d
00000130: 3513 0abe 460e 303e 5c77 d93d 0757 bfbc
00000140: 123a 263a 21d8 89be ebd6 6fbd 509b dabd
00000150: f80d 433e d2fa 5fbe 192c d6bd aafb 1f3e
00000160: f514 20be 037e dfbc 3542 303e a7f8 473e
00000170: 43d4 333e 484b 7e3d 7c24 393c ef75 013e
00000180: 6425 7bbe 8bbd 9abc 5e1d 453e eb0f 86bd
00000190: d952 3bbe dcb6 6b3d 152c 8cbe 64a1 57be
000001a0: 1f24 73bd d6f8 51be 1d5d 143e 77f3 593d
000001b0: 1b83 15bd 842d 3c3d 2c3f 76bc fcaf 30be
000001c0: ee91 233e 4edb 263e b70b de3d c7e8 afbd
000001d0: bfd1 d8bd b0c1 6f3e a328 413e 8012 d23d
000001e0: e305 0b3e a953 913e 140f 91bd 11d4 993d
000001f0: 8be6 1abc c23b 2a3e cb7d a2bd 5cdf 693e
00000200: b118 cdbd fa2c ba3d 8c12 2cbe 72e6 fabc
00000210: a904 17bd 71f9 7dbc 5f5b 8bbd b336 0c3e
00000220: f54a 403c 1aaf 023e 897e 9a3e 79b3 083d
00000230: 3ce4 e53d ed64 2ebe d3b4 c5bd eb2b 243e
00000240: fe68 5a3b 9fb6 903e 59d8 de3d 7693 383e
00000250: 4da1 59bd a906 d43d 77d6 083e f4f1 1bbd
00000260: c2ad 353e acb1 ff3d 98c2 12be f596 59bd
00000270: 1025 0cbe a34e 6bbd 1177 f93d fad2 873c
00000280: 4cc2 193e aded c03d 777c b9bb 4291 3f3e
00000290: 0837 743e 43c5 38be 561c 723e e088 ff3d
000002a0: 31f5 bebd aeb0 513e d77e 59be 241e 5d3d
000002b0: 85f6 203e 784c 12be 8a6b cd3d 32a3 fe3d
000002c0: ce89 c7be 18c0 5fbe 000f 93bd 9afc 5f3e
000002d0: 750e 1b3e ba10 85be ad9c 16be 122d c9bd
000002e0: 931e e6bd ee45 70be 0c99 a9bb 2933 003e
000002f0: a011 8b3d fdba 2dbd 1392 bc3c 4e28 66be
00000300: 9d49 a0be db20 b13c fc72 05be f8ea 423d
00000310: a5a6 02be 01d3 073e 5965 1e3d c5f2 fdbc
00000320: d524 cabb 62a3 8f3d b3b3 c43d 43d9 e53c
00000330: 1440 0a3e c782 57bd 3b6f f5bd bee7 373e
00000340: ad3b e33d a487 cb3d 05c2 2abd 03b8 db3d
00000350: 0e2e 24be 9dd0 4b3e 65da 403e e86b 323e
00000360: 9e78 5a3d 7e7b 773d 3086 77be 274c cfbd
00000370: 988f 34be 1006 113e f80c 8d3d b655 9bbd
00000380: 1dcd 7cbd fdd3 f13d e76a 63be e715 693d
00000390: 2ff1 9e3e 1df0 ccbd 1be1 893e c1ad cfbd
000003a0: b5fc e23c 532d 823e dd8c 5abe 3f6f d03d
000003b0: ef2e f63d d618 a93d 8a26 bc3d 24b8 ec3e
000003c0: 7a16 48be 9aa6 40be 5a6a d3bd 8f74 853e
000003d0: 6042 e4bd b833 aebe ef09 dabe 67f4 c6bd
000003e0: b97a 1fbd 7049 45be 750c ca3d 23ef ca3d
000003f0: ac76 11be 3ee2 37be 2424 263d f4dc 62be
0.010113878 -0.15274636 -0.07227979 -0.15510482 0.0024891328 -0.13781922 0.22716343 0.021687668
-0.05018161 -0.004550346 -0.16451305 -0.086013906 -0.046687674 0.18004958 0.008942058 -0.04285986
0.124802336 -0.5626823 -0.22376502 -0.5484145 0.05211717 -0.3081409 0.08578493 0.21118326
-0.13626063 -0.09870918 -0.063175485 -0.060272798 0.14883126 0.17520617 -0.08017597 0.08337657
-0.1430196 0.023895394 -0.031606816 -0.24710187 0.13215989 0.02833809 -0.30325988 -0.17324501
0.005271993 -0.23155726 0.12760754 -0.13247408 -0.1658596 0.094560295 -0.19287488 0.05804541
0.29645076 0.064399384 0.03881745 0.03009797 0.007044626 0.40993404 0.12058069 0.059073444
0.14359431 0.447225 -0.043215677 -0.03113694 -0.11597032 0.18250036 -0.068904534 0.21362495
0.17995787 -0.12696253 0.013365714 -0.14894493 -0.0035501982 -0.0801006 0.06480542 -0.10365513
-0.023139438 -0.16510947 -0.12912461 0.08891345 -0.1348389 0.17192945 0.10618469 -0.023356928
0.00063410506 -0.26922706 -0.05855457 -0.10674155 0.19048297 -0.21873024 -0.1045763 0.15623346
-0.15632994 -0.027281767 0.17212756 0.19528447 0.1756144 0.062083513 0.011300202 0.12642644
-0.24525982 -0.01888921 0.19249484 -0.06546005 -0.18293323 0.057547435 -0.27377382 -0.2105766
-0.05936062 -0.2050508 0.14488645 0.0532107 -0.036501985 0.045941845 -0.01502971 -0.17254633
0.15973637 0.16294596 0.10842078 -0.08589321 -0.10586881 0.2341373 0.18863158 0.10257435
0.13576464 0.2838414 -0.07082954 0.075111516 -0.00945438 0.16624358 -0.07934149 0.22839111
-0.10014475 0.0909061 -0.1680395 -0.030627463 -0.03686968 -0.015501366 -0.06804537 0.13692741
0.011736621 0.12762108 0.30174664 0.033374283 0.11225173 -0.17030688 -0.0965363 0.16032378
0.003332674 0.2826433 0.10881109 0.18025002 -0.053132344 0.10352833 0.13363062 -0.03807254
0.17742065 0.1248506 -0.14332044 -0.05312248 -0.13686013 -0.05744804 0.12180913 0.016580094
0.15015525 0.09420333 -0.0056605893 0.18707755 0.23849118 -0.18044 0.23643622 0.12477279
-0.0932411 0.20477554 -0.21239792 0.053983822 0.1571904 -0.14286983 0.10030277 0.12433471
-0.38972324 -0.21850622 -0.071805954 0.21873704 0.15142234 -0.25989324 -0.14708205 -0.098230496
-0.112363 -0.23464176 -0.0051757153 0.12519516 0.06790471 -0.042414654 0.023018872 -0.22476313
-0.31306162 0.021622112 -0.13032144 0.047587365 -0.12758882 0.13264085 0.03867087 -0.03099955
-0.0061689415 0.07013585 0.096045874 0.0280577 0.13501006 -0.052614953 -0.11984106 0.17959496
0.110953666 0.09937981 -0.041688938 0.10728457 -0.16033193 0.19903798 0.18833311 0.17423975
0.053337686 0.060420506 -0.24172282 -0.10121947 -0.17632902 0.14162469 0.06887239 -0.075847074
-0.06171905 0.11808012 -0.22208749 0.056905653 0.31043383 -0.100067355 0.26929554 -0.10140563
0.02770839 0.25425205 -0.21342798 0.101774685 0.120206706 0.0825669 0.09187038 0.46234238
-0.19539824 -0.18813553 -0.10323019 0.2606549 -0.111454725 -0.34023833 -0.42585704 -0.09714585
-0.038935397 -0.19266295 0.09865657 0.09908893 -0.14205426 -0.17957398 0.04056181 -0.221546

actor.2.bias f4 [64]
00000000: 36da cebd 2bb5 ad3d c6f4 c9bc ee5a 78be
00000010: 2f58 e03d 422a cdbd 2994 b43d 16f2 803d
00000020: 5056 2f3e 68b8 333e 7109 84be 5acb 3abe
00000030: f956 7abd dbfb 613e 8672 f4bd 32f6 7c3d
00000040: 0f22 28be 62c7 a23e c47c 1e3e 77c3 753e
00000050: 0c3f e43d bc86 a83d c10a 0ebe 5d18 eebd
00000060: 1933 84bc 3913 45be 4145 2bbe b105 16be
00000070: 189c 093d a86e c33d 9599 6ebe 6289 8c3d
00000080: 8388 ff3d 33c8 ad3d 5231 7f3e 4a0f 363e
00000090: 1af6 80bd a309 18be 9281 b6be 9493 283e
000000a0: bf37 393d 87f0 0fbe 4fd4 b0bc 3825 413e
000000b0: 55e0 093d 32ec 333d 4c0f 1a3e 04fb 93be
000000c0: aa2b 043e 292c 643e 3f27 b1bd d05a 23be
000000d0: e6ed 19be a29d 57be 48ea 61bd 488a 4cbd
000000e0: 5e9d bbbd 59ba 12be 26f8 14bd 441c f03d
000000f0: 2021 b2be 23bc 72be 8da7 823e 6daf d83d
-0.10100214 0.08481821 -0.02465285 -0.24253437 0.1095432 -0.10017826 0.08817322 0.06296174
0.1712277 0.17550814 -0.25788453 -0.18241635 -0.0611181 0.22068731 -0.11935906 0.061758228
-0.16419242 0.31792742 0.15477282 0.24000345 0.11144838 0.082288235 -0.1387129 -0.11625741
-0.016137647 -0.19245614 -0.16725637 -0.14650609 0.03359613 0.095425904 -0.23300774 0.06862141
0.124772094 0.084854506 0.24921158 0.1777927 -0.0629694 -0.14847426 -0.3564573 0.16462547
0.04521918 -0.14056598 -0.021585612 0.18861854 0.033661205 0.043926425 0.15044898 -0.28902447
0.12907282 0.22282471 -0.08650064 -0.15952611 -0.15032157 -0.21056226 -0.05515507 -0.049936563
-0.09160875 -0.14328898 -0.036369465 0.11724141 -0.34790897 -0.23704581 0.25518456 0.10580335

actor.4.weight f4 [9, 64]
00000000: 80b6 903c 1ae6 a03d 9080 c6bd 9795 043d
00000010: 5345 55bf 58b3 253e e145 a4bc 39fa e3bd
00000020: bb05 28bf 93ba 13bf 863b d0bb 0044 d1be
00000030: 42a5 c0be 24ea a2bd e955 f23d aa59 383d
00000040: bc27 043f bf40 21bf 2ffc 82be 9b53 613e
00000050: aafd ebbd ca24 a83e 7849 56be f853 8abe
00000060: d686 f9be 89b7 603f f150 623f 8016 1b3f
00000070: dfd8 2b3f 215b abbd a5f2 eabe d436 afbe
00000080: c210 ad3e 419a 373e 0163 853e 8f86 52bf
00000090: d175 313f 3029 013e 781c dd3d c6f4 4cbe
000000a0: c06e e7be 26ee 0cbe a5fa 033d 4ccf 3b3e
000000b0: 5f74 aebd 1bf9 ebbe f804 97bc b78e dfbe
000000c0: 16b9 023f ecfe 4fbe c59a 833e 7e95 bb3e
000000d0: c301 4d3f 3040 b9be 50c9 a13e d784 9bbe
000000e0: 9783 9a3c b046 e2be 93e5 5cbd c065 f63e
000000f0: a946 3c3f 4b4e 5dbe 66bf 4ebf 4cb6 f2bd
00000100: 30c6 86be e3e4 b8bd 54c4 343e 15fb d93b
00000110: d168 50be 22ac 5dbe 79fd 633d bba2 583e
00000120: 0d0e 793d 2b37 48bd 57de 853d 37bf 0ebe
00000130: 42ef ed3c ab3a 92bd 9078 03be 6058 21be
00000140: 9dae 97bd 4243 843c 44db 993e 08e1 133e
00000150: 9052 483e c32a 883e bc43 e1be 87f9 17ba
00000160: ba86 aebd e065 9b3d 3fd7 d6bb f1e8 f9bd
00000170: dc22 693e b1a1 813e 516a 85be d837 c03d
00000180: 47a3 c8bc 9c3b b23e 9a3c bf3e c0a4 81bd
00000190: 41b8 3d3e f219 93be 9cf6 bd3d 7838 02bd
000001a0: 7d7b 7dbd 54fe 563e 68b7 7cbd f561 ab3d
000001b0: 707b 57bc cf66 6ebc 39db a73e fc0b 80be
000001c0: c98e de3d 57db 423e b323 7abe b117 c8bc
000001d0: ca7a ed3d ed37 23be 5b09 71be a3f1 433e
000001e0: 0893 883d 8d3b 0cbe da7e 1b3d c227 893c
000001f0: 3db5 dc3d 4832 4cbe 2c77 74bd 2029 563d
00000200: 9d9e 90be e607 41be cc3b 973e c75b 2a3c
00000210: 911e a4bd dfbf 92be 7951 8b3d a1b4 b03e
00000220: ad49 cdb9 219b 833d 4782 a63d 43cb 163b
00000230: 7a2c c43d 1dcf 60bd 4c83 8bbe 3442 a4be
00000240: aa59 c1bd 90eb a53b 86a7 b83e 597e c93d
00000250: da62 a33e 8bc8 303e d263 bebe 0dec 363d
00000260: cd7f a1bb 94d9 3d3e 710e 923c 0df2 d8bd
00000270: b947 873d 7da9 e23e 7f95 12be bd50 963e
00000280: a25f e6bc 61f9 c23e bb90 1b3e c4ae 9dbb
00000290: 2900 4b3c 6337 e8be eca0 803d a12d cfbd
000002a0: 7e47 933d cc16 803e f0cd b8bd 0632 0f3d
000002b0: 7764 b0bd fc1d 403d 84b2 f23e 0c32 1dbe
000002c0: 300a f83c 66ab d03e f6c3 d2be c720 53be
000002d0: ef24 003e 1e2f 8dbd 881a aebe 2188 8b3e
000002e0: d872 893e 9ca7 ac3d d0e7 b43c 5ff6 e9bd
000002f0: 8881 443d dec9 61be 92fe 0e3e aa9a 773a
00000300: 3dcf e33d d2a9 4e3e ff6a 19be 7617 acbe
00000310: b46f 4a3e b989 25bd 5d73 143d f3a0 44bd
00000320: 2bc9 0e3d 11e8 cd3d a1b2 a2be ffd5 2bbe
00000330: 36c1 a9be 8d11 7b3e d424 753e 5f6d 1e3e
00000340: 625b b0bc 6b85 d83d 9908 c63b 199e 843e
00000350: 34fc acbd b483 b3bc 9e57 223d 9d93 b0be
00000360: 6e82 22be 24f6 cfbe 2ecf 08be 4121 79be
00000370: 0128 0f3e 74b4 2fbc 8386 fdbd 13ec 063d
00000380: a165 7d3e 1aeb b43b d47a cd3c 6cbc 753e
00000390: e510 01be 23b9 5cbb 989a b8be 5c68 613e
000003a0: 9345 8d3d a19f 6abe 9c1f 993d aa92 0c3e
000003b0: dbc2 e7bc 7fe1 9cbb 734d eebc 2a70 90be
000003c0: f267 653e bcb9 5a3d 9295 e9b9 db35 8dbe
000003d0: 2163 b2be f118 7ebe 468f a13d ea2d e4bc
000003e0: 83b7 4ebe f74e a6bd dea9 9dbe 04bc 8a3e
000003f0: 7775 8bbe 56b4 d4bd 49f8 023e a00a 563e
0.017665148 0.078563884 -0.0969249 0.032369222 -0.83308905 0.16181695 -0.020052852 -0.111317106
-0.65633744 -0.57706565 -0.006354752 -0.40872192 -0.37626082 -0.07954815 0.11832792 0.045007385
0.5162313 -0.6298942 -0.25583026 0.22004549 -0.11522992 0.32840568 -0.20926464 -0.27017188
-0.48735684 0.8778005 0.88404757 0.6058121 0.67127794 -0.08366991 -0.45888248 -0.34221518
0.33801848 0.17929937 0.26052096 -0.8223657 0.693204 0.12613368 0.107964456 -0.20015249
-0.45201683 -0.13762721 0.032221455 0.18340796 -0.0851829 -0.4608849 -0.018434986 -0.4366357
0.5106367 -0.20312089 0.25704017 0.3663749 0.80080813 -0.36181784 0.31598902 -0.30374786
0.018861575 -0.44194555 -0.053929877 0.48124504 0.7354532 -0.21611898 -0.807608 -0.118511766
-0.2632308 -0.09028032 0.17653018 0.0066522458 -0.20352484 -0.21647695 0.055661652 0.21155827
0.060804415 -0.048880737 0.065365486 -0.1394013 0.029044751 -0.07140096 -0.1283896 -0.15756369
-0.07406352 0.016145352 0.300501 0.14441311 0.19562745 0.26595125 -0.4399699 -0.00057973753
-0.08521791 0.075877905 -0.006556421 -0.12202633 0.22767204 0.25318673 -0.26057675 0.09385651
-0.02449192 0.34811103 0.37350923 -0.06330252 0.18527319 -0.28730732 0.09275553 -0.031792134
-0.061885346 0.20995456 -0.061698347 0.08368293 -0.013151988 -0.014550879 0.3278444 -0.25009143
0.10867078 0.19028984 -0.2442768 -0.02442536 0.11595686 -0.15939303 -0.23538725 0.19135146
0.06668669 -0.13694592 0.037962772 0.01674259 0.10776756 -0.19941056 -0.059683964 0.052285314
-0.28246012 -0.1885067 0.2953781 0.010397858 -0.080136426 -0.2866201 0.06802649 0.3451281
-0.0003915554 0.06426073 0.08130317 0.0023009337 0.09578796 -0.05488502 -0.2724861 -0.3208176
-0.0944093 0.0050634816 0.3606531 0.09838552 0.31911355 0.17264001 -0.37185532 0.04465871
-0.004928565 0.1854003 0.017829152 -0.105930425 0.06605477 0.44269934 -0.1431484 0.29358473
-0.028121773 0.38080886 0.15191929 -0.0048120935 0.012390175 -0.45354757 0.062806934 -0.10116125
0.071913704 0.25017393 -0.090236545 0.034959815 -0.08612912 0.046903595 0.47401822 -0.15351123
0.030278295 0.40755767 -0.4116513 -0.20617972 0.12514089 -0.068937525 -0.34004617 0.27252296
0.2684543 0.084304065 0.022083193 -0.11423945 0.047975093 -0.22049662 0.13964298 0.0009445349
0.11123512 0.20181969 -0.14982222 -0.3361165 0.19769174 -0.040414546 0.03624283 -0.048005056
0.034859817 0.10054029 -0.31776908 -0.16780852 -0.3315522 0.24518414 0.2393983 0.1547141
-0.02152795 0.105723225 0.0060435054 0.2590187 -0.084465414 -0.021913387 0.03963434 -0.3448762
-0.15870067 -0.40617478 -0.13360283 -0.24329092 0.13980104 -0.010724176 -0.12379172 0.03293998
0.247458 0.0055211904 0.025082983 0.23997658 -0.12604101 -0.0033679686 -0.36055446 0.22012466
0.06898036 -0.22912456 0.07476732 0.13727823 -0.028291157 -0.0047876234 -0.029089665 -0.28210574
0.22402933 0.053399786 -0.00044552662 -0.2758015 -0.34841254 -0.24814202 0.07888655 -0.027853925
-0.20187192 -0.0812053 -0.3079366 0.2709657 -0.27238056 -0.10385959 0.12790026 0.2090249

actor.4.bias f4 [9]
00000000: 1a4c abbd 8281 de3d 1f84 0f3d 9aee 853e
00000010: d11c 2e3e 4942 053e 01f0 ef3d ddd0 273e
00000020: 3a15 63be
-0.083641246 0.108645454 0.03503811 0.261586 0.1700318 0.13013567 0.11715699 0.16388269
-0.22176066

critic.0.weight f4 [64, 7]
00000000: 69f9 54be 60c4 143e 86c8 353e 1688 17bd
00000010: 262f 8a3e 8a5b 3140 309a 493e 69b5 34be
00000020: f553 fc3b 2e63 613c 3a2b 9abd f992 c33d
00000030: 76be 0040 081e 1f3d 39f8 b4be 0e2f 833e
00000040: daf8 71bd 3b1c 93be d497 1abf d0bb a23f
00000050: 6f07 873d e645 efbd db4e a93d 29bd 7f3e
00000060: 5c52 3bbe 97b1 ac3c 1737 c2bf d106 c2be
00000070: 3fd8 87be 6e90 953e 81ab e8bd c3f5 ddbc
00000080: 775f 563e 85d3 17c0 dcf5 303e 161a 223e
00000090: 9465 dc3d 4d3f 99be f700 8a3d a92e 35be
000000a0: 22bf 09c0 faec 84be e588 793e 196a 24be
000000b0: 32ad ffbd b6f1 2a3f 83c6 c6be ab4e dbbf
000000c0: d53c 603d b4db 9cbe ad3c b139 de06 333e
000000d0: 47ab 943e 11e0 053e 31a0 b6bf 51d9 7ebd
000000e0: c90d f3be 49d0 f73e 0429 3cbd 6bb4 cbbe
000000f0: 0781 79bd dabf 23be 37fa cebd 74a4 c5be
00000100: 64c0 7a3e 81ef abbe cb95 83be eaea 8abf
00000110: 19d8 9b3e db31 d73d 849b a53e 3772 60be
00000120: 399f 3c3e e54d 12be 887e 69be c124 4ec0
00000130: ed00 053e 83ce 2a3e 63cb 18bc 683e bcbd
00000140: a6c9 e3bd 1eed 8d3e 8929 1240 5b20 74bd
00000150: f0eb 09bf d671 60bf b066 bd3e 109e dc3a
00000160: 14c9 0e3f ff81 7b3f c001 113e 1a46 b9bd
00000170: 617e f93c 8db9 163d 802b 883e 0c5a a2be
00000180: ff25 0840 2491 673e 349f 2d3d f59e 0dbe
00000190: 34b0 a1bd 6ac5 b2be 0355 413e 2c8e 13c0
000001a0: 466c 8b3e 2a4f 74be f378 083f fe7c a73c
000001b0: 852f b9be 0465 ba3e 841f 44be a5d7 943e
000001c0: d762 d9be 5738 883e 3fd3 da3d d2d5 8ebd
000001d0: 4c10 97be 7357 dabf d2f5 223e 3486 f03d
000001e0: 1f24 86be 8bb8 3c3d c57f 293e 2859 babd
000001f0: fa36 f03f 35cb 8cb8 8787 003f 6532 21be
00000200: a408 86be 0e7f 023e 745c 913e f86c 1b40
00000210: 4630 b23b b1f8 d33e 03f6 dc3c 7dcb 65be
00000220: c15e 98bd cc9f 9dbe b86c 0440 db6f d83b
00000230: 1ecb 413d 3078 4a3e f100 c6be 6e07 b03d
00000240: f4b3 533e 67f6 23c0 bcf3 303e 8d11 00bf
00000250: c6b8 bc3e 979e 953d 004e 88be 0457 f4bd
00000260: c9a1 e7bf 1a37 50bd 78dc 8fbe 5958 8e3e
00000270: c509 d1bc 3e59 cc3c ff05 edbc 0a9b f8bf
00000280: 3f72 4dbe 8a2e 2cbe d84c 4c3e d3d6 46bc
00000290: 85b4 88bd ca15 ae3d b710 2a40 672a c5ba
000002a0: e1e3 903d 9ee2 27be 3fc8 3a3d 9c44 ee3e
000002b0: dc54 42bf 7702 dfbe 63fc 523e 8008 60be
000002c0: 5f23 69bd f6c2 453e 475b 6f3e 4f2d b4be
000002d0: 265a db3f f442 9a3d 84dc d0be a3a0 b73e
000002e0: efb6 0f3d 3780 07be e27d 2ebe 059a 06c0
000002f0: 21fd e1bd 25a0 5abb 6ddd 5bbe 970b 673e
00000300: 49af 6c3e eda5 b33e c3a5 b0bf 5f93 62be
00000310: 4f5b 5c3c 8d22 19be 0af0 013d 5211 c73e
00000320: 3fca b43d c026 9dbf f36a 87bd fd5b 2cbe
00000330: a62a 21bc 5a0a 8ebb d1fd 313e 1db3 133c
00000340: 8976 c43f 0e4c a2be 48fa 82be c020 a43e
00000350: 0905 0cbe 888d 593e bff8 eabc 2bfb 1f40
00000360: 9ade 3bbd a0be 5c3d 3961 19be d52b d03c
00000370: a0f8 893d a16c 95bf ec2b 8cbe f552 843e
00000380: dbe5 c23d e04b 00be 2e89 1cbe 2708 25bd
00000390: 8ecc 0f3f 1e77 14c0 ef00 87be 3be4 933e
000003a0: c07e 5cbd e0b6 b1bd ab41 4b3d 1718 15be
000003b0: 480b da3f b86e 88be 1abf cb3e e75b 82be
000003c0: bed2 7d3e ad0c 13be f819 88be 669f e33f
000003d0: 3cd0 cd3d 4082 a63e feb9 1dbf b5b5 163e
000003e0: db3d 6e3f 5aae a1be 414a fabf 780a 3c3a
000003f0: 523f 9c3d 5ce0 b73d 1380 19bd 8b6f 99bc
-0.20798267 0.14528036 0.17752275 -0.036995016 0.26989096 2.771212 0.19687724 -0.17647327
0.007700438 0.013756556 -0.07527776 0.09549517 2.0116248 0.038847 -0.3534563 0.25621837
-0.059075214 -0.28732476 -0.6038792 1.2713566 0.06593215 -0.11683254 0.082669936 0.24974503
-0.18293136 0.021080775 -1.5173062 -0.37895826 -0.2653217 0.29211754 -0.11360837 -0.027094727
0.20934854 -2.3722851 0.17281288 0.15830263 0.10761562 -0.29931107 0.06738465 -0.1769358
-2.1522908 -0.2596205 0.24368627 -0.16056098 -0.12484206 0.6677507 -0.38823327 -1.7133383
0.054745514 -0.3063637 0.00033805278 0.17483088 0.29036924 0.13073756 -1.4267637 -0.062218968
-0.47471455 0.48401096 -0.045937553 -0.39786085 -0.060914066 -0.15991154 -0.101063184 -0.3860203
0.24487454 -0.33581164 -0.2570022 -1.085294 0.30438307 0.10507556 0.32345212 -0.2191857
0.18420114 -0.14287527 -0.22802174 -3.2209933 0.12988634 0.1668034 -0.009325835 -0.091915905
-0.11122446 0.2771997 2.283785 -0.05960117 -0.5387564 -0.876737 0.36992407 0.0016831774
0.5577557 0.98245233 0.14160824 -0.09046574 0.03045577 0.03679805 0.26595688 -0.31709325
2.127319 0.2261396 0.042388156 -0.13830169 -0.07894936 -0.3491624 0.18880086 -2.3055525
0.27231044 -0.23858324 0.53309554 0.020445343 -0.36169067 0.36405194 -0.19152647 0.29070774
-0.4245822 0.26605484 0.10684823 -0.06974377 -0.2950462 -1.7057937 0.15914086 0.11744347
-0.26199433 0.04607443 0.16552646 -0.090990365 1.8766778 -6.7135705e-05 0.502068 -0.1574188
-0.26178467 0.1274378 0.2839085 2.428526 0.0054378835 0.41400674 0.026972776 -0.22440906
-0.07439948 -0.30785978 2.0691357 0.006605131 0.04731285 0.1977241 -0.38672593 0.08595167
0.20674115 -2.5619142 0.17280477 -0.5002678 0.3685972 0.07305639 -0.2662201 -0.119306594
-1.8096248 -0.0508338 -0.28097892 0.2780178 -0.025517354 0.024944898 -0.028933523 -1.9422314
-0.20063113 -0.16814628 0.19951189 -0.012136179 -0.06675056 0.0850025 2.6572702 -0.0015042544
0.070747145 -0.16395041 0.045601126 0.4653672 -0.75910735 -0.43556568 0.2060409 -0.21878242
-0.056918498 0.19312653 0.23374663 -0.35190818 1.7136886 0.075323015 -0.4079324 0.35864744
0.03508657 -0.13232504 -0.17040208 -2.1031506 -0.11034609 -0.0033359614 -0.21471186 0.22563015
0.23113741 0.3508753 -1.3800586 -0.2212653 0.013449504 -0.14954586 0.03172306 0.38880402
0.08827638 -1.227745 -0.06612196 -0.16831966 -0.009836828 -0.00433473 0.1738198 0.009014872
1.5348674 -0.3169865 -0.25581574 0.32056236 -0.13673796 0.21245396 -0.028683065 2.499705
-0.045866586 0.05389273 -0.14978494 0.025411526 0.067368746 -1.1673776 -0.2737726 0.2584454
0.09516498 -0.12528944 -0.15286705 -0.040290978 0.561715 -2.3197703 -0.263679 0.28885064
-0.053831816 -0.08677459 0.049623173 -0.14559971 1.7034693 -0.26646972 0.39794236 -0.2546074
0.24787423 -0.14360304 -0.26582313 1.778302 0.10049483 0.32521248 -0.61611927 0.14717753
0.93063134 -0.31578332 -1.955391 0.0007173191 0.07629265 0.0897834 -0.037475657 -0.018729946

critic.0.bias f4 [64]
00000000: 166a a3be c387 033d e588 b0bd c79e 403e
00000010: 3343 6e3e 5f2b 543e b08f 903e 559c c83d
00000020: e64b f13d 48c2 033d 08ea c9bd 5edc 0ebe
00000030: b2c5 98bd d7ef cbbe cb34 853e d300 6dbe
00000040: f2a8 e9bd 9969 d2bd a00c a3be 466d 92be
00000050: 98a5 943e 6db2 723e 6372 df3d eb4b e1bd
00000060: 4f25 9abe 22e7 80be 70a7 9b3e 0b3b 7d3e
00000070: 7cb8 563e ff2b 143d 904a 41be 6229 58be
00000080: 0669 dd3e 1b52 3ebc 798e bbbe 85b9 8b3e
00000090: 6138 2fbe 7c1a 53be 3b94 bf3e 5845 643e
000000a0: fb67 e0bd 565c a83e ccf6 51be 3607 443e
000000b0: 5076 9e3e 297f 013e c795 f13d 5294 a1be
000000c0: e9bd 843d 79d1 d5bd d166 98be 5efa 42be
000000d0: 4b38 703e ca19 aa3d 83b5 5c3c 1e5b 343e
000000e0: 818b d73d 3b1c 9c3d 9e81 79bd b1a7 a43e
000000f0: 872c 97be 37c6 023e 7499 0dbe 7cc5 6a3e
-0.31916875 0.032111894 -0.086198606 0.18810569 0.23267822 0.2071967 0.28234625 0.09795443
0.117820546 0.032167703 -0.09859091 -0.13951251 -0.074595824 -0.3983142 0.2601684 -0.23144846
-0.11409177 -0.102740474 -0.3184557 -0.28598994 0.29032588 0.23700877 0.109104894 -0.11000808
-0.3010659 -0.2517634 0.30401182 0.24729554 0.20968813 0.03617477 -0.188761 -0.21109536
0.4324419 -0.011616255 -0.36632136 0.27289978 -0.1711135 -0.20615572 0.37417778 0.22292078
-0.10957333 0.32882947 -0.20504302 0.19143376 0.3094964 0.12646164 0.11796146 -0.31558472
0.06481535 -0.10440344 -0.29765943 -0.1904082 0.23458974 0.083057 0.01347101 0.17612883
0.10524655 0.07622572 -0.06091463 0.32159188 -0.2952616 0.12770925 -0.13828069 0.22926897

critic.2.weight f4 [64, 64]
00000000: 80ce 243d 946c 9fbd 300f 0d3e 8871 693e
00000010: 574d acbe 6131 0fbe 889c 53be fdce 16bd
00000020: 7cbe b03d cc91 003d 4dd4 5c3c c27f 313e
00000030: 10a3 0cbe c991 023e 7f4e 26be 5d26 93bc
00000040: 4bdd 15be 3584 373d e5bc 323d 55d5 233e
00000050: 509e d4be 8b66 3cbe 9f16 7e3c e9aa 963e
00000060: 4a74 b4bc a4ca 503e 5054 04be b755 3cbe
00000070: 03c1 48be 63a0 0a3e 6209 f43c b4ad ddbd
00000080: 5b2b 61be c42d 5b3e 64e5 2e3e 01ca 04be
00000090: 2650 433e f5d4 df3d c44d 9abe 7cd2 0fbe
000000a0: 1d68 6d3e 049d 13be 0176 a23e 2468 5ebe
000000b0: 2c6b 71bd 5473 efbd 7938 12be 9523 393d
000000c0: bed7 64be bc9a 203e caf8 d13d d978 863e
000000d0: fbd0 263a 5a8e c03d ec97 bbbc 26ff f8bd
000000e0: 2a07 933d 84c0 9cbe 1213 403e 1b5b c7be
000000f0: 8094 f43d c105 73be 5c78 c1bd 4ead 3a3e
00000100: 02db 7f3e 966e 073e c315 663d 1f04 3e3e
00000110: f215 7abe 3f46 e5bc bfc7 f0bd 1a23 68bd
00000120: 68b2 cb3c 7639 8d3c b337 3a3d 1c53 fc3d
00000130: debb 39be 56e4 a6bc dfd5 1cbe 13bf 0abd
00000140: 7910 aa3b a74f fdbb 4f37 993d 200b 223e
00000150: c7f9 c4be b67b 38bc 9f13 d13a 3b2b cb3d
00000160: da45 e3bd 216e 553e 5061 e1bd 42dc a03d
00000170: 63c2 57be 6177 273e 9216 493e 536c 3fbd
00000180: 347e 87be 1085 a03e 73d5 973e de9e 37be
00000190: 8ff7 af3e e83d bf3c c09d 08be c782 23be
000001a0: 77e8 f53d 23cc 48be 3d35 843e c983 babe
000001b0: 90bc 8ebc 51e0 fb3b b15b 98be fc39 fb3d
000001c0: 4992 babe 5030 983e a77e 433e 80ab a83e
000001d0: 2c02 b2b9 d7be 6fbd 3317 ae3d ec05 08be
000001e0: 749b e83c 7c2f c9be 4d7f 633e f337 acbe
000001f0: 6db8 5d3e 6ff4 aabd 81a2 3b3e 63bd e83d
00000200: 2400 c13d 7357 913b 9413 023f bbfe 26be
00000210: 825d 47bd 69f6 433c b2c6 a2be c4f7 05be
00000220: e151 ab3e 9e2d 113f 9b36 c5bd 5d69 573e
00000230: 93d3 d13d da94 483e 977e f2bc 2b81 8e3e
00000240: 1427 e03e d364 aa3d 0fdb d03d 7e02 ba3d
00000250: dd2e 6ebe dc71 073e cdb9 943e e2f5 ed3e
00000260: 4dca 313d 1967 4a3e f604 fcbd e689 7dbe
00000270: 5115 98be 0c94 0f3e 4540 f13e 681c a13d
00000280: 557d 6dbe b680 3cbe 80e1 92bd ea1b 07bf
00000290: aa74 f53d 1e86 8b3e a643 4fbe c969 c3be
000002a0: a822 8a3e 770c 653e 47fe a23e c9a4 14be
000002b0: 4023 b3be 9404 ddbe a6d0 2ebe 0b72 a2be
000002c0: 4084 52be dd7d 7b3e 74ae bb3d 14de d53d
000002d0: e112 f9be a679 0dbe 611e 773d db0f 2dbe
000002e0: 07f0 60bd 0c0c 0e3e 5c87 ea3d 8a7a 6bbe
000002f0: f252 7e3e 041a 3bbe 2aba 5c3e 10a2 eabd
00000300: e303 913d 9e85 64bd 3bc9 c7bd a56b db3d
00000310: 8299 04bc bb07 52bd 0d2a 39bd 4fe1 afbd
00000320: 92b8 13bd cf27 14bd 5fb8 01bd 4bf7 673c
00000330: 4853 e73d 8bf4 85bd 3c0d c63d 496f 0ebd
00000340: 48d4 32bd b609 72bc b87a 86bd b3bb 583d
00000350: c369 bdbd 5d65 b9ba f261 633d 7ee0 233d
00000360: 4a02 7f3d d8e4 03be a961 89bd 891c 96bd
00000370: 78e5 dc3d 56b8 a33c 0501 c03d 4524 ee3d
00000380: b233 1cba fe63 5b3c dc49 923d e865 8a3d
00000390: d624 fcbd a6b6 c03c 36ac 1dbe 6b4f 6a3b
000003a0: 407e 7fbc 3a9f 403d eaf6 58bd 980e aa3d
000003b0: a4ec 8cbd a994 02bd 12a1 b73d ef1a babc
000003c0: a4ee 55be dc60 053d 0e90 d8bd c882 13be
000003d0: 8cd4 033e a561 f0bd 3caf 6a3d 12ec febd
000003e0: 53d6 98bd 4684 ee3d e30d 093e 5503 d1bc
000003f0: 7c84 dc3c 3a4b d4bd a05d 48bd 347d 14be
0.040235996 -0.077843815 0.13775325 0.22797215 -0.33652756 -0.1398368 -0.2066518 -0.036818493
0.08630082 0.031389043 0.013478351 0.17333892 -0.13734078 0.12750925 -0.16240881 -0.017962629
-0.14635198 0.044803817 0.043637175 0.15999348 -0.41527033 -0.18398492 0.015508323 0.2942727
-0.022028107 0.20389801 -0.12922788 -0.18392073 -0.19604878 0.13537745 0.02978963 -0.10824147
-0.21989195 0.21404177 0.17079693 -0.12967683 0.19073543 0.1092929 -0.30137455 -0.14045137
0.23184247 -0.14415365 0.31730655 -0.21719414 -0.058940098 -0.11691919 -0.14279355 0.04519995
-0.22347924 0.15684026 0.10252531 0.26264074 0.0006363538 0.094021514 -0.02289959 -0.12158041
0.07179101 -0.30615628 0.18757275 -0.38936695 0.119423866 -0.23732664 -0.09446785 0.18230173
0.24985889 0.13225779 0.056173097 0.1855626 -0.24422434 -0.027987598 -0.117568485 -0.0566741
0.024865344 0.017239314 0.045463275 0.12320539 -0.18138072 -0.020372551 -0.1531596 -0.03387363
0.005189952 -0.0077304426 0.074812524 0.15824556 -0.38471815 -0.011259964 0.0015951282 0.09920355
-0.110973075 0.20842792 -0.11004889 0.07854511 -0.21070246 0.16354133 0.19637516 -0.046734165
-0.26463473 0.3135152 0.29655036 -0.17931697 0.3436856 0.023344949 -0.13341427 -0.15967856
0.1200723 -0.19609122 0.25821868 -0.3642867 -0.017423898 0.0076866527 -0.29757455 0.12266919
-0.36439732 0.2972436 0.19091283 0.32943344 -0.00033952424 -0.05853161 0.08500519 -0.13283509
0.028394438 -0.3929404 0.2221653 -0.33636436 0.21652384 -0.08347403 0.18323709 0.11364248
0.09423855 0.0044354736 0.50811124 -0.1630811 -0.04867316 0.011960604 -0.31792217 -0.13082796
0.33460906 0.5671023 -0.09629556 0.21036287 0.10245433 0.19588032 -0.029601378 0.27832922
0.43779814 0.08320012 0.10198032 0.090825066 -0.23260064 0.13227028 0.29048005 0.46476656
0.04340582 0.19765891 -0.12305634 -0.24759635 -0.29703763 0.14021319 0.47119346 0.07866746
-0.23192342 -0.18408474 -0.07171917 -0.5277697 0.119851425 0.2725076 -0.2024065 -0.38166645
0.26979566 0.22368036 0.31834623 -0.14515986 -0.3498783 -0.43167555 -0.1707178 -0.31727633
-0.20558262 0.24559732 0.09164134 0.10442749 -0.48647216 -0.13815936 0.060331706 -0.1690058
-0.054916408 0.13871783 0.11451599 -0.22995964 0.24836329 -0.18271643 0.21555391 -0.11456692
0.070808195 -0.05579149 -0.097551785 0.10713891 -0.00809324 -0.051276904 -0.04520612 -0.08587896
-0.03606469 -0.036170777 -0.03166997 0.01415808 0.112951815 -0.065407835 0.09670493 -0.0347741
-0.04365948 -0.014772823 -0.065663755 0.05291338 -0.09248688 -0.0014144588 0.05551333 0.040009014
0.062258042 -0.12880266 -0.0670808 -0.073296614 0.10785955 0.01998536 0.093751945 0.116280116
-0.0005958631 0.013390539 0.07142994 0.06757718 -0.123117134 0.023524594 -0.15397725 0.0035752903
-0.015594065 0.04702685 -0.05296985 0.08303565 -0.06881073 -0.031880055 0.089662686 -0.022717921
-0.20891815 0.032563075 -0.10574351 -0.14405358 0.12874049 -0.11737374 0.057296023 -0.124473706
-0.07462754 0.11646323 0.13384204 -0.025514284 0.026918642 -0.10365911 -0.048917413 -0.14500886

critic.2.bias f4 [64]
00000000: 7296 ebbd 1b93 e9bd bc45 c4be 73bf 973d
00000010: 8e68 9e3d ed77 b63c 0ee7 463e 4c49 88be
00000020: df27 213e aebb 88bb b441 58bd 8bee efbd
00000030: 511e a1bb 03fa 9d3e f3b4 943d 68fb 39be
00000040: 4513 4cbd 802c e3bc 0f69 2abd 6d39 31bd
00000050: c4de 9fbe 85de 30bd 7899 b5bd 91ba ab3d
00000060: e49d af3d 7986 fdbd 9b0a d0bc 57d2 fd3b
00000070: 7cac 883c eb11 963d 1483 3abd 82a1 433d
00000080: 2abf d1bc 930c 19bb d998 aabc a27f 9c3d
00000090: 3f2f bd3b 98f3 80be cb39 40bd 5b20 be3d
000000a0: 66a6 dc3c f454 e73d 13d4 8b3d 0d03 b33c
000000b0: c109 3dbd 58c2 583e 4c99 dd3d b399 aa3d
000000c0: ee51 adbd 214e 47bd 7ac1 31bd 039d 7c3d
000000d0: e9e4 9abe 35ab 9e3d ed3a 1e3d b288 d9bd
000000e0: 8e0a 573d c593 763d 53f1 8a3e 7cac 3a3d
000000f0: e3e4 6abd 1c59 953d d765 bc3c 244c 983d
-0.115033045 -0.11405011 -0.38334453 0.07409563 0.07734786 0.022273982 0.19424078 -0.2661842
0.15737866 -0.004172764 -0.052797034 -0.1171542 -0.004916944 0.30854806 0.07261076 -0.1816231
-0.049823064 -0.02773118 -0.041604098 -0.043267656 -0.31224644 -0.04318096 -0.088671625 0.08385194
0.08575037 -0.12379164 -0.025395682 0.0077460217 0.01668381 0.07327636 -0.045535162 0.047761448
-0.02560385 -0.0023353442 -0.020824837 0.076415315 0.0057734544 -0.25185847 -0.046930116 0.09283515
0.026934814 0.112955004 0.06827559 0.02185204 -0.04615188 0.21167886 0.10820255 0.08330097
-0.084628925 -0.048658494 -0.043397404 0.061673176 -0.3025277 0.07747499 0.038630415 -0.10621776
0.0525003 0.060199518 0.2713724 0.04557465 -0.05734719 0.07292387 0.02299778 0.07436398

critic.4.weight f4 [1, 64]
00000000: 450d 173d f536 5b3d 64e8 cf3d e03a 963b
00000010: 0282 57bb 5539 823a 6cf3 b53e 1dd9 fb3d
00000020: 6c37 5dbe 0c23 d3ba bead 553b 67dc 4b3d
00000030: 4397 8cbb 3ebf 40be c85c f03b 920c ba3e
00000040: 081a ea3e 6273 1839 8762 893b 90c3 f3bb
00000050: 280a c53d aeb4 34bb 35a7 0ebe 8141 d9bb
00000060: 32d7 ff3a 4231 0a3d 64bc 4dba d1ed f4bb
00000070: adbb 1cbc 10f4 ea3b c1f0 f23b 1c33 d2bd
00000080: 9894 2f3b 9034 503c 9519 a23b d993 22bc
00000090: f721 583c 60ec 143e fc03 8f3d 812a 2a3b
000000a0: a781 11bc 6f23 333e 6fc7 15bc 53e0 07bc
000000b0: 7ec7 b7be c94d 53bd 6719 2fbb 3df0 9b3b
000000c0: 0ce5 0b3c d1dc 61bb 8e30 abba a006 bb39
000000d0: 8327 693d b847 363b f6d6 173a 4ae4 19bc
000000e0: 0d80 b4bb 77c4 5c3a 5715 aabc 73f7 85bb
000000f0: f570 72be 94cc 4c3c a354 20b9 30ec ee3a
0.03687789 0.053519208 0.10151747 0.004584655 -0.0032883887 0.0009935299 0.3553728 0.122972704
-0.21603173 -0.0016108467 0.003260478 0.04977074 -0.0042904927 -0.18822953 0.007335279 0.36337715
0.45722985 0.00014538833 0.0041926536 -0.0074390844 0.09621078 -0.0027573514 -0.13930972 -0.006630123
0.0019519089 0.033738382 -0.0007848202 -0.007474639 -0.00956623 0.007170208 0.007413954 -0.102636546
0.002679145 0.012707844 0.0049468973 -0.009922945 0.013191692 0.14543295 0.06983182 0.0025965276
-0.008881009 0.17493986 -0.009141787 -0.008293229 -0.35894388 -0.051587854 -0.0026718022 0.0047588632
0.008538496 -0.0034463892 -0.0013060735 0.00035672355 0.056922447 0.0027813744 0.00057922245 -0.009392807
-0.005508429 0.00084216095 -0.020762129 -0.004088336 -0.23675902 0.012499947 -0.00015290319 0.0018228348
