trained/ComplexPong/PPO_mcts_sparse_1728340807.8486614.pth (torch, 44898 bytes, 11 tensors)

actor.0.weight f4 [64, 7]
00000000: aa4c af3e a332 91be 9c4a a2be 74a0 d0bd
00000010: 74fb c7be 5b82 17bf 2c2e 893e 7b57 963e
00000020: abcd febe b8e8 cf3e 996f c2be 358e 1d3f
00000030: 2a2d 90bf 5dfd 9b3d 07b4 2fbe 6ed7 7c3d
00000040: ae68 fc3d 75e8 f0bb 3999 2d3f 9ae6 7abe
00000050: b3c0 fcbc d08b 44be 3e51 863e 3a74 c9bd
00000060: ef0e 633e e602 26be c277 433f f7de 273e
00000070: 0e2f 383e 0415 9cbe 2277 393e 874c e63d
00000080: 88b4 123f 905d 16bf feee 9cbe 1655 c9be
00000090: 0a6c 273e 2a74 a83d 660c 893e 6584 04be
000000a0: 4c3d 633e 2930 83bd 8928 883e 91ec a3be
000000b0: 2e7e 73bd f43e 693e 23ea 9c3e 0fa3 1a3f
000000c0: 296f f63c c8cf e43d 9651 8dbd 19a2 033e
000000d0: 361c b13e 5232 bcbc ebb2 5c3f d2ca 223e
000000e0: a995 053d 76d2 ae3e 5238 88be 53e6 953e
000000f0: 8f6c dcbe 48b9 3b3f 1717 1ebe 63ac 7abe
00000100: 8019 f2bd f47c 853e c203 bb3e fd20 e83e
00000110: 315e 213e a7cb a5be 031e e9bd 904e 84be
00000120: cda1 1c3f a68f 7dbe 3780 a63d b867 5cbf
00000130: c5c0 493e 04d1 8c3e de3b d7be b9d5 9a3e
00000140: 33d1 3c3e 592c 483f 4d21 ff3e 60fb 40be
00000150: b7bf 3dbe 7736 b43d 5cd1 c0be 87bc a1be
00000160: e442 cfbd ee7f d0be 3dae 2e3d 0a15 353e
00000170: a379 f7bd fee4 4dbd 9225 1c3e 83a7 94be
00000180: 9e63 a33f be12 593e 1dd8 063e ab82 053e
00000190: 0be7 9dbe 803a 2dbe 336f 1abf 189a 11bd
000001a0: dad0 93be 55e6 dd3e cbf2 abbe 68e8 533c
000001b0: 5080 313d f8c5 743e 7739 4b3f 2e54 81bd
000001c0: e080 9d3e 8cdf ff3e 4d73 0abf 1595 97be
000001d0: 4b99 25bf 5fbc 31bf 1518 b13c fb53 27be
000001e0: 9934 55bd c49c d1bd c86e 803e 92f1 c1bd
000001f0: dbaa ba3f c704 9a3e 39a2 aabe 3131 8e3e
00000200: afb0 983d 916e d7be 71d7 0dbd dab0 53bf
00000210: 5ed0 803e 00e4 003e 911c 9dbe 2884 903e
00000220: 7a3d 483e 0298 d63c 359c e2bd abd3 f13d
00000230: 1e4a ab3e 917a 09bf 5986 733e 8a64 9c3e
00000240: 0e67 e93e df6b 8c3f f1a9 00be 20f5 a53c
00000250: ae9a b2be 8494 133f 1956 0dbe c290 583f
00000260: 9497 91bd 827c 74be 6855 77bd 7d99 a5bd
00000270: 28ab c23e 6e0c 063e 4e62 0f3f 3c5e ca3c
00000280: 1604 9b3e 81c1 a33e 0795 063f 59f5 1abf
00000290: d137 803e 15c5 3abe 578f 6f3f a2b6 9abe
000002a0: 54c6 2dbe e096 0e3f cb48 47be 67ce 3abe
000002b0: ca8c d1be 40e3 00bf 6d6d 123e c34f 993e
000002c0: 738b ed3e 69d8 0abf 0e3c 993e 1e06 93be
000002d0: 1447 053f e7b5 94be 5a8b 16be cbe1 863e
000002e0: 1caa 86be 593d 5dbe 14a1 c1be c54b 6dbf
000002f0: ffa2 bb3d c6a5 6abe 33ed c03e 9d14 99be
00000300: 77ac 4f3e d4de 90be 167f f73e 16d1 373e
00000310: a089 64be 64ec 9a3e ad64 fbbe df30 923e
00000320: 980e 49bf 579d 2c3f 56cd ba3e a53d 833e
00000330: b901 cebb e06d 893d 4fd7 23be 44e3 dcbe
00000340: a9a8 ce3d dc84 1fbe 9995 313e afd1 ce3e
00000350: bb04 d43e 1054 0a3f b729 193e 6f3b ff3d
00000360: 88ba df3e 0779 633e c081 823e 92d8 8abe
00000370: 634b 07bf 6916 2fbd c027 52bf 2d1e 883d
00000380: cc34 cf3d 81c5 19bf c017 b83e eb7b 8b3e
00000390: 7a27 683f 2424 9abd 3df7 313c 35e0 0c3e
000003a0: f060 eebe 67ec b93e 8a19 f9bd 0c23 aa3e
000003b0: 8776 f1be f2be af3d 07b1 d9be e937 9a3d
000003c0: 2413 ff3e 08c2 023e dc3d d33e 891f c83e
000003d0: 523f 60be f01f 5d3e 068a 6a3e 80db c8bd
000003e0: 2036 6dbe 9fd7 6dbe 1b8f ec3e 1678 683d
000003f0: f9e9 9a3d 297d e4be 52e5 d23e b8c2 6e3e
0.34238178 -0.28358945 -0.31697547 -0.10186854 -0.3905903 -0.5918328 0.2679304 0.29363617
-0.49766287 0.40607238 -0.37975767 0.61545116 -1.1263783 0.076166846 -0.17158519 0.061728887
0.123246536 -0.00735193 0.67811924 -0.2450203 -0.030853605 -0.19193959 0.26233858 -0.098366216
0.22173665 -0.16212043 0.7635461 0.16393648 0.179867 -0.30484784 0.18111852 0.11245065
0.5730672 -0.58736515 -0.30651087 -0.39322728 0.16349807 0.082252815 0.26767272 -0.1294113
0.22191352 -0.0640567 0.26593426 -0.32016423 -0.059446506 0.22777921 0.30647382 0.6040506
0.030082302 0.11172444 -0.06900327 0.12854804 0.34591836 -0.022973213 0.8621051 0.15897682
0.03261343 0.34144944 -0.2660547 0.29277286 -0.43051574 0.7332959 -0.15438496 -0.24479823
-0.1182127 0.26071894 0.36526304 0.45337668 0.15758587 -0.32381937 -0.113826774 -0.25841188
0.6118439 -0.24761829 0.08129924 -0.8609576 0.19702442 0.27503216 -0.42037863 0.30241182
0.18439178 0.7819267 0.49830094 -0.18845892 -0.18530165 0.08799451 -0.3765973 -0.31589147
-0.1012018 -0.40722603 0.042646635 0.17683807 -0.12083747 -0.050267212 0.15248707 -0.2903405
1.2764776 0.21198556 0.13168378 0.13038127 -0.30840334 -0.16916847 -0.60325927 -0.035547346
-0.2887028 0.43339792 -0.33583674 0.012933828 0.04333526 0.23903644 0.7938456 -0.06314884
0.30762386 0.4997524 -0.54082185 -0.29605928 -0.6468703 -0.69428056 0.021617929 -0.1634063
-0.052052114 -0.10234979 0.2508452 -0.09469904 1.4583391 0.3008177 -0.3332689 0.27771905
0.07455575 -0.42076543 -0.03462929 -0.8269173 0.25158972 0.12586975 -0.30685857 0.28225827
0.19554701 0.02619553 -0.110649504 0.118079506 0.33454984 -0.53702646 0.23781718 0.30545455
0.45586437 1.097042 -0.12564828 0.020258486 -0.34883636 0.5764849 -0.13802375 0.8459588
-0.07108989 -0.23875621 -0.060384184 -0.08085916 0.38021207 0.13090679 0.56009376 0.024703138
0.30276555 0.3198357 0.5257115 -0.6053062 0.25042585 -0.18239243 0.93578094 -0.30217463
-0.16970187 0.55698967 -0.19461362 -0.18242799 -0.40927726 -0.50346756 0.14299555 0.29943666
0.46395454 -0.54236466 0.2992863 -0.28715605 0.5206158 -0.2904503 -0.14701596 0.2634414
-0.26301658 -0.21605434 -0.37818205 -0.9269374 0.091619484 -0.229148 0.3768097 -0.2989854
0.20280634 -0.28295004 0.48339146 0.17950854 -0.22318125 0.30258477 -0.49100247 0.2855291
-0.78537893 0.6742758 0.36484784 0.2563297 -0.0062868265 0.0671041 -0.16000102 -0.4314214
0.10090763 -0.15578026 0.17342223 0.4039435 0.4140986 0.5403452 0.14957319 0.12462508
0.43697 0.22214137 0.25489616 -0.27118355 -0.52849406 -0.04274598 -0.82091904 0.066463806
0.10117492 -0.6006699 0.3595562 0.2724298 0.90685236 -0.075264245 0.010862169 0.13757403
-0.46558332 0.36313173 -0.12163074 0.33229864 -0.47160742 0.08581342 -0.42517874 0.07530195
0.4981929 0.1276933 0.41258132 0.3908656 -0.21899155 0.21594214 0.22904214 -0.09807491
-0.23165178 -0.23226784 0.4620293 0.056755148 0.07564158 -0.4462674 0.41190583 0.23316467

actor.0.bias f4 [64]
00000000: 2d08 be3e 8958 ea3d 5188 f63b 9df6 61be
00000010: 0ab9 523e c573 a13b 9c70 92bd 5a84 d1be
00000020: 4eed 42be 37f2 1c3d 4280 9fbd e274 dfbd
00000030: 91bc e53e f195 8bbe 7394 c03e eae2 dabd
00000040: 002d 4d3e 71e5 58be 4e91 163e cbbb 86be
00000050: 58d0 80be 52d5 733d 586e eabe d442 87be
00000060: ff8e d4bc b27d 8fbe a068 463e 403d 24be
00000070: f6dc 2bbe 680f 503c b648 cf3e 6532 a63e
00000080: 0d37 98bd de52 5f3e 955f 87be 57dd c9bd
00000090: 5cd0 a2be 18a5 cdbe df0b 383e e9b6 9abc
000000a0: a714 c0be 43e0 153d 4cc8 cd3d b501 20be
000000b0: 1c5b 283d c9c5 843e d6a0 ca3e d27f afbe
000000c0: 0587 663d d9fd 5abd 43d4 24bc 473a 953e
000000d0: 7bfa a23d dfb3 40be b8dd 8a3e 56b4 9ebc
000000e0: 6a54 a93e 30df d33e 4351 adbe 68f0 723c
000000f0: 7353 ce3c a82f d4be 50fe c13d b02d 82be
0.37115613 0.11442668 0.0075235744 -0.22066732 0.205784 0.004927131 -0.07150385 -0.4092129
-0.19035837 0.03831693 -0.07788135 -0.109109655 0.44870427 -0.27262834 0.37613258 -0.10687812
0.20036697 -0.21181275 0.14703867 -0.2631515 -0.25158954 0.05952961 -0.4578731 -0.26418173
-0.025947092 -0.28025585 0.19375849 -0.1603899 -0.16783509 0.012698986 0.40485162 0.32460323
-0.07432375 0.21808955 -0.2644011 -0.0985667 -0.3179959 -0.4016502 0.17973278 -0.018886046
-0.37515756 0.036590826 0.10047969 -0.15625651 0.041102514 0.25932148 0.39575833 -0.34277207
0.05628111 -0.053464744 -0.010060373 0.29146025 0.079579316 -0.18818615 0.27122283 -0.0193731
0.33072215 0.41381216 -0.3385106 0.014827825 0.025186276 -0.4144261 0.094723344 -0.25425482

actor.2.weight f4 [64, 64]
00000000: a78d 3e3e 7750 033f 63ac 99bd c638 e8bd
00000010: caac 6bbc aaeb 0fbe cd2c 24be ebcd d0be
00000020: 019c 72be 52a8 86be 6d6d b43e 83c6 d7be
00000030: fc4d eb3d 7f8e e6be 50ee ed3d 51f9 6fbe
00000040: bd59 013f e27c 02bf c66e cc3e b9fe 85bd
00000050: d36c 61bf 9758 143e 20a8 46be 8aa0 cdbe
00000060: fd71 f73e d65a 56be b81a a93e d631 6cbe
00000070: 855a 54be 53ca d83b 3579 623d c82b 2e3f
00000080: 7bf8 c6be 6298 0b3d 79a1 b9bd 89c0 2c3e
00000090: d129 bbbe c99c e3bd 6c48 c13e c628 293e
000000a0: 48c5 46bd 18e0 36bd 2487 8f3e c7cf fe3d
000000b0: 2800 77bd 20ba 983e 4a29 413f 21a2 65be
000000c0: b848 903c fb56 b53d 01e3 42be 4922 603e
000000d0: 8f8e f2bd 5aa3 48be f423 993e 2267 9dbe
000000e0: c0ce bf3e aedb 083f c7db a1be 5e41 023d
000000f0: 352e 953d 4982 b6be 0714 663e 1009 a9be
00000100: e5ae ddbb c992 953e 6992 49bd fb6a 9c3b
00000110: 45ee 443e 0d89 933d c849 103e 58ba 933e
00000120: f520 b6bd e248 873e 656b c23e ef67 e53e
00000130: a932 b8be 1fbb 153e 9adb c7be e219 f43d
00000140: cbac 41bf 2cc4 073e a765 79bd 3595 913e
00000150: 1bf5 463f 1f41 d93e 1c7f f43e a132 a3be
00000160: a76b 94be fbe7 8fbe 5403 61be aff3 90be
00000170: 7699 79be 52f7 1dbd 8a4f b9bc bf46 e1be
00000180: 247e 4a3f e3fb c23d 3eda 8c3e e12e 15bd
00000190: cfc3 4b3f bbc0 5abd 5800 423d 9d06 0a3f
000001a0: 1cca a33e 52eb 30bb 6fdf 8abb 2859 103f
000001b0: f04c ea3d db71 04be ac9e 80be c627 20bd
000001c0: 77fb a43e fa96 e63d 3b36 ee3e 1939 163e
000001d0: 0c94 78bc da6f 2fbe 82b0 f8be 1c3b 88be
000001e0: dd5d 76bd af98 2fbf 3a21 783e e2aa ca3d
000001f0: 703a a03e fe6e 5cbe 532d 093d a2c9 9fbd
00000200: 10ff 9a3d c4f6 543e bec9 c93c 4449 61bd
00000210: 8fc0 3a3e 371e a03d 1461 e6bd bcd8 47be
00000220: 9996 48be 5cf1 ba3d 997d 513e 22e4 87bd
00000230: bf2e 47bc 6f96 c4be a51e a33b 8b25 abbd
00000240: da9b b53c 9000 e0be bd1b 093e 998d f0bd
00000250: 70ff 8dbe fd95 f13d ae71 60be 4efa 92be
00000260: b631 063e 3dac 69be 3506 1b3e 0e5b fabc
00000270: f769 86be 59fb 05be 6f67 463e 767c a83e
00000280: d500 853e 0ac7 0f3e 21f9 81bd 4ef7 41be
00000290: 6a03 93bd 8b6b 32be c72b 9c3e 1f28 ab3e
000002a0: d4c3 433d 591a 82bd 209b df3c 58c2 b23d
000002b0: 285d 20bd b096 a43e a481 e33e a5ff d5be
000002c0: 1eac 38bb 2082 cbbd 0481 f53d 58cd 8d3e
000002d0: d439 08be f44d 7dbe 05f4 563e de44 00be
000002e0: 12a8 703e 8d22 1c3e c271 8cbe 3059 a33d
000002f0: 61b6 c23c 1f42 06bf 877b 073e 76d3 98be
00000300: 399f a8bd ca85 e43e f017 863d c72c f3bd
00000310: 6bd8 8e3e 3724 443e a6da 603e 6330 253d
00000320: b9ae 9fbe b662 173e 5eda bf3e cbe5 193f
00000330: 7e5a 7fbe a15c 5ebd e3bb 91be f341 a63d
00000340: 4ae0 43bf a476 513c cc01 7ebe f096 ca3e
00000350: e829 483f d624 163f c727 b03e df09 f5be
00000360: 7d43 fbbe ffa8 e8be 9cd5 78be 87d6 a7be
00000370: a891 91be e513 02bd f20c 363e e0aa bbbe
00000380: b695 733f c509 603e a89f e53d fa1c 27be
00000390: 6bb0 5c3f bcf2 28be 8441 843e a5f9 833f
000003a0: 81d1 c03e a21b 643e a876 83bc af18 263f
000003b0: 0893 963e e5e3 8dbd 27a5 5ebd a533 f5be
000003c0: 7882 a23e 8d58 d53c 9105 fb3e edad 863e
000003d0: 9186 983d 1773 9cbe 1961 cdbe 8b35 9abe
000003e0: 9a50 58bc 3fba 1dbf 542a 3b3e afdf 313b
000003f0: 84cf c93e 0034 01bf 66c4 543e d11e b1be
0.18608724 0.51294655 -0.07503583 -0.11338954 -0.014384458 -0.14054742 -0.16032715 -0.40782103
-0.23692323 -0.26300293 0.35239735 -0.4214364 0.11489484 -0.4503059 0.1161772 -0.2343495
0.50527555 -0.50971806 0.39928263 -0.06542725 -0.8805668 0.1448692 -0.19400072 -0.40161544
0.48329154 -0.20933089 0.33028197 -0.23065886 -0.20737655 0.006615916 0.055291373 0.68035555
-0.3886145 0.03408087 -0.090640016 0.16870321 -0.3655534 -0.11113889 0.37750566 0.1651946
-0.048527986 -0.044647306 0.28032792 0.12441974 -0.060302883 0.29829502 0.7545363 -0.22425129
0.0176128 0.08854481 -0.19031908 0.21888079 -0.11843597 -0.19593564 0.29910243 -0.30742747
0.37462425 0.53460205 -0.3161299 0.03180062 0.07284204 -0.35646275 0.22468577 -0.33014727
-0.006765234 0.2921355 -0.049211893 0.0047734953 0.19231518 0.07203875 0.14090645 0.28853106
-0.08893005 0.26422793 0.3797256 0.44805858 -0.3597615 0.14622162 -0.3903473 0.11918999
-0.75654286 0.13258427 -0.06088796 0.28434148 0.7771775 0.42432496 0.47753227 -0.31874564
-0.28988382 -0.28106675 -0.21973926 -0.28310916 -0.24374947 -0.03856594 -0.022620935 -0.43999287
0.79098725 0.095207 0.27510256 -0.03642166 0.79595655 -0.05340646 0.04736361 0.5391634
0.31990135 -0.002699573 -0.004238061 0.5638604 0.11440456 -0.12934057 -0.25121057 -0.03910043
0.32223102 0.11259265 0.4652575 0.14670219 -0.015172016 -0.17132512 -0.48572165 -0.26607597
-0.06014811 -0.6859235 0.24231425 0.098958746 0.31294584 -0.21526715 0.03349049 -0.0780213
0.075681806 0.20797259 0.024632331 -0.055001512 0.18237518 0.07818263 -0.11248985 -0.19516271
-0.19588698 0.09128067 0.20458068 -0.0663531 -0.012157141 -0.38396022 0.0049780183 -0.0835677
0.022169042 -0.4375043 0.13389488 -0.117457576 -0.27733946 0.11796186 -0.21918365 -0.28706592
0.131049 -0.2281961 0.15139087 -0.030560996 -0.2625272 -0.13084163 0.19375394 0.32907456
0.25977197 0.14040771 -0.06346346 -0.18941996 -0.071783856 -0.17423837 0.3050215 0.33429047
0.047794178 -0.06352682 0.027295649 0.087284744 -0.03915134 0.32146215 0.44434845 -0.41796604
-0.0028178762 -0.09936929 0.119874984 0.27695727 -0.1330331 -0.24736768 0.20991524 -0.12526271
0.23501614 0.15247555 -0.2743054 0.079759955 0.023768606 -0.5244464 0.13230716 -0.29848832
-0.08233494 0.44633323 0.065475345 -0.11873775 0.2789949 0.1915444 0.21958408 0.04032935
-0.3118799 0.14783749 0.37471288 0.6011626 -0.24936864 -0.054287557 -0.2846366 0.081180476
-0.7651411 0.012784634 -0.24805373 0.3956828 0.78188944 0.5864996 0.34405348 -0.47859094
-0.49074927 -0.45441434 -0.24300236 -0.3278086 -0.2843144 -0.031757254 0.17778376 -0.36653805
0.95150316 0.21878727 0.11212093 -0.16319647 0.8620669 -0.16498846 0.25831234 1.031056
0.3765984 0.22276166 -0.01604779 0.64881414 0.2940905 -0.06928233 -0.05435672 -0.47890964
0.31740165 0.0260432 0.49027684 0.2630457 0.074475415 -0.30556557 -0.40113142 -0.30118975
-0.013202811 -0.61612314 0.18277866 0.0027141382 0.39416134 -0.5046997 0.20778045 -0.34593824

actor.2.bias f4 [64]
00000000: 4f38 b23b 09cc c73c f295 573e 8090 66b5
00000010: 3085 9fbd 81ee cdbe 95bd 79bc eb50 5dbe
00000020: 653f 4d3c 0b5c 4dbe 506f d23e 15ea 143d
00000030: 9e3c b2be b591 d6bd 2ba0 203b 4e54 52be
00000040: 88d7 933c f0ec babe 5fa0 0ebe bb4c b93e
00000050: 29e9 ab3d f815 1abe 8f23 8c3d c72b c3bd
00000060: 3939 093e 760b 19be 90dd ca3c 2066 003e
00000070: b7db aebd 2eb9 f9bd 28af 863c e187 34be
00000080: a597 323e 1a89 a53e e990 943e fcb4 c83c
00000090: 1e54 02be 1266 c43e c498 d63d f793 5b3e
000000a0: d930 753e 6089 2d3e 15f6 95bd 9873 a93e
000000b0: 0334 2ebe 7040 b93e 9378 9fbd 6d9a 27bc
000000c0: ae89 aa3e a3e4 db3b 0124 ea3d c53c e0bb
000000d0: 6f7b d0bd c9d5 8fbd dba7 273e 5aae 6ebe
000000e0: 3b52 723d cc65 3cbe 61f1 3dbc 8236 07be
000000f0: 9506 60bd 80c6 7e3c 34b4 a0be 45b3 413e
0.0054388414 0.024389284 0.21053293 -8.589195e-07 -0.077890754 -0.40221027 -0.015242954 -0.21612899
0.012527321 -0.20054643 0.4110055 0.03635605 -0.34811872 -0.1047701 0.002450953 -0.20539972
0.01804711 -0.36508894 -0.13928364 0.36191353 0.08394081 -0.15047443 0.0684272 -0.09529834
0.13400735 -0.14945778 0.024763852 0.12538958 -0.08538001 -0.12193523 0.016440943 -0.17629959
0.1744066 0.32331163 0.29016808 0.024500363 -0.127274 0.38359123 0.104783565 0.21443163
0.23944415 0.16946936 -0.07322327 0.33096004 -0.17012028 0.36181974 -0.077866696 -0.010229689
0.33308166 0.006710605 0.114326485 -0.006843182 -0.10179793 -0.07023198 0.16372626 -0.23308697
0.059160452 -0.18398207 -0.011593194 -0.13204387 -0.054693777 0.015550256 -0.31387484 0.18916042

actor.4.weight f4 [9, 64]
00000000: fcf6 7dbe 349a d1be 820f 12bf ab0d 41bf
00000010: d48c 03bf c5a5 0dbe 6276 e1be eac7 6f3e
00000020: 5abf a7bd edd0 8f3f 2bf2 6bbf 1f4c 10bf
00000030: 0622 57bd 19e7 85bd 435c 78bc 01d5 1d3f
00000040: a624 1f3f 00d8 313e cb1a 8e3d 7940 93bf
00000050: 197f 1bbf 4e5e 073f 7b3c 0e3f a942 bfbe
00000060: 29e6 eabe dd6c b43e 6c5c 4c3e e34a 2cbc
00000070: 5b76 3d3e f009 92be cc37 c53e 3e4c dc3d
00000080: bdc2 8c3e f8dd 7b3e 201d 6bbf 9f2b 2c3c
00000090: 7df3 e63e 1fb5 67be 07dc 3a3e 8143 373e
000000a0: 76c6 b4bd 075a 893e 4d58 383e e907 8abe
000000b0: 0a9c 733e 29c0 9fbf 3f5c b0bd 2776 a03e
000000c0: 0842 723e 264f 183e 093c d7be 0386 b43d
000000d0: 4bf6 253e d815 453d e901 65bf d567 97be
000000e0: 8868 3d3e ce28 113f bdd0 edbd 015f 473e
000000f0: 0f1a 48be 2125 8bbe 4327 5bbe f533 e73e
00000100: 0e5e 993e 1848 39bd 8f04 093e 6b04 f6bc
00000110: d991 70bd 9392 0dbe ddd4 113d ccd9 99be
00000120: fbd7 7c3e de86 bebc c30f 253d bf77 5fbb
00000130: 2482 c4bb 2e16 a53d 688e e73d a3ce 81bd
00000140: 3bab b33d 5c06 273e bce5 163d 732b 623d
00000150: e084 6f3d de0b cbbd a1bf 313e 19b7 003e
00000160: 816d 8f3e a07c 88be d51a 8cbe dced 38bd
00000170: 6868 943c a945 02bd d40d 69ba 72a3 3a3e
00000180: ec4d 6d3d fd66 1b3e 7ded 0d3d 50c4 e13e
00000190: af4f c6be b348 2cbe 0628 723d f4d0 473e
000001a0: b899 e73d 3756 623d 4504 88be 63b7 0b3d
000001b0: 9b72 2cbe a3ba cebc 6e62 ddbd d84a 6ebe
000001c0: 4603 143e c362 043c e843 ac3d 8a3c f8bd
000001d0: 2c81 67be 99b1 913d 336d 283d 8b34 ccbd
000001e0: f270 5bbd 96df 5cbe 1ca9 b53d 0ec8 babe
000001f0: 2946 1b3e a9bf 863e 9f99 2dbe 0baf 97bd
00000200: f21d bd3e 0d50 cbbd d907 ef3d a866 7fbd
00000210: 2bc1 583d f22a 09be b3ac 323d 6337 c5be
00000220: a904 eb3e 4217 f6b9 00b0 e0bd 09ce 0ebd
00000230: ff49 08bc e37d cc3e c211 8f3e 268a d6bb
00000240: 934b 76bc 4055 683e 5376 163e f586 bcbd
00000250: 2ff8 4d3c 2b8a 12be b6fe 9dbb 748c 5d3e
00000260: 5d60 db3d 32a4 c2be 193c babe 4adb 81be
00000270: 751f 853d 183c 83be 4953 bcbc 0d74 753e
00000280: 3daf 6b3c 59ff 4d3d 95e8 94bd 5fc1 9f3e
00000290: 69ab 8abe a833 3dbe 1d84 7a3e 81b2 ce3d
000002a0: 7669 e8bc f897 b83d 627a 31be 1c76 0cbe
000002b0: 0c9f 83be fc5f 15bd 1d93 0bbe 8e7e d6be
000002c0: 01f2 1d3e ecd7 893d 05f7 a63c 1965 5abe
000002d0: 9df2 a5be c4ce ef3d 9f25 39bb 48b0 f3bd
000002e0: 717c 49be 23e2 ecbd d2a3 483e 846f b5be
000002f0: aaae dd3e 9c6d ca3e 0878 513b 2629 0bbd
00000300: d297 13be 2d28 8b3d 9a6e cc3c ad85 903d
00000310: 1480 e83d 6518 75be 6a22 47be 1f0a e13d
00000320: ef97 0bbe 946e 89be 3496 1e3e cf6e d03b
00000330: 3c7e 6cbe 7e26 24be 6f84 e0bd ee69 bcbe
00000340: 5e81 ebbd 27b7 bcbe 309b 94be b013 353e
00000350: 1919 123e 2d4d 07be e9ec 853c 3d54 98bd
00000360: 9a91 eeba 8bb6 b2bb 0340 933d 9f56 923e
00000370: 2dd5 85be de35 33be 0ba1 203e adbb 45be
00000380: 3b70 8b3e 7935 b03d cef7 9f3e 4fab 02bd
00000390: 6db1 183c 131f af3e 341f ec3d ab51 053e
000003a0: a335 a93d 07d4 6d3e 2870 7e3d 1054 ad3e
000003b0: 79ff 893d 599e 113e f28e bd3e ddce be3c
000003c0: 7f9d 583e b59c 1d3e 1279 a73e f675 263e
000003d0: c6de 1b3d 2dcc 8bbe f52b ac3d fed6 5dbe
000003e0: 9b15 7f3e 5560 2f3d b9be ffbd 7178 0fbd
000003f0: 857a 143d 47fe 593b 551e 03be 5743 6d3d
-0.24801248 -0.4093796 -0.57054913 -0.7541148 -0.5138676 -0.13832767 -0.4403563 0.23416105
-0.08190794 1.1235634 -0.92166394 -0.5636615 -0.05252268 -0.06538219 -0.015158716 0.61653143
0.62165296 0.17367554 0.06938704 -1.150405 -0.6074081 0.5287827 0.55561036 -0.37355545
-0.45878723 0.35239306 0.19957131 -0.010515901 0.1850218 -0.28523207 0.38519132 0.107567295
0.27492324 0.24596393 -0.91841316 0.010508447 0.45107642 -0.22627686 0.18247996 0.17896844
-0.08826916 0.26826498 0.18002434 -0.2695916 0.23789993 -1.2480518 -0.086113445 0.31340143
0.23658001 0.14873943 -0.4203799 0.08814623 0.16207235 0.048116535 -0.8945604 -0.29571405
0.18496907 0.5670289 -0.11612079 0.19469835 -0.1954119 -0.27176765 -0.21401696 0.45156828
0.2995457 -0.04523477 0.13380645 -0.030031404 -0.05873284 -0.13825445 0.035603393 -0.30048978
0.24691765 -0.023257669 0.040298235 -0.0034098474 -0.0059969593 0.08060871 0.11306459 -0.06338241
0.08772894 0.1631102 0.036840186 0.055217218 0.05847633 -0.09914373 0.17358257 0.12569846
0.28013232 -0.2665758 -0.2736422 -0.045148715 0.018116191 -0.031804714 -0.0008890305 0.18226412
0.05793564 0.15176006 0.034650315 0.44095087 -0.3873267 -0.16824608 0.0591202 0.19513303
0.113086164 0.055258002 -0.26565757 0.034110438 -0.16840594 -0.02523548 -0.108097896 -0.23270738
0.14454374 0.008080187 0.084113896 -0.12120922 -0.22607869 0.07113952 0.041119765 -0.09970959
-0.05357451 -0.21569666 0.08870146 -0.36480755 0.15163483 0.263181 -0.16953133 -0.07406434
0.3693691 -0.09927378 0.11671419 -0.06235376 0.052918594 -0.13395289 0.04362173 -0.3851882
0.45901993 -0.00046938105 -0.10971069 -0.03486446 -0.008318423 0.39939794 0.27943236 -0.0065472303
-0.015032667 0.2268877 0.14693575 -0.092054285 0.012571379 -0.1431052 -0.0048216237 0.2163561
0.10711739 -0.38015896 -0.36373976 -0.25362617 0.065001406 -0.25631785 -0.022988932 0.23970051
0.014385042 0.050292347 -0.07270924 0.31202218 -0.270839 -0.18476737 0.2446446 0.10092641
-0.0283706 0.09013361 -0.17331842 -0.1371693 -0.2570728 -0.03646849 -0.13630338 -0.4189343
0.15424348 0.06730637 0.02038146 -0.21327628 -0.32411662 0.11709359 -0.0028251184 -0.11898857
-0.19676377 -0.1156657 0.19593742 -0.35436642 0.4329732 0.3953675 0.0031962413 -0.03397479
-0.14413384 0.06794772 0.024955083 0.07056747 0.11352554 -0.23935087 -0.19446722 0.109882586
-0.13632177 -0.26842177 0.15486985 0.0063608657 -0.2309503 -0.16030309 -0.1096276 -0.36799568
-0.11499284 -0.36858484 -0.2902465 0.17683291 0.14267386 -0.13213034 0.01634832 -0.07437942
-0.0018201352 -0.0054538897 0.07189944 0.28581712 -0.26139203 -0.17501017 0.15686433 -0.19309874
0.27234063 0.08603949 0.31243747 -0.031901654 0.009319645 0.34203395 0.11529389 0.13019435
0.082621835 0.23225413 0.06211868 0.33853197 0.06738181 0.14220561 0.3702312 0.023292
0.2115383 0.1539181 0.32709557 0.16255936 0.03805425 -0.2730421 0.08406822 -0.21664044
0.24910586 0.04281648 -0.12487549 -0.03502697 0.036249656 0.0033263133 -0.1280454 0.05792555

actor.4.bias f4 [9]
00000000: cb5b 7bbe a67a 8b3c 9873 3dbe b15e d63e
00000010: 447d 933e 90f3 90bc 990e a43e b124 9fbc
00000020: 1775 53be
-0.24546735 0.017026257 -0.18501127 0.4186912 0.28806508 -0.017694265 0.32042387 -0.019426676
-0.20650135

critic.0.weight f4 [64, 7]
00000000: a084 953d c7fb 0ebe beef 5a3e 5b2b b3be
00000010: 0a89 3fbe 2898 cb3f 3cac a4bc 7513 34bd
00000020: 23e4 febd 8786 01be a0fa 52bc afb7 a6be
00000030: ed38 3340 874e 86be 4664 f2bd bf97 50be
00000040: c5d2 0cbe b2d0 b9bd 166d b9be bdc9 2040
00000050: ec24 1cbe 9dd5 5bbe 39ca 553e 9038 4bbe
00000060: 7bec 093f e90c f93e 9ca4 a8ba cf14 e13c
00000070: ef74 88bd 85e7 1b3d c957 b3be be94 c33d
00000080: 1fe4 013f 1b0f 1540 8a92 64bd 29b0 41bd
00000090: 3a72 80bc 02da 553e 94b3 6bbe d7a3 eb3d
000000a0: 1b07 2540 65c1 9fbd b452 e13b f005 1ebd
000000b0: 3113 2cbe b144 423e 2e5d 8dbe 5bc7 16c0
000000c0: dc18 353d dc7a 7e3d 01d9 193e 0a77 79bd
000000d0: 686e 2b3e 6685 df3e 62a6 26c0 11af 72be
000000e0: 6fe8 f8bd 4668 373c 258d 6fbe 6fc2 0c3f
000000f0: 5cda 0ebf 004a e4bf 0dc4 8c3e d982 833e
00000100: ada5 ab3e ad5b db3d b2b7 77be 58f6 fbbd
00000110: 7eb3 dc3f 93ea 83be f7e7 27bd 2fe1 73be
00000120: db34 563e 2bc4 d43e e1e8 b3bc c926 e6bf
00000130: 12c2 d53d 07cc 00bd 74dd 413e 445e a4be
00000140: db9f 063e 48c6 4dbf 43e4 1dc0 0d93 de3d
00000150: 8ddc 69be 63c9 d4bd 188d 65bc 3a0b 3b3e
00000160: 26ca cdbe 3b9d 25c0 19c4 7f3e e61d c43c
00000170: ec04 17be a679 193e 8de9 5cbe 4bc2 65be
00000180: 51bb 4040 8e19 7e3e 9ca9 01b7 65c8 813c
00000190: 9beb 84be 4eb8 3f3e 1296 42bf 26e4 1ebf
000001a0: b654 c83e 9fd2 89be fdad 213d a772 393c
000001b0: a4b8 9cbe 3b64 0d3f 97fe f8bf 5c95 75be
000001c0: 067b 933c df26 e8bb c300 3ebe 35d0 8cbe
000001d0: dc63 ba3e 929b 1cc0 cd47 59be 7c0a e83d
000001e0: f941 6dbd d9a7 77bd f73f 833e 2dce 543d
000001f0: 707d 20c0 54cf 30be f0ca f83d 260b 313d
00000200: 6c55 343e 8fde 9bbc f947 93bd 6acb aabf
00000210: c5f0 f7be 07ed 4fbe c6fc 533c 9d84 88bd
00000220: daeb fabd 6a1b 913e 3981 11c0 1111 21be
00000230: 7d7c 90be 4144 ab3c 872a 6f3e 9f16 cc3e
00000240: fbf0 bb3e f716 23c0 0508 003e 18cd febd
00000250: 9c78 13bc 1cce 643e acdd c1bd d327 05bf
00000260: 96e6 26c0 c821 843d 9d5d d7bd 978a c03d
00000270: b211 55be 2713 483f c286 6d3e 69ad e73d
00000280: 6460 f1bd 3550 1fbe 8056 acbe e6c2 2fbe
00000290: a8a2 8ebe 74eb 003f 40f1 dc3f 82ca 313e
000002a0: 04f2 633d 42ce 333e bd80 b1be 05a6 b8be
000002b0: 5309 0bbe de43 e2be 00f6 b73d bef1 4cbc
000002c0: a92e 1f3c 7718 023e 1812 ac3d 77ca c03e
000002d0: 8717 3cc0 e08c 46bb ce10 89bd a82e 813c
000002e0: 4101 003e a8e7 f03e 76c3 e63e 75d0 0bc0
000002f0: 4d37 75be 7fec 69bd ba7f de3d 89a9 66be
00000300: 1114 0c3f 9fdd e13e 0627 bb3f 0cc4 e0bc
00000310: cc03 f5bd f4a1 1e3c 0cf8 29be ce0f 943e
00000320: 0a8a ae3e 0a00 f93f 20fb 123e 6ecb debd
00000330: d67a 3dbe a8f3 2c3e b28c aabd 574a a8be
00000340: dce8 25c0 c27a b1bd ab46 513d d657 dd3d
00000350: 6532 0d3f 21f3 353e 3c0d 8f3e 9c1b 1ec0
00000360: 54dc c43d 5031 89bc 856c 9fbd 101f 1d3e
00000370: cbb7 e73e 596e d43e 2e1a f5bf b68c fdbd
00000380: 77cf 58be 4cb8 37bc 3ca1 3cbd 0af5 8dbd
00000390: 024e c5bd be8f b73f 523c 92be da20 a23e
000003a0: f09f 76be c1a1 14be b05a 9dbe 8fe6 8ebd
000003b0: ea0b 0dc0 5516 353e 8404 2e3e b3e0 45bd
000003c0: 9692 1ebd 630a 653e fa09 8abf 2479 9dbc
000003d0: 005d ea3c 6fd5 783e d8be 663e ac33 42bc
000003e0: c55a 953d 4890 92be 4f90 3640 ef75 63be
000003f0: 8ee5 393e 8d8c 5d3d 861d 7cbe 1d1c 293e
0.07300687 -0.13963233 0.21380517 -0.34994015 -0.1870462 1.5905809 -0.020101659 -0.04396387
-0.124458574 -0.12648974 -0.0128771365 -0.32562014 2.8003495 -0.26231787 -0.11835532 -0.20370387
-0.13752277 -0.090730086 -0.36216038 2.5123131 -0.1524846 -0.21468206 0.20877923 -0.19845796
0.53876466 0.48642662 -0.001286644 0.027475743 -0.06662928 0.03806259 -0.35027912 0.09549855
0.5073871 2.329047 -0.055803813 -0.04728714 -0.015679467 0.20883945 -0.23017722 0.11505859
2.5785587 -0.07800559 0.006876314 -0.03857988 -0.16804196 0.18971516 -0.27610153 -2.3559177
0.04421316 0.062128887 0.15024187 -0.06090454 0.16741335 0.43656462 -2.6039052 -0.23699595
-0.12153708 0.011194294 -0.23393686 0.5498418 -0.5580194 -1.7835083 0.27493325 0.25685766
0.33524838 0.10710845 -0.24191168 -0.12302846 1.7242277 -0.25764903 -0.040992703 -0.2381637
0.209186 0.41555914 -0.021961631 -1.7980586 0.104374066 -0.031444576 0.18932134 -0.3210317
0.13146918 -0.8038068 -2.467057 0.108678915 -0.2283804 -0.10389974 -0.01401069 0.18266001
-0.4019329 -2.5877216 0.24977149 0.023940038 -0.14747971 0.14987811 -0.21573468 -0.22437398
3.011433 0.24814436 -7.728489e-06 0.015842626 -0.25961003 0.1872265 -0.7601024 -0.62066877
0.3912713 -0.26918504 0.03947257 0.011318839 -0.3060962 0.55231065 -1.9452695 -0.23982757
0.018002998 -0.007084712 -0.18554978 -0.275026 0.36404312 -2.4469953 -0.21218796 0.11330125
-0.057924245 -0.060462806 0.2563474 0.051954437 -2.507656 -0.1726659 0.12148082 0.043223523
0.17610711 -0.019027023 -0.07191462 -1.3343327 -0.4842588 -0.20305263 0.012938684 -0.06665919
-0.12252016 0.28341228 -2.2735121 -0.15729167 -0.28219977 0.02090657 0.23356067 0.3986101
0.3670729 -2.5482767 0.12503059 -0.12441462 -0.0090009235 0.2234425 -0.09466109 -0.5201389
-2.6078238 0.06451756 -0.10515902 0.09401434 -0.20807531 0.78154224 0.23195937 0.11312372
-0.11785963 -0.1555794 -0.33659744 -0.17164192 -0.27858472 0.5035927 1.7261124 0.17362407
0.055650726 0.1755915 -0.34668532 -0.36064163 -0.13577776 -0.44192404 0.08982468 -0.012508808
0.0097157145 0.12704645 0.084018886 0.37654468 -2.938936 -0.003029637 -0.06692658 0.015769318
0.12500478 0.4705174 0.45071 -2.1845982 -0.23946877 -0.057110306 0.10864206 -0.2252561
0.5471812 0.44114396 1.4621284 -0.027437232 -0.11963615 0.009682167 -0.16598529 0.28918308
0.3408969 1.9453137 0.14353609 -0.10878645 -0.1850389 0.16889822 -0.08327617 -0.32869217
-2.5923376 -0.08665992 0.051092785 0.10807769 0.5515502 0.17768528 0.27939785 -2.4704351
0.09612337 -0.016747147 -0.0778437 0.1534388 0.4525741 0.4149044 -1.9148614 -0.12380354
-0.21172892 -0.011213373 -0.046052203 -0.06931503 -0.096340194 1.4340742 -0.28561646 0.3166569
-0.24084449 -0.14514829 -0.30733252 -0.06977569 -2.2038522 0.176843 0.1699391 -0.048309993
-0.038714014 0.22367243 -1.0784295 -0.019222803 0.028608799 0.24300168 0.22533739 -0.01185314
0.072927035 -0.28625703 2.852558 -0.22212957 0.18153974 0.054089118 -0.24620637 0.1651463

critic.0.bias f4 [64]
00000000: cf18 f03d bb4f 7e3e 666c 67bd 71c9 d1be
00000010: 6312 ce3d 7abb a9bd f22b 30bd 7771 05be
00000020: f320 f4be 3ac6 1839 85ab ccbe 3620 98bd
00000030: 9c97 57be db15 6dbe d298 9bbe ea50 df3e
00000040: b7dc c63e bdff 5cbe 7f5a cf3e d521 a33e
00000050: 464e cbbe 2429 b13d 421e cbbd 96a8 a53e
00000060: ec69 40bd 92c9 ed3d baea a7be dda1 30be
00000070: e7b7 4bbe ce02 b33d 6270 b8bd 3259 e5be
00000080: 273f ac3d 387a 203e 3b6c 19be 6a34 b3bd
00000090: 65ce 7cbe 4e31 f53d 022d a33e 43cf cb3e
000000a0: d5e7 dfbe ffc0 0b3e ba67 213e ae5f ebbd
000000b0: d4d6 6d3e 680a de3e cfb7 4bbe 0b7a 243e
000000c0: e3e6 a43e a297 473e 1538 65bc 8ac6 a8be
000000d0: 6949 0ebe 6d5a 213e f766 623c bb64 79be
000000e0: 0439 eb3d 1917 eebd d23e 863e 6a72 97be
000000f0: 7ea1 a53e 3cd3 1ebe 2945 65bc c19e 81bd
0.11723482 0.24835102 -0.05649986 -0.40974 0.10062101 -0.082877114 -0.04301066 -0.13031565
-0.47681388 0.00014569695 -0.3997461 -0.07428019 -0.21053928 -0.23152868 -0.3039003 0.4361642
0.38840267 -0.21581931 0.4049873 0.3186175 -0.39708155 0.08650425 -0.099178806 0.32355183
-0.046976015 0.11610712 -0.3279627 -0.17249246 -0.19894372 0.08740769 -0.0900581 -0.44794613
0.08410483 0.15671623 -0.14982693 -0.087502316 -0.24688108 0.11972295 0.31870276 0.39806566
-0.4373156 0.13647841 0.15762225 -0.11492859 0.23226482 0.43367314 -0.19894336 0.1606218
0.32207403 0.19491437 -0.013990422 -0.32963973 -0.13895191 0.15757151 0.013818494 -0.24354832
0.11485484 -0.11625499 0.26219803 -0.29579479 0.3234977 -0.15510267 -0.01399354 -0.06329108

critic.2.weight f4 [64, 64]
00000000: a38e a1bd f1c3 0cbe 2199 323c f861 0abc
00000010: 9249 5d3c 44f3 51bb fe62 54be ac75 133e
00000020: e3e9 d1bd 6361 e83c 7127 cdbd b559 86bc
00000030: 255d 0bbe 8d8b 1abc 79b0 903d 0387 293d
00000040: 41dd 123d f6d7 493c 1713 94bd 5e76 56be
00000050: d44c d8bc 763f fabd 96d7 ea3d 0a5f 06be
00000060: 1b81 e1bd 4451 1cbd d924 e8bd d5d2 e23d
00000070: 0f12 75bd db43 a53d b44f 303e 3de2 8a3d
00000080: 5d48 70bd 0212 05be 43d9 95bd b126 22bd
00000090: a291 1abd 53df c8bd b9df 003e a3ba 353e
000000a0: aec1 623d e1ab 3bbe e29a 07be 7f04 a53d
000000b0: 6cf8 153d faac 04bc cfd2 523e ddf8 b43e
000000c0: 329f 67bc 09d1 c13d ca3c 343d df40 93bd
000000d0: dcd2 a5bd 78ba bd3d 6fac e1bc 1ae6 443d
000000e0: d078 be3d e019 8abc 3e98 d7bc 4325 94bd
000000f0: c385 86bd 4d00 ba3d 27c3 b03d 6384 8e3c
00000100: 3fd9 ce3d fdbf 533d 48e1 12bd 35bd 4a3d
00000110: 3f44 c83d 2cea ed3d 57d4 f53c df2e 4abd
00000120: d2d8 493d 9f60 aabd 2e18 f83c 47d4 2e3d
00000130: ca0e 0fbd 8c83 80bd 0b96 8e3d 5872 44bd
00000140: 08fa f53d d75f db3d 1379 ccbd 2b08 bb3d
00000150: 64b4 cf3c d3c6 35bd 8f7e c33d 5c81 78bd
00000160: acdb 6fbd cc63 33bd c978 593d 750c 46bd
00000170: dd4f fabd 1103 b33d 90cc 7ebc ab8d d0bd
00000180: 8aed d3bc 7502 6ebb 3cce d7bc ccd3 643c
00000190: 7976 443d 3cd8 863d 14b7 02bd eb16 ebbc
000001a0: ae36 003d 3a36 443c ca59 a03d e0e8 e33b
000001b0: 46d4 e73c b336 f6bc 2511 1bbc 5d0b 2fbd
000001c0: 4a50 893d 06e0 71bd 6c6d 1d3d 9937 17bc
000001d0: b483 963d 1c31 5d3d fdc6 2e3c 13b4 d23d
000001e0: dd83 cd3d 1e9e 053d a473 56bd 7dcd 41bd
000001f0: e104 963d b4e6 8cbd 81f1 a63d 26a1 1f3d
00000200: f870 d83c e7c4 c73d 8654 9c3c 68b4 b6bd
00000210: 4ab8 e53c 93c7 babd c73e 263b 902d 353d
00000220: c3a3 41bd bc3c 77bc 5ce5 1bbd f2ee 933a
00000230: e9fa 4c3d 89d6 e6bd 2610 db3d 6568 073e
00000240: 6130 633d b1b9 09bc 6de6 f43d 5a63 a83c
00000250: 055a 9d3c 5a7a 7d3c 09ce f53c 0956 85bd
00000260: 0b7c da3d 7166 55bd 0172 4abd 870b 8b3d
00000270: 93c9 333c b3e6 e43b 3682 3c3b 4888 9ebb
00000280: 7eab e1bb 797f 263d e6b3 47bd 8227 ccbd
00000290: c6b9 013e 8d99 9b3d dba4 f3bc 291d 95bc
000002a0: c40b c0bc 41b2 9c3c c1f5 9abd 58f7 acbc
000002b0: f7c2 68bd 6c21 97bd 51ae 1cbe 068d e1bd
000002c0: fbc5 453d 0e17 89bd 8f80 3139 0ab4 64bc
000002d0: 9d25 0d3e 2374 aabd 2cef 9dbd b6b4 333e
000002e0: 0dc3 d0bd 00e5 b43d 275d fe3b 9d25 0ebd
000002f0: b122 fb3b e65a 0fbe 1d6d dabc 2196 3a3d
00000300: 781e 67be 447b 4cbe 2cd2 6cbd 07cf cd3d
00000310: aa7b ebbd 018c 1bbe 5e71 9e3d 5931 c13e
00000320: d200 ac3b ee90 7abc 8629 0e3e dbf2 a9bd
00000330: 5071 d73d c75c d1be 1ce4 26be f37f 2b3e
00000340: aae4 283e 8c81 ec3d a309 0b3e 12c8 013e
00000350: 5499 913e 182f a03d b96d 123e 11a0 edbd
00000360: 781e 0cbe 31a6 e43e b9dc aa3e f015 833d
00000370: 8d85 22be 5483 613e 4117 413e 2f55 483e
00000380: 7730 073e f676 37be 3044 2abe 00e2 34bd
00000390: 9071 01bf 6379 68bd 71bc 0b3e 1174 a53e
000003a0: 9725 ffbd dd2c b0bd 95cc 9b3e b6e7 18be
000003b0: 56f1 91bd e7b0 75bb 6f59 18bc 9520 153f
000003c0: 8380 81be 3b6d 473e 616e ea3b 1534 abbd
000003d0: 6c58 adbd 5d93 303e 5b4c 203d 9f67 2cbe
000003e0: 0b49 8ebd 0228 b43e db3f fcbd 8f1f 133d
000003f0: 8195 d33c 7e33 cabe 0962 803d 58df 6e3e
-0.07888534 -0.1374662 0.010900767 -0.008446209 0.01350631 -0.0032035867 -0.20740888 0.14400357
-0.102496885 0.02836675 -0.100172885 -0.016400198 -0.1360975 -0.009432686 0.070649095 0.041388523
0.035855535 0.0123195555 -0.072302036 -0.20943591 -0.026403822 -0.122191355 0.11466901 -0.13122192
-0.11010953 -0.03816344 -0.11335153 0.11075369 -0.059831675 0.08069583 0.17217904 0.06781433
-0.05866276 -0.1299515 -0.0731683 -0.03958768 -0.037736543 -0.09808221 0.12585343 0.17746978
0.05536049 -0.18327285 -0.13242677 0.08057498 0.036613867 -0.008097881 0.2058823 0.35346118
-0.014137076 0.094636984 0.044003285 -0.071901076 -0.08096859 0.09264082 -0.027548043 0.048071004
0.09300387 -0.016858041 -0.026317712 -0.072336696 -0.06568482 0.090820886 0.08630972 0.017397111
0.1010003 0.051696766 -0.035859376 0.049496848 0.09778642 0.1161693 0.030008478 -0.049361106
0.04927904 -0.0831921 0.030284967 0.042682912 -0.034926213 -0.062750906 0.06962212 -0.04796061
0.1201058 0.107116394 -0.099840306 0.09132417 0.025354572 -0.044379067 0.095456235 -0.06067024
-0.058559105 -0.043796346 0.053093705 -0.048351724 -0.12222264 0.08740819 -0.015551701 -0.10183271
-0.025870103 -0.0036317382 -0.026343457 0.013966512 0.047964547 0.06584212 -0.03191288 -0.028697452
0.031302147 0.011975819 0.07829626 0.006955251 0.028299462 -0.03005538 -0.009464537 -0.042735446
0.06704767 -0.059051536 0.03843443 -0.009229564 0.07349339 0.054001912 0.01066756 0.10288253
0.100349165 0.032621495 -0.052356377 -0.04731511 0.07325149 -0.06879941 0.08151532 0.038972043
0.026421055 0.09754353 0.019083273 -0.089211285 0.028041977 -0.09120097 0.0025367008 0.044232905
-0.047275316 -0.015090164 -0.03806053 0.0011286421 0.050043974 -0.11271388 0.106964394 0.13223417
0.05546606 -0.008406089 0.11958013 0.020555187 0.019207964 0.015471065 0.030005472 -0.065105505
0.106681906 -0.05209965 -0.04942513 0.06789308 0.010973352 0.0069855093 0.0028764135 -0.0048380233
-0.0068868985 0.04064891 -0.04875555 -0.09968473 0.12668523 0.07597647 -0.029741695 -0.018202381
-0.02344311 0.019127967 -0.07566405 -0.021114036 -0.056826558 -0.073794216 -0.15300871 -0.11013226
0.048284512 -0.066938505 0.00016927927 -0.01395894 0.1378388 -0.083229326 -0.07711634 0.17549405
-0.10193453 0.08832741 0.0077625695 -0.03470384 0.0076640476 -0.13999519 -0.026663357 0.04555333
-0.22570217 -0.19968897 -0.057817623 0.10049253 -0.114981964 -0.15190126 0.07736467 0.37732962
0.005249121 -0.015293343 0.13883027 -0.08298274 0.105196595 -0.40891096 -0.16297954 0.16748028
0.16493478 0.115481466 0.13577895 0.12673977 0.28437293 0.078214824 0.14299668 -0.11602796
-0.13683498 0.44658044 0.33371523 0.064006686 -0.15871258 0.22022754 0.18856527 0.19563745
0.13202082 -0.17916474 -0.16627574 -0.044160843 -0.5056391 -0.05675639 0.13646103 0.32315114
-0.124583416 -0.08602307 0.3042952 -0.1493214 -0.07126109 -0.0037489475 -0.009298666 0.5825284
-0.2529336 0.19475262 0.0071542715 -0.08359543 -0.08464131 0.17243715 0.03913532 -0.16836403
-0.069475256 0.35186774 -0.12316867 0.03591877 0.025828125 -0.3949241 0.06268699 0.23327386

critic.2.bias f4 [64]
00000000: 0372 94bc 9f11 d03c 158b 00bd 5a70 933e
00000010: e559 ba3d 86ce 7fbd f5aa ab3d 0d96 2cbe
00000020: a397 60bd 7296 b7bd 397e 3e3d 1cef 0e3d
00000030: 84d1 a8bd 6fa2 063e 30b0 afbe de5a a03c
00000040: 291a 883e 0ed7 113d f9b2 573c e693 abbc
00000050: b540 77bd 8052 a3bb 7216 f83d 7153 013c
00000060: e93e 87bd 967d 5c3d 8a52 dabc ee65 a2bc
00000070: 3c93 9d3c 8ce7 39bc 9426 46bd 737c 82be
00000080: 70b6 0c3d 5f97 40bd b3ab 94be ae82 9c3d
00000090: 1bf3 9e3c 4a43 2ebe 1fdd 65bd 2a9f 13be
000000a0: 9063 2c3d f2db a33d 6e56 8abe d86d 8c3e
000000b0: 9089 8ebb e34b 613d a2cb a33e 2b4a 053d
000000c0: 153c 22bd df3e 1c3d 5bb9 9c3c d23f 1a3d
000000d0: 0854 513d 7943 243d 91eb ae3d 000b 2c3d
000000e0: 4247 083d 6222 b43c f04a 3c3d 34a8 fe3c
000000f0: 7743 883e b13b c7bd 63db 71bd 1b18 ac3d
-0.018120771 0.025399027 -0.03138264 0.28796655 0.09099177 -0.062452815 0.08382217 -0.16854115
-0.054832112 -0.08964242 0.046507094 0.034896 -0.08243087 0.13147901 -0.34314108 0.019574579
0.2658246 0.035605483 0.013165229 -0.020944547 -0.060364444 -0.0049842 0.12113656 0.007893429
-0.06603796 0.053830706 -0.026650686 -0.019823994 0.019235246 -0.011346709 -0.048376635 -0.25485572
0.034353673 -0.04701936 -0.29037246 0.07642113 0.019403031 -0.17017856 -0.05611908 -0.14416185
0.042087138 0.080009356 -0.27019066 0.27427554 -0.004349895 0.05500401 0.31991297 0.032541435
-0.03960808 0.038145896 0.019131353 0.03765852 0.05110553 0.04010341 0.085410245 0.042002678
0.03327108 0.021989051 0.045969903 0.031086065 0.26613972 -0.09728182 -0.059047114 0.08403035

critic.4.weight f4 [1, 64]
00000000: e5cf 973b 20b8 72bb 1c48 90bb d766 6d3e
00000010: 8a94 163a d226 a83b 2d83 d4ba d09f 97be
00000020: b220 093a a784 8dba 4853 4fbb ac27 c73a
00000030: 1c2d e13b 5cc6 10ba bf1d 21be cda5 84ba
00000040: 06ce 0bbe 708c bcba 4f28 6f3a 8364 ae3b
00000050: 4e45 b03b ea32 03bb bc35 84bb b814 04bb
00000060: 70a7 87ba 3e82 243b ba85 013a 7eff 063b
00000070: d8eb 4139 386e 6c3b 85c9 513b 0094 a73e
00000080: 249b 9c37 04a6 703b a43e 5bbe e7fa 48be
00000090: 943f 37be 7d32 603e 5d3a 16bb 593c 9a3b
000000a0: a362 8138 b908 f23a b63f 543e 9ae4 a13d
000000b0: 84dd a6ba ff62 123b 6b7e 1c3d b870 193a
000000c0: 09a9 e5b9 986f 1a38 047b c0b9 e31c 143b
000000d0: 5e4e 7b3a 3244 593a 8afb b33b 52cb 9939
000000e0: 8d0a 5eba 1e69 03ba 8813 82bb db8d 71bb
000000f0: ef3c c13d 30f1 0f3b 2574 7339 7a6a 17bb
0.0046329373 -0.0037036017 -0.0044031274 0.23183762 0.000574418 0.005131581 -0.001621341 -0.29614115
0.0005231007 -0.001079698 -0.0031635333 0.0015194318 0.0068718325 -0.0005522722 -0.15734003 -0.0010120213
-0.1365281 -0.0014385115 0.0009123133 0.0053220405 0.0053793555 -0.002001936 -0.004034726 -0.002015395
-0.0010349583 0.0025102044 0.0004940886 0.0020599063 0.00018493773 0.0036076438 0.0032010984 0.32730103
1.8668892e-05 0.0036720047 -0.21410614 -0.19626962 -0.17895347 0.2189426 -0.002292297 0.004706901
6.169572e-05 0.0018465734 0.20727429 0.079049304 -0.0012730812 0.0022336838 0.0382065 0.0005853283
-0.00043804225 3.682039e-05 -0.00036712748 0.0022600226 0.0009586568 0.0008288055 0.0054926323 0.0002933392
-0.00084702 -0.0005012917 -0.0039696135 -0.0036858234 0.0943545 0.0021963827 0.00023217553 -0.0023104236
