trained/ComplexPong/PPO_mcts_sparse_1728371287.9899507.pth (torch, 44898 bytes, 11 tensors)

actor.0.weight f4 [64, 7]
000000 f7 b6 b2 bd fe 49 90 3d df d1 63 3e d4 e4 7f 3e
       -0.08726304 0.07045363 0.22248028 0.24989635
000010 44 4b e7 3e 5c 54 4d 3f 53 27 65 3e 84 bb 90 bc
       0.4517461 0.8020685 0.22378282 -0.01766754
000020 a7 e1 0f 3f 58 6b 13 bf ce fc 5c bd 42 72 62 bf
       0.56203693 -0.5758567 -0.05395203 -0.88455594
000030 91 0f 8f be fb 13 6e 3d e3 16 fd bb 6e d4 87 be
       -0.27941564 0.058124524 -0.0077236756 -0.26529258
000040 62 06 03 3f e5 09 79 be b1 c1 e6 3e d4 1e 88 bf
       0.51181614 -0.2432018 0.4506965 -1.0634408
000050 b1 23 52 bd a7 17 ad 3e 55 3d 14 3e a5 bc a1 be
       -0.05130357 0.33807108 0.14476521 -0.31589237
000060 d9 81 a0 be ef e7 2f be ff 57 29 bf a1 af 67 3e
       -0.31349066 -0.1717832 -0.66149896 0.22625591
000070 69 48 a4 be 56 73 c5 be 86 1c 07 3f 91 0f e7 3d
       -0.32086495 -0.38564557 0.527779 0.11282266
000080 1f 01 60 3f 8f a0 a6 be e2 b2 71 3e f6 1e 2c be
       0.8750171 -0.3254437 0.23603395 -0.16808686
000090 79 d3 99 be 02 9c 1c 3f f4 d8 3a be d0 17 47 3f
       -0.30044153 0.6117555 -0.18246824 0.7777071
0000a0 be 44 86 be fe 2e 4b 3d b4 f7 16 bd 7d de 7f 3e
       -0.2622432 0.049605362 -0.03685732 0.24987216
0000b0 41 77 c9 be f5 87 5a be c6 c7 1d bf 93 9c a1 be
       -0.39348796 -0.21340926 -0.61632955 -0.3156477
0000c0 03 b0 72 3e c3 47 c3 bc f3 bf 17 3e de b6 2c be
       0.23699956 -0.02383793 0.14819317 -0.16866633
0000d0 55 9d db be 09 20 81 be 8f ce 99 bf 4f 46 71 3e
       -0.42893472 -0.25219753 -1.2016162 0.23561977
0000e0 3f d7 54 be 17 43 35 be 4c 93 80 3d be b3 05 be
       -0.20785235 -0.17701374 0.06278095 -0.13056847
0000f0 a5 36 09 3f 15 d0 bc bf 1a 86 b0 3d 21 62 62 3e
       0.53599006 -1.4751002 0.08619328 0.22107746
000100 28 14 11 bf 6d 82 80 3e 7e 36 d9 3e 6d ec 4c 3f
       -0.5667138 0.25099507 0.42424387 0.8004826
000110 8a 38 8f 3e 29 a5 20 be df e5 66 be 5d d9 a0 3e
       0.27972823 -0.15688004 -0.22548626 0.31415835
000120 8a b4 c5 be e1 ae b7 3d 33 96 89 be 2c c5 36 3f
       -0.38614303 0.089689024 -0.26872405 0.7139461
000130 1f 4d 36 3e 44 39 c8 3e 46 38 d0 be 5d f4 79 3d
       0.17802857 0.3910619 -0.40667933 0.06102406
000140 b9 b7 99 be d6 53 12 3f ef b3 0a bf bf 3e 24 be
       -0.30022982 0.57159173 -0.54180807 -0.1603956
000150 03 62 d3 bd b3 b2 8b be 2b 25 d7 3e 7f 78 46 3d
       -0.103214286 -0.27284774 0.42020544 0.048454758
000160 83 59 43 3e 7e c7 2f 3f 78 48 85 3a 3b 76 9d be
       0.19077115 0.68663776 0.0010168692 -0.30754265
000170 d2 a0 e9 3e 0c d9 06 bd 68 dc c7 be d5 ba 45 bd
       0.4563051 -0.032921836 -0.39035344 -0.04827388
000180 8b 63 9f bf f2 c1 e9 bd 40 66 68 be ae ea 54 be
       -1.2452253 -0.11413945 -0.22695255 -0.20792648
000190 e6 18 a9 3e 9c b6 63 bd 3b 29 39 3f 6f 36 53 bf
       0.33026809 -0.05559407 0.7232854 -0.82504934
0001a0 f5 db 6c be 9f 7a b6 be 51 f1 96 3e 76 3b ae bd
       -0.23130782 -0.35640427 0.29480985 -0.08507435
0001b0 1b 1c 2b 3e 83 1d b1 3d 5c 6e ec be c6 1e 9e 3d
       0.1670994 0.08648207 -0.46177948 0.07720713
0001c0 05 fb ab 3e bd 25 02 bf ca dc f9 3d 89 17 32 3e
       0.3358995 -0.50838834 0.12200315 0.1739179
0001d0 ed 89 d8 3e 29 fc 41 3f e1 62 58 3b 67 f7 59 3e
       0.4229273 0.7577539 0.003301792 0.21285783
0001e0 e2 8f 92 be 85 57 06 3e a3 a0 e5 3e dc 33 c7 3d
       -0.286254 0.13119324 0.4484912 0.09726688
0001f0 98 44 64 3f b5 66 aa bb 8c 33 44 bd 9e 87 17 bb
       0.89167166 -0.005200232 -0.04790072 -0.0023121606
000200 29 71 66 3d 30 49 2e 3d 09 71 32 bd a8 f5 94 3d
       0.05626026 0.042550266 -0.04356483 0.07273418
000210 41 49 ad bd 89 c0 97 3e f9 9a ca be 6a e1 fa 3d
       -0.08461238 0.2963908 -0.3957136 0.122500256
000220 8f 1e 61 be 44 96 1a be 8b 5e b7 3d df c4 6f 3e
       -0.21984313 -0.15096384 0.089535795 0.23414944
000230 48 a1 7d be d0 66 e4 be b8 c3 6c 3e c6 03 e9 3e
       -0.24768555 -0.4460969 0.23121536 0.4551069
000240 7a 04 01 3f 0c c9 09 3f 6b 80 48 3d b4 0b 36 3e
       0.50397456 0.538224 0.048950594 0.17777902
000250 88 a6 7c be 64 35 d3 bd 56 d6 47 be b8 8d ab be
       -0.24672902 -0.10312918 -0.19515356 -0.3350656
000260 3e 34 6d bf 09 49 45 3e f5 d0 19 be 94 0e c9 be
       -0.9265784 0.19266142 -0.15021117 -0.39268935
000270 ce 16 15 3f db 68 80 3e 38 ff 43 3f 7d df 55 be
       0.5823792 0.25079998 0.7656131 -0.20886035
000280 14 1f e4 bc d7 95 2a be fd 3f 50 3e 43 aa 3f be
       -0.02784685 -0.16658722 0.2033691 -0.18717293
000290 30 76 69 be d1 a6 00 bf 83 14 03 bf 72 68 01 be
       -0.22798991 -0.5025454 -0.51203173 -0.12637499
0002a0 18 26 a0 bc e2 3f 8a 3e 87 cd 88 be 97 e4 db 3e
       -0.019549415 0.27001864 -0.26719305 0.42947838
0002b0 31 44 f9 be ea c8 21 3f 6f c1 24 3e 96 fa e4 bd
       -0.48684838 0.63197196 0.16089414 -0.11180608
0002c0 bf 48 19 3f 87 ab 4a be 02 a5 49 be 2b d9 ba be
       0.59876627 -0.19791995 -0.19691852 -0.3649381
0002d0 83 d9 1a 3f 07 65 52 3d d7 63 aa be 6e c7 bd 3e
       0.60488147 0.05136588 -0.33279297 0.37066215
0002e0 64 e7 8c be 92 74 10 3e c5 de 3c bf 86 c4 58 39
       -0.27520287 0.14106968 -0.7377742 0.00020672576
0002f0 3a 91 8c be 6e d2 c6 3e bf 99 5e 3d 2c 68 f2 be
       -0.2745455 0.3883242 0.054345842 -0.47345102
000300 e2 aa e9 3e 9a 43 16 bf 68 86 9b 3f 8f e4 11 3c
       0.45638186 -0.586969 1.2150393 0.00890459
000310 df 6f 8a 3e 4d 8d 63 bd da c1 c4 be 35 af f1 bd
       0.27038476 -0.055554677 -0.38429147 -0.11800996
000320 3d 80 8a be 00 f4 43 3e 74 25 33 3e e6 7a 33 3e
       -0.27050963 0.19136047 0.17494756 0.17527351
000330 b0 7c d5 3e 40 e5 ce be ca fa e6 be fa 80 c9 be
       0.41696692 -0.4040928 -0.45113212 -0.39356214
000340 cd c2 0e bf f2 e3 ad bd 6e 9a 3f be a7 61 a2 3e
       -0.5576599 -0.08490743 -0.18711254 0.31715128
000350 f7 ca 91 be e3 4c ba be 3b 9b 0b 3c fd dc 89 bf
       -0.28475162 -0.36386785 0.008520897 -1.0770565
000360 1a 70 2d 3e d9 60 39 3e a4 53 be be 1a 08 06 3f
       0.16937295 0.1810335 -0.37173188 0.5235611
000370 78 39 a7 bd ab ed 03 3f 06 91 11 3e e0 e3 46 be
       -0.08165258 0.5153453 0.14215478 -0.19422865
000380 12 1c 63 3e b1 1d 7b 3e 7d ca 02 bf 88 c6 a7 3d
       0.22178677 0.24523045 -0.5109022 0.08192164
000390 6c e6 b3 be e4 29 3b 3f 5e 9f 5d be 69 be fc bd
       -0.35136735 0.73110795 -0.21642825 -0.12341005
0003a0 ff ad 73 bd 82 80 10 3e 67 29 70 be af d6 76 be
       -0.059492107 0.14111522 -0.23453294 -0.24105333
0003b0 19 65 11 bf 08 ad 68 be 22 fb b9 3e 32 90 9a bd
       -0.5679489 -0.22722256 0.36324412 -0.07547034
0003c0 63 86 99 be 26 34 24 3d 0b f0 a2 be b8 02 61 3f
       -0.2998534 0.040088795 -0.31823763 0.87894773
0003d0 51 c9 a4 3e e8 41 00 be 08 2d 23 3e 6e dc 0f 3e
       0.32184842 -0.12525141 0.15935147 0.14048931
0003e0 ac 69 20 3e ef a4 e7 3e 99 f6 4a be 22 7f 7b be
       0.1566531 0.45243022 -0.19820632 -0.24560216
0003f0 94 83 82 3e fa 4b 94 be 5a ae 98 3e 9c 90 9c be
       0.2549101 -0.28964216 0.2982052 -0.30579078

actor.0.bias f4 [64]
000000 0d 3a f1 be 27 0d be 3b 27 56 e5 3d b9 67 d3 3d
       -0.47114602 0.0057999077 0.11198073 0.10322518
000010 36 c0 d8 bd 5e d5 86 3d e8 5d a2 3e 0e 0a 5c 3e
       -0.10583536 0.06583665 0.3171227 0.2148821
000020 ea 4e 86 3e ba e4 20 be f9 5f ab bd b3 3d ba 3e
       0.26232082 -0.15712252 -0.08367915 0.36375198
000030 92 86 31 be 66 88 90 3e 9d a5 8d 3e 42 e7 04 bd
       -0.17336491 0.28229064 0.27665415 -0.032447107
000040 d0 99 94 3c 58 86 bd be 2f b3 6e 3d a1 6a 70 bd
       0.01813975 -0.3701656 0.05827635 -0.05869544
000050 a7 1f 4a bd 0b e1 bc 3d 7c 31 95 be 03 81 84 3e
       -0.049346592 0.09222611 -0.29139316 0.25879678
000060 71 99 c2 be 94 a0 0d be 97 99 2a bd 8c 5f b5 be
       -0.38007692 -0.13830787 -0.04165038 -0.3542446
000070 ab 38 47 3e 2e 04 ac 3e 33 ae 92 3e a9 9a 69 bd
       0.19455211 0.3359694 0.28648528 -0.05703226
000080 c7 af 3d 3d e9 47 3c 3e cc f0 c6 bd 17 ae 8b bd
       0.046310212 0.18386807 -0.09713897 -0.068203144
000090 58 d6 0d be a6 66 8f be a4 c3 a3 3e 57 a7 22 be
       -0.13851297 -0.28008002 0.319852 -0.15884148
0000a0 aa f5 d6 be bc 87 08 3e 1f 21 a5 3e b7 d9 7d 3e
       -0.41984302 0.13333029 0.32251832 0.24790083
0000b0 9d ad ba bd 10 f7 d8 bb 48 76 e3 bd e5 0c b5 3e
       -0.09115145 -0.006621249 -0.11106545 0.353614
0000c0 3a 85 67 be 32 36 86 3e af 81 99 bd 83 36 39 3e
       -0.22609416 0.26213223 -0.07495438 0.18087201
0000d0 1d 2f 25 3e aa 92 06 bc 85 fa d3 be be a6 55 bd
       0.16131254 -0.008213678 -0.4140207 -0.05216097
0000e0 fb a7 ef 3b 22 f1 b9 3e cd be 04 3f e4 df f0 be
       0.007313726 0.36316782 0.5185364 -0.47045815
0000f0 70 c4 2c 3e cd b4 83 be fd f5 52 be 30 ad 3f 3e
       0.1687181 -0.25723878 -0.2060165 0.1871841

actor.2.weight f4 [64, 64]
000000 c1 c9 18 bd 1f 8b 22 3f 39 f7 83 be 57 c9 81 3e
       -0.037301783 0.6349353 -0.25774553 0.25348923
000010 01 4f f4 be f4 26 f6 be 8b ac 1f 3e cc a0 06 3e
       -0.47716525 -0.48076594 0.15593164 0.13147277
000020 04 7c 4e be 46 bb e8 be dc 4a 94 3d f6 f1 26 be
       -0.20164496 -0.45455378 0.07240841 -0.16303238
000030 1a 0b 87 be 20 ba 97 3e 37 b6 73 be ef 49 e7 3d
       -0.26375657 0.2963419 -0.23799978 0.112933986
000040 8b ed 52 be cb 96 6c be 66 3b 39 bd 15 46 7d bc
       -0.20598428 -0.23104398 -0.045222662 -0.015458603
000050 6e 5b a1 be b0 4d 38 3d a7 05 3e bf 16 e7 ab 3d
       -0.31515068 0.044995964 -0.74227375 0.083936855
000060 bc e3 4e 3e e4 5c 8a 3e de 42 5a 3e 42 0b 38 3e
       0.20204061 0.27023995 0.2131457 0.17973045
000070 14 c8 54 3e d5 11 d2 3e 1a 85 2a 3e 6b b7 25 be
       0.20779449 0.4102923 0.16652337 -0.1618325
000080 ca 96 2b 3e 6f ac 6e 3d 09 b1 71 bb d8 07 b2 bd
       0.1675674 0.058269914 -0.0036879203 -0.08692902
000090 c2 7f 8b bd 1d 31 c3 be 7c 53 05 bd 5a 23 a2 3d
       -0.06811477 -0.38123408 -0.03255032 0.07916899
0000a0 7b f1 b7 be 86 3d f5 3e 48 f5 17 3e 90 67 f5 be
       -0.35926422 0.478985 0.14839661 -0.47930574
0000b0 8e f7 05 bd 8a 6c 96 3e 3e 5e 4e 3e 4b cf 53 be
       -0.03270679 0.29379684 0.20153138 -0.20684545
0000c0 d8 78 8e be f9 33 3a 3e bb e0 3a 3e 9d b2 c8 bd
       -0.2782657 0.18183888 0.1824979 -0.09799693
0000d0 22 89 30 3e c6 d3 a5 be 87 f9 a3 be 34 f2 a4 3e
       0.17239812 -0.32388133 -0.32026312 0.32216036
0000e0 05 6d a3 be 8d e6 97 bd 4f 9b 3a 3e 58 b6 a9 be
       -0.31919113 -0.07417021 0.18223308 -0.3314693
0000f0 30 e5 0e be 64 04 3b 3e 6f a3 7a 3e b4 59 34 3e
       -0.13954616 0.18263394 0.24476407 0.17612344
000100 80 b2 47 3c 8d fb 91 3d f9 f0 af 3d c7 a6 83 3b
       0.012188554 0.07128058 0.08590884 0.004017684
000110 00 bb c3 bd 1c b9 1e 3d c6 56 8c bd 47 ab d3 3c
       -0.09557152 0.038750753 -0.06852488 0.025838507
000120 92 50 d3 bd 2b 04 26 bc da a0 a2 bc 9e 37 33 3c
       -0.10318102 -0.01013283 -0.01985209 0.010938553
000130 7e 67 e2 bd 12 3a 57 3e 72 24 17 3d 70 e3 f0 bd
       -0.11054896 0.21018246 0.03689999 -0.1176213
000140 e5 b9 8f bc 39 21 c0 bd 82 1b a0 3d ca ee b2 bc
       -0.017544696 -0.09381337 0.07817747 -0.02184238
000150 5d 00 33 be 5a af 56 be 93 8d dd 39 5d d8 5d bd
       -0.17480607 -0.20965329 0.00042257886 -0.05416142
000160 17 ad 81 bd 56 55 28 bd f1 af f3 3c d8 5b a2 be
       -0.063318424 -0.041097008 0.029746981 -0.31710696
000170 d0 06 16 be cb 12 6b 3e be 06 15 3e 20 14 72 3c
       -0.14651036 0.22956388 0.14553353 0.014775306
000180 a5 9a 66 3c 18 a8 a6 3d ce 04 ff bd 54 d8 86 3e
       0.014074956 0.0813753 -0.12452088 0.2633692
000190 a4 ea 9f 3c b2 2f 31 3d d2 89 da 3d c5 3c 10 3d
       0.019521065 0.043258376 0.106708184 0.035214204
0001a0 40 37 87 3d c1 97 0c be 04 a2 fb bc 62 56 0b bd
       0.06602335 -0.13729765 -0.030716904 -0.034017928
0001b0 65 b8 81 3c 46 65 3e 3c 85 0d b9 bc 34 1e 94 bd
       0.015834996 0.011620825 -0.022589454 -0.07232323
0001c0 2e c7 34 3d 1f d1 b6 3d f5 46 27 be ff 99 f0 bc
       0.044135265 0.089266054 -0.16335662 -0.029370306
0001d0 2e c7 d2 bb 3e 5a 97 3c d9 8a 1b 3d 73 92 0b be
       -0.0064324355 0.018475648 0.037974212 -0.13630085
0001e0 f5 3e 96 3d 10 53 99 3c 78 15 23 3c 12 08 47 3d
       0.07336227 0.018716365 0.009953849 0.04859168
0001f0 84 02 30 bc ca 48 8c 3d 2a 1e c2 bd 16 c5 32 be
       -0.010742787 0.06849821 -0.094784096 -0.17457995
000200 1d 75 07 bd 7a 47 8d 3f 23 8d 12 bf e3 40 4a 3e
       -0.033070672 1.1037438 -0.5724661 0.19751315
000210 cd b2 14 bf f3 75 29 bf 0a 0c 69 3e e5 4f 0e 3c
       -0.5808533 -0.661956 0.22758499 0.0086860405
000220 71 09 8e be c6 05 0b bf c9 b9 ad 3e a6 c8 84 be
       -0.27741578 -0.54305685 0.33930805 -0.25934333
000230 95 c9 8d be 88 98 bc 3d cb d5 a2 be 48 3c 01 be
       -0.27692857 0.092087805 -0.31803736 -0.12620652
000240 67 5a 3f be 36 75 ef bd e9 2d af bd 94 b7 4e bd
       -0.1868683 -0.11692278 -0.085536785 -0.050468042
000250 f0 56 95 be 1a 3c 17 be e5 64 1d bf ca cd 9b 3d
       -0.2916789 -0.1476902 -0.6148208 0.076076105
000260 87 b0 c6 3e d2 c4 b7 3e b8 bd 93 3e ea 1c d0 3e
       0.38806555 0.3589235 0.2885568 0.4064706
000270 d5 33 52 3e 09 7c e6 3e 83 46 89 3e 88 e5 64 be
       0.20527585 0.45016506 0.2681161 -0.22353184
000280 e3 ab d9 3e 64 e1 00 be 7f 88 04 bd eb af e7 3c
       0.42513952 -0.1258598 -0.032356735 0.028282126
000290 52 14 0c be 8f e6 c7 be b2 99 bd bc f1 3f cb 3e
       -0.13679627 -0.3904309 -0.023144577 0.3969722
0002a0 45 14 81 be 0e 18 3f 3f 93 24 08 be bb 69 fb be
       -0.25210777 0.7464608 -0.13295202 -0.49104103
0002b0 d3 b7 af be 0e 00 6f 3e 62 43 d8 3e 2b 30 8e be
       -0.34319934 0.23339865 0.4223891 -0.27771124
0002c0 83 c8 a9 be 29 e0 90 3e 94 3b 03 3e 4b 63 19 3d
       -0.3316079 0.2829602 0.12815696 0.03744821
0002d0 75 f0 4d 3e 48 5b 81 be f6 2c 80 be b6 f3 c7 3e
       0.20111258 -0.25264955 -0.25034302 0.39053124
0002e0 c5 5f c8 be 69 d3 e3 3c e2 a7 d6 3b f9 62 72 be
       -0.39135566 0.02781077 0.006550775 -0.23670568
0002f0 2c 11 84 be 4d 8b 3f 3d e2 5d ba 3e 84 32 3a 3d
       -0.2579435 0.046763707 0.36399752 0.04545833
000300 2a a1 10 3f 99 ca 81 be 3c f7 8f be 3c 8c 56 be
       0.56495917 -0.25349882 -0.28118312 -0.20951933
000310 0d 51 12 bc 6f 22 84 be 5b 3f 87 be fe c6 42 bf
       -0.008930457 -0.2580752 -0.26415524 -0.7608489
000320 c0 7b 08 bf f6 e0 ca 3e 25 22 95 3d c5 96 6f be
       -0.5331383 0.39624757 0.07281903 -0.23397358
000330 fc 69 80 3d 00 59 55 bf 1d 3f 9e be ea c0 d2 bc
       0.06270215 -0.8333893 -0.30907527 -0.025726754
000340 b4 cd 6f 3e ee fa 6d 3f 01 14 ba 3b 7b f0 36 be
       0.23418313 0.92961013 0.005678654 -0.17865174
000350 2b fa 84 3e 9c 87 aa be 41 61 96 3e fb cb 9b be
       0.25972113 -0.33306587 0.29371074 -0.30429062
000360 0d 11 14 3f ac 2c 9e 3d 2b bc 1f 3d fe 86 12 3f
       0.5783852 0.07723364 0.03899781 0.5723723
000370 80 11 41 bd 8b 71 1e bf e1 9a 1c bf 98 22 8d bd
       -0.04713583 -0.61892 -0.61173826 -0.06891364
000380 3e 94 d2 3d ad da 87 bd a2 e6 16 3e ba 9d e9 bc
       0.10282181 -0.06633506 0.14736417 -0.028517593
000390 21 28 70 bd 9b 50 15 3e 58 5b db be c4 2e 07 3e
       -0.05863202 0.1458153 -0.42843127 0.13201433
0003a0 2f 60 20 3e ba f1 dd bd c3 98 9c bd 57 7b 87 be
       0.15661691 -0.10837121 -0.076463245 -0.26461288
0003b0 b6 96 cb bc 22 10 da 3d 8d 9a 72 3e 15 7c 96 bd
       -0.024852138 0.10647608 0.23691769 -0.073478855
0003c0 c3 2f 28 3e a6 ad 11 be f7 7a ef 3e 0d d9 b3 3d
       0.1642447 -0.14226398 0.46773502 0.087816335
0003d0 f6 e9 78 be 07 a7 bd 3e c4 64 2e 3e 87 6a 83 3e
       -0.24307999 0.37041494 0.17030627 0.2566721
0003e0 91 49 6c be 31 f8 81 bd 7f 2e 0a bf 9c 28 b4 3e
       -0.23074938 -0.06346167 -0.539772 0.35187232
0003f0 15 ec 11 bf 9f 16 94 3d 10 a9 99 3d 82 10 bd be
       -0.5700086 0.07230877 0.07502949 -0.36926657

actor.2.bias f4 [64]
000000 46 d5 13 bc 53 01 fa bc 90 b0 32 be 84 b4 07 be
       -0.009023016 -0.03051821 -0.17450166 -0.13252455
000010 6b 6a 15 bd 01 02 d6 bd 89 cb e4 bd ab 13 92 3e
       -0.03647844 -0.10449601 -0.11171634 0.2853063
000020 34 5e 33 be 4e 41 3b be d3 e4 aa bd a9 5a 87 3d
       -0.17516404 -0.1828663 -0.08344426 0.06609089
000030 aa 98 b9 be 48 13 5d 3e 55 f9 96 3d 89 6b ec 3e
       -0.36249286 0.21589386 0.07371775 0.46175793
000040 1b a4 8b 3e 47 cd 0a 3e b1 47 09 3d 13 e9 2a bd
       0.2727364 0.1355487 0.033515636 -0.041726183
000050 41 2c 1c 3e d9 22 be bd df de 72 3e 06 fc d3 be
       0.15251257 -0.092839904 0.23717831 -0.41403216
000060 fa 83 8e bd 8a fb a3 3e dc 8f be bd 37 32 af bc
       -0.06958766 0.32027847 -0.09304783 -0.021386249
000070 ed b6 1a be 36 10 18 be 42 81 ad 3e 9c 70 30 3e
       -0.15108843 -0.14849934 0.33887678 0.17230457
000080 be d7 f5 bc 47 9a b7 bd 97 c9 a8 bd 63 7d 85 be
       -0.0300101 -0.08964973 -0.08241575 -0.26072225
000090 b9 2d 86 3c cc 86 b8 bd df 8d d9 3d 03 07 0d 3e
       0.016379224 -0.090100855 0.10622763 0.13772206
0000a0 7d 19 01 3b 78 81 1a 3e e3 69 86 3e 10 4f a7 3e
       0.001969903 0.15088451 0.2625266 0.32677507
0000b0 55 f2 c0 be a3 6e 3a 3e 46 ef 5d bd 50 79 25 3e
       -0.37684885 0.18206267 -0.054183267 0.16159558
0000c0 ea e7 81 3e 67 4c b2 3d 52 2b 08 be 70 6c 9f be
       0.2537225 0.08705979 -0.13297775 -0.3113742
0000d0 02 40 86 3e 6c d7 bc be 72 6c 41 be 5f bb b1 3c
       0.2622071 -0.36883104 -0.18889025 0.02169579
0000e0 b5 3a 5a bd 4f 60 8b be bb 45 80 bd c9 30 d9 bd
       -0.053278644 -0.27221915 -0.062633 -0.10605008
0000f0 65 bf c8 3e 01 8e c1 bd 85 4b 54 be b3 3d bd 3d
       0.39208522 -0.09450913 -0.20731933 0.09240284

actor.4.weight f4 [9, 64]
000000 ac 32 d9 3e b6 d9 14 bb 93 83 31 3f a4 98 5f 3e
       0.42421472 -0.0022712774 0.6934139 0.21835572
000010 e4 a5 2a 3e c7 3a 98 3d 77 d2 c3 3d 4b d9 c0 3d
       0.16664845 0.07433086 0.09561627 0.09416445
000020 8f a5 0c 3e b5 55 73 3f 47 3f ae be 24 8d 18 bf
       0.1373503 0.95052654 -0.34032652 -0.59590364
000030 70 88 a8 bd 6b a2 4a 3e 9b ff 54 bf 93 29 90 bd
       -0.082291484 0.1978852 -0.83202523 -0.0703918
000040 2e 97 43 be 98 94 64 bf 7c 05 3d be 36 ff d7 3e
       -0.19100639 -0.89289236 -0.18459123 0.42186898
000050 23 2a d8 3e d5 e5 0e 3e 00 f0 f2 be d5 1a 92 bc
       0.42219648 0.13954861 -0.4744873 -0.01783506
000060 68 4f 8c 3e 11 8a 39 bd da a2 90 3e 44 21 ff be
       0.27404332 -0.045297686 0.28249246 -0.49830067
000070 ac cd 8d 3d a5 68 5a 3f ff 8b 2b be 6b ce a8 be
       0.069239944 0.85315925 -0.16752623 -0.32969984
000080 2b 14 8c be 4d ad 93 3e 4a ea 95 3e 3a 34 bf 3d
       -0.27359137 0.28843156 0.2928031 0.09336133
000090 68 06 e7 3e 5d 48 d1 3e 1c 87 e2 be 55 ec 42 bd
       0.45122075 0.4087552 -0.44243705 -0.047588665
0000a0 5e ee f9 be ec 73 f5 be 88 a1 fb bd 92 17 3b be
       -0.48814672 -0.47940004 -0.12286669 -0.1827071
0000b0 c7 1a 6f 3f 97 52 8a be 4b 25 ba be 30 49 04 bf
       0.93400234 -0.27016136 -0.36356577 -0.51674175
0000c0 8d 80 9f 3e 35 4d e5 3e 2f 06 c6 3d 4c 04 09 3f
       0.31152764 0.44785467 0.09669148 0.5352218
0000d0 73 82 2e 3e 86 2f 0a 3e 57 67 ff 3d 76 89 6f be
       0.1704195 0.13494691 0.124708824 -0.23392281
0000e0 c3 a1 36 3f ed 7b 5e 3f cb 32 77 3d 5e 89 9d be
       0.7134058 0.86907846 0.060351174 -0.30768865
0000f0 9f ff 4a bf ce 71 cb be d9 eb bc be 7d 41 b3 3e
       -0.79296297 -0.39735264 -0.36898687 0.350109
000100 dd d2 b2 bd 49 fe 20 3d cc be 98 bd 65 31 a9 be
       -0.08731625 0.039305005 -0.074582666 -0.33045498
000110 5b 37 96 be 84 36 4c bc 7a 35 38 be ea 58 ab 3d
       -0.29339108 -0.012464169 -0.1798915 0.083665684
000120 24 2f 66 be 59 44 eb bc 59 ae fc bd c9 4f e4 bd
       -0.2247892 -0.028719114 -0.12337942 -0.1114803
000130 9c ca cf bd ee 39 62 3e ff ac 7f bd 4f 2a b3 bd
       -0.101460665 0.22092411 -0.06242084 -0.08748304
000140 22 51 85 3d 5c 75 4a 3d 22 b1 59 3e 48 87 47 be
       0.065096155 0.04942833 0.21258977 -0.194852
000150 36 e2 92 3e 76 11 8b be fb f2 66 3d 3e 65 88 3d
       0.2868821 -0.2716176 0.056384068 0.066599354
000160 98 59 66 be e2 ad 35 bd a9 0d 2d be 3c d3 fa bd
       -0.22495115 -0.04435528 -0.16899742 -0.12247321
000170 e2 89 9f 3d 7a 37 73 3d 57 e5 60 3d 6f 98 5e 3e
       0.07789971 0.05937908 0.054906216 0.21737836
000180 af 8b bc 3e 50 68 ce be 97 f5 e6 bd 44 cf f3 3c
       0.3682532 -0.4031396 -0.11277311 0.029761918
000190 14 3f ed 3d 28 57 9f bc 8f 84 b8 3e ca d9 6d 3d
       0.11584297 -0.019450739 0.36038634 0.058069028
0001a0 6f 92 79 3c f8 ef 1b 3e c0 af 96 bd 1c 46 25 3c
       0.015232666 0.1522826 -0.073577404 0.010087516
0001b0 14 5a 9a 3d eb 63 66 3e 88 ea ba 3d b5 41 c8 3d
       0.07536712 0.22499053 0.091267645 0.097781576
0001c0 a7 5f 2e 3e 60 94 15 3e 48 45 a1 bc d2 59 04 bc
       0.17028676 0.14607382 -0.019686356 -0.008078055
0001d0 ad 3b 67 3e bf 5f 8d bc ff 8e 53 bd 34 78 aa 3e
       0.22581358 -0.01725757 -0.051650044 0.33294833
0001e0 62 6e d9 3c 85 52 08 3d 99 b8 80 be 0a 02 0d be
       0.026541892 0.03328182 -0.25140837 -0.13770309
0001f0 19 69 9f 3d 61 fd b8 bd 55 a2 b8 bd 90 51 8d be
       0.07783718 -0.09032703 -0.090153374 -0.2760129
000200 22 58 6e 3d 08 f3 32 bd 6e 08 ae bd 66 c3 54 be
       0.05818952 -0.043688804 -0.084977016 -0.20777664
000210 e1 4a 19 be e8 b5 4c 3e cc ad 8a be 64 42 a8 bd
       -0.1496997 0.19991267 -0.27085721 -0.08215788
000220 97 4c 9e be 40 fc bb 3d 5a f6 5e bd dc ee 08 be
       -0.30917808 0.09178972 -0.054434158 -0.13372368
000230 47 1d d7 bc a2 f1 56 3e 46 00 f8 bd ae b3 67 bd
       -0.026259078 0.20990613 -0.12109427 -0.05656784
000240 56 a4 71 3d cf 74 ab bd 9a 1f 97 bd 89 0c ad be
       0.058994614 -0.08371889 -0.073790744 -0.33798626
000250 c3 ea 97 3e b8 e6 8a be 5e 87 48 3e fc d3 20 3d
       0.29671296 -0.2712915 0.19582888 0.039264664
000260 8e 0d cc be 89 0d 0d bc 19 77 d9 bd 85 a7 1c be
       -0.3985409 -0.008609184 -0.10618419 -0.15298279
000270 b2 a3 c8 b9 3c f6 6b 3d 2a 78 f1 bd 5f 24 83 3e
       -0.00038268935 0.057607874 -0.117904976 0.25613686
000280 f7 95 e2 3e 7a c4 de be a2 9b 2c 3e a3 5a 69 bd
       0.4425504 -0.43509275 0.16856244 -0.056971204
000290 ae f7 41 3e bf ea 82 bb e6 bc e4 3e 56 ea 83 be
       0.18942139 -0.003995269 0.44675368 -0.25764722
0002a0 41 c5 9f bd 73 1f 5a 3e 31 f2 12 be b6 6f 47 be
       -0.07801295 0.2130106 -0.14350201 -0.19476208
0002b0 f1 9c f9 3d 80 87 66 3e 1d 89 5b 3d d5 6a 31 3d
       0.12188137 0.22512627 0.05359756 0.043314774
0002c0 ab 3a 40 3e 0c 32 89 3d 8b a9 1f 3e 82 6a af 3b
       0.1877238 0.06698999 0.1559202 0.005353273
0002d0 b6 90 70 3e 6c 99 51 bd 86 12 34 3e c7 ee b4 3e
       0.23492703 -0.051171705 0.17585191 0.35338423
0002e0 75 1b 3e 3d 7e fd b2 3d c3 8c 39 be d3 64 e2 bd
       0.046412904 0.08739756 -0.18120103 -0.11054387
0002f0 6c 7f fa 3d 56 c3 1e be c1 83 a3 bb bc b3 b2 be
       0.12231335 -0.15504202 -0.0049900715 -0.3490275
000300 80 d4 c4 bd 77 ce e7 bc 82 1b 83 bd e0 c7 2b 3d
       -0.09610844 -0.028296692 -0.06401731 0.041938663
000310 ef c0 31 be 2d 15 7a be 8b 4a 11 3d 29 11 b2 3e
       -0.17358755 -0.2442214 0.03547148 0.34778717
000320 48 3a e3 3b 9e 34 b6 be b2 5e 6c be 8a b7 90 bd
       0.006934438 -0.3558702 -0.23082998 -0.07066257
000330 43 08 39 be e5 0d ab 3d e0 34 0e 3e d4 a1 75 3e
       -0.18069558 0.083522595 0.13887358 0.23987514
000340 fe 60 81 3e 78 85 7c 3e 8f 9d 7f 3e d0 19 33 bd
       0.25269312 0.2466029 0.24962448 -0.04372579
000350 59 a1 27 3e a5 dc e1 3d f0 3e 92 bd 18 71 ab be
       0.16370143 0.11028413 -0.071409106 -0.3348472
000360 78 6a fa 3d b3 bc a8 3e f8 f0 d6 3c b6 80 d7 bc
       0.122273386 0.32956466 0.02623795 -0.026306491
000370 2f ef 20 be 76 1f 43 be 9c bc 92 3e 9d 18 8d 3d
       -0.15716241 -0.1905497 0.28659523 0.0688946
000380 22 db 10 3d d8 d3 c1 3d 9b 2a 56 be 24 2d 0a be
       0.03536523 0.09464234 -0.2091469 -0.13493782
000390 a7 8a fc bc 77 fa 82 3d 39 0a 3a 3b ec 28 45 3e
       -0.030827833 0.06395429 0.002838744 0.19253892
0003a0 ef f5 ee bd a7 22 53 bd 88 c8 aa 3e 4d 8f b7 3e
       -0.11668002 -0.05154672 0.33356118 0.35851517
0003b0 fc d4 ba be 5c 92 09 be fe 36 02 3e 6d d4 92 bd
       -0.3649062 -0.13434738 0.1271629 -0.07169423
0003c0 9f 43 f9 3c 01 8c 14 3e cb e8 83 be b3 a1 96 be
       0.030427752 0.14506532 -0.25763544 -0.29420242
0003d0 90 88 15 3e bc 2c 8d be 5e e2 68 be c3 e4 88 3b
       0.14602876 -0.27573192 -0.22742602 0.004177661
0003e0 1f a5 91 bd d7 0a 3e be b5 68 a4 bc 22 2b 5e be
       -0.071115725 -0.18558823 -0.02006946 -0.21696141
0003f0 d3 98 3b 3d 11 dd ca bd e8 93 46 be 8e 7c 27 3b
       0.04580004 -0.09905446 -0.1939236 0.0025556418

actor.4.bias f4 [9]
000000 96 d4 98 be b9 e7 e1 3d a6 03 ef 3b b1 1d 9a 3e
       -0.2984969 0.11030526 0.007294136 0.30100778
000010 cd 5a 03 3e fc 75 1b bc e2 b3 22 3e 58 15 4d 3e
       0.12827606 -0.009488579 0.15888932 0.20027673
000020 a8 3e 1b be
       -0.1516062

critic.0.weight f4 [64, 7]
000000 9b 95 3f 3e 4a 3f 34 be b1 55 a3 3e de 09 ae bc
       0.18709414 -0.17602268 0.31901315 -0.02124494
000010 e7 d5 a8 be ea e1 f7 bf 07 3f ba be 0e 46 18 3e
       -0.32975695 -1.9365819 -0.3637621 0.14870474
000020 4b 4c 04 be f2 cf 69 bd 9c 81 24 be 73 a3 60 be
       -0.12919728 -0.057083078 -0.16065067 -0.21937351
000030 00 ea 13 c0 72 6b 13 3e f6 aa 86 3d d8 1b bc bd
       -2.3111572 0.14396456 0.06575577 -0.09184998
000040 fe 39 6e 3d 6b 87 ca 3d 1a 00 c6 bd fd 18 35 40
       0.058160774 0.0988911 -0.09667988 2.8296502
000050 86 a0 18 3e 95 ae 22 bb 80 d9 f2 3c 48 1f 85 3e
       0.14904985 -0.0024823297 0.029644728 0.26000428
000060 c3 45 f1 3d 59 73 a2 3d c7 21 14 40 f4 06 ba be
       0.11780884 0.07932157 2.3145616 -0.3633343
000070 74 b7 1e be ce 81 68 3e cb 30 a5 bc 6a 12 8e be
       -0.1549967 0.22705767 -0.020164868 -0.27748424
000080 42 1f 6b 3e da 2a fb bf 85 75 e6 3c 4d be 89 bd
       0.22961143 -1.9622452 0.02813221 -0.0672575
000090 56 00 84 be 96 94 96 bd 6a 6b f6 bc ad 0a 30 bf
       -0.25781506 -0.07352559 -0.030080516 -0.6876629
0000a0 2d a9 e8 bf 12 74 e7 3e d4 be 87 be ef e8 22 3e
       -1.8176628 0.45205742 -0.26512778 0.1590917
0000b0 db c8 87 3d 3a 31 9c be 13 1b e6 bd 46 1d df 3f
       0.06630107 -0.30506307 -0.11235633 1.7430809
0000c0 bd 71 b5 be 49 1b b3 bd be 87 2e be 9c 07 fb 3d
       -0.35438338 -0.087454386 -0.17043969 0.12257311
0000d0 e5 ab 23 be 76 44 58 bd 6f 33 20 40 cd dc b0 3e
       -0.15983541 -0.052799664 2.5031393 0.34543458
0000e0 3b d8 89 be 53 73 d0 3e 30 ec 64 be 4c 5d 21 bf
       -0.26922783 0.40712985 -0.22355723 -0.63032985
0000f0 9c dd d3 be 5b 07 9a bf cf 4b 6d 3e a2 93 92 3d
       -0.41380012 -1.2033495 0.2317345 0.07157065
000100 5a 51 61 be b0 c0 82 3e 2c 98 bd be 05 18 e8 3d
       -0.2200369 0.25537634 -0.3703016 0.11332706
000110 f2 98 10 40 35 60 19 bd ee e4 5b be a2 f0 a0 bd
       2.259335 -0.037445266 -0.21474048 -0.07858397
000120 85 42 37 3e 0c 63 4e 3e ee a8 45 3f bf 27 e1 3f
       0.17896469 0.20154971 0.7721089 1.7590255
000130 fa bf 94 be 15 cc 0b 3d 8b 00 51 bd 53 94 22 3e
       -0.29052716 0.034130175 -0.05102591 0.15876894
000140 ab 6d 5e bd 85 3e 76 3e 95 d9 22 40 d3 ff 6d 3e
       -0.054303806 0.24047287 2.5445302 0.2324212
000150 10 d1 e9 bd 7d 07 dc 3d 86 5d d4 be a3 2a 9e 3e
       -0.11416829 0.10743616 -0.41477603 0.30891904
000160 d6 8c be bd c5 57 61 bf 82 bf 39 3e dc 79 bd bd
       -0.09304206 -0.8802455 0.1813946 -0.092517585
000170 92 7b 95 bc 85 e0 57 3e d4 e8 83 be 74 46 82 3d
       -0.0182474 0.21081741 -0.2576357 0.06361094
000180 87 fe 19 c0 a1 98 23 be c1 ff d5 bd 19 cd de bc
       -2.40616 -0.15976192 -0.10449172 -0.027197408
000190 2a f1 8f 3d 4f fd 29 3c a8 06 40 be 45 b0 19 c0
       0.0702842 0.010375335 -0.18752539 -2.4013836
0001a0 71 57 89 3e 25 ca 11 3e 28 d6 0b be ef bb e8 3c
       0.26824525 0.14237268 -0.13655913 0.028409926
0001b0 1f 5c 77 bd f0 dd 37 bf 10 9b 18 c0 e2 2a 25 bd
       -0.060390588 -0.71823025 -2.3844643 -0.0403241
0001c0 26 6f bc be c0 2c 84 3e 68 94 68 3e dd c8 bf 3c
       -0.3680355 0.25815392 0.22712862 0.023411209
0001d0 55 b7 fc 3d 60 6d 07 40 6f 0a 98 be bb 4f c6 3d
       0.12339655 2.1160507 -0.2969546 0.09683176
0001e0 bb 6b 6f 3d 94 19 5b bd 40 c8 d9 3e 85 32 4b 3f
       0.05845235 -0.05349119 0.4253559 0.7937396
0001f0 c8 a9 d9 bf fa 4d 31 be b2 a6 2e bd b3 70 2b 3e
       -1.7004938 -0.17314902 -0.04263944 0.1674221
000200 c5 98 fe 3c 89 c2 9f be 9a 78 78 3e 3f f6 08 c0
       0.031078706 -0.31203106 0.24264756 -2.1400297
000210 62 37 a0 bd 38 2e 6e bd 6d 41 02 be 86 7e 37 3e
       -0.078230634 -0.058149546 -0.1272027 0.17919359
000220 c9 54 e4 3e 97 78 12 3f 0f 30 a0 3f 09 e5 01 be
       0.44595936 0.57215255 1.2514666 -0.12685026
000230 e4 05 2b 3d 48 2d 64 bd 21 1d 77 3e 32 16 b0 3d
       0.041753665 -0.055707246 0.24132206 0.085979834
000240 b3 ac d7 be 5e 6e 1f 40 26 ed 63 be f5 a3 d6 3d
       -0.42123947 2.4911113 -0.22258434 0.10480491
000250 33 81 a2 bc 4a e9 9f 3d 00 7d 37 3e 8b 3a dc be
       -0.019836998 0.07808168 0.17918777 -0.43013415
000260 ba d5 f8 bf 66 0b c0 bd cf 63 da bc b1 00 dd bd
       -1.9440224 -0.09377174 -0.02665892 -0.107911475
000270 70 80 b7 bc 65 e2 32 bf f1 e3 00 bf 60 42 c2 3f
       -0.022400111 -0.698767 -0.5034781 1.5176506
000280 a2 4d 88 3d 7f 32 7d bc 56 12 54 3c 49 8e 7b be
       0.06655432 -0.015453934 0.012943825 -0.24565996
000290 86 04 bc 3e 28 85 7f 3e d0 bb de 3f 6a 9e 59 3e
       0.367222 0.24953139 1.7401066 0.21251836
0002a0 4a 90 6a be 78 2b 95 3e 53 16 9f be 42 2a 74 3d
       -0.22906604 0.29134727 -0.3107172 0.059610613
0002b0 ca 7e 59 bd 31 60 e6 3f a7 9e b9 3c c7 41 b1 3d
       -0.05309943 1.7998105 0.02265866 0.08655124
0002c0 92 cc 0e be e8 b1 8a 3e 11 fb 22 bf 03 83 dd 3e
       -0.13945225 0.27088857 -0.63664347 0.43264017
0002d0 9f 1a aa 3c 35 7a 05 3e 8f 71 9d be 1d e6 42 3e
       0.020764647 0.130349 -0.307507 0.19033094
0002e0 e7 72 e2 bc 4c 48 c9 3e a4 6d 27 3f ce 45 0b c0
       -0.02764268 0.3931297 0.65401673 -2.1761355
0002f0 c8 d5 b2 3c 5e 3d 27 3e d3 e6 74 be f2 46 b1 3b
       0.021830454 0.16332003 -0.23916177 0.0054100687
000300 c9 15 0d 3f 41 9d ec be fe 28 2e bf 3f fc 9a 3c
       0.55111367 -0.46213725 -0.680313 0.018919108
000310 6e f3 b3 bc 16 17 87 bd ac 76 8f 3e a1 6c 1e 3e
       -0.021966662 -0.065962 0.28020227 0.15471126
000320 b0 f7 09 bf be 9b 1d 40 53 4c f8 3d 11 d0 cd b9
       -0.53893566 2.4626307 0.12123933 -0.00039255669
000330 2f 51 05 3d f5 16 a3 3e 9d 1a f8 be 71 d2 93 bc
       0.032548126 0.31853452 -0.48457804 -0.018044682
000340 05 90 b3 be 8c 92 a9 be f6 11 81 bd b0 d7 62 bd
       -0.35070816 -0.3311962 -0.06302254 -0.055381477
000350 30 29 e2 bd da 34 0a be 52 5b c1 3e a7 34 2c 40
       -0.11043012 -0.13496724 0.37764984 2.6907136
000360 14 cb 5b 3e cf 1f d6 bc 96 3b 9d bc b8 9b c9 bd
       0.21464187 -0.026138214 -0.019193452 -0.09844154
000370 c3 e1 bf be c0 50 e5 be e1 56 0c 40 48 8f 4b 3e
       -0.3747693 -0.4478817 2.1928027 0.19878876
000380 8b 93 f5 bd 6c 80 7c bd 63 34 2a be b4 c4 b1 bc
       -0.11991032 -0.06164591 -0.16621546 -0.02170024
000390 89 b1 e4 3d f1 c5 0f c0 07 cb 99 3e 14 e8 a0 3e
       0.11166675 -2.2464564 0.3003771 0.31427062
0003a0 3f 27 e9 bd 8b eb b2 bd 30 6d e5 be b8 b2 04 bf
       -0.11384439 -0.087363325 -0.44809866 -0.51835203
0003b0 06 ba 1a 40 53 2a 8f 3b a3 50 a3 3d f4 bf a2 3e
       2.417604 0.004369059 0.079743646 0.31787074
0003c0 19 cf c4 3d 6f 20 0b 3e 23 e6 4f bf cc ec 19 40
       0.09609813 0.13586591 -0.81210536 2.405078
0003d0 19 73 4c 3e 0c 43 60 3e f6 80 c0 be 20 4a 6a 3e
       0.19965781 0.21900576 -0.3759839 0.22879839
0003e0 0a 02 9d 3d 42 32 84 3f 4b 4c 11 40 b8 ff bb be
       0.076664045 1.0327837 2.2702816 -0.36718535
0003f0 7f 03 0f be ab 8b 00 3e fd 4e 31 bd 0a 81 b5 be
       -0.13966177 0.12553279 -0.04328822 -0.35450011

critic.0.bias f4 [64]
000000 fc 24 f7 3d 87 85 00 3e 3d e8 50 be 7b 13 25 3e
       0.12067601 0.12550937 -0.20401092 0.16120712
000010 da c3 3b 3e c9 0c 34 be 10 eb c0 3e 1e a2 27 bd
       0.1833643 -0.17583002 0.37679338 -0.04092609
000020 11 30 d4 3e bc c0 9a 3e 57 51 7c 3e 9b f9 93 be
       0.41442922 0.3022517 0.24640404 -0.2890137
000030 ec a9 ea bd b5 50 95 3e c9 86 0f 3e 14 c4 0e 3e
       -0.11458191 0.29163137 0.1401626 0.13941985
000040 dd 32 10 3e f0 46 95 be e1 58 43 3e 27 a6 ab be
       0.14081903 -0.29155684 0.19076873 -0.33525202
000050 09 f3 27 be b7 00 83 bd 1b c9 f5 3e 47 b8 8c be
       -0.16401304 -0.06396621 0.48004994 -0.27484342
000060 a4 d5 11 be a9 e4 81 bd 10 ab 55 be 33 32 7f be
       -0.14241654 -0.063424416 -0.20866036 -0.24921493
000070 3c 85 fe bd c6 cb ca 3e 3e cb a1 3b 49 7c 8e 3e
       -0.12427756 0.39608592 0.0049375584 0.27829197
000080 bc c0 3a 3d 64 5b 74 3e 5f 75 ae be 16 00 29 3e
       0.045593962 0.23862988 -0.34073922 0.16503939
000090 cd be 71 3e cb b6 0c 3f aa 97 21 3e 47 94 a4 be
       0.23607941 0.5496642 0.15780511 -0.32144377
0000a0 11 f4 a0 bd eb d5 0a 3f ce 6c 4a 3e 78 1f 8e bd
       -0.07859052 0.5423266 0.19768068 -0.06939596
0000b0 83 f4 38 be 8c e9 0b be 2d b3 8a 3d e6 7a fc be
       -0.18062024 -0.1366331 0.06772456 -0.49312514
0000c0 d3 77 99 bd b6 3d 77 be 05 42 5b be 5c a6 00 3c
       -0.07493558 -0.24144635 -0.21411903 0.007852163
0000d0 21 13 6f be 9b eb 7f 3d a1 de 87 3e 45 c0 43 3e
       -0.23347141 0.06248055 0.2653704 0.19116314
0000e0 f0 ce 57 be 58 c4 33 3c f5 51 f0 3e 5e 34 cc 3d
       -0.21075034 0.010972105 0.46937528 0.09970926
0000f0 d5 cc b4 bd a5 34 72 3e 21 76 d2 3e 5e ba 03 bf
       -0.08828131 0.23652895 0.4110575 -0.5145625

critic.2.weight f4 [64, 64]
000000 db eb 49 3e 8b a0 cc 3c 10 a5 d4 be f6 00 f0 bc
       0.19718878 0.024978897 -0.41532183 -0.029297333
000010 38 15 86 3e 4d 31 61 be 9a b8 b0 3d ee f9 c4 be
       0.26188064 -0.21991463 0.0862896 -0.3847193
000020 85 62 8a 3d 25 ae 1c be 24 f0 6e bd 74 cc e8 bd
       0.06757072 -0.15300806 -0.058334485 -0.11367121
000030 e4 4c a5 bd 78 c4 cc 3e 13 2d ef bd c4 fa e1 3c
       -0.08071306 0.39993644 -0.11678519 0.027585395
000040 eb 79 cf 3d c8 59 b9 3d 4e 40 d4 3e 12 a2 66 bd
       0.10130676 0.090503275 0.4145531 -0.056306906
000050 c2 f5 b1 3d e1 3c e4 3a 67 37 b3 3b a7 e0 85 be
       0.08689453 0.0017413163 0.005469251 -0.2614796
000060 75 a9 ca bc ef ca 33 bd 55 a8 0a 3e 8f f6 61 be
       -0.024739007 -0.043894704 0.13540776 -0.22066711
000070 7a 97 15 be 5f b6 2a 3e 1c e4 51 be 24 54 93 be
       -0.14608565 0.16671132 -0.20497173 -0.28775132
000080 93 93 a1 bd 2c 01 43 be 4d 90 90 bd 85 40 58 bd
       -0.07889476 -0.19043416 -0.07058773 -0.052795906
000090 8f 01 55 3d af 35 a8 3e 74 6c 57 3d 8a 1d cd 3d
       0.05200344 0.32853457 0.052593663 0.100154
0000a0 9b 3f 90 3d 62 c0 d8 bd b2 08 e2 3e ee be 53 be
       0.07043382 -0.10583569 0.4414726 -0.20678303
0000b0 f7 b9 0b be 0e f5 1f be c8 78 15 3e e7 ff 2d 3e
       -0.13645159 -0.15620825 0.14596856 0.1699215
0000c0 12 c5 da 3e 5c 0b bc be e4 6b b9 3d 5f 79 67 3e
       0.42728478 -0.36727417 0.09053782 0.22604893
0000d0 cc 2c 17 bb d6 66 6e 3b 0e ea f5 3d 6e 64 ab 3d
       -0.0023067473 0.0036377213 0.12007533 0.08368765
0000e0 c0 d2 28 3e d2 6a eb 3d ca 73 6f bc ce b9 76 3e
       0.16486645 0.11494984 -0.014615009 0.24094316
0000f0 5d bd b0 3d ba c8 e6 3d 7d 0c 83 3d 17 6e a5 3e
       0.08629868 0.11268754 0.06398866 0.32310554
000100 90 1b b6 3d 0b 75 19 be 0d 7b 3e 3e f6 77 e1 3d
       0.08891976 -0.14986055 0.18601628 0.11009209
000110 9e 0e 4f be b6 fc dc bd e0 d7 9f 3d 64 95 11 3e
       -0.2022042 -0.10790388 0.07804847 0.14217144
000120 0b 7f 04 be 29 06 b0 3d 59 f7 bb bd 87 94 79 3e
       -0.12939088 0.08594925 -0.09178037 0.24373065
000130 7b d4 bb bc 95 a6 1e be 8b bc 7b 3d 1c 0f bc bd
       -0.022928467 -0.15493234 0.061459105 -0.091825694
000140 62 4a 7e bb 8a 4b a6 3b 8a 33 24 be 16 65 40 3d
       -0.003880166 0.005074923 -0.16035286 0.046971403
000150 89 e3 08 3e 03 09 1d bc 02 26 47 3d e1 c7 5c 3e
       0.13368048 -0.009584668 0.04862023 0.21560623
000160 59 5b d9 bd f8 5f 92 bd 15 f2 b0 bd 98 c4 dc 3d
       -0.10613126 -0.07147211 -0.086399235 0.10779685
000170 57 23 5b 3d a3 ac a2 bb 06 70 05 3d 26 f3 27 3c
       0.0535005 -0.0049644276 0.032577537 0.010250842
000180 2d 1d 2a be 98 09 b9 3d 49 cf 75 bd 5e 02 18 3e
       -0.16612692 0.09035033 -0.060012136 0.14844653
000190 f1 29 01 be 5a 0f 6d 3d c5 45 a9 3d 89 af 16 bd
       -0.12613656 0.05787597 0.082652606 -0.036788497
0001a0 e8 a3 3f 3e cb e2 f2 bd 39 bf 88 bc 56 4f 77 bc
       0.18714869 -0.118596636 -0.016692745 -0.015094599
0001b0 0f 7e 4c 3d 71 1e 2f 3d fc 50 fe bd 7e 84 e2 3d
       0.049924906 0.04275364 -0.1241779 0.11060427
0001c0 b3 3d 5a bd eb db 7f bd e4 d4 0e bd cf 1e 85 3d
       -0.053281497 -0.06246559 -0.034870997 0.06500017
0001d0 07 e3 f9 3d 36 5a 9e bc 1d d5 80 3c cc 34 c5 bd
       0.12201505 -0.019330125 0.01572662 -0.09629211
0001e0 76 bc b3 3a 2d d4 a1 3d 52 35 b9 bc e0 0b 82 bd
       0.0013712782 0.079017974 -0.022608433 -0.06349921
0001f0 db 2a 09 3e 77 c0 ce bd cc 71 bb bd 8e e4 a1 bb
       0.13395254 -0.100953035 -0.091525644 -0.004940576
000200 34 4c 35 3d 4c 41 18 3e 49 b1 bd 3d 59 2c 08 be
       0.044262126 0.14868659 0.0926233 -0.13298167
000210 fe fa c7 3d 5f ae 06 3d dc 86 9d bd 0f 8c d7 bc
       0.0976467 0.032881137 -0.07691738 -0.026311902
000220 0c 5d 78 bd cc 43 03 3d 5c 7b 77 bd 1c 88 43 bd
       -0.06063561 0.032047078 -0.06042038 -0.047737226
000230 23 d1 c6 3d 15 ea 20 be 19 d8 a7 bd 29 9b c3 bd
       0.097078584 -0.15714295 -0.08195514 -0.09551079
000240 82 83 dd 3c 34 74 29 ba 1b 69 82 bd 5f 2e 2f 3d
       0.027040247 -0.0006464154 -0.063677035 0.042768832
000250 9d fb 25 3d a6 3b c0 3d 63 61 b3 3d a8 a6 ba bc
       0.04052316 0.09386377 0.087588094 -0.022784546
000260 ca b7 8d 3b 2b 3b 61 3d 51 47 9c bd e2 f6 1c 3d
       0.004324888 0.054988068 -0.0763079 0.038321383
000270 9e bb 8a bd df 36 10 bd 3c d2 8b bd d1 72 20 3c
       -0.067740664 -0.03520858 -0.068272084 0.009792999
000280 ff 68 6a bd ae ff d9 bd d2 24 99 3c d1 fd d3 bd
       -0.05722904 -0.1064447 0.018694315 -0.10351146
000290 d3 c9 73 3d a3 62 7a 3d 61 53 87 bc 68 93 04 bd
       0.059518646 0.061129224 -0.01651925 -0.03236714
0002a0 af 72 2d bd d8 b0 84 3d 26 4b 7a 3d 2d 7c 22 bc
       -0.0423457 0.06479043 0.061106823 -0.009917301
0002b0 13 59 78 bc d5 de 01 3e b0 d6 55 bc fb 4f c5 3c
       -0.015157956 0.1268266 -0.013051674 0.02408599
0002c0 64 bb 02 be 8c 13 aa 3b bd 94 b9 3c 40 7e e5 3d
       -0.12766796 0.0051903185 0.022653932 0.11205721
0002d0 2b b0 6c bd 91 8b 88 bd 01 31 ac bd d9 ba d0 3d
       -0.057785194 -0.06667245 -0.08407784 0.10191888
0002e0 71 5e 79 bd 16 f8 d3 bd 4c f4 5c 3c a4 2e 26 bb
       -0.060881082 -0.10350053 0.013485979 -0.002535739
0002f0 12 5a a6 3b d6 0f d9 bc 4a 33 b3 3d 7e 3f b9 3d
       0.005076655 -0.026496809 0.08750017 0.09045313
000300 91 e0 4c 3d 97 04 71 3d 4e 89 c3 3d d6 e1 6c 3c
       0.05001885 0.058842268 0.09547673 0.01445814
000310 ac 03 dc 3c 2d d8 e7 bd 6e f7 04 bd 4c 37 74 bd
       0.02685722 -0.11320529 -0.03246253 -0.059623048
000320 1e db 3a bd 98 4d 3f bd 8a 35 92 3c e8 e7 3f 3d
       -0.045619123 -0.04670486 0.017847795 0.046852022
000330 a2 98 a9 bb 5d 33 50 3d ff 28 a9 bd 02 01 c9 3d
       -0.005175666 0.050830234 -0.082597725 0.09814645
000340 47 59 1a be 75 9f 6e bd 3a cf 8a bd 17 e4 11 bd
       -0.15073119 -0.05825754 -0.067778066 -0.035617914
000350 92 12 b8 3c c6 5f d9 bd 3c 08 c7 3d 33 3f 86 3d
       0.022469793 -0.106139705 0.097183675 0.06555023
000360 40 22 cb 3d ca 77 b3 bd 71 15 9e bc 06 4f b6 bb
       0.09918642 -0.08763082 -0.019297333 -0.0055636195
000370 19 7f 52 3d 98 41 a4 3c f5 17 87 3b 83 6f 6a bd
       0.05139074 0.020050809 0.004122729 -0.057235252
000380 64 6f 33 bd b9 3f 02 3e 92 60 3b bd 19 b9 f0 bd
       -0.043807402 0.12719621 -0.045746394 -0.117540546
000390 0e b4 c7 3d 91 84 67 bd d7 4c 5a bd 96 f4 1c bb
       0.097511396 -0.05652291 -0.053295936 -0.0023949496
0003a0 86 25 5c 3d de 61 67 3d 60 22 d7 3c 82 25 d6 bd
       0.053746723 0.056489818 0.026261508 -0.10456373
0003b0 ea 48 bf bc e2 f8 23 bd bb e3 06 bd 0e 6a 2d 3d
       -0.023350198 -0.040032275 -0.032932024 0.04233747
0003c0 da 49 98 3d 8f 43 a1 3c 77 28 41 3c 79 b1 65 3d
       0.07435961 0.019685535 0.011789433 0.056077454
0003d0 f3 f7 e2 3d 8f b1 96 bc 3a 12 84 3d 4c 6c aa bd
       0.11082449 -0.018395213 0.06448789 -0.08321437
0003e0 81 fd 85 3d 50 ed b2 3a 3f e5 9e bd fe e8 03 bd
       0.06542493 0.0013651047 -0.07758569 -0.03220462
0003f0 b5 67 6c bb fe 57 f9 3c f3 20 91 3d d1 69 78 bd
       -0.0036072556 0.030437466 0.07086363 -0.06064779

critic.2.bias f4 [64]
000000 12 17 58 3c 15 14 0e be 40 ae 70 3c c8 e4 0d bd
       0.013189094 -0.13874848 0.014689982 -0.03464201
000010 ea 17 af 3d 43 8e 17 be 68 79 87 be 00 23 90 3c
       0.08549483 -0.14800362 -0.26459813 0.017594814
000020 29 3d ea bd 76 87 82 bd c7 ec 12 3e 26 53 24 3d
       -0.114374466 -0.063734934 0.14348136 0.04011836
000030 65 f2 6e bc 50 5f 37 bd 87 01 0b bc c4 f9 1a 3d
       -0.014584159 -0.04476863 -0.008484251 0.03783585
000040 f1 7e 6f 3d 76 4c 20 be bf eb 5a 3d 45 eb c3 bd
       0.05847067 -0.15654168 0.05344748 -0.095663585
000050 2b b4 f0 3d e4 4e b6 3d 74 01 43 bd bc b9 65 3d
       0.11753114 0.08901766 -0.047608808 0.056085333
000060 d4 20 ef bb 08 ef 1d 3b 87 cb ca bd b7 79 63 3e
       -0.0072976146 0.0024098773 -0.09902101 0.222144
000070 64 e3 96 3b 4e 92 e0 3c 70 7f 79 3e 02 00 55 bc
       0.004604744 0.027413514 0.2436502 -0.01300049
000080 b9 79 88 3d 30 4a 8e 3d 6d fb 97 bd 71 88 e9 bb
       0.06663842 0.06947744 -0.074210025 -0.007126861
000090 f1 98 1f bb 3c d3 8e 3c 26 0a a8 3d 14 51 6e bd
       -0.0024352635 0.017434709 0.08205061 -0.05818279
0000a0 c6 7b 81 3d 09 1d ee bc 8e b6 a9 3d 34 52 ba 3c
       0.06322436 -0.02906658 0.08286773 0.022744276
0000b0 b3 4a 8b 3d 68 9f 88 3d e6 02 ac bc bd 5e 0b 3e
       0.06801357 0.06671029 -0.020997476 0.13610359
0000c0 be 4a 62 be 7f c8 5c bd 42 42 b0 bc 50 96 ee bc
       -0.22098824 -0.053902145 -0.02151597 -0.029124409
0000d0 c9 52 9c be 05 c1 43 bd c0 db fc bc bf cb 89 bd
       -0.3053191 -0.0477915 -0.030866504 -0.067283146
0000e0 e9 9c df bd 15 b1 d6 3d 45 ef ee bd bf de ed bd
       -0.109186 0.104829945 -0.11666731 -0.11614751
0000f0 25 99 47 3d f7 dd d4 3c 4b 91 86 3d a6 55 3c 3d
       0.048730034 0.025984747 0.06570681 0.04598012

critic.4.weight f4 [1, 64]
000000 04 90 6c 3e a4 75 59 bd 6c 85 4b bb e8 69 8f bb
       0.23101813 -0.053090706 -0.0031054867 -0.0043766387
000010 da f0 0c 3b 66 bf 34 be 3d f3 17 3e d9 bd 31 3b
       0.0021505863 -0.17651138 0.14838882 0.0027121215
000020 3a 1f 77 be 3a 95 16 3b 32 0b 0d 3e 74 b0 b7 39
       -0.24133006 0.002297713 0.13773802 0.00035035948
000030 87 32 a3 3a 72 71 97 b9 9d 53 38 3b 75 3a 02 be
       0.0012450971 -0.00028885488 0.002812601 -0.12717612
000040 e0 e2 ae bb 01 9a d3 bd c9 60 83 3b 1c d9 4e bb
       -0.005337104 -0.10332108 0.0040093404 -0.0031562513
000050 33 0f 57 3a 97 70 56 3b 26 75 87 3a 40 8d 04 ba
       0.0008203864 0.0032720917 0.0010334596 -0.0005056448
000060 67 f4 93 3a ce 8b da 3a 63 e3 10 bb 2a 0c 70 3c
       0.0011288048 0.0016673745 -0.002210819 0.014651338
000070 51 a5 e2 39 12 be 9f 39 18 69 2c 3e 6f ad 4a ba
       0.0004322925 0.00030468457 0.16836965 -0.0007731532
000080 75 03 05 3b 21 7d 53 3a df d1 5a bb ad fe 23 ba
       0.002029625 0.0008067657 -0.0033389253 -0.0006255906
000090 15 a2 5f 3a e0 1f 88 bb 91 39 71 3a 6f ad 22 3b
       0.0008530927 -0.0041541904 0.00092019985 0.0024822613
0000a0 12 86 11 3b 9f d8 d6 ba 94 17 94 ba 86 4d a1 3a
       0.0022205156 -0.0016391462 -0.0011298531 0.0012306429
0000b0 32 6c ad 3a 0b 4f 38 3b fa 7f b3 ba ed a2 00 3e
       0.0013231097 0.0028123285 -0.0013694756 0.12562151
0000c0 56 c9 39 bc a0 0c b4 b9 a9 e4 b5 3a a5 1a ba 3a
       -0.011339506 -0.00034341682 0.001387735 0.0014198615
0000d0 81 b5 16 3e 73 fe 84 37 58 a1 5d ba 68 de 7f be
       0.14717676 1.5854113e-05 -0.0008454523 -0.24987185
0000e0 d7 25 d0 ba 1f 71 2d be 9b 72 f8 3e 46 31 9d ba
       -0.0015880418 -0.16937684 0.48524937 -0.0011992834
0000f0 8e 18 0a b9 cd 0d e9 39 c0 af 35 37 22 6a 8d 3d
       -0.00013169853 0.00044451506 1.0829361e-05 0.06905009
