trained/ComplexPong/PPO_mcts_frequent_1728536822.500878.pth (torch, 44914 bytes, 11 tensors)

actor.0.weight f4 [64, 7]
0	0x3bc47bba	0.0059961947
1	0xbe45fffc	-0.19335932
2	0x3e6c6f38	0.23089302
3	0xbe4b8df3	-0.19878368
4	0xbdc283ed	-0.09497819
5	0xbe10c2c8	-0.14136803
6	0x3e1a87f2	0.15090922
7	0xbd4da95a	-0.050210334
8	0x3ec86e5a	0.39146692
9	0xbe53b192	-0.20673206
10	0xbe8a5a12	-0.27021843
11	0xbe94f0bd	-0.2908992
12	0xbf2b07e0	-0.6680889
13	0xbd51d24a	-0.051225938
14	0x3d8977ec	0.067123264
15	0xbea7145c	-0.3263272
16	0x3eaa0054	0.33203375
17	0xbe21e637	-0.15810476
18	0x3f395b9a	0.724054
19	0xbe0ca0da	-0.13733235
20	0x3e35fa04	0.17771155
21	0xbdeb7ef6	-0.11498825
22	0x3f10999e	0.564844
23	0xbec3c193	-0.38233623
24	0xbe1e1a84	-0.15439802
25	0xbef66542	-0.4812413
26	0x3c9410fc	0.018074505
27	0xbe0568f0	-0.13028312
28	0x3ed66fe5	0.41882244
29	0x3f0d8811	0.55285746
30	0xbee9a691	-0.45634893
31	0xbe6ce7f8	-0.23135364
32	0xbe9d1a89	-0.30684307
33	0x3e720d8a	0.23637977
34	0xbe9670f2	-0.29383045
35	0xbe73cac0	-0.23807812
36	0xbd582085	-0.052765388
37	0x3ed3de82	0.41380697
38	0x3d719905	0.05898382
39	0x3f56ef1f	0.8395862
40	0xbee4190c	-0.4455036
41	0x3cb78462	0.022401992
42	0xbe43551f	-0.1907544
43	0xbf01290a	-0.50453246
44	0x3ef992ff	0.48744962
45	0x3c82905e	0.01593798
46	0x3f431d0a	0.76216185
47	0xbeeb7c2b	-0.4599317
48	0xbe0e7df9	-0.13915242
49	0xbd7c1561	-0.061543826
50	0xbe9fedfc	-0.31236255
51	0x3ef7b035	0.48376623
52	0x3dab1883	0.083542846
53	0xbd7b4205	-0.061342258
54	0xbe8db2d5	-0.276755
55	0xbdd2d214	-0.102939755
56	0x3e5ee7b0	0.2176807
57	0xbeb96a42	-0.3621388
58	0x3ed11345	0.40835014
59	0x3e963c5d	0.2934293
60	0x3f19a58e	0.6001824
61	0x3f1bd278	0.60868025
62	0xbdd7c093	-0.105347775
63	0xbe3a7f82	-0.18212703
64	0x3e6fa452	0.23402527
65	0x3e2f0aa0	0.17093897
66	0xbe8a210c	-0.26978338
67	0x3c921a48	0.017834798
68	0xbf7cdc10	-0.9877329
69	0xbe452749	-0.19253267
70	0x3da3d7d9	0.08000154
71	0x3e44efaa	0.1923205
72	0xbeb76623	-0.35820112
73	0xbc96a654	-0.018389858
74	0xbea1e73e	-0.31621736
75	0xbef2762d	-0.47355786
76	0xbe879e55	-0.26487985
77	0xbca7c0ca	-0.020477671
78	0xbe7da080	-0.24768257
79	0x3e4bd680	0.19906044
80	0xbe073486	-0.1320363
81	0xbd9c7e5a	-0.07641287
82	0xbef196ea	-0.4718545
83	0x3e2397bc	0.15975851
84	0x3e3b783a	0.18307582
85	0x3e7b0e12	0.24517086
86	0xbedb67f5	-0.4285275
87	0x3d0e5a6e	0.03475421
88	0xbe873e42	-0.26414686
89	0x3df770c9	0.12082059
90	0xbd216242	-0.039400347
91	0x3e955235	0.2916428
92	0x3e43d85b	0.19125502
93	0xbee40093	-0.44531688
94	0x3ec9b207	0.39393637
95	0xbf512828	-0.817019
96	0x3e7f7e08	0.24950421
97	0xbe650535	-0.22365268
98	0x3e773c7a	0.24144164
99	0xbebf5784	-0.37371457
100	0x3ea44a2d	0.32087842
101	0x3ee96bfa	0.45590192
102	0x3e1ac816	0.15115389
103	0x3f0d6236	0.55227983
104	0xbe996430	-0.2995925
105	0xbe1794dd	-0.1480288
106	0x3d9da2df	0.07697081
107	0x3f136a57	0.57584137
108	0x3b3dc2a9	0.0028955138
109	0x3f3c389e	0.7352389
110	0x3d3749f4	0.04474826
111	0xbe0ddb47	-0.13853179
112	0x3d11acf4	0.03556533
113	0xbc9ed510	-0.019388705
114	0xbe5d1015	-0.21588166
115	0xbe4a66dc	-0.197658
116	0xbde02426	-0.10944395
117	0x3c237d7d	0.009978649
118	0x3e66fced	0.22557421
119	0x3ea7607f	0.32690808
120	0xbe30c1a7	-0.17261373
121	0xbd83c320	-0.064337015
122	0x3c113f13	0.008865136
123	0xbe82cd8c	-0.25547445
124	0x3e815589	0.2526057
125	0x3c5b7448	0.013394423
126	0xbeabe46c	-0.3357271
127	0x3db07ca1	0.08617521
128	0x3effc289	0.49953106
129	0xbe37ca2a	-0.17948213
130	0x3f07f2b4	0.5310471
131	0xbda48e96	-0.080350086
132	0xbdaf3986	-0.085558936
133	0xbe511154	-0.20416766
134	0xbe92ffbb	-0.28710732
135	0x3eea7cc6	0.4579832
136	0xbe58758e	-0.21138594
137	0x3f2c606c	0.6733463
138	0xbe676843	-0.22598366
139	0x3ded13ac	0.11576018
140	0x3e071abb	0.1319379
141	0x3d846b13	0.06465735
142	0x3e2f9986	0.17148408
143	0x3ec4d056	0.38440198
144	0x3ec3d299	0.3824661
145	0x3f87f524	1.0621686
146	0xbe56201a	-0.20910683
147	0x3c10ae83	0.008830669
148	0x3ec7450d	0.3891987
149	0xbe563916	-0.20920214
150	0xbea60fd2	-0.32433945
151	0xbf35c23d	-0.7099951
152	0xbe65ac45	-0.22428997
153	0xbd549650	-0.05190116
154	0x3d893b8c	0.06700811
155	0x3e8d7752	0.27630097
156	0xbee40b40	-0.44539833
157	0x3e5ebbc6	0.21751317
158	0x3dbb98cc	0.09160003
159	0x3e9f1922	0.31073862
160	0x3dd582ff	0.10425376
161	0x3c8f0c0b	0.017461797
162	0xbebdc000	-0.37060547
163	0x3f0251f4	0.509063
164	0xbe7fb84c	-0.24972647
165	0x3f2aada2	0.6667119
166	0xbefd136e	-0.49428886
167	0xbe7bb5a9	-0.24581017
168	0x3e967f89	0.29394177
169	0x3caacaf4	0.020848729
170	0xbeee6f8b	-0.46569476
171	0xbe2406f2	-0.16018274
172	0xbe399cf9	-0.18126287
173	0x3eabccf4	0.33554804
174	0xbd26a88c	-0.040688083
175	0xbe7d1231	-0.2471397
176	0x3eef41cf	0.46729895
177	0xbe9e5f1d	-0.3093194
178	0x3e112fad	0.14178343
179	0xbf1962f5	-0.5991662
180	0x3cd76426	0.026292872
181	0xbe36e709	-0.1786157
182	0x3e4226ec	0.1896016
183	0x3f0b409d	0.5439547
184	0xbeb1aef0	-0.3470378
185	0xbe4fc862	-0.20291284
186	0xbdc8f153	-0.09811654
187	0x3dbd9e7d	0.09258745
188	0xbe31a146	-0.17346677
189	0x3e6000ad	0.21875258
190	0xbeb8e318	-0.3611076
191	0x3ef563c9	0.47927693
192	0x3d0b0a47	0.033945348
193	0x3d252bad	0.040324856
194	0x3db4dc8d	0.08831129
195	0x3d7ef253	0.062242817
196	0x3e80bfb9	0.25146273
197	0x3ee935b1	0.45548776
198	0xbe198187	-0.14990817
199	0xbdc44d5c	-0.09585068
200	0xbe72a474	-0.23695546
201	0x3ec29551	0.38004544
202	0xbe325815	-0.17416413
203	0xbe9d96b6	-0.30779046
204	0x3eed6910	0.4636922
205	0xbe94a8dd	-0.29035082
206	0x3e626bfd	0.22111507
207	0xbf0414f2	-0.5159446
208	0x3e56788e	0.20944425
209	0xbdb00df5	-0.08596412
210	0x3e571b56	0.21006522
211	0x3e81368b	0.25236925
212	0xbf16c845	-0.5889934
213	0x3e537544	0.20650202
214	0xbf508b74	-0.8146279
215	0x3d596d16	0.053082548
216	0x3e34e287	0.17664538
217	0x3e0ee529	0.13954605
218	0xbd29d056	-0.04145845
219	0x3e956c73	0.29184303
220	0x3e809ae9	0.25118187
221	0x3f0ded2d	0.55440027
222	0x3f31c3c7	0.6943936
223	0xbe273105	-0.16327293
224	0xbe19cbe5	-0.15019186
225	0x3f03b221	0.5144368
226	0xbe5a541a	-0.21321145
227	0xbcfcf803	-0.03087998
228	0xbf1191d5	-0.5686315
229	0x3ed63cb5	0.4184319
230	0xbd5e5dc8	-0.054288656
231	0xbe9a4fd3	-0.30139026
232	0x3e445fcd	0.1917717
233	0x3ddcbee4	0.10778597
234	0xbe76e6c0	-0.24111462
235	0x3e9cdfd8	0.3063953
236	0xbe390e02	-0.1807175
237	0xbe8c5895	-0.27411333
238	0x3e00e4b5	0.12587245
239	0xbf01ec1e	-0.5075091
240	0x3e7bf6f7	0.24605928
241	0x3e35204f	0.17688106
242	0x3f16203c	0.58642936
243	0xbe0b6fc8	-0.1361686
244	0xbce1ce4e	-0.027564194
245	0x3d439309	0.047747646
246	0x3b5c6f26	0.0033635586
247	0xbdf4a953	-0.119463585
248	0x3e3fda29	0.18735565
249	0xbea7ee90	-0.32799196
250	0x3ecf65bd	0.40507308
251	0x3e35ce4e	0.1775448
252	0xbe2525cc	-0.161277
253	0x3f15f5f8	0.58578444
254	0xbf2451be	-0.6418723
255	0xbe80109a	-0.25012666

actor.0.bias f4 [64]
0	0xbc579bc9	-0.013159701
1	0x3d7d79f2	0.061883874
2	0xbdb6d7de	-0.08927892
3	0x3e50c282	0.20386699
4	0xbd00d6bd	-0.03145479
5	0xbe23e01a	-0.16003457
6	0x3e7126c2	0.23549941
7	0xbe01b8fa	-0.12668219
8	0xbeb4115a	-0.35169488
9	0x3e0862fb	0.13319008
10	0x3e8babaa	0.27279407
11	0x3c623ce8	0.0138084665
12	0x3b80c36e	0.003929547
13	0xbe740b49	-0.2383243
14	0xbe78cc08	-0.24296582
15	0xbe9fe2fb	-0.3122786
16	0x3dfc2c44	0.123131305
17	0xbd9b5ce5	-0.075860776
18	0xbe2d4c2e	-0.16923591
19	0x3e0541b7	0.1301335
20	0xbed25332	-0.41079098
21	0x3e613bb8	0.21995437
22	0xbde61f1c	-0.112364024
23	0x3e8f4b71	0.27987245
24	0x3e9aa0b8	0.30200744
25	0x3ba4776d	0.0050191195
26	0xbdb62322	-0.0889342
27	0xbe810c58	-0.2520473
28	0xbe252698	-0.16128004
29	0xbd83ad6e	-0.064295635
30	0xbe1f0f8b	-0.15533273
31	0xbe64f64f	-0.22359584
32	0xbe1625ac	-0.14662808
33	0x3e9c80c1	0.3056698
34	0x3d18a9dc	0.037271366
35	0xbe650dc7	-0.22368537
36	0x3e9ca473	0.30594215
37	0xbca1be93	-0.019744193
38	0xbcc713ce	-0.024301436
39	0x3c98d485	0.018656025
40	0x3ece5ad4	0.4030367
41	0xbd6b9700	-0.05751705
42	0xbe628aa7	-0.22123204
43	0xbdd8f554	-0.105936676
44	0x3da6e91e	0.08149932
45	0xbdffdf36	-0.12493746
46	0x3d1c3acd	0.038142014
47	0xbea61252	-0.32435852
48	0x3dc86975	0.09785739
49	0xbe323417	-0.17402683
50	0xbe5eb360	-0.21748114
51	0xbe9c9996	-0.30585927
52	0x3d217b35	0.03942414
53	0x3e4ad07f	0.19806097
54	0xbe25ee9d	-0.16204305
55	0x3ea24f4a	0.31701118
56	0xbd48b0f6	-0.048996888
57	0xbe5bd427	-0.21467648
58	0x3ea13569	0.3148606
59	0x3e73c923	0.23807196
60	0x3e967bd6	0.29391354
61	0x3da82974	0.082110316
62	0xbcee7ca4	-0.029112168
63	0xbd76cdd6	-0.060254894

actor.2.weight f4 [64, 64]
0	0x3cb1db32	0.021710966
1	0xbd6e078b	-0.058112662
2	0x3e974b04	0.2954942
3	0xbedd8484	-0.43265164
4	0xbe973b7b	-0.29537567
5	0x3ea65315	0.32485262
6	0x3f5a753f	0.85335153
7	0x3c6c864d	0.014436317
8	0x3e9df875	0.3085362
9	0xbbd9a194	-0.006641576
10	0xbc6ca2fd	-0.014443156
11	0x3e00b756	0.12569937
12	0xbf12de52	-0.57370484
13	0xbf0e08b7	-0.5548205
14	0x3dd34976	0.10316746
15	0x3e2159d6	0.15756926
16	0x3d423497	0.047413435
17	0xbdac692c	-0.084184974
18	0xbd84bed5	-0.06481711
19	0x3f0bd8ac	0.5462749
20	0xbe45ff47	-0.19335662
21	0xbe136b02	-0.14396289
22	0xbe981943	-0.29706773
23	0x3f1bb5ee	0.6082448
24	0xbdc5e5f4	-0.09663001
25	0xbf2bd0fa	-0.6711575
26	0xbeab6bcb	-0.33480677
27	0x3e96d568	0.2945969
28	0xbe66724c	-0.22504538
29	0xbf205348	-0.6262708
30	0xbf2843fd	-0.6572874
31	0x3d3ac2ca	0.04559592
32	0xbea05810	-0.31317186
33	0x3d0eec61	0.034893397
34	0x3f0eaf30	0.55736065
35	0xbe522ed5	-0.20525678
36	0xbef2d343	-0.47426805
37	0xbdcecea9	-0.10098011
38	0x3d404a42	0.046945818
39	0xbd89f60f	-0.06736385
40	0xbc1314c8	-0.008977123
41	0x3deaaf42	0.11459209
42	0x3e8c884a	0.2744773
43	0x3c73fd31	0.0148919085
44	0x3d2b738f	0.041858252
45	0xbd8b822c	-0.06811938
46	0x3dfe66d7	0.12421959
47	0xbe196aff	-0.14982222
48	0x3e130c9b	0.14360277
49	0xbde9caa5	-0.114156045
50	0xbed66be8	-0.418792
51	0xbe9e35dd	-0.3090047
52	0x3f0adb07	0.5424046
53	0x3e192e5f	0.14959095
54	0xbd4a9ea9	-0.049467716
55	0x3b2625e9	0.0025352186
56	0x3ad33608	0.0016114125
57	0xbdafdb6e	-0.08586775
58	0x3ca3d574	0.019999243
59	0x3e241958	0.16025293
60	0xbe1ec98c	-0.15506572
61	0x3c6f1eff	0.014594792
62	0x3dc1863e	0.09449433
63	0xbec041f0	-0.37550306
64	0xbc911c73	-0.017713761
65	0xbea254f7	-0.31705448
66	0x3e9080ef	0.2822337
67	0xbefe7702	-0.4970017
68	0xbe85b015	-0.26110902
69	0x3de873f1	0.11350239
70	0x3e17c80f	0.1482241
71	0xbce9e847	-0.028553141
72	0x3ee0db7d	0.43917456
73	0xbe29e59f	-0.165915
74	0xbe283824	-0.16427666
75	0xbd6102e7	-0.05493441
76	0xbe0395a9	-0.1285006
77	0xbcbc301e	-0.022972163
78	0x3ec90131	0.3925872
79	0x3def9ab7	0.116994314
80	0x3d6a2813	0.057167124
81	0xbd404487	-0.046940353
82	0x3d928ba0	0.071555376
83	0x3d6777c4	0.0565107
84	0x3de9637c	0.11395928
85	0xbe72e48d	-0.23719998
86	0xbda9a067	-0.082825474
87	0x3e4cde2b	0.20006625
88	0xbd8421f0	-0.064517856
89	0xbe80d633	-0.2516342
90	0xbe08be69	-0.13353886
91	0x3e62dce9	0.22154583
92	0x3d511400	0.051044464
93	0xbe1fedef	-0.15618108
94	0xbdf8fe5c	-0.1215789
95	0x3e6920a7	0.22766362
96	0xbe6d624b	-0.23182027
97	0xbe40aad2	-0.18815163
98	0x3e13ab27	0.14420758
99	0x3e203434	0.15644914
100	0xbf1b5e71	-0.6069098
101	0xbe437a15	-0.1908954
102	0x3cfe77ee	0.031063046
103	0xbc369f3d	-0.011146364
104	0xbe585d4a	-0.21129337
105	0x3e15bf4a	0.14623752
106	0x3eab801b	0.33496174
107	0x3c5fff90	0.013671771
108	0xbdb3597b	-0.087573014
109	0xbdedadd6	-0.11605422
110	0x3e4035b8	0.18770492
111	0xbd947504	-0.072488815
112	0x3cd607cb	0.026126763
113	0x3cf4327f	0.029809235
114	0xbcee1fb1	-0.029067846
115	0x3e228cf3	0.1587408
116	0x3e58b6f3	0.2116354
117	0x3dc16b03	0.09444239
118	0x3d202fac	0.039107963
119	0xbe0ad493	-0.13557653
120	0x3e2a8704	0.16653067
121	0xbe0f2354	-0.1397832
122	0xbda43a83	-0.08018973
123	0xbd4d98af	-0.05019444
124	0xbe84c71e	-0.25933164
125	0xbdae3946	-0.08507018
126	0x3e8e71be	0.27821153
127	0x3d6e60ed	0.058197904
128	0x3ce94a26	0.02847774
129	0xbdcfbebd	-0.10143802
130	0x3ea10f71	0.31457093
131	0xbf0f602e	-0.56006134
132	0xbe4ddfd7	-0.2010492
133	0x3f22325f	0.6335811
134	0x3e95561c	0.2916726
135	0x3e49726f	0.19672559
136	0x3e80a0d5	0.25122705
137	0x3dc01b0c	0.09380159
138	0xbe3007ca	-0.17190471
139	0xbd896a4d	-0.067097284
140	0xbee704ea	-0.45120937
141	0xbe5d1dfd	-0.21593471
142	0x3de10059	0.109863944
143	0x3e9efe51	0.31053403
144	0x3e0ca6e6	0.13735542
145	0xbe097425	-0.13423212
146	0x3e4acedf	0.19805478
147	0x3e88b452	0.26700073
148	0x3dbba5c0	0.09162474
149	0xbeb6e80e	-0.3572392
150	0x3d189a66	0.03725662
151	0x3e19aaa6	0.15006503
152	0xbecec5ac	-0.40385187
153	0xbd984ac4	-0.074361354
154	0xbd3486c9	-0.044073854
155	0x3e0cdedd	0.1375689
156	0xbe6dd5e8	-0.2322613
157	0xbdb97ebb	-0.09057375
158	0xbeb749a2	-0.35798365
159	0x3df82800	0.121170044
160	0x3b4322dd	0.0029775419
161	0xbda447d2	-0.08021511
162	0x3df76b80	0.12081051
163	0xbd2a9222	-0.04164327
164	0xbf10f16f	-0.566184
165	0xbea11b67	-0.3146622
166	0xbe3bd25a	-0.18341962
167	0xbde03925	-0.109483995
168	0xbe8dfb55	-0.27730814
169	0x3e560320	0.2089963
170	0x3e97f12c	0.29676187
171	0x3e917b99	0.2841461
172	0xbe059463	-0.13044886
173	0xbd9c4a2b	-0.07631334
174	0x3de63db7	0.1124224
175	0x3e26e479	0.16298093
176	0xbe5cc736	-0.21560368
177	0xbe509832	-0.20370558
178	0x3cddd9d7	0.027081413
179	0xbde83311	-0.11337865
180	0x3ce62f80	0.028098822
181	0xbd87ad14	-0.06624809
182	0xbe226a07	-0.15860759
183	0xbda14c0f	-0.07875835
184	0xbe9914d5	-0.29898706
185	0x3d8296c8	0.063764155
186	0xbdd616f9	-0.104536004
187	0xbe939cd3	-0.28830585
188	0xbd2a78bd	-0.04161905
189	0x3cc04d48	0.02347435
190	0x3e1d5338	0.15363777
191	0x3d245298	0.04011783
192	0xbde89b11	-0.113577016
193	0xbe2884b9	-0.1645688
194	0x3cb4e9b9	0.022084104
195	0xbe0c50d5	-0.1370271
196	0x3d99f77f	0.07517909
197	0xbe261ae7	-0.162212
198	0xbe7814b3	-0.24226646
199	0x3d8d82b1	0.06909693
200	0x3ebd6c69	0.36996773
201	0xbeab848e	-0.3349957
202	0xbdccf565	-0.10007743
203	0xbb9affe3	-0.004730211
204	0x3d71e630	0.059057415
205	0x3e51689a	0.20450059
206	0x3ea0df0e	0.31420177
207	0x3bf66cd5	0.007520298
208	0xbc3ae364	-0.011406753
209	0x3d6da95d	0.058022846
210	0xbdbf9fc1	-0.093566425
211	0xbe641738	-0.22274482
212	0x3dd18f1a	0.102323726
213	0xbd886334	-0.066595465
214	0x3e0ec36a	0.13941732
215	0xbe3daed4	-0.18523723
216	0x3da99bf4	0.08281699
217	0x3d845a73	0.06462564
218	0x3ddb1ec9	0.10699231
219	0x3d7e3d2c	0.062070057
220	0xbc163f0f	-0.009170308
221	0xbd372132	-0.044709392
222	0x3e8c9f05	0.27465072
223	0x3e76da3d	0.24106689
224	0xbd301a67	-0.04299393
225	0xbd4eaa27	-0.05045524
226	0x3d1d030c	0.038332984
227	0x3e1a6770	0.15078521
228	0xbe3a6962	-0.18204263
229	0x3d4a2756	0.04935392
230	0x3e030145	0.12793453
231	0x3d1d5c27	0.03841796
232	0xbe5cf87c	-0.21579164
233	0x3d8f6c4d	0.070030786
234	0x3e7b323a	0.24530879
235	0xbe46c572	-0.19411257
236	0xbd391474	-0.04518552
237	0xbe6e0e1c	-0.2324757
238	0xbd2dae60	-0.042402625
239	0xbd2e94c7	-0.042622354
240	0xbbbd2178	-0.005771812
241	0x3e71cb8a	0.236128
242	0xbd9e1ed5	-0.077207245
243	0x3e518ebb	0.20464604
244	0xbd44e8dd	-0.04807364
245	0x3ce49c63	0.027906602
246	0x3cf41996	0.029797357
247	0xbe03dfde	-0.12878367
248	0x3e41aabc	0.18912786
249	0xbe20fa17	-0.15720402
250	0xbdcaeb03	-0.09908106
251	0xbd52dd9d	-0.05148088
252	0xbcca3fb1	-0.024688574
253	0xbe80a1fa	-0.25123578
254	0x3d8bc98f	0.068255536
255	0x3e28da97	0.16489635

actor.2.bias f4 [64]
0	0x3e78b0c3	0.24286179
1	0xbce49daf	-0.02790722
2	0xbb7fadcb	-0.00390135
3	0xbdd0dca7	-0.10198336
4	0x3d96c527	0.073618226
5	0x3e10ae54	0.14129001
6	0x3e9697fb	0.29412827
7	0xbd8cf990	-0.06883538
8	0x3d6fb10e	0.058518462
9	0x3e6fbcb1	0.23411824
10	0xbdc817a1	-0.09770132
11	0x3e4757af	0.19467042
12	0x3c968473	0.018373704
13	0x3dd457a2	0.10368277
14	0xbe315147	-0.17316161
15	0xbcfdaab3	-0.030965185
16	0x3b8db3d0	0.004324414
17	0x3dd2e50b	0.10297593
18	0xbe1b7d25	-0.15184458
19	0x3dc584a8	0.09644443
20	0x3e1d52e5	0.15363653
21	0x3d860aa3	0.065449975
22	0x3dd66334	0.1046814
23	0x3d65b641	0.056082014
24	0x3d80f7eb	0.062972866
25	0x3df42b3b	0.11922308
26	0x3e7ed1c4	0.24884707
27	0x3d42c1f0	0.047548234
28	0x3ddb658e	0.107127294
29	0x3e0cccaf	0.13749956
30	0x3df00f1c	0.11721632
31	0x3db4a980	0.08821392
32	0x3d34c9e4	0.04413785
33	0x3ea495bd	0.3214549
34	0x3d9475f3	0.072490595
35	0x3cef1864	0.029186435
36	0xbd3e3952	-0.046441384
37	0xbdf45aa1	-0.119313486
38	0x3e552b33	0.2081726
39	0x3e5c75b1	0.2152927
40	0x3e2aae63	0.16668086
41	0x3c5f4f3f	0.013629734
42	0x3cb8cc18	0.022558257
43	0xbe83ed91	-0.25767186
44	0x3d8ee382	0.069769874
45	0x3e67b2a8	0.22626746
46	0xbdb3420f	-0.08752834
47	0x3e8b78a2	0.27240473
48	0xbe002d23	-0.12517218
49	0x3e719fbe	0.23596093
50	0xbe5e3a94	-0.21702033
51	0xbd432893	-0.047646116
52	0x3e886ffc	0.26647937
53	0x3e4d8f11	0.20074107
54	0xbdafc851	-0.08583129
55	0x3e14e10c	0.14538974
56	0x3db61d2f	0.08892285
57	0xbe3c4eec	-0.18389481
58	0xbdde3ae0	-0.10851073
59	0x3e1215a2	0.14266065
60	0xbe282b36	-0.16422734
61	0x3c4c1b91	0.012457744
62	0xbe59d679	-0.21273221
63	0x3db98095	0.09057728

actor.4.weight f4 [9, 64]
0	0xbf951170	-1.1645947
1	0xbe3675b4	-0.17818338
2	0xbe60a74a	-0.21938816
3	0x3e35e9f3	0.17765026
4	0xbddd5bf9	-0.10808558
5	0xbe8009d4	-0.25007498
6	0x3e58d5bc	0.21175283
7	0xbed906d3	-0.4238802
8	0xbe9f73f5	-0.31143156
9	0x3e36a90e	0.17837927
10	0xbd15a0b6	-0.03653022
11	0x3ead8213	0.338883
12	0x3ea42477	0.3205907
13	0xbee3c8ba	-0.4448908
14	0xbe088901	-0.13333513
15	0x3ee0ea04	0.4392854
16	0xbe1be7a5	-0.15225084
17	0x3eaaf8fc	0.33393085
18	0x3ecb6ddf	0.39732262
19	0x3e36149a	0.17781296
20	0xbe9db081	-0.30798724
21	0x3e9223e7	0.28543016
22	0xbf54212c	-0.82863116
23	0xbf12ba68	-0.57315683
24	0xbf353459	-0.70783
25	0x3ea44b95	0.32088915
26	0x3e5d5861	0.21615745
27	0xbea72c41	-0.3265095
28	0x3e660f5b	0.22466795
29	0xbe0cc96f	-0.13748716
30	0xbe6dfea4	-0.23241669
31	0x3ddb73ee	0.10715471
32	0x3cea18ec	0.028576337
33	0xbf830af6	-1.023772
34	0xbf06df40	-0.526844
35	0x3d998267	0.074955754
36	0xbe84ce82	-0.25938803
37	0x3f3fba42	0.7489358
38	0xbf84e980	-1.0383759
39	0x3e3f6aa1	0.1869302
40	0x3cc298de	0.023754533
41	0xbe8c296f	-0.2737536
42	0xbe2fae51	-0.1715634
43	0xbe541a5f	-0.20713185
44	0x3edd51e0	0.43226528
45	0xbecc8e32	-0.39952236
46	0x3e9901f5	0.29884306
47	0xbd16d960	-0.0368284
48	0xbcddab5a	-0.027059246
49	0x3eb5bae1	0.3549414
50	0x3e011395	0.12605126
51	0x3e222ac1	0.15836622
52	0xbf6d4cf6	-0.9269556
53	0x3e571804	0.21005255
54	0x3f4721c2	0.77785885
55	0x3e2ad132	0.16681364
56	0x3ee70c50	0.4512658
57	0x3f7fb763	0.998892
58	0x3f04ef44	0.5192759
59	0x3ec9583d	0.39325133
60	0x3f6bbda3	0.9208624
61	0x3c24e4a4	0.010064278
62	0x3e86ee91	0.26353887
63	0xbd5bf327	-0.053698685
64	0x3b23933f	0.0024959592
65	0xbe74c09c	-0.239016
66	0xbcf09431	-0.029367538
67	0xbe8abc82	-0.27096945
68	0xbccf32b0	-0.025292724
69	0xbdc31f04	-0.095274
70	0x3e39f961	0.18161537
71	0xbcbac6ba	-0.022799838
72	0x3e830cf1	0.2559581
73	0x3e4b64fd	0.19862743
74	0x3e2d1892	0.16903904
75	0xbda12c73	-0.07869806
76	0xbd8b3494	-0.06797138
77	0x3d877676	0.066143915
78	0x3e33b1c1	0.17548276
79	0x3e2370e1	0.15961029
80	0x3e82f0aa	0.25574237
81	0x3e9b5964	0.30341637
82	0x3e66f5d5	0.22554715
83	0xbbb0e65d	-0.005398555
84	0xbd98e8b8	-0.074662626
85	0x3dbad00b	0.09121712
86	0xbe29f388	-0.16596806
87	0x3d87228a	0.06598385
88	0x3d9bfce1	0.07616592
89	0x3e813413	0.25235042
90	0x3d79ee35	0.061018188
91	0xbdd812fa	-0.105504945
92	0xbd70a62e	-0.05875223
93	0x3ea94037	0.33056805
94	0x3ec49b15	0.38399568
95	0xbe22bbe7	-0.15891992
96	0xbe6addae	-0.22936127
97	0xbb91803e	-0.0044403365
98	0x3da016d1	0.07816852
99	0x3e0f7a44	0.14011484
100	0x3e2fcbae	0.17167541
101	0xbe278c1f	-0.16362046
102	0x3b435a79	0.0029808565
103	0x3e45f33f	0.19331072
104	0xbde9f72e	-0.11424099
105	0x3e3e906a	0.18609777
106	0x3e326c59	0.17424144
107	0xbcf4929f	-0.02985507
108	0x3dd941fa	0.10608287
109	0x3caa005f	0.02075213
110	0xbe70350d	-0.23457737
111	0xbc6d8ee6	-0.014499402
112	0xbdf8b614	-0.12144104
113	0x3d9298b1	0.0715803
114	0x3d9b35b5	0.07578603
115	0xbe378661	-0.17922355
116	0xbdfae2fe	-0.122503266
117	0x3e15d200	0.1463089
118	0x3dbe7181	0.09298993
119	0xbd83acbf	-0.06429433
120	0x3e05f4e1	0.13081695
121	0x3c9b2780	0.018939734
122	0x3e1db3f3	0.15400676
123	0x3d97e87e	0.07417391
124	0xbcdc3e92	-0.026885305
125	0xbe393515	-0.18086655
126	0xbea6e977	-0.32599995
127	0xbc1e0b27	-0.009646214
128	0xbe0f3909	-0.13986601
129	0xbeabce64	-0.335559
130	0xbe41c2c6	-0.18921956
131	0xbe419d31	-0.1890762
132	0xbe78c90a	-0.2429544
133	0xbe07ae3c	-0.13250059
134	0xbd8cd8e7	-0.06877308
135	0xbdaef3bd	-0.08542583
136	0x3e1b0980	0.15140343
137	0xbd138717	-0.036017504
138	0x3e269e5b	0.16271345
139	0xbe029a2a	-0.12754121
140	0x3e1638a7	0.14670049
141	0x3cd05723	0.025432175
142	0x3e828a38	0.25496078
143	0x3e088470	0.13331771
144	0x3eae6084	0.3405801
145	0x3e8340e5	0.25635448
146	0x3e8f797a	0.28022367
147	0x3d41a2b8	0.04727432
148	0xbe9f5516	-0.31119603
149	0xbcdb0add	-0.026738578
150	0xbe658d66	-0.2241722
151	0x3c3a8142	0.0113833565
152	0xbe3f856d	-0.18703242
153	0x3eb5c63f	0.35502812
154	0xbe302b12	-0.1720393
155	0xbdddd1d2	-0.10831036
156	0xbe9080eb	-0.28223357
157	0x3ed3190c	0.41230047
158	0x3e9f9448	0.31167817
159	0xbe751ae0	-0.23936033
160	0xbeb13a0d	-0.34614602
161	0x3d08d2ae	0.033404045
162	0xbc4a981d	-0.012365368
163	0x3d60e1f0	0.05490297
164	0x3e764eec	0.24053544
165	0xb94f217c	-0.00019753532
166	0x3b739a0e	0.0037170681
167	0x3e8d8785	0.27642456
168	0xbdaeca9b	-0.08534738
169	0x3e67dd59	0.22643031
170	0x3e829989	0.25507763
171	0x3dfc34d2	0.12314762
172	0x3d93ed00	0.072229385
173	0xbdff7c5b	-0.12474891
174	0xbea85b69	-0.3288224
175	0xbe1c171c	-0.1524319
176	0xbe14945b	-0.14509718
177	0xbdf8da10	-0.12150967
178	0x3e469244	0.19391733
179	0xbe8aa497	-0.27078697
180	0xbd66f41a	-0.056385137
181	0x3c0097ae	0.007848663
182	0x3e8ef330	0.27919912
183	0xbe5072ee	-0.20356342
184	0x3d3ac023	0.045593392
185	0x3d950120	0.07275605
186	0x3e0ce605	0.1375962
187	0xbd8a3cfb	-0.06749912
188	0x3d3cf010	0.04612738
189	0xbea562bb	-0.32301888
190	0xbeb2d0f1	-0.34925035
191	0xbdec0abf	-0.11525487
192	0x3e8c5f34	0.27416384
193	0x3e8fab4a	0.2806037
194	0xbe72f9bf	-0.23728083
195	0x3e69419b	0.22778933
196	0x3e74385e	0.23849627
197	0x3e3d4fb4	0.18487436
198	0x3e6cd852	0.23129395
199	0x3d5e1f96	0.05422934
200	0xbe8f7a25	-0.28022876
201	0xbd3af485	-0.04564335
202	0xbe0aa0c6	-0.13537893
203	0x3e8e0f6d	0.27746144
204	0x3d7df692	0.062002726
205	0x3d5a76c6	0.053335927
206	0xbe032635	-0.12807544
207	0x3dfba296	0.1228687
208	0xbe372e2b	-0.17888705
209	0xbe232cda	-0.15935078
210	0xbe562428	-0.2091223
211	0x3e2905a0	0.16506052
212	0x3e3570a8	0.17718756
213	0x3d404dc6	0.04694917
214	0x3e8fc741	0.28081706
215	0xbd75bad8	-0.05999264
216	0x3e14c440	0.14527988
217	0xbe00e637	-0.1258782
218	0x3e3d74ab	0.18501537
219	0x3db0b77d	0.086287476
220	0x3e1af5c3	0.15132813
221	0xbe1516b8	-0.14559448
222	0xbe495c7d	-0.19664188
223	0x3e67b1c0	0.226264
224	0x3e7b53c6	0.24543676
225	0x3dbef29e	0.09323619
226	0x3b81a2ff	0.003956198
227	0x3d964c79	0.07338805
228	0xbde359b5	-0.11101095
229	0xbdc46ad9	-0.09590692
230	0x3df2ea0d	0.11861048
231	0x3c8b4c69	0.017004209
232	0x3e7e531a	0.24836388
233	0xbd4766d9	-0.048682068
234	0xbdd2c2bb	-0.10291048
235	0xbe9777b6	-0.2958352
236	0xbdbdc8d9	-0.09266824
237	0x3ea1af00	0.31578827
238	0x3e4d7b82	0.20066646
239	0x3e6af5fc	0.22945398
240	0xbdff5016	-0.12466447
241	0x3e9f80fa	0.3115309
242	0xbe5d063e	-0.21584412
243	0x3e1625ea	0.146629
244	0x3e6eb5fe	0.23311612
245	0x3e3f5c03	0.18687443
246	0xbe921943	-0.28534898
247	0x3de83666	0.11338501
248	0xbdd881c7	-0.10571628
249	0xbe05d0eb	-0.13067977
250	0xbe8ab4e6	-0.2709114
251	0x3e0bbe7e	0.13646886
252	0xbdd26e1f	-0.1027491
253	0x3e449558	0.19197595
254	0x3e5a8a9a	0.21341935
255	0x3de0f446	0.109840915

actor.4.bias f4 [9]
0	0xbd4a9a57	-0.049463596
1	0x3d55e382	0.05221892
2	0xbe18fc53	-0.14940004
3	0x3d9f16d0	0.07768023
4	0x3e434511	0.19069315
5	0x3e25a1d1	0.1617501
6	0x3e94f550	0.2909341
7	0x3a70dbd4	0.00091880304
8	0xbe40e364	-0.18836743

critic.0.weight f4 [64, 7]
0	0x3e034a04	0.12821203
1	0xbe0f15fd	-0.13973232
2	0x3e76970f	0.24081062
3	0xbecfaef8	-0.40563178
4	0x3ec3ecd6	0.3826663
5	0xbffd475b	-1.9787401
6	0xbe72edcd	-0.23723526
7	0xbe76d779	-0.24105634
8	0x3dbe3069	0.09286577
9	0x3e1ca7ff	0.1529846
10	0xbe3143bd	-0.17310996
11	0x3cc0f511	0.023554357
12	0x400f27b0	2.2367973
13	0xbd04d4dd	-0.032429565
14	0x3e60541f	0.2190709
15	0xbe95371a	-0.29143602
16	0x3c8bf516	0.01708464
17	0x3d425c6f	0.047451433
18	0x3efa9607	0.48942587
19	0x3fb80f6d	1.4379708
20	0xbd93b7f2	-0.07212819
21	0xbe2befbe	-0.16790673
22	0xbf241116	-0.6408857
23	0x3e5821cd	0.21106644
24	0xbe0d0c4a	-0.13774219
25	0x3f3a2fde	0.7272929
26	0x3fc64a57	1.5491437
27	0xbe8422aa	-0.25807697
28	0xbde15fb7	-0.11004584
29	0xbe6d610c	-0.23181552
30	0xba93eb89	-0.0011285405
31	0x3e6e4792	0.2326949
32	0x3d08b4ff	0.033375736
33	0xc027fc6c	-2.6247816
34	0xbe61b579	-0.22041883
35	0xbed5445d	-0.4165372
36	0x3d8e588e	0.06950484
37	0x3e871bc6	0.26388377
38	0xbf143050	-0.5788622
39	0x3e1a9bd7	0.1509851
40	0x3ef05a02	0.4694367
41	0xbde1b35a	-0.11020537
42	0x3ea1c75d	0.31597415
43	0xbe18d8d0	-0.14926457
44	0xbe5949a7	-0.21219502
45	0xbe33ca0f	-0.17557548
46	0xbe19d3d1	-0.15022208
47	0xc008b8c9	-2.1362784
48	0xbdbf698c	-0.09346303
49	0x3e97897e	0.29597086
50	0x3e393a7c	0.18088716
51	0xbe772469	-0.24134983
52	0xbe9f81ee	-0.31153816
53	0x3ef310a0	0.4747362
54	0xbfc3d3d8	-1.5299025
55	0x3de0de1c	0.10979864
56	0xbc2acd26	-0.010424888
57	0x3ecb0a05	0.39656082
58	0xbe715221	-0.23566486
59	0xbead4040	-0.3383808
60	0x3f02761e	0.5096148
61	0x3e32ca7e	0.17460057
62	0xbe00be4d	-0.12572594
63	0x3eb9f827	0.36322138
64	0xbc9549e6	-0.018223714
65	0xbce651a7	-0.028115107
66	0x3e0fdbcf	0.14048694
67	0x3f0dcaf1	0.5538779
68	0x3f5ea108	0.86964464
69	0xbe8912bc	-0.26772106
70	0xbe504a38	-0.20340812
71	0x3d3f2bea	0.04667274
72	0x3d66f95a	0.056390144
73	0x3e519f8b	0.20471017
74	0xbe539d75	-0.20665534
75	0x3fcfe31d	1.6241184
76	0x3df6d35c	0.12052032
77	0x3e16fd00	0.1474495
78	0xbda20aa3	-0.07912185
79	0xbe825c80	-0.25461197
80	0xbdc435b4	-0.095805556
81	0xbe6db6f1	-0.23214318
82	0xc027aefe	-2.6200557
83	0x3e0a6a6d	0.1351716
84	0xbeb40a92	-0.35164315
85	0x3c180d7d	0.00928056
86	0x3e81a002	0.2531739
87	0xbef2d404	-0.4742738
88	0x3e91e4c5	0.2849485
89	0x3ff6c03a	1.9277413
90	0xbd4eeb3c	-0.050517306
91	0x3da83082	0.08212377
92	0x3d96171a	0.07328625
93	0xbde1aa84	-0.110188514
94	0x3e6ea497	0.23304974
95	0xbe772093	-0.2413352
96	0x40068be3	2.102288
97	0xbe7a8164	-0.24463421
98	0xbd1f5a0a	-0.038904227
99	0xbcaf681f	-0.021411953
100	0x3e55dd1b	0.20885126
101	0x3d2367ed	0.039894033
102	0x3efcf669	0.49406746
103	0xbfe64b93	-1.7991813
104	0xbe4ab21c	-0.19794506
105	0x3eae5eb5	0.3405663
106	0xbeb249dd	-0.34821978
107	0xbd4b380e	-0.049614005
108	0x3dc5cd68	0.09658319
109	0xbe305647	-0.17220412
110	0x3f9b34b8	1.2125463
111	0xbe0f2ec8	-0.1398269
112	0x3e544ecb	0.20733182
113	0x3eae891b	0.34088978
114	0x3e72c04e	0.23706171
115	0xbeafe33b	-0.3435305
116	0x3f12738c	0.5720756
117	0xbfb6f1e2	-1.4292567
118	0xbdda3793	-0.10655131
119	0x3e2c3547	0.16817199
120	0x3e6a4b32	0.22880247
121	0xbe7a8670	-0.24465346
122	0xbe9e67a2	-0.3093844
123	0x3d47ff45	0.04882743
124	0x3fea80be	1.8320539
125	0xbd38a60d	-0.045080233
126	0x3e2db23d	0.16962524
127	0x3c488d23	0.012240681
128	0x3e8a7b13	0.27047023
129	0x3e8b4cf3	0.27207145
130	0x3f03c7f1	0.5147696
131	0x3fb6f82f	1.429449
132	0xbe597302	-0.21235278
133	0x3db61ee2	0.08892609
134	0xbdc099ff	-0.094043724
135	0xbb0ed5e5	-0.0021794972
136	0x3d86ade8	0.06576139
137	0xbe10f9e7	-0.1415783
138	0xc01be77a	-2.4360032
139	0xbcf4aa5d	-0.029866392
140	0xbecb2ef7	-0.3968427
141	0x3e3797ba	0.17928973
142	0x3d294737	0.04132768
143	0xbc051130	-0.008121774
144	0xbead46b0	-0.33842993
145	0xbf960705	-1.1720892
146	0xbe397606	-0.18111429
147	0xbe738a3f	-0.23783205
148	0xbd65e3c4	-0.056125417
149	0xbe09e23a	-0.13465205
150	0x3eb50dfa	0.35362226
151	0x3e3769f3	0.1791151
152	0x40182f10	2.3778725
153	0xbe1a70d6	-0.15082106
154	0xbe97f97e	-0.29682535
155	0xbee420ef	-0.44556376
156	0x3e5ce2d9	0.2157091
157	0x3eded5ce	0.43522495
158	0xbeaa122d	-0.33216992
159	0x3faffebc	1.3749614
160	0x3eb33c7e	0.3500709
161	0xbec44826	-0.38336295
162	0x3eaff88d	0.34369317
163	0xbe921e34	-0.28538668
164	0xbd82e3d6	-0.063911125
165	0xbed30c36	-0.41220254
166	0xbfbc313d	-1.4702526
167	0x3e894c7a	0.2681616
168	0x3ef34398	0.47512507
169	0xbef72157	-0.48267624
170	0xbd4e2ef9	-0.050337765
171	0x3eede834	0.4646622
172	0x3e175ea5	0.14782198
173	0xbfa78ecc	-1.3090453
174	0xbe22a6d3	-0.15883951
175	0xbc6dab26	-0.014506137
176	0x3e02ff28	0.12792647
177	0xbcf24e81	-0.02957845
178	0xbe1ac9d5	-0.15116055
179	0xbe328265	-0.17432554
180	0x403ccfdf	2.9501874
181	0x3d67f90f	0.056634005
182	0xbe911bd5	-0.28341547
183	0x3ec3a853	0.3821436
184	0xbe8f9a07	-0.280472
185	0xbde6b519	-0.112650104
186	0xbe5eedaf	-0.21770357
187	0xbf64ec92	-0.8942348
188	0xbe6bcb6d	-0.2302682
189	0xbd3d7de8	-0.04626265
190	0x3e1b8ca8	0.15190375
191	0xbd4ff63f	-0.050771948
192	0xbc452c0f	-0.01203443
193	0xbef69158	-0.48157763
194	0x4038054e	2.8753238
195	0xbc772ebb	-0.015086825
196	0xbdfa6991	-0.122271664
197	0xbdbcd5e9	-0.092204876
198	0x3e5625b7	0.20912825
199	0x3dac7fe2	0.08422829
200	0x3da7991f	0.081835024
201	0x3fa5c855	1.2951761
202	0xbe180a6d	-0.14847727
203	0x3dbbfd19	0.09179134
204	0x3e1671bc	0.14691824
205	0xbe978bf5	-0.29598966
206	0x3e815657	0.25261185
207	0x3b70585d	0.0036673762
208	0x40030883	2.0473945
209	0x3d227540	0.0396626
210	0x3c6a672c	0.014306825
211	0x3b024d71	0.0019882584
212	0x3b9e2d97	0.004827212
213	0x3eb5a262	0.3547545
214	0x3c305228	0.010761775
215	0xc01c9fab	-2.4472454
216	0x3d7a75dc	0.061147556
217	0xbd2ae2cf	-0.041720208
218	0x3e10a24d	0.14124413
219	0xbd9b1fe6	-0.075744435
220	0x3b14c1f2	0.0022698608
221	0x3e5e47a3	0.21707015
222	0xc008e471	-2.138943
223	0xbcc3a64a	-0.023883004
224	0xbec0c837	-0.37652752
225	0x3ec93805	0.39300552
226	0x3dc2bf3f	0.095091335
227	0xbe8ad712	-0.2711721
228	0xbc5f0c1c	-0.013613727
229	0x401b0fdc	2.422843
230	0x3e0eef2a	0.13958421
231	0x3ec13631	0.37736657
232	0x3d6dc2be	0.05804705
233	0xbe5d2f10	-0.21599984
234	0x3ec5b5c1	0.3861523
235	0xbf53ec79	-0.82782704
236	0xbf4f9c3c	-0.8109777
237	0x3e358436	0.17726216
238	0xbe96edd6	-0.2947833
239	0x3e39eaba	0.18155947
240	0x3dcddf14	0.100523144
241	0xbda0ebd4	-0.07857481
242	0x3df96c72	0.121788874
243	0x4037351d	2.8626168
244	0xbe102c1c	-0.14079326
245	0x3eaec7dd	0.3413686
246	0xbec8e3db	-0.3923634
247	0xbe3de42c	-0.18544072
248	0x3de90dae	0.11379562
249	0x3ed3f315	0.41396394
250	0x3fc3c610	1.5294819
251	0x3eb425e2	0.35185152
252	0x3e81d587	0.2535822
253	0xbe419915	-0.18906052
254	0x3bcc892a	0.006241937
255	0x3bc4e288	0.00600845

critic.0.bias f4 [64]
0	0x3ed7d0dd	0.42151538
1	0xbe03fbd2	-0.1288903
2	0x3e2a874f	0.16653179
3	0xbe14a69a	-0.14516678
4	0x3ecacfb8	0.39611602
5	0x3e622aa0	0.22086573
6	0x3e802fb5	0.25036398
7	0x3deec36e	0.11658369
8	0xbcffa030	-0.031204313
9	0xbe098d67	-0.13432847
10	0xbe4c19a3	-0.19931655
11	0x3e3a1328	0.1817137
12	0xbd86bcde	-0.06578992
13	0xbe59dd08	-0.21275723
14	0x3cf39cc2	0.029737834
15	0x3e28ea25	0.16495569
16	0xbea08208	-0.31349206
17	0xbe0fbd35	-0.1403702
18	0xbd738b65	-0.05945911
19	0x3e8e3e1c	0.2778176
20	0x3e965c33	0.29367217
21	0xbbbb7858	-0.005721133
22	0xbe85dc8f	-0.26144835
23	0x3de96018	0.113952816
24	0x3eb84295	0.35988298
25	0xbe907bb2	-0.28219372
26	0x3e743703	0.2384911
27	0xbe4a1d1c	-0.19737667
28	0xbdaa08f9	-0.08302493
29	0xbe9e4f8d	-0.30920067
30	0x3e3a7187	0.1820737
31	0x3dde4eff	0.10854911
32	0xbec15fd3	-0.3776842
33	0xbe69cf27	-0.22832929
34	0xbca2c4d3	-0.019869244
35	0xbd533b88	-0.051570445
36	0x3e9d2964	0.3069564
37	0x3e47e617	0.19521366
38	0x3eb77ee7	0.35839006
39	0x3cf7f2d9	0.030267166
40	0xbe07675a	-0.13223019
41	0x3ec18e13	0.37803707
42	0xbc03f9a9	-0.008055129
43	0x3ea81e59	0.32835653
44	0x3df95ad7	0.121755295
45	0xbe4a82af	-0.19776414
46	0xbdc50423	-0.0961993
47	0x3db05afd	0.08611105
48	0x3e1e517d	0.15460773
49	0x3ea0a3e4	0.3137504
50	0x3cc57a71	0.024106236
51	0xbe3c0f10	-0.18365121
52	0x3e3250eb	0.1741368
53	0x3cc2939a	0.023752023
54	0xbe42194a	-0.1895496
55	0x3d42ec7b	0.047588807
56	0xbda2f43d	-0.07956741
57	0xbea27ca3	-0.31735715
58	0xbec467bf	-0.38360402
59	0xbe2289fd	-0.15872951
60	0xbef093ba	-0.46987706
61	0x3e2dc3e8	0.16969264
62	0xbd2ac1c6	-0.041688703
63	0x3dd83f99	0.10559005

critic.2.weight f4 [64, 64]
0	0x3e3eec59	0.18644847
1	0xbe8a0f53	-0.26964816
2	0x3d883774	0.06651202
3	0x3db37418	0.087623775
4	0x3d954943	0.07289364
5	0xbe25ebfe	-0.16203305
6	0x3dce8880	0.10084629
7	0x3e03d09d	0.12872548
8	0xbd3ddc0f	-0.046352442
9	0x3d87ceda	0.06631251
10	0xbe3c33a8	-0.1837908
11	0x3e1e5ebd	0.15465827
12	0xbe58d18b	-0.21173684
13	0xbdc3379a	-0.095320895
14	0x3ddd8e30	0.10818136
15	0x3d28dbbf	0.04122519
16	0xbd2b2b09	-0.04178909
17	0xbdd84e07	-0.105617575
18	0x3de991cf	0.11404764
19	0x3ebb4523	0.36576185
20	0x3e5d0890	0.21585298
21	0xbc8e6f63	-0.017387098
22	0xbd09bce6	-0.033627413
23	0x3dad9106	0.08474927
24	0x3e33a576	0.17543587
25	0xbeba9429	-0.36441162
26	0xbd80366c	-0.0626038
27	0xbea1ab04	-0.31575787
28	0xbd37307d	-0.044723976
29	0xbd8f6c77	-0.0700311
30	0x3e236e7a	0.15960112
31	0x3e93724d	0.28798142
32	0xbe83283c	-0.25616634
33	0x3ca8315d	0.02053135
34	0xbe9073c7	-0.2821333
35	0xbca3a964	-0.019978233
36	0x3e4a3cfe	0.19749829
37	0x3e3f589c	0.18686146
38	0x3d3a99d9	0.045556877
39	0x3c55f3d2	0.01305862
40	0x3da4254f	0.080149285
41	0x3e535a6d	0.20639963
42	0xbca86c0c	-0.020559333
43	0x3da5b973	0.08092012
44	0x3dc44582	0.0958357
45	0xbe2d2f7d	-0.16912647
46	0x3c4e4fed	0.012592298
47	0x3e6b53ad	0.22981139
48	0x3cfe7507	0.031061662
49	0x3d711b3e	0.05886387
50	0x3dec254c	0.11530551
51	0xbdcf3fbe	-0.1011958
52	0x3e8bc5b5	0.27299276
53	0xbc4fc626	-0.01268152
54	0xbaf0209a	-0.0018320263
55	0xbe425490	-0.1897757
56	0x3d390f9f	0.045180913
57	0x3c5a8f54	0.013339836
58	0xbdf47031	-0.11935461
59	0xbdb4b4e8	-0.08823568
60	0xbe10121d	-0.1406941
61	0x3dfd3138	0.12362903
62	0x3d386d2e	0.045025997
63	0x3d9bf40a	0.07614906
64	0x3e168efa	0.14702979
65	0xbf4a5ae4	-0.7904494
66	0x3eab1614	0.33415282
67	0x3e04a69c	0.12954181
68	0x3e851a89	0.25996807
69	0xbf092735	-0.5357545
70	0x3e7e5975	0.24838813
71	0xbc04b5b9	-0.008099967
72	0xbeafa559	-0.34305838
73	0x3ea13bf3	0.3149105
74	0xbd96be65	-0.073605336
75	0x3e63ad0a	0.22233978
76	0xbf4e991e	-0.8070239
77	0x3cd94e22	0.026526514
78	0x3d6c4f48	0.057692796
79	0x3eb3c5ea	0.35111934
80	0xbde4fe25	-0.11181287
81	0xbee90a31	-0.45515588
82	0x3ea207cf	0.31646582
83	0x3e9d1280	0.30678177
84	0xbed54f98	-0.41662288
85	0xbd39df31	-0.045378868
86	0x3e7744ac	0.2414729
87	0xbeb7152c	-0.3575834
88	0x3f2bacec	0.6706073
89	0xbef67c3c	-0.48141658
90	0xbed9aa23	-0.42512617
91	0xbf34ad44	-0.7057688
92	0x3ddfc75a	0.10926695
93	0xbc871332	-0.016488645
94	0x3efa9922	0.48944956
95	0x3d6f3772	0.058402486
96	0xbf2893c2	-0.6585046
97	0x3e4aacac	0.19792432
98	0xbf28368a	-0.6570822
99	0x3ef0af3e	0.470087
100	0x3e383587	0.17989169
101	0x3e3705ed	0.17873354
102	0x3e528cb8	0.20561492
103	0x3e1f9167	0.1558281
104	0x3ed33ec3	0.4125882
105	0xbe3a874a	-0.18215671
106	0x3f32edfa	0.69894373
107	0x3de719f9	0.11284251
108	0xbec4bdfa	-0.3842619
109	0xbe894242	-0.26808363
110	0xbef7cd47	-0.48398802
111	0xbee348ab	-0.4439138
112	0xbe275392	-0.16340473
113	0x3f0ff50d	0.5623329
114	0xbe79a2d3	-0.24378519
115	0xbe7c3b6c	-0.24632043
116	0x3f103e33	0.5634491
117	0xbdb3d5e6	-0.08781032
118	0x3e5e7456	0.21724066
119	0xbee52f63	-0.44762716
120	0xbeb1e16f	-0.34742305
121	0xbdae9ad7	-0.08525627
122	0xbeb2f3e9	-0.34951714
123	0x3e75c9d1	0.24002768
124	0x3e4cd843	0.20004372
125	0x3ed53f1e	0.41649717
126	0xbd5526a8	-0.05203882
127	0x3ec100bc	0.37695873
128	0xbc87afbd	-0.01656329
129	0xbc887e7f	-0.01666188
130	0xbc25879c	-0.010103133
131	0x3daf77a5	0.08567742
132	0x3d920982	0.0713072
133	0x3d25d37b	0.040484887
134	0x3d72c64f	0.059271153
135	0x3d749f42	0.059722193
136	0x3d9d4207	0.07678609
137	0xbd694212	-0.056947775
138	0x3d91ede0	0.07125449
139	0xbca5e930	-0.020252794
140	0xbd4665dd	-0.04843699
141	0xbde18fd3	-0.110137604
142	0xbd9ea414	-0.07746139
143	0xbc00cd06	-0.007861381
144	0x3a0457ae	0.00050484657
145	0xbd4e081a	-0.050300695
146	0x3da4a9d9	0.08040208
147	0x3dae64d5	0.08515326
148	0x3e0f40d8	0.1398958
149	0xbdecbf20	-0.11559892
150	0x3d8c1db4	0.06841603
151	0xbd640adb	-0.055674415
152	0xbdb17e54	-0.08666673
153	0x3d39da5d	0.045374263
154	0xbd84c3ac	-0.06482634
155	0xbc9e2364	-0.019303985
156	0x3df4830f	0.1193906
157	0xbe2e0926	-0.16995677
158	0x3c21ba72	0.009871112
159	0xbd6e8345	-0.058230657
160	0x3d378544	0.044804826
161	0xbd8ba21c	-0.06818029
162	0xbd92b7b2	-0.07163943
163	0xbdd5fb86	-0.10448365
164	0xbd987ae6	-0.07445316
165	0xbb21b9e2	-0.0024677445
166	0x3dc98ba9	0.09841091
167	0x3db05df1	0.08611668
168	0x3c77e163	0.01512942
169	0x3d7bd2ab	0.061480206
170	0x3dc60975	0.096697725
171	0xbbbeca42	-0.005822451
172	0xbde98ae3	-0.11403444
173	0x3b2eaccd	0.002665329
174	0xbcb12b0b	-0.02162697
175	0xbd8f4e79	-0.06997389
176	0xbe141530	-0.14461207
177	0x3db48577	0.08814519
178	0xbd0c78d1	-0.034294907
179	0xbd8a7f9f	-0.06762623
180	0x3cb92f26	0.02260549
181	0x3d280168	0.041016966
182	0x3e0602b7	0.13086973
183	0x3df38ab8	0.11891693
184	0xbb927009	-0.004468922
185	0xbdca7a1a	-0.0988657
186	0xbc1d63f9	-0.009606355
187	0xbd06942a	-0.032856144
188	0x3d9f163a	0.07767911
189	0xbc9b3c02	-0.018949512
190	0xbd95a274	-0.07306376
191	0x3c3239f8	0.010878079
192	0xbe13445f	-0.1438155
193	0x3b704297	0.0036660784
194	0xbd12bd2f	-0.03582495
195	0x3da1d872	0.07902612
196	0xbdd160bb	-0.10223528
197	0x3db8adaa	0.09017499
198	0x3dab4ddb	0.08364459
199	0xbd3ade0a	-0.04562191
200	0x3d115a25	0.03548636
201	0x3c018816	0.007905981
202	0xbbbdb39a	-0.0057892324
203	0xbda44f87	-0.08022981
204	0xbd7b1fd4	-0.06130965
205	0x3af37134	0.0018573166
206	0xbc863801	-0.016384127
207	0xbda8e46c	-0.08246693
208	0xbcd8794f	-0.026425032
209	0xbc8b052f	-0.016970245
210	0x3dc079bc	0.09398219
211	0x3e3d77c3	0.18502717
212	0x3d80ce94	0.06289402
213	0x3d61aa4f	0.05509406
214	0xbd85a551	-0.06525672
215	0xbddd72cb	-0.10812911
216	0xbd88addc	-0.06673786
217	0x3dceffec	0.10107407
218	0x3d7ba4da	0.06143651
219	0xbd94dd6b	-0.072687946
220	0xbd47c090	-0.048767626
221	0x3dab76f3	0.08372297
222	0x3e0ffb99	0.1406082
223	0xbdb0a18c	-0.086245626
224	0x3de192f7	0.110143594
225	0xbcd1b6b6	-0.025599819
226	0xbde5ff15	-0.11230294
227	0x3e1a9b1a	0.15098229
228	0xbadfa7c0	-0.0017063543
229	0x3d85aaef	0.065267436
230	0xbd98fefa	-0.07470508
231	0xbc8b6bf8	-0.017019257
232	0xbd64b7bf	-0.055839296
233	0xbdbc2df4	-0.09188452
234	0x3d21cc5f	0.039501544
235	0xbd30edd4	-0.04319556
236	0xbd41c7bf	-0.047309633
237	0xbce3e229	-0.027817803
238	0x3de4092c	0.11134562
239	0x3d73716b	0.059434336
240	0xbd70e733	-0.05881424
241	0xbd24018a	-0.04004053
242	0xbd2c01a7	-0.041993763
243	0x3bc16739	0.0059021977
244	0x3c33a885	0.010965471
245	0x3cb7b81e	0.022426661
246	0xbdd1de5c	-0.1024749
247	0x3cd96395	0.026536742
248	0xbd5f6922	-0.05454362
249	0xbd5ff3c9	-0.05467585
250	0x3c9c8ac9	0.019109147
251	0xbd4cfbad	-0.050044704
252	0xbc7f15de	-0.015569178
253	0x3dd5c4dc	0.104379386
254	0xbca6f551	-0.020380648
255	0xbcf4c01a	-0.029876757

critic.2.bias f4 [64]
0	0x3e2ccd95	0.16875298
1	0x3e652b47	0.2237979
2	0xbd2b3eff	-0.041808125
3	0x3deff9c3	0.1171756
4	0xbd069981	-0.032861236
5	0xbc89dd9d	-0.016829306
6	0xbe55dd72	-0.20885256
7	0x3d052707	0.032507923
8	0x3c358d9e	0.011081127
9	0x3db4deee	0.08831583
10	0xbdf51697	-0.11967199
11	0x3dce65eb	0.10078033
12	0x3dce5fc0	0.100768566
13	0xbe1d1654	-0.15340549
14	0x3cf93d98	0.030424878
15	0x3e85999d	0.2609376
16	0x3daff86c	0.085923046
17	0xbcc94a37	-0.024571521
18	0xbe3bd7ff	-0.18344115
19	0xbd9d1cc3	-0.076715015
20	0xbdbf2c40	-0.09334612
21	0xbe1b1deb	-0.15148132
22	0xbd3557f5	-0.044273335
23	0xbe5ae858	-0.21377695
24	0xbe0d8626	-0.13820705
25	0xbd6e7777	-0.0582194
26	0xbcf0453d	-0.02932989
27	0x3e5d6bcf	0.21623157
28	0xbd9e8a31	-0.07741202
29	0x3bab2e41	0.0052240198
30	0xbd11c179	-0.0355849
31	0x3bcb51b0	0.0062048063
32	0xbd8cee47	-0.06881385
33	0x3d0cd845	0.03438594
34	0xbe0d7fa7	-0.13818227
35	0xbe804deb	-0.25059447
36	0xbdadabc5	-0.08480028
37	0xbd6083f2	-0.054813333
38	0x3de6dbc2	0.11272384
39	0x3c705449	0.014668533
40	0x3dac8feb	0.08425888
41	0x3d3e99a3	0.04653324
42	0xb9ab1959	-0.00032634547
43	0x3d00ff3b	0.031493407
44	0x3cef6544	0.029223092
45	0xbcbee78e	-0.023303773
46	0xbd80f760	-0.06297183
47	0xbe612d92	-0.2199004
48	0xbc89ce35	-0.01682196
49	0x3b156f64	0.002280199
50	0xbdaf1d27	-0.08550482
51	0x3e0b1a5f	0.13584279
52	0xbe9a875c	-0.30181396
53	0xbc52263f	-0.012826501
54	0x3d7825e0	0.060582995
55	0xbd86810a	-0.06567581
56	0xbe12d1f1	-0.14337899
57	0xba60b1ad	-0.00085713976
58	0xbd05edbb	-0.03269742
59	0xbd93b0a7	-0.07211428
60	0x3e662f18	0.22478902
61	0xbcd821dd	-0.026383335
62	0xbd4a374e	-0.04936915
63	0x3db81a57	0.08989399

critic.4.weight f4 [1, 64]
0	0xbd360925	-0.044442315
1	0xbe7cc3cf	-0.2468407
2	0x3b235992	0.0024925214
3	0xba6e6627	-0.00090942014
4	0x3e994a06	0.29939288
5	0xbe2b9166	-0.16754684
6	0x3d845fe4	0.06463602
7	0xbbd4e439	-0.006496933
8	0xbba66c5b	-0.005078835
9	0x3bbf5558	0.005839031
10	0xbe22021b	-0.15821116
11	0xbc51f43f	-0.01281458
12	0xbced01c9	-0.028931515
13	0xbecd3e8d	-0.40086785
14	0x3a1eb3a4	0.000605399
15	0xbd9f6129	-0.07782204
16	0xba03d21d	-0.0005028563
17	0x3b3adfd7	0.0028514767
18	0xbebcd353	-0.36879978
19	0xbe126175	-0.1429499
20	0xbe072865	-0.13199003
21	0xbe80191a	-0.2501915
22	0xbb523ee2	-0.0032080938
23	0x3d50fc09	0.05102161
24	0x3c8bdb47	0.017072333
25	0x3b9c7edd	0.0047758655
26	0xb9b8ccf1	-0.00035247908
27	0xbc72e2b0	-0.014824554
28	0x3b260ec3	0.0025338389
29	0x3e59102a	0.21197572
30	0xbbab2be0	-0.005223736
31	0xbb1b6437	-0.0023710856
32	0x3a1d2549	0.00059946306
33	0xbc66de98	-0.014091156
34	0xbc0576d8	-0.00814601
35	0x3d696f30	0.056990802
36	0x3d8a664d	0.067577936
37	0x3bbfecfe	0.005857109
38	0x3e0a6e78	0.13518703
39	0xbbb0d37d	-0.005396305
40	0x3bba56c1	0.0056866114
41	0xbbd88c49	-0.00660852
42	0xba5b96d1	-0.00083766604
43	0x3b8e2ce1	0.004338846
44	0xbc08e899	-0.008356237
45	0xbbffac82	-0.007802547
46	0x3e8bf0b1	0.2733207
47	0x3d0f40f9	0.034974072
48	0x3c97d651	0.018534811
49	0x3b94ce69	0.0045412076
50	0x3b81c6b0	0.003960453
51	0x3dab11c7	0.08353
52	0x3e537bb4	0.20652658
53	0x3b8b4433	0.0042500733
54	0xbb6a70af	-0.003577273
55	0xbb914542	-0.004433305
56	0x3d6c2d03	0.057660114
57	0x39092b00	0.00013081357
58	0xba9c2e36	-0.0011915627
59	0x3cf18a96	0.029485028
60	0xbce12e68	-0.027487949
61	0x3bb84156	0.005623023
62	0x3c14e92f	0.009088798
63	0x3bb49f5e	0.005512162
