trained/ComplexPong/PPO_sparse_1728816230.129163.pth (torch, 44738 bytes, 11 tensors)

actor.0.weight f4 [64, 7]
00000000: e96d 123e 52b0 0bbf c86f 083f 3331 35be
00000010: a3ff 5d3f 4677 34bf 36e3 2a3e 5171 3b3e
00000020: 90bc d63e 0d2e 4fbe 0fd3 edbd 4b38 31bf
00000030: c315 4f3f e21e e4bc 3201 87bd 18fb babd
00000040: 3e9a 42bd d1df c23e c44c 993d 9a86 ae3f
00000050: 2f9a 60bb d480 95bd 711a 8f3e a02e 68be
00000060: 2dd2 503e 8615 e9be d7ef c33e 25e4 b73e
00000070: e48e d53e 0f50 1a3f 3901 c6be e693 0e3e
00000080: 0499 e0be c409 d53e 846d 70be dfa5 443d
00000090: 8424 92bd fa37 d4be 7878 a03c 6405 3dbf
000000a0: 70bd febe b60c d4bd 77de df3c 4fac 29bd
000000b0: 0741 e2bd 441c efbe fb0e 61bb 74ae 4dbf
000000c0: f6ea 88bc f893 22bc 4a89 a43e d80b bcbe
000000d0: 214b 79be 0abe 3abf 6de5 d4be 2072 623e
000000e0: 7b36 34be ea48 12bf ed18 263f b3f3 083e
000000f0: 5651 2a3f b03f 103c b578 e13d e692 20be
00000100: 5a3d 8dbd 795f ab3e c77d c5be 46cc c13d
00000110: bc45 b1bf 24ed b7bd c8ec 1a3e 5578 1a3e
00000120: 250a 1c3e 6399 0fbf 0f90 adbe a6bb b1bf
00000130: 2f5d d5bc 41e8 9bbe b849 073f 77ae 9ebe
00000140: c5e8 08bd 6fd5 0cbf ba94 b1bd 8d46 44bd
00000150: f7b5 dc3d d90e 09bf 40b4 573e 5c53 c5bd
00000160: 4fab d03e 4e10 10bf 1f3c 0c3e 8b27 94bc
00000170: a850 d23e 72d1 84be 7fcf 0fbf fe21 03bf
00000180: f825 92bf ff52 643e 2d6b 1ebe f4bc 873e
00000190: 3c83 81be 6879 f83e 78db 3bbf 8689 a53f
000001a0: 5d6f 5f3d fb02 35be c26f ad3e cb39 38be
000001b0: edab d8be d94e 6ebe 41a5 66bf bcd5 01bd
000001c0: bc90 5dbe a959 a5be 7c2e 033e 2a79 aa3e
000001d0: c0c4 4c3e f124 dd3e ec6c 6dbe 0e48 dc3e
000001e0: 66b5 d7bd 7920 e1be fc00 85bc 80b3 21bf
000001f0: c2d9 383f eb70 fc3b 45f2 6c3e 734b 6a3d
00000200: 0f79 18be e9d1 4d3b e5e5 613d ae99 443e
00000210: cf09 84bc 79b5 653e e7d9 48bb 9ca3 15be
00000220: a00d f33e 67f9 d33b 8247 cd3f ac0b d4bd
00000230: 3f91 c03e 9c86 f5be dffb c63e 3e4d 823d
00000240: 32d3 9b3e 3d54 8a3e 323c abbd e82b cebc
00000250: 3c2e 85bc 5789 cbbe 502f a13d 9809 1cbe
00000260: 930a 02bf 6c4d 49be 9bca 2abe cd2f d4bd
00000270: 6847 923e 0f46 053f 370c fa3e 4907 2f3f
00000280: d43f c7bc 7d35 82be 2d27 b0be eba9 f53e
00000290: e1cc a33d 4b9a e53e 0d5c d13e 2b68 153d
000002a0: b60d 34be 0fbb c2bd a019 5b3e 65f3 dabe
000002b0: c05e 5e3e ee33 a7bf b0e8 bebd d6f0 b23e
000002c0: 48a5 8cbe 0729 0e3e 2162 df3e d178 9a3e
000002d0: ae30 783f 168f 7ebe 8e28 303e 225b 3fbe
000002e0: 5a1e b3be 98f1 24be 9275 3ebe 85a6 32bf
000002f0: 426a 6abd cf22 80bd 4575 d73d 5c56 00bf
00000300: 6191 553e 10ea 13bf 763d ac3e 949f d0bd
00000310: a991 a1be e652 023f 4e3b 99be e5ce 59be
00000320: 20a8 7dbe 338a 5dbf 0d2e 873d e9d3 aa3e
00000330: 8310 d83e 11d1 d1be 142c afbd 9858 2cbe
00000340: 85fd eb3e 3b7c 60bd b51c 21be fcb7 a33e
00000350: e037 04bf 1353 cfbd 095c 73bf 55df 74be
00000360: 47fc b63d 04de e6be a827 453e 0024 fc3d
00000370: e5bc 00bf ffb6 0b3c 5a94 cabf fe73 333e
00000380: a37f dcbd 12a6 943e b819 b1be dc9d 7dbe
00000390: 94c3 26bf fa7b 68bf 113e 25be 882c 37be
000003a0: 29a9 e0be cca1 d83e 816e 6dbe e771 033f
000003b0: 8b23 a1bf 6220 273e 71c3 c33e 2618 bd3e
000003c0: fb65 19bf 4c3a 893a 2fdf 91be ba6d 523e
000003d0: 374b 21be 4ce2 3e39 c8a7 89be 2365 393e
000003e0: 71be 983d 53a6 2d3e 95ff c63e e2fd 483e
000003f0: 2894 2ebe 78f0 ddbd 6921 4a3e 2a10 3e3e
0.1429974 -0.5456592 0.53295565 -0.1769455 0.86718196 -0.70494497 0.16688237 0.18304946
0.41940737 -0.2023241 -0.11612522 -0.6922652 0.8089258 -0.027846757 -0.06592025 -0.091299236
-0.047510378 0.38061383 0.07485345 1.3634827 -0.0034271588 -0.07299963 0.2794986 -0.22674036
0.20392676 -0.45524234 0.3826892 0.35916248 0.4171058 0.6027841 -0.38672808 0.13923606
-0.43866742 0.41609013 -0.23479277 0.04800975 -0.07135871 -0.41448957 0.019588694 -0.7383635
-0.49753904 -0.10353987 0.02732776 -0.041424092 -0.11047559 -0.46701252 -0.0034341204 -0.8034432
-0.0167136 -0.009922974 0.32135993 -0.36727786 -0.24345066 -0.72946227 -0.41581288 0.22113848
-0.17598908 -0.5714251 0.64881784 0.13374214 0.6653036 0.008804247 0.11009351 -0.15681037
-0.068964675 0.33471277 -0.38572523 0.0946279 -1.3849406 -0.08980778 0.15129387 0.15084966
0.15238245 -0.56093425 -0.3389897 -1.3885391 -0.02604541 -0.30450633 0.5284686 -0.3099248
-0.03342511 -0.55013174 -0.086709455 -0.047918845 0.107768945 -0.5353828 0.21064854 -0.0963504
0.40755698 -0.5627488 0.1369481 -0.018085262 0.4107716 -0.25941044 -0.5617599 -0.5122374
-1.1417837 0.22297285 -0.15470572 0.26511347 -0.25295436 0.48530126 -0.7338176 1.2932594
0.054549564 -0.17676918 0.33874327 -0.17990796 -0.4231867 -0.23272265 -0.9009591 -0.031697974
-0.21637243 -0.32294968 0.12810701 0.33295566 0.19996929 0.43192247 -0.23186082 0.43023723
-0.10532646 -0.43970087 -0.016235821 -0.6316452 0.7220727 0.0077038906 0.23139293 0.05720086
-0.1488993 0.0031405634 0.055150885 0.19199249 -0.016117958 0.22432508 -0.0030647458 -0.14613193
0.47471333 0.00646894 1.6037447 -0.10353789 0.37610814 -0.4795426 0.38864037 0.06362389
0.30434567 0.27017394 -0.08361091 -0.02516742 -0.016257398 -0.3975322 0.07870352 -0.15238035
-0.50797385 -0.1965844 -0.1667885 -0.1036068 0.28570104 0.52060026 0.48837444 0.6837049
-0.024322428 -0.25431433 -0.3440489 0.479812 0.07998062 0.4484428 0.40890542 0.036476295
-0.17583355 -0.09508335 0.21396494 -0.4276382 0.21715832 -1.3062723 -0.09321725 0.34949368
-0.2746985 0.13882838 0.43629554 0.301703 0.9694928 -0.2485927 0.1720297 -0.18687108
-0.34984094 -0.16107786 -0.18599537 -0.6978534 -0.05723024 -0.06256639 0.10520414 -0.50131774
0.20856239 -0.57779026 0.3364064 -0.10186687 -0.31556442 0.5090774 -0.29928058 -0.2127033
-0.24771166 -0.86539 0.0660058 0.333648 0.42200097 -0.40979818 -0.08553329 -0.16830671
0.46091858 -0.054805975 -0.15733607 0.31976306 -0.5164776 -0.10123267 -0.9506231 -0.2391332
0.08934837 -0.4509126 0.19253409 0.12311554 -0.5028823 0.008527516 -1.5826523 0.17524716
-0.10766532 0.29032952 -0.34589934 -0.2476725 -0.6514218 -0.90814173 -0.16136958 -0.17888081
-0.4387906 0.4231094 -0.23186685 0.51345676 -1.2588972 0.16320947 0.38235047 0.36932486
-0.59921235 0.0010469644 -0.28490588 0.2054967 -0.15751348 0.00018204114 -0.2688582 0.18104987
0.07458199 0.16957979 0.3886687 0.19628099 -0.17048705 -0.108368814 0.19739307 0.18560854

actor.0.bias f4 [64]
00000000: 8f49 063d 0dea 36bd 5749 7d3d 31b6 8abd
00000010: 32bf 8dbe 1548 c63e eb08 ab3e 78ef 353e
00000020: 4ad5 56be 1e22 2e3e 5fba cc3d e981 c0bb
00000030: 8371 213e 60b6 a63e a6f8 bdbe 58c3 993e
00000040: 2c0c 23be bcbb 703e 2975 efbd 529d 79be
00000050: c27d 43be 4604 c33e 3bbf b6be f597 a5be
00000060: 859d 9d3e 5686 9dbe 0f93 fb3e 6f80 d13e
00000070: 8c08 d93d 7975 8dbd 04fc 1a3e 9fe4 a93e
00000080: 5794 bf3e e2cd c43d a17b 8a3e 91a1 473e
00000090: 02ec 0ebe eaf2 a2bd 422e eb3d 227b a3be
000000a0: bb23 b23e d36a 4f3e d060 283e 94b9 7bbe
000000b0: 7b07 9dbd c2af 2bbe 6397 883e bdff 9c3e
000000c0: 9748 bfbe 60b4 65be 536d 7a3e b340 80be
000000d0: 4535 503e 2b87 cd3b abcc f6bd 2595 88bd
000000e0: 15e6 9a3d f3c3 fabd b205 f73d 0361 d63d
000000f0: d24f 9ebe 93bf 723e 8a15 b3bd 25b8 5fbe
0.032784995 -0.044656802 0.06183752 -0.067730315 -0.27684933 0.3872687 0.3340524 0.17767131
-0.20979801 0.17005202 0.09996485 -0.0058748615 0.15765958 0.32561016 -0.37103766 0.30031848
-0.15922612 0.23509115 -0.116922684 -0.24376419 -0.19090942 0.38089198 -0.35692772 -0.32342497
0.3078424 -0.30766553 0.49135634 0.409183 0.10597333 -0.06907172 0.15135199 0.33182237
0.37417862 0.096095815 0.27047446 0.19495226 -0.13957217 -0.079564884 0.11483432 -0.3192988
0.34792885 0.20255594 0.16443181 -0.24582511 -0.076674424 -0.16766265 0.26678 0.30663863
-0.3736007 -0.22432089 0.24455766 -0.25049362 0.2033282 0.006272217 -0.12050756 -0.06669072
0.07563416 -0.122444056 0.12061633 0.10467722 -0.30920273 0.23705892 -0.087443426 -0.2184759

actor.2.weight f4 [64, 64]
00000000: c33c 2ebf 3062 4c3e 55c2 9b3d 2f35 13be
00000010: 9f45 883e c798 a43b ab90 5dbe 1775 45bc
00000020: 4441 76be 7e7c 1aba c73b 0abe 5371 443f
00000030: 4391 fabe b852 93bd 137c 2a3f dade 953d
00000040: 231b 073e c065 45bd 5157 15bd 9366 fbbc
00000050: 3eda 81be f838 34bd ce53 353e 6d50 613e
00000060: a6e9 65be 40e7 e7bd be0c 76be e693 563c
00000070: 0075 973e d63d ff3d 5e0a b13e 9e3c a9bd
00000080: 65cc 9f3c 6d3d c5be a21f 06be fca4 b1be
00000090: 5e1c 913d d72b 1ebe 3376 15be d723 b13c
000000a0: a096 8abe e346 b6be 9b6f 37be 1eea 7c3e
000000b0: a152 183e 3416 3e3f 392c 0cbe 23f3 1cbe
000000c0: 9004 aa3d b8e8 123f 8c42 53bf fba3 d13d
000000d0: 2e50 92be 359d 0fbf dc66 823e 22a8 75be
000000e0: f820 69be 803c a73d e610 6c3d 81cc 5bbf
000000f0: 940f bc3e df88 40be d662 0ebe d386 0f3e
00000100: 98aa 4bbf dce3 413e 91a0 d2bd 22d9 4b3d
00000110: 29a1 473e fcd3 ec3d 3929 283e 8415 bd3e
00000120: bdce 2dbf e965 12be e280 133e 7ee9 eb3e
00000130: b013 b3be 550d 9e3e 2668 c03e 27af 633e
00000140: ac1b abbd 988d cb3e afce a93d f9fb 083e
00000150: 60d9 93be 0598 80bd 7944 a1be 8d96 2ebe
00000160: a977 7dbe 05aa 3abe 4bb4 c53d 7125 603e
00000170: e66c a23e 5cb3 a43e d32f ec3e b2b1 dcbd
00000180: e4e4 b33e 63de e9be 2534 b83e 25e0 9abd
00000190: ebf1 43bd bb51 91be e5e6 8c3e 6707 dcbd
000001a0: 35fb aabe cb5c d1bd ed43 69be fb05 d03e
000001b0: 51d2 283e 9a94 fd3e 45d3 93bc 8992 5c3e
000001c0: 73e2 fdbe 7918 7b3f 219a cbbe 3b14 4f3e
000001d0: 17f5 4dbe a3ce 2dbf 081e 283e 54ad 9bbe
000001e0: 7746 34be 059b 8fbe a706 f73d 0b70 d5be
000001f0: 3b65 1e3e be45 40bc 5ec8 d1be 6e8f 8a3c
00000200: 6f62 41bf 3e81 9c3e 16b1 e83d 9ae1 813e
00000210: 7fb2 f93e b409 433e f6a8 e93c 3b2e 4d3f
00000220: c04c 9ebf 5b10 dbbe 78fc 9dbc 5c2d 1d3f
00000230: f7dc c5be 63e6 063f 9c90 c53e b7e9 ac3e
00000240: 8b68 0abe bb78 913e f513 9fbd cdce 103e
00000250: e02b aebe 7fab 543e 841d c6be 2058 02bf
00000260: 1d32 ddbe ae50 c7bd 3cde cd3d 7575 d33e
00000270: 8a6a c33e 6f0d 9b3e 0bc5 f43e 496a b7bd
00000280: e641 f83e 4580 22bf 3138 153f 8215 0cbe
00000290: 4145 debd bb6d 65be e7c2 bb3e 52a1 0bbf
000002a0: 589f 1abf 92e1 bcbd 0c97 23be 8e15 ce3e
000002b0: 47a6 cb3c 2e43 2a3f efb0 85be f00c 983e
000002c0: 4eb3 37bf 282b 7a3f 9824 bcbe 5773 043f
000002d0: 0292 e6be a733 3dbf bff8 743d 2c64 2cbf
000002e0: a747 82be 7343 3cbe de4f 6fbe df67 55bf
000002f0: b24f a23d c371 bfbd 3c58 1ebf 85a5 6d3e
00000300: c2b8 c0be 1344 b9bc d25f d43c 50c7 a73a
00000310: fb38 ed3c e24b 4fbe dce3 21bd a0cb 893d
00000320: 1883 31bc d8b4 09be 446f 61be 795a 703e
00000330: 61be ccbb 355f 60be 4edd f53e fe6d 37bd
00000340: 1821 6c3c 668a 3ebd 0c6c 80be b40c d13d
00000350: 0aa2 00be d669 e7bd 3ecc 373e 073d 163d
00000360: 2e37 0abe 88bb 40be d817 39be 9f10 f03c
00000370: 5143 003e 760c 8fbc 7735 313e 9516 0cbe
00000380: f691 9bbd dd11 5bbd f14b 96bd 3a2c e0bd
00000390: 8356 5b3e 715f 19be d2c1 e33d c6ac 893c
000003a0: bde6 d0be adfe 06bd 5f3c 103e c0c5 a03d
000003b0: 9b1b 25bd c202 693c 10b5 02be 3a6d 95be
000003c0: 2d87 2a3e 4ce8 873e e31a 4bbe ddd0 6fbd
000003d0: 8cad 71be 1c42 bebd 9584 7dbc e286 a4bd
000003e0: 150b 023b 4a17 ff3b 12b7 73bd 9771 a4be
000003f0: f517 7a3e 2c35 b63d 6363 aebc 529d c03d
-0.68061465 0.1995933 0.07605425 -0.14375757 0.26615617 0.0050230953 -0.21637218 -0.012051842
-0.24048334 -0.00058931846 -0.13499366 0.7673542 -0.4893895 -0.07193512 0.6659557 0.07317896
0.13193946 -0.04819274 -0.036460225 -0.03068856 -0.25361818 -0.043999642 0.1770775 0.22003336
-0.22452411 -0.11323404 -0.24028298 0.013096785 0.2958145 0.12462966 0.34578222 -0.08263515
0.019506643 -0.38523427 -0.13098004 -0.34696186 0.07085489 -0.15446411 -0.1459587 0.021623535
-0.27068043 -0.35600957 -0.17913668 0.24698684 0.1487527 0.7425263 -0.13688745 -0.15327124
0.083016515 0.5738635 -0.8252342 0.10236355 -0.28576797 -0.56099254 0.254691 -0.23989919
-0.22766483 0.08165836 0.057633303 -0.85858923 0.36730635 -0.18802212 -0.1390489 0.14016275
-0.7955718 0.18934578 -0.10284532 0.04976762 0.19495071 0.1156387 0.16421975 0.36930478
-0.6789358 -0.14296688 0.14404634 0.46076578 -0.34975958 0.30869547 0.3757946 0.22234784
-0.08354887 0.39756465 0.08291375 0.1337737 -0.2887678 -0.062789954 -0.31497553 -0.17049618
-0.24752678 -0.1822892 0.09653529 0.21889283 0.31723708 0.3216809 0.46130237 -0.1077608
0.35135567 -0.4567748 0.35977283 -0.075622834 -0.047838133 -0.28382668 0.2751991 -0.107435994
-0.3339478 -0.10222777 -0.22779818 0.40629563 0.1648648 0.49527436 -0.018045077 0.21540274
-0.4958683 0.9808422 -0.3976603 0.20222561 -0.20113026 -0.6789343 0.16417706 -0.30405676
-0.17605005 -0.28047958 0.12061816 -0.41687045 0.15468304 -0.011735378 -0.4097318 0.016914096
-0.7554082 0.30567354 0.113619015 0.25367433 0.48768994 0.1904667 0.02852295 0.8014867
-1.2367172 -0.42785916 -0.019285426 0.6139734 -0.38645145 0.5269529 0.3858689 0.3377206
-0.13516442 0.28412423 -0.077674784 0.14141388 -0.3401785 0.20768546 -0.38694394 -0.5091572
-0.43202296 -0.09732185 0.100521535 0.4130055 0.3816722 0.30283687 0.47806582 -0.08955819
0.48487777 -0.63476974 0.58288866 -0.1368008 -0.10853053 -0.2240514 0.36672136 -0.5454303
-0.6039939 -0.092227116 -0.15975589 0.4025082 0.02485956 0.6650876 -0.26111552 0.2969737
-0.7175797 0.977221 -0.3674667 0.51738495 -0.4503327 -0.7390694 0.059807535 -0.6734035
-0.2544529 -0.18385105 -0.2337031 -0.8336162 0.07925357 -0.0934787 -0.61853385 0.23207672
-0.3764096 -0.022615468 0.025924597 0.0012800489 0.028957834 -0.20243791 -0.039523944 0.067282915
-0.010834478 -0.13447893 -0.220151 0.23472013 -0.006248281 -0.21911319 0.48020405 -0.04478263
0.014412187 -0.046518706 -0.25082433 0.10207501 -0.12561813 -0.112994835 0.17949006 0.036679294
-0.13497612 -0.18821537 -0.18075502 0.0293048 0.12525679 -0.017461997 0.17305551 -0.1368049
-0.07596199 -0.053483833 -0.073387034 -0.109459355 0.2141972 -0.14977814 0.11120953 0.016806018
-0.4080104 -0.03295772 0.1408553 0.07850218 -0.04030953 0.014221849 -0.12764382 -0.29184896
0.16653128 0.26544416 -0.19834475 -0.058548797 -0.23601359 -0.09289953 -0.015473505 -0.08033539
0.0019843031 0.0077847587 -0.05950076 -0.32117912 0.24423201 0.088968605 -0.021287626 0.094050065

actor.2.bias f4 [64]
00000000: a283 9fbe f6e4 31be c5cf b13d 9043 8abe
00000010: 76bf 38be f1b3 a03e 27b1 493d c506 62be
00000020: b4f2 ec3d d826 fb3d 2b96 72bd 0648 9a3e
00000030: 8280 40be e80a e7bc 8168 b4be dbe2 a33d
00000040: ff5d 193c b6ef dd3e 540e c1be 186a b0bd
00000050: 2ce4 a13c 2cec a93e bed0 123e 24f2 c0be
00000060: bc0b a63d 08c8 013e 596a 8ebe b19d 50be
00000070: e807 96bd 0b65 213e b4ed a03e 32c1 1f3e
00000080: 01fd 0c3e 2649 fe3d 38f0 67bd 688e 513e
00000090: ed22 523e aa50 1fbe d24a de3e 194e 03bb
000000a0: 0796 c23e 199d b6be 921f cabd ce21 72be
000000b0: cfcd bb3d d46f 093e cd48 1cbd 241d 8e3d
000000c0: c6d3 bb3d 8178 79be 009a 5d3e d4a6 ddbc
000000d0: fe5d d4bd 9f21 8e3d adcf 95be 9be7 283d
000000e0: 1d01 1bbc f193 51bc c55e c4bd 29b7 5ebc
000000f0: 100d 0abd e02a 77bd 85e3 49be 852f 1cbe
-0.31155115 -0.17372498 0.08682207 -0.2700467 -0.18041787 0.31387284 0.04924121 -0.22072895
0.115697294 0.12263268 -0.059225243 0.30133075 -0.18799022 -0.028203443 -0.3523598 0.080022536
0.009360789 0.43346947 -0.37706244 -0.08613986 0.019762121 0.33187997 0.14337441 -0.3768474
0.08107707 0.12673962 -0.27815512 -0.20372654 -0.07325727 0.15761201 0.31431353 0.15601042
0.13768388 0.12416296 -0.056625575 0.2046448 0.20521136 -0.15558115 0.43416458 -0.0020035564
0.38005087 -0.3566673 -0.09869303 -0.23645708 0.09170114 0.13421565 -0.038155366 0.06939152
0.09171252 -0.24362375 0.21640778 -0.027057089 -0.1036949 0.069400065 -0.29260007 0.0412365
-0.009460715 -0.01279162 -0.09588388 -0.0135934735 -0.033703864 -0.060343623 -0.19715698 -0.15252502

actor.4.weight f4 [9, 64]
00000000: 5ec1 6c3f 86d9 2f3f 297d 0e3f 5149 073f
00000010: abbd 0abf fafc 493d d897 8d3e 4650 0b3e
00000020: 769e 4cbd 23fe dd3d 3af5 c7be 2710 5e3e
00000030: 0a77 7e3f ec59 f5be 7358 68be 2a64 c7be
00000040: 5dd2 a23e a6b2 f9bd 2bf5 5bbe c6c8 a53e
00000050: 84ba 5dbe 1cb5 1bbf 5fc0 ae3d a64e 933f
00000060: 89af 88bd 2551 84be 0e50 f8bd e917 ecbd
00000070: aaee 793f 9ecd cdbe 48ae c7be ccbd 6fbf
00000080: 099c bcbe 3648 50bf 84ae 37bd b2c9 31bf
00000090: 0e81 2d3d a50e b0be 52ac 553e ec38 473e
000000a0: f8b5 e2be c634 093e e249 a1be 7056 743d
000000b0: ab82 fbbc de97 13be 5e55 babe d0e6 c63e
000000c0: cb27 d93e dbf8 49be 84d6 923e 6d1f 903e
000000d0: 45d4 ab3e 1a44 e2bd 2800 713e 3b5f f1be
000000e0: d442 a03e 1f0b 3c3e 24dd ccbe 1732 06be
000000f0: 9f13 b03e 0f2c b1bd c869 743f 1f89 6c3f
00000100: 049c 22be ab1e b6bd 8e13 2ebd cb6c 6ebe
00000110: 26eb 47be 92bf 53bc fed0 48bd 7aa5 df3c
00000120: 71d4 c1bd 4a71 adbc 4817 0fbe dc07 d43c
00000130: 1501 52bd 03bd 903e 13c3 86bd b288 aa3e
00000140: 4aaf bbbe 538d 0a3e 3bd2 62be 50af df3d
00000150: fc56 263d 9197 723e ea26 85bd f202 14be
00000160: 71d3 69be 9a0a be3e 510a 583c 5bc2 b6bc
00000170: dcaf 38bd 9c92 5ebd d44e 1fbe c917 0f3e
00000180: a4a2 983e 1417 84bd 6c17 18bc d5ab 343e
00000190: 1925 7f3d a595 c6bc f2ef 633e 43e7 9d3d
000001a0: 45f0 32bd b90f 17be 9962 7ebc 867b 723d
000001b0: 92f8 11bc e7ab 993e d962 8b3e 526b f9bc
000001c0: 65c3 bebd ee27 f53b 4ac1 db3d 57c9 89be
000001d0: b2ab a1be 27c5 9e3e 10d7 213e d290 953e
000001e0: acc3 6fbd e1f7 92be 55f6 bcbd b0d9 2c3e
000001f0: 1bc5 47be 0275 423e 2c36 d8bd 4e8b 8cbd
00000200: 1637 17bc 02f8 43be ee1c 9bbd 5401 51be
00000210: 1c18 86bd 38bf 353c fa44 95bd f726 643d
00000220: 11db 1cbe 37cd 9f3c 1e40 d9bd b849 b53a
00000230: d8fe 43bc 3dc1 803e e03d 04be 6ee9 933e
00000240: 0596 a5be 351e 57bd a70e 93bd 4886 883d
00000250: 9ec8 b03d 3b8f f03d 50ea 97bd b86f d93c
00000260: aca5 5abe 4a26 c03e 572f 86bc 8a22 09be
00000270: d2c6 87bd d7d1 f6bc e8a4 1abe 1a1e 583e
00000280: df0f 753e afcd 0a3d 7c6e a63c 8812 483d
00000290: b1fb 0c3e fac2 b6bc c046 613c a37b d5bb
000002a0: 7d9e b3bd a448 5bbe a4f1 303e c76b 513d
000002b0: fc8d 1c3d f577 df3e 19c0 ae3e 23da 43bd
000002c0: 6c96 06be 85d4 8abe 985a 153e a8ab b0be
000002d0: 32ac adbe f3ce 993e 494d b63d a8d2 103e
000002e0: 37c1 743c f0a4 c3be e33e bcbd 9da2 a63e
000002f0: eb46 96be b3c6 0f3e b88d d5bd 1da7 2e3d
00000300: a471 97be 10b1 d9bc 05fc d73d 8340 08be
00000310: a172 14be 4425 b23e ba0d 12bc 39c1 c1be
00000320: b80e 563e d350 8d3d 4d74 5fbe 1832 963e
00000330: 4fd5 80be 3aa9 083d e052 2ebd f6c5 2f3e
00000340: a6b9 b73d ea99 9b3e e56d 85be 90d2 a9be
00000350: 7730 28bd 05b3 c53d cb13 3a3e 9872 98be
00000360: 6f9c 893c c98a 8cbd f578 02be 3bf4 cfbd
00000370: acb0 91be a5ed 803d 0663 a13e f32a 6b3d
00000380: 7904 03be 6f2e 5f3e c8b7 b7bd 5e19 9c3e
00000390: 73e8 723d 161e 43be fafd 8c3e 347c 8cbe
000003a0: 3a24 833e 81f2 4cbe bae6 a6be ea5a 84be
000003b0: 7c4d 62bd a53d 16be 3a51 3fbb 299c b93e
000003c0: 0b48 c33d 9cbe 183d 9e19 253e cd05 263d
000003d0: e174 883d 5dfa aebc ffd8 cbbe cde5 24bd
000003e0: 8145 963e b918 bf3d dd39 1dbe 890c cabd
000003f0: c9bf 833d 9e84 9dbd 80ab 73be 6d3b f0bd
0.92482555 0.6869129 0.5565973 0.52846247 -0.5419566 0.049313523 0.2765491 0.1360484
-0.049955808 0.10839488 -0.3905428 0.21685849 0.9940039 -0.47920167 -0.2268999 -0.38943607
0.3180112 -0.121922776 -0.21480243 0.3237974 -0.21653181 -0.60823226 0.085327856 1.1508377
-0.06674106 -0.25843158 -0.12124644 -0.11527998 0.976298 -0.40195936 -0.39000154 -0.9364898
-0.36837795 -0.81360185 -0.044844165 -0.6944839 0.042359404 -0.34386173 0.20866516 0.19455308
-0.44279456 0.13399038 -0.3150168 0.059652746 -0.030701956 -0.14413401 -0.36393255 0.3884797
0.42413172 -0.19723837 0.28679287 0.28148976 0.33560386 -0.110481456 0.23535216 -0.47142968
0.31300986 0.18363617 -0.40012467 -0.13105045 0.3438997 -0.08650982 0.9547391 0.9239673
-0.15879828 -0.08892568 -0.042499118 -0.23283689 -0.19523296 -0.012924092 -0.049027435 0.027300585
-0.09464348 -0.021172184 -0.13973725 0.025882654 -0.051270563 0.28269204 -0.06580176 0.33307415
-0.36657172 0.13530473 -0.22150509 0.1092211 0.0406103 0.2369063 -0.06501563 -0.14454249
-0.22834565 0.37117463 0.013186053 -0.022309473 -0.045089588 -0.054339036 -0.15557414 0.13973917
0.29811585 -0.06449714 -0.009282928 0.17643674 0.06229124 -0.024241278 0.222595 0.07710125
-0.04368617 -0.14752091 -0.015526437 0.059199832 -0.008909361 0.30013964 0.27223852 -0.030446682
-0.09314612 0.0074815666 0.10730226 -0.26911423 -0.31576306 0.3100979 0.15804696 0.29212052
-0.058536217 -0.28704742 -0.092266716 0.16879916 -0.19508784 0.18989947 -0.105572075 -0.06862508
-0.009229442 -0.19137576 -0.07573877 -0.20410663 -0.06547567 0.011092953 -0.07288547 0.055701222
-0.15317942 0.019507034 -0.106079325 0.0013831174 -0.011962615 0.2514743 -0.12914228 0.2888903
-0.32341018 -0.052519042 -0.07180529 0.06666237 0.08632015 0.11746069 -0.074177384 0.02654253
-0.21352261 0.37529212 -0.016379995 -0.13392082 -0.06629719 -0.030129356 -0.15101969 0.21105233
0.23931836 0.03388756 0.020316355 0.048845798 0.13767888 -0.022309769 0.013749778 -0.006514983
-0.087704636 -0.21414429 0.17279679 0.051128175 0.038221344 0.43646207 0.34130934 -0.047815453
-0.13143319 -0.27115265 0.1458534 -0.34505963 -0.33920437 0.30040702 0.0890146 0.14142859
0.014938644 -0.38211775 -0.09191682 0.3254594 -0.2935098 0.14040641 -0.10427421 0.04263984
-0.29578888 -0.026573688 0.10546116 -0.1330586 -0.14496852 0.34794056 -0.0089144055 -0.3784273
0.20904052 0.069001816 -0.21821709 0.29335093 -0.25162742 0.033364512 -0.042559505 0.1716536
0.089709565 0.30390865 -0.26060405 -0.3316846 -0.041061845 0.09653286 0.18171613 -0.29774928
0.016798226 -0.06862409 -0.12741454 -0.10154005 -0.28455102 0.06295327 0.3152086 0.057414006
-0.12794675 0.21795057 -0.089706 0.30488104 0.059303712 -0.19054446 0.2753752 -0.2743851
0.25613576 -0.20014383 -0.32597905 -0.25850612 -0.055249676 -0.14671953 -0.0029192702 0.36251953
0.095352255 0.037291154 0.16123053 0.040532876 0.06662918 -0.021359617 -0.39813992 -0.040258218
0.29349902 0.09330887 -0.15354104 -0.09865672 0.064330645 -0.0769131 -0.23795891 -0.117300846

actor.4.bias f4 [9]
00000000: 7d57 c0be cce8 78bc 455b 73bc 7da6 b73e
00000010: 3422 af3d a0f8 5fbd 2123 a03e 9268 3c3d
00000020: 9304 5fbe
-0.37566748 -0.015192222 -0.014853303 0.35869208 0.085514456 -0.054680467 0.312768 0.045998164
-0.21779089

critic.0.weight f4 [64, 7]
00000000: a643 d63e 5ab2 acbd c730 babe 1192 38bd
00000010: 4385 7cbf 2155 2d40 4a6d 86be 4d1a 9cbd
00000020: 4759 9bbd 44bb 3dbd d39b f93d 3335 013f
00000030: 06fe 38c0 d076 a83d b336 9a3e 2c24 033e
00000040: 9c5c 8ebc d2f1 303e 100a 293e 50e5 f8bf
00000050: 1a22 bcbe 8408 5b3e 9198 153e bbf8 0abe
00000060: e24c b23d 2546 e83e 41e5 26c0 873c 963e
00000070: f2c9 56bd f208 4bbd 3731 a83c 2067 833f
00000080: e489 07bf 4ee6 eabe c654 7ebe 244c b83d
00000090: 9d99 b8bd b9fa 073e c900 debe fbc7 24bf
000000a0: ac5b 783e 844e 23be cacb 22be 37f8 41bd
000000b0: 48fe 113d cbfc 47bd ee0d f3bf 2767 e23e
000000c0: eeed 8e3d e583 a43e 63ac 78be 81cf cabe
000000d0: 95e2 39be 40db 65bf 753d 25c0 ca6e 583e
000000e0: 1cea b73c fa95 5b3d e5b1 353e 7648 5d3e
000000f0: 7e01 2bbe 282c 2940 5734 7c3e d3f3 043e
00000100: 6984 56be 0fc1 863e c26a a8be 1337 25bf
00000110: 12e0 763f 6654 e5bd b94e cb3d 5fc3 0e3d
00000120: c003 90be ffad 8a3e 4474 afbe 6753 fa3f
00000130: 3804 343e f9a8 2b3e 1f4d 14be 02ff 5abc
00000140: 4cbe 203e 72ab 9d3a 5d39 2f40 b792 023d
00000150: 7f79 413e 0c40 c33c 2d3b ffbe bc6e 353f
00000160: 71ac 293e d8b8 4bbf 3c8c 563e 54c1 0cbe
00000170: a098 5abd 89bd 533d 7785 f23e 90b4 e33d
00000180: 317c 55be a6a0 c13d 1cec 8fbe efd4 2a3d
00000190: 5c2b 20be b15b 9ebd 16d4 8e3f baba 1cc0
000001a0: 233e 453e 7bcf 8dbe a9c0 643e c82f a1be
000001b0: 08c4 52be e36a 083f 8314 0740 a953 fb3e
000001c0: 2a2e 113e d97e bf3d bfdb efbe dca3 5cbd
000001d0: 5d57 85bf 9555 84bf a030 413e 44d5 223e
000001e0: 8001 7dbe b6ee f3bc 327e 613c 134d b9bc
000001f0: fc36 3740 cb13 d23d e6d1 0c3d e54a 04bd
00000200: f43f c2bd 10d3 d33c 2f4d 423f 94f1 cfbf
00000210: e666 8bbc f510 c73d ff78 b2bd e7d0 e33d
00000220: 953e 3d3e b512 98be 47e6 1cc0 395e c4bd
00000230: 6731 103f 047c ce3e 53fb 9ebe de1b ab3d
00000240: be25 e8be 1388 f03f 6d23 b53d 911b a8be
00000250: 2f87 5f3e 3aa7 bd3d 809b 26bf 0b30 dabe
00000260: a4c6 95bf b90b 523d 181a 13be f65a 00bd
00000270: 985c 0e3e 5c82 903e ed2b 803e 3c87 ee3f
00000280: f3f0 a6bc 292f ab3e 401e 90be afec bf3d
00000290: 762c 82bc 7658 05bf 2a88 0140 d69a 06be
000002a0: 1fc5 22be 05c5 7e3e 15bc 893e 7687 ac3d
000002b0: 1ce0 1b3f 4293 2240 5bcb 47be 1a64 9b3e
000002c0: 99d6 91be f211 4a3d 263b b2bd d7b7 e6be
000002d0: c189 1840 9bf0 50be 8ee5 d13d 17f3 a93c
000002e0: 00fe f0bb 3ff7 4cbe 2458 5cbf caf2 c5bf
000002f0: 4b7f 08be 9a0a ddbd 00a7 4a3d bdb0 d43c
00000300: b90e cc3d 1fc4 dabc 85f0 15c0 6396 4c3e
00000310: ad50 223e 179b ccbd b9a0 373d 6cbc 083f
00000320: c532 b03d e5c8 673e 9201 1b3e b2d5 70be
00000330: 9b84 c13d 5654 2cbc 791b 06bf bfad 1fbf
00000340: 961f 9bbe b65d 503d 607e 0cbd 08ab 3b3e
00000350: c364 ecbd 7b78 043e 197f 003f 6b45 1e40
00000360: 049c 093e c1d8 c03c 86d5 1c3e 6a62 cd3e
00000370: b65c 6ebf 1e1a 4e3e e504 163f f9cb 78be
00000380: f4b1 22be 3ca7 6c3e b069 ac3c 9abf 493e
00000390: 3988 c8bd 2d2b 3840 366a 14be b7d4 8dbe
000003a0: 59f8 d8bd f021 a93e 7b92 913e 4d36 54bf
000003b0: e461 2940 835f 963e dad6 07be 9374 46bc
000003c0: 68db 8e3e 3b64 ec3d 5639 223f 2190 1940
000003d0: 565b 3e3d a86d 2a3e aaa8 1b3e 606f 863d
000003e0: cb36 383e b721 323f 3a1f 09c0 bd93 973d
000003f0: d077 9f3e 459c 6fbe 3085 253b 6d17 1abd
0.41848487 -0.08432455 -0.3636534 -0.045061175 -0.9864084 2.7083209 -0.26255256 -0.07622204
-0.07585388 -0.04632117 0.12187924 0.504718 -2.8905044 0.08225787 0.30119857 0.12806767
-0.017378144 0.17279747 0.16507745 -1.9444981 -0.36744767 0.21389967 0.1460898 -0.13571446
0.087060705 0.45366016 -2.6077425 0.29343054 -0.052438684 -0.049569078 0.02053128 1.0265846
-0.5294478 -0.45878834 -0.24837026 0.08998898 -0.090136744 0.13279237 -0.43359974 -0.64367646
0.2425372 -0.1594792 -0.15898052 -0.047355857 0.035642892 -0.048825067 -1.8988626 0.44219324
0.06978975 0.32131878 -0.2428451 -0.39611438 -0.1815284 -0.89787674 -2.581876 0.21136013
0.0224505 0.053609826 0.17743643 0.21609673 -0.16699788 2.64332 0.24629341 0.12983637
-0.20948948 0.26319167 -0.3289395 -0.6453716 0.96435654 -0.11197738 0.099271245 0.03485429
-0.2812786 0.27085873 -0.3426839 1.9556702 0.17579734 0.16763677 -0.14482544 -0.013366463
0.15697592 0.0012029244 2.7378762 0.0318782 0.18894003 0.02383425 -0.49849835 0.7087209
0.16569687 -0.79578924 0.20951933 -0.13745624 -0.05336821 0.051694427 0.4736745 0.11118424
-0.20848157 0.094544694 -0.28109825 0.041706976 -0.1564154 -0.077323325 1.1158473 -2.448897
0.19261985 -0.27697358 0.22339119 -0.31481767 -0.20582592 0.53288096 2.110627 0.49087265
0.14177766 0.09350366 -0.4684734 -0.053867206 -1.0417286 -1.0338618 0.18866205 0.15901667
-0.24707603 -0.029776912 0.013762997 -0.02261976 2.862731 0.102576815 0.034379862 -0.032297987
-0.09484854 0.025857478 0.7589902 -1.6245599 -0.01701684 0.09720031 -0.087144844 0.11123829
0.18480904 -0.29701772 -2.451555 -0.09588284 0.5632538 0.4032899 -0.3105112 0.083549246
-0.45341295 1.8791527 0.088446476 -0.32833531 0.21828912 0.092604116 -0.65081024 -0.4261478
-1.1701245 0.05128071 -0.14365423 -0.031336747 0.13902509 0.28224456 0.25033513 1.863502
-0.020378565 0.33434418 -0.2814808 0.09371316 -0.015890341 -0.52088106 2.0239358 -0.13145003
-0.15895508 0.24879844 0.26901308 0.084242746 0.6088884 2.540238 -0.19511168 0.3034981
-0.28484038 0.04933352 -0.08702688 -0.45062134 2.3834078 -0.20404284 0.10248862 0.020745797
-0.007354498 -0.20016192 -0.8607199 -1.5464718 -0.13329808 -0.10793038 0.04947567 0.025963182
0.099637456 -0.026704846 -2.3428051 0.19979243 0.15851088 -0.099905185 0.04483101 0.5341251
0.086034335 0.22635229 0.15137318 -0.23519018 0.094491206 -0.010518154 -0.5238567 -0.6237449
-0.30297536 0.05087062 -0.034300208 0.18326962 -0.11542656 0.12936585 0.50193936 2.472987
0.13438421 0.023540856 0.15315828 0.40114146 -0.93110216 0.2012715 0.5860122 -0.2429656
-0.15888196 0.2311067 0.02104649 0.19701996 -0.097916074 2.8776352 -0.14493641 -0.2770135
-0.105942436 0.33033705 0.28432068 -0.82895356 2.6465998 0.29369745 -0.13265553 -0.012112754
0.2790177 0.11542555 0.6336874 2.399422 0.046473823 0.16643393 0.15201059 0.06564212
0.17989652 0.69582695 -2.142531 0.07401226 0.31146097 -0.23399456 0.0025256388 -0.037619997

critic.0.bias f4 [64]
00000000: 0b16 5e3e 3653 e03d 44bb afbe 9050 aabe
00000010: 1114 b1be ce62 0c3f 59d7 053e 768c ae3e
00000020: 6b5d c0be 677a 4c3e 0415 9bbe 32b7 3ebe
00000030: 90f3 18bf 9b1e 28be 4c46 073e 2c8a e73d
00000040: 7533 4a3c 4b39 41be 00ff ecbd 3c14 16be
00000050: 2001 44b9 46e7 f53e fd71 dabd 05ae cd3d
00000060: 8350 9abe ddc1 8fbc 5e8c 943e 94cd 70bd
00000070: e7d4 fbbe 154d e43e 9dee 98be c10f c23e
00000080: 51e1 22be b271 ddbc ff44 87be 2287 a0be
00000090: 2dff 53bd 1387 27be afb4 6cbe 3613 ccbe
000000a0: 8b0b 7a3e d3b3 de3d e3ea ed3d 49d4 e43e
000000b0: 3c97 2b3d 1223 8a3e d37f a43e d673 d33d
000000c0: eeb3 d23e 5c6e ad3e 8216 673d b921 57bc
000000d0: 6492 c63e 3108 77be 21b4 883e 3f04 b0be
000000e0: 3aa9 d73e 8e29 a63e 27a1 3abe 8a7d cf3e
000000f0: d8fc 213d 522c 3fbd 3bc5 c6bd 2997 aebe
0.21688096 0.10953371 -0.3432256 -0.3326459 -0.34585622 0.54838264 0.1307043 0.34091538
-0.37571272 0.19968568 -0.3028947 -0.18624571 -0.59746647 -0.16417925 0.1321041 0.11305651
0.01234137 -0.18869512 -0.11572075 -0.14656156 -0.00018692436 0.4802801 -0.10666273 0.10042957
-0.3013955 -0.017548496 0.29013342 -0.058789805 -0.4918587 0.4459006 -0.29869547 0.37902644
-0.15906264 -0.027031753 -0.26419827 -0.31353098 -0.051757026 -0.1636012 -0.231158 -0.39858407
0.24418466 0.108741425 0.11617067 0.4469321 0.041892275 0.26979882 0.32128772 0.10324828
0.411529 0.3387326 0.05641795 -0.013130599 0.38783562 -0.24124219 0.26699927 -0.3437824
0.42121297 0.3245358 -0.18225537 0.40525466 0.03954777 -0.046673127 -0.097055875 -0.340997

critic.2.weight f4 [64, 64]
00000000: 091a 3c3d ba23 f93d dea9 123e 2504 933d
00000010: ccdb af3d b767 4a3d ddb6 443d 141c 963d
00000020: 59f0 d13c 345d b3bc 0e88 3ebd c05f 05bd
00000030: 957e 92bc 756e 633d c07b f5bd d51e 903d
00000040: 2af4 0d3d 2967 593d 9815 803d 5ecd 37bd
00000050: 1d3a a4bd 273f 28bd 4bf7 d83d d96e 6b3d
00000060: cfd2 1d3c 4b53 a5bc 9b16 cb3c f057 bcbd
00000070: 8b0c 48bd a930 4a3d 9d13 74bd c53e 443c
00000080: 28b9 c0bd 1e33 e1bb 6752 b4ba 1803 51bc
00000090: 694a adbd 686e de3c 668c cf3d fb61 f23d
000000a0: 6db5 e93c 12df 963c 97ad c9bc 8354 1abe
000000b0: 785a 3b3c 69ba 2c3d 1545 af3d f751 c2bd
000000c0: deed 64bd 17fc 16bd 8e4f 74bd 5227 f3bd
000000d0: 4e29 02bd 5e74 01bd 0774 09bd 4361 93bd
000000e0: 94a1 ea3c 0cc2 993d 8420 193d 23f7 cc3d
000000f0: ee46 de3d 299a fe3d 6e3b 243d a62b 8c3d
00000100: 3662 1cbf 1835 6a3e f2a0 82bc e8da b23e
00000110: 00f8 f0bd 8dd1 24bf 3fb9 1cbf 191c f2be
00000120: c591 073e 4122 27bf 2271 473d a2ed a73e
00000130: 592d 0b3f ecfe 2d3e 4fc6 0d3f 0f09 e33e
00000140: 06f7 76be 6111 763e 305f 3b3e 9316 05be
00000150: 86dc a4bc f233 f6be 5798 f53d 2c8f 11bf
00000160: 397c 663e 2820 8cbe a5a6 afbf 03cf 223e
00000170: a611 bd3e 39fd 2abf f92c 543f 0281 68be
00000180: 9a30 523d 4710 e13d 078a 2a3f 51cf f93e
00000190: c3b4 0ebf a08c b43e d3e0 923e 4953 433f
000001a0: c386 c6bd cbc6 62bc 6548 433e 9c65 d03e
000001b0: bd0a 15bf 84be 0fbf 2489 afbe 3584 5cbe
000001c0: c6e0 a9be d0b9 05bf 47eb 27be 96a0 be3e
000001d0: cecd 5ebe ece4 453d a5b7 63be fa07 86bd
000001e0: c2b4 cf3e 1c03 8d3d 0c24 2bbe 942d 4cbe
000001f0: 3f8c d9be aa76 fdbd eba0 ba3c 90ba 013f
00000200: ac95 f3bc ce2f 0b3e 8b13 d43c b188 4d3e
00000210: 7445 f5bd bef1 713d 98e4 0e3e 2a0a 9d3e
00000220: b029 13be 760c 79bd 7657 323d b9f8 d0be
00000230: 5c06 063e 9dd4 91bd d1be 6e3e fb59 1d3e
00000240: 79db c83e 9587 04be fa38 64bc 5e28 2e3d
00000250: baea 38bd 8b49 733e 2a32 8cbe 790a 95be
00000260: 9553 b0be bc05 44be 5c25 ad3d b71f 383e
00000270: bece 5a3c 7c2d 533e 2c23 2cbd 3afa 46be
00000280: ef53 20be 64a8 4cbd 699e bbbe 55de fbbd
00000290: 146d 28bd 4237 babe 14a0 e83d 2630 23be
000002a0: 1c2a c0bd f7ff f63c 7c9d ef3d 5c35 243d
000002b0: 982c 4f3e f26a aa3c 4f8d 5abe 5425 8f3e
000002c0: 4b21 873d 0de6 95be c4b0 4ebe 588d dfbd
000002d0: 2ac6 dbbd 2e4d a0be ed12 45bc a9ab 323e
000002e0: 523f 19be 2029 72bc d2a4 58be 4e4c c53d
000002f0: 67c6 6a3e 34c9 5c3d ad59 dcbd 0873 bdbd
00000300: 60cc 623b 369a f1bd da6d d93c 174d ebbc
00000310: 5677 a63d 3972 86bd 3d52 6e3d f12c 913d
00000320: f985 3bbd 722e 0b3d 6485 643d 7b52 4fbb
00000330: 69e2 93bd e079 623d 1e1a a8bc 87b9 843d
00000340: 0336 d1bd f717 30bc 5b75 113d b81b be3d
00000350: 504f 9b3b 5a39 9c3d f97c 033d ed1e 0abc
00000360: 5392 423d b2c6 233d 4c92 82bd 2ed4 6a3d
00000370: 40b8 b3bc aa03 053e 6f41 b83d 0b42 db3c
00000380: 3253 07b9 9f1b 793d e379 c03d eab4 41bd
00000390: 1917 96bd 0dbb 78bd 57fa 953d 1d10 b0bc
000003a0: 6777 923d 00e5 e1bd 5a97 b53d 7334 c03c
000003b0: 1696 e8bc 054e f1bc 0bbd 8cbd 9217 a63d
000003c0: 0338 17bd f2ab 87bc 10e6 b73d 1e61 eb3b
000003d0: 039c 0dbc b1bd 3b3c 0109 fc3a 8f9a e9bd
000003e0: ca1f 8cbd 5d8e 7c3d 5439 9b3c 4662 a7bc
000003f0: 5ec0 1d3d 1a70 c63d 6266 2fbc c400 bc3d
0.045923267 0.121650174 0.14322612 0.07178525 0.08586845 0.049415316 0.048025955 0.07329574
0.025627302 -0.021895029 -0.04651647 -0.032562017 -0.017882625 0.055525262 -0.11986494 0.07037131
0.03465668 0.053076897 0.06254119 -0.044873588 -0.08018897 -0.04107585 0.105940424 0.05747876
0.00963278 -0.020181319 0.024791053 -0.0919646 -0.048840087 0.049362812 -0.059589017 0.011977856
-0.09410316 -0.0068725487 -0.0013757468 -0.012757085 -0.08461458 0.027152255 0.10134201 0.118350945
0.028528893 0.018416915 -0.024618907 -0.15071301 0.011435144 0.042169962 0.08558098 -0.0948829
-0.05589091 -0.036861505 -0.05964618 -0.11872734 -0.031777672 -0.031605117 -0.033557918 -0.071962856
0.0286415 0.07507715 0.037384525 0.10008075 0.108533725 0.124317475 0.04009574 0.06844263
-0.6108736 0.22871816 -0.015945885 0.34932637 -0.11766052 -0.6438225 -0.61220163 -0.47287062
0.132392 -0.6528664 0.048691876 0.32798487 0.5436607 0.16991776 0.5538072 0.4434285
-0.2411767 0.24030067 0.1829803 -0.12996893 -0.020124685 -0.48086506 0.11991947 -0.5685909
0.22508325 -0.27368283 -1.3722731 0.15899281 0.36927527 -0.6679264 0.8288112 -0.22705463
0.05131588 0.10989433 0.66616863 0.48790982 -0.5574457 0.35263538 0.28687152 0.7629896
-0.096936725 -0.013841341 0.19070585 0.40702522 -0.5821951 -0.5615008 -0.34284317 -0.21534808
-0.331793 -0.5223665 -0.16398345 0.37231892 -0.21758196 0.04831402 -0.22238024 -0.0654449
0.40567595 0.06885359 -0.1671297 -0.19939262 -0.42489812 -0.12376149 0.02278181 0.50675297
-0.029734455 0.13592455 0.025888225 0.20071675 -0.11976138 0.059068434 0.13954389 0.30671817
-0.14371371 -0.0608029 0.04354044 -0.4081476 0.13088363 -0.07120631 0.23314978 0.15366356
0.39229944 -0.12942345 -0.0139296 0.042518966 -0.045145728 0.23758523 -0.27382022 -0.29109553
-0.34438768 -0.19142812 0.08454391 0.17980848 0.013354955 0.2062282 -0.04202573 -0.19431391
-0.15657018 -0.049965277 -0.36644295 -0.12298266 -0.04111965 -0.36370283 0.113586575 -0.15936336
-0.09383032 0.03015135 0.1169996 0.04008995 0.20231855 0.020802949 -0.21342967 0.27958167
0.06598147 -0.29277077 -0.20184618 -0.10915631 -0.10731156 -0.31308883 -0.012028438 0.17448296
-0.14965561 -0.014780313 -0.21156624 0.096336946 0.22927247 0.05390282 -0.10759292 -0.09250456
0.003460668 -0.117969915 0.02654164 -0.028723283 0.0812823 -0.06564755 0.058183897 0.0708865
-0.045782063 0.03397984 0.055791274 -0.0031634856 -0.07220919 0.05529201 -0.020520266 0.06480699
-0.1021538 -0.010747901 0.03551231 0.09282631 0.0047396794 0.076281264 0.032101605 -0.008430225
0.047502827 0.039984412 -0.0637556 0.057331257 -0.021938443 0.12989679 0.089968555 0.02676489
-0.00012905596 0.060817357 0.09398248 -0.047291674 -0.07328624 -0.06072526 0.07323139 -0.021492058
0.071516804 -0.110300064 0.08866759 0.02346251 -0.028391879 -0.029456148 -0.068719946 0.081099644
-0.03691865 -0.016561482 0.08979428 0.007183208 -0.008643153 0.0114588 0.0019228758 -0.11406433
-0.06842001 0.061659206 0.018948235 -0.020432603 0.038513534 0.096893504 -0.010705562 0.091798335

critic.2.bias f4 [64]
00000000: 3b45 15bc c68d 8ebe 948d 33bd ce31 983b
00000010: 202a 123e c252 c83c bc56 d93b dd8d 483d
00000020: e3f3 46be 0879 9c3d 7f5c db3c 2706 bbbd
00000030: 1376 1abe fb3a 9cbd a025 a1bd 6d74 423d
00000040: cf2e c6bc e395 3b3d b714 3d3d c4ed 8f3d
00000050: c460 0bbd 0995 3e3e d9cf 323d 2169 96bc
00000060: 889f dbbd 774a f7bc 029c 0abe f0c8 5b3d
00000070: 0fe1 683d c68a ca3d 7dfe e6bc 99bb 603d
00000080: 7646 81bd 47b6 f1bc 0dd7 8d3d f221 87bd
00000090: f881 3d3d ee39 84bd b711 663d ce36 123c
000000a0: 45f0 f83d d200 ae3e 13cd 47bd 563c 87bc
000000b0: 117b e83c d5c5 a5bb df8b f43c bdb8 0e3d
000000c0: 5c63 83bd cc57 30be 176f 9f3d fb0a 9bbd
000000d0: 840e 23bd 8dd0 24be 6a30 c13c ca09 7cbd
000000e0: 6ea9 96bc 1290 0b3e 13c4 5abc 5342 66bd
000000f0: 3bda 47bd 92ed 83bd d2a4 4cbd 0853 9a3d
-0.009110744 -0.2784254 -0.04383619 0.004644609 0.14273882 0.024453525 0.006632654 0.048963416
-0.19428973 0.076402724 0.026777504 -0.09132033 -0.15084104 -0.07628437 -0.078685045 0.047474314
-0.024192242 0.04579724 0.046162333 0.07027772 -0.03402783 0.1861154 0.04365525 -0.018360676
-0.107237875 -0.030186875 -0.13536075 0.053658426 0.056855258 0.0988975 -0.028197521 0.054866407
-0.063122675 -0.029505862 0.06925783 -0.065982714 0.046266526 -0.06456362 0.056169238 0.008924199
0.12155203 0.33985 -0.04877956 -0.016508263 0.028378995 -0.005058984 0.029851852 0.03484415
-0.06415436 -0.17220992 0.077848606 -0.07570454 -0.039808765 -0.16095181 0.023582656 -0.061532773
-0.018391337 0.13629177 -0.013352412 -0.056215595 -0.048792105 -0.06441797 -0.049961872 0.07535368

critic.4.weight f4 [1, 64]
00000000: bf93 e63b 496a 833e f6a7 643e 9297 fbbb
00000010: 2d43 8a3c 4560 553b be9b bcbb 7c01 efb9
00000020: 5fd8 e73e 23f3 273b fda8 683e 8796 98bb
00000030: 02f3 0dbe 5aa9 4a3c b8c7 16bc 3f1e 003e
00000040: 7216 bd3b 711e 5cba 0399 693b 74ab a13b
00000050: 6dba 833b 63e0 f7bb a410 5abb 8969 ea3a
00000060: b5b9 d2bb 579d b4bb 24b1 0abe 6263 4bbb
00000070: d5b5 6ebb 65e1 433b 66d4 f83a 5932 a83a
00000080: d9f4 a9bb ec8b 18b8 e664 6aba d219 79bb
00000090: e8aa 963b 870e 8f3b 65fe 55bb 665f 2fbb
000000a0: c0c4 143c ba0c 6b3e ebd7 a43d e955 62bb
000000b0: ad7a 2cbe e3a9 403a 92c5 aabb b968 723b
000000c0: c6e7 87bb 9db1 06bd 6817 103e a93c 233c
000000d0: 28e4 223b 820e 41be e6a8 14bc 4c3d f639
000000e0: e5f3 8a3b 5716 b1bb 452e e83d 9594 8abb
000000f0: 73e7 2c3b f3d0 8a3b 67f6 683d d40c 533b
0.0070366557 0.25667027 0.22329697 -0.0076779807 0.016877735 0.0032558602 -0.0057558706 -0.00045586738
0.45282266 0.0025627099 0.22720714 -0.004656616 -0.13862231 0.012369478 -0.00920289 0.12511538
0.005770498 -0.000839687 0.003564418 0.004933769 0.0040200264 -0.007564591 -0.0033274079 0.0017884235
-0.0064308294 -0.0055119204 -0.13544136 -0.0031034579 -0.0036424298 0.0029888984 0.0018984198 0.0012832388
-0.005186659 -3.6369936e-05 -0.00089414266 -0.0038009775 0.0045980103 0.0043657455 -0.0032652852 -0.0026759743
0.009080112 0.22954074 0.080489956 -0.003453607 -0.16843672 0.0007349534 -0.0052115405 0.003698869
-0.0041475026 -0.03288423 0.14071429 0.009963193 0.002485523 -0.1885319 -0.009073472 0.00046966446
0.0042405003 -0.0054042744 0.1133695 -0.004229138 0.0026383072 0.0042363345 0.056875613 0.003220369
