trained/ComplexPong/PPO_frequent_1728186653.6467345.pth (torch, 44850 bytes, 11 tensors)

actor.0.weight f4 [64, 7]
00000000: 4834 4fbe 735c e6bd c61a ba3e 5b96 0e3e
00000010: c7b0 213f c2f0 893e 4f4a e63d f5ff 8e3d
00000020: 1b07 0c3f 7120 fabe e61f 7fbd 258c 9cbe
00000030: 4702 983d f227 48bc dc5c 523e e7f5 2cbf
00000040: 80c3 b83e 45ed 0e3e c7f3 0b3f 4779 05bf
00000050: d98a 2a3e fe93 9bbe 7d71 92be fc80 913e
00000060: 6182 833e 336b 683e 0c78 543e 5794 be3d
00000070: ecb0 42be aaf1 013e f125 a83e 6a38 aebe
00000080: 62a2 8d3e 6d39 2bbf 7b58 26bd 0d4f c83d
00000090: bb96 c93e e60c 17bf c7dd 0d3e 3d28 43bf
000000a0: 2af9 493e 3ca4 783e f6af aabe ef0a 833e
000000b0: ca4d 713e bf71 d6be e57c 933d e774 a3bf
000000c0: cde3 81bd 2713 73be bf24 043f 46ee d5be
000000d0: ae23 8dbc dcc6 19bf 1c90 093e 10a4 853e
000000e0: 2bf7 173c 1cf2 2bbd b800 49be d004 6bbe
000000f0: d76e 71bd 291b cbbe 6eb6 15be b0e0 9c3e
00000100: 95f6 32be dd1f 493e 59eb a9be 716c f43e
00000110: 5565 33bf 23da f6bd 26c6 b1be 1a08 3e3e
00000120: 7efc c7be 0f15 933e 393e 15bf 24e5 eb3e
00000130: 12c7 663e ff84 a63e 1d8a 07be c305 8abe
00000140: cd5f 45be 5a7c 26bf 6241 bfbe 5837 213e
00000150: 0610 71bd 84d0 9c3e 47b9 a1be 8b38 e33c
00000160: 7296 bfbd 09a0 9f3e 8f02 2b3e 862b 3abe
00000170: e353 f53e a618 64bc 5485 a0bd caba 47bf
00000180: 7ffb 253e 1077 0dbe 36e9 b23e ee78 d7bc
00000190: d2b5 b1be 5f5e 52be 7619 1cbf c460 7e3e
000001a0: 1724 313e 4f65 743e e05a 7f3e f412 27be
000001b0: 39d3 0ebd 0ccb 0fbe 8321 7c3f 5410 023e
000001c0: 85c7 e3be 6b91 bdbe 84e0 d83e 36c0 7f3d
000001d0: bf4e 5f3f 857f 9e3d 79a7 7b3e 2f61 9b3d
000001e0: 8b1e fc3e f1dd ebbe 125e b63e 4b10 c7be
000001f0: 7c24 023f 2c05 19be 2e23 803c 3df1 563e
00000200: 4efa 2cbe f4ba 953e 224a 26be f717 393f
00000210: 58c8 0e3d 1279 cf3e 943b 6f3e 708e 19bf
00000220: e9e9 da3e b044 48bf 83cf 5a3f aa65 e0bd
00000230: 27a6 9cbd f180 ecbe adc5 123f a9bf 993d
00000240: c5db 243f 7676 a03d 9121 1bbe 1890 debd
00000250: 5d6a f9bd 5960 283e 41bf af3e af91 3e3e
00000260: 297b 433f 8238 443e d55e c9bd a245 f73e
00000270: 75d2 82be dcad fcbc 7583 51be adbb bc3c
00000280: 642e bbbd 912e 913e d1a1 06be 499b 5bbd
00000290: 95f0 2fbe ac02 8f3e d44e 843e 2913 17bc
000002a0: 7e69 643e ca57 87bd 2499 533e 2287 dabd
000002b0: ae6c 253e 3636 183f a83f 04be 91a5 87be
000002c0: a033 f33e a057 cdbd b7d1 c13e ff43 79bc
000002d0: b5bd 283d ff58 a8be 4a64 6ebd 6f26 b3be
000002e0: fbd5 5fbe 1032 9c3e c9c5 83be 0cab 2f3f
000002f0: 9ca9 bc3d 51e1 31bd 263f fbbe 72b8 4c3e
00000300: 4c4d 8a3e cd1c 433f 0b2c 88be e298 3bbe
00000310: ec1d 8b3e b063 12bf 2979 1d3f f371 7abc
00000320: fe4c 373f cd3d f53e 13cd 263e 05fb 753d
00000330: 9337 af3e 3eb0 9ebe b4bd 1ebe a3f3 e8be
00000340: 9eac e33d cc6b 853e ca47 673e bb38 b3be
00000350: a1ab b63d b1c9 fe3d 296e c9bd a31e 123f
00000360: 6168 b3be 43a1 b6bc 8f05 5ebe acff 34be
00000370: 0c26 063f 5f43 31be 5452 a43f c7b0 923e
00000380: 8be0 f0bd 6116 b43e 289b 98be 0c08 3bbd
00000390: 0663 97bd d4b2 293e 30e8 3f3e 1152 153e
000003a0: 9177 d13e 14d5 1ebe 5829 3b3c 9a3e 59be
000003b0: 8149 ca3c 9a60 8dbc 7e03 07be 0934 e1be
000003c0: c929 eb3e b78b 283e 6e99 683f 1518 af3e
000003d0: 4f0a 8a3e a9a4 833e b582 8e3e e7d6 90be
000003e0: 026d 8c3e 5ca1 09bf 4a41 1f3f 4410 43be
000003f0: 8096 043d 7327 953e 33ce 0dbf b29f d03d
-0.20234787 -0.11248102 0.36348552 0.13924544 0.63160366 0.26941496 0.11244642 0.06982414
0.5469834 -0.48852876 -0.06228628 -0.30575672 0.07422309 -0.012216555 0.20543236 -0.6756272
0.36086655 0.13957699 0.5466885 -0.5213818 0.16654529 -0.30386347 -0.2860221 0.2841872
0.2568541 0.22697143 0.20748919 0.09305637 -0.19012803 0.12689844 0.32841447 -0.34027416
0.2766295 -0.668845 -0.040611725 0.09780703 0.3937281 -0.59004056 0.13854133 -0.76233274
0.19723955 0.242814 -0.33337373 0.2559428 0.2356483 -0.41883656 0.07201556 -1.2770051
-0.06342278 -0.23737775 0.5161857 -0.4178335 -0.017228927 -0.6006906 0.1343388 0.26101732
0.009275238 -0.04197894 -0.1962918 -0.22951055 -0.058943596 -0.3966916 -0.14620373 0.30640173
-0.17476876 0.19641061 -0.3318737 0.47738984 -0.70076495 -0.12053325 -0.34721488 0.18557778
-0.39059824 0.28727004 -0.5829807 0.46073258 0.22536877 0.32523343 -0.1323628 -0.2695752
-0.19274826 -0.65033495 -0.3735457 0.15743768 -0.05885317 0.30627835 -0.31586668 0.027736923
-0.09354867 0.31176785 0.16700195 -0.18180665 0.47915563 -0.013921892 -0.0783793 -0.7801939
0.1620922 -0.1381495 0.3494355 -0.026302781 -0.3470903 -0.20543812 -0.6097635 0.248416
0.17298923 0.23866771 0.2493701 -0.16315824 -0.034869406 -0.140423 0.98488635 0.12701541
-0.4448816 -0.37025008 0.42358792 0.062439166 0.8722953 0.07739166 0.24575604 0.07586896
0.49242052 -0.46067765 0.35618645 -0.38879618 0.5083692 -0.14943379 0.015641775 0.20990463
-0.16892359 0.29244196 -0.16239217 0.7230219 0.03485903 0.40522057 0.23362571 -0.5998297
0.42756584 -0.7822981 0.8547289 -0.10956891 -0.076488785 -0.46192124 0.5733288 0.075072594
0.6439784 0.07835095 -0.15149523 -0.108673275 -0.1217849 0.16443004 0.34325603 0.18610261
0.763598 0.19162181 -0.09832541 0.48295313 -0.2555119 -0.030844621 -0.20460303 0.02303871
-0.09139708 0.2835584 -0.13147666 -0.05361489 -0.17181619 0.27931726 0.2584139 -0.009220877
0.22305867 -0.06608541 0.20663887 -0.10670306 0.1615474 0.5945772 -0.12914908 -0.26493505
0.47500324 -0.10026479 0.37855312 -0.015213965 0.041196544 -0.328804 -0.05820111 -0.3499026
-0.21858971 0.30506945 -0.25736836 0.6862037 0.09212038 -0.04342777 -0.49071616 0.19992235
0.27012098 0.7621582 -0.26596102 -0.18320039 0.27171266 -0.5718336 0.61513 -0.015285957
0.71601856 0.47898713 0.16289167 0.060053844 0.34222087 -0.30993837 -0.15502053 -0.4549838
0.111169085 0.26058805 0.22585979 -0.3500422 0.08919454 0.12440813 -0.098354645 0.57078
-0.35040572 -0.022293692 -0.21681808 -0.17675656 0.52401805 -0.17310856 1.2837625 0.28650495
-0.11761578 0.35173324 -0.29805875 -0.04566197 -0.07391934 0.16572124 0.18740916 0.14582087
0.40911534 -0.1551097 0.011423431 -0.21215287 0.024693253 -0.017257977 -0.13184926 -0.43985012
0.45930317 0.16459547 0.90859115 0.3419806 0.2696099 0.25711563 0.27834097 -0.28288957
0.27426916 -0.5376184 0.62209 -0.19049174 0.03237009 0.2913166 -0.5539276 0.101867095

actor.0.bias f4 [64]
00000000: 212a 8cbe ecc0 783c bf43 0b3e fec2 d63b
00000010: c642 603d e9e6 23be 8859 753e 71f9 d7bd
00000020: 1dbc c73e 45df 7c3d 0cb6 833d d2a2 063e
00000030: d22d bebc 1382 50be 0454 ba3d c4de 74be
00000040: 0e0a 223c 4385 90be cd77 6ebe 0b16 9fbe
00000050: 7d93 cfbd 5f6e a0be 23cb c8bc bc2e a4bc
00000060: 96d8 30be cc62 0ebe 2f45 fa3d dc15 573e
00000070: 7d50 9bbe 7e35 e2bd c958 233e 8e9a 90be
00000080: e1c2 8bbc 4b87 8abe f3ba 8abe 9930 86be
00000090: a197 553e d6eb df3d 8a14 53be 94d6 1fbe
000000a0: d6af f23d 989e c1be 2422 c8bd d8fe 663e
000000b0: 2fe9 78be 3a7d aabd 4046 71be ba2d 683e
000000c0: b5d3 6abe a4f9 41be e57a 74be e7d4 59b9
000000d0: 7e15 b43e adc2 9cbe 3501 913d 05b5 d73d
000000e0: b7ce 563e 0186 bfbd 9935 8ebe 40a7 bb3e
000000f0: fc49 953e edc8 5e3e 7c57 3bbd 4f8c 98be
-0.27375892 0.015182715 0.13600062 0.0065540066 0.05475118 -0.16006054 0.23959935 -0.10545624
0.39010707 0.061736364 0.06431207 0.13148049 -0.023215208 -0.2036212 0.09098056 -0.23913103
0.009890093 -0.2822667 -0.23287888 -0.31071505 -0.10135553 -0.31334206 -0.024510926 -0.020041816
-0.17270121 -0.13904876 0.12220227 0.21004432 -0.30334845 -0.11045359 0.15951838 -0.28242916
-0.017060699 -0.27056345 -0.27095756 -0.26208952 0.20858623 0.10933654 -0.20613304 -0.15609199
0.11849944 -0.3781631 -0.09772137 0.22558153 -0.24307702 -0.08324666 -0.23561954 0.22673693
-0.22932322 -0.18942887 -0.23875006 -0.00020774045 0.35172647 -0.30617276 0.07080308 0.105325736
0.20977293 -0.09351731 -0.27775267 0.3665104 0.29158008 0.21756335 -0.04573773 -0.29794547

actor.2.weight f4 [64, 64]
00000000: 38ac f13b 44ba c3bd 18bc 0abe e9af 82bd
00000010: 0b60 993e ae56 a2bd 1127 b23e b240 cf3c
00000020: 4501 103e b7a8 1d3d ad68 2ebe 3cfa 203d
00000030: 028d 32bd 9fd9 2ebc f68d c23c f839 41be
00000040: 22d0 c33d 9278 58be 7375 dfbc 51a3 e7be
00000050: b20c 893d 0640 38be 0253 2b3d 6829 f53c
00000060: 16bc 433d de65 18be 9141 0dbd 2bd6 d5bd
00000070: e2a4 96bd fc9d 543d d408 93bc ce96 88be
00000080: d03e 1dbc bc10 733d f28e 0fbd 74bb 3ebe
00000090: f9c2 9dbc 92b0 29bd 1bc7 d53c eeb4 7c3e
000000a0: 294a 983d ef9f 873b 217c aabd d51b 03bd
000000b0: 64f0 1e3e a318 cbbb 88a9 8abe a126 23bd
000000c0: b36b 48be 88e7 18bd 1830 abbe 5b99 ecbd
000000d0: 6961 9e3e 346f 05bd c33e 81bd bf48 21be
000000e0: 229f 94bd 1380 2f3d 3c9a b93d a96f 223e
000000f0: 0abe 2cbe 3108 983c d3df 343e 84f3 15be
00000100: 94fc 903d 0e30 483c bcdd 8dbc cf86 0bbd
00000110: 655c 00bd 39ec 88bd 3d1a 1a3e 1f59 f7bd
00000120: b089 61bc b809 1fbd 159e d73c 127c 1abe
00000130: d920 46bd a249 143e 94fb bc3c 15ab 0e3e
00000140: 247e d23d e79d 58bd a06e b7bd cacb d73c
00000150: db69 163e fbad d1bd a800 9f3d 1246 0fbd
00000160: b6ff a23d a14e 86bc b766 da3d 4d1b 94bc
00000170: 3029 9f3d 72a0 b9bd f89a 6fbd addc 673d
00000180: 0cd3 c43c 8ffa 5ebd 833f bbbd 4a32 ed3c
00000190: 129c 42be 86ce 87bd 2706 113e da94 393c
000001a0: e4a4 dbbc b1f5 a43d 4edb a53d 74af 24bc
000001b0: 0abe 003e e55f 5c3d 4fb4 41be 1be8 953d
000001c0: e545 c6bd 5d2b 1abd 58c0 b3bd dd0d 933d
000001d0: 5ae5 373e 292b 8f3c eff7 8bbd 7ac2 07be
000001e0: 90a9 2f3d e1f2 b83d 14d3 583d f2fa 063e
000001f0: c1b1 18be 9845 dfbc f0ae 9ebb bd11 0ebd
00000200: fa99 7d3e 02fc 88bd 89ea 593d d8f8 713d
00000210: 340f 8cbe b60a a43e 4a20 38bf db9b 26be
00000220: 10ce 4fbe f7a7 0fbe facb 073e 1e39 f6bb
00000230: 300e 1d3e 32b4 cf3d db51 613c 41b3 6e3d
00000240: 5aa7 2bbe 3b16 763e 3600 c43e b5c5 283f
00000250: 7392 1c3e c80c dd3e 18dd 06be f269 483d
00000260: e7ff edbc 158a 96bc 1a7c 3c3e 8cb3 e33c
00000270: 8f45 623e 0810 943d 7051 313d 7dfb ff3e
00000280: ec80 7dbd 26c1 043e 6713 773e fa66 463e
00000290: a010 d9bd cc3f 33be 31fb 2b3e ea8e 45be
000002a0: 5c8b 09be 1ce4 a4bd 2d5f d73e 9f69 39be
000002b0: 80f8 f9bd 6174 4f3e eeb3 b33e 480e 82bc
000002c0: c3fc 3b3e ee0f 883e 7fc2 993e 8f66 613d
000002d0: d0db 2fbf bd33 d63d 4dc7 6cbd 42db f43d
000002e0: 1687 923c b964 2cbe e0db 1a3e e162 8abe
000002f0: 0b15 3e3e 7a31 ef3d c1fa 5fbe 0015 993e
00000300: d454 c6be c16c 483f 64fb d7bd 4f6a 8abd
00000310: c2d5 993d c3e2 2b3f 5e96 8c3d 17a4 ea3e
00000320: afce 233e 5b11 80bb 7d86 463e 2c21 333e
00000330: 789e b43e 1d6a 293e b351 a53e a493 133e
00000340: 9ed1 8cbe 8f1a 813e 70c1 8b3a 717e bf3e
00000350: 9383 3abf 08ae 7bbe 2e87 e73d 3e1e 9f3d
00000360: 2f9c 31be 9713 183e 7311 093e 0f13 72be
00000370: 8dce 1dbf 3a4b 113e a1f9 1cbe 21c2 13bd
00000380: 5137 993e c616 3d3d 317f 1abf efae 303d
00000390: 0542 003f 5582 af3d 3476 2bbe 0726 06be
000003a0: 96e7 0f3e ebfd 953d 76dd ca3d 9309 ebbd
000003b0: cb30 59be 7220 b3be 25bc 16bf 7382 a73d
000003c0: 2d90 983e 685e 11bf 3bdf 0abe 76b6 153f
000003d0: c3cc 7d3e 4dfd 71bd ed9d 223f 2eaf ef3e
000003e0: ef5f 653e d061 b63e f8d6 ab3d 9a8e bc3d
000003f0: 42ca 903e 0278 2bbe 4bc2 eebe a833 97be
0.0073752664 -0.09557012 -0.13548315 -0.063812084 0.29956087 -0.07926689 0.3479543 0.025299404
0.14062984 0.038490977 -0.17032118 0.039301142 -0.043591507 -0.010672002 0.023749333 -0.1886977
0.095611826 -0.21139744 -0.027277684 -0.45241788 0.066918746 -0.17993173 0.04182721 0.02992697
0.047786795 -0.14882609 -0.034486357 -0.1044124 -0.07355668 0.05190848 -0.017948546 -0.26677555
-0.009597495 0.05934213 -0.035048433 -0.18626195 -0.01925801 -0.041428156 0.026095917 0.24678394
0.0743602 0.0041389386 -0.08324457 -0.032008965 0.15521389 -0.0061980053 -0.27082467 -0.03983176
-0.19572334 -0.03733018 -0.3343513 -0.11552688 0.30933693 -0.032576755 -0.06310799 -0.15750407
-0.07256915 0.04284675 0.09062621 0.15862907 -0.16869369 0.018558593 0.17663507 -0.14643675
0.070794255 0.012218488 -0.017317645 -0.03406411 -0.031338114 -0.06685681 0.15049072 -0.120775454
-0.013765737 -0.038827628 0.026320497 -0.15086392 -0.04837117 0.14481214 0.02306918 0.1393245
0.10277966 -0.052884962 -0.08956647 0.026342291 0.14688818 -0.10238262 0.07763797 -0.034978934
0.07958929 -0.016394915 0.106641226 -0.018079424 0.07771528 -0.09063806 -0.0584974 0.056606937
0.024026416 -0.05443817 -0.09142973 0.028954644 -0.19004849 -0.06631188 0.14162503 0.011326993
-0.026812024 0.080546744 0.0809847 -0.010051597 0.12572494 0.05380239 -0.18916439 0.07319661
-0.096813 -0.03763901 -0.08776921 0.071803786 0.17958584 0.017476635 -0.06834399 -0.1325778
0.042886317 0.090307005 0.052935675 0.13181666 -0.14911558 -0.027254865 -0.0048426315 -0.034684885
0.24765769 -0.06688692 0.053202186 0.059075207 -0.2735535 0.32039422 -0.7192427 -0.16270392
-0.2029345 -0.14028917 0.13261405 -0.007514133 0.15337443 0.101417914 0.013752426 0.05827642
-0.16763058 0.24031918 0.3828141 0.65926677 0.15290241 0.43173814 -0.13170278 0.048929162
-0.029052688 -0.01837639 0.18406716 0.027795576 0.22096847 0.0722962 0.043290555 0.49996558
-0.061890528 0.12964305 0.24128495 0.1937522 -0.10598874 -0.17504805 0.1679504 -0.19292799
-0.13432068 -0.08051321 0.420648 -0.18106697 -0.12205601 0.20259239 0.35098213 -0.01587595
0.1835814 0.26574653 0.300312 0.055029448 -0.6869478 0.10459087 -0.057807256 0.119558826
0.01788668 -0.16835298 0.15122938 -0.27028564 0.18562715 0.11679359 -0.21872999 0.29898834
-0.38736594 0.78290945 -0.10545996 -0.06758558 0.07511474 0.67142886 0.06864618 0.45828316
0.15996812 -0.003908319 0.1938724 0.17493123 0.35277152 0.16544385 0.32288894 0.14411789
-0.27503675 0.25215575 0.0010662507 0.37401155 -0.72857016 -0.24578106 0.1130508 0.0776944
-0.17344736 0.14851223 0.13385563 -0.23640083 -0.61643296 0.14188853 -0.15329601 -0.036073808
0.29925016 0.046164297 -0.6035033 0.04313558 0.5010074 0.08569781 -0.1674431 -0.13100444
0.14053187 0.07323822 0.099055216 -0.114764355 -0.2121002 -0.3498569 -0.58880836 0.08179178
0.29797497 -0.5678468 -0.13561718 0.5848154 0.24785142 -0.059079457 0.63522226 0.4681334
0.22399877 0.356215 0.083906114 0.092068866 0.2827931 -0.16744998 -0.4663261 -0.29531598

actor.2.bias f4 [64]
00000000: 81df b33d 0c34 45bd d407 1fbe 9872 9b3d
00000010: 9928 dabd ce66 bc3c 080a 523e 63f5 123e
00000020: 5d62 7c3e d404 61be f349 7a3e 83dd 023e
00000030: e021 f93d c7a4 4bbd 30df 6e3d b7d3 3d3e
00000040: 8be6 e1bd 0c4f 613e 84a4 63be e809 773e
00000050: 5376 423d c853 06bc c58d 9fbe 8c7c 443d
00000060: 282b 333e 8279 2d3e d25d 503e 82b7 903e
00000070: 36af 1e3e 61d1 5c3e 08c8 77bd 1cfd b2bc
00000080: 33e2 b83d a173 693e 4467 fdbd 5666 be3d
00000090: 9686 50bd d226 babd d0fb 6a3d 76cc 24be
000000a0: d184 6bbb 4ce9 8cbd 426c e8bd 1f54 a5be
000000b0: 2ecc 0d3e c727 5fbe 174d c4bc bcc4 24be
000000c0: 3539 103e e2d0 3d3e f709 74bd 12a1 7abe
000000d0: 65bc bebe 6361 2ebd cdb8 c23d 5821 1a3e
000000e0: cf70 bd3d c472 19be 2a14 833d 48ba 1f3e
000000f0: 92bf d63d a1ac d8bb caf9 9dbd 27cd ac3e
0.08782864 -0.04814534 -0.1553033 0.075902164 -0.10652275 0.02299824 0.20511639 0.1435142
0.24646898 -0.21974498 0.24442272 0.12779813 0.12164664 -0.04971769 0.058318317 0.18537794
-0.11030301 0.2200281 -0.22230726 0.24124873 0.047476124 -0.008198686 -0.3116285 0.04797034
0.17496932 0.16940883 0.2034829 0.28265005 0.15496525 0.21564247 -0.0604935 -0.021849208
0.09027519 0.22798015 -0.12373212 0.09296863 -0.0509096 -0.09089436 0.057369053 -0.1609362
-0.003593732 -0.06880435 -0.113487735 -0.32290742 0.1384742 -0.21792518 -0.02396254 -0.16090673
0.14084323 0.18536714 -0.059579816 -0.24475506 -0.3725311 -0.042573344 0.09507904 0.15051782
0.09250032 -0.14985186 0.0640033 0.15598404 0.10485758 -0.006612376 -0.07713659 0.3375027

actor.4.weight f4 [9, 64]
00000000: 1484 1ebe 3693 bcbc 957c 373e ab77 0c3f
00000010: 7a27 933b 5a6d 9fbe f2a9 65be 9668 a63e
00000020: df44 c4be 8e67 9d3f 0e81 c3bf 39ea 2fbf
00000030: 7af4 99be 2f01 c7be c9e8 8abe a301 2bbe
00000040: 56c7 ecbe f110 b2be d628 783f b0a4 19bf
00000050: d4c5 1d3d 5fe1 573d 6706 8cbe e899 c9be
00000060: 0578 f6be 7be0 f1bd 30a0 a2bf 446d 743e
00000070: c81e 83bf bc4c 173e fb1e e1be af84 023f
00000080: dd11 823d eca2 b2bd 2500 98be 1da8 003e
00000090: a833 af3d aa00 10be 89d1 833e de94 493f
000000a0: bfb4 573f 671c 74bd e8ad f53d bd14 3abe
000000b0: dc7c a3bf 02b0 79be 81a7 5cbe d3ea de3e
000000c0: cba7 d13e c8fa c9bf 9153 05be fcb6 3ebd
000000d0: 9925 993d e7ef b53d ba7c fe3e 5e69 4e3c
000000e0: d2dc b3be 4971 613f d3d9 7f3e 26a4 83bc
000000f0: 047e 973d f859 36bd 67ff e7bc b41f e83d
00000100: 9e9d 563e a23b 373d d4de a0be 8e0f 74bd
00000110: 4aa4 5c3e 15db c33e 6266 27bd 2b77 d7bd
00000120: dca8 71bd b14e acbd a091 0fbe b431 1a3e
00000130: ccb4 ca3b 8444 7a3c 99df 2f3e c84f 99bd
00000140: 82de 3bbe 063e c63e b925 3b3e ca59 ca3d
00000150: 913b 0c3b 31d3 93be d552 54be c623 02bc
00000160: dd44 d2bd f762 9d3e 4ec2 ac3d f650 013e
00000170: 654d 1fbd 7c61 863c bcb6 30bd 331d 2a3e
00000180: f0ed d4bd 1600 aabc acfa adbd 5f53 87be
00000190: 29d8 adbe c611 5e3c c326 0fbe 7f29 98bc
000001a0: c7d9 b73d 2bc0 863e a5d5 243e d653 55bd
000001b0: 167a 5ebd 0699 34bd 4c31 763e 0d16 abbe
000001c0: 9d59 11bc a5c5 a0bd 8e65 923d 6ff5 473d
000001d0: 0f76 f2bd 049b 5a3e 8373 383c fb21 7fbc
000001e0: 0839 263e c83d 713c c5c1 1d3e e5c1 26be
000001f0: 66db 4f3e 046e 2c3e 6145 6b3e 4865 7b3e
00000200: 5c2d 933e eb0f c8bb e28d d1be 1856 81bd
00000210: 9838 603e 174e d53e 3b43 8ebd 34b5 02be
00000220: 27b4 16be 0b03 5cbe de39 c0bd 0c4c 153e
00000230: 22b0 72bd 8761 2b3d 8467 d83e 28f1 683b
00000240: 5aa2 06bd d9ab ee3e df9f 98bd 3048 f43d
00000250: 6d23 003d 6fb1 cfbe befd 713d 813e 983d
00000260: a59c 08be dc66 d93e 8a9d e83b f71e 343e
00000270: d87b 7a3d 9faf 9a3d 06c8 79bd 0dd9 423d
00000280: 5cd7 16bd fcca 0ebd c9bb bf3d d221 a4be
00000290: dd05 e6be f918 8abb ced6 1ebe ab81 58bd
000002a0: d5fb 1f3c 1011 983e f19f 463e 14dc 8a3d
000002b0: ba91 90bd aa10 8d3d 4ce5 9e3e bdaa a5be
000002c0: afe7 ec3c eb0a c63d 4739 233e b48f cb3d
000002d0: e2e5 2f3d 7869 4c3e f541 a6bd 0313 debd
000002e0: 3b7b 6b3e 923d 7abd 40be 5c3e 9552 dbbd
000002f0: 9deb c33c fbe8 933d 2412 d63e 278c 693d
00000300: bef4 ffbd e4b3 a1bc f304 2c3e 2e7c a73d
00000310: fee3 54bd 1757 2ebd 7f7a 893e 9f9a 1b3e
00000320: 0263 533e b107 e3bd cab9 423e fcc6 553d
00000330: 7af8 333e 93db eebd 1707 0ebe 2e7a 873e
00000340: bb3b 8ebd 92be 2cbe 9eb3 8a3d 6547 663e
00000350: dcaf 8f3d 5ce2 0b3e c79c 7dbe d0d0 2f3c
00000360: 8166 313e 2abb 48be a800 793e 149d ab3c
00000370: fba7 0d3d 0296 973c b4c2 66be bbb2 a1be
00000380: 4440 8a3e d9fa 313e 3e01 91be 4a81 803e
00000390: 9c58 da3c 542e f53c c00d 323e fe35 153e
000003a0: 8e2c cbbd f452 09be adf3 86be bdb7 adbe
000003b0: e213 ac3e b2d5 e2bd 49fb 13be cedf 0f3c
000003c0: f424 933e f0d8 0b3e bcf0 973d 1e50 9ebe
000003d0: ea6a 69be ceb2 5ebe eb5b 803e e6b8 863e
000003e0: 153a 2abd 77d1 96be 27a7 30be e300 7d3d
000003f0: edc5 0c3e 8395 3bbe 477f f1bd afc0 ba3d
-0.15480071 -0.023019414 0.17918618 0.548701 0.00449079 -0.31138116 -0.2242811 0.32501668
-0.38333794 1.2297227 -1.5273759 -0.6871677 -0.30069333 -0.3886809 -0.27130726 -0.16699843
-0.4624583 -0.3477855 0.9693731 -0.6001692 0.03851874 0.052705165 -0.27348635 -0.39375234
-0.48138443 -0.118103944 -1.2705135 0.23869807 -1.0243769 0.14775366 -0.4396895 0.5098371
0.063510634 -0.08722481 -0.2968761 0.1256413 0.085547745 -0.14062753 0.257458 0.7874278
0.8426017 -0.0595974 0.119960606 -0.18171974 -1.2772479 -0.24383548 -0.21548273 0.43538532
0.40948328 -1.5779657 -0.1302016 -0.046561226 0.07477874 0.08883648 0.49704534 0.012598364
-0.3512941 0.88063484 0.24985437 -0.016069483 0.073970824 -0.044519395 -0.028320028 0.11334172
0.20958564 0.044734605 -0.31420004 -0.059585147 0.21547046 0.38253084 -0.040869124 -0.10520776
-0.058998927 -0.08413447 -0.14020395 0.15058023 0.0061861034 0.015275124 0.1717514 -0.0748592
-0.18346599 0.38719195 0.18276109 0.09880407 0.002139781 -0.28872064 -0.20734723 -0.007943099
-0.10267041 0.30739567 0.08435498 0.1262854 -0.03889217 0.016403906 -0.04314302 0.16612701
-0.103969455 -0.020751994 -0.084950775 -0.26430795 -0.3395398 0.013554042 -0.1397963 -0.018574474
0.089770846 0.26318488 0.16097124 -0.052081905 -0.05431565 -0.044091247 0.24042243 -0.3341526
-0.008871463 -0.07850198 0.07148276 0.048818048 -0.11838924 0.21348196 0.011258009 -0.015572066
0.16232693 0.014724202 0.15405948 -0.16284902 0.20298538 0.16838843 0.22975685 0.24550354
0.28745544 -0.006105413 -0.4092856 -0.06315249 0.21896589 0.4166114 -0.06946417 -0.12764436
-0.1471716 -0.21485536 -0.09386037 0.14579791 -0.059250005 0.041841056 0.42266476 0.003554413
-0.032869674 0.46615484 -0.07452368 0.11927831 0.031283785 -0.4056506 0.059079878 0.07433797
-0.13341005 0.42461288 0.0070988582 0.17589937 0.061153263 0.07553028 -0.060981773 0.047570277
-0.036826476 -0.03486155 0.09361989 -0.32057053 -0.44926348 -0.0042144028 -0.15511629 -0.052858036
0.009764631 0.29700518 0.1939695 0.06780258 -0.07059045 0.06887944 0.31034315 -0.32356825
0.02891907 0.09670051 0.15939818 0.099395186 0.042943843 0.19962108 -0.08118049 -0.1084347
0.22996227 -0.061093874 0.2155695 -0.10709111 0.02391606 0.07222172 0.41810715 0.057018425
-0.12497853 -0.019739099 0.16798763 0.08177982 -0.051975243 -0.042563524 0.2685127 0.15195702
0.20643237 -0.110854514 0.19016185 0.05219172 0.17575255 -0.11662974 -0.13869892 0.26460403
-0.069449864 -0.16869572 0.067725405 0.22488172 0.070159644 0.13660568 -0.24766837 0.010730937
0.17324258 -0.19602647 0.24316657 0.020948924 0.034584027 0.018504146 -0.22535211 -0.31581673
0.27002156 0.17380847 -0.2832126 0.2509864 0.02665358 0.029929318 0.17388058 0.14571378
-0.099206075 -0.1341055 -0.26357785 -0.33929244 0.3360892 -0.110759154 -0.14451326 0.008781387
0.2873913 0.13656974 0.07418963 -0.309205 -0.2279469 -0.21747896 0.25070128 0.2631294
-0.041559298 -0.29456684 -0.17251264 0.061768424 0.13747378 -0.18318753 -0.11791854 0.09118783

actor.4.bias f4 [9]
00000000: 4dfa edbd ff48 883d c300 5bbd e4f7 8b3e
00000010: 0d20 943e d8e4 f03d e496 913e 40e5 6b3d
00000020: 9922 35be
-0.11620007 0.06654548 -0.053467523 0.27337563 0.28930703 0.117623985 0.28435433 0.057591677
-0.17688979

critic.0.weight f4 [64, 7]
00000000: d194 b3bd 8fd6 933e d151 12be 7268 d9bd
00000010: 205e e5be 1282 de3f 8fdd 0f3e 8538 6bbe
00000020: 63bb 143e 0757 57be a3a0 6cbe 3c92 b1be
00000030: a3af 9dbe e694 fc3d 1533 e9bd 6478 4f3e
00000040: 7e49 1cbe eab9 ba3d 681c 16be d700 54c0
00000050: 89a8 5b3e 5580 44be bdf0 bc3d 5196 36bd
00000060: 84ae b03c 6568 593e 9225 27c0 d366 6abd
00000070: 3233 ab3e dc66 afbe f0c9 2bbd 6cb1 bcbd
00000080: aec6 de3d 3087 ce3f 8a25 9b3e b066 02bf
00000090: dfd8 043f e666 98bc 7e09 f7be 03d1 4bbe
000000a0: 9fe9 7b3e 0d52 62be ebb3 babe b48b 0b3d
000000b0: 1903 683e f71a 843e 2fbc 38bf 4d7b c7be
000000c0: df4f 21bd 4e14 3fbe 3161 383e 9fbe f23b
000000d0: 7a44 22be 7034 aa3e 6fb2 09c0 b51f 54be
000000e0: 6a26 61be d527 5cbe 93a5 07bb 4bb9 c63e
000000f0: baa4 e83d de6c 1840 65fb 3c3e 2b33 a93e
00000100: 9c4a 4b3e 5603 a1bd 8765 063e 846b 6c3e
00000110: 957b db3f 1bc9 48be 2f83 30be 706a eb3e
00000120: 7f59 80bd fdb4 60bf ce94 e43e e75e 463f
00000130: 61d7 8f3d 1482 8b3d 039e 87be 87f9 45be
00000140: 871d 1f3d 7ce0 9abe 0bf5 26c0 6236 16be
00000150: adc3 b03b 5ad5 b2be 8c2f be3d 7ed0 5f3f
00000160: bb58 cbbe ed80 dcbf 668b 593e 5c62 97be
00000170: 31e0 cebb caf8 533e 380e 1fbc fa3b 2ebd
00000180: 7855 ecbf 1387 9a3e a116 67be 72ee b7bc
00000190: faf1 293e fd52 8d3e 3919 d7bd f449 25c0
000001a0: 2249 8cbc 7ad8 adbe 3a56 c53e edef 20be
000001b0: e1eb 6a3d 72cd 94be 421d 03bf 358a 4b3e
000001c0: c181 afbe c77f 573e 4888 af3d 3d41 67be
000001d0: 10d3 4abe ba7c f6bf d29d a9be 3630 b73e
000001e0: 930d 0bbe 969b 88bd c909 333d f772 acbe
000001f0: 4e30 bf3f a9e4 21b9 e1fc 363e 67d6 de3d
00000200: b1f5 813d 614b 1cbe 6662 69bd dbf2 1940
00000210: 837e 793e 9512 56be 214e 033f c09a e3bd
00000220: 5fd0 e9be 41e9 6b3d 9f33 1ebe 97be ee3d
00000230: 09d2 77bc 41d1 c53e 5983 12be e444 8abe
00000240: e5bf 5fbd e090 00c0 f604 42bd 3900 05be
00000250: 59de 303e 8055 663e 3299 463d 4e8f aebc
00000260: 0076 5c40 f3ea 28bd fb05 023b 7652 283e
00000270: aa2c fd3d 8c67 b7bd 8a57 efbd 246e cd3f
00000280: ba42 f9bd 2557 48be e0f8 87be e527 ae3e
00000290: 0e87 833d 20c1 08be ac8d 3740 4956 6f3d
000002a0: f798 d33b 5404 3b3e 30ee 9ebe e882 da3d
000002b0: af17 7e3d 6595 1e40 3942 0bbd ddcd 58be
000002c0: 2059 11be 0dce b7be d789 20be 90ad 7abe
000002d0: d495 bfbf d578 b13e 0f53 3bbe c4d0 e23e
000002e0: a843 87be c3e5 50be 8109 fb3d f999 0cbf
000002f0: 61c6 383e bb51 063f ba2d cabe ec65 a2be
00000300: 13d4 113f 1877 af3e c695 3bbf 6985 313d
00000310: 3c69 b4be d2c3 3b3e e713 5f3e 8e6c 06bd
00000320: a705 d43d ce1a 3840 09ff 6bbe 2dd9 91be
00000330: 5a4a aabe 5e53 84be 21a5 82be fb93 e8bd
00000340: 3fbd b9bf 63b3 773e 00fb 873e cdac 08be
00000350: 1878 04be 7905 b0bd 6704 943e 462e 27c0
00000360: d16b 5abe a531 523e 1748 813d 10c5 a6be
00000370: ea1a 65be 8690 303f f6f2 afbf fae2 f7bd
00000380: 3ac1 033e 5e96 1bbe 1322 ff3d 9390 c4bd
00000390: 4eb6 8c3e 5cc7 21c0 a262 1abc 5c83 62be
000003a0: bedc 5fbd 6949 f8bd 2a27 ca3e e492 753d
000003b0: d067 ef3f a107 1d3e 69fe bd3b 06c4 383e
000003c0: f9a8 23be 5749 f2bd 2171 9ebd db32 c43f
000003d0: fb47 f4bd 72bf d33e 5a26 873f 3095 f3be
000003e0: 0322 523f 32b2 86bf 2cc6 1ebf 85b9 073f
000003f0: 4250 84bc db9e e23e ea85 14be f0f3 8cbe
-0.08768619 0.28874633 -0.14289023 -0.106156245 -0.44798374 1.7383444 0.14049362 -0.22970779
0.14524607 -0.21029292 -0.23108153 -0.3468188 -0.30798063 0.123330876 -0.11386696 0.20260769
-0.1526241 0.091174915 -0.14659274 -3.3125513 0.2145101 -0.1918958 0.09225605 -0.044576947
0.02156759 0.2123123 -2.611668 -0.057226967 0.33437496 -0.34258163 -0.04194063 -0.09213528
0.10877739 1.6135006 0.30302078 -0.5093794 0.5189342 -0.018603753 -0.4824943 -0.1990395
0.24600838 -0.22101612 -0.36465392 0.03406878 0.22657432 0.25801823 -0.72162145 -0.3896126
-0.03938281 -0.1866009 0.18005826 0.0074079777 -0.15846434 0.33243132 -2.1515157 -0.2071522
-0.2198731 -0.2149957 -0.0020698055 0.38813242 0.11359544 2.3816447 0.18455274 0.3304685
0.1985268 -0.078619644 0.13124667 0.23087889 1.7147089 -0.19607966 -0.17237543 0.45979643
-0.0626707 -0.87776166 0.4464478 0.7748856 0.07023502 0.0681192 -0.2648774 -0.19333468
0.03884652 -0.30249393 -2.6087062 -0.14669183 0.00539442 -0.349284 0.092864126 0.8742751
-0.39716133 -1.7226845 0.21244583 -0.2956723 -0.006313347 0.20700374 -0.00970798 -0.042537667
-1.8463583 0.30181178 -0.22567226 -0.022452567 0.16596213 0.27602378 -0.10502858 -2.5826387
-0.017124716 -0.3395422 0.38542348 -0.15716524 0.057353858 -0.29062992 -0.5121652 0.1987694
-0.34278682 0.21044837 0.085709155 -0.2258348 -0.19807076 -1.9256814 -0.3312822 0.3577897
-0.13579397 -0.06670301 0.043710504 -0.3368146 1.4936616 -0.00015439339 0.17869903 0.10880738
0.0634569 -0.1526313 -0.056978606 2.4054477 0.24364667 -0.20905526 0.5129109 -0.111135006
-0.45666787 0.057595495 -0.1544938 0.11657446 -0.01512576 0.3863621 -0.14307918 -0.27005684
-0.054626364 -2.0088425 -0.047368012 -0.12988366 0.17272319 0.22493553 0.048485942 -0.021308567
3.4447021 -0.04123969 0.001983999 0.16437706 0.123620346 -0.08955297 -0.116866186 1.6049237
-0.1217093 -0.19564493 -0.26557064 0.34014812 0.06422244 -0.13354921 2.868022 0.058431897
0.006457444 0.1826337 -0.31041098 0.106695 0.062034305 2.4778683 -0.0339987 -0.2117228
-0.14194155 -0.35899392 -0.15677582 -0.24480271 -1.4967599 0.346625 -0.18293403 0.442999
-0.26418805 -0.20400147 0.12257672 -0.54922444 0.18044426 0.5246846 -0.39488012 -0.31718385
0.56964225 0.3427055 -0.7327541 0.04334012 -0.35236537 0.18336418 0.21784936 -0.03281837
0.103526406 2.876636 -0.23046507 -0.28486004 -0.3325985 -0.25844854 -0.25516608 -0.1135635
-1.4510878 0.24189524 0.26558685 -0.13347168 -0.12936437 -0.08594794 0.2890961 -2.6121993
-0.21330191 0.2052675 0.06312578 -0.32572222 -0.22373548 0.68970525 -1.3746021 -0.12103839
0.12866679 -0.1519408 0.12457671 -0.09597888 0.27482837 -2.527793 -0.00942293 -0.22120422
-0.054653876 -0.12123377 0.39483005 0.05995454 1.8703556 0.15334941 0.0057981503 0.18043527
-0.15982427 -0.11830395 -0.077364214 1.532802 -0.11927792 0.41357 1.0558579 -0.4757476
0.8208315 -1.0523131 -0.62021136 0.53017455 -0.016151551 0.44261822 -0.14504209 -0.2752986

critic.0.bias f4 [64]
00000000: dca6 90be 3ba5 203e 8071 da3d 8755 8c3e
00000010: add0 15be 9d54 083e cd95 bdbb 8194 c33e
00000020: 1fa6 89be d51d 41be 978e 66be 8d92 d33e
00000030: 259e 703e db0a d2bc 24fb 8c3e 0033 74bd
00000040: 9cc3 c93e 9fc8 4bbe b4f0 b7be e84f 0bbd
00000050: be03 243e 1e67 bbbe a600 74be 9fdf 30be
00000060: 7c8c babd 7b23 dcbd 4b28 69bc d980 573e
00000070: d2f4 96bd 9def 843e 4bb6 893e 9d36 be3e
00000080: b8b5 7b3e 122d 44be 3255 ee3c 0b0b 863d
00000090: 3429 0abd 05f4 f1be 3f21 463e 3eb3 b2bd
000000a0: 3c97 cd3e e032 2fbe 278e e93d f98b cbbd
000000b0: db27 bbbc 4063 56bb 873c 413e 327b b73d
000000c0: 0c55 eabd 9054 5fbe 9d42 16be 18ac fcbd
000000d0: 67f6 a03e 85ee 4e3e d661 d3bd 1ffe 2a3d
000000e0: fe3b 8b3e 76c2 c3bd 0f04 8f3d 9a0c 28bd
000000f0: 2b2e 89be 872d eb3b 8d6d 58be 242b 46bc
-0.28252304 0.1568803 0.1066618 0.27409002 -0.14630385 0.13313527 -0.00578568 0.38199237
-0.26884553 -0.18859036 -0.22515331 0.41322747 0.23497827 -0.025639942 0.27535355 -0.05961895
0.3940705 -0.1990075 -0.3592583 -0.03401175 0.16017053 -0.3660211 -0.23828372 -0.17272805
-0.091088265 -0.10748955 -0.014230798 0.21045245 -0.073709145 0.2596406 0.2689689 0.37151042
0.24581039 -0.19157818 0.029093359 0.06545075 -0.0337307 -0.47256485 0.1934862 -0.08725594
0.40154445 -0.17109251 0.114040665 -0.09938807 -0.022846153 -0.0032712966 0.18870746 0.089590445
-0.11442003 -0.21809602 -0.14673848 -0.12337512 0.3143799 0.20208175 -0.10321395 0.041746255
0.27194208 -0.09558575 0.06983196 -0.041027643 -0.26793036 0.007177058 -0.2113554 -0.012095246

critic.2.weight f4 [64, 64]
00000000: e36a e8be 535a 85be fdd6 fc3d 51a6 0ebd
00000010: 75b2 003f a89e 9abf 5cc5 7ebd 332d 8dbd
00000020: 0772 b73d 387a 053e 7470 86bf b090 153f
00000030: d32d 333f d9a7 b1be b1cf 873e 41fd f3be
00000040: 7f8e 25bf 980d 283f daee 9cbe ed0e 83bf
00000050: 4fc8 f5be 7f3f 06bf a58c 94be af11 61be
00000060: 1edf 8cbd 0966 edbd a0d4 2bbf 9d0d 833f
00000070: ae0f 6bbf f3d1 9ebc 2fe9 e33e 8b06 a03d
00000080: 0cce 413e d196 3c3c 756f 85be e971 f6bd
00000090: fe5e 1ebf 1c0f f83e 0356 ea3e 7e43 443f
000000a0: aa0b b33e 4b80 e23e 29c7 e93e cf71 25bf
000000b0: 35c2 103f 9828 933e 5b65 bdbd 9cad 613f
000000c0: 9483 3abf cae4 ce3e 80d2 13be 756d 55be
000000d0: c5ec c2be 76c1 0c3f 5771 c33d 9034 63bf
000000e0: 24c1 263f bffd a8bd 7625 2bbe 0176 0e3f
000000f0: 6c20 bf3c 68b7 03be 981d 58be 6c73 28bf
00000100: 4ff6 153c f2a0 5d3d 3484 1bbd b19c a33c
00000110: d4f7 003e 157a 3c3d 8a85 cd3b 224c df3b
00000120: a753 cc3d 478d 0dbd 3647 e83d 5a32 0e3d
00000130: 4297 c1bd a51c fdbd 67cc cf3d 34b0 03be
00000140: fe64 e33b 7454 1d39 8a48 743c f1aa c1bd
00000150: 246f 073e 859a ab3d 38f9 803c adee e8bd
00000160: 4f1e e23c 85fd 81ba cc8e 763d 63ba e93d
00000170: b08f 683c e8a8 90bd a434 6c3d 16ee 2b3c
00000180: 29f9 f53d e7d9 b5bd ffb7 3abd 86e6 4cbc
00000190: 08cd b83d 5943 64bd b794 b03d 678f f8bd
000001a0: 89f6 7dbc c732 2cbd 0f44 adbd 0ae8 05bd
000001b0: c65f cc3d 393c 01be 1a33 dc3d 3348 903d
000001c0: 5255 e93d 6e4a 9c3d cc4c 95bc f1db aabd
000001d0: 0d7e 3a3c ace2 3c3d b417 a4bc b0f6 f23c
000001e0: b4e8 8c3c 04f2 5dbc 2d1f 1f3d 8806 723d
000001f0: 2543 b6bd 3b08 bf3d d357 203a f5bb d03d
00000200: 0402 f33d 7fd1 ab3d 3dec 193b 870d c5bd
00000210: 0b3b 14bc daa0 ed3d f0f1 25bd 8d30 1f3d
00000220: c15b 26bd ea4b 6fbd 76e6 f1bd 2678 5abd
00000230: 4eac a23d 4e6f 7dbd ce12 a83d 22ed 9ebb
00000240: 79ed 8f3d f696 e23c bd68 c53d 5b08 71bc
00000250: b9d1 603d b22b 02be 5a00 2c3d 4641 433d
00000260: 9821 93bc 835e 4dbd 4cce aebd 4f27 e53c
00000270: ba0e 983d d2d8 b6bd 701d 803d fe06 a03d
00000280: 4c18 18bb 6da5 b7bd 664c aabd 5fa9 e2bd
00000290: 1ec1 4a3c 6d36 babd db57 c5bd f413 0fbd
000002a0: 11f3 c0bd 34e1 ca3d 0c31 0fbd 7c95 293d
000002b0: e9bb eb3d 7772 12bd a71f 64bc 5c47 1a3b
000002c0: e8b7 a2bd 4c26 a1bd 942c 8ebb 3938 fabc
000002d0: 0b9d 3dbd e5ee c53d c115 8b3d 765c 683d
000002e0: c630 45bd 1038 3bbd 85e2 c6bd 0ea7 e6bd
000002f0: 31e3 8cbd a070 3cbd 9674 5ebb 10dc aebd
00000300: 11d7 93ba 36b1 ec3d 77ff 903c c869 3e3c
00000310: ceec 833b 9255 2fbb 35b2 b83d 0d40 0ebd
00000320: 6293 34bd 524f 1f3c b476 1dbd d350 d9bd
00000330: e1fa e7bd bd4f a53d 7c68 9dbc 4002 873d
00000340: dafa 043b a209 06be 4d69 e4bd 7d38 823d
00000350: cb9a fd3d 0417 67bb 3b4c f83c faab 5fbd
00000360: 031a 1fbd c028 97bd 156e a7bd 3c8a 0d3e
00000370: dd4a 27bd 986c 66bd 6faa b43d 90d8 703c
00000380: 7a38 643d e954 b23d aa73 1ebe 10f9 04be
00000390: 2b16 e4bd 2f6b ce3d a4ea c93d 6a62 f33b
000003a0: ef33 b8bd b3e8 1bbe 2ed2 db3d c6a0 a7bd
000003b0: a718 f4bd e935 9fbd 97a0 103e 6134 d03c
000003c0: 336c 1cbd 3b4a 54bd 3070 233d 46de c23d
000003d0: 83a3 653d a70a 9f3d 593e 87bd b2c2 0ebd
000003e0: 5549 a6bd 85ff d5bd ddb3 a3bc 9008 883d
000003f0: 0809 973c d210 353d c750 883c 52e3 0cbd
-0.45394048 -0.26045474 0.12345693 -0.03482658 0.50272304 -1.2079668 -0.062199935 -0.06893387
0.08957296 0.13034904 -1.0503068 0.584239 0.699918 -0.3469837 0.26525643 -0.47654155
-0.64670557 0.6564574 -0.3065098 -1.023893 -0.48004386 -0.5244064 -0.29013553 -0.21979402
-0.06878494 -0.11591727 -0.67121315 1.023853 -0.918208 -0.019387221 0.44513842 0.07813748
0.18926257 0.011510567 -0.26061597 -0.120334454 -0.61863697 0.48449028 0.45768747 0.76665485
0.34969836 0.44238505 0.4565976 -0.64626783 0.56546336 0.28741908 -0.09247848 0.8815553
-0.7285702 0.40408927 -0.14435768 -0.20842536 -0.38071266 0.549827 0.09543102 -0.8875208
0.6513846 -0.08251523 -0.16713509 0.5564881 0.02333089 -0.12862933 -0.21105039 -0.6580112
0.009152963 0.054108568 -0.037967876 0.019972177 0.12594539 0.046014864 0.0062720226 0.0068144957
0.09976893 -0.03455856 0.113417074 0.034715988 -0.09452678 -0.12358979 0.101464085 -0.12860185
0.0069395294 0.00015004148 0.014909873 -0.094564326 0.1322599 0.08379082 0.015743837 -0.11373649
0.027602343 -0.0009917474 0.060194775 0.114125036 0.014194414 -0.07063466 0.05766739 0.010493776
0.12010414 -0.08879452 -0.04558563 -0.012506133 0.090234816 -0.05572829 0.08622115 -0.12136727
-0.015500673 -0.042040613 -0.08460247 -0.032691993 0.09979205 -0.1262063 0.10751934 0.07045021
0.11393227 0.07631384 -0.018225096 -0.08342732 0.011382592 0.04611461 -0.020030834 0.029658645
0.017200805 -0.013546471 0.03884809 0.05908826 -0.088995256 0.09327742 0.00061166025 0.101921
0.11865619 0.083895676 0.0023486756 -0.09621721 -0.00904728 0.116029456 -0.040513933 0.03886466
-0.040614847 -0.058422007 -0.11811535 -0.05333724 0.07943021 -0.061873727 0.08206712 -0.004850046
0.07027716 0.027659874 0.09639118 -0.014711465 0.054887507 -0.12711981 0.041992523 0.04766967
-0.017960355 -0.05013896 -0.08535442 0.027972845 0.07424684 -0.08928074 0.06255615 0.07813834
-0.0023207841 -0.08967099 -0.08315353 -0.11067461 0.012375144 -0.09092412 -0.09635898 -0.03493114
-0.09421361 0.09906235 -0.034958884 0.041402325 0.115104504 -0.035753693 -0.013923562 0.0023541069
-0.079452336 -0.07868633 -0.00433881 -0.030544387 -0.046292346 0.09664706 0.067912586 0.056728803
-0.048142217 -0.045707762 -0.09711174 -0.11262332 -0.06879271 -0.046005845 -0.0033944002 -0.08538067
-0.0011279305 0.11557238 0.01769994 0.0116219 0.004026032 -0.0026753885 0.09018365 -0.034729052
-0.044085868 0.009723501 -0.038443282 -0.10611119 -0.11327148 0.080718495 -0.019214861 0.06592226
0.002029112 -0.13089612 -0.11152897 0.063584305 0.1238304 -0.003526152 0.030309787 -0.05460737
-0.038843166 -0.07380819 -0.08175293 0.13822263 -0.04084288 -0.056255907 0.0882157 0.01470007
0.055717923 0.087076016 -0.1547381 -0.12985635 -0.11137041 0.100790374 0.09859207 0.0074275034
-0.089942805 -0.15225486 0.10733448 -0.08184962 -0.119187646 -0.077739544 0.1412376 0.025415601
-0.038189124 -0.051828604 0.039901912 0.095150515 0.05606414 0.07765704 -0.06603689 -0.034853645
-0.08119456 -0.10449127 -0.019983226 0.06642258 0.018436924 0.044205494 0.01664008 -0.034396477

critic.2.bias f4 [64]
00000000: 74e9 bb3d ef83 d0bc 64c9 233d d22d f1bc
00000010: 9f7a ad3e a56b 083e ff45 18be d6d1 a13c
00000020: d4c9 943a f0ff 36bc 7a7d 9c3d 5d61 d33c
00000030: 709b 903d d042 9f3d 1ea0 0dbe 8137 4abe
00000040: 3785 9e3a a796 6fba 019d 53bc 30f9 943d
00000050: c512 a33e 767b 92bd 3a05 ce3e 47d7 27bc
00000060: 94ea 053e 707c aebd b56a ddbc eed2 8bbd
00000070: 0812 5ebb 55a4 af3d 4014 933e 0713 0cbd
00000080: 9b9d 53bc b73c b13e abad 033d 639e bf3d
00000090: 68cc 59bc 366f 79be 8bba 34bd b211 b5bd
000000a0: 2aa7 94bd b08f 8f3d 33c6 ebbd 313f 6a3d
000000b0: 810f c4bd 2659 053c f4b4 403d a79b 89bd
000000c0: f21c db3d 1bbc 203d e810 963d fcba cb3d
000000d0: 2a91 b8bd 61d2 01bd 2ede 793c 1032 d83c
000000e0: 0c7f 06bd 1e62 5bbc dc7e ddbc 69f5 c0bd
000000f0: d3b9 b93c 39b0 fbbd b790 d73c 7980 95be
0.09175387 -0.025453536 0.039986983 -0.029440794 0.33882615 0.13322313 -0.14870451 0.019753378
0.0011351653 -0.011169419 0.0764112 0.025803262 0.07060897 0.07776415 -0.13830611 -0.19747736
0.0012094144 -0.00091395754 -0.012915851 0.07274091 0.31850258 -0.071524546 0.40238363 -0.010244197
0.13077766 -0.08519828 -0.027028421 -0.06827341 -0.003388526 0.08576266 0.28726387 -0.034197833
-0.012915994 0.34616634 0.032148045 0.09356382 -0.013293363 -0.2435883 -0.044123214 -0.08841266
-0.072584465 0.07009828 -0.11512413 0.05718917 -0.0957327 0.00813893 0.04704757 -0.067191415
0.1069888 0.03924189 0.07327443 0.09947774 -0.09012063 -0.031694774 0.015250726 0.02639106
-0.032836005 -0.013390092 -0.02703803 -0.09421808 0.022671616 -0.12289471 0.026314123 -0.2919958

critic.4.weight f4 [1, 64]
00000000: 87e2 76be a312 113c caf5 2f3b a587 783b
00000010: 1dd5 0ebc 3738 62bb 54dc 743e e6f6 13bb
00000020: 52c0 963b 3370 41bb fb35 5a3b f168 d0ba
00000030: e2a5 693b b208 92ba b8ce 05bc 39c2 3abe
00000040: 2969 fdbb 5c7a e7b9 a9ad 97bb eaad ecba
00000050: 4b40 abbd d661 323b e35b edbd daab aa3a
00000060: d0c1 3f3a a6e5 2bba f8e8 933b 6ae1 06bb
00000070: 3987 77bb ae37 06bb 4882 1cbe 5e02 3c3b
00000080: e8fd 653b 3edb f7bd 05c9 14bb a521 a0bd
00000090: 6b33 a7bb aa84 49be 71f5 d23a e53b ac3a
000000a0: bb49 55ba 1282 d33b 2051 93be 45a1 a33b
000000b0: e10b 86bb 9b6c 34bb 0596 89bb 572a 3fbe
000000c0: c0ac aabd d412 fa3e cb57 af39 d578 bbba
000000d0: 0a9c 143c 13af eebd 14d4 a03e bf5d 0e3b
000000e0: e6aa 923a 08e0 253b 0ded bebb f01a 65bb
000000f0: dcd8 a1b7 6917 a03d 83d6 8839 a3a9 983d
-0.24109851 0.008854541 0.0026849383 0.0037922647 -0.008717802 -0.003451837 0.23912174 -0.0022577583
0.004600563 -0.002951634 0.0033296335 -0.0015900416 0.0035651852 -0.0011141507 -0.008166961 -0.18238153
-0.0077334833 -0.00044150918 -0.004628856 -0.0018057202 -0.08361872 0.002721896 -0.115897916 0.0013021186
0.0007314952 -0.00065573526 0.004513856 -0.0020581135 -0.0037769808 -0.0020479965 -0.15284073 0.0028687934
0.0035093967 -0.12102364 -0.0022702825 -0.07818917 -0.005102565 -0.19679514 0.0016094876 0.0013140409
-0.0008136292 0.0064547146 -0.2877283 0.00499359 -0.0040907715 -0.0027530554 -0.004198792 -0.18668495
-0.08333731 0.4884249 0.00033444012 -0.0014302979 0.009070406 -0.116544865 0.31411803 0.0021723357
0.0011189848 0.0025310535 -0.0058265985 -0.0034958683 -1.9293679e-05 0.07816965 0.00026099765 0.07454231
