trained/ComplexPong/PPO_mcts_sparse_1728277660.3243566.pth (torch, 44898 bytes, 11 tensors)

actor.0.weight f4 [64, 7]
0.10604741 0.07240476 -0.2862539 0.09772967 -0.3704393 -0.54274744 -0.28918958 -0.055209722
0.17812824 -0.43270907 0.22502704 -0.0928605 1.1632307 0.07561999 -0.32977918 0.29767734
0.006762359 -0.26940873 -0.31768999 -1.5851992 0.0056808107 0.11064335 -0.5058876 0.6520979
-0.26773137 0.7233006 -0.6265667 0.15307975 -0.31952092 0.36415604 0.058604397 -0.4417691
-0.3016394 -1.1950015 0.03354546 0.3623076 -0.22464618 -0.3537586 -0.1949352 -0.5806551
-0.21891116 0.10525983 -0.36461824 -0.22499709 0.45729592 0.11124701 0.56373584 -0.8056222
-0.19785777 -0.17207488 0.1789719 -0.37033302 -0.23242354 -0.54030895 -0.2858312 0.05611426
-0.06036166 0.3148826 -0.35788122 -0.045391206 0.0052248146 -0.9859412 -0.07374164 0.39467803
0.1609404 -0.5902958 -0.21611549 -0.72269356 0.091742024 0.098940834 0.22897157 0.031209886
-0.6203864 -0.009718714 -0.8208876 0.76856655 0.28353518 -0.12606023 -0.33382782 0.48232877
-0.25713855 0.56357926 -0.7515133 0.06981808 0.06412028 0.24859878 -0.44359505 -0.30782625
-0.70260537 0.02369878 -0.20682745 0.058169387 -0.24889526 0.4966034 0.040446285 0.18090127
-0.23669805 -0.24749444 0.0060892175 -0.5495191 0.60519695 0.11605482 0.61909753 -0.05225757
-0.067538336 0.21474425 0.26329952 -0.025132068 -0.51169294 -0.26706505 -1.0312082 -0.08155632
0.07631444 0.45188445 -0.34808072 0.03709932 -0.21887839 0.53660566 0.15793128 0.036003906
0.31325182 -0.29201332 -0.07086982 -0.5388659 -0.64374346 -0.08052671 -0.12137758 -0.3032197
0.21096766 0.5105801 -0.14822775 1.0284504 0.22312434 0.28680828 -0.68502074 0.44704235
-0.008300156 0.57857585 -0.42220584 -0.08207401 0.09301973 0.12897247 -0.19852091 -0.23097444
-0.28019333 -0.8942949 -0.03275764 -0.046917047 -0.3617232 0.31412956 0.06841079 0.7628555
0.5903052 0.009086994 -0.14776433 0.38231775 -0.4252608 -0.21302663 -0.57438534 -0.3849857
0.14598645 0.28155768 0.19772963 -0.37580788 -0.18732373 -0.14065222 -0.91365904 -0.12037892
-0.38159123 -0.22404534 0.043708295 -0.033227183 0.33878312 -1.2593374 0.16823953 0.14229827
0.3612177 -0.29934195 0.016292552 -0.639908 0.5329436 -0.06852974 0.07318171 -0.058394402
-0.30937555 0.07662533 0.026439926 -0.031549923 -0.17696366 -0.41215065 -0.04190746 0.3332177
-0.5047332 0.6171639 -1.067525 0.13277338 0.26269123 -0.53365415 0.3379936 -0.26475713
0.28109905 -0.86852777 -0.24126038 -0.0070329104 -0.5691896 0.55296504 0.2123896 0.2217848
0.7910808 -0.05907707 0.13062285 -0.009769744 -0.10942211 0.45763752 0.057257283 1.3223217
-0.0913925 -0.29529527 0.083407 0.41498008 0.027314728 0.023111587 0.7206366 0.16703607
0.44244218 0.4855806 -0.33178276 0.019031344 -0.45023897 0.65435797 -0.14849298 0.279197
0.44893923 -0.2788465 -0.53336287 -0.71445876 -0.49809104 0.1893534 0.24905387 0.029212113
-0.16476636 -0.07305958 -0.29919705 0.6159821 0.24252605 0.47872764 -0.4253098 0.28194383
0.07045054 0.34914073 0.24823004 0.042868875 0.34857124 0.5101637 -0.5127456 0.19084783
00000000: 622f d93d f248 943d df8f 92be 7e26 c83d
00000010: 38aa bdbe 7ff1 0abf a810 94be 9723 62bd
00000020: 4067 363e 0b8c ddbe 7d6d 663e a52d bebd
00000030: bee4 943f a7de 9a3d d1d8 a8be 2a69 983e
00000040: c796 dd3b f1ef 89be 43a8 a2be cfe7 cabf
00000050: 1826 ba3b fb98 e23d da81 01bf e3ef 263f
00000060: 1614 89be 3a2a 393f ad66 20bf f0c0 1c3e
00000070: 3f98 a3be a972 ba3e 2a0b 703d 8f2f e2be
00000080: 7b70 9abe cff5 98bf f766 093d 6280 b93e
00000090: a609 66be d91f b5be 189d 47be d0a5 14bf
000000a0: 3f2a 60be 7792 d73d 3eaf babe a365 66be
000000b0: b122 ea3e 79d5 e33d fe50 103f 423d 4ebf
000000c0: 3a9b 4abe 6634 30be 6944 373e 4a9c bdbe
000000d0: 7000 6ebe b051 0abf 7858 92be 11d8 653d
000000e0: ca3d 77bd 4b38 a13e 353c b7be 21ec 39bd
000000f0: ec34 ab3b a466 7cbf db05 97bd 3d13 ca3e
00000100: 8fcd 243e a01d 17bf 614d 5dbe 7202 39bf
00000110: 3ee3 bb3d 7ea1 ca3d 8677 6a3e e0ab ff3c
00000120: a5d1 1ebf 3e3b 1fbc b125 52bf c7c0 443f
00000130: 862b 913e ef15 01be 7beb aabe ccf3 f63e
00000140: aaa7 83be bb46 103f 2d63 40bf c8fc 8e3d
00000150: 7e51 833d ae90 7e3e e41e e3be 679b 9dbe
00000160: f2dd 33bf f223 c23c 93ca 53be 0643 6e3d
00000170: 66de 7ebe cd42 fe3e 01ab 253d 2f3e 393e
00000180: f960 72be 2f6f 7dbe 0f88 c73b 49ad 0cbf
00000190: 30ee 1a3f 26ae ed3d 2d7d 1e3f 090c 56bd
000001a0: 8a51 8abd ebe5 5b3e 32cf 863e c4e1 cdbc
000001b0: 4ffe 02bf c0bc 88be a1fe 83bf 0007 a7bd
000001c0: bf4a 9c3d 665d e73e a337 b2be 75f5 173d
000001d0: a821 60be fd5e 093f bdb8 213e d578 133d
000001e0: 8b62 a03e c582 95be 3224 91bd 1ef3 09bf
000001f0: 5fcc 24bf 30eb a4bd cf94 f8bd 9d3f 9bbe
00000200: e807 583e 61b5 023f 04c9 17be 43a4 833f
00000210: b57a 643e 89d8 923e 855d 2fbf bce2 e43e
00000220: 61fd 07bc 8c1d 143f 5d2b d8be 6b16 a8bd
00000230: 2181 be3d 5c11 043e 1149 4bbe 9084 6cbe
00000240: 8075 8fbe 83f0 64bf e02c 06bd 172c 40bd
00000250: c933 b9be 97d5 a03e f51a 8c3d 804a 433f
00000260: 3e1e 173f 9ee1 143c 884f 17be 27bf c33e
00000270: c9bb d9be a723 5abe eb0a 13bf d81c c5be
00000280: 797d 153e 5428 903e a379 4a3e e469 c0be
00000290: cbd1 3fbe 2307 10be 8fe5 69bf 3989 f6bd
000002a0: ed5f c3be 246c 65be 7807 333d 3a19 08bd
000002b0: fb74 ad3e f831 a1bf fc46 2c3e a3b6 113e
000002c0: 87f1 b83e 5943 99be f577 853c 03d1 23bf
000002d0: fe6e 083f 5259 8cbd 4be0 953d f82e 6fbd
000002e0: 7966 9ebe beed 9c3d 8b98 d83c 7e3a 01bd
000002f0: f635 35be 6905 d3be 28a7 2bbd 839b aa3e
00000300: 3236 01bf 74fe 1d3f a9a4 88bf bff5 073e
00000310: 777f 863e 8f9d 08bf 7f0d ad3e 3f8e 87be
00000320: 37ec 8f3e d657 5ebf f60c 77be 5474 e6bb
00000330: 69b6 11bf 1e8f 0d3f a97c 593e 8e1b 633e
00000340: 4584 4a3f ccfa 71bd ffc1 053e 4711 20bc
00000350: b318 e0bd 774f ea3e 9d86 6a3d d641 a93f
00000360: fe2b bbbd f130 97be 4ad1 aa3d 4578 d43e
00000370: 23c3 df3c 8354 bd3c a47b 383f 810b 2b3e
00000380: c887 e23e 059e f83e 6edf a9be 9fe7 9b3c
00000390: b985 e6be 0184 273f 8b0e 18be e9f2 8e3e
000003a0: 5ddb e53e f8c4 8ebe 788a 08bf c5e6 36bf
000003b0: ca05 ffbe dce5 413e fa07 7f3e 3e4e ef3c
000003c0: 83b8 28be 43a0 95bd 5b30 99be 01b1 1d3f
000003d0: c058 783e ca1b f53e 35c2 d9be f15a 903e
000003e0: 5f48 903d 93c2 b23e 0430 7e3e 4697 2f3d
000003f0: ee77 b23e 179a 023f 4c43 03bf 9d6d 433e

actor.0.bias f4 [64]
0.2821851 0.06908565 0.2323721 0.041039344 0.27090502 0.23799884 0.10029371 0.35440457
0.20004919 0.27240375 0.03420944 0.07545729 0.47244772 -0.08879126 -0.10781706 0.22332193
-0.19980514 0.099948026 -0.45282164 0.17603771 0.14683013 0.023543535 0.30493733 0.16849118
0.26246572 0.040885016 -0.32677898 0.3964106 0.3028918 -0.12192808 -0.2693408 -0.27844605
-0.25949147 0.20884445 -0.158604 -0.2245545 -0.28050283 0.020369805 -0.16790797 0.006361147
0.38397077 0.048018415 0.0029869697 -0.12222973 -0.1826823 -0.076308645 0.45981196 0.010459839
-0.03523223 -0.24171025 -0.32381636 0.17674193 0.23737592 0.13587555 0.37093166 0.33084005
-0.1999636 0.0050059236 0.06154313 -0.024571944 -0.033197775 0.10600063 -0.35734046 0.1703474
00000000: 917a 903e c77c 8d3d f4f2 6d3e df18 283d
00000010: 10b4 8a3e f8b5 733e ca66 cd3d 8474 b53e
00000020: b2d9 4c3e 8178 8b3e 331f 0c3d 5a89 9a3d
00000030: abe4 f13e 31d8 b5bd 31cf dcbd 81ae 643e
00000040: b899 4cbe 8db1 cc3d 3dd8 e7be 3b43 343e
00000050: a35a 163e 5fde c03c bf20 9c3e f488 2c3e
00000060: e861 863e 0c77 273d 934f a7be 55f6 ca3e
00000070: a214 9b3e 6eb5 f9bd 0ae7 89be 7b90 8ebe
00000080: 11dc 84be 52db 553e 1669 22be 9df1 65be
00000090: 119e 8fbe 94de a63c 11f0 2bbe 2b71 d03b
000000a0: d197 c43e f5ae 443d 09c1 433b 9553 fabd
000000b0: 1211 3bbe b547 9cbd 796c eb3e bf5f 2b3c
000000c0: ac4f 10bd e482 77be 42cb a5be d6fb 343e
000000d0: ac12 733e f622 0b3e c1ea bd3e de63 a93e
000000e0: 42c3 4cbe bb08 a43b a614 7c3d 1a4b c9bc
000000f0: 64fa 07bd dc16 d93d 54f5 b6be 8c6f 2e3e

actor.2.weight f4 [64, 64]
0.11916027 0.2371385 -0.058156647 -0.47756687 -0.00062685175 0.29756126 -0.33060756 0.43483967
0.29847887 0.9371472 0.5847509 -0.42824778 0.71981657 -0.22689147 -0.99205905 0.021410616
0.37409544 0.32580248 -0.3535732 -0.22350177 0.17331277 -0.17953283 0.50877607 0.34443384
0.0061561484 0.3122809 -0.06772338 -0.23551993 -0.17405207 -0.58862793 0.07969783 -0.12883814
0.3300779 0.23386613 0.048379384 -0.113706715 0.46476516 0.54991037 -0.23319265 0.24390376
-0.08825135 0.009125765 -0.002759882 0.046302512 0.022978567 -0.14934659 0.6568415 0.31455812
-0.0754061 0.1266385 -0.0466373 -0.2391795 -0.2806713 -0.26504892 0.39427868 0.1877657
-0.5024037 -0.52848333 -0.25534716 -0.108226 -0.07005355 -0.65167826 -0.3856239 -0.23512681
-0.1449329 0.0018759337 -0.15482016 -0.72772616 -0.12355879 -0.0015694986 -0.0093399715 -0.09702863
-0.1913814 -0.151625 0.19463445 -0.21080129 -0.06515358 -0.030576468 -0.2547236 -0.16790193
0.1482657 0.08530339 0.34888068 -0.4005066 -0.15535533 -0.20322023 -0.01938828 -0.14536801
-0.06470544 0.032154072 0.15195914 -0.4121386 -0.6555431 -0.17133304 0.27422535 0.05720034
0.17472252 -0.0523887 -0.07591109 -0.24149212 0.372131 0.042900313 -0.0062128175 0.5091191
-0.4465888 0.28819355 -0.18248068 0.111546904 0.27490914 0.01768888 0.09999145 -0.0721676
0.19408436 0.098027065 0.1129766 -0.3610148 -0.36925608 -0.06218709 0.088708445 -0.045849063
0.061668653 -0.19819693 -0.120836146 0.1906108 0.07751623 -0.1841518 0.009193379 -0.30947226
-0.17936133 -0.30658284 -0.30008793 0.57249975 -0.19129759 -0.32207283 0.31596303 -0.44685128
-0.2736724 -0.86425716 -0.4745909 0.30798882 -0.83992475 0.26438352 0.85640466 -0.1837965
-0.41962144 -0.39335752 0.44584048 0.09330542 -0.17367902 0.26182207 -0.6786677 -0.4053523
0.1866179 -0.26033387 0.1063992 0.010118228 0.20956565 0.5812417 0.0029510062 0.33698633
-0.2932303 -0.42247593 -0.08911904 0.19400991 -0.4009896 -0.28992814 0.23612753 -0.32090715
0.053975753 -0.19589698 0.031539015 -0.08567889 -0.006612645 -0.014756586 -0.67403483 -0.12095618
0.19033058 -0.070424154 -0.13315302 0.36866388 0.16418032 0.15005183 -0.5118534 -0.13691172
0.6803561 0.30020687 0.30036733 -0.07498106 0.07594019 0.47302073 0.4233465 -0.065087505
0.045976266 0.03778524 0.39770198 -0.0011613435 0.47372922 0.22171143 -0.032617122 0.44156438
0.18116875 0.48285735 0.18002427 0.08290418 0.66832083 -0.16188984 -0.26718363 0.12799124
-0.24387826 0.095109865 -0.5946331 0.06789412 0.20876575 -0.13852856 0.28150198 0.21992256
0.14981218 -0.20665282 -0.08042155 0.4432978 0.3358432 -0.2694392 -0.47500786 -0.12154882
-0.20950325 0.2904139 -0.041240387 -0.017677674 -0.06484478 0.14228362 -0.16865557 -0.13848898
0.5120862 -0.09611653 0.14797598 0.086518705 -0.061214507 -0.013171815 0.4341241 0.11328276
-0.015063883 -0.08419243 -0.2310043 0.2650626 0.1803166 -0.023671066 0.4882206 0.11354211
-0.6212102 0.1541129 0.124879174 -0.17122458 0.07723183 -0.029999327 -0.22114494 0.089041725
00000000: 4d0a f43d 6fd4 723e aa35 6ebd a583 f4be
00000010: 4f53 24ba f359 983e 6545 a9be 4ea3 de3e
00000020: 39d2 983e e1e8 6f3f 3cb2 153f 4b43 dbbe
00000030: e645 383f 3d56 68be 95f7 7dbf 5165 af3c
00000040: 7089 bf3e 95cf a63e 8c07 b5be a6dd 64be
00000050: e778 313e 74d7 37be 263f 023f a259 b03e
00000060: 84b9 c93b 48e3 9f3e 8eb2 8abd 232c 71be
00000070: b53a 32be 52b0 16bf 9e38 a33d 25ee 03be
00000080: f8ff a83e 9a7a 6f3e 7629 463d 11df e8bd
00000090: b3f5 ed3e edc6 0c3f 0eca 6ebe e8c1 793e
000000a0: 20bd b4bd 3c84 153c 23df 34bb b4a7 3d3d
000000b0: 8c3d bc3c 50ee 18be c426 283f c30d a13e
000000c0: 836e 9abd 86ad 013e c106 3fbd 79eb 74be
000000d0: 26b4 8fbe 7eb4 87be e5de c93e a745 403e
000000e0: 879d 00bf af4a 07bf ddbc 82be 98a5 ddbd
000000f0: 3c78 8fbd 63d4 26bf 7f70 c5be 15c5 70be
00000100: 4a69 14be e4e1 f53a 2d89 1ebe 434c 3abf
00000110: 640c fdbd a2b7 cdba ae06 19bc f2b6 c6bd
00000120: 7cf9 43be 9643 1bbe 414e 473e 4bdc 57be
00000130: 3d6f 85bd 807b fabc 226b 82be 7cee 2bbe
00000140: f7d2 173e 8bb3 ae3d 7da0 b23e 330f cdbe
00000150: 7815 1fbe f718 50be 2cd4 9ebc 5adb 14be
00000160: 4984 84bd fdb3 033d 2d9b 1b3e d503 d3be
00000170: acd1 27bf ee71 2fbe 4467 8c3e e74a 6a3d
00000180: 76ea 323e 8995 56bd 4677 9bbd b649 77be
00000190: f487 be3e 3db8 2f3d e494 cbbb a155 023f
000001a0: 4aa7 e4be 1b8e 933e 37dc 3abe b472 e43d
000001b0: e4c0 8c3e 45e8 903c 51c8 cc3d 9bcc 93bd
000001c0: 0dbe 463e 6ac2 c83d 4760 e73d efd6 b8be
000001d0: 220f bdbe e4b7 7ebd c6ac b53d 3acc 3bbd
000001e0: 4598 7c3d 23f4 4abe f178 f7bd 7a2f 433e
000001f0: d4c0 9e3d 4a92 3cbe d49f 163c 2673 9ebe
00000200: 7faa 37be 6df8 9cbe 20a5 99be 588f 123f
00000210: 84e3 43be bbe6 a4be e8c5 a13e b1c9 e4be
00000220: ca1e 8cbe f53f 5dbf 94fd f2be b6b0 9d3e
00000230: 4f05 57bf 475d 873e 563d 5b3f 2635 3cbe
00000240: 9fd8 d6be 2866 c9be 3445 e43e e916 bf3d
00000250: ead8 31be 8b0d 863e 2bbd 2dbf 568a cfbe
00000260: c318 3f3e 7b4a 85be d3e7 d93d edc6 253c
00000270: 6198 563e 42cc 143f ab65 413b 7989 ac3e
00000280: 4822 96be c44e d8be 0b84 b6bd 89aa 463e
00000290: 824e cdbe 7671 94be 6acb 713e f14d a4be
000002a0: ae15 5d3d 3899 48be 0e2f 013d 6a78 afbd
000002b0: e3ae d8bb 9cc5 71bc 8c8d 2cbf e0b7 f7bd
000002c0: 05e6 423e 8a3a 90bd 4459 08be 83c1 bc3e
000002d0: e31e 283e 30a7 193e d308 03bf 9632 0cbe
000002e0: d12b 2e3f b7b4 993e bfc9 993e ac8f 99bd
000002f0: 8886 9b3d c62f f23e dfc0 d83e 994c 85bd
00000300: 9c51 3c3d b2c4 1a3d 989f cb3e 3938 98ba
00000310: a38c f23e 5208 633e 8899 05bd ba14 e23e
00000320: 4d84 393e 1439 f73e 4858 383e abc9 a93d
00000330: 1317 2b3f 73c6 25be 4bcc 88be 2310 033e
00000340: 39bb 79be f6c8 c23d e039 18bf 130c 8b3d
00000350: b0c6 553e 6eda 0dbe 0721 903e 6133 613e
00000360: 5d68 193e cc9c 53be 0eb4 a4bd eef7 e23e
00000370: a4f3 ab3e eff3 89be 3b34 f3be 96ee f8bd
00000380: 0588 56be 21b1 943e aeeb 28bd c5d0 90bc
00000390: 57cd 84bd ccb2 113e 0cb4 2cbe 0ed0 0dbe
000003a0: 1518 033f bed8 c4bd 0487 173e b830 b13d
000003b0: 10bc 7abd 99ce 57bc 8445 de3e cb00 e83d
000003c0: 81ce 76bc 156d acbd 648c 6cbe 49b6 873e
000003d0: eaa4 383e d3e9 c1bc 0df8 f93e c488 e83d
000003e0: a207 1fbf c6cf 1d3e a7c0 ff3d 7f55 2fbe
000003f0: b92b 9e3d 26c1 f5bc d273 62be 825b b63d

actor.2.bias f4 [64]
0.046833947 -0.26116046 -0.26795855 0.21385229 -0.26231295 0.09333545 0.023253422 0.2040397
-0.29137206 0.07193276 0.009741759 -0.40130132 -0.16781342 -0.046219274 0.119001254 0.14987127
-0.03943145 0.23920336 0.009641983 -0.3498092 -0.07916946 0.0073211035 0.45392925 -0.34689516
0.34859785 0.0016524857 -0.047373053 -0.050983477 0.1263162 6.0599e-05 0.28425217 -0.1375875
0.066319525 -0.102165505 0.330109 -0.14708446 -0.093766205 0.32198116 0.0074872016 0.18766432
0.18541448 0.112125434 -0.026438167 -0.25758722 0.01234615 -0.042348493 0.0974852 -0.02155184
-0.24326092 0.16961129 0.19867802 0.111820705 -0.06545423 -0.07417012 0.13074367 -0.026707806
-0.094801225 0.2892003 0.24317619 0.09328134 0.14073794 0.13495746 -0.06689498 -0.0016124721
00000000: f4d4 3f3d d3b6 85be dd31 89be 18fc 5a3e
00000010: e24d 86be a826 bf3d f67d be3c c8ef 503e
00000020: b82e 95be 7c51 933d e69b 1f3c 5e77 cdbe
00000030: 48d7 2bbe 6c50 3dbd eeb6 f33d db77 193e
00000040: df82 21bd baf1 743e 68f9 1d3c 311a b3be
00000050: 9923 a2bd dee5 ef3b 6a69 e83e 3e9c b1be
00000060: 6b7b b23e 3898 d83a 3f0a 42bd 0dd4 50bd
00000070: 0959 013e ae2b 7e38 8089 913e bde3 0cbe
00000080: 88d2 873d 263c d1bd 0c04 a93e 4f9d 16be
00000090: 7f08 c0bd b7da a43e 3357 f53b 132b 403e
000000a0: 4bdd 3d3e 05a2 e53d db94 d8bc 79e2 83be
000000b0: 8247 4a3c 9d75 2dbd 52a6 c73d 7c8d b0bc
000000c0: 6419 79be 95ae 2d3e 4072 4b3e 4102 e53d
000000d0: de0c 86bd 81e6 97bd abe1 053e 54ca dabc
000000e0: 2527 c2bd 1012 943e 2e03 793e 4a0a bf3d
000000f0: 9b1d 103e 4a32 0a3e 3c00 89bd 9659 d3ba

actor.4.weight f4 [9, 64]
0.36658043 0.70316213 -0.34032682 -0.03204764 0.39676327 -0.10178775 -0.25689152 -0.25987396
0.12651712 0.45983088 -0.21705349 -0.23410635 0.05408352 -0.29798102 -0.8224268 -0.47998744
0.3026485 -0.95043 -0.29011932 -0.19542333 0.19203505 0.14133598 0.11958544 0.6279371
0.124447465 -0.13677141 0.13339618 -0.13349669 0.22451812 -0.14606087 -0.2655985 -0.47262675
0.24495913 0.12906988 0.30760843 -0.040501438 0.64334536 -0.042957403 0.17334835 -0.34195924
-0.6570673 -0.42271522 -0.14135765 -0.11981977 0.34499303 -0.50899476 -0.36413023 0.59483075
-0.136685 -0.16614768 0.24465975 -0.87571824 0.8054754 0.09740361 -0.82085025 0.22424051
-0.11978123 -0.6935386 0.27936462 0.44570896 -0.69751096 -0.9433736 -0.5096492 0.45335573
-0.070977904 0.0047466066 0.021132147 0.24472415 -0.18037021 0.048736062 0.357679 -0.1308273
0.0058160904 0.041161437 0.25238657 -0.07375727 -0.2756515 -0.19337529 -0.10887649 0.1802406
-0.10053854 -0.04194445 0.040578395 0.047137413 -0.36721814 0.27587375 0.17730148 -0.14684527
0.20945986 0.17951286 -0.07745178 0.15872474 0.18046547 0.27908343 -0.085705556 0.07577755
0.0038105624 -0.09614872 -0.019356513 0.016587751 0.070733115 0.011087698 -0.3271903 0.08774765
0.16694745 0.3322526 0.16496497 0.057696518 -0.26466712 0.10903958 0.33808002 -0.12169824
-0.3320717 0.064053975 0.04462737 -0.0070158727 -0.09898944 0.08686693 -0.0620383 -0.24983938
-0.32713613 -0.07238005 -0.11360784 0.036515005 0.053748105 -0.075234435 -0.03227154 0.012760718
-0.029476376 -0.07906677 -0.0017650176 0.124976136 0.057552554 -0.07063543 0.37929723 -0.14884017
0.043948647 4.1446416e-05 0.35868657 -0.12155071 -0.27291253 -0.19970201 -0.09502908 0.40477225
-0.15120289 -0.04174349 0.020634888 -0.10025215 -0.25444087 0.33358386 0.096505314 0.07156256
0.19521716 0.21241398 -0.052965276 0.18547001 0.15609911 0.29226893 -0.022608846 0.07909078
-0.03795644 -0.06277625 -0.034028444 0.10914514 0.17903896 -0.101740904 -0.3623332 0.086788476
0.10980723 0.26292494 0.5177687 -0.18410549 -0.081778415 0.040124837 0.2904111 -0.19691189
-0.233216 0.16391136 0.064994305 -0.10006591 0.050305538 0.25258303 0.084784634 -0.3854546
-0.29024258 -0.03970352 -0.11454684 -0.059950035 0.043310914 0.11954526 -0.014511348 -0.17499378
0.05390297 0.014925476 -0.0907651 0.1919159 -0.29143593 0.14713553 -0.11591448 0.32190746
-0.1141581 0.055338107 -0.16750018 -0.30029517 -0.04563609 0.048969477 0.1698404 0.06173587
-0.08670004 0.12203837 0.027352193 -0.26492533 -0.092410766 -0.14236407 0.13273382 -0.20844354
0.023203753 0.09704918 -0.09673034 -0.03941902 0.05434553 -0.03124709 0.095881395 0.04745101
0.029060556 -0.08364599 0.16962324 -0.027286539 -0.23618686 0.14766279 0.11068188 0.2507688
0.14505856 0.04175966 -0.08904005 -0.13038762 -0.018714206 -0.009863287 0.0399361 -0.18421534
-0.13230975 0.19488391 0.06916729 0.09811731 -0.15200672 -0.20882905 0.06909705 0.021894509
-0.02256108 0.2715047 0.1721057 0.051088933 0.0880946 0.09414 -0.0729065 0.0071709394
00000000: 6eb0 bb3e 6f02 343f 513f aebe 6344 03bd
00000010: 8e24 cb3e 1976 d0bd 4987 83be 330e 85be
00000020: b48d 013e f46e eb3e 4543 5ebe 93b9 6fbe
00000030: ae86 5d3d f890 98be 908a 52bf eac0 f5be
00000040: bff4 9a3e 614f 73bf 858a 94be 0e1d 48be
00000050: d6a4 443e 61ba 103e 36e9 f43d 7cc0 203f
00000060: 50de fe3d ce0d 0cbe 0299 083e 5bb3 08be
00000070: 14e8 653e fb90 15be 87fc 87be 22fc f1be
00000080: 91d6 7a3e e52a 043e da7e 9d3e d6e4 25bd
00000090: 48b2 243f 1af4 2fbd 3b82 313e 4815 afbe
000000a0: 9035 28bf 216e d8be 0fc0 10be 1164 f5bd
000000b0: eda2 b03e 7b4d 02bf 476f babe d446 183f
000000c0: 27f7 0bbe 9e22 2abe 1688 7a3e 122f 60bf
000000d0: a333 4e3f 8b7b c73d 3e23 52bf 4e9f 653e
000000e0: dd4f f5bd bf8b 31bf e108 8f3e f733 e43e
000000f0: 1490 32bf ef80 71bf 5f78 02bf 3e1e e83e
00000100: dd5c 91bd 6c89 9b3b 531d ad3c f898 7a3e
00000110: f8b2 38be 779f 473d b421 b73e 97f7 05be
00000120: e794 be3b e598 283d d038 813e 0d0e 97bd
00000130: 3222 8dbe 2c04 46be a3fa debd fe90 383e
00000140: 26e7 cdbd f2cd 2bbd 8835 263d 2913 413d
00000150: 0404 bcbe 533f 8d3e 858e 353e 9b5e 16be
00000160: a57c 563e 38d2 373e 0a9f 9ebd bd88 223e
00000170: f1cb 383e 06e4 8e3e 6586 afbd 4331 9b3d
00000180: a1ba 793b 9fe9 c4bd 8d91 9ebc 09e3 873c
00000190: 86dc 903d 2da9 353c 7d85 a7be 0ab5 b33d
000001a0: 46f4 2a3e 031d aa3e 94ec 283e 2f53 6c3d
000001b0: 7382 87be 2550 df3d d318 ad3e ed3c f9bd
000001c0: 4d05 aabe bb2e 833d 30cb 363d 68e5 e5bb
000001d0: faba cabd 4ae7 b13d df1b 7ebd e5d5 7fbe
000001e0: 637e a7be fe3b 94bd 3aab e8bd c290 153d
000001f0: f926 5c3d 8314 9abd 2a2f 04bd 5512 513c
00000200: 7178 f1bc c2ed a1bd 2a58 e7ba 7df3 ff3d
00000210: 3abc 6b3d 4fa9 90bd 3f33 c23e 8f69 18be
00000220: 7f03 343d c0d6 2d38 c4a5 b73e 94ef f8bd
00000230: 31bb 8bbe af7e 4cbe 9b9e c2bd 4f3e cf3e
00000240: eed4 1abe 39fb 2abd 7f0a a93c 0051 cdbd
00000250: 1346 82be 81cb aa3e 94a4 c53d 648f 923d
00000260: 02e7 473e 0d83 593e 1ef2 58bd daeb 3d3e
00000270: 72d8 1f3e 46a4 953e 3036 b9bc 59fa a13d
00000280: 3678 1bbd d690 80bd 6961 0bbd 7d87 df3d
00000290: fd55 373e 895d d0bd bd83 b9be 28be b13d
000002a0: 9de2 e03d 199e 863e 7d8c 043f 2686 3cbe
000002b0: 717b a7bd f159 243d c4b0 943e 45a3 49be
000002c0: 2dd0 6ebe 61d8 273e bc1b 853d 5bef ccbd
000002d0: 2e0d 4e3d 9052 813e 91a3 ad3d 4e5a c5be
000002e0: ad9a 94be 28a0 22bd 8997 eabd 2b8e 75bd
000002f0: c966 313d 25d4 f43d 01c1 6dbc 9231 33be
00000300: 5cc9 5c3d fc89 743c 0ee3 b9bd 9a85 443e
00000310: 1737 95be b2aa 163e 9264 edbd 0ed1 a43e
00000320: b9cb e9bd 36aa 623d 2b85 2bbe 4ac0 99be
00000330: e9ec 3abd 3894 483d a4ea 2d3e c0de 7c3d
00000340: ca8f b1bd 41ef f93d b511 e03c 4ba4 87be
00000350: db41 bdbd e3c7 11be 60eb 073e 3972 55be
00000360: cc15 be3c b8c1 c63d 8e1a c6bd d775 21bd
00000370: 6b99 5e3d e6f9 ffbc 775d c43d fe5b 423d
00000380: 6710 ee3c 974e abbd b7b1 2d3e 0588 dfbc
00000390: f8da 71be ea34 173e 2ead e23d c564 803e
000003a0: 3b8a 143e 2d0c 2b3d a15a b6bd 5584 05be
000003b0: 894e 99bc a099 21bc 0994 233d f2a2 3cbe
000003c0: 357c 07be a68f 473e 95a7 8d3d baf1 c83d
000003d0: a6a7 1bbe 48d7 55be c182 8d3d 1d5c b33c
000003e0: 04d2 b8bc aa02 8b3e 7a3c 303e a142 513d
000003f0: f16a b43d 79cc c03d 0150 95bd 33fa ea3b

actor.4.bias f4 [9]
-0.18527785 -0.17966038 -0.19761646 0.33967465 0.30105922 -0.028822083 0.4049993 0.11494269
-0.37972492
00000000: 7ab9 3dbe e4f8 37be f85b 4abe d6e9 ad3e
00000010: 6f24 9a3e 4a1c ecbc 115c cf3e 1367 eb3d
00000020: 4e6b c2be

critic.0.weight f4 [64, 7]
0.06557449 -0.07447858 0.011521807 -0.07318258 0.27282846 2.6164193 -0.100933194 0.16138071
0.030070899 -0.16402645 0.12359366 -0.6079548 -2.0821307 0.179951 -0.13108018 0.10865767
0.19217214 -0.41724798 -0.53707427 2.5242152 0.0452812 -0.03902303 0.1090156 -0.18384548
-0.20382081 0.24185427 2.719353 -0.13312799 -0.079150856 0.06204711 0.28179815 -0.3296215
-0.69397306 -0.32321188 -0.31466556 -0.0045359605 -0.19729833 0.092602566 0.071517974 0.4190233
-2.3583138 0.11284515 0.049906097 -0.05482432 -0.16686186 -0.178369 -0.046742298 -2.56551
0.15341769 0.06885091 0.0528381 -0.13403644 0.1352487 0.17961109 2.57155 0.13398091
0.18613541 -0.03482605 -0.15179487 -0.3618639 -0.103809975 2.0453703 0.056794997 -0.24621361
0.05148192 -0.31730628 -0.4984947 0.9431704 -2.2529464 -0.22206238 -0.0143916905 -0.004828893
0.17348732 -0.037035737 -0.8514093 -2.1240935 -0.31806484 -0.08039274 0.12663229 0.16223748
-0.064143755 -0.52764153 2.6180146 0.036222223 -0.13833441 0.23598191 -0.15933323 0.24223535
-0.12734216 -2.436716 -0.15589339 0.13967185 -0.051451817 -0.05643985 0.705084 -0.17409122
0.77615404 -0.18441182 -0.064575076 0.067521736 0.116264775 -0.33785954 0.58101064 -1.2352453
-0.21346977 0.21411373 -0.32737485 -0.11953572 0.45977077 0.5312257 -0.01053731 0.11641355
-0.16034134 -0.027572827 0.23075023 0.021155711 0.20616499 -2.5048916 0.22184779 0.009168398
0.24670176 -0.3311153 0.015872339 -0.39900246 2.4739082 0.19266742 0.26674205 -0.10652686
-0.2148329 -0.02344739 -0.46002334 -2.396782 0.13669132 -0.17045984 0.075245865 -0.16800693
-0.084632434 0.7086131 1.2190725 0.07203901 -0.2354287 0.32959774 -0.00091241725 -0.49988034
-0.69229865 -0.8721778 0.006641096 -0.24292946 0.11023413 -0.119422205 0.30216488 0.58817255
-2.6895137 0.040779393 -0.3018128 -0.08586442 -0.042489115 0.16606009 0.87004477 -1.2229624
0.2978004 -0.3487948 0.2814746 0.26636076 -0.47954884 0.38368773 1.5238924 -0.070129596
-0.045014083 0.13484536 -0.26282012 -0.41769612 -0.33111402 1.9055768 -0.32306838 0.09640562
0.12947853 -0.25126624 -0.5592387 0.16006954 2.1217573 0.19796444 0.10254097 0.31738016
-0.18964031 0.4708555 0.046068974 -1.7140902 -0.26530793 0.1833153 -0.07533511 -0.3370064
0.0003683574 0.5076611 -2.8054423 0.12848881 0.19023916 -0.42255244 -0.101972885 -0.39228463
0.43146965 1.6965457 -0.03618278 0.19275989 -0.11727256 0.02960007 -0.5689403 0.044723023
-1.4880471 -0.08670885 -0.052985363 -0.20906423 0.3575729 0.26024696 0.55590385 1.0271734
-0.07002034 -0.15011556 0.09760825 0.16329159 -0.5014421 0.6904642 2.0080526 0.22031261
-0.640175 -0.46768457 0.07796383 0.057957686 0.08148328 -0.8597403 0.3095289 0.29419878
-0.1741854 -0.25245604 -0.2246051 0.4766612 -2.254564 -0.22538443 -0.24593376 0.16722474
0.01921988 -0.037622683 -0.62443465 2.5502264 0.31438598 0.06731364 -0.11457186 -0.16795613
0.10501681 0.027573228 2.7413318 -0.15655111 -0.019550322 0.15301536 -0.19506226 -0.5353973
00000000: eb4b 863d 3a88 98bd f6c5 3c3c c0e0 95bd
00000010: 2cb0 8b3e 6a73 2740 10b6 cebd fc40 253e
00000020: 3f57 f63c 8df6 27be ac1e fd3d eda2 1bbf
00000030: a141 05c0 1345 383e e239 06be ea87 de3d
00000040: c6c8 443e 87a1 d5be b37d 09bf be8c 2140
00000050: c878 393d 9dd6 1fbd 9243 df3d fd41 3cbe
00000060: 67b6 50be a5a8 773e e109 2e40 b452 08be
00000070: d819 a2bd 1c25 7e3d d947 903e 26c4 a8be
00000080: 38a8 31bf 077c a5be d81b a1be 65a2 94bb
00000090: 9308 4abe 6aa6 bd3d 0478 923d 398a d63e
000000a0: 9dee 16c0 5c1b e73d 566a 4c3d 778f 60bd
000000b0: d6dd 2abe 5da6 36be da74 3fbd 5131 24c0
000000c0: 8719 1d3e b501 8d3d c36c 583d d940 09be
000000d0: a37e 0a3e f8eb 373e 4694 2440 4b32 093e
000000e0: 489a 3e3e c3a5 0ebd 1d70 1bbe 3a46 b9be
000000f0: 539a d4bd 59e7 0240 dfa1 683d 6c1f 7cbe
00000100: b5de 523d f875 a2be b33a ffbe 9e73 713f
00000110: 4630 10c0 5264 63be 20cb 6bbc b13b 9ebb
00000120: a9a6 313e c9b2 17bd f6f5 59bf 26f1 07c0
00000130: 65d9 a2be f3a4 a4bd e5ab 013e 9521 263e
00000140: cd5d 83bd 8413 07bf 8d8d 2740 c15d 143d
00000150: 89a7 0dbe 3ea5 713e 4028 23be 8b0c 783e
00000160: fc65 02be 28f3 1bc0 84a2 1fbe 2306 0f3e
00000170: 24bf 52bd 792d 67bd 6380 343f f844 32be
00000180: 08b2 463f 74d6 3cbe f03f 84bd d648 8a3d
00000190: 3a1c ee3d edfb acbe 1dbd 143f 851c 9ebf
000001a0: d297 5abe a140 5b3e ad9d a7be 25cf f4bd
000001b0: 1367 eb3e 68fe 073f aea4 2cbc 3a6a ee3d
000001c0: 8530 24be 69e0 e1bc ca49 6c3e be4e ad3c
000001d0: ea1c 533e 2550 20c0 112c 633e 0c37 163c
000001e0: 639f 7c3e f287 a9be b506 823c 0d4a ccbe
000001f0: 8354 1e40 9c4a 453e 6a92 883e c12a dabd
00000200: 28fd 5bbe be14 c0bc 2e88 ebbe e064 19c0
00000210: cff8 0b3e 068d 2ebe 811a 9a3d 020a 2cbe
00000220: c553 adbd ab67 353f 910a 9c3f 3089 933d
00000230: 3914 71be 09c1 a83e 492f 6fba 51f0 ffbe
00000240: 7c3a 31bf 0b47 5fbf 8d9d d93b 80c2 78be
00000250: 6ec2 e13d a193 f4bd 5bb5 9a3e 7a92 163f
00000260: fe20 2cc0 4b08 273d 3587 9abe afd9 afbd
00000270: 1109 2ebd a80b 2a3e 41bb 5e3f 088a 9cbf
00000280: 4b79 983e 3b95 b2be 701d 903e 7060 883e
00000290: 6d87 f5be b872 c43e e80e c33f 1ba0 8fbd
000002a0: b060 38bd e714 0a3e 5c90 86be 44dc d5be
000002b0: c787 a9be f1e9 f33f 3869 a5be 4f70 c53d
000002c0: 0596 043e f8a5 80be 442a 0fbf 45e9 233e
000002d0: dfca 0740 31b7 4a3e 0001 d23d a77f a23e
000002e0: 1231 42be f913 f13e d2b2 3c3d 4f67 dbbf
000002f0: 71d6 87be 02b7 3b3e 4b49 9abd 1a8c acbe
00000300: 1820 c139 14f6 013f 5e8c 33c0 9292 033e
00000310: 0ece 423e cb58 d8be 29d7 d0bd 88d9 c8be
00000320: 97e9 dc3e 6928 d93f 6534 14bd d962 453e
00000330: 992c f0bd d97b f23c 12a6 11bf 7d2f 373d
00000340: 5478 bebf 6994 b1bd 2e07 59bd ef14 56be
00000350: cc13 b73e 173f 853e b74f 0e3f 6b7a 833f
00000360: d366 8fbd e5b7 19be d6e6 c73d e935 273e
00000370: 825e 00bf 43c2 303f ef83 0040 a199 613e
00000380: 82e2 23bf 5a74 efbe 80ab 9f3d 0a65 6d3d
00000390: b5e0 a63d f117 5cbf 927a 9e3e 39a1 963e
000003a0: a85d 32be eb41 81be e1fe 65be f00c f43e
000003b0: c74a 10c0 2dcb 66be 0fd6 7bbe f63c 2b3e
000003c0: 0373 9d3c 3e1a 1abd f3da 1fbf e936 2340
000003d0: 33f7 a03e bcdb 893d a7a4 eabd b1fc 2bbe
000003e0: 0e13 d73d 40e1 e13c fb71 2f40 ef4e 20be
000003f0: ff27 a0bc 0fb0 1c3e 67be 47be cc0f 09bf

critic.0.bias f4 [64]
0.019028647 -0.28439063 0.15364243 0.043096695 0.3844052 -0.17232575 0.20773162 -0.2649117
0.2917567 0.25633252 0.26353154 -0.11802938 -0.1571555 -0.47788668 0.35050762 -0.49030748
-0.124773085 -0.17132194 0.13565302 0.06494339 0.32677844 -0.05613609 -0.21425904 0.37755987
0.46461084 0.22105025 -0.37956795 0.07584453 0.4083094 0.4357671 -0.09750417 0.14902048
-0.35565013 0.18835661 -0.024218904 -0.042364445 0.17056593 0.01067709 0.25977078 0.24992406
-0.29060555 -0.16967632 -0.36080405 0.4630002 -0.17718698 0.17095123 0.22980562 0.3090421
0.24647838 0.016589662 0.011399376 0.2599671 -0.35847697 -0.36886063 0.20982629 0.1176519
-0.04338051 -0.27533075 0.39654356 0.5313778 -0.3953692 0.4746652 0.28603193 -0.19727822
00000000: f7e1 9b3c a69b 91be 7154 1d3e 2986 303d
00000010: c2d0 c43e 2976 30be 99b7 543e 82a2 87be
00000020: 2261 953e 043e 833e 9bed 863e 63b9 f1bd
00000030: 5fed 20be 90ad f4be bc75 b33e 9509 fbbe
00000040: 0889 ffbd 056f 2fbe a0e8 0a3e 0a01 853d
00000050: 814f a73e f5ee 65bd b966 5bbe 874f c13e
00000060: 79e1 ed3e ff5a 623e bb56 c2be 6054 9b3d
00000070: ee0d d13e de1c df3e 44b0 c7bd d398 183e
00000080: c617 b6be 8ee0 403e b966 c6bc 5786 2dbd
00000090: d6a8 2e3e f6ee 2e3c ad00 853e 18ec 7f3e
000000a0: 40ca 94be a1bf 2dbe 4fbb b8be 5d0e ed3e
000000b0: 8170 35be d70d 2f3e 2a52 6b3e c43a 9e3e
000000c0: d464 7c3e 0be7 873c 73c4 3a3c 681a 853e
000000d0: 4b8a b7be 4ddb bcbe b4dc 563e 7bf3 f03d
000000e0: c3af 31bd 27f8 8cbe c207 cb3e 6008 083f
000000f0: d56d cabe 5107 f33e c772 923e 4d03 4abe

critic.2.weight f4 [64, 64]
-0.15063706 0.15707667 0.043305907 0.012334671 -0.061069317 -0.052256808 0.26363373 -0.13971686
-0.035046607 0.10723948 0.15668283 -0.03933911 0.1382497 -0.05255722 0.093144774 -0.024476565
0.22367303 0.07355639 0.05765023 0.075468734 0.102811426 0.0710064 0.030730188 -0.10061446
0.027236994 -0.069422536 -0.0769082 0.11356107 0.07759449 0.10222064 -0.022595603 0.06464097
0.08902298 0.0012959127 0.0021228741 -0.22287466 0.093417265 -0.25154075 0.13447776 0.06660714
0.13139348 0.18839762 -0.08856397 0.010510097 0.24411136 0.06684475 0.09307407 0.054296937
0.08815464 0.24028774 0.18138453 -0.116554886 0.025784647 -0.110037155 -0.067811646 -0.19284253
-0.048053846 0.1837985 0.12117407 -0.047985394 0.13308676 0.036470633 0.07731649 0.02219266
-1.0962685 0.46133548 -0.42893904 -0.38690397 0.1205366 0.3602374 0.8597071 -1.0329695
-0.13714227 0.4491912 0.35617462 -0.7678407 0.31752038 -0.38469175 0.28853956 -0.1855077
0.7407229 -0.4548832 0.7662909 -0.13216275 0.35205737 0.31403968 0.14626886 -0.2260018
-0.36013347 -0.16349676 0.0062388266 0.723916 -0.14121714 0.42714152 -0.31469023 -0.2971992
0.15281351 0.42979366 -0.50592774 -0.60208046 0.28243595 -0.60125536 0.2917776 0.43768826
0.014886598 0.5211578 -0.7125774 -0.0057324874 0.581153 0.5727827 0.82532406 0.6456998
0.5873712 0.55512595 0.55528796 -0.28564176 -0.61491126 -0.6851911 -0.47068968 -0.45252421
-0.34599292 0.5242081 0.43321258 -0.03935641 -0.05604104 0.45789373 0.5522347 0.5097982
0.05935065 -0.08948358 -0.009928085 -0.11208991 0.01034695 0.08124911 -0.045423664 -0.09269253
0.0055667674 0.0763701 -0.066083714 -0.027853053 0.04614498 -0.095773205 -0.18953994 -0.09412938
0.0066926987 0.078680664 0.13073692 0.062241048 -0.019717848 -0.059552033 -0.05618978 0.06512219
-0.10151463 -0.014038052 0.06144843 -0.05032455 -0.027082117 0.03157783 0.07228737 0.122980095
-0.09113152 0.044685923 -0.011058738 0.065514274 -7.145474e-05 0.043525863 -0.013999176 -0.037203953
-0.10195866 0.06494052 0.032325275 -0.11309665 -0.036758523 0.035651762 0.09683107 -0.042762507
0.0822931 -0.06315199 -0.06063455 0.09532216 -0.09595204 -0.06476149 -0.14380303 -0.007626662
-0.097312085 -0.06351362 -0.0876244 -0.08098887 0.06258804 -0.023879062 -0.05946312 0.016574508
-0.015518696 0.044809792 -0.07478693 0.03096395 -0.108613424 0.09369216 0.0032900888 -0.037947726
-0.04011147 -0.0052587506 0.005810604 0.0781205 -0.10445707 -0.038004488 0.086084686 -0.087598756
-0.043417033 -0.02047374 -0.047394928 -0.059769213 -0.03401765 0.07331571 -0.029144272 -0.0016865276
-0.06326457 -0.13738236 0.13790342 0.07373812 0.06956394 -0.040526003 0.015108492 -0.03064618
-0.0046455744 -0.012476354 0.06982823 0.08341331 0.024658993 -0.04915303 0.061168727 -0.028662877
-0.054569807 0.0797771 -0.022983408 0.017470637 -0.11683423 -0.094632804 0.0046426607 -0.077565625
0.050466232 -0.037185684 -0.012578875 0.059576187 0.009555736 0.0053081727 -0.029787127 -0.11752246
-0.020047871 -0.09113151 0.08374796 0.09388882 -0.025372434 -0.04701551 -0.14404474 -0.012835599
00000000: 9a40 1abe b5d8 203e 8961 313d 5c17 4a3c
00000010: d223 7abd 3c0b 56bd 00fb 863e f011 0fbe
00000020: 088d 0fbd 5fa0 db3d 7771 203e 0c22 21bd
00000030: 5491 0d3e 3d46 57bd b0c2 be3d 1483 c8bc
00000040: 8b0a 653e bca4 963d a622 6c3d 5a8f 9a3d
00000050: cc8e d23d ce6b 913d e0bd fb3c f40e cebd
00000060: 1e20 df3c 672d 8ebd 0c82 9dbd b592 e83d
00000070: dce9 9e3d 0e59 d13d 6a1a b9bc 7c62 843d
00000080: ae51 b63d 9ddb a93a eb1f 0b3b 4139 64be
00000090: 8d51 bf3d f3c9 80be 8ab4 093e 5369 883d
000000a0: 038c 063e 4eeb 403e 0761 b5bd 8b32 2c3c
000000b0: 54f8 793e e6e5 883d 9e9d be3d 7766 5e3d
000000c0: 6b8a b43d fd0d 763e debc 393e 54b4 eebd
000000d0: 533a d33c 295b e1bd d5e0 8abd 8378 45be
000000e0: 1cd4 44bd ad35 3c3e 1c2a f83d 558c 44bd
000000f0: e547 083e 3b62 153d 1c58 9e3d 62cd b53c
00000100: 8752 8cbf 2a34 ec3e e69d dbbe 4718 c6be
00000110: e5db f63d 0971 b83e c415 5c3f 5838 84bf
00000120: 066f 0cbe 64fc e53e 855c b63e 3591 44bf
00000130: 0892 a23e 51f6 c4be 75bb 933e bbf5 3dbe
00000140: 04a0 3d3f 73e6 e8be a42b 443f ac55 07be
00000150: dd40 b43e cfc9 a03e 81c7 153e 046d 67be
00000160: 6a63 b8be b26b 27be 126f cc3b 8f52 393f
00000170: 3a9b 10be 4bb2 da3e 141f a1be 7e2a 98be
00000180: 257b 1c3e ea0d dc3e 7b84 01bf f221 1abf
00000190: 729b 903e dfeb 19bf e063 953e ad18 e03e
000001a0: ebe6 733c 996a 053f 796b 36bf 97d7 bbbb
000001b0: 71c6 143f e3a1 123f 7048 533f 954c 253f
000001c0: f55d 163f bc1c 0e3f 5a27 0e3f a33f 92be
000001d0: d36a 1dbf af68 2fbf 3dfe f0be 41b1 e7be
000001e0: fc25 b1be 8132 063f 0ace dd3e 3034 21bd
000001f0: 4a8b 65bd 0c71 ea3e 415f 0d3f 2382 023f
00000200: ab19 733d 2b43 b7bd 68a9 22bc 658f e5bd
00000210: 4186 293c ef65 a63d 2a0e 3abd 95d5 bdbd
00000220: 6e69 b63b ed67 9c3d e656 87bd 162c e4bc
00000230: 8502 3d3d be24 c4bd c216 42be e8c6 c0bd
00000240: 6d4e db3b 5423 a13d e6df 053e 78f0 7e3d
00000250: 5387 a1bc d5ec 73bd 4127 66bd c85e 853d
00000260: e7e6 cfbd dcff 65bc 59b1 7b3d 1e21 4ebd
00000270: 51db ddbc c157 013d 670b 943d fddc fb3d
00000280: 2aa3 babd 9608 373d b62f 35bc 592c 863d
00000290: f9d9 95b8 2d48 323d cd5c 65bc 2c63 18bd
000002a0: b4cf d0bd 89ff 843d 8267 043d 379f e7bd
000002b0: 1b90 16bd 9507 123d 5e4f c63d bd27 2fbd
000002c0: 4989 a83d d555 81bd ef5b 78bd 4438 c33d
000002d0: 8182 c4bd aca1 84bd 1a41 13be 14e9 f9bb
000002e0: 8f4b c7bd 6e13 82bd 6c74 b3bd 7edd a5bd
000002f0: 292e 803d 069e c3bc 9a8f 73bd 43c7 873c
00000300: 2142 7ebc 798a 373d e429 99bd 1ca8 fd3c
00000310: b770 debd ade1 bf3d 889e 573b 136f 1bbd
00000320: ed4b 24bd 9951 acbb e166 be3b a4fd 9f3d
00000330: 97ed d5bd 98aa 1bbd 2b4d b03d fa66 b3bd
00000340: 0fd6 31bd 8bb8 a7bc 2f21 42bd 90d0 74bd
00000350: 1756 0bbd 8c26 963d f8bf eebc 7a0e ddba
00000360: db90 81bd f6ad 0cbe 8e36 0d3e 0304 973d
00000370: 8a77 8e3d 98fe 25bd 9c89 773c b30d fbbc
00000380: e739 98bb 9f69 4cbc 1a02 8f3d 99d4 aa3d
00000390: a801 ca3c b054 49bd 0f8c 7a3d 69ce eabc
000003a0: 9784 5fbd 2d62 a33d b347 bcbc 951e 8f3c
000003b0: c946 efbd d8ce c1bd 7621 983b bada 9ebd
000003c0: aeb5 4e3d 0450 18bd a017 4ebc 2906 743d
000003d0: a98f 1c3c 2ef0 ad3b 2204 f4bc 9eaf f0bd
000003e0: 6f3b a4bc 28a3 babd 0d84 ab3d c848 c03d
000003f0: dad9 cfbc 5693 40bd 7780 13be 674c 52bc

critic.2.bias f4 [64]
0.11979453 0.18478186 -0.05426796 0.017195519 -0.24662241 0.09802464 -0.043617573 -0.16881526
-0.33516052 0.028949007 0.110369064 0.06561402 -0.02668299 0.06831931 -0.008291757 -0.0021397409
-0.005533874 -0.033193544 -0.03256878 -0.07377674 0.09427264 -0.066596135 0.020486344 -0.03866269
0.031942107 0.034021694 0.040293563 -0.04355014 -0.035594206 -0.030338556 -0.05954451 0.054191653
-0.00071109063 -0.016724916 -0.012710825 -0.14986216 -0.056168996 0.05291476 -0.019890865 -0.047720972
-0.03937632 0.04048222 -0.0577499 0.05513885 0.012494615 0.029299947 0.009413179 -0.20356993
-0.032777715 -0.059029404 -0.0964543 0.051594436 -0.011248939 -0.13858256 -0.11989032 -0.039539706
0.2672762 0.07879313 0.021594662 -0.3093634 -0.04525543 -0.025447445 0.036280505 -0.1701634
00000000: d656 f53d 7537 3d3e 1548 5ebd 9edd 8c3c
00000010: 968a 7cbe 24c1 c83d 57a8 32bd e8dd 2cbe
00000020: 299a abbe 7826 ed3c 2d09 e23d a560 863d
00000030: 4996 dabc ffea 8b3d 26da 07bc e53a 0cbb
00000040: 8055 b5bb f4f5 07bd d766 05bd 4218 97bd
00000050: 0412 c13d 8e63 88bd fad2 a73c c55c 1ebd
00000060: bad5 023d 555a 0b3d dd0a 253d a261 32bd
00000070: 3bcb 11bd 9088 f8bc f2e4 73bd 11f8 5d3d
00000080: 7c68 3aba b102 89bc 1041 50bc 7775 19be
00000090: 7611 66bd 26bd 583d 2bf2 a2bc 1177 43bd
000000a0: 1049 21bd afd0 253d 298b 6cbd 46d9 613d
000000b0: 37b6 4c3c 7106 f03c bc39 1a3c a374 50be
000000c0: ed41 06bd d1c8 71bd d589 c5bd b054 533d
000000d0: 784d 38bc 96e8 0dbe 0e89 f5bd 63f4 21bd
000000e0: 6dd8 883e 4b5e a13d 4ae7 b03c e164 9ebe
000000f0: c25d 39bd 2977 d0bc de9a 143d 503f 2ebe

critic.4.weight f4 [1, 64]
0.106406756 -0.2805003 0.0029337893 0.0022549562 -0.1518587 0.023923999 -0.0002925158 -0.20061949
0.014197434 0.000863162 0.20526564 0.001876844 -0.004469817 0.12303978 -0.0022408892 -0.0008099028
0.002455548 0.00070706045 -0.0056633637 -0.0045738225 0.17557693 0.00024180341 0.0017434455 0.118708104
-0.0010393973 0.0015622686 0.0011344944 -0.00064077333 -0.0002229832 0.0011482117 0.00083527813 0.001575792
0.0006835385 0.0010427433 0.0014278336 0.21040419 -0.0025181754 -0.0033935818 -0.0015366515 0.003919045
-0.0006491314 -4.2286356e-05 0.0009824227 0.0030289146 0.00038023782 0.12735906 -0.13404241 0.1197302
0.05004888 -0.00094163057 -0.09174133 -0.13243327 -0.0031692921 0.0006977922 0.0020972025 -0.011419292
-0.12844071 -0.0022094122 0.00079156936 0.1303835 0.003363563 0.0027977373 -0.00024068286 -0.1821136
00000000: c9eb d93d bc9d 8fbe d144 403b e3c7 133b
00000010: d980 1bbe 43fc c33c ce5c 99b9 326f 4dbe
00000020: 5b9c 683c d245 623a 2831 523e 6f00 f63a
00000030: 8b77 92bb 48fc fb3d e2db 12bb a84f 54ba
00000040: 42ed 203b 065a 393a bd93 b9bb 01e0 95bb
00000050: 70ca 333e 9c8c 7d39 5384 e43a 3c1d f33d
00000060: 633c 88ba 09c5 cc3a 51b3 943a 92f9 27ba
00000070: 99d0 69b9 977f 963a 91f6 5a3a ce8a ce3a
00000080: 7e2f 333a a9ac 883a 2526 bb3a 3274 573e
00000090: f907 25bb db66 5ebb 7869 c9ba 556b 803b
000000a0: 792a 2aba a15c 31b8 a3c4 803a c180 463b
000000b0: a85a c739 6a6a 023e 6a42 09be 1b35 f53d
000000c0: 0e00 4d3d c2d7 76ba e1e2 bbbd 969c 07be
000000d0: e6b3 4fbb 0bec 363a 3871 093b fb17 3bbc
000000e0: f685 03be c9cb 10bb 5281 4f3a 4183 053e
000000f0: 396f 5c3b 3e5a 373b d05f 7cb9 fd7b 3abe
