trained/ComplexPong/PPO_mcts_frequent_1728278377.9136374.pth (torch, 44994 bytes, 11 tensors)

actor.0.weight f4 [64, 7]
-0.20501202 -0.49369398 0.35501125 0.2992434 0.573868 0.050323326 -0.2987519 0.40632933
0.22847623 -0.44626114 -0.03678041 -0.35751656 0.35635903 0.041587744 0.23695044 0.2616558
-0.11994825 -0.3038867 0.05952457 -0.10542138 0.16732337 -0.05631333 0.28152725 -0.53604454
-0.21792407 -0.6454863 -0.24006781 0.21869229 -0.34482026 0.36721027 -0.073312074 -0.1782185
-0.61526525 -0.35900477 0.043144133 -0.11299794 -0.4016006 0.44110057 -0.009416005 0.8868438
-0.13588093 -0.17039874 0.2988955 -0.43893132 -0.2059732 -0.14131913 0.2303759 -0.21441598
0.21603346 0.41186193 -0.40160018 -0.3136331 0.06778415 0.1769657 -0.44105846 -0.10575161
-0.064218536 0.04224288 -0.28808895 0.43567067 -0.627099 0.5716047 -0.17051561 0.3160555
-0.20176435 0.15733597 -0.121671066 0.38348 -0.18656684 -0.23986787 0.29712558 0.31649715
-0.085643366 0.34529144 -0.24529 0.32077855 -0.17048368 -0.14065973 0.07664114 0.4828583
-0.23187752 0.30320486 -0.21377684 0.19601536 0.15045825 -0.19313751 -0.34494445 -0.01753789
-0.70236987 -0.5217324 -0.081219606 -0.015216514 -0.058664583 0.095791124 -0.39610186 0.23860148
-0.34467 0.10324535 0.18289633 0.38715583 -0.6338935 -0.011136456 -0.21112713 -0.48045135
-0.017463408 0.41532275 -0.011445049 -0.3992015 -0.010444972 -0.62502205 0.3492277 0.22222328
-0.024300782 0.15574181 -0.029880507 -0.032236625 0.2123148 -0.3468349 0.015288051 0.2577508
0.57705534 -0.6212302 0.07401027 -0.5062753 0.050556593 -0.035244253 0.13834336 0.22075559
-0.3635013 -0.4794334 -0.6089434 -0.7567885 0.13478133 -0.18253282 -0.4948574 0.4156484
0.1470232 0.38318697 -0.19754489 -0.0077951956 -0.06440739 -0.42080554 0.39598808 0.07146916
0.56091195 -0.07417734 -0.20674883 -0.23867925 -0.15403049 0.07260779 -0.044296827 0.3090967
-0.62545717 0.030628279 0.107379206 -0.46443725 0.34816408 0.083812445 0.19970635 -0.20105436
0.13544242 0.5625463 -0.41351712 -0.15483904 0.16840719 -0.087464586 0.8026945 0.02382258
0.33200845 -0.44189227 0.4511545 0.15490851 0.7037502 -0.05899625 -0.1981683 0.1191152
0.3628896 -0.66534567 0.08574297 -0.6566181 -0.29744893 -0.11970249 -0.08980737 0.14715518
0.056323674 -0.4620085 0.56025237 -0.95685047 -0.018986933 0.27868134 0.1947047 -0.086374186
-0.44973883 -0.13851824 -0.275738 -0.07000478 0.17976749 0.39936572 -0.29139224 -0.22630556
-0.8035875 0.11387889 0.14680618 0.10781758 -0.09707914 -0.32825664 -0.22556807 -0.64194405
-0.033008937 -0.104910605 0.47747204 -0.18041281 -0.08618249 0.19765449 -0.04675296 0.71444434
0.22171524 0.22540306 0.21483102 -0.3345635 0.05555401 -0.6600056 -0.1652049 -0.16810878
-0.086882815 -0.39874792 0.6188181 -0.06358514 0.71851474 0.45783073 0.114897 0.02189216
0.42730415 -0.47502503 0.46652636 -0.60455537 0.061518963 -0.060429916 -0.0030997829 -0.35205457
0.45593575 0.3183789 0.28724903 0.52148676 0.042441398 0.44157392 -0.008290607 -0.2510582
-0.21450561 0.003974606 -0.17517652 0.14905576 0.36915642 -0.24766088 -0.46816364 0.3527927
00000000: acee 51be 75c5 fcbe 09c4 b53e 6e36 993e
00000010: 03e9 123f d51f 4e3d 02f6 98be 660a d03e
00000020: acf5 693e 577c e4be 0ea7 16bd 690c b7be
00000030: b174 b63e e957 2a3d 23a3 723e c0f7 853e
00000040: 6ea7 f5bd 0a97 9bbe 09d0 733d 2ae7 d7bd
00000050: d156 2b3e cea8 66bd 5724 903e 373a 09bf
00000060: 7d27 5fbe 973e 25bf 56d4 75be dff0 5f3e
00000070: 488c b0be fc02 bc3e a424 96bd e97e 36be
00000080: 0682 1dbf 79cf b7be e7b7 303d 776b e7bd
00000090: 989e cdbe efd7 e13e 9645 1abc 3208 633f
000000a0: 5f24 0bbe 027d 2ebe d508 993e 9bbb e0be
000000b0: a3ea 52be f6b5 10be a9e7 6b3e dd8f 5bbe
000000c0: e037 5d3e 91df d23e 8a9e cdbe 8594 a0be
000000d0: 6bd2 8a3d 7f36 353e 6ad2 e1be 4d94 d8bd
000000e0: 0285 83bd df06 2d3d 6580 93be 3a10 df3e
000000f0: 8f89 20bf b054 123f a59b 2ebe 07d2 a13e
00000100: 509b 4ebe ae1c 213e ae2e f9bd 7e57 c43e
00000110: 610b 3fbe ec9f 75be d820 983e ea0b a23e
00000120: ca65 afbd 0aca b03e 4d2d 7bbe 163d a43e
00000130: 4693 2ebe 1b09 10be 08f6 9c3d 3439 f73e
00000140: 4d71 6dbe ab3d 9b3e 51e8 5abe 40b8 483e
00000150: ba11 1a3e d7c5 45be 8f9c b0be 9fab 8fbc
00000160: 83ce 33bf 4190 05bf 7756 a6bd af4e 79bc
00000170: 464a 70bd 232e c43d ddcd cabe f253 743e
00000180: 9678 b0be 4c72 d33d 2d49 3b3e 4a39 c63e
00000190: d846 22bf af75 36bc b631 58be b8fd f5be
000001a0: 6c0f 8fbc 2fa5 d43e 0484 3bbc 2464 ccbe
000001b0: 6321 2bbc 7201 20bf f9cd b23e 808e 633e
000001c0: 6f12 c7bc c87a 1f3e f7c7 f4bc 8d0a 04bd
000001d0: 0d69 593e 5894 b1be bc7a 7a3c eaf7 833e
000001e0: e6b9 133f f108 1fbf b292 973d 429b 01bf
000001f0: 6e14 4f3d 475c 10bd e2a9 0d3e c10d 623e
00000200: d81c babe 4b78 f5be b7e3 1bbf e4bc 41bf
00000210: 1e04 0a3e e2e9 3abe f35d fdbe decf d43e
00000220: 408d 163e 1531 c43e 3549 4abe d76e ffbb
00000230: 06e8 83bd d373 d7be f3be ca3e 6c5e 923d
00000240: ed97 0f3f 4aea 97bd f7b5 53be 5568 74be
00000250: 2bba 1dbe 65b3 943d 9770 35bd ec41 9e3e
00000260: f61d 20bf 28e8 fa3c a1e9 db3d b8ca edbe
00000270: 9042 b23e dca5 ab3d d27f 4c3e 32e1 4dbe
00000280: 6bb1 0a3e 0903 103f 84b8 d3be 208e 1ebe
00000290: ef72 2c3e a220 b3bd 637d 4d3f 9227 c33c
000002a0: 03fd a93e b43f e2be b9fd e63e 56a0 1e3e
000002b0: f928 343f 0da6 71bd a1ec 4abe acf2 f33d
000002c0: aacc b93e 1854 2abf 039a af3d 2018 28bf
000002d0: 3a4b 98be 9426 f5bd edec b7bd d9af 163e
000002e0: a7b3 663d 618c ecbe b36c 0f3f 27f4 74bf
000002f0: 7c8a 9bbc 52af 8e3e ab60 473e f3e4 b0bd
00000300: 2b44 e6be bad7 0dbe 882d 8dbe ab5e 8fbd
00000310: f814 383e aa79 cc3e 5d31 95be a5bc 67be
00000320: e9b7 4dbf 5639 e93d 5c54 163e 77cf dc3d
00000330: 6ed1 c6bd 4111 a8be 51fb 66be 7256 24bf
00000340: 6134 07bd 5fdb d6bd 3777 f43e 23be 38be
00000350: 7280 b0bd f065 4a3e 0880 3fbd d3e5 363f
00000360: 5209 633e 0fd0 663e aafc 5b3e e84b abbe
00000370: 9a8c 633d 21f6 28bf 792b 29be b524 2cbe
00000380: 9eef b1bd b028 ccbe dd6a 1e3f ed38 82bd
00000390: 95f0 373f ca68 ea3e 1e4f eb3d 3057 b33c
000003a0: 9cc7 da3e 7b36 f3be 8bdc ee3e 24c4 1abf
000003b0: 4ffb 7b3d 5c85 77bd ba25 4bbb 7f40 b4be
000003c0: 6970 e93e 8f02 a33e 4e12 933e 2880 053f
000003d0: 08d7 2d3d fa15 e23e 53d5 07bc b38a 80be
000003e0: 5ca7 5bbe 693d 823b 7961 33be 13a2 183e
000003f0: 1202 bd3e d09a 7dbe 25b3 efbe 3fa1 b43e

actor.0.bias f4 [64]
0.20400742 -0.11462797 -0.10166369 0.28712776 0.08446822 0.2970222 0.14656271 0.28877684
-0.043624215 0.04186141 -0.322502 -0.25876233 0.34118864 0.26055995 0.28083426 -0.06798121
-0.022271525 -0.21689183 0.32207894 0.037348323 0.19024345 0.16487637 0.26140732 -0.08379352
-0.1753465 0.24267016 0.3052187 0.11491783 -0.06598733 0.42251104 -0.35815954 0.07334662
-0.16438416 -0.3559227 -0.36097848 -0.07017083 -0.04045208 -0.07747143 -0.18599857 -0.0015750705
0.3993515 -0.062013175 0.29757106 0.29499257 -0.087204434 -0.170943 0.050226934 -0.021738743
0.15427838 -0.31173497 0.3089278 -0.2781898 -0.24524693 -0.10956856 -0.15046129 0.02668922
0.02122584 0.10076345 -0.2055836 0.17642076 0.14407171 0.050244518 0.0010535079 -0.16919017
00000000: 52e7 503e 12c2 eabd 0d35 d0bd 6902 933e
00000010: adfd ac3d 4b13 983e 8914 163e 8fda 933e
00000020: 4eaf 32bd df76 2b3d fb1e a5be 7f7c 84be
00000030: 47b0 ae3e 1d68 853e 82c9 8f3e bc39 8bbd
00000040: c672 b6bc e418 5ebe 88e7 a43e 8efa 183d
00000050: 2ecf 423e 5ad5 283e 2ed7 853e f09b abbd
00000060: 088e 33be 877e 783e a045 9c3e 0a5a eb3d
00000070: 5e24 87bd 5e53 d83e b060 b7be c136 963d
00000080: 5254 28be 803b b6be 2cd2 b8be b9b5 8fbd
00000090: 15b1 25bd 57a9 9ebd 6976 3ebe 9972 ceba
000000a0: cd77 cc3e 8701 7ebd 3c5b 983e 4409 973e
000000b0: 3d98 b2bd af0b 2fbe c2ba 4d3d 7315 b2bc
000000c0: 27fb 1d3e ba9b 9fbe c92b 9e3e e56e 8ebe
000000d0: 0322 7bbe 7b65 e0bd 8612 1abe 5aa3 da3c
000000e0: d0e1 ad3c 115d ce3d 8284 52be a5a7 343e
000000f0: 8987 133e 32cd 4d3d dc15 8a3a 3040 2dbe

actor.2.weight f4 [64, 64]
-0.0730486 0.14054018 -0.08185179 -0.13389908 -0.17937 -0.17172214 -0.05117353 -0.11688867
0.14611001 -0.16072574 0.30388469 -0.11530266 -0.22207202 -0.19777565 -0.049102698 0.26579365
-0.10918833 0.18515247 -0.6344191 0.02177481 -0.056084976 -0.095519744 -0.06546273 0.3518794
0.04242957 0.0152441915 -0.5784244 -0.35501966 0.095860615 -0.2920616 0.40815738 0.037007038
0.090260565 0.45554656 0.58339345 -0.10936482 0.21767429 -0.17330463 0.19575574 -0.15504965
-0.21760093 0.3074265 -0.12796259 -0.30935678 0.18247251 0.003661138 0.00045131988 -0.0178181
0.3033674 0.19219285 -0.27515724 0.31344146 0.1275306 0.31998023 0.20879315 0.18842205
-0.16582963 -0.27879387 0.264612 -0.35844937 -0.16306855 -0.32173383 -0.07621774 -0.03853796
0.11608818 -0.2945834 -0.090738446 0.15980244 0.2920159 0.17063928 -0.09247976 -0.0658877
0.046891235 -0.101003766 -0.144373 0.11216142 0.1342301 -0.069524966 0.13296914 -0.33051777
0.06407257 -0.14769843 0.12661384 0.17592162 0.0854451 0.1668836 0.07176341 -0.3123202
-0.08646252 0.059654444 0.31226328 -0.05536431 -0.012973017 -0.058589924 -0.489092 -0.008480978
0.13787504 -0.2651915 -0.12228752 -0.13352077 -0.3620473 0.16275407 -0.10259713 -0.057359632
0.30161667 -0.23686355 0.008160633 0.034705028 -0.12277053 -0.0038323572 -0.09998679 0.1334804
-0.0049011577 -0.06307859 0.27096674 -0.3108945 -0.36746567 -0.023435902 0.029616611 -0.11169087
0.1629324 0.24700175 0.1385738 0.34976947 0.2550784 0.088804156 0.18967162 0.09634331
0.20570545 -0.2538443 -0.023481809 -0.2626447 -0.437532 0.4634703 0.109744415 0.22359519
-0.24919139 0.2823369 -0.22006 0.15023324 -0.03572804 -0.005795704 -0.06445667 -0.088984676
-0.035127982 -0.96257865 -0.053552125 0.5285672 0.45255578 0.12516047 0.26382577 0.1623875
0.38864404 -0.36325908 -0.022783821 0.0024292 -0.21226011 -0.061889775 0.2072193 -0.20495912
0.48735088 -0.5280833 0.32127854 -0.08799 -0.08156612 0.12579967 -0.11839808 0.059969988
-0.24231194 -0.1463238 -0.16729072 0.072141275 -0.4554831 0.16192597 0.08891214 0.10311217
-0.13926563 0.14365785 -0.4691762 -0.38064545 -0.45680544 -0.13814414 -0.15241572 -0.059437193
0.014271849 -0.25943857 0.29137036 -0.32066828 0.34613267 0.17318636 -0.28780743 0.052843858
0.017675256 -0.120219685 -0.10600428 0.26097697 0.29970753 -0.013666385 0.002280667 0.018260485
-0.06877013 -0.11950202 -0.021274537 0.1312477 0.09569377 0.13644122 0.06714186 -0.26060602
-0.12475689 0.012321041 0.4367098 -0.009436314 0.10053649 0.18707609 0.02338517 -0.3110284
-0.20489785 0.08961304 0.36128658 0.16631581 0.07347922 0.1325264 -0.37676102 0.08867873
-0.25747526 -0.1650658 -0.46780995 -0.08252518 -0.2581694 0.09333043 -0.0046644425 -0.0038898352
0.3241895 -0.06089563 0.078215756 0.15670483 -0.06711603 0.058607616 0.031853214 0.07363577
0.03239159 -0.0044657015 0.27105597 -0.07679719 0.06779921 -0.1418622 0.09053966 0.05253072
0.079205714 0.17644234 -0.2232038 0.23510022 -0.09632443 0.0048744995 0.20255423 -0.055624396
00000000: 819a 95bd c4e9 0f3e e9a1 a7bd d71c 09be
00000010: c5ac 37be eed7 2fbe 569b 51bd 5463 efbd
00000020: dd9d 153e 4a95 24be c696 9b3e cd23 ecbd
00000030: d966 63be b385 4abe e91f 49bd 1b16 883e
00000040: 229e dfbd 9c98 3d3e 4a69 22bf 1661 b23c
00000050: 5cb9 65bd db9f c3bd 5311 86bd 8929 b43e
00000060: a1ca 2d3d c6c2 793c 9f13 14bf 23c5 b5be
00000070: 9252 c43d 1989 95be 01fa d03e b194 173d
00000080: 88da b83d 663d e93e 4659 153f aafa dfbd
00000090: 02e6 5e3e c576 31be 3174 483e 56c5 1ebe
000000a0: c7d2 5ebe 0267 9d3e a008 03be 0364 9ebe
000000b0: 13da 3a3e b4ef 6f3b 219f ec39 44f7 91bc
000000c0: f952 9b3e 34ce 443e 69e1 8cbe 667b a03e
000000d0: 6297 023e 73d4 a33e dfcd 553e b6f1 403e
000000e0: 3ecf 29be 12be 8ebe 397b 873e ad86 b7be
000000f0: 71fb 26be 4cba a4be 0c18 9cbd fbd9 1dbd
00000100: a4bf ed3d a3d3 96be 14d5 b9bd 40a3 233e
00000110: 1c83 953e 10bc 2e3e 0766 bdbd 21f0 86bd
00000120: 0611 403d 10db cebd 84d6 13be e3b4 e53d
00000130: 9e73 093e 1b63 8ebd 1029 083e a039 a9be
00000140: 7b38 833d 423e 17be 0fa7 013e cc24 343e
00000150: d7fd ae3d 89e3 2a3e b2f8 923d 6fe8 9fbe
00000160: 4313 b1bd 3858 743d f9e0 9f3e b0c5 62bd
00000170: c78c 54bc fdfb 6fbd 446a fabe cdf3 0abc
00000180: 1d2f 0d3e 2ec7 87be e171 fabd abb9 08be
00000190: 445e b9be 01a9 263e 721e d2bd eff1 6abd
000001a0: 806d 9a3e 5c8c 72be 2db4 053c dc26 0e3d
000001b0: 1e6f fbbd 4928 7bbb e0c5 ccbd 16af 083e
000001c0: e499 a0bb 592f 81bd 27bc 8a3e 902d 9fbe
000001d0: 7624 bcbe a6fc bfbc 899e f23c 2fbe e4bd
000001e0: c0d7 263e 07ee 7c3e 4ae6 0d3e fc14 b33e
000001f0: a399 823e f4de b53d 4739 423e a44f c53d
00000200: 73a4 523e e1f7 81be ec5c c0bc 5e79 86be
00000210: 3204 e0be fb4b ed3e aec1 e03d 23f6 643e
00000220: 072c 7fbe 768e 903e 6957 61be bed6 193e
00000230: 9157 12bd e4e9 bdbb dc01 84bd 993d b6bd
00000240: 5ce2 0fbd 8e6b 76bf 7959 5bbd 2e50 073f
00000250: 64b5 e73e 112a 003e 2c14 873e e948 263e
00000260: 5afc c63e 18fd b9be 23a5 babc 3733 1f3b
00000270: b75a 59be 2280 7dbd 4c31 543e cee0 51be
00000280: 0e86 f93e 7830 07bf 9f7e a43e 1a34 b4bd
00000290: 230c a7bd a1d1 003e b17a f2bd 17a3 753d
000002a0: 9f20 78be e8d5 15be 424e 2bbe cebe 933d
000002b0: 1535 e9be eccf 253e 9117 b63d 792c d33d
000002c0: a69b 0ebe 0b1b 133e dd37 f0be f6e3 c2be
000002d0: 67e2 e9be a875 0dbe de12 1cbe 6a74 73bd
000002e0: 79d4 693c 22d5 84be 7f2e 953e a22e a4be
000002f0: 4d38 b13e c457 313e 7f5b 93be cd72 583d
00000300: b3cb 903c bd35 f6bd c618 d9bd c69e 853e
00000310: 4473 993e f9e8 5fbc 3e77 153b 0397 953c
00000320: 5bd7 8cbd 7abd f4bd f047 aebc cc65 063e
00000330: 18fb c33d 3fb7 0b3e ac81 893d 276e 85be
00000340: 8a80 ffbd 31de 493c 6d98 df3e c59a 1abc
00000350: 13e6 cd3d e090 3f3e 4292 bf3c 1d3f 9fbe
00000360: bed0 51be 0b87 b73d 8efa b83e b14e 2a3e
00000370: 467c 963d 00b5 073e d2e6 c0be 329d b53d
00000380: ccd3 83be 0207 29be c984 efbe f602 a9bd
00000390: c82e 84be 0624 bf3d 2ed8 98bb 9bec 7ebb
000003a0: 2bfc a53e b26d 79bd 952f a03d 3b77 203e
000003b0: 2174 89bd 8a0e 703d 8478 023d 5ace 963d
000003c0: 0bad 043d 0555 92bb d9c7 8a3e d847 9dbd
000003d0: 50da 8a3d 5344 11be db6c b93d 742a 573d
000003e0: 9b36 a23d 4dad 343e 898f 64be 1dbe 703e
000003f0: be45 c5bd 44ba 9f3b 606a 4f3e 68d6 63bd

actor.2.bias f4 [64]
-0.10641112 -0.05315276 0.17658739 -0.053355068 -0.03527503 -0.2717552 -0.20239654 0.08057536
0.04731524 -0.11860078 -0.01499825 -0.16095766 0.2084946 0.0016554083 0.09901157 -0.06435237
0.050463196 -0.20496866 0.09614064 -0.16345978 -0.018957606 0.31427854 0.14794238 -0.031480204
-0.04319504 -0.23914246 -0.15824205 0.039421763 -0.22513781 0.016808536 -0.21432436 -0.2527834
0.16658941 -0.16811486 0.17832576 -0.107316285 -0.18399133 -0.023472873 0.17042015 0.05660223
0.16172858 0.26877263 -0.1042535 -0.16806659 -0.073174074 0.056317966 -0.21042947 0.1960901
0.21097934 -0.028825486 0.013810837 -0.13968413 0.2311661 0.07057488 -0.2519773 0.24305056
0.004388806 0.035215463 -0.039498 0.00068163994 0.09086261 -0.11004661 0.11646818 0.09449727
00000000: 13ee d9bd b5b6 59bd 53d3 343e d88a 5abd
00000010: 8d7c 10bd 7f23 8bbe 0a41 4fbe b204 a53d
00000020: a0cd 413d f7e4 f2bd 38bb 75bc 16d2 24be
00000030: 9c7f 553e 49fa d83a 94c6 ca3d 2dcb 83bd
00000040: 7fb2 4e3d 4ee3 51be 62e5 c43d 0062 27be
00000050: fb4c 9bbc 1ee9 a03e 357e 173e 63f1 00bd
00000060: 48ed 30bd c3e1 74be 340a 22be b778 213d
00000070: 878a 66be 0eb2 893c d877 5bbe d36c 81be
00000080: 6a96 2a3e 4d26 2cbe 079b 363e a4c8 dbbd
00000090: 3968 3cbe 2f4a c0bc 9f82 2e3e bdd7 673d
000000a0: 2d9c 253e 919c 893e dc82 d5bd a619 2cbe
000000b0: 4adc 95bd abad 663d d37a 57be d8cb 483e
000000c0: f80a 583e 6d23 ecbc d946 623c 5b09 0fbe
000000d0: ceb6 6c3e 9089 903d 2b03 81be 3fe2 783e
000000e0: f9cf 8f3b 173e 103d a8c8 21bd 15b0 323a
000000f0: 2d16 ba3d 1e60 e1bd df86 ee3d c987 c13d

actor.4.weight f4 [9, 64]
0.17997064 -0.18007287 -1.2278508 0.016296517 -0.36675417 1.2922491 0.8532331 -0.007468744
0.09040953 -0.004660877 -0.22528957 -0.09647472 0.3448134 -0.11908774 -0.13079879 0.32732296
-0.51676637 -0.16299216 -0.124539025 0.049217038 0.2790768 0.078864396 -0.22563975 -0.53644025
-0.38946298 -0.23501976 0.5667183 -0.7602096 -0.2841248 -0.046448063 -0.29915795 0.9440451
0.032130398 -0.11511152 -0.35202706 -0.35561332 0.968528 -0.7053102 -0.08727482 -0.43424618
0.036980003 0.33920926 1.2445918 -0.15549484 0.21350215 -0.13839467 0.12211783 0.37349787
-0.008351757 -0.24876541 -0.42711437 0.9631448 -0.5265683 0.4277865 -0.06087385 0.38431212
-0.3151346 0.21075757 -0.09825383 -0.4523227 -0.34152016 -0.39772567 0.14832667 -1.0289204
-0.17709194 0.19401085 0.0026600887 0.13845186 -0.018347478 0.08307262 -0.16578718 -0.025565682
-0.24143365 -0.27374446 -0.012623583 -0.09482064 0.049750913 -0.20123868 0.2554539 -0.31489956
-0.07578122 -0.0657784 -0.1615083 -0.24336946 0.13952245 0.029437054 0.2931632 -0.026994351
-0.15533264 -0.35497838 -0.04797273 0.16433549 -0.1010055 0.34344858 -0.10640003 0.084921
0.1793689 0.011695233 0.28283298 0.019675214 0.129491 0.043101773 -0.05299499 -0.07609509
0.19475746 0.06910714 0.11601586 0.023627914 -0.18399821 -0.14412095 0.00044768778 0.13768029
0.19343753 0.043090023 -0.12776905 -0.08397057 0.23804621 -0.020045947 -0.18445408 0.056884382
-0.07587386 0.012163515 -0.0844135 -0.12689546 0.33531085 -0.06887929 0.015745057 -0.010636273
-0.29479098 0.36845478 0.018757375 0.3024119 0.029642818 -0.010739337 -0.26392657 -0.22140984
-0.18369633 -0.19663139 0.19670387 0.0033872032 0.054247104 -0.21621348 0.31245488 -0.26589805
-0.03832496 0.0067911274 -0.14232689 -0.13169794 0.012895722 0.024805002 0.3539731 0.11945601
-0.09705083 -0.29321256 -0.25363752 0.15763725 0.087943934 0.21228522 0.084620245 0.10392717
0.24650128 0.107703455 0.25413764 0.15816881 -0.08927847 0.0007567053 -0.21744157 0.22545116
0.42897737 -0.19496527 0.041596517 0.17022893 -0.13418159 -0.35608792 0.12709501 -0.025140764
0.066035934 0.08840284 -0.010174816 -0.017341433 0.24091698 -0.096853234 -0.29000777 -0.107891634
-0.15196782 -0.047212083 -0.20556705 -0.15672816 0.21487111 -0.01748276 -0.09681591 0.010965355
0.09222685 -0.20595384 0.10422842 -0.15181303 -0.18420464 -0.22686772 -0.065875106 0.2630845
0.21322125 0.06435614 -0.18058737 -0.10622159 0.1128669 0.07136795 -0.13078517 -0.020864068
0.24572617 -0.15583116 0.1450539 0.09905098 -0.13140522 0.14812563 0.039031766 -0.1072805
-0.064601526 -0.019469282 -0.03875723 0.02754259 -0.29052803 0.07827108 -0.28223732 -0.1702921
0.056332543 -0.14286056 -0.03197758 -0.25866568 -0.06446928 0.1743752 0.27536237 -0.24254376
-0.22120363 0.33243194 -0.24356756 -0.12546994 0.0042895335 0.23237109 -0.15543652 0.06706818
0.14733425 -0.17217034 -0.025485715 -0.10818689 -0.08533302 0.10335687 -0.07590623 0.2527802
-0.077339806 0.18976736 0.24390191 0.10980501 -0.04126751 -0.14179273 0.24261926 0.13033825
00000000: 394a 383e 0665 38be 372a 9dbf 4680 853c
00000010: 34c7 bbbe 6b68 a53f 7c6d 5a3f 5ebc f4bb
00000020: a228 b93d 45ba 98bb 4fb2 66be 8a94 c5bd
00000030: 628b b03e 46e4 f3bd 1ef0 05be e096 a73e
00000040: cd4a 04bf 6be7 26be 510e ffbd ce97 493d
00000050: 28e3 8e3e a883 a13d 1b0e 67be 2654 09bf
00000060: b167 c7be 05a9 70be 7314 113f 199d 42bf
00000070: ce78 91be 5340 3ebd 3b2b 99be f1ac 713f
00000080: 2a9b 033d 97bf ebbd e43c b4be f312 b6be
00000090: 73f1 773f 368f 34bf 24bd b2bd 8455 debe
000000a0: 5878 173d d6ac ad3e c94e 9f3f 0a3a 1fbe
000000b0: 4fa0 5a3e 55b7 0dbe ea18 fa3d 1d3b bf3e
000000c0: cfd5 08bc 5cbc 7ebe bcae dabe a890 763f
000000d0: 2ecd 06bf d506 db3e dc56 79bd 8fc4 c43e
000000e0: 5359 a1be d5d0 573e 4e39 c9bd d796 e7be
000000f0: bbdb aebe b3a2 cbbe f2e2 173e aab3 83bf
00000100: 9757 35be c8aa 463e e254 2e3b 53c6 0d3e
00000110: 734d 96bc fa21 aa3d 1dc4 29be 1f6f d1bc
00000120: 623a 77be 3c28 8cbe 25d3 4ebc 5331 c2bd
00000130: 9dc7 4b3d 8311 4ebe dbca 823e 843a a1be
00000140: 2f33 9bbd d3b6 86bd 6f62 25be d835 79be
00000150: f9de 0e3e fa25 f13c 7d19 963e 4223 ddbc
00000160: 850f 1fbe babf b5be 0e7f 44bd 9047 283e
00000170: f9db cebd 7ed8 af3e 42e8 d9bd 10eb ad3d
00000180: 7bac 373e 5d9d 3f3c 7ccf 903e ea2d a13c
00000190: 4a99 043e 7c8b 303d 4611 59bd bed7 9bbd
000001a0: 806e 473e 0b88 8d3d b999 ed3d 548f c13c
000001b0: 076a 3cbe 7194 13be a3b7 ea39 10fc 0c3e
000001c0: 7d14 463e 2a7f 303d e4d5 02be c3f8 abbd
000001d0: 63c2 733e 6637 a4bc 88e1 3cbe 99ff 683d
000001e0: c163 9bbd 7b49 473c fce0 acbd e2f0 01be
000001f0: ddad ab3e 9610 8dbd c7fb 803c c343 2ebc
00000200: d8ee 96be 1ba6 bc3e 11a9 993c bcd5 9a3e
00000210: 7fd5 f23c 0bf4 2fbc 6221 87be 43b9 62be
00000220: e41a 3cbe bd59 49be bd6c 493e d7fb 5d3b
00000230: 3632 5e3d 1167 5dbe 16fa 9f3e ca23 88be
00000240: a2fa 1cbd 1b88 de3b 24be 11be d3db 06be
00000250: 9448 533c dc33 cb3c f63b b53e 5aa5 f43d
00000260: 96c2 c6bd f51f 96be c7dc 81be a96b 213e
00000270: f31b b43d 4c61 593e 614d ad3d c5d7 d43d
00000280: d56a 7c3e a193 dc3d 541e 823e 01f7 213e
00000290: a1d7 b6bd a25d 463a 01a9 5ebe abdc 663e
000002a0: eca2 db3e faa4 47be 1c61 2a3d 7e50 2e3e
000002b0: e666 09be 2851 b6be 3225 023e 01f4 cdbc
000002c0: d93d 873d 8c0c b53d 45b4 26bc 9f0f 8ebc
000002d0: f1b2 763e fd5a c6bd e67b 94be 4af6 dcbd
000002e0: 749d 1bbe 7561 41bd 2b80 52be 597d 20be
000002f0: 2c07 5c3e 0138 8fbc 6b47 c6bd 08a8 333c
00000300: 6ee1 bc3d 90e5 52be b675 d53d e074 1bbe
00000310: 24a0 3cbe 0350 68be 87e9 86bd 03b3 863e
00000320: ac56 5a3e 27cd 833d e5eb 38be b48a d9bd
00000330: c326 e73d 5c29 923d 8cec 05be 1feb aabc
00000340: a49f 7b3e 3492 1fbe 0289 143e 3ddb ca3d
00000350: 178f 06be 3fae 173e c6df 1f3d e1b5 dbbd
00000360: ce4d 84bd 0b7e 9fbc e7bf 1ebd ffa0 e13c
00000370: 17c0 94be 974c a03d 6981 90be 0d61 2ebe
00000380: f4bc 663d 0a4a 12be ecfa 02bd d46f 84be
00000390: 7808 84bd 6a8f 323e 4cfc 8c3e 645d 78be
000003a0: 3483 62be 8534 aa3e c669 79be 317b 00be
000003b0: 378f 8c3b b0f2 6d3e c02a 1fbe 0b5b 893d
000003c0: cade 163e 6c4d 30be 6bc7 d0bc 1791 ddbd
000003d0: 14c3 aebd c4ac d33d ba74 9bbd 686c 813e
000003e0: 5564 9ebd 6052 423e 6cc1 793e 73e1 e03d
000003f0: 1f08 29bd 1d32 11be 2f71 783e 6477 053e

actor.4.bias f4 [9]
-0.07031802 -0.06002343 -0.08638675 0.21654958 0.09473396 0.05462524 0.09328379 0.16482764
-0.25445285
00000000: e502 90bd 21db 75bd 89eb b0bd 2cbf 5d3e
00000010: e103 c23d b7be 5f3d 920b bf3d 94c8 283e
00000020: a547 82be

critic.0.weight f4 [64, 7]
-0.42556262 0.5506582 -0.15456156 -0.33946687 -0.6118856 0.7004288 0.16958207 -0.032522798
-0.34256038 0.064835005 0.038268525 0.36260974 2.3629405 -0.32903123 -0.06323505 0.053825583
-0.056940522 0.23105255 -0.32956934 -2.4725852 -0.19328454 -0.4124817 0.4341261 -0.17156233
-0.3139802 0.37082776 0.544172 0.054160077 0.0119664995 -0.30364564 0.25280836 -0.013531263
0.09330897 1.5612569 -0.057759274 0.14476202 -0.27926266 0.05250616 0.2688196 -0.104444385
1.6122043 0.16434567 -0.09331044 -0.07208227 0.048375838 0.18154466 -0.41352552 2.337068
-0.11203669 0.43726158 -0.13754077 -0.24897955 0.2526505 0.33000377 -1.6206559 0.09842032
0.2280206 0.32594362 -0.15484591 -0.35671842 0.18060496 -1.9287103 -0.17381181 0.15793844
-0.34290656 0.23801678 -0.032982625 0.7079573 -2.3080413 0.11013939 0.33775195 0.42303357
-0.38019103 -0.30411863 0.043609656 -1.7028288 -0.024020616 -0.07012893 0.24406935 0.05783247
-0.07911946 0.2691607 2.5351453 0.16551465 -0.13895005 0.13853134 0.09738434 -0.14984402
0.3023492 2.6428385 -0.077135526 -0.33923534 0.34192768 -0.08470237 -0.044001944 0.302114
-0.6794771 -0.11616444 0.3648762 -0.18552434 -0.07859605 0.5099034 0.32701528 -1.3995364
-0.10291191 0.33585763 -0.5703166 0.23102377 0.5096724 0.24809949 -1.5782875 -0.021866858
-0.15517665 -0.15852726 0.18179068 0.089179456 0.39119917 -1.8326576 -0.09412585 -0.07399031
0.26889542 -0.12702215 0.24572715 -0.015634626 2.2278059 -0.27589345 0.16232572 -0.033724226
-0.09912913 0.05478708 0.12533858 0.93586504 -0.028919648 -0.22901577 -0.097711705 -0.30421585
-0.47952914 0.3326283 -0.26398245 0.20945138 -0.32893762 -0.006307435 0.09703211 -0.23171121
0.16625433 -1.8652072 0.27492255 0.24217157 0.3089289 0.2135624 -0.34888154 0.30330503
-2.0981662 0.15221602 -0.13009772 0.13001111 0.062378965 0.01658124 0.12412126 2.7546782
0.21657634 0.3275447 -0.31851712 0.19811733 0.11307692 0.32177702 0.44658765 -0.16403584
-0.36026546 -0.0016110431 0.3531489 -0.1373851 -0.26108563 1.550104 0.13430826 -0.2993828
-0.17103301 0.31918034 0.08311893 -0.04473292 1.9915731 0.2042045 -0.2003646 -0.4282122
-0.00017155784 0.3838174 0.3584875 1.713954 0.07322988 0.059083775 0.17464216 -0.08037115
-0.004958575 -0.21505594 0.92019665 -0.23615104 -0.21436207 -0.046100907 0.122310914 0.15738963
-0.21564837 -1.937883 0.007965897 -0.24268135 0.021977128 0.18307331 -0.0371243 0.083796166
1.4309673 -0.090523556 0.15157765 -0.14053546 0.24238409 -0.41212848 0.50203276 -2.3644586
0.24394917 0.23326153 -0.3813212 0.1975521 0.2269979 0.6082436 -0.2833065 0.01457224
-0.33343354 -0.28741133 0.3109556 -0.28907835 -0.2643274 -2.1482084 0.23183642 0.4439604
-0.18827093 -0.20547798 0.13840656 0.052297775 2.4115052 -0.16221915 0.15481909 0.22210227
0.057728615 0.040078066 0.17998388 2.4351184 -0.20546874 -0.037838247 -0.19831407 0.06325052
0.088344395 -0.21155198 2.0771399 -0.04827086 -0.26558778 0.34469146 -0.026757326 -0.12526506
00000000: 58e3 d9be f0f7 0c3f 6345 1ebe 9ace adbe
00000010: 89a4 1cbf 4d4f 333f eca6 2d3e a036 05bd
00000020: 1364 afbe 37c8 843d 75bf 1c3d fca7 b93e
00000030: 6b3a 1740 c876 a8be 6181 81bd 3778 5c3d
00000040: 773a 69bd 0a99 6c3e 50bd a8be d63e 1ec0
00000050: 62ec 45be cd30 d3be c745 de3e 09ae 2fbe
00000060: 03c2 a0be 23dd bd3e db4e 0b3f f5d6 5d3d
00000070: 230f 443c 7177 9bbe 1970 813e 3bb2 5dbc
00000080: c618 bf3d 44d7 c73f fd94 6cbd 7f3c 143e
00000090: 84fb 8ebe b310 573d b9a2 893e f0e6 d5bd
000000a0: b65c ce3f 3b4a 283e 8b19 bfbd df9f 93bd
000000b0: be25 463d d8e6 393e 9eb9 d3be 8692 1540
000000c0: 7e73 e5bd c0e0 df3e 7dd7 0cbe 7ff4 7ebe
000000d0: 685b 813e 41f6 a83e a771 cfbf 9890 c93d
000000e0: 3b7e 693e 15e2 a63e ed8f 1ebe cca3 b6be
000000f0: 82f0 383e fbdf f6bf b9fb 31be 9dba 213e
00000100: 7391 afbe acba 733e ca18 07bd b13c 353f
00000110: f3b6 13c0 c390 e13d d3ed ac3e db97 d83e
00000120: 66a8 c2be 70b5 9bbe 0aa0 323d 4bf6 d9bf
00000130: e2c6 c4bc c29f 8fbd 51ed 793e bde1 6c3d
00000140: 6209 a2bd 6ecf 893e d23f 2240 ac7c 293e
00000150: ec48 0ebe 29db 0d3e 7171 c73d b670 19be
00000160: 84cd 9a3e 4424 2940 3bf9 9dbd 41b0 adbe
00000170: 2511 af3e 7078 adbd 623b 34bd b0ae 9a3e
00000180: 36f2 2dbf 9fe7 edbd 0ed1 ba3e 18fa 3dbe
00000190: f7f6 a0bd 0789 023f 8c6e a73e 0224 b3bf
000001a0: 7bc3 d2bd 88f5 ab3e 4500 12bf 7f91 6c3e
000001b0: e479 023f cb0d 7e3e 5305 cabf 2022 b3bc
000001c0: a1e6 1ebe f854 22be 5627 3a3e b8a3 b63d
000001d0: 424b c83e 8694 eabf 0ec5 c0bd 3b88 97bd
000001e0: a9ac 893e 1812 02be e69f 7b3e 3014 80bc
000001f0: 5f94 0e40 e841 8dbe b738 263e 6a22 0abd
00000200: 3704 cbbd 6b68 603d c258 003e da94 6f3f
00000210: e6e8 ecbc 1c83 6abe 131d c8bd 2ec2 9bbe
00000220: d884 f5be 424e aa3e b528 87be 6c7a 563e
00000230: 836a a8be 9aae cebb c5b8 c63d b445 6dbe
00000240: 933e 2a3e 1cbf eebf a6c2 8c3e d3fb 773e
00000250: ee2b 9e3e 1ab0 5a3e 9aa0 b2be cc4a 9b3e
00000260: 5b48 06c0 84de 1b3e 5638 05be a221 053e
00000270: 1681 7f3d 61d5 873c 4a33 fe3d a64c 3040
00000280: 30c6 5d3e f0b3 a73e ad14 a3be 45df 4a3e
00000290: df94 e73d f5bf a43e 23a7 e43e 03f9 27be
000002a0: b774 b8be a329 d3ba efcf b43e aeae 0cbe
000002b0: 04ad 85be cf69 c63f 1b88 093e b448 99be
000002c0: 4723 2fbe 9b6b a33e 423a aa3d de39 37bd
000002d0: deeb fe3f fc1a 513e 612c 4dbe a13e dbbe
000002e0: 35e4 33b9 b783 c43e ac8b b73e d862 db3f
000002f0: 8cf9 953d d401 723d 65d5 323e a199 a4bd
00000300: 8b7b a2bb a037 5cbe 0292 6b3f 94d1 71be
00000310: bb81 5bbe 4ed4 3cbd 257e fa3d bf2a 213e
00000320: edd2 5cbe 8d0c f8bf 6583 023c 7681 78be
00000330: 6109 b43c 9277 3b3e a60f 18bd 539d ab3d
00000340: f029 b73f 6a64 b9bd 2c37 1b3e 87e8 0fbe
00000350: 8933 783e 8102 d3be 3885 003f 4a53 17c0
00000360: d0cd 793e 1cdc 6e3e 883c c3be 194b 4a3e
00000370: 2372 683e dab5 1b3f 8d0d 91be 68c0 6e3c
00000380: cdb7 aabe 9427 93be 9335 9f3e 1402 94be
00000390: ec55 87be 3f7c 09c0 8766 6d3e c74e e33e
000003a0: 18ca 40be d268 52be 73ba 0d3e 3136 563d
000003b0: 1a56 1a40 c71c 26be e588 1e3e c76e 633e
000003c0: d774 6c3d e628 243d b24d 383e fbd8 1b40
000003d0: 6666 52be 47fc 1abd d812 4bbe 7d89 813d
000003e0: e8ed b43d 15a1 58be dcef 0440 aab7 45bd
000003f0: 1ffb 87be 667b b03e 2e32 dbbc 7c45 00be

critic.0.bias f4 [64]
-0.19962761 -0.19663863 0.21315695 0.052249406 -0.13957657 -0.3326469 -0.2017977 -0.0002597603
0.21828343 0.0688471 0.14964183 -0.32219765 -0.085970625 0.014509725 0.12275976 0.2787952
0.18636145 -0.19939372 -0.11009059 0.09300732 0.3329186 -0.26638228 -0.36156756 0.21376924
-0.2002282 -0.18695763 0.068924256 0.029829508 0.12328492 -0.06921853 0.3513755 -0.09804895
0.39594766 -0.21357858 -0.17147823 -0.04075813 -0.2742824 -0.46509427 0.16735788 0.059231628
-0.14601336 0.31568453 -0.19581679 0.082406566 0.15386204 0.20666938 -0.047434546 0.18365987
0.0007817776 0.2222124 0.11186768 -0.01644193 -0.060841918 -0.06399479 -0.30663598 0.20767576
-0.2201726 0.08369525 -0.24083872 -0.28228232 -0.2986788 0.30356044 0.15111038 -0.05999173
00000000: 2e6b 4cbe a35b 49be d145 5a3e 7903 563d
00000010: 29ed 0ebe b250 aabe 0ea4 4ebe 7030 88b9
00000020: b185 5f3e b5ff 8c3d b53b 193e 17f7 a4be
00000030: 5e11 b0bd 33ba 6d3c 7869 fb3d 3fbe 8e3e
00000040: 89d5 3e3e de2d 4cbe 2d77 e1bd 9f7a be3d
00000050: 4f74 aa3e 4263 88be 621f b9be 53e6 5a3e
00000060: 9f08 4dbe d271 3fbe 2928 8d3d 035d f43c
00000070: ce7c fc3d 72c2 8dbd 7de7 b33e e3cd c8bd
00000080: a7b9 ca3e 58b4 5abe fd97 2fbe fff1 26bd
00000090: be6e 8cbe d620 eebe dd5f 2b3e dd9c 723d
000000a0: 8784 15be 67a1 a13e 3284 48be c6c4 a83d
000000b0: 038e 1d3e 23a1 533e ba4a 42bd 5511 3c3e
000000c0: 35f0 4c3a a68b 633e e21a e53d 3ab1 86bc
000000d0: 6035 79bd b30f 83bd 64ff 9cbe f4a8 543e
000000e0: ed74 61be 6a68 ab3d 6d9e 76be 4f87 90be
000000f0: 6dec 98be 466c 9b3e aebc 1a3e e3b9 75bd

critic.2.weight f4 [64, 64]
-0.065933175 0.117135555 -0.03876895 -0.012961948 -0.020745622 -0.07361791 0.07572716 -0.17951313
-0.12505654 0.074633494 0.096195914 -0.07490527 0.011673813 -0.054787975 0.018824507 0.12924077
-0.103084594 0.1440047 -0.007845475 -0.020709047 0.009875868 -0.058404826 0.11081952 0.04183697
0.09778912 0.059875026 -0.058349542 0.044921525 0.09121381 0.009682205 -0.036366884 0.04967079
0.085998915 -0.13268259 0.081707746 -0.13232799 0.08012068 -0.05285058 0.14088485 -0.061182667
-0.03506907 -0.10362489 0.09517422 -0.030272976 0.04745401 0.111556485 -0.06996431 -0.013134552
0.024220932 -0.06953063 -0.11495796 -0.065771416 0.08718199 -0.016813874 -0.10572195 -0.008622819
-0.008922321 -0.10462509 0.053391483 0.0509767 -0.013265307 0.085785456 -0.080822356 0.13826759
-0.105870456 -0.3822458 0.49608913 0.0037247413 -0.4316453 -0.16129261 -0.57971656 0.4164435
0.33604738 0.4009157 0.21557164 -0.54096156 -0.93524945 0.08936491 0.14368941 0.031017957
0.31786582 -0.10791686 0.041650098 0.11294384 0.24532029 0.220244 -0.5587429 -0.12491149
-0.15737788 -0.3631221 -0.16957378 0.045546554 0.5471421 -0.29811576 0.21135212 -0.095155284
0.1558617 -0.6532558 -0.45362157 -0.43700555 -0.16156264 -0.28880757 1.0722237 -0.0062881163
-0.15717173 0.3639718 -0.49499625 0.5723121 0.41054803 0.22633488 0.09096993 0.21452256
0.18941312 0.06445146 -0.43719658 0.07450205 0.003640295 -0.14150319 -0.9972852 -0.15277997
-0.25386572 -0.08914947 -0.5592791 -0.42381054 0.094177164 0.77528805 -0.0039258515 0.14578483
-0.13379951 -0.0206446 0.11604799 0.0029681567 0.029181985 -0.056031767 -0.020769197 -0.023999248
-0.06448368 0.15905823 0.03144682 0.06694648 -0.13107257 -0.092076056 -0.066316135 -0.09169484
-0.08671746 0.029490666 -0.067989945 0.017884731 0.009834824 -0.12082797 0.085202135 0.00078993186
0.039270744 -0.019561034 -0.097602494 -0.07886515 0.047365814 0.044648163 -0.08023798 -0.07691449
-0.03168369 -0.020707067 -0.05608325 -0.091883115 0.067792 -0.057745613 -0.06564317 -0.09219875
-0.083193354 0.14574224 -0.049011055 -0.13462362 0.101088926 -0.07671685 0.012359441 -0.07143387
-0.1261283 -0.00030434085 0.052743707 0.07495966 0.10825885 0.085337 -0.10741462 0.018384336
-0.0584809 0.053945187 0.015464021 0.08854746 0.035969533 -0.07935241 -0.11848168 -0.06095066
-0.15176934 -0.008548925 -0.04049973 0.08133348 0.11163428 0.037078023 -0.06434515 -0.038373534
0.012090843 -0.051731735 0.036049493 0.014954068 0.0075540803 -0.043439593 -0.07677923 0.023965375
0.07747799 0.0081781205 -0.07826786 -0.009217166 -0.025998857 -0.0406151 -0.100465536 -0.019583708
-0.018601853 -0.05999531 -0.027345141 -0.08518149 -0.036583327 0.08261044 -0.1529426 0.02014107
-0.09226065 0.08582641 -0.08770842 -0.04868559 0.014967811 -0.09557006 0.105162255 -0.07792964
0.071828775 0.0019260581 -0.005154422 -0.09677325 0.05772491 -0.093853824 0.036268897 0.07496096
-0.07154373 -0.060024805 -0.04604816 -0.018253881 0.021292478 -0.057275448 -0.1824258 0.00071558915
0.06773352 0.043992613 -0.11633561 -0.12523586 -0.14235839 0.002950734 0.093542516 0.08412237
00000000: f907 87bd c4e4 ef3d 31cc 1ebd 5a5e 54bc
00000010: b9f2 a9bc fdc4 96bd d716 9b3d 4ad2 37be
00000020: d20e 00be 72d9 983d 5d02 c53d ef67 99bd
00000030: 8543 3f3c 5b69 60bd da35 9a3c b157 043e
00000040: 041e d3bd f875 133e 4f8a 00bc 05a6 a9bc
00000050: 65ce 213c e639 6fbd 58f5 e23d 3e5d 2b3d
00000060: aa45 c83d 843f 753d eeff 6ebd a2ff 373d
00000070: 4ece ba3d 1ca2 1e3c 71f5 14bd 9973 4b3d
00000080: 3320 b03d f2dd 07be 6456 a73d fd80 07be
00000090: 5016 a43d da79 58bd 1e44 103e ad9a 7abd
000000a0: 96a4 0fbd 4939 d4bd b4ea c23d 08ff f7bc
000000b0: 235f 423d ba77 e43d 7349 8fbd 4e32 57bc
000000c0: fa6a c63c 1366 8ebd 146f ebbd 2ab3 86bd
000000d0: 798c b23d 40bd 89bc c084 d8bd b946 0dbc
000000e0: ed2e 12bc ae45 d6bd 07b1 5a3d f2cc 503d
000000f0: bb56 59bc 49b0 af3d 3186 a5bd 0596 0d3e
00000100: 9cd2 d8bd b9b5 c3be 65ff fd3e ca1a 743b
00000110: 9d00 ddbe e429 25be 4e68 14bf 1538 d53e
00000120: 670e ac3e d344 cd3e d0be 5c3e 757c 0abf
00000130: 826c 6fbf f304 b73d 5123 133e 5f19 fe3c
00000140: 4fbf a23e 8403 ddbd 4b99 2a3d 1a4f e73d
00000150: 3e35 7b3e a587 613e c609 0fbf 98d1 ffbd
00000160: ab27 21be 24eb b9be c0a4 2dbe 068f 3a3d
00000170: 8111 0c3f a1a2 98be b16c 583e c6e0 c2bd
00000180: 369a 1f3e c63b 27bf 1641 e8be 31bf dfbe
00000190: ad70 25be 96de 93be a03e 893f 8b0c cebb
000001a0: a0f1 20be 835a ba3e 2670 fdbe 0c83 123f
000001b0: 5a33 d23e 55c4 673e 714e ba3d cdab 5b3e
000001c0: 83f5 413e 21ff 833d 3bd8 dfbe 8894 983d
000001d0: 0492 6e3b 36e6 10be 154e 7fbf 5a72 1cbe
000001e0: b0fa 81be ff93 b6bd ea2c 0fbf b2fd d8be
000001f0: f5df c03d 4779 463f 6ea4 80bb 9e48 153e
00000200: bd02 09be dd1e a9bc 92aa ed3d 6885 423b
00000210: 0f0f ef3c 9181 65bd 2a24 aabc 129a c4bc
00000220: 0510 84bd 29e0 223e 61ce 003d 3c1b 893d
00000230: e337 06be 5f92 bcbd c1d0 87bd 81ca bbbd
00000240: ec98 b1bd 6996 f13c 503e 8bbd 0083 923c
00000250: 3e22 213c a874 f7bd 757e ae3d 6e13 4f3a
00000260: 5cda 203d 763e a0bc d1e3 c7bd 0d84 a1bd
00000270: a802 423d fee0 363d cf53 a4bd 5885 9dbd
00000280: c2c6 01bd dea1 a9bc 8db7 65bd 372d bcbd
00000290: 88d6 8a3d aa86 6cbd ed6f 86bd b3d2 bcbd
000002a0: 4761 aabd 743d 153e d1bf 48bd c6da 09be
000002b0: b607 cf3d b91d 9dbd 417f 4a3c ec4b 92bd
000002c0: c727 01be f08f 9fb9 c909 583d 7384 993d
000002d0: d1b6 dd3d 2ac5 ae3d 32fc dbbd bf9a 963c
000002e0: ab89 6fbd a1f5 5c3d ce5c 7d3c 5f58 b53d
000002f0: ca54 133d 8483 a2bd 86a6 f2bd 66a7 79bd
00000300: 6c69 1bbe ca10 0cbc 0be3 25bd 2b92 a63d
00000310: 83a0 e43d 20df 173d 64c7 83bd 912d 1dbd
00000320: ac18 463c a8e4 53bd a2a8 133d e801 753c
00000330: 3888 f73b b7ed 31bd 6e3e 9dbd 0953 c43c
00000340: c8ac 9e3d 86fd 053c e64a a0bd 9903 17bc
00000350: 8efb d4bc 055c 26bd e0c0 cdbd 036e a0bc
00000360: ea62 98bc a4bd 75bd eb02 e0bc a273 aebd
00000370: 66d8 15bd aa2f a93d fc9c 1cbe e3fe a43c
00000380: 27f3 bcbd c2c5 af3d 79a0 b3bd 8b6a 47bd
00000390: 8d3b 753c 3cba c3bd 4f5f d73d 9399 9fbd
000003a0: f71a 933d c973 fc3a 6de6 a8bb 0e31 c6bd
000003b0: f570 6c3d 6f36 c0bd b28e 143d 2285 993d
000003c0: 8585 92bd 92dc 75bd ff9c 3cbd 2a89 95bc
000003d0: 906d ae3c a999 6abd d4cd 3abe 6096 3b3a
000003e0: dfb7 8a3d 9931 343d 5d41 eebd d43d 00be
000003f0: 66c6 11be 1a61 413b 3893 bf3d 5948 ac3d

critic.2.bias f4 [64]
-0.036665913 0.091280766 0.051193576 0.0056364494 0.04694372 -0.016818078 0.050949547 0.022463793
0.11980323 -0.052370522 0.044385914 -0.036563955 -0.18333659 -0.024512036 0.060182463 -0.01503577
-0.022847354 -0.04853349 0.12753305 0.08721465 -0.0021627436 0.028082937 -0.0097630145 0.29627103
-0.08962272 -0.027108673 -0.0037442343 0.04688415 0.051342268 -0.041070137 -0.05462162 -0.0020348695
-0.055038426 -0.11604923 -0.1584114 -0.025606824 0.0051947944 0.034624718 -0.08129779 0.04770576
-0.059411034 -0.005552467 0.035368353 -0.0948282 -0.057950746 -0.14005512 -0.08372699 -0.1564835
-0.12251137 -0.098193705 0.007550523 0.04001279 -0.10072253 -0.07403719 0.072106026 0.09656074
-0.03298253 -0.14164104 0.09198205 0.13306992 -0.016357157 0.2151416 -0.0861937 -0.19013083
00000000: ff2e 16bd 69f1 ba3d 5bb0 513d f7b1 b83b
00000010: 0f48 403d 11c6 89bc 79b0 503d fd05 b83c
00000020: 655b f53d 7982 56bd 01ce 353d 16c4 15bd
00000030: 96bc 3bbe 77cd c8bc e381 763d 9758 76bc
00000040: 602a bbbc 0ecb 46bd 0698 023e 989d b23d
00000050: d1bc 0dbb 300e e63c 0df5 1fbc d6b0 973e
00000060: 1e8c b7bd 0213 debc d461 75bb 9809 403d
00000070: 454c 523d 2939 28bd ebba 5fbd 725b 05bb
00000080: f96f 61bd 38ab edbd 9936 22be 67c5 d1bc
00000090: 1839 aa3b a6d2 0d3d 757f a6bd 1d67 433d
000000a0: fc58 73bd 78f1 b5bb 68de 103d 4a35 c2bd
000000b0: c35d 6dbd 9c6a 0fbe 0e79 abbd 363d 20be
000000c0: 3ee7 fabd c819 c9bd 616a f73b 74e4 233d
000000d0: 9d47 cebd cfa0 97bd 53ac 933d a3c1 c53d
000000e0: b018 07bd 590a 11be 1661 bc3d 7b43 083e
000000f0: 72ff 85bc 144e 5c3e 5386 b0bd a8b1 42be

critic.4.weight f4 [1, 64]
0.001930651 0.2491824 -0.00035668866 0.0024881794 0.23827875 -0.0039068866 -0.15699449 -0.019940548
0.31068587 -0.11694374 0.18699415 -0.0022580686 0.27062932 -0.0006892445 -0.11663389 -0.0034436788
-0.005294491 0.0047953445 -0.049096078 -0.0027420952 0.0012994647 -0.0024120691 0.0016151586 -0.085369155
-3.29588e-05 -0.0042098844 0.0026586154 0.0048664957 0.002136289 -0.0022761656 0.0017354568 0.003703257
0.0017759831 0.08863293 -0.18966033 0.0076355995 -0.0038787664 -0.0022198998 -0.0035146256 -0.0024696323
-0.003123469 0.0030136234 -0.0032395117 0.0036799372 0.004111901 0.012638642 0.009062727 0.14151762
-0.001778684 0.033535745 0.008185414 0.0021618968 0.07305076 -0.10562373 -0.0029754702 -0.003606694
-0.0010763033 0.027834518 -0.0014721629 0.38524145 -0.13605101 -0.05482019 0.003906327 0.1255379
00000000: e60d fd3a ac29 7f3e f101 bbb9 b910 233b
00000010: 58ff 733e 5705 80bb 2ac3 20be 5c5a a3bc
00000020: 3812 9f3e 3380 efbd 657b 3f3e 1bfc 13bb
00000030: ed8f 8a3e 6aae 34ba c0dd eebd 58af 61bb
00000040: 697d adbb 4422 9d3b f818 49bd b9b4 33bb
00000050: cd52 aa3a ce13 1ebb bbb3 d33a 06d6 aebd
00000060: 3e3d 0ab8 12f3 89bb 2a3c 2e3b 2077 9f3b
00000070: fb00 0c3b b92b 15bb 4478 e33a 58b2 723b
00000080: 1bc8 e83a 2e85 b53d 5136 42be 0d34 fa3b
00000090: e732 7ebb bd7b 11bb a255 66bb 8ed9 21bb
000000a0: 1db3 4cbb 3680 453b fd4d 54bb 1a2b 713b
000000b0: 20bd 863b 4f12 4f3c d57b 143c ffe9 103e
000000c0: bb22 e9ba c75c 093d 1d1c 063c 9cae 0d3b
000000d0: a39b 953d 4151 d8bd 1b00 43bb 495e 6cbb
000000e0: bf12 8dba 3705 e43c 97f5 c0ba 5e3e c53e
000000f0: f550 0bbe 238b 60bd a500 803b 028d 003e
