trained/ComplexPong/PPO_mcts_frequent_1728384559.3517354.pth (torch, 44994 bytes, 11 tensors)

actor.0.weight f4 [64, 7]
0	0xbe8b6e9c	-0.27232826
1	0x3f0d232a	0.5513178
2	0xbf101bf3	-0.5629265
3	0xbe4d6350	-0.20057416
4	0xbeee6acd	-0.46565858
5	0xbdb731ac	-0.08945021
6	0x3e079fd7	0.13244568
7	0x3e9ad211	0.30238393
8	0x3d129d54	0.03579457
9	0xbebca9d2	-0.36848313
10	0xbec45cf1	-0.3835216
11	0xbe3e0cdf	-0.18559597
12	0xbf29726d	-0.66190225
13	0xbccfdd8b	-0.025374195
14	0x3daa169e	0.08305095
15	0xbf100c9b	-0.56269234
16	0x3efe842a	0.49710208
17	0xbe18b868	-0.14914095
18	0x3f3af26e	0.7302617
19	0xbf145eeb	-0.57957333
20	0xbc65f534	-0.014035512
21	0x3e04b8a4	0.1296106
22	0xbf267406	-0.6502079
23	0x3e8e8496	0.2783553
24	0x3e89b142	0.2689305
25	0x3ee8e5fa	0.45487958
26	0x3e94a0d6	0.29028958
27	0xbd396cc4	-0.045269743
28	0x3d587a2c	0.052850887
29	0x3e3f2df5	0.18669875
30	0xbde7efc4	-0.113250285
31	0xbe88f6f4	-0.2675091
32	0xbe65a708	-0.22426999
33	0xbee97b22	-0.45601755
34	0xbea3cc92	-0.31992012
35	0xbe53a637	-0.20668875
36	0x3e91ff0b	0.28514895
37	0xbe05ff34	-0.13085634
38	0x3ea9016f	0.33008906
39	0xbedd0272	-0.43165928
40	0x3f5fa26f	0.8735723
41	0x3e90f430	0.283113
42	0x3e5fedd9	0.21868075
43	0x3ecdd65d	0.4020261
44	0xbe4685e1	-0.19387008
45	0x3d0653a0	0.032794595
46	0xbed1473c	-0.4087466
47	0x3f2ae674	0.66757894
48	0xbe837fed	-0.25683537
49	0xbd66c795	-0.05634268
50	0x3ef703f2	0.48245198
51	0xbe952b19	-0.29134443
52	0xbe3748c6	-0.17898855
53	0xbe8f67ca	-0.28008872
54	0x3f05a454	0.5220387
55	0x3e4d62d8	0.20057237
56	0x3cd100ec	0.025513135
57	0xbecad2e8	-0.39614034
58	0x3ee0f5e0	0.43937588
59	0xbdabec01	-0.083946235
60	0x3ef26b3b	0.47347435
61	0xbf396efc	-0.72434974
62	0x3e699aab	0.22812907
63	0x3dd46ab9	0.10371918
64	0x3ee2afe2	0.44274813
65	0xbed58fd6	-0.417113
66	0xbea68e32	-0.3253036
67	0xbeaa57a5	-0.33269992
68	0xbc21499b	-0.009844209
69	0xbdacd2e7	-0.08438664
70	0x3ce346ed	0.027743781
71	0x3d04c5ae	0.032415085
72	0xbe62f5f9	-0.22164144
73	0xbee204d3	-0.44144306
74	0x3d6df5c8	0.058095723
75	0xbf8ad062	-1.0844843
76	0x3e8523f2	0.26003987
77	0xbe3ce67f	-0.18447302
78	0x3d274698	0.040838808
79	0x3e44a35e	0.19202945
80	0x3ed9b1bf	0.42518422
81	0x3eedf1e9	0.46473625
82	0x3efde812	0.49591118
83	0x3e84155e	0.25797552
84	0x3dc61f92	0.0967399
85	0xbe7ca72d	-0.24673147
86	0x3ed679cc	0.418898
87	0x3e739adb	0.23789541
88	0x3f4fb141	0.81129843
89	0xbd1370a2	-0.035996087
90	0x3d12979f	0.03578913
91	0xbe7260b9	-0.2366971
92	0x3ef424ca	0.47684318
93	0xbf158cba	-0.58417857
94	0x3e1f2b91	0.15543963
95	0xbf3db337	-0.74101585
96	0x3db51a61	0.08842922
97	0xbd906885	-0.070511855
98	0xbdf328f6	-0.11873047
99	0xbeb9ee3a	-0.36314565
100	0x3ef9c520	0.48783207
101	0xbb9f185e	-0.0048551997
102	0x3f357011	0.70874125
103	0xbde0d805	-0.109787025
104	0xbe9d10bc	-0.3067683
105	0x3e8802b9	0.26564577
106	0x3ee58cb1	0.44833902
107	0xbedfc2b7	-0.43703243
108	0xbebc6529	-0.3679593
109	0xbf0868a9	-0.532847
110	0x3db1557c	0.08658883
111	0x3c043e8f	0.008071556
112	0xbef22068	-0.4729035
113	0x3ec0ccd8	0.37656283
114	0x3eccab46	0.3997442
115	0xbe5c183d	-0.21493621
116	0x3ebd3bfc	0.36959827
117	0x3e0d60e2	0.13806489
118	0x3a9cb4a6	0.0011955693
119	0xbe920a1f	-0.28523347
120	0x3ec08a49	0.37605503
121	0xbeedb59d	-0.46427622
122	0x3d934bd2	0.07192196
123	0xbf07e1cb	-0.5307891
124	0xbda6d910	-0.0814687
125	0xbe32bed7	-0.17455612
126	0x3ebfebf3	0.37484702
127	0xbd892c16	-0.06697862
128	0xbf0ee1e1	-0.55813414
129	0x3ec3ecc8	0.38266587
130	0xbf401b07	-0.7504124
131	0x3f5ea007	0.8696293
132	0x3e247a3a	0.1606225
133	0xbe80c0c8	-0.2514708
134	0x3ed00e85	0.40636078
135	0x3e001482	0.12507823
136	0xbe90f456	-0.28311414
137	0xbe6f3168	-0.2335869
138	0xbf6b1d15	-0.9184125
139	0x3d56fcf2	0.05248732
140	0xbe1dd5e2	-0.15413621
141	0x3d4ee7a0	0.050513864
142	0xbc2e5c70	-0.010642156
143	0x3eab96d9	0.33513525
144	0xbe77d1b7	-0.24201094
145	0x3f8b9002	1.0903323
146	0xbe9df2a1	-0.30849174
147	0x3ebf606a	0.37378246
148	0x3e73fbb8	0.23826492
149	0xbe67a7b9	-0.22622575
150	0x3d360fb2	0.044448562
151	0xbee88ea6	-0.45421332
152	0xbee2ef0c	-0.44323003
153	0x3c11cd93	0.00889911
154	0x3ee6366a	0.4496339
155	0xbed78b12	-0.4209829
156	0x3e72d7e5	0.2371517
157	0xbe2bf0a4	-0.16791016
158	0xbe255aa1	-0.16147853
159	0x3f1d9cbb	0.61567277
160	0x3e4bfed4	0.19921428
161	0xbe2bea39	-0.16788568
162	0x3eae2d0b	0.3401874
163	0xbd40304b	-0.046921056
164	0xbdca82f1	-0.09888256
165	0xbee86711	-0.45391133
166	0x3df2a680	0.118481636
167	0x3e4223b1	0.18958928
168	0xbf0d3ecc	-0.55173945
169	0x3e63f428	0.22261107
170	0x3eb2c446	0.3491537
171	0x3da25af9	0.07927508
172	0x3e185a98	0.14878309
173	0xbebba349	-0.36648014
174	0x3e18240f	0.14857505
175	0xbd059a48	-0.032617837
176	0x3ee1491a	0.44001085
177	0xbee35a95	-0.44405046
178	0xbe8afe55	-0.27147165
179	0xbf3c5c30	-0.73578167
180	0xbe8c31a5	-0.27381626
181	0xbdc1b7a0	-0.09458852
182	0xbe0e0016	-0.1386722
183	0xbec603e0	-0.3867483
184	0x3f0a21c4	0.5395777
185	0xbe59a2cb	-0.21253507
186	0x3f65e3d3	0.8980076
187	0xbf4da513	-0.8033001
188	0x3e4e3fa3	0.20141463
189	0x3e089e67	0.13341676
190	0x3e65072b	0.22366016
191	0xbe89c56b	-0.2690843
192	0x3f034133	0.5127136
193	0xbe004a0e	-0.1252825
194	0x3f93783e	1.152107
195	0xbe976071	-0.29565766
196	0x3e825922	0.25458628
197	0xbe8f455a	-0.279826
198	0xbe85df6e	-0.26147026
199	0xbc688e37	-0.014194063
200	0xbc7ad6a4	-0.015309963
201	0xbd815d4b	-0.06316622
202	0xbdc18e6b	-0.09450992
203	0x3d8a5c61	0.06755901
204	0x3f091476	0.53546846
205	0xbeb7ddb9	-0.35911348
206	0x3e4361d3	0.19080286
207	0xbea1dcb5	-0.316137
208	0x3f4a030a	0.7891089
209	0x3d57a31f	0.0526458
210	0x3ec8c655	0.39213815
211	0xbdfdea54	-0.1239821
212	0xbe728869	-0.23684849
213	0x3ef9f19a	0.4881714
214	0xbc2b3f7e	-0.010452149
215	0x3f7b45a1	0.9815312
216	0xbcedd466	-0.029031944
217	0xbe247c9e	-0.16063163
218	0xbee305b4	-0.4434029
219	0x3eec6fde	0.46179098
220	0x3e7120bb	0.23547642
221	0x3f3610ad	0.71119195
222	0xbed551ff	-0.4166412
223	0x3e14589d	0.14486928
224	0x3e0acf13	0.13555555
225	0xbf153e8c	-0.58298564
226	0x3e8268ce	0.25470585
227	0x3d0e6f8e	0.034774356
228	0x3e8ff093	0.2811323
229	0xbbe9dc90	-0.007136889
230	0x3da6c81f	0.08143639
231	0x3dd80ecb	0.105496965
232	0xbec708cf	-0.38873908
233	0x3ea5e5f3	0.32402
234	0xbead77dc	-0.33880508
235	0x3f3180c2	0.69337094
236	0xbe89842b	-0.2685865
237	0x3e39b45a	0.18135205
238	0xbe9b72a8	-0.30360913
239	0xbed21159	-0.4102886
240	0x3f02e9e9	0.5113817
241	0x3e18c6ea	0.1491963
242	0x3ecfaccb	0.40561518
243	0x3ec22096	0.37915486
244	0x3e422781	0.18960382
245	0xbebe9c86	-0.37228793
246	0x3cbdb2ed	0.023156608
247	0x3e7d954f	0.24763988
248	0x3e235ed7	0.15954147
249	0x3de73c5b	0.11290809
250	0xbe8a8de1	-0.2706137
251	0xbdb8e123	-0.090273164
252	0x3eac8dd0	0.33701944
253	0x3d9ba7d3	0.07600369
254	0xbe6aecd1	-0.22941901
255	0x3e29325b	0.16523115

actor.0.bias f4 [64]
0	0x3e4721c3	0.19446473
1	0x3ebcfa32	0.36909634
2	0x3e87be94	0.26512587
3	0x3daff972	0.085925
4	0x3e9890c7	0.29797956
5	0xbeaf8feb	-0.34289488
6	0xbe376cf0	-0.1791265
7	0xbdcf47c1	-0.10121108
8	0x3d781807	0.06056979
9	0x3e97c425	0.29641834
10	0x3e938461	0.28811935
11	0xbee64b81	-0.4497948
12	0xbea5a44d	-0.32351914
13	0x3e30a05a	0.1724867
14	0x3e23992b	0.15976398
15	0x3e33d810	0.1756289
16	0xbe6c5398	-0.23078763
17	0x3e974f92	0.29552895
18	0xbe7e6e8b	-0.24846856
19	0x3c86570d	0.01639893
20	0x3de4aa54	0.111653
21	0x3e6e06da	0.23244801
22	0xbe54c5e1	-0.2077861
23	0xbe91f086	-0.28503817
24	0xbe2b5a5e	-0.16733691
25	0x3ec74ffe	0.38928217
26	0x3e3556cb	0.1770889
27	0xbe8a548b	-0.27017626
28	0x3ea37c07	0.31930563
29	0xbea73018	-0.3265388
30	0xbeb3ecaa	-0.35141498
31	0xbd3c5c7e	-0.045986645
32	0x3e4d47b9	0.20046891
33	0x3d878fa4	0.06619194
34	0xbdce5558	-0.10074872
35	0x3d58fb9d	0.052974332
36	0xbe223900	-0.15842056
37	0xbd84d01e	-0.06485008
38	0x3eadfe50	0.33983088
39	0x3e571dab	0.21007411
40	0x3da5ecd3	0.08101811
41	0x3e323442	0.17402747
42	0x3dbd0c70	0.09230888
43	0x3ed9da25	0.42549244
44	0xbd2ec565	-0.04266872
45	0xbe9dc6d3	-0.30815753
46	0xbd4b798d	-0.049676467
47	0xbebdee06	-0.3709566
48	0x3d69e4f0	0.057103097
49	0x3e63a4a0	0.22230768
50	0x3d9c471f	0.07630753
51	0x3ea4a63b	0.32158074
52	0x3ec96fe0	0.39343166
53	0xbe031ec7	-0.1280471
54	0xbe9e6243	-0.30934343
55	0x3e467114	0.19379073
56	0xbca68730	-0.020328134
57	0xbe938344	-0.28811085
58	0xbe076a6b	-0.13224189
59	0x3eaf6d35	0.34263006
60	0x3e41949c	0.18904346
61	0x3c33a697	0.010965011
62	0x3b59bc37	0.0033223757
63	0xbe93f77a	-0.28899747

actor.2.weight f4 [64, 64]
0	0x3ec15c1d	0.3776559
1	0xbeb5acd3	-0.35483417
2	0xbf6e8177	-0.931663
3	0xbe925ce6	-0.285865
4	0xbc842bf7	-0.016134245
5	0x3e7e82c4	0.2485457
6	0x3e8e0337	0.27736828
7	0x3eb98ba9	0.36239365
8	0xbec1c1c8	-0.37843156
9	0xbd5b74c8	-0.05357817
10	0xbe5da798	-0.21645963
11	0x3dd4106e	0.10354696
12	0x3cf98910	0.030460864
13	0x3e043e6b	0.12914436
14	0xbec196d4	-0.37810385
15	0xbcfeb805	-0.031093607
16	0x3e250d65	0.16118391
17	0x3c9bc7cc	0.019016169
18	0x3e907a42	0.28218275
19	0x3d9a5403	0.07535555
20	0xbd6f3759	-0.058402393
21	0xbe0a2796	-0.13491663
22	0x3e591e96	0.21203074
23	0x3e90b41e	0.28262419
24	0x3e6343b0	0.2219379
25	0x3dab6ff2	0.08370961
26	0xbf3b3db3	-0.7314102
27	0x3e2895ef	0.16463445
28	0xbea73808	-0.32659936
29	0x3f1e4738	0.6182742
30	0x3e821ea2	0.25413996
31	0xbefbc238	-0.49171615
32	0xbeb2253b	-0.3479403
33	0xbd2ab890	-0.04167992
34	0xbde506c2	-0.111829296
35	0xbe0d2c60	-0.13786459
36	0x3d61ba2a	0.05510918
37	0xbe1b1ab1	-0.151469
38	0xbf099c7c	-0.537544
39	0xbe049ebc	-0.12951177
40	0xbe055604	-0.13021094
41	0xbd2be90b	-0.041970294
42	0x3d515e20	0.051115155
43	0xbe2a6b14	-0.1664241
44	0x3c573ef9	0.013137572
45	0x3e4f65f0	0.2025373
46	0xbbef790f	-0.0073081325
47	0x3e424808	0.1897279
48	0x3e8bec6e	0.2732882
49	0xbe36518e	-0.17804548
50	0x3d270e46	0.040785097
51	0x3d7a784b	0.061149877
52	0xbe3e85b9	-0.18605699
53	0xbe67e68a	-0.22646537
54	0x3d6e1488	0.05812505
55	0x3d1bf6a6	0.03807702
56	0xbe8ebb7c	-0.27877414
57	0x3e15e5be	0.14638421
58	0x3e66fe4a	0.22557941
59	0xbc798425	-0.01522926
60	0xbf107b05	-0.5643771
61	0x3dfd4c40	0.12368059
62	0x3e489ce7	0.19591103
63	0x3e94d09c	0.29065406
64	0x3f45dfa3	0.7729437
65	0x3e0cfffa	0.13769522
66	0xbf2dd33a	-0.6790043
67	0xbebba5f9	-0.36650065
68	0x3e1d046c	0.15333718
69	0x3dfe025c	0.12402794
70	0x3e89cde3	0.26914892
71	0x3e7bcf61	0.24590828
72	0xbe8eb254	-0.2787043
73	0x3f172913	0.5904705
74	0x3e3f8771	0.1870401
75	0xbe5a95c0	-0.21346188
76	0xbefa7a8e	-0.48921627
77	0x3ef03c33	0.46920928
78	0xbebc928e	-0.36830562
79	0x3f20787e	0.62683856
80	0x3dadb9db	0.08482715
81	0x3eedd641	0.46452525
82	0x3e1d8650	0.15383267
83	0x3d99aa8a	0.07503231
84	0x3d55d2af	0.052202877
85	0xbd0d10fc	-0.034440026
86	0xbeaf2a98	-0.34212184
87	0x3dd2d0e7	0.10293751
88	0x3dfe754d	0.12424717
89	0x3f341514	0.7034466
90	0xbed8e6a8	-0.42363477
91	0x3e83b8b0	0.25726843
92	0x3d5300c7	0.051514413
93	0x3eebb346	0.46035212
94	0xbdb40110	-0.08789265
95	0xbebe2f0e	-0.37145275
96	0xbeae890e	-0.3408894
97	0xbed3fee9	-0.4140542
98	0xbf320619	-0.69540554
99	0xbdcee2a9	-0.10101826
100	0x3e031189	0.12799658
101	0xbdbeddc1	-0.0931964
102	0xbea75c0d	-0.32687417
103	0x3e233591	0.15938403
104	0xbd814008	-0.06311041
105	0xbc3b3b0b	-0.011427651
106	0x3e093686	0.13399705
107	0x3f03b021	0.51440626
108	0x3c5212f4	0.012821902
109	0x3d5e02fe	0.054202072
110	0xbd9e6af3	-0.07735243
111	0xbe978ce3	-0.29599676
112	0x3ebd7a19	0.37007216
113	0x3d888da7	0.06667643
114	0x373f3d8e	1.1398819e-05
115	0x3f18c830	0.5968046
116	0x3e19d6dc	0.15023369
117	0xbf55e0ca	-0.83546126
118	0x3d2d9980	0.042382717
119	0x3ebaf5d8	0.3651569
120	0xbec25dfa	-0.37962323
121	0xbe64d169	-0.22345509
122	0x3f3b7aac	0.7323406
123	0x3d2eb131	0.04264945
124	0xbeaa4041	-0.33252147
125	0x3e1f8c00	0.1558075
126	0x3e5a7ffd	0.21337886
127	0xbd6bac6f	-0.057537492
128	0x3dc3aef0	0.09554851
129	0x3e9b115e	0.30286688
130	0xbe4b54c2	-0.19856551
131	0xbe0c260a	-0.13686386
132	0x3d04dc7c	0.032436833
133	0xbd285139	-0.041093085
134	0x3e480273	0.19532184
135	0x3e8375be	0.25675768
136	0xbdd61bd4	-0.104545265
137	0x3eac8f87	0.33703253
138	0x3e11390c	0.14181918
139	0xbe5320f6	-0.20618042
140	0xbe5c8387	-0.21534549
141	0x3e7e5b4e	0.24839517
142	0xbe73c09b	-0.23803942
143	0x3eb95637	0.3619859
144	0xbe23b93b	-0.15988629
145	0x3e0c1c8b	0.13682763
146	0x3ea4d3c5	0.32192817
147	0xbb657c18	-0.0035016593
148	0x3d427251	0.047472302
149	0x3dfe6b8f	0.12422859
150	0x3de06d72	0.10958375
151	0x3d3d42d3	0.046206307
152	0xbec2488f	-0.37945983
153	0x3ec390f3	0.38196525
154	0xbe4fbe30	-0.20287395
155	0x3dc48b34	0.095968634
156	0x3db8fb82	0.09032346
157	0x3d3f4775	0.046699006
158	0xbcec5bc9	-0.02885236
159	0xbe19b578	-0.15010631
160	0xbe0c23d8	-0.13685548
161	0xbdf4e0b9	-0.11956925
162	0xbf16af9d	-0.58861715
163	0xbe5581b2	-0.20850256
164	0x3e91974a	0.28435737
165	0xbe9ff789	-0.31243542
166	0xbe535967	-0.20639573
167	0x3e075ef2	0.13219813
168	0x3dbb9865	0.09159926
169	0x3e4b8bcc	0.19877547
170	0x3df70f59	0.12063474
171	0x3eccf65c	0.40031707
172	0x3df129f5	0.11775581
173	0x3dcd88e6	0.10035877
174	0xbde23289	-0.11044795
175	0xbe8c1890	-0.2736249
176	0x3e13a43a	0.14418116
177	0xbe5dffea	-0.21679655
178	0xbd91df61	-0.07122684
179	0x3eae650f	0.34061477
180	0x3dc36324	0.09540394
181	0xbf0a52b3	-0.5403244
182	0xbd701016	-0.05860909
183	0x3e5e781d	0.21725507
184	0x3c2c9c40	0.0105353
185	0xbe2aaaa7	-0.16666661
186	0x3ece24ba	0.40262395
187	0x3c85b21e	0.016320284
188	0xbde4c1e6	-0.11169796
189	0x3de0cd28	0.109766304
190	0x3ebc0b60	0.36727428
191	0xbe14ce8a	-0.14531913
192	0xbed0b820	-0.40765476
193	0xbeaf3278	-0.34218192
194	0xbe99c22f	-0.30030963
195	0x3e798eda	0.243709
196	0xbea6ce43	-0.3257924
197	0x3ed71fa3	0.42016324
198	0x3e291f62	0.16515878
199	0x3c9febaf	0.019521562
200	0xbe44bb77	-0.19212137
201	0xbe914090	-0.2836957
202	0xbeff05e7	-0.4980919
203	0x3ed2cab3	0.41170272
204	0x3e406411	0.18788172
205	0x3e2b75d7	0.16744171
206	0xbe09689c	-0.13418812
207	0xbdfe8d1a	-0.12429257
208	0xbe635541	-0.2220049
209	0xbdd6deca	-0.104917124
210	0x3f41d7a3	0.7571966
211	0xbed99333	-0.42495117
212	0x3e465218	0.19367254
213	0xbd045edf	-0.03231704
214	0x3e773013	0.24139433
215	0xbd1ccea8	-0.03828302
216	0xbe31fcf9	-0.17381658
217	0xbe6ac4f1	-0.2292669
218	0xbeb51ee5	-0.35375133
219	0x3f3161aa	0.6928965
220	0x3e1e1629	0.15438141
221	0x3eefdfd6	0.4685046
222	0x3f388790	0.7208185
223	0x3cd14b58	0.025548622
224	0xbdb4b57b	-0.08823677
225	0xbe562103	-0.2091103
226	0x3df87f90	0.121337056
227	0xbcb3904d	-0.021919394
228	0x3ee15430	0.44009542
229	0xbea088f1	-0.31354478
230	0xbf33b12c	-0.7019222
231	0xbe887362	-0.2665053
232	0x3ebb64b2	0.36600262
233	0xbebf0e8e	-0.37315792
234	0xbe9b42e6	-0.30324477
235	0xbdfd7c04	-0.1237717
236	0x3d501331	0.050799552
237	0x3e2394cf	0.15974735
238	0xbe24e406	-0.16102609
239	0x3e953d71	0.2914844
240	0xbe88482d	-0.26617566
241	0xbe282dfe	-0.16423795
242	0xbec00741	-0.37505534
243	0xbead447b	-0.3384131
244	0xbedceafa	-0.43148023
245	0x3e1e07b5	0.15432627
246	0xbe51c9b9	-0.20487107
247	0xbed1e23b	-0.40992913
248	0x3e456760	0.19277716
249	0x3e9224af	0.28543612
250	0x3e7efc3b	0.24900906
251	0xbe11c5f2	-0.14235666
252	0xbe996acc	-0.29964292
253	0xbd873e99	-0.066037364
254	0xbd343ca1	-0.044003133
255	0x3e72c4ab	0.23707835

actor.2.bias f4 [64]
0	0xbe9f3426	-0.31094474
1	0xbda47a2c	-0.08031115
2	0x3df42d17	0.11922663
3	0xbe0413fd	-0.1289825
4	0xbdce1ff5	-0.10064689
5	0xbe221f77	-0.15832315
6	0x3c61ff05	0.013793712
7	0x3d5a1973	0.053246927
8	0xbe33a518	-0.17543447
9	0x3b84291a	0.00403322
10	0x3d85b833	0.06529274
11	0x3d08553d	0.033284415
12	0xbe091636	-0.13387379
13	0xbe0a3bba	-0.13499346
14	0xbe02291f	-0.12710999
15	0xbc77229b	-0.015083934
16	0xbe958e86	-0.292103
17	0x3deac9d9	0.11464281
18	0x3d194009	0.037414584
19	0xbe61b9e9	-0.22043575
20	0x3d9f61b1	0.07782305
21	0x3e74d8d3	0.23910837
22	0xbe8464ea	-0.2585824
23	0xbdac7447	-0.08420616
24	0xbe209462	-0.15681604
25	0xbe27d117	-0.16388355
26	0x3e50037c	0.20313829
27	0xbe18f02e	-0.14935371
28	0xbe4e434c	-0.20142859
29	0xba68e95e	-0.0008884872
30	0x3de48321	0.11157823
31	0x3bc7e485	0.0061002397
32	0x3dec4c42	0.115379825
33	0x3da54f13	0.08071723
34	0xbe14c192	-0.14526966
35	0xbdb4a0fb	-0.08819767
36	0x3db11f67	0.08648568
37	0xbde1c807	-0.1102448
38	0xbdec5f0d	-0.11541567
39	0xbe628651	-0.2212155
40	0xbdabb1e8	-0.08383542
41	0x3d053fcf	0.032531556
42	0xbd4869cc	-0.04892902
43	0xbdc164d3	-0.09443059
44	0xbe8169d6	-0.2527606
45	0xbe15b7ee	-0.14620945
46	0xbe11b39f	-0.14228676
47	0xbe4a2aa1	-0.19742824
48	0x3e8035c6	0.25041026
49	0xbe615f54	-0.22009021
50	0xbdca42a8	-0.09875995
51	0xbd0300f3	-0.031983327
52	0xbe463fd0	-0.1936028
53	0x3e2aae29	0.16668
54	0xbe0ee099	-0.13952865
55	0x3e73d2b0	0.2381084
56	0xbd8c425b	-0.06848594
57	0x3e712cd8	0.23552263
58	0x3ddd0b60	0.10793185
59	0xbd3b8f5a	-0.045791008
60	0x3de594f6	0.11210053
61	0x3e7a3a57	0.24436317
62	0xbe8130e0	-0.252326
63	0xbc9bfbb1	-0.019040914

actor.4.weight f4 [9, 64]
0	0x3f065ee6	0.52488554
1	0x3f386dc8	0.7204251
2	0x3eb0c3a9	0.34524277
3	0x3ea3e063	0.3200713
4	0x3e243412	0.16035488
5	0x3f045884	0.51697564
6	0xbf340a51	-0.7032824
7	0x3e4f6f32	0.20257261
8	0xbec2c5d6	-0.38041562
9	0x3e65a894	0.22427589
10	0x3f27c519	0.6553512
11	0x3e7d19cd	0.24716873
12	0x3e877252	0.26454407
13	0x3d510e18	0.05103883
14	0x3e3286ad	0.17434187
15	0x3e84b8d0	0.2592225
16	0x3f7da868	0.9908509
17	0xbea79ec7	-0.32738325
18	0xbd2eadf2	-0.042646356
19	0x3da7b430	0.08188665
20	0xbe9e7af0	-0.3095317
21	0x3e0d5af8	0.13804233
22	0xbe984776	-0.2974202
23	0x3edeba7a	0.43501645
24	0xbd220191	-0.039552275
25	0xbd8f5ff4	-0.070007235
26	0x3e8cf8c0	0.2753353
27	0xbc85fb27	-0.01635511
28	0xbe852ee7	-0.26012346
29	0xbe394f0e	-0.18096563
30	0xbea5174f	-0.32244346
31	0xbf0db863	-0.55359477
32	0xbf4d392b	-0.80165356
33	0x3ef30bcc	0.47469938
34	0xbe8da074	-0.2766148
35	0x3e637e7f	0.22216223
36	0x3de9596e	0.113940105
37	0x3eaf8ebe	0.3428859
38	0x3ee24f30	0.4420104
39	0x3f6ae5dd	0.91756994
40	0x3e29d0f9	0.16583623
41	0xbf1489ca	-0.5802275
42	0x3f64fe19	0.8945022
43	0xbedeb31c	-0.43496025
44	0x3cffe2d1	0.031236084
45	0x3f383d1c	0.71968246
46	0xbe96c8ed	-0.2945017
47	0x3e0ce378	0.13758647
48	0xbeb71659	-0.35759237
49	0x3f7d2c60	0.98895836
50	0xbe26a68b	-0.16274469
51	0x3d52e46c	0.05148737
52	0x3f301061	0.6877499
53	0xbdf33a82	-0.11876394
54	0x3dfb5965	0.1227291
55	0xbf31bde4	-0.69430375
56	0xbeda1885	-0.42596832
57	0xbd88bf55	-0.06677119
58	0x3e859edc	0.26097763
59	0x3d89c982	0.06727888
60	0xbdd859a8	-0.105639756
61	0x3de548ac	0.11195502
62	0xbc8b30cb	-0.01699104
63	0xbd8d57e7	-0.06901532
64	0xbb056bae	-0.0020358372
65	0x3e1474aa	0.14497629
66	0x3dc9c105	0.09851269
67	0xbe0c1af5	-0.13682158
68	0xbed98e90	-0.4249158
69	0xbe9c3491	-0.30508855
70	0xbc9c3cdc	-0.019071989
71	0x3b9ff06f	0.004880957
72	0xbdcedef9	-0.101011224
73	0x3c040be1	0.008059473
74	0x3e4e1fef	0.20129369
75	0x3c254ab3	0.01008861
76	0x3da4cdcb	0.080470644
77	0xbe2f96f9	-0.17147435
78	0xbe9625a5	-0.29325595
79	0xbdc3e1fd	-0.09564588
80	0x3d9f04b1	0.07764567
81	0xbbd148ab	-0.0063868365
82	0x3d582778	0.052772015
83	0x3d0343ae	0.032046966
84	0x3ecb3c4d	0.39694443
85	0x3e857e76	0.26073045
86	0xbe2aece4	-0.16691929
87	0xbd9ee9f3	-0.07759466
88	0x3c9c8b38	0.019109353
89	0xbc3acfb0	-0.011402056
90	0x3e043d7e	0.12914082
91	0x3bbd89b0	0.005784236
92	0xbe941b9a	-0.28927308
93	0x3e9b7a43	0.30366716
94	0x3c452432	0.012032555
95	0xbdaebae3	-0.085317396
96	0xbd0e67ea	-0.03476707
97	0x3dffafe5	0.12484721
98	0xbdef3294	-0.11679569
99	0xbeabb753	-0.33538303
100	0x3da2c8f1	0.07948483
101	0xbc7628af	-0.015024348
102	0xbe94c843	-0.29059038
103	0xbdbabcd1	-0.09118045
104	0xbeea1269	-0.4571717
105	0xbd945eed	-0.07244668
106	0x3b3db5a2	0.0028947373
107	0xbd619c09	-0.055080447
108	0x3d8ad378	0.06778616
109	0x3d5fb303	0.05461408
110	0xbe3fb76c	-0.18722314
111	0x3d0e6db3	0.034772586
112	0xbe1bf66a	-0.15230718
113	0xbc278bcb	-0.0102262
114	0x3b77c905	0.0037809026
115	0x3e0a7c34	0.13523942
116	0xbcb255d8	-0.02176945
117	0xbd563e56	-0.052305542
118	0xbeb0d363	-0.34536275
119	0x3e72c51b	0.23708002
120	0xbde05248	-0.10953194
121	0xbd2f7433	-0.042835426
122	0xbc7ea51d	-0.015542296
123	0x3d5280d7	0.051392402
124	0x3ebbb5b4	0.36662066
125	0x3eafae7b	0.34312806
126	0x3d44c67c	0.048040852
127	0xbe3eb52a	-0.18623796
128	0xbdd1a307	-0.10236173
129	0x3dc79aad	0.09746299
130	0xbe3ee39c	-0.18641514
131	0xbea923ae	-0.33035034
132	0xbf0245fc	-0.5088804
133	0xbe87ad63	-0.2649947
134	0xbde68290	-0.112553716
135	0xbe2b925a	-0.16755047
136	0x3ddaef1a	0.10690136
137	0xbe4aba54	-0.19797641
138	0x3dc6cc19	0.09706897
139	0xbd7764ba	-0.060398795
140	0xbddd4c36	-0.10805552
141	0xbe9f430b	-0.31105837
142	0xbec8931f	-0.39174744
143	0xbe790b4b	-0.24320714
144	0xbe22d245	-0.15900524
145	0x3e12ea9f	0.14347313
146	0x3e9e0d2a	0.30869418
147	0x3dee2aa3	0.11629226
148	0x3e842d91	0.25816014
149	0x3e96a395	0.29421678
150	0xbe9345cd	-0.2876419
151	0xbe186333	-0.14881591
152	0x3e0a80ec	0.13525742
153	0xbd892967	-0.0669735
154	0x3d998041	0.074951656
155	0x3e89979c	0.2687348
156	0xbeb2ada0	-0.3489809
157	0x3eca83e3	0.39553747
158	0xbe2c8df8	-0.16851032
159	0x3d6f9776	0.058494054
160	0xbd75173b	-0.059836607
161	0x3d9b4715	0.07581917
162	0x3dc7c7ff	0.09754943
163	0xbeb2ccc6	-0.34921855
164	0x3e503b88	0.2033521
165	0x3ce2bc8b	0.027677795
166	0xbec57789	-0.3856776
167	0xbd1e352b	-0.038624924
168	0xbedf2bc6	-0.43588084
169	0xbdc2bd26	-0.095087335
170	0x3c87db45	0.016584048
171	0x3e23137e	0.15925404
172	0x3e1b28ed	0.1515233
173	0x3cd378be	0.02581441
174	0xbe0eb357	-0.139356
175	0x3e51e8ed	0.2049901
176	0xbe4f428f	-0.20240234
177	0xbdbc6e6e	-0.0920075
178	0x3e0039b0	0.12522006
179	0x3e91a7ac	0.28448236
180	0xbd6bf59b	-0.057607275
181	0xbe55444e	-0.20826837
182	0xbed5cb53	-0.41756687
183	0x3e4acafd	0.19803996
184	0x3c9c91c4	0.019112475
185	0x3e0a0a95	0.13480599
186	0xbeabe755	-0.3357493
187	0x3e07a8b7	0.13247953
188	0x3ef0987a	0.4699133
189	0x3eb540e0	0.35401058
190	0x3dba570c	0.09098634
191	0xbdecd8a2	-0.11564757
192	0xbe601b41	-0.21885397
193	0xbe400783	-0.18752865
194	0x3dd2fc5b	0.10302039
195	0x3e1774e6	0.14790687
196	0x3dd94538	0.106089056
197	0x3dbff495	0.09372822
198	0x3c864267	0.016389085
199	0x3e5541f0	0.20825934
200	0xbe71bee3	-0.23607974
201	0x3dbd6ac3	0.09248879
202	0xbe3680ff	-0.17822646
203	0x3eac9f3b	0.33715233
204	0xbe9ef9af	-0.31049868
205	0x3c292a01	0.010324956
206	0x3cde5ff5	0.027145365
207	0xbd3b76f2	-0.045767732
208	0xbe665ffb	-0.22497551
209	0xbdfb275e	-0.12263368
210	0xbe5780e1	-0.21045257
211	0xbe666849	-0.22500719
212	0xbe25c431	-0.16188122
213	0xbce6b5d8	-0.028162882
214	0xbc45928b	-0.012058864
215	0x3d519a27	0.0511724
216	0xbe196dc0	-0.14983273
217	0xbe0b7cff	-0.13621901
218	0x3e85979b	0.26092228
219	0xbe82ced0	-0.2554841
220	0xbda1ed3c	-0.07906577
221	0x3d8230b5	0.063569464
222	0x3e3ff56e	0.18745968
223	0xbe219bf8	-0.15782154
224	0x3e260a94	0.16214973
225	0x3e12893a	0.1431016
226	0xbe4d8761	-0.20071174
227	0x3c854b14	0.016271152
228	0xbeab60f1	-0.33472398
229	0xbdd868cb	-0.10566863
230	0xbc4513e4	-0.012028668
231	0xbe4b994b	-0.19882695
232	0x3d7e6d10	0.06211573
233	0xbe1254c1	-0.14290144
234	0xbe2a55a2	-0.16634229
235	0xbe2fb73a	-0.17159739
236	0xbec6500e	-0.38732952
237	0xbe456389	-0.19276251
238	0xbe394816	-0.18093905
239	0xbea5ba12	-0.32368523
240	0x3eb478ac	0.35248315
241	0x3ba64d5e	0.005075141
242	0xbeada528	-0.33915067
243	0xbe11ad48	-0.14226258
244	0xbdca2822	-0.09870936
245	0x3eb5ef08	0.3553393
246	0x3d7e8c10	0.062145293
247	0x3d518367	0.051150706
248	0xbdf33258	-0.11874837
249	0x3e8084fb	0.25101456
250	0x3de854fa	0.11344333
251	0x3d2cf9eb	0.042230528
252	0xbe1914a4	-0.1494928
253	0xbe261eab	-0.16222636
254	0xbe8ed4c4	-0.27896702
255	0xbe51dbce	-0.20494005

actor.4.bias f4 [9]
0	0xbde799d2	-0.11308636
1	0xbd8cf2eb	-0.068822704
2	0xbd8b3e60	-0.067990065
3	0x3e61cb2d	0.22050162
4	0x3e43fb0d	0.19138737
5	0x3d88135a	0.06644316
6	0x3e23c966	0.15994796
7	0x3cc2e9bc	0.023793094
8	0xbe97bd4f	-0.29636618

critic.0.weight f4 [64, 7]
0	0x3ece9983	0.40351495
1	0xbe9d0dbf	-0.3067455
2	0xbdc749b9	-0.09730858
3	0x3e8e5a9d	0.27803507
4	0xbe62a702	-0.22134021
5	0x4007c222	2.121224
6	0xbd25aa24	-0.040445462
7	0x3d455cec	0.04818432
8	0x3e778ed3	0.24175577
9	0xbe46be40	-0.19408512
10	0xbe4bcb6c	-0.19901818
11	0x3f0d38dd	0.5516489
12	0xbf59a5ba	-0.85018504
13	0xbea4aff4	-0.32165492
14	0xbe7da505	-0.24769981
15	0xbd789e62	-0.06069792
16	0xbd2126e0	-0.039343715
17	0x3e39d691	0.18148257
18	0x3e82f6c2	0.25578886
19	0x3ff803d7	1.9376172
20	0xbc5aceb9	-0.013354951
21	0x3e0c00bf	0.1367216
22	0xbd99705d	-0.07492135
23	0xbdf25765	-0.118330754
24	0x3e999921	0.2999964
25	0x3d0527ca	0.03250865
26	0x4005b97f	2.0894468
27	0x3dadf504	0.08493999
28	0x3e3bc7b9	0.18337907
29	0xbe52b22c	-0.2057578
30	0xbe38e971	-0.18057801
31	0xbc32e214	-0.010918159
32	0x3efe5d5b	0.496806
33	0xc049cd05	-3.1531384
34	0x3d676bb2	0.05649919
35	0x3d288fb9	0.04115269
36	0x3e691bb4	0.22764474
37	0x3ddc2f6a	0.10751231
38	0xbe7dde64	-0.24791867
39	0xbe91e329	-0.28493622
40	0xc00c17ab	-2.1889446
41	0x3e263ce9	0.16234173
42	0xbe869b17	-0.262902
43	0xbe477c65	-0.19481046
44	0x3d1379ca	0.03600482
45	0x3d9ade2d	0.07561908
46	0xbd9ad01f	-0.07559227
47	0xbe57a42e	-0.21058723
48	0x3e3e56ea	0.18587843
49	0xbea295ab	-0.31754813
50	0xbdabefc7	-0.08395343
51	0xbe0b8b62	-0.13627389
52	0xbedb6085	-0.42847076
53	0xbee7450f	-0.45169875
54	0xc00b5c4f	-2.177509
55	0x3eb7387c	0.35785282
56	0x3d25a165	0.04043712
57	0xbebddf8c	-0.37084615
58	0x3e955e0d	0.29173318
59	0xba805fac	-0.0009794137
60	0x3ec0815f	0.37598702
61	0x3fec178e	1.8444688
62	0xbdb57b57	-0.08861416
63	0xbe5d8343	-0.21632104
64	0xbda55257	-0.08072346
65	0x3ea95384	0.3307153
66	0xbd833680	-0.064068794
67	0x3e431573	0.19051151
68	0x401e85c8	2.4769154
69	0x3e59f0f6	0.21283326
70	0xbd61e8ad	-0.055153538
71	0x3ec80c63	0.3907195
72	0xbe29cdc4	-0.165824
73	0xbe825739	-0.2545717
74	0x3e634b2e	0.22196648
75	0x3f951688	1.1647501
76	0xbe09c3a8	-0.13453543
77	0xbddeb0dc	-0.10873577
78	0xbbe67cbe	-0.0070339134
79	0x3e2c17dd	0.16805978
80	0x3d253851	0.04033691
81	0x3eb19205	0.34681717
82	0x401e8fb5	2.4775212
83	0x3df55893	0.11979785
84	0xbe93f502	-0.28897864
85	0x3e57b26b	0.21064155
86	0xbd2f3d10	-0.042782843
87	0xbda8dc1d	-0.08245108
88	0xbdcf4d3c	-0.10122153
89	0x404a2527	3.1585176
90	0xbd5b3c7c	-0.05352448
91	0x3dc21940	0.09477472
92	0x3ddd66d9	0.10810632
93	0x3d9af60c	0.07566461
94	0xbe46401f	-0.19360398
95	0xbdcee963	-0.10103109
96	0xc00291f0	-2.0401573
97	0xbec518b5	-0.38495412
98	0xbe651f78	-0.22375286
99	0x3ddc3654	0.1075255
100	0x3d06bf0b	0.032897037
101	0x3c6e48fe	0.01454377
102	0xbddc9b1f	-0.107717745
103	0xc03553fe	-2.8332515
104	0xbd5caa22	-0.05387319
105	0x3e5335ba	0.20625964
106	0xbe6d1b99	-0.23155059
107	0xbdf8f7bb	-0.12156626
108	0x3ed695e0	0.4191122
109	0x3e9e8cd9	0.30966833
110	0xc01794fd	-2.3684685
111	0xbdfff648	-0.12498146
112	0xbea39410	-0.319489
113	0xbcfe8ddd	-0.031073505
114	0xbd8faaf5	-0.07015029
115	0xbe313cc2	-0.17308334
116	0xbebf2ae8	-0.37337422
117	0xbfd4b614	-1.6618066
118	0xbd58c770	-0.052924573
119	0x3dc6a64d	0.09699688
120	0xbd4cc3ec	-0.049991533
121	0xbd6e230f	-0.058138903
122	0x3d767419	0.060169313
123	0xbe493b03	-0.19651417
124	0xc01cef91	-2.452122
125	0xbd39892f	-0.045296844
126	0x3ebf4336	0.37355965
127	0xbf0f1299	-0.5588775
128	0x3e9d7bc6	0.30758494
129	0x3e2ea07c	0.17053407
130	0xbe01bad7	-0.1266893
131	0xbf1a79e8	-0.60342264
132	0x3d1bd197	0.038041677
133	0xbe064060	-0.13110495
134	0xbe268679	-0.16262235
135	0x3d529a9e	0.051416986
136	0x3ef8f63b	0.4862536
137	0xbc401487	-0.011723644
138	0xbfc947b3	-1.5725006
139	0xbc51f9f0	-0.012815937
140	0xbe636b81	-0.22208978
141	0x3ec44090	0.38330507
142	0xbe54f858	-0.2079786
143	0x3e0c72b6	0.13715634
144	0xbe7bbbf5	-0.24583419
145	0xbfdfcf02	-1.7485049
146	0xbe5d5f35	-0.2161835
147	0xbeab6da9	-0.33482102
148	0x3c319be0	0.010840386
149	0x3d9b077c	0.07569787
150	0x3e3e9729	0.1861235
151	0xbf12ef4c	-0.5739639
152	0x3fcb37b5	1.5876375
153	0x3dceba2e	0.10094105
154	0x3c9f07e2	0.019412939
155	0xbee30677	-0.4434087
156	0x3e77051e	0.24123046
157	0x3f37a3c5	0.7173427
158	0xbf0e2118	-0.5551925
159	0xbfba4b6c	-1.4554267
160	0x3d427041	0.047470335
161	0x3ea84c40	0.32870674
162	0xbdcaef5c	-0.099089354
163	0xbd9a2300	-0.07526207
164	0xbdafb0ad	-0.0857862
165	0x3f064d60	0.52461815
166	0xc00adc32	-2.1696897
167	0x3cf4310b	0.029808542
168	0x3d57a825	0.05265059
169	0xbe930772	-0.28716618
170	0x3e98ba8d	0.29829827
171	0xbdea9d00	-0.114557266
172	0x3eed7eac	0.46385705
173	0xbfa67dcb	-1.3007139
174	0x3d5f4895	0.05451258
175	0x3e14d460	0.1453414
176	0xbe8d4427	-0.2759106
177	0x3de8edae	0.11373459
178	0xbedcd467	-0.431308
179	0x3f1d0556	0.61336267
180	0x3e81076d	0.25200978
181	0xbe3a76c4	-0.18209368
182	0x3eaab986	0.33344668
183	0xbe4575a8	-0.19283164
184	0x3e0601aa	0.13086572
185	0x3e0b2e1e	0.13591811
186	0xbde4dd09	-0.111749716
187	0xc013e751	-2.3109934
188	0xbe026dfa	-0.12737265
189	0x3d933126	0.07187109
190	0x3d899003	0.06716921
191	0xbc212199	-0.00983467
192	0xbdf8a894	-0.12141529
193	0xbe8e3320	-0.2777338
194	0xc0188acd	-2.3834717
195	0x3e8ec5d9	0.2788532
196	0xbf10914c	-0.56471705
197	0x3ef4b383	0.47793207
198	0x3e50388c	0.20334071
199	0xbe8c76f2	-0.27434498
200	0xbe8437cb	-0.25823817
201	0xbd5800eb	-0.05273525
202	0xbc7111a3	-0.014713678
203	0x3dfa5e69	0.122250386
204	0xbdb2d83d	-0.087326504
205	0xbd9c2ca0	-0.07625699
206	0xbcf2168d	-0.029551769
207	0x3e4e95d6	0.20174345
208	0xbff990c2	-1.9497302
209	0xbe76083e	-0.24026582
210	0xbea7f12e	-0.32801193
211	0x3ec8a35c	0.39187133
212	0xbe7f9cb2	-0.24962118
213	0xbecc1989	-0.39863232
214	0x3e8f1c99	0.27951506
215	0x3f159578	0.58431196
216	0xbe0b43b6	-0.13600048
217	0x3cf43f9a	0.029815484
218	0xbecbc14a	-0.39795905
219	0x3ec4d6ba	0.38445073
220	0x3d83ba98	0.06432074
221	0x3f270cd3	0.65253943
222	0xbd7a5ee6	-0.06112566
223	0x3ddfb3b6	0.10922949
224	0x3d292f3d	0.041304816
225	0xbd2bced5	-0.041945297
226	0xbddf640f	-0.109077565
227	0x3f12b855	0.5731252
228	0xbf0d3531	-0.5515929
229	0xbfbce3b3	-1.4756988
230	0x3d6191a1	0.055070523
231	0x3c112560	0.008859009
232	0xbddffccc	-0.10936889
233	0xbdd13423	-0.102150224
234	0xbe4957e2	-0.19662431
235	0x3d910c77	0.070824556
236	0xc0268b57	-2.6022546
237	0x3ea6928d	0.32533684
238	0xbedab9c8	-0.42719865
239	0x3eee0ac9	0.46492603
240	0xbe9e58d0	-0.30927134
241	0xbe487343	-0.19575219
242	0x3db840aa	0.08996709
243	0xbe2f351f	-0.17110108
244	0x3d0888b5	0.0333335
245	0xbe46ccd7	-0.19414078
246	0x3eb56238	0.35426497
247	0xbd93e752	-0.07221855
248	0xbf04b7a8	-0.5184274
249	0x3d9ce5a6	0.076609895
250	0x3f78f1fd	0.97244245
251	0xbe32a137	-0.17444311
252	0xbd957d53	-0.07299294
253	0xbe4dde56	-0.20104346
254	0x3d3c2748	0.0459359
255	0x3f1f38d8	0.6219611

critic.0.bias f4 [64]
0	0xbe9ea91a	-0.3098839
1	0x3e86d7ad	0.26336423
2	0x3d94f8e0	0.07274032
3	0xbebbc8b7	-0.3667657
4	0x3e833db1	0.25633004
5	0xbde9d312	-0.114172116
6	0x3de2b5c0	0.11069822
7	0x3e905a56	0.2819392
8	0xbcdbb650	-0.026820332
9	0xbe94876f	-0.29009578
10	0xbdb33214	-0.08749786
11	0xbe7a3945	-0.24435909
12	0x3cc84039	0.024444686
13	0x3e6b8fc1	0.23004057
14	0x3e80b40b	0.25137362
15	0x3ea6ce23	0.32579145
16	0x3eccbb34	0.39986575
17	0x3e0d9d95	0.13829644
18	0xbe21c375	-0.15797217
19	0x3e621a7c	0.22080415
20	0x3e5fae67	0.21843873
21	0xbdbd279c	-0.092360705
22	0x3e8bd54c	0.2731117
23	0x3d72838e	0.05920749
24	0x3d648ef4	0.055800393
25	0x3eb9acaa	0.36264545
26	0xbe19b7ac	-0.15011472
27	0x3d60d81b	0.054893594
28	0xbe3e4fc2	-0.18585113
29	0x3ec45d69	0.38352516
30	0x3b5aaa7a	0.0033365772
31	0xbe17ef8d	-0.14837475
32	0x3e4cf433	0.2001503
33	0x3e04b7cd	0.1296074
34	0xbd45aa29	-0.04825798
35	0xbc87d0c1	-0.016579034
36	0x3e89bccc	0.26901853
37	0xbe05a780	-0.13052177
38	0xbea21c4b	-0.3166221
39	0xbc332069	-0.01093302
40	0xbe0f615e	-0.14001986
41	0xbe1c83c6	-0.15284643
42	0xbe004acd	-0.12528534
43	0x3dde2730	0.10847318
44	0xbe7d1491	-0.24714877
45	0xbe09c78b	-0.13455026
46	0x3e9db071	0.30798677
47	0x3de47704	0.11155513
48	0xbcfd7bf7	-0.0309429
49	0xbe8c9c96	-0.27463216
50	0x3e8a6d1e	0.27036375
51	0xbe484501	-0.19557573
52	0xbe943178	-0.28943992
53	0x3e291ede	0.16515681
54	0xbe958599	-0.2920349
55	0x3e7c0020	0.24609423
56	0xbe9109f9	-0.2832792
57	0xbe41d7fe	-0.1893005
58	0xbeaa2b40	-0.33236122
59	0xbeb4ccfb	-0.35312638
60	0x3d9f9e88	0.07793909
61	0xbec33530	-0.38126516
62	0x3e941ac1	0.28926662
63	0x3d8f5092	0.069977894

critic.2.weight f4 [64, 64]
0	0x3d084930	0.033272922
1	0x3d84e9e8	0.064899266
2	0xbc3bf761	-0.011472554
3	0xbd38415c	-0.044984207
4	0xbd4d6451	-0.050144497
5	0xbd9f6813	-0.077835225
6	0xbdaf86b1	-0.08570612
7	0x3de22892	0.110428944
8	0x3c130630	0.008973643
9	0x3cf82017	0.03028874
10	0xbd9bf7eb	-0.07615646
11	0x3ce10d76	0.027472239
12	0x3d6f53a3	0.05842937
13	0xbdb41916	-0.08793847
14	0xbe0c546a	-0.13704076
15	0x3d688032	0.05676288
16	0xbdeb0ba2	-0.11476828
17	0xbd636d08	-0.055523902
18	0x3d5399e1	0.051660422
19	0x3d36b32f	0.044604477
20	0xbc06ad08	-0.008219965
21	0xbdd266a9	-0.10273487
22	0x3c5e92df	0.0135848215
23	0x3dc93c84	0.098259956
24	0xbd92871e	-0.07154678
25	0xbdf78f2b	-0.12087854
26	0x3e04769b	0.1293587
27	0x3d4ce7b9	0.050025675
28	0xbdd4a3c4	-0.10382798
29	0x3c2ca6cc	0.010537814
30	0x3db0d04c	0.086334795
31	0xbbc3f2c7	-0.005979869
32	0xbc9bc936	-0.019016843
33	0xbdbe8e72	-0.09304513
34	0xbd6a1516	-0.057149015
35	0x3d5368d6	0.05161365
36	0xbd5fb801	-0.05461884
37	0xbce984af	-0.028505651
38	0x3d64e15d	0.055878986
39	0x3c578a09	0.013155469
40	0xbdaf2823	-0.08552577
41	0xbdd37557	-0.10325115
42	0xbd98321b	-0.07431432
43	0x3c76263f	0.015023767
44	0xbc8b3b04	-0.016995914
45	0xbc5edb2b	-0.013602058
46	0x3d5d57d9	0.054038856
47	0xbdd8573d	-0.105635144
48	0x3c802c48	0.015646115
49	0x3d007b9d	0.031367887
50	0x3da65087	0.08120828
51	0x3d0bc734	0.03412552
52	0xbd1ccc12	-0.038280554
53	0xbb7c2343	-0.0038473166
54	0x3dffd763	0.12492254
55	0x3db4fc24	0.088371545
56	0x3e31880f	0.17337058
57	0x3df8726e	0.12131201
58	0x3c832c17	0.016012235
59	0xbd83177d	-0.064009644
60	0x3df054fd	0.1173496
61	0x3c5167a1	0.012781055
62	0xbdd7418e	-0.105105504
63	0x3d9dc017	0.07702654
64	0x3d54310c	0.051804587
65	0xbd93d8e1	-0.07219101
66	0x3d819c8d	0.06328688
67	0xbc765252	-0.015034275
68	0x3cdf5e19	0.027266549
69	0x3d2d1c58	0.04226336
70	0xbccb094b	-0.024784705
71	0x3d785a61	0.060633067
72	0x3e151d3b	0.14561932
73	0x3c995c50	0.018720776
74	0x3db80a90	0.0898639
75	0x3e12a614	0.14321166
76	0x3d3bff3d	0.04589771
77	0x3ca62573	0.020281529
78	0xbd85e112	-0.065370694
79	0xbcc67835	-0.024227241
80	0x3cbab720	0.022792399
81	0xbdc254f8	-0.09488863
82	0x3e140308	0.14454281
83	0x3cfa3f12	0.030547652
84	0x3de9b3a8	0.1141122
85	0xbc0672d0	-0.008206084
86	0xbc410363	-0.011780593
87	0x3b2124db	0.0024588618
88	0x3c83b67e	0.01607823
89	0x3d985339	0.074377485
90	0x3cc1216e	0.02357551
91	0x3d39af19	0.045333
92	0x3d39a33a	0.04532168
93	0xbac96369	-0.001536471
94	0x3d899bcf	0.06719171
95	0x3d7d14ba	0.061787345
96	0xbc9ccfc0	-0.019142032
97	0xbe1521bb	-0.14563648
98	0x3dc56a77	0.09639447
99	0x3cc763c0	0.024339557
100	0xbd777191	-0.06041104
101	0x3d01f419	0.03172693
102	0x3e0ae109	0.13562407
103	0x3c04ce82	0.008105876
104	0xbd3467bc	-0.04404424
105	0xbdf3cfbe	-0.11904858
106	0x3d538e20	0.051649213
107	0x3e0fa825	0.14028986
108	0xbcc3e227	-0.023911549
109	0xbb9ae918	-0.004727494
110	0x3db161fd	0.08661268
111	0xbd925408	-0.07144934
112	0xbd876f37	-0.066130094
113	0x3d9a9db6	0.07549612
114	0x3b630acb	0.0034643884
115	0x3cd4028d	0.025880123
116	0xbdfc1966	-0.12309532
117	0x3db130e9	0.08651907
118	0xbdf66103	-0.12030222
119	0xbda0a64b	-0.07844218
120	0x3d5ebe7c	0.05438088
121	0xbc439a40	-0.011938632
122	0xbddee1c6	-0.108829066
123	0xbd42ff68	-0.047606856
124	0xbdf0e21a	-0.117618755
125	0x3d8ebbe7	0.06969433
126	0xbc89e565	-0.016833017
127	0x3d4b4b66	0.049632452
128	0xbdbba047	-0.0916143
129	0xbc97b20c	-0.018517517
130	0xbd5c45cf	-0.053777512
131	0x3e088a14	0.13333923
132	0x3dc11acd	0.0942894
133	0x3dc852e4	0.09781435
134	0xbd3e959a	-0.04652939
135	0xbdd9a5bb	-0.10627314
136	0x3df20496	0.11817281
137	0x3b916013	0.004436502
138	0xbcf3b11d	-0.02974754
139	0xbda3f822	-0.08006312
140	0x3de49f2d	0.11163173
141	0xbd97ca2b	-0.07411607
142	0xbd6c205c	-0.057648048
143	0xbd76cf51	-0.060256306
144	0xbd324a45	-0.04352786
145	0x3de9ac8f	0.11409866
146	0x3d100809	0.035163913
147	0xbd6c51a3	-0.057695042
148	0xbd1c8b57	-0.038218822
149	0x3bbf3eb7	0.0058363336
150	0x3cdafe56	0.026732605
151	0xbc96cdda	-0.018408705
152	0xbd867b46	-0.06566481
153	0xbd30ca2c	-0.043161556
154	0xbcf27225	-0.029595444
155	0x3b7b7329	0.0038368201
156	0xbdc92167	-0.09820824
157	0x3c94a53c	0.018145196
158	0xbddadbdc	-0.10686466
159	0x3d744891	0.059639517
160	0xbdbb9ba6	-0.09160547
161	0x3db7bc91	0.08971513
162	0x3da12d78	0.078700006
163	0xbce205ad	-0.027590597
164	0x3c07c12b	0.008285801
165	0xbd7ef46d	-0.06224482
166	0x3d9116b8	0.070844114
167	0x3de3ab75	0.11116687
168	0xbd7f367b	-0.062307816
169	0x3d876e2b	0.0661281
170	0xbe10b4a8	-0.14131415
171	0x3d921a0d	0.07133875
172	0xbd1cb350	-0.038256943
173	0xbd8c9149	-0.068636484
174	0xbdf7f347	-0.12106948
175	0xbb6a7be0	-0.0035779402
176	0xbd91cdcc	-0.07119331
177	0x3d964c53	0.073387764
178	0xbd4f9a7f	-0.05068445
179	0x3e4a7c83	0.1977406
180	0xbc9852ff	-0.018594263
181	0x3da089ac	0.07838759
182	0x3c849bc6	0.01618756
183	0x3c2ce170	0.010551795
184	0xbd2b571d	-0.041831125
185	0x3cdbc77b	0.026828518
186	0x3d228f24	0.03968729
187	0xbdf4e348	-0.11957413
188	0xbbae8e44	-0.005327018
189	0x3e3c34b8	0.18379486
190	0x3d2482d9	0.04016385
191	0x3c89451a	0.016756583
192	0xbe8f4c94	-0.27988112
193	0x3c7a625c	0.01528224
194	0xbe0e76a0	-0.1391244
195	0xbdbb53ff	-0.0914688
196	0x3e96ee13	0.2947851
197	0x3e041c49	0.12901415
198	0xbd23efa4	-0.04002346
199	0x3e347f75	0.17626746
200	0xbec3eb23	-0.38265333
201	0xbe4dde95	-0.2010444
202	0xbcff85ef	-0.031191794
203	0xbed113e2	-0.40835482
204	0xbeb95cac	-0.36203516
205	0xbe0767ca	-0.13223186
206	0x3ea7d83b	0.32782158
207	0x3e59b5a9	0.21260704
208	0x3e77dbb3	0.24204902
209	0x3ee6351e	0.449624
210	0x3d5394b0	0.05165547
211	0x3ddba638	0.10725063
212	0x3e85a6ae	0.2610373
213	0xbdf1a6a3	-0.117993616
214	0xbcfc5dc2	-0.030806426
215	0x3e873d04	0.2641374
216	0x3dd18c5e	0.10231851
217	0x3d90da6c	0.07072911
218	0x3e1ea039	0.15490808
219	0x3e0b0336	0.13575444
220	0x3d96aed8	0.073575675
221	0x3d9dcffd	0.07705686
222	0x3e12f31e	0.14350554
223	0xbd74d820	-0.059776425
224	0x3db2301b	0.08700582
225	0x3de7c4e5	0.113168515
226	0xbbae5e07	-0.0053212675
227	0xbdabf7d7	-0.08396881
228	0x3d07e0ea	0.03317348
229	0xbe57ea56	-0.21085486
230	0xbe2d69af	-0.16934846
231	0x3e0513b9	0.12995805
232	0xbdb8b73c	-0.09019324
233	0xbeb69ba9	-0.35665634
234	0xbe01ba3d	-0.126687
235	0xbc80f390	-0.01574114
236	0x3e188e84	0.14898115
237	0xbd851037	-0.06497233
238	0x3e82530c	0.25453985
239	0xbd947686	-0.07249169
240	0xbdf0a053	-0.117493294
241	0xbe8faeab	-0.2806295
242	0x3dfc0ab8	0.12306732
243	0xbc158999	-0.009127044
244	0xbdf1211c	-0.11773893
245	0xbd09738f	-0.03355747
246	0xbd1630ee	-0.036667757
247	0x3e3c0c5c	0.1836409
248	0xbec87094	-0.3914839
249	0xbe0f56f3	-0.13998012
250	0xbe9530b9	-0.29138735
251	0xbd59eba3	-0.053203236
252	0x3e55b87b	0.20871155
253	0xbdbfe8d3	-0.093705796
254	0x3e8fe42f	0.28103778
255	0xbc8cc12f	-0.01718196

critic.2.bias f4 [64]
0	0x3d9585c6	0.07300906
1	0x3d7c61cc	0.061616704
2	0x3cf4150d	0.029795194
3	0x3d875ca3	0.06609466
4	0x3d181b6b	0.037135523
5	0xbcc0896d	-0.02350303
6	0x3d814fc0	0.06314039
7	0xbe31a4d1	-0.17348029
8	0xbe7986ed	-0.24367876
9	0xbdf4a7b3	-0.119460486
10	0xbcd8d2a0	-0.026467621
11	0x3bf3dd7c	0.0074421745
12	0xbe876b13	-0.2644888
13	0x3c4dfd58	0.012572609
14	0xbd922975	-0.071368136
15	0xbe2d18e2	-0.16904023
16	0x3dca4ea3	0.0987828
17	0x3cf44f68	0.02982302
18	0xbd593396	-0.05302771
19	0xbd5d3084	-0.054001346
20	0x3d303897	0.04302272
21	0xbea8cc7c	-0.3296851
22	0xbcb12c50	-0.021627575
23	0xbcd5837b	-0.026063671
24	0x3de5dff6	0.11224358
25	0xbd4b3073	-0.04960675
26	0xbad36cf7	-0.0016130497
27	0x3d099147	0.033585813
28	0xbd397629	-0.045278702
29	0xbcfbdd8d	-0.030745292
30	0xbd038e1f	-0.03211796
31	0xbcf5c043	-0.029998904
32	0xbce32519	-0.02772765
33	0xbc04c76b	-0.008104186
34	0x3a4967bc	0.0007682999
35	0xbe1bf3d0	-0.15229726
36	0xbe6e96ac	-0.23299664
37	0x3def9cfd	0.11699865
38	0x3d27fda1	0.041013364
39	0x3e565a32	0.20932844
40	0x3e556e68	0.20842898
41	0x3e84a941	0.2591038
42	0xbbba9a88	-0.005694691
43	0x3e802f5e	0.25036138
44	0x3ddc889c	0.10768244
45	0xbd24722e	-0.040147953
46	0xbccd15ae	-0.025034752
47	0x3c325e5f	0.010886758
48	0xbc95e785	-0.018298874
49	0x3cc49622	0.02399737
50	0xbebba548	-0.36649537
51	0xbd3eb41b	-0.04655848
52	0xbe4a0253	-0.19727449
53	0xbdbf6ba3	-0.09346702
54	0x3f09255b	0.53572625
55	0xbe84d807	-0.25946066
56	0x3db8dac8	0.09026104
57	0xbcc9f8ab	-0.024654707
58	0xbcb355cd	-0.021891499
59	0x3c35d9f3	0.011099326
60	0xbdee742e	-0.11643253
61	0xbd086c3c	-0.033306345
62	0x3ea74898	0.32672572
63	0x3e807695	0.2509047

critic.4.weight f4 [1, 64]
0	0x3ba4f596	0.005034159
1	0x3a6852f4	0.00088624586
2	0x3c1b5f3b	0.009483154
3	0xbdd785c2	-0.10523559
4	0x3b8f4233	0.0043719052
5	0x3b19a41c	0.0023443764
6	0xba3f8196	-0.00073053816
7	0xbe96ef7f	-0.29479596
8	0x3e46d9ec	0.19419068
9	0xbe9d85b8	-0.30766082
10	0x3c13de07	0.009025103
11	0x3b083f9c	0.0020789867
12	0x3e710201	0.2353592
13	0xbbd48b39	-0.006486323
14	0x3aa6daa0	0.001272995
15	0xbe89e9b2	-0.26936108
16	0xbaf598e2	-0.0018737579
17	0xbb88f39c	-0.004179431
18	0x3ac21850	0.0014808271
19	0xbbe5af1b	-0.0070093996
20	0xbd82fe0d	-0.063961126
21	0x3cd46635	0.025927642
22	0x3bc07067	0.0058727744
23	0x3bf238a8	0.007392008
24	0x3df2c4bf	0.118539326
25	0x3b15f4d8	0.0022881534
26	0x3ad2dcd7	0.0016087544
27	0x3e81cc76	0.25351304
28	0xbb9cf42e	-0.0047898507
29	0xbba63c2c	-0.005073091
30	0xbaeb06bb	-0.0017931083
31	0x3aad8dab	0.0013241073
32	0xbb9dffac	-0.004821738
33	0x3a77a8c4	0.000944745
34	0xbbcd09a0	-0.006257251
35	0xbd6dfd86	-0.058103107
36	0x3dae797b	0.08519264
37	0xbe8a89db	-0.270583
38	0x3c5a86be	0.013337789
39	0xbcf1fc42	-0.029539231
40	0x3ec2c021	0.38037208
41	0xbc9c5282	-0.019082312
42	0xbb00e8ab	-0.001966993
43	0xbe9a8156	-0.301768
44	0xbbb73fa4	-0.0055923034
45	0x3dcbd1f2	0.09952153
46	0x3b1ddd38	0.0024088155
47	0xbc11f73c	-0.008909043
48	0x3b42550e	0.0029652747
49	0x3ba85579	0.0051371423
50	0x3d4ba6ab	0.049719494
51	0x3afb00e6	0.0019150048
52	0x3d314e5b	0.043287616
53	0x3e042c5d	0.12907548
54	0xbe0f474f	-0.13992046
55	0x3d81c8a3	0.063370965
56	0xbbd5b7a4	-0.006522136
57	0x3babf8c4	0.005248161
58	0x3976c75e	0.00023534658
59	0xbc0545ae	-0.008134289
60	0xbe90c9c4	-0.28278935
61	0xbbc4bb28	-0.006003756
62	0xbcef25c3	-0.02919281
63	0xbbeec20d	-0.0072863162
