trained/ComplexPong/PPO_mcts_sparse_1728510793.0017173.pth (torch, 44898 bytes, 11 tensors)

actor.0.weight f4 [64, 7]
00000000: 8034 74be 022a d83e c83a 2b3e 2564 a83e
00000010: 79d7 3cbe c184 f83e 7536 84bc b3ae e83b
00000020: 9558 45be 1702 5b3e 6f96 0abf ffb8 423f
00000030: e3dd acbf 9e38 ba3c fbf7 f23e fa92 ac3d
00000040: 5f88 b4be 3c62 1abe 42ac edbe e1eb 103f
00000050: f66a 773c 884d 51be 3650 143e c722 f73e
00000060: 86b4 64bd 2eae 9b3b 22cd fe3e 8e83 37be
00000070: 9565 6d3e c831 853e 8e18 01bf d241 473e
00000080: 371e d1be 6a63 633f e1e2 9c3d 2894 5dbe
00000090: 0bd9 c3be b0a3 813e 9dd6 23be 3e57 fd3e
000000a0: 33d7 66bf c760 db3c c0a2 acbe 7e2b 693e
000000b0: e7fc 2dbe f137 173e 7921 59bf 0960 113d
000000c0: 4839 0f3e 2038 59be 326e f63e 695c afbe
000000d0: 5f1f 07bf 18ff 83be 9992 9cbf 0470 4b3e
000000e0: 81fb 62be 2744 993e 3064 44be 6bf6 6ebe
000000f0: beb9 3fbf 7ac0 5abf fcde b5bd 782d 7d3e
00000100: 1c5c c4be 37fa 56be 82b6 763e ca7a ae3e
00000110: e16e ec3e 1c05 1bbc 892f 163d a1c2 0a3c
00000120: c1d2 a23e 164f 763e 16b3 993e 5b05 8b3e
00000130: af63 f03c 0ebd c8be 1681 df3e 8c65 7cbe
00000140: 056b 003f 8f35 de3d 9576 c83e b90d aa3d
00000150: 3d23 a23e fdcf d4be 04fa 523e 2dbd fabd
00000160: 9f47 143f a694 38bf 1cdb 053d 3d42 173e
00000170: 9f77 a9bd e99d 05bf 2104 c33d 4094 89be
00000180: d1ca 04bc 0ed4 1a3e 0031 8a3e 40af ac3e
00000190: dc2b 11bf 6b41 2d3e 544a 64bf 59b4 8e3f
000001a0: b8d1 83be 4884 d7bd 9982 b2be d6a3 113f
000001b0: 701b 923e 8cb0 083f a308 08be e8f0 04be
000001c0: ec5c 043d 98cd 1bbe c113 aebd 5438 133f
000001d0: 7f87 793e e561 ad3f 5c17 b33e 8a6e 103d
000001e0: 8654 393d d7ee bebe 1d9a b4be 15d8 d6be
000001f0: 3e6a 1cbf df6f c63e 9e55 74be d079 d6be
00000200: 1f7d 143f 2891 a03e e52c 3d3f ab0d 41be
00000210: 60ce fbbd a5ba 94be 974b a23d 524f 173e
00000220: 98ee b6bc 00f3 973e 4a1b 8cbf 2dec 243b
00000230: 4c56 59be f608 ff3e 9229 e9be 2285 aebd
00000240: 1508 8cbe 26a3 f8be c5a7 47be e522 b4be
00000250: 204c cfbd a96c 193c 21d7 febd 01ee 153f
00000260: 26b1 a4bf f662 dc3d 307d d53d 957b bbbe
00000270: 36f6 b53d a285 f73e 61e7 22be b218 8a3f
00000280: f271 64be cc93 e5bd 464b 99bd 0387 593e
00000290: 4064 8e3d 4b94 97be 5d28 a8bf af6f 96bd
000002a0: 6937 f73d ca87 a33e d04b 5cbe 71b9 68be
000002b0: 981e 8dbe 65d4 3ebf 784b 6dbe 57ca 1f3e
000002c0: f1a8 083f d7fa b9be f6e7 8fbd 2114 68bf
000002d0: 7efe 0f3f d994 18be 48f4 803e 33b7 073d
000002e0: ba5a eabd 88bd a23c 5a5a 5cbe 8b35 ba3e
000002f0: 9d48 443e 4516 c33e e31b dd3e 6ff9 09bf
00000300: 9e43 26be c5c4 efbe eb43 e63c 5c6a a3bd
00000310: 6e46 373e fd1b 8d3e 5184 86be 800b c2be
00000320: d3c6 5ebf 132f 19bf a422 8bbe d2ed b73e
00000330: c46b 28be 727f 36be d58c 34be 7d5a 70be
00000340: aec1 c9be 831d c5bc b0b8 7d3e e1ba ce3e
00000350: 96fa f3be abb0 933e e581 b3be 3b3d b83f
00000360: 67f7 963e be37 bdbe 2eec 313e 9f4b d93d
00000370: d282 b3bc 4f15 5dbe a2aa 62bf 4c5a a4bd
00000380: 5aca cebe 0d73 a63e 2b9f f03c a232 343e
00000390: 1fdc 263e 3840 193f 5f4b 0abd 7ca6 7e3e
000003a0: 5819 183e 3c15 ffbd 1ed2 f7be a377 a83e
000003b0: 77fc 30bf c42f dc3d 2f58 90be fca6 323e
000003c0: 0b61 973d 1ece 80bd 0423 8b3e 56e1 93bf
000003d0: a594 c7bc dfaf d23e 667e 253e 14f0 5f3d
000003e0: d2f0 e0be fa32 e0be 5e77 d0bc 9537 df3d
000003f0: 0e77 d33e 107f 30bd 26aa 9dbe 2261 39be
-0.23848152 0.4221955 0.16721642 0.32888904 -0.18441571 0.48538783 -0.016139248 0.007100904
-0.19272073 0.21387516 -0.54135793 0.7606353 -1.3505214 0.022732075 0.4745482 0.08426471
-0.35260293 -0.15076536 -0.46420485 0.5660992 0.015101185 -0.20439732 0.14483723 0.4826872
-0.055836223 0.0047509884 0.4976588 -0.17921278 0.23183282 0.26014543 -0.5042809 0.19458702
-0.40843365 0.8882357 0.07660461 -0.21638548 -0.38251528 0.25320196 -0.15999837 0.49480623
-0.9017212 0.026779545 -0.33717918 0.22770497 -0.16991006 0.14767434 -0.848167 0.035491977
0.13986695 -0.21212816 0.48130947 -0.3425019 -0.52782243 -0.2578056 -1.2232238 0.1986695
-0.22166254 0.2993481 -0.19178843 -0.23336188 -0.74892795 -0.85449946 -0.088804215 0.24724376
-0.38351524 -0.20993887 0.24093059 0.34078056 0.46178344 -0.009461667 0.036666427 0.008469255
0.31801417 0.24053606 0.30019444 0.27152523 0.029344408 -0.39206737 0.43653172 -0.24648112
0.501633 0.10850059 0.3915297 0.08303399 0.3166751 -0.41564932 0.20603186 -0.12243114
0.57921785 -0.7210182 0.032679662 0.14771362 -0.08274769 -0.52194077 0.09522272 -0.26870918
-0.008104996 0.15119955 0.2699051 0.33727455 -0.5670755 0.16919486 -0.89175916 1.1148788
-0.2574594 -0.105232775 -0.34865263 0.5689062 0.28536558 0.5339439 -0.13284545 -0.12982523
0.03231518 -0.15215147 -0.084998615 0.57507825 0.24368094 1.35455 0.3497876 0.03526167
0.045246623 -0.37291595 -0.3527383 -0.41961733 -0.6109961 0.38757226 -0.23860785 -0.4188981
0.5800342 0.31360745 0.7389663 -0.1885287 -0.12295222 -0.29048648 0.07924574 0.14776352
-0.022330567 0.29677582 -1.0945828 0.0025165186 -0.21224326 0.49811524 -0.45539528 -0.08521487
-0.27349916 -0.48561972 -0.19497593 -0.35182872 -0.101219416 0.0093642855 -0.12443376 0.5856629
-1.2866561 0.10761063 0.10424268 -0.36617723 0.08884852 0.4834414 -0.15908577 1.0788786
-0.22309092 -0.11209831 -0.074850604 0.21242909 0.06952715 -0.29605326 -1.3137318 -0.07345521
0.120711155 0.31939536 -0.21513295 -0.2272699 -0.27562404 -0.7454284 -0.2317332 0.1560453
0.53382784 -0.36324188 -0.07026665 -0.90655714 0.562477 -0.14900531 0.25186372 0.033133697
-0.11443086 0.019865766 -0.21518841 0.36368975 0.19168325 0.38102928 0.43185338 -0.5389623
-0.16236731 -0.4682981 0.028108558 -0.07979271 0.1789796 0.27560416 -0.26272824 -0.378994
-0.8702213 -0.59837455 -0.27174866 0.3592363 -0.1644736 -0.17822054 -0.17631848 -0.23472019
-0.39405578 -0.024061924 0.24777484 0.40376952 -0.4765212 0.28845724 -0.3506004 1.4393686
0.29485628 -0.3695659 0.17375252 0.10610127 -0.021912966 -0.2159016 -0.88541615 -0.08025035
-0.40388757 0.32509652 0.029372772 0.1759744 0.16294907 0.59863615 -0.033763286 0.24868196
0.14853418 -0.12455222 -0.48402494 0.32903776 -0.6913523 0.10751298 -0.2819228 0.17446512
0.07391556 -0.06289314 0.27175152 -1.1553142 -0.024362871 0.41149804 0.16161498 0.054672316
-0.4393373 -0.43788892 -0.025447544 0.10899273 0.4130177 -0.043089926 -0.30793875 -0.1810346

actor.0.bias f4 [64]
00000000: 0ce3 fabe f906 be3e a59b 8e3c bee0 6ebe
00000010: 95b1 18be b30f 693e fd25 b6bd 979d a23e
00000020: 4e5d 363e 8e73 e93d 415a b9be 8f2b 8abe
00000030: 9158 0e3e 888e 8e3e 657d acbd 4435 81be
00000040: 4b6e e2be 939b 3f3e d180 67be 14f9 103d
00000050: 98c5 553e a847 863e 644e d4bd 026b adbd
00000060: 8eaf 613e afc9 7dbe f77c 15be f733 d53d
00000070: 105c c23e ab4a 323e eef9 dcbe 07ca 823d
00000080: a2db 01be c4f0 fc3d ce93 473d dfb2 963d
00000090: fc5c 2e3e 23ee 29be 4957 a03b d9fb b83d
000000a0: f5a0 863d 7e0c 9b3d 8e18 da3e 1568 45be
000000b0: 5d14 a2be ae53 45be 7cfd a43e 97cf a4be
000000c0: a107 933e 0466 0ebd 1bb1 22be ad80 da3c
000000d0: 5b69 a2bc 99de 93be 733b 833e 15de 5ebe
000000e0: 4c04 b8be 71a4 32be 3530 cbbe dfba 703e
000000f0: ec6a dc3d beb4 d6bd 5f70 cf3e 0b6a 843e
-0.49001348 0.37114695 0.017408201 -0.2332792 -0.14911492 0.22759895 -0.088939644 0.31760857
0.1780903 0.113989934 -0.3620167 -0.26986358 0.13900973 0.27843118 -0.084223546 -0.2523595
-0.44224772 0.1871169 -0.22607733 0.03539379 0.20876157 0.26226544 -0.10366514 -0.08467676
0.22039625 -0.24783967 -0.14598452 0.10410302 0.37960863 0.17411296 -0.4315943 0.0638619
-0.1268144 0.1235061 0.048724942 0.07358336 0.17027658 -0.16594748 0.0048932177 0.09032411
0.06573669 0.07570742 0.4259686 -0.19277985 -0.3165616 -0.19270203 0.32224643 -0.32189628
0.28716758 -0.03476526 -0.15887873 0.026672686 -0.019825628 -0.28880766 0.25631294 -0.21764405
-0.35940778 -0.17445542 -0.39685217 0.23508786 0.10762581 -0.104836926 0.4051542 0.25862154

actor.2.weight f4 [64, 64]
00000000: 2565 babe 974d 023f 200b 01be ae46 c83d
00000010: 8023 bbbe e401 c33e d139 e3bd 7051 713f
00000020: f4a0 963e 22db b3bb fc15 3fbe 461a a6be
00000030: 3fde 113e b3f2 713d 6fad bfbe c6a6 b2be
00000040: ca20 44bf d3dc b83e a8f0 8dbe a484 ba3d
00000050: 8a67 953e 725c e13e a76e 00bf 2689 823e
00000060: 0730 8d3e 0581 66bd 910c ffbc a22b a23d
00000070: aa6a ca3e 50e1 273d 31ca f6be fba0 853e
00000080: 8e6a bcbc 57f6 8e3e 60a3 d33e 5850 8b3d
00000090: dd47 193e 0b58 bf3d fef9 acbd d6d2 86bd
000000a0: 9439 f5bd db12 b63e a4c2 1d3d 17a4 c33b
000000b0: 2ed9 523d 0012 8ebd 941f 1dbd 298b 97bd
000000c0: 6c6c 013f 1152 6b3e 583d 523e 1aa1 30bd
000000d0: b2a5 493d 7988 e3be d7e3 433e 149c bd3d
000000e0: 067b d1bd 1c99 a4be 005d bdbe 9b64 313e
000000f0: 06fc c73e 69bb 75be d8cb 1b3f 5041 153f
00000100: 6598 92bd bf4d 96bd 8e0e 883e 399c 9a3c
00000110: 29c2 ec3d dc79 a5bd 0258 a8bd 464c bcbe
00000120: 325e d0be 9ef6 683d bbd5 1abd 0839 82be
00000130: 337a 053e 4e8b 89bd dd7d 033e 0e17 84bd
00000140: 3a36 3dbc c325 8c3d 3e2c 13be afd1 92be
00000150: e05b 8bbe 1e56 a8be 96d8 c23d e61c 32be
00000160: 8389 b13b cdf8 163e 1ea4 a63c ea36 673e
00000170: 5e2a 9e3d 08f3 763e 139d 893e 263d 79be
00000180: be28 6bbd 02bb 3a3e 49bf 97be ffb6 983e
00000190: 2391 b33d 19ca 153e 9f49 e83d b8f8 233d
000001a0: ecf5 773e a84f c8bd e20a e53d 80d3 823e
000001b0: 865e 3abd 557e 463c eda2 0dbd f6fd 0d3e
000001c0: 8827 04be 1490 273c 0964 d0bd ff91 70bd
000001d0: 2d1e fabd dec1 80bd 2a21 3dbe 1a1c 41bc
000001e0: 9ec0 cebd 846b 353e ed55 993d 8e0f fd3c
000001f0: c3ab 51bd 3ea8 643d c3e4 08bb a257 7bbc
00000200: 42d5 2dbd 8e6f 5ebd ae2e 1f3b 288f 03bb
00000210: c5af 8dbd a5e4 ca3d 1d30 ef3d 8d0f 9d3b
00000220: e67a 223d ec0b 8fbd 41aa 903d b61e 06bc
00000230: 2d05 1cbe 6333 c13d 651a 32be 8836 3f3e
00000240: b9a8 3b3d da99 dfbb 1006 473e 2f0f b9bd
00000250: b170 9abd e921 973d 4daf 263e 0083 7b3c
00000260: 9be7 1abe 342e aabd 21ee d53a 43de 70be
00000270: 09d2 5ebe 56c5 93bc 4e49 febc d058 50bd
00000280: d088 4b3d 166e 87bd eff6 52bd 7277 cdbd
00000290: 9fa8 39bd 6bda a5bd 36c0 8bbd 1a37 083d
000002a0: ae83 ce3d d8cd 643c b699 eb3d e91b 00bd
000002b0: b15d 0c3e 6936 923d 4727 21be 11c3 bcbd
000002c0: 0015 40be 1adc b8bd d31a 03bd f49c ac3d
000002d0: 491c 413b cee3 333c 77db f8bd edbf f5bd
000002e0: 0f4d e93d bbe8 e1bd 99df 4b3d 08d8 3db8
000002f0: 1c16 ccbd 03fc 0d3e 1a96 9ebc 5629 d23b
00000300: db21 793d 6cf0 8bbd 6f7e c0bd 3529 d7bd
00000310: a515 51bd 8dd3 f1bc 8510 bc3d 6580 cd3e
00000320: c11c a53e a6a9 f3bd 6e65 abbd 23a3 f73d
00000330: b7b6 10bd 20dd fbbd bac6 3e3e dac7 9dbe
00000340: 2cf9 95be acee 0b3e c60b 8bbe 382e e13d
00000350: 9a16 a13e 0d43 033d 3dff 36be 69ea 94bb
00000360: 7e2a f23d 3dbb 053e 83ae ed3c eac4 633e
00000370: fa24 d73e 2acc 50bc f295 07be e764 17bc
00000380: a73b a53d 14d7 6d3d 3c25 ac3d 161e c63d
00000390: e867 653e 2398 27be ec94 863d 4736 a6bd
000003a0: 2f66 95bb a5d2 863e 2bc1 943d 4f7e 073e
000003b0: 6016 973d 7ded bbbd adfa 983c 0d72 623e
000003c0: eeb7 863d 7bf7 353d ef92 a4bd 64e2 c5bc
000003d0: 5320 103e 8865 d53b 507f 123c 8854 313d
000003e0: 5ae1 7ebd ecc6 813d 74e9 14be dbb6 cb3d
000003f0: 61c2 953e eda2 a9be ebe1 ab3e e1ec 753e
-0.36405292 0.5089964 -0.126019 0.09779106 -0.36550522 0.3808738 -0.11095012 0.9426489
0.29419672 -0.005488769 -0.1866073 -0.3244192 0.14244936 0.059069347 -0.37437007 -0.34892863
-0.7661253 0.36105976 -0.2772267 0.091073304 0.29180557 0.44015843 -0.5016884 0.2549526
0.27575704 -0.056275386 -0.031133922 0.079184785 0.39534503 0.04098636 -0.48201135 0.2609938
-0.023000028 0.27922317 0.41335583 0.06802434 0.1496882 0.09342965 -0.0844612 -0.065831825
-0.11973873 0.3556126 0.038515702 0.005970489 0.05147665 -0.06937027 -0.038360193 -0.073995896
0.50556064 0.22980525 0.20531213 -0.04312239 0.049230285 -0.44440058 0.19129883 0.09258285
-0.10228543 -0.32148063 -0.36985016 0.17323534 0.39059466 -0.23997273 0.60857916 0.58302784
-0.07157973 -0.07339048 0.26573604 0.01887332 0.115604706 -0.080798835 -0.08219911 -0.36776942
-0.40696865 0.056875817 -0.037801486 -0.25434136 0.13034897 -0.067160234 0.12840982 -0.0644971
-0.011548573 0.0684314 -0.14372346 -0.286756 -0.27218533 -0.32878202 0.09513967 -0.17393836
0.005418004 0.14743347 0.020341929 0.22579542 0.07722925 0.24116147 0.2687765 -0.24339733
-0.0574119 0.182354 -0.29638126 0.29827115 0.08767917 0.14627875 0.11342167 0.04003212
0.24214906 -0.09780818 0.11183716 0.25551987 -0.0455003 0.012115081 -0.034579206 0.1386641
-0.12905705 0.010227222 -0.1017533 -0.058732983 -0.12212787 -0.06286977 -0.18469682 -0.011786485
-0.100953326 0.17716795 0.07487092 0.030891206 -0.051189195 0.05582451 -0.0020888306 -0.0153407175
-0.042439707 -0.054305606 0.0024289298 -0.0020074341 -0.06918291 0.09906892 0.11679099 0.0047931136
0.039667986 -0.06984696 0.07063723 -0.008186033 -0.1523635 0.09433629 -0.17392881 0.18673146
0.045815203 -0.0068237605 0.19435906 -0.09036099 -0.075410254 0.07379515 0.1627781 0.015351057
-0.15127413 -0.08309594 0.0016321578 -0.23522286 -0.2175981 -0.018038433 -0.031040814 -0.05086595
0.04969102 -0.06612794 -0.051505025 -0.10032548 -0.045326825 -0.080983005 -0.06823771 0.033255674
0.1008371 0.013965093 0.115039274 -0.031276617 0.13707615 0.07139284 -0.1573764 -0.092168935
-0.18758011 -0.09026356 -0.032008003 0.08428374 0.0029466322 0.010979606 -0.121512346 -0.119994976
0.11391651 -0.11030718 0.049773786 -4.5262306e-05 -0.099651545 0.13865666 -0.019358683 0.006413619
0.060823303 -0.06832966 -0.09399115 -0.105059065 -0.051046032 -0.02951982 0.09182838 0.4013702
0.322485 -0.11897592 -0.083689556 0.12091663 -0.0353305 -0.122980356 0.18630496 -0.30816537
-0.29291666 0.13665265 -0.2715742 0.10995144 0.31462556 0.032046366 -0.17870803 -0.0045445454
0.11824511 0.13059707 0.029013878 0.22243086 0.42020398 -0.012743989 -0.13240793 -0.009240366
0.080680184 0.058066443 0.084055394 0.09673707 0.22402918 -0.1636663 0.06571373 -0.08115821
-0.0045593004 0.26332584 0.07263406 0.13231777 0.073773146 -0.09176157 0.018674219 0.2211382
0.065780506 0.04442547 -0.08035838 -0.024155803 0.1407483 0.0065123476 0.0089414865 0.043293506
-0.06222663 0.063367695 -0.1454218 0.09946986 0.29249862 -0.33132115 0.335708 0.24016143

actor.2.bias f4 [64]
00000000: d0b6 13bc 9450 833d 43fc b6bd 994d 313d
00000010: cedd fb3d aef2 953e aed1 013e 5818 c1bd
00000020: b879 d7bc 859e 023e e412 983d df12 cabc
00000030: 97e1 023e 0daf 3ebe 32f2 3ebe 2e0e 9a3e
00000040: 9bd9 9b3e c1a3 d5bc 08c6 bebd 817a 6ebe
00000050: dff0 933c ca05 b53c fdd0 8f3d 7300 30bc
00000060: ac2f 7fbe da7f 60be a6ee 013e b24a 153b
00000070: 7e1a 81bd 405f 6f3e b84e 4f3e bc25 953e
00000080: 897c 4dbe e929 a1be 5f5a ecbd 2a6a 4abd
00000090: 4da2 193e 020c 2cbe bcfc 4cbc cdd2 9e3c
000000a0: fbf1 c03d 3cc1 0a3e e8da 4bbe 9cc5 273e
000000b0: 38fe 8dbd 9a3c b13d 1610 d3bb 0977 733d
000000c0: 4a69 4a3e 501c 34be 7e34 c3bd 7a72 8fbe
000000d0: b7d5 783e 2bdd 683d 81fc 3e3e 2941 573e
000000e0: 610b 00be 8597 6b3d 56e0 acbe 7808 01be
000000f0: 5bf6 203d f0bf 743e 4a01 e8bd fe42 c73d
-0.009015754 0.064118534 -0.08934834 0.043286894 0.12298165 0.29286712 0.12677643 -0.09428471
-0.026303157 0.12755783 0.07425478 -0.024667202 0.12781368 -0.18621464 -0.18647078 0.30088943
0.30439457 -0.02607906 -0.09315115 -0.23288919 0.018059192 0.022097487 0.07022283 -0.010742295
-0.24920529 -0.21923772 0.12688693 0.0022780118 -0.06303881 0.23376179 0.20244873 0.29130352
-0.20067038 -0.31477287 -0.115406744 -0.049417652 0.15003319 -0.16801456 -0.012511428 0.019387627
0.09421154 0.13550276 -0.19907725 0.16383976 -0.06933254 0.08654137 -0.0064411266 0.059439693
0.19766727 -0.17588925 -0.095314965 -0.28017026 0.24300276 0.056851547 0.1865101 0.2102095
-0.1250434 0.057517547 -0.33764905 -0.12600887 0.039297443 0.23901343 -0.11328371 0.097295746

actor.4.weight f4 [9, 64]
00000000: 7d76 33be 0be1 f43d 5770 48bd ec5b 4f3e
00000010: ace8 9d3d 4d80 8cbe 1f30 983e c1f6 c33e
00000020: 9096 7f3d cd22 953e 522e d5be 1266 203e
00000030: a42a 04bf 7f05 673f 3392 8abe 3490 b43d
00000040: f556 2b3e ee9f d33e 400d 093e e26d 563f
00000050: 4e32 83be 09e5 e13d fb1e d83e 9ff5 cebe
00000060: feba c2bd 28ea 763f 4e59 823e 7ac4 1cbb
00000070: c167 fc3e cc13 cdbe 569c b53d cb79 bfbe
00000080: 921c 1abe df18 02bc b67a e53e 2590 8fbe
00000090: 32bc 84bf eeca 5d3f 615b aabd a07a 2dbf
000000a0: e67e 9ebe c510 ce3e d58b 42be 7d42 47bf
000000b0: 467e 273f c496 ab3e 938e f6be 9b80 993e
000000c0: fdf2 fd3e 52d9 11bf 6380 b7bd 585d 0abd
000000d0: 723e 5fbf f285 1d3e cfa9 4dbf cadf 38bf
000000e0: aa2e dc3e d8b0 09bf a389 bfbd c4b1 e6bb
000000f0: 8f4f c43e bb66 66bd bfc4 9b3f b4cc f7be
00000100: 7ab9 ae3e a4d7 8fbe 36c5 f93c 0b7c b23d
00000110: bfd0 973d c788 ee3d 1809 083e 436e b4be
00000120: fac6 a73c 0dc3 023e f666 9e3e 1481 6a3e
00000130: 23c5 863e 61ec 273e 08a6 81be e279 113e
00000140: b170 3e3e a776 713e 77fa fa3c 07bb 35bc
00000150: acbd 6b3e aea0 023e ea7f 0d3e 53bd 893e
00000160: c7c0 2ebe 873b debd e39d 513e 8b2e 4a3e
00000170: 32e5 07be 067a e0bd 6b1f 233e 2fd7 9b3d
00000180: 818f fcbd edae fdbd 9006 f43d 9fac a13e
00000190: c8fe a03b cd2a 13be a3b5 90be 5657 363d
000001a0: 5034 b33e b8b6 0d3e 3083 39bd 9de5 1a3d
000001b0: ab98 6f3c 82c8 063e 14cc 4fbe 0672 f7bd
000001c0: a64d 7d3e 13d9 b4be 0712 d8be 1df6 483c
000001d0: 517e 9e3d 72c9 d13c 1bc9 8abb 3e26 4cbe
000001e0: 1324 8d3c 01e9 a73d 572b 6f3d 6777 e6bc
000001f0: 8fa8 3fbe 16c1 313e a276 233e 1f18 243e
00000200: b1a6 b53e 6684 4bbe fcb1 57bc fc0a 603e
00000210: dcdc dd3d 6788 2d3e 989b b13d 2f69 95be
00000220: fc7c 7bbd 5776 c7ba da8f 0e3f eb16 493e
00000230: e28e cb3e 6bc4 3a3d 1735 2a3c 8e63 76bc
00000240: 569e 92bd 76bf 6d3e 25ea 443e a0ea b1bd
00000250: 5d71 c33e dd2e c33e 6dfe adbd b3ed 8c3e
00000260: 27b4 27be 99e4 55be 27dc f03d bec6 a43e
00000270: 53ed 66bd 5579 c9ba f2fd 6f3e 3138 00be
00000280: 2282 5e3d da36 ca3d a566 853d 22cd 9b3e
00000290: 21df 1dbd f792 8abd 6925 8ebe d20b d43d
000002a0: 1aa9 ee3e e7f8 273e ae38 093d 5f49 103e
000002b0: 5e57 81bd 38ba 343d 96b0 8fbe bd6e ebbc
000002c0: b912 5f3e 50d0 6cbe 0101 44be f8ee a3bd
000002d0: 94b5 01bd e9e1 7dbd a9c6 4b3e 1ee4 4cbd
000002e0: 27f8 b0bd 4537 303e 2dfb 2e3d 7fe4 373d
000002f0: a0ad 10bf af8c 5bbd ebca 9e3c 4f58 be3e
00000300: 6a6c c63d 8376 993d 3654 5cbe a2f9 c0bd
00000310: 3a10 3f3a cb6c ac3e fd05 933e b15a a83d
00000320: ac60 d13d d1d7 303e 7620 47bd a053 70be
00000330: 117c 853c ca2f 6dbe 4598 73be f855 3d3e
00000340: 7f66 463e 0e22 11be 173f 8bbd 9b52 b9bd
00000350: c2fd 50bc 4257 11bd 2da3 093d 69df a63d
00000360: 8535 24be c478 0cbe 32e2 c4bd 5b3b f9bc
00000370: 5b4d 133e 6306 ab3e 4e59 093e 9a45 be3e
00000380: 9a4a 75be 7054 61be 1d77 55be 3fdd 34be
00000390: c099 ae3e 2fa7 9bbe 1b2a 413d 2d42 cf3d
000003a0: dccf 4bba fdc0 5d3e eb93 4dbe f05c 41bd
000003b0: 922a 07be 2074 f93d 1093 213e 0b02 603e
000003c0: 6d03 563e 4a67 43bd 3779 22bd c2a0 bdbe
000003d0: 7a86 473e 5ce9 233e 4404 6a3e 332b 843e
000003e0: e29c 493e b424 c53d 40b3 bfbe 307e 35be
000003f0: 550f 033d b344 b63d b7d4 1cbe f017 1dbd
-0.17525668 0.11956986 -0.04893526 0.20249909 0.07710394 -0.27441636 0.29724213 0.38274196
0.062399447 0.29128113 -0.41636902 0.15663937 -0.51627564 0.9024276 -0.27064666 0.08816567
0.1673239 0.41332954 0.1338396 0.8376142 -0.25624317 0.11030013 0.42211136 -0.4042177
-0.09508322 0.96451044 0.2545876 -0.002392082 0.49297908 -0.40054166 0.08867709 -0.37397608
-0.15049961 -0.0079405 0.44820184 -0.2803966 -1.0369933 0.8663777 -0.083182104 -0.67765236
-0.3095619 0.4024717 -0.18998654 -0.7783583 0.6542705 0.33513463 -0.4815565 0.2998093
0.49599448 -0.5697223 -0.08960035 -0.033780426 -0.8720466 0.15383127 -0.8033723 -0.72216475
0.43004352 -0.5378547 -0.09352424 -0.0070402343 0.38341948 -0.056250315 1.2169417 -0.48398364
0.34125882 -0.28094208 0.030489545 0.087150656 0.07412862 0.11647182 0.13284719 -0.35240373
0.020480622 0.12769718 0.30937928 0.22900802 0.26322278 0.16398765 -0.25321984 0.14206651
0.18597676 0.23580419 0.03063701 -0.011091954 0.23021573 0.12756607 0.13818327 0.26902255
-0.17065726 -0.10851198 0.20470385 0.19744317 -0.13271025 -0.10960774 0.15929954 0.076094024
-0.12332059 -0.1238688 0.11915314 0.31577012 0.004913185 -0.14371796 -0.28263578 0.044516884
0.3500085 0.13839233 -0.045291126 0.037816633 0.014623801 0.13162425 -0.20292693 -0.12082295
0.24736652 -0.35321864 -0.42201254 0.012265709 0.07738937 0.025608752 -0.0042353994 -0.19936463
0.017229116 0.08198739 0.05839094 -0.028133107 -0.18716644 0.17358813 0.15963224 0.16024826
0.35478738 -0.19874725 -0.013164993 0.2187919 0.10833141 0.16946565 0.08672255 -0.2918181
-0.06139849 -0.0015217763 0.5568825 0.19637649 0.39757448 0.045597475 0.010388634 -0.015038384
-0.071591064 0.23217568 0.19229944 -0.08687329 0.38172427 0.3812169 -0.084957935 0.275251
-0.16377316 -0.20887984 0.11760741 0.32182878 -0.056378674 -0.0015371243 0.23436716 -0.12521435
0.054323323 0.09873743 0.065137185 0.3042994 -0.03854287 -0.067663126 -0.27762917 0.10353817
0.4661339 0.16403542 0.03350132 0.14090489 -0.06315492 0.044122905 -0.28064412 -0.028739328
0.21784486 -0.2312634 -0.19141008 -0.08004564 -0.031667307 -0.061983023 0.19900002 -0.050022237
-0.08641081 0.17208584 0.04272001 0.044895645 -0.5651493 -0.053600963 0.019383868 0.3717675
0.09688647 0.074933074 -0.21516499 -0.09422614 0.000728849 0.33676752 0.28715506 0.08220423
0.10223517 0.17269827 -0.04861494 -0.234694 0.016294511 -0.23162761 -0.23788555 0.18489826
0.19375037 -0.14173147 -0.06799143 -0.09048959 -0.012755813 -0.035483606 0.033602882 0.08148081
-0.16036041 -0.13717943 -0.09613456 -0.03042381 0.14384978 0.3340331 0.13412973 0.37162477
-0.2395424 -0.22004867 -0.2084622 -0.17662524 0.34101677 -0.30400988 0.047159296 0.10120044
-0.0007774809 0.2165565 -0.20075957 -0.047207773 -0.13199833 0.12180352 0.15778756 0.2187578
0.20899744 -0.047705926 -0.03966638 -0.3703671 0.19484892 0.16006988 0.2285319 0.25814208
0.19688752 0.09626141 -0.37441444 -0.17723918 0.031997044 0.08899822 -0.1531552 -0.038352907

actor.4.bias f4 [9]
00000000: 517b adbe 021d 89bc df3c e43b 565d 873e
00000010: c39c 363e 90d5 ddbb 114c 7a3e 019e 5a3e
00000020: 3895 7fbe
-0.33883145 -0.016737465 0.006965264 0.26438397 0.17833237 -0.0067698434 0.2444308 0.21349336
-0.24959266

critic.0.weight f4 [64, 7]
00000000: ea8c bd3e 7a0d 8abe d92d 09bd f82f 163e
00000010: b591 a5be 96c0 2640 06a4 223e f088 de3d
00000020: 59a7 493d 6c13 86be 6c75 65be a3d3 07be
00000030: 7f75 fbbf eddf ab3e 26d8 36bd 6a3d 173d
00000040: ffff bebe dc32 e53e 0683 bc3e 154a f2bf
00000050: 2702 753e 85a9 c0bd 057a de3d 1aba 023e
00000060: 0aa6 f83e 4579 1b3e c335 d73f dea5 dcbc
00000070: 21f9 c6bd c7b0 833e 6d3e 87be 77b3 8f3e
00000080: a9a1 253c c878 0fc0 0003 23bd bd21 0a3e
00000090: 4759 ecbd 2ac2 f03d 2bbe 3cbe aec3 2b3c
000000a0: 99e2 1540 b9c4 263c 36f9 c03e 17b2 cc3e
000000b0: 699e 8cbe b3ef f33e 7786 6cbf 6e68 0040
000000c0: a257 b53d e401 4cbe 7bfe b3be 94de f7bc
000000d0: 40a0 f13e 6c3c 413f 02a6 bdbf 0e59 fb3e
000000e0: a76c babd 2611 ff3d 2f15 32be f3b2 e23e
000000f0: 83ce d7be 089c 1e40 34c4 5ebd f022 253e
00000100: e99e 85bd 31b6 d73d 9881 503d 532f a8bf
00000110: 5e70 c3bf 3d49 18be e8c1 cabd 2e8f 75be
00000120: b464 7c3e c1c3 93be 1350 223f 204b d33f
00000130: 8b43 6fbe 67b0 903e 4d4c 0ebe fc11 2dbd
00000140: 110e 46be 4660 54be 350c 20c0 b817 b53c
00000150: 7e1f 1bbf aa17 b1be 72c5 813e 9c3a 1bbf
00000160: a9c2 4a3f 585e 66bf 4eef 86be 2cb3 3bbe
00000170: 336b 79bd 6344 103e ed47 8e3e 3428 bf3e
00000180: 6ac5 0ec0 6f08 83be ed80 683e c804 e0bd
00000190: e364 19be f919 b4bc 57d4 d1be 44e6 2b40
000001a0: 52fe 753e e5d0 8c3e 037b 45be 78c4 d1be
000001b0: 28bd 4fbe c349 b5be 1027 1540 6db3 df3e
000001c0: 456f 6f3e f0ed acbe 2530 73be cc53 713e
000001d0: 2d63 a9bf a117 f3bf 1bc0 fc3d 475b 8e3e
000001e0: 53fc 5a3d e37b b1be a7f1 c83e 8aae efbd
000001f0: aed0 6cbf 4009 293e a882 7c3e dff6 44bc
00000200: 451b 73bd 2990 45be f466 06be b010 3040
00000210: d33c 8b3e 4b72 2e3a 7e3b 893e dd0f 27be
00000220: 81c0 283e e71e 4ebd 7abf 1fc0 e4bb a3bd
00000230: 8eb5 c4bd 77b4 f7be 2170 1e3e 9e28 163e
00000240: 3909 023f c7a7 973f 5ac5 283c 6b18 b2be
00000250: dfc1 b43e a856 0e3e 27c8 efbe 28d5 9a3e
00000260: 16b7 cb3f b039 83bd 8a43 9d3e 9510 9cbe
00000270: 2520 d63d 206c 1abe 8476 d0be 7edb c3bf
00000280: f25c a33e 9728 edbd 2e8e b43e beb3 493d
00000290: 5074 8abe eb35 39bf 4223 863f d5f0 bfbd
000002a0: 97ea 063e d991 f0bd e8db 05be 6949 ffbc
000002b0: e7b3 493e c9eb 37c0 6c2f 66be c6d9 47bd
000002c0: 374e 823e 3f23 0c3c aa1f afbe 5851 0abe
000002d0: 8977 f2bf 2709 95bd 2321 123e 3d2d 46be
000002e0: 25c3 303e 1f04 34bf 67c7 b5be b289 66bd
000002f0: fc5f fabd 274a b03e afad 323e a8c7 403e
00000300: 4bab a13e e743 05bf c693 ccbf 6460 b93d
00000310: ba89 3abd 2549 2dbd d4f2 ef3d adcc 51be
00000320: 24ff 813e 04e0 2a40 ea9e 703c 5e36 67be
00000330: 171a 983e e152 8bbd c8e2 43be c619 e43d
00000340: 18c9 1fc0 f2e3 08bd 1c13 123e def0 a8be
00000350: faef 37bd e8e2 213e db37 91bb 9fe9 04c0
00000360: 6dd0 903e 5367 67be f85e df3d e8a0 84be
00000370: 04a3 bb3e 710d 14bf 7da2 e7bf b812 c33e
00000380: 165c 1c3d c54d c33e 393a a3be a674 16bf
00000390: 0433 2e3e 4df7 aa3f 2cfa e4bc be15 8dbd
000003a0: 6aad a93d 4275 c93d ca55 70be 3f59 7b3e
000003b0: 630c 0cc0 44e0 003d b633 913d c689 ac3d
000003c0: 4582 dabd cda7 cb3c fbca 8b3d 5958 2940
000003d0: 3256 54bb f8e5 b0be 381e 3a3e 2f0c 8e3e
000003e0: ab4c 763e 8934 b93e 5095 14c0 b5eb ae3d
000003f0: 3304 f6bd cc0d edbd 4750 e7be 6d24 d23e
0.3702157 -0.26963407 -0.03349099 0.14666736 -0.32337728 2.6055045 0.15882882 0.108659625
0.04923186 -0.26186693 -0.22408074 -0.13264327 -1.9645232 0.3356928 -0.04463973 0.036923803
-0.37304685 0.44765365 0.36818713 -1.8928858 0.23926602 -0.09407333 0.10863117 0.12766305
0.48564178 0.1518298 1.6813282 -0.02693456 -0.09715486 0.25720808 -0.26414815 0.28066608
0.010109344 -2.241747 -0.039797783 0.13489433 -0.11540466 0.11755784 -0.18431918 0.010483665
2.3419554 0.010178738 0.37690133 0.39979622 -0.27464607 0.47643813 -0.9239268 2.006374
0.08854605 -0.19922596 -0.3515509 -0.0302575 0.47192574 0.7548282 -1.4816287 0.4909138
-0.09102755 0.12454443 -0.17390893 0.44277152 -0.42149743 2.4782734 -0.054386333 0.16126609
-0.0652445 0.10532797 0.05090484 -1.3139442 -1.5268667 -0.14871688 -0.09900266 -0.239804
0.2464779 -0.28860286 0.63403434 1.6507301 -0.2336561 0.28259584 -0.13896294 -0.04225348
-0.19341303 -0.2073985 -2.500745 0.022106037 -0.6059493 -0.34588367 0.2534595 -0.60636306
0.7920328 -0.8998771 -0.2635445 -0.18330067 -0.06089325 0.14088587 0.2778925 0.3733536
-2.2307992 -0.25592372 0.22705431 -0.10938412 -0.14979891 -0.021985041 -0.40982315 2.6859293
0.24022797 0.27503124 -0.19285206 -0.40970206 -0.20287001 -0.35407838 2.3305092 0.43691579
0.2338229 -0.33775282 -0.23748834 0.23567122 -1.3233391 -1.8991586 0.12341329 0.27804014
0.05346329 -0.3466483 0.39246866 -0.117032126 -0.9250592 0.16507435 0.24659216 -0.012021749
-0.059352178 -0.19293274 -0.13125211 2.7510185 0.27194843 0.0006654604 0.268032 -0.16314645
0.16479684 -0.05032244 -2.4960618 -0.07994822 -0.09604941 -0.4837987 0.15472461 0.14663932
0.5079532 1.1848077 0.0103009585 -0.34784254 0.35304162 0.13900244 -0.46832392 0.3024075
1.5915248 -0.064074874 0.3071559 -0.304814 0.1045535 -0.15080309 -0.4071542 -1.5301359
0.3190685 -0.115800075 0.35264724 0.04924368 -0.27041864 -0.723479 1.047951 -0.09372107
0.13175426 -0.11746568 -0.13072169 -0.031162934 0.19697534 -2.8737662 -0.22479028 -0.04879167
0.25450298 0.008553325 -0.34203845 -0.13507593 -1.8942729 -0.07277136 0.14270453 -0.19353195
0.17261942 -0.7031879 -0.35503694 -0.05628366 -0.12225339 0.34431574 0.17449068 0.18826163
0.31576 -0.52056736 -1.5982597 0.09051588 -0.045541503 -0.042306084 0.11716238 -0.20488234
0.2538997 2.6699228 0.014686326 -0.22579333 0.29707405 -0.06802917 -0.19129479 0.111377284
-2.4966488 -0.03342051 0.14265102 -0.32996267 -0.044906594 0.15809214 -0.0044317073 -2.076759
0.28284016 -0.22598009 0.10906786 -0.25904012 0.3664781 -0.5783301 -1.8096462 0.3810022
0.038173757 0.3814527 -0.31880358 -0.5877174 0.17011648 1.335672 -0.027951322 -0.068889126
0.08285029 0.09836818 -0.23470226 0.24545763 -2.188256 0.031463876 0.07089941 0.08424716
-0.10669378 0.024860287 0.06825825 2.6460173 -0.003240001 -0.34550452 0.1817559 0.2774367
0.24052684 0.36172894 -2.3216133 0.08541051 -0.1201252 -0.11574897 -0.45178434 0.41043416

critic.0.bias f4 [64]
00000000: e327 aebe b542 9f3d bb4d a0be bda5 e2be
00000010: 9411 c5bd 66fe 663d 168f eabd 09fc d9be
00000020: c7d1 84be a75b 073e e16f ed3e af0e d23d
00000030: 26bf 663c c422 c4bb b4f9 0bbe a72c 4abc
00000040: 2506 bdbd d14a a4be 62de f4bd 5fea 1bbe
00000050: 6a5f 0bbe 49a3 a73e f89e efbd 2af3 803e
00000060: 2cf5 9f3e 1b2b 8b3e 1268 083f 141f d6be
00000070: abb5 5f3d d4fe 9d3e efb9 4cbe 6c2a b8be
00000080: c27a d93e cede 373e 8cc9 6cbe 2367 6abe
00000090: 00f1 c7be ece9 e7bd c488 42be abe3 ae3e
000000a0: 6fa9 c53e 9db4 bebe 6c0b c63d 8268 ba3c
000000b0: 3a6a 01be 93ee 0c3e ec60 fd3d 7ce2 ea3d
000000c0: cedf bc3b 400b 853e 6e25 553e b687 cdbc
000000d0: cf6f 5dbe fffe 9abd 7569 b7bd 2033 e7be
000000e0: e5b2 abbe 7e7f b1be 4861 ae3b e03f 91be
000000f0: 3092 1abd bab7 963e c2bd a93e ba8b 39be
-0.34014806 0.07776395 -0.31309304 -0.44267073 -0.096224934 0.056394957 -0.11453073 -0.425751
-0.25941297 0.13218556 0.4637442 0.10256707 0.014083659 -0.0059855897 -0.13669473 -0.0123397475
-0.092296876 -0.3208833 -0.11956479 -0.15226124 -0.13610616 0.32741764 -0.11700243 0.2518552
0.3124174 0.27181324 0.532838 -0.41820586 0.05461661 0.3085848 -0.19992803 -0.35969865
0.4247647 0.17956087 -0.23123759 -0.22890906 -0.39051056 -0.11323914 -0.18997484 0.34158072
0.3860583 -0.37247172 0.09670147 0.022754911 -0.12638178 0.13762884 0.12372002 0.1146898
0.0057639843 0.25985146 0.2081506 -0.025089126 -0.21624683 -0.07568168 -0.08955661 -0.45156193
-0.33534923 -0.3466758 0.0053216554 -0.28369045 -0.03773707 0.29437047 0.33152586 -0.18119708

critic.2.weight f4 [64, 64]
00000000: 7d10 e03c 8bab d63d 44fc 4abd bd2c 91bd
00000010: 2693 0f3d 0b52 a5bd 0a7d 19bd 0f36 b73d
00000020: 1645 453c b921 733c 879f bebd 876b 91bd
00000030: 60cc 96bd 4a5b dcbd e527 b2bd 6c40 6b3d
00000040: 0c9b f0bc da8a f5bd 3437 c2bd 3c17 223d
00000050: c763 c63d 0977 133c 64ea 893d a76e 7e3d
00000060: a30d 04bd b47d 52bd 869b 28bd 52de c73c
00000070: 0deb dcbd cd14 93bc b1c3 ab3d 9e58 02bd
00000080: 31f5 843d c001 85bd 42fe 823d d61b 80bd
00000090: 9b64 02be c116 f9bc 6769 9bbd 059f 84bd
000000a0: f791 07bd e7dc 97bc 1d9c 07bd 0a46 bfbd
000000b0: 04e7 09bd 25b6 2c3c 13fc 52bc 113b 073e
000000c0: 985e 79bd c02c d93a 2014 80bc 47de 283d
000000d0: 37f8 d1bc 6948 533d 4629 8e3d 0e43 e7bb
000000e0: 0ec2 fb3c f4f0 eabc 16b1 d9bd 332f 83bd
000000f0: ea36 f2bc 16c8 013c 907d a7bd 98be b13d
00000100: 63d5 173f 2dfb 60be d535 8b3e df12 3d3f
00000110: 18f0 803c c474 a6bd dde6 003f fd0f 183e
00000120: 567d 553f d074 423e 3f28 79be a629 a3be
00000130: 281c ccbe 85e2 e33c 7d52 b43e cb17 1e3c
00000140: 6e40 903e 413f f13e 03cc 0c3e 3059 d8bd
00000150: a744 853d fb97 07bf 8d65 883c 3676 e9bd
00000160: ea17 54be 25fe cbbe 26a1 1cbf 282d 503e
00000170: dbb6 a4bd e6b0 0abf 1469 193e 42f7 3e3e
00000180: aa54 01bf dee7 13bf 380e af3d 42b9 723d
00000190: 9efc fe3d c40f 093f 8244 8abe d229 0ebe
000001a0: 128b 77be 405a 5d3f aa5c 58be d079 c9be
000001b0: 1738 9b3e bf35 003e 3e5a 1c3d e84c 433d
000001c0: 510c 953e 00f7 bbbe 253a 0cbf 963e 613e
000001d0: fcc4 bfbd b2c5 053f 0cb1 a03e 5d89 0d3e
000001e0: b9b6 c63e 1d0d 023c dc9b 9a3d 9c52 f43e
000001f0: a48d ddbd 51b7 6fbe 9347 88bd e3f6 8a3e
00000200: ddbf 2e3d 8f3f 8cbd 7094 ab3d 21b4 2ebc
00000210: df8b 023a 1cbb 7dbd d123 12be f10d 8dbc
00000220: 6ac6 653d 4e37 2d3e 9655 103d 2a0d 49bd
00000230: 60d3 58bd 9389 24bb 72b0 dfbc 3c95 773c
00000240: 43f9 3cbd 3a2c ba3d 654e 80bd c710 7fbd
00000250: b8a5 60bd 49a5 97bd c21e 8ebd ca1b 693d
00000260: 2af0 9d3d a893 5b3d 7b32 90bd 7fc9 22bc
00000270: f1dc b83d bf13 95bd f191 bd3c 79b6 6abc
00000280: 3a5f b83b a581 e23c 9b29 f7bd f962 b6bc
00000290: 98a0 bf39 b763 733d f6cb 413d ae1f 2abd
000002a0: 9279 ddbd 2072 9fbd 51db dcbd d180 d7bb
000002b0: 17ca 2abd 7183 49bc 18ed 8abd e66d 443c
000002c0: e98f 47bd d7c7 d23d 63c7 a83c 1aff a83d
000002d0: 21e2 973d 46ad 5b3b 1dc9 59bc 2543 c1bd
000002e0: 5ba4 1ebe 3027 fa3b 9bb3 88bc c2df babd
000002f0: 2c63 efbb 92ec 2cbd 2673 fbbc b04f d13d
00000300: 8d91 e0bd c8e6 3f3d 7378 0cbd 6e39 74bc
00000310: b97c 853d 0bb5 6e3d 60db a6bc c594 b23c
00000320: baaf 5d3d 46d6 3a3d 4339 a9bc c698 b5bd
00000330: 6cff 173e 49d4 9f3c a327 a33c fe48 bb3d
00000340: 8c5a 44bd 5035 3b3e 73f5 26bc e446 b3bd
00000350: 565b 19bd 0b8e d83c 82ee 393c 20e9 5ebd
00000360: 708b 453d 6202 29ba 07ea 1f3e 2d99 273d
00000370: 91b4 7cbd fda3 a23d 7ad9 113e 5c68 89bd
00000380: 07d2 89bd 138b 0bbd bea3 f83d 1427 efbc
00000390: fd46 f13d 4aaa 7a3d e4aa 94bc 5a91 9b3d
000003a0: 61bc 163d fc95 c1bc 0f1e 6cbd 74b5 23bd
000003b0: c941 14bc f1bd e6bc 424b 5c3d 0b6f c43d
000003c0: 5ccd 36bc e8f6 c5bd 4cb4 483d d559 dd3d
000003d0: 912f 1a3c 69d1 833d 959b 44bd 8150 013e
000003e0: b3cb 8b3d bd1e fcbd be46 8dbd 1e78 b1bd
000003f0: b5fc 19bc 0513 e03d 224e dfbc df86 e23c
0.027351612 0.10481938 -0.049556985 -0.07088611 0.03505244 -0.08072289 -0.037472762 0.08945858
0.012040397 0.014839583 -0.09307771 -0.07100587 -0.073632 -0.107595995 -0.086990155 0.057434484
-0.029370807 -0.119893745 -0.094831854 0.03957294 0.09687 0.009000548 0.067341596 0.062117245
-0.032239567 -0.05138941 -0.041163944 0.024398003 -0.1078702 -0.017954255 0.083869345 -0.031822793
0.06492079 -0.064944744 0.06396152 -0.06255309 -0.1273369 -0.030406358 -0.07588463 -0.06475643
-0.033098187 -0.018537952 -0.033107866 -0.09339531 -0.03366758 0.0105414735 -0.012877482 0.13206126
-0.060881227 0.0016569123 -0.015634596 0.041227605 -0.025631053 0.051582728 0.06941466 -0.007057554
0.03073218 -0.028679349 -0.106294796 -0.06405487 -0.0295672 0.007921239 -0.08178246 0.08678931
0.5930998 -0.21970816 0.27189508 0.7385692 0.015739486 -0.0812774 0.5035227 0.14849849
0.8339437 0.18989873 -0.24331759 -0.31867713 -0.39865232 0.027817974 0.35219184 0.009649227
0.28174156 0.4711857 0.137497 -0.10563886 0.06507235 -0.5296628 0.016649986 -0.113995
-0.20712247 -0.39842334 -0.61183393 0.20329726 -0.080426894 -0.54176176 0.1498149 0.18649009
-0.5051981 -0.57775676 0.08547634 0.059258707 0.12450527 0.5353968 -0.27005392 -0.1388314
-0.24174145 0.86465836 -0.21129099 -0.39350748 0.3031623 0.12520503 0.038172 0.047680765
0.2911096 -0.36711884 -0.5477622 0.21996531 -0.09363744 0.52254784 0.31385076 0.13821931
0.3881128 0.007937697 0.07549259 0.47719276 -0.108180314 -0.23409773 -0.06654277 0.27141485
0.042663444 -0.0684806 0.083779216 -0.010663063 0.0004979949 -0.06194602 -0.14271475 -0.017218562
0.056097426 0.16915628 0.03523787 -0.04908482 -0.052935958 -0.0025106415 -0.027305815 0.015111264
-0.046136152 0.09090467 -0.062649526 -0.06227186 -0.05484554 -0.074045725 -0.0693946 0.056911267
0.07711823 0.053607613 -0.070408784 -0.009935736 0.09026516 -0.07279157 0.02314088 -0.014325731
0.0056265863 0.02764971 -0.120684825 -0.02226399 0.0003655001 0.059421267 0.047313653 -0.04153412
-0.10814203 -0.077854395 -0.10784019 -0.0065766354 -0.041696634 -0.0122994045 -0.06783503 0.011989092
-0.048721228 0.10292023 0.020602887 0.08251782 0.074161775 0.0033520027 -0.013292578 -0.09436635
-0.15492384 0.007634066 -0.016687205 -0.0912471 -0.0073055234 -0.0422178 -0.030694555 0.10220277
-0.109652616 0.04685095 -0.034294557 -0.01490627 0.065179296 0.058278125 -0.020368278 0.021799454
0.054122664 0.045614503 -0.020657187 -0.0886703 0.1484353 0.019510405 0.019916361 0.091447815
-0.047937915 0.18282056 -0.010190356 -0.08753756 -0.03744062 0.026434919 0.011348369 -0.054421544
0.04822868 -0.00064471934 0.15616618 0.040917564 -0.06169564 0.079414345 0.14243117 -0.06709358
-0.06729513 -0.03406818 0.12140606 -0.029193439 0.11781118 0.061197557 -0.018147893 0.07596083
0.036800746 -0.023631088 -0.057645854 -0.03996797 -0.0090488875 -0.028166743 0.05378271 0.09591492
-0.01115736 -0.09666234 0.04900007 0.1080815 0.009410755 0.06436426 -0.047999937 0.12628366
0.06825962 -0.1231055 -0.068982586 -0.08665489 -0.009398629 0.10941128 -0.027258936 0.027652202

critic.2.bias f4 [64]
00000000: d8e0 493c a43b 26be 168c 75bc 6b24 863b
00000010: 6a05 67bb f8e6 993e e3ef 8b3d aaf4 5cbb
00000020: b97e 72bd ba67 0bbd 96bd cdbd ef4d e1bc
00000030: 452e 193d d54f 103c 7b63 593d 73a8 cb3d
00000040: fb69 323c 39a9 82bd 74f7 143d c9e3 b83d
00000050: 9423 d43d 80c8 11bd 4a07 1f3c f7a9 7abc
00000060: cbfe 8b3e b0ac 513c 1ded bebd 7572 88bd
00000070: 4a32 eebd 31e9 56bd 558d 54bd 1b66 7abd
00000080: abf6 803e b15f 3fbe 1984 8e3d 46b3 90bb
00000090: e14e ae3b 0659 de3c 2b3f 2d3d ad6e 29bc
000000a0: b6ef 78be 9670 da3d 3e6a 9abd c597 f0bd
000000b0: ccc1 2b3c 0e4c 0cbd 15a3 803b 8b58 15bd
000000c0: f2f6 903d 3ac2 febd abb1 edbd bd27 67bd
000000d0: 10bb 9e3d 3943 7bbb 261f d23d 977c 2dbe
000000e0: 9850 293d 1abd 66bd 96df 8e3d 975a 9fbc
000000f0: db3a d13c 63ed a1bb f66e 64bc dbb0 793e
0.012321673 -0.16233689 -0.014987012 0.004093697 -0.003525103 0.30059028 0.06832864 -0.0033715167
-0.059202883 -0.03403447 -0.10045926 -0.027502982 0.03739764 0.008808096 0.053073388 0.099442385
0.0108895255 -0.06379933 0.036368802 0.090278216 0.103583485 -0.035591602 0.009706328 -0.015299312
0.2734283 0.01279752 -0.093225695 -0.06662456 -0.116306856 -0.052468482 -0.051892597 -0.06113253
0.25188193 -0.18688847 0.069587894 -0.0044159023 0.0053194617 0.027142059 0.04229657 -0.010341329
-0.24310192 0.10666005 -0.07539795 -0.11747698 0.0104832165 -0.03425222 0.003925691 -0.036461394
0.07078351 -0.124393895 -0.11606153 -0.05643438 0.07750523 -0.0038339628 0.10259847 -0.16942059
0.041336626 -0.056332685 0.069762394 -0.019452376 0.02554076 -0.004941629 -0.013942471 0.24383871

critic.4.weight f4 [1, 64]
00000000: ccdb c03a b64f 403e fb9c d6b8 4784 c8bb
00000010: 08c0 e63b a474 77bd efdc 5b3b 952c 11bc
00000020: 30c9 353a 52d0 9d3a 006a babb 6c59 a13b
00000030: 7e85 d43b 503e 0abc 8e56 7b3e f49e c6b9
00000040: c20f a7bb e6bd e3b9 ab13 463d 0d56 67bb
00000050: b575 303b 1393 213c aaff e3bb 14b6 a63b
00000060: ca56 58be f260 b23b d928 28bd 6a01 70bb
00000070: 54b6 2a3b 2e29 c73b 2758 11bb f700 17bd
00000080: 7aac c83d 4c3f 0ebe 927c 543b 011a 03bc
00000090: 3271 f43b 1645 7e3b eb92 c23a e93d d33a
000000a0: 85b5 be3e 5ac6 3e3e 709a 793b 9689 343b
000000b0: 0821 a8bd a378 bdbb a666 ebbb 8f05 d1bb
000000c0: d2ab 10bc 1da4 193e 4e8b 4c3a a7ee ccbb
000000d0: 74ff 56bc 86d3 af3d 34be debb 8a8e efba
000000e0: e5cc cab9 ac15 a83b 5533 733e 8734 bdbb
000000f0: 9b98 10bc 8e33 153c c096 b4bb 2767 e73d
0.0014713942 0.18780407 -0.00010233555 -0.0061192843 0.007041935 -0.06041397 0.0033548435 -0.008860727
0.00069345813 0.0012040234 -0.0056889057 0.00492399 0.00648564 -0.008437708 0.24544737 -0.00037883932
-0.005098314 -0.000434383 0.0483586 -0.0035299093 0.0026925628 0.009861725 -0.0069579678 0.0050876234
-0.21126857 0.0054436857 -0.04105458 -0.0036621937 0.0026048617 0.006077907 -0.0022177787 -0.036866155
0.09798522 -0.13891333 0.0032422883 -0.008001805 0.007459783 0.0038798503 0.001484481 0.0016116473
0.37247863 0.18630353 0.0038086437 0.0027547828 -0.08209425 -0.0057822033 -0.0071838675 -0.0063788365
-0.008830028 0.1500401 0.00078027404 -0.0062540355 -0.013122428 0.08585267 -0.0067975763 -0.0018276733
-0.000386811 0.0051295366 0.2375005 -0.005774084 -0.0088254465 0.00910653 -0.005511135 0.112989716
