trained/ComplexPong/PPO_mcts_frequent_1728313024.955579.pth (torch, 44914 bytes, 11 tensors)

actor.0.weight f4 [64, 7]
0.28661796 -0.58350056 0.37607393 -0.111725315 0.63179004 -0.08750604 -0.2596654 0.31882626
-0.12509614 -0.5247434 0.4055406 -0.30352777 0.89583766 -0.2798872 0.33667517 0.14303042
-0.27712148 -0.46884945 -0.32794258 -0.94536793 -0.21124102 -0.18504614 -0.10019487 0.43478763
-0.33152363 0.5037653 -0.6426303 -0.03576413 -0.07356766 -0.3061349 0.40146023 0.26566753
0.11853248 0.5641188 -0.30114803 0.23779954 -0.5377691 0.11250235 0.4785915 -0.043651044
0.700119 -0.16457778 -0.20822129 0.36108577 -0.4433805 0.11806625 -0.5818113 0.035060566
0.40480134 0.2304922 0.28476086 -0.04635404 -0.23357141 -0.3939324 0.34544516 -0.21234563
-0.19429521 0.04376828 0.10005928 0.40825096 0.06707302 1.0179276 0.18136193 -0.26028302
-0.2279912 0.40195775 0.05040202 0.4915175 -0.38187116 0.1766362 0.23650911 0.09486384
-0.21608782 -0.15212277 -0.29440758 0.15479377 -0.12207835 -0.44435045 0.030469265 0.3744541
0.21407382 0.62569743 0.45431024 0.09510347 0.15864608 0.1979043 -0.25093257 -0.26258284
-0.38951117 0.12502038 -0.24842803 -0.18537343 0.26205838 -0.33748114 -0.08056379 -0.3247143
-0.44906342 -0.02993461 0.07320355 0.5185371 -0.38534153 0.02307378 -0.7470412 0.56775993
-0.27337354 -0.3047588 -0.27948675 0.25883016 0.30700964 0.4231899 0.03429967 -0.34635505
0.32089218 -0.11721114 0.0169214 0.078303 0.042583726 0.16205648 0.18796642 0.18208443
-0.06427955 0.338753 0.25938866 0.7809273 0.01392652 -0.0011736144 -0.07607033 0.64320236
-0.54955685 -0.13484293 -0.9225555 0.4355932 0.28967294 -0.49642655 0.31966728 0.3143753
0.31926307 0.16486101 0.05002842 -0.24807276 -0.3331615 0.22237274 0.028669288 0.5080757
-0.31232867 0.54778963 -0.005355913 -0.2745873 -0.31449127 0.5917226 0.12951419 0.40094194
0.11520152 0.23756263 -0.14058372 0.39045125 -0.45540735 0.3893701 -0.27619812 0.26862237
-0.14376883 0.071458064 -0.3008162 0.14090995 0.24236017 0.37604496 0.6708187 -0.006952597
-0.22733615 -0.15224208 0.597831 -0.16205297 0.46237168 -0.06782585 -0.07679781 0.10903224
-0.053912766 -0.08288963 -0.030386355 0.011830846 0.11614241 -0.015650043 0.20094076 0.5034092
-0.62318206 -0.09158164 -0.58801776 -0.13788274 0.2562618 0.349616 0.12711373 -0.4228201
-0.09144544 -0.6372993 0.59127873 0.42173043 -0.27991772 -0.13674909 0.46289477 0.05148534
0.8034166 -0.100617886 0.18264821 -0.4081004 0.3179099 -0.012754136 0.22465941 -0.67494935
0.9061707 -0.0856093 0.28000486 0.17065936 -0.09879615 -0.30791286 -0.4803267 -1.0515504
-0.07142288 -0.33423018 -0.1458644 0.5692269 -0.2610137 0.20520513 -0.48887858 0.06391929
-0.4346593 -0.4930526 0.5167995 0.27180812 0.34671363 0.09628556 0.19663517 0.3629349
-0.008878386 -0.2568233 -0.09504684 -0.33778587 0.87417084 -0.030184634 0.1714141 0.3770506
-0.34249932 0.25350255 -0.40935886 0.94789934 0.18545555 -0.22134422 -0.07152461 0.1970489
-0.04937918 0.05326142 0.7817826 0.3554918 -0.46866283 0.11595403 0.42112458 -0.19712971
00000000: 97bf 923e 4b60 15bf c38c c03e 3ed0 e4bd
00000010: febc 213f 5e36 b3bd ddf2 84be 323d a33e
00000020: 3419 00be 9555 06bf 04a3 cf3e fe67 9bbe
00000030: 9e55 653f 604d 8fbe b060 ac3e 9176 123e
00000040: dee2 8dbe 090d f0be 17e8 a7be a203 72bf
00000050: 914f 58be bc7c 3dbe f832 cdbd 7c9c de3e
00000060: 77bd a9be c3f6 003f 6b83 24bf 697d 12bd
00000070: a4aa 96bd b7bd 9cbe 328c cd3e 9305 883e
00000080: 28c1 f23d 176a 103f 1330 9abe b981 733e
00000090: 3cab 09bf a267 e63d f209 f53e 70cb 32bd
000000a0: 003b 333f 1487 28be f637 55be 3ce0 b83e
000000b0: c502 e3be b8cc f13d 96f1 14bf ab9b 0f3d
000000c0: 1f42 cf3e 2606 6c3e 2dcc 913e bcdd 3dbd
000000d0: 582d 6fbe 82b1 c9be 30de b03e 2271 59be
000000e0: 53f5 46be 5e46 333d e1eb cc3d 4506 d13e
000000f0: 945d 893d 744b 823f f1b6 393e d143 85be
00000100: 8676 69be 68cd cd3e 5972 4e3d 2fa8 fb3e
00000110: 9e84 c3be 1fe0 343e 722f 723e f947 c23d
00000120: 2046 5dbe 12c6 1bbe 97bc 96be 4282 1e3e
00000130: 3704 fabd e781 e3be ae9a f93c 73b8 bf3e
00000140: 2b36 5b3e b52d 203f 5a9b e83e 9cc5 c23d
00000150: 1e74 223e 6da7 4a3e 3c7a 80be 4271 86be
00000160: 026e c7be 5805 003e eb63 7ebe 88d2 3dbe
00000170: 842c 863e 54ca acbe a1fe a4bd f440 a6be
00000180: a4eb e5be 6d39 f5bc beeb 953d d9be 043f
00000190: 7c4b c5be 3905 bd3c 183e 3fbf b758 113f
000001a0: 9ef7 8bbe 5809 9cbe e318 8fbe 6385 843e
000001b0: 5e30 9d3e 59ac d83e d07d 0c3d 7355 b1be
000001c0: fb4b a43e 650c f0bd bf9e 8a3c 535d a03d
000001d0: 466c 2e3d 22f2 253e 457a 403e 5774 3a3e
000001e0: ffa4 83bd 0971 ad3e 97ce 843e daea 473f
000001f0: 0f2c 643c f7d3 99ba c3ca 9bbd e9a8 243f
00000200: c2af 0cbf 4414 0abe 992c 6cbf 1206 df3e
00000210: 0350 943e 9f2b febe 6eab a33e cdf5 a03e
00000220: 7376 a33e 53d1 283e 9aea 4c3d c906 7ebe
00000230: 2594 aabe aeb5 633e dbdb ea3c 4011 023f
00000240: 8be9 9fbe f13b 0c3f a880 afbb b596 8cbe
00000250: 0005 a1be 227b 173f 5e9f 043e 4348 cd3e
00000260: c6ee eb3d 9e43 733e 2ef5 0fbe 3ae9 c73e
00000270: 272b e9be 855b c73e d769 8dbe df88 893e
00000280: 2338 13be 9b58 923d 9504 9abe b34a 103e
00000290: 442d 783e f788 c03e c6ba 2b3f 9cd2 e3bb
000002a0: cfca 68be 59e5 1bbe 740b 193f 37f1 25be
000002b0: fbbb ec3e 47e8 8abd 2c48 9dbd 4c4c df3d
000002c0: a2d3 5cbd 0ac2 a9bd ceec f8bc 2ad6 413c
000002d0: 12dc ed3d 8534 80bc 6ac3 4d3e 6ddf 003f
000002e0: dc88 1fbf 288f bbbd 5588 16bf 2231 0dbe
000002f0: bf34 833e de00 b33e 1a2a 023e e07b d8be
00000300: bf47 bbbd 0c26 23bf 0b5e 173f 0ded d73e
00000310: 6051 8fbe f407 0cbe 8b00 ed3e 4be2 523d
00000320: b6ac 4d3f c010 cebd 2208 3b3e 89f2 d0be
00000330: 16c5 a23e b9f6 50bc 1e0d 663e 7bc9 2cbf
00000340: cefa 673f ee53 afbd cc5c 8f3e 54c1 2e3e
00000350: a355 cabd c1a6 9dbe 62ed f5be 3499 86bf
00000360: 2946 92bd 3820 abbe 7a5d 15be dbb8 113f
00000370: 96a3 85be 4b21 523e 4b4e fabe 1ee8 823d
00000380: aa8b debe 6471 fcbe f94c 043f 6f2a 8b3e
00000390: 7384 b13e 5d31 c53d bb5a 493e 9ad2 b93e
000003a0: a676 11bc 587e 83be eba7 c2bd 45f2 acbe
000003b0: a9c9 5f3f c445 f7bc 2e87 2f3e c70c c13e
000003c0: 125c afbe 16cb 813e 7c97 d1be 88a9 723f
000003d0: 0fe8 3d3e 0fa8 62be 7f7b 92bd 30c7 493e
000003e0: d341 4abd a628 5a3d e822 483f 0503 b63e
000003f0: 93f4 efbe 4e79 ed3d a49d d73e 5fdc 49be

actor.0.bias f4 [64]
0.33101997 0.10535504 0.44513094 0.167298 -0.045527887 -0.14948584 -0.20479926 -0.19101287
-0.37585285 -0.14254342 0.12531915 -0.27868563 0.2569296 0.20706475 -0.029003138 0.06442539
-0.27007484 -0.47621042 -0.24793522 -0.3412894 -0.25367352 -0.33976403 -0.110739015 -0.08859434
-0.12020525 0.033959504 -0.07192005 -0.117150754 -0.2562899 -0.121584296 0.0015846054 -0.09737619
-0.06273323 0.0064389734 -0.34547856 -0.11997361 0.24081719 -0.24365398 0.33827564 -0.10950176
0.29477525 0.1657332 -0.25641245 -0.07189541 -0.08552059 -0.15220337 -0.29681084 0.29543233
0.3620017 0.09800684 -0.089846864 0.19375268 0.35655367 0.12248522 0.087890655 -0.14755677
-0.11038504 -0.13346791 0.289112 -0.16912614 -0.5066349 -0.006895577 -0.26238698 0.05083495
00000000: 737b a93e 62c4 d73d 34e8 e33e 2b50 2b3e
00000010: 737b 3abd d112 19be e6b6 51be e198 43be
00000020: c96f c0be e7f6 11be aa53 003e e2af 8ebe
00000030: 478c 833e c808 543e fd97 edbc 75f1 833d
00000040: 4047 8abe dad1 f3be bbe2 7dbe 7cbd aebe
00000050: 7fe1 81be 8df5 adbe 23cb e2bd f370 b5bd
00000060: 2c2e f6bd 1f19 0b3d d24a 93bd bcec efbd
00000070: 6e38 83be 3001 f9bd 89b2 cf3a 2b6d c7bd
00000080: 487a 80bd 06fe d23b 91e2 b0be b9b4 f5bd
00000090: c898 763e 6e80 79be 7732 ad3e 7542 e0bd
000000a0: c8ec 963e f7b5 293e 7e48 83be e73d 93bd
000000b0: 6b25 afbd 33db 1bbe 97f7 97be e842 973e
000000c0: 4958 b93e cfb7 c83d a201 b8bd 1a67 463e
000000d0: 348e b63e 88d9 fa3d 0400 b43d 1f19 17be
000000e0: 8d11 e2bd d0ab 08be 7d06 943e 672f 2dbe
000000f0: d3b2 01bf 4bf4 e1bb 9657 86be 4f38 503d

actor.2.weight f4 [64, 64]
0.13015123 -0.112639874 -0.14891006 -0.043578528 0.13853997 0.08802176 -0.09188018 -0.07630142
0.19556136 0.06762517 0.03537333 0.3860932 -0.005435404 -0.24771184 -0.048259247 0.04980221
0.05256719 0.20067818 -0.053323627 0.09396626 0.18447948 0.4695007 0.04740134 0.12948893
0.09106406 0.03631939 -0.4766976 -0.338772 0.3954208 0.11295166 0.027498985 -0.018688416
0.24157816 -0.07797677 0.014853821 -0.008714991 0.08986651 0.25817612 -0.091364935 0.19621271
0.08660352 -0.336526 0.23484448 0.14124708 0.037084367 -0.044036783 0.38475123 -0.0119362
-0.15296513 0.07136034 0.19243282 -0.08754807 -0.118975915 -0.12949705 -0.07446679 -0.04730057
0.035774477 0.15891753 0.3227898 0.15791686 0.3639161 -0.077303156 0.09596513 -0.01641037
-0.077304065 -0.044084545 0.58695894 0.064392 -0.31537768 -0.42490524 0.009097644 -0.14578572
-0.5052322 -0.082720414 -0.00989367 -0.51917666 0.20835796 0.27587092 0.067448474 -0.2602238
-0.039144456 -0.39895713 0.24362852 -0.34719393 -0.28876257 -0.5936959 -0.06616049 -0.3369606
-0.06636918 0.018306991 0.68165845 0.22921585 -0.379886 -0.29641435 0.055663936 0.038881928
-0.22317298 -0.013378924 -0.19037022 -0.06412769 0.11829052 -0.20149906 0.15546449 0.06405859
0.08687985 0.32916924 -0.16346608 0.0056869346 -0.12111504 -0.21682261 -0.5624435 -0.17774072
0.1555844 0.0051157745 -0.078978606 0.08238962 0.23963471 -0.085636914 0.1200778 -0.24574377
-0.21546924 -0.41831434 -0.26233226 -0.28436747 -0.88034123 0.11448925 -0.050209183 -0.15653318
-0.18339586 -0.14350666 -0.46774453 0.036367327 0.21809158 0.0074689067 0.107930735 0.09985188
0.21220039 0.30888027 -0.16095796 0.535204 -0.17291664 0.03772952 -0.14334834 0.18712284
0.016185338 0.28697672 0.037341338 0.37344372 0.28987667 0.7100076 0.021917047 0.15746276
0.17303789 0.02870775 -0.46662003 -0.38021594 0.53369766 0.08259649 0.022089932 0.243146
0.26719505 -0.21211746 0.044674408 -0.0053536524 0.12652966 0.2662254 -0.12674144 0.02489449
-0.087608814 -0.3727888 -0.014713697 0.10391272 0.03450466 -0.02701787 0.2578786 0.19485052
-0.16999602 0.057054427 0.24716645 0.19281223 0.07881367 -0.11785857 0.11081799 -0.028575247
0.004990456 0.064829595 0.27185178 0.09711135 0.7126325 -0.18208954 -0.014699487 -0.0054742647
0.19678374 -0.14024387 0.5432885 0.15265541 -0.06446695 -0.1952327 -0.027550694 0.008176155
-0.4698232 -0.2547716 0.13862814 -0.5769505 0.15018687 0.1783489 -0.06686782 -0.15970595
0.0063019246 -0.34007272 0.086979315 -0.22100943 -0.38355517 -0.4175749 -0.15933375 -0.13320157
-0.1320862 0.11948789 0.29817322 0.0983516 -0.35534742 -0.1779671 0.09818035 -0.105607286
-0.11213125 -0.041440573 -0.18453425 -0.083152704 0.017543439 -0.31741345 0.1489396 0.01952307
0.049003746 0.2449401 -0.061902277 -0.104325354 -0.123938225 -0.07381798 -0.36511272 -0.03441017
0.10902597 0.12828003 -0.04724344 0.031408984 0.3124921 -0.0044721086 -0.19193886 -0.13316996
0.07994507 -0.1409492 -0.027499788 -0.23203507 -0.74889904 0.13984554 -0.14020602 0.05801582
00000000: 5d46 053e bcaf e6bd e17b 18be 667f 32bd
00000010: 6cdd 0d3e c144 b43d ad2b bcbd eb43 9cbd
00000020: 3d41 483e 117f 8a3d a0e3 103d 02ae c53e
00000030: 791b b2bb 2ca8 7dbe 7dab 45bd 67fd 4b3d
00000040: b250 573d 957e 4d3e e069 5abd 6271 c03d
00000050: 30e8 3c3e 6562 f03e e827 423d bf98 043e
00000060: cb7f ba3d a4c3 143d b511 f4be 8673 adbe
00000070: 9874 ca3e 3353 e73d 8d45 e13c 7318 99bc
00000080: 4460 773e 49b2 9fbd 715d 733c 52c9 0ebc
00000090: ef0b b83d a92f 843e 8a1d bbbd fceb 483e
000000a0: 305d b13d 234d acbe 127b 703e 13a3 103e
000000b0: c7e5 173d ea5f 34bd 1dfe c43e 0d90 43bc
000000c0: e4a2 1cbe 5f25 923d 1c0d 453e 674c b3bd
000000d0: a5a9 f3bd e09a 04be 0b82 98bd 3ebe 41bd
000000e0: 4288 123d 47bb 223e b444 a53e f5b4 213e
000000f0: 3653 ba3e 1e51 9ebd 5e89 c43d 0a6f 86bc
00000100: 9851 9ebd ff91 34bd f142 163f f4df 833d
00000110: 2f79 a1be 2e8d d9be 490e 153c da48 15be
00000120: e656 01bf 5269 a9bd 0f19 22bc c3e8 04bf
00000130: ca5b 553e f43e 8d3e 6d22 8a3d 0e3c 85be
00000140: f055 20bd 1c44 ccbe c179 793e 67c3 b1be
00000150: b0d8 93be 74fc 17bf 277f 87bd 1a86 acbe
00000160: 91ec 87bd 8bf8 953c 2b81 2e3f 8fb7 6a3e
00000170: 6b80 c2be 9fc3 97be deff 633d a842 1f3d
00000180: 7587 64be 4633 5bbc 69f0 42be 6155 83bd
00000190: 4d42 f23d c555 4ebe 1532 1f3e 2631 833d
000001a0: 10ee b13d df88 a83e a763 27be 7759 ba3b
000001b0: 290b f8bd bf06 5ebe 4cfc 0fbf aa01 36be
000001c0: 8451 1f3e 3aa2 a73b 89bf a1bd e4bb a83d
000001d0: cd62 753e 6862 afbd 59eb f53d 41a4 7bbe
000001e0: f8a3 5cbe 4c2d d6be 6a50 86be 9d98 91be
000001f0: 0b5e 61bf 5779 ea3d 25a8 4dbd 3c4a 20be
00000200: 20cc 3bbe 69f3 12be 367c efbe e8f5 143d
00000210: 6653 5f3e bbbd f43b ca0a dd3d 247f cc3d
00000220: 0f4b 593e 8e25 9e3e 2ad2 24be 2103 093f
00000230: 0f11 31be 458a 1a3d e8c9 12be 219d 3f3e
00000240: 1d97 843c 9dee 923e 3bf3 183d 0434 bf3e
00000250: b76a 943e 0fc3 353f 618b b33c eb3d 213e
00000260: d830 313e 842c eb3c d2e8 eebe aaab c2be
00000270: 69a0 083f 5928 a93d f2f5 b43c 44fb 783e
00000280: cacd 883e 5235 59be 83fc 363d b16d afbb
00000290: fe90 013e b24e 883e 82c8 01be 88ef cb3c
000002a0: 406c b3bd 2cde bebe b811 71bc 31d0 d43d
000002b0: c254 0d3d 9554 ddbc aa08 843e e586 473e
000002c0: 7013 2ebe e7b1 693d 3419 7d3e 9270 453e
000002d0: 1069 a13d d55f f1bd 8bf4 e23d a316 eabc
000002e0: fb86 a33b 61c5 843d 2830 8b3e 51e2 c63d
000002f0: 156f 363f ae75 3abe 1ed6 70bc 7661 b3bb
00000300: ad81 493e 179c 0fbe f514 0b3f b351 1c3e
00000310: 4007 84bd 15eb 47be feb1 e1bc 48f5 053c
00000320: ab8c f0be 6c71 82be 89f4 0d3e 07b3 13bf
00000330: 96ca 193e 18a1 363e fff1 88bd f589 23be
00000340: 6080 ce3b 031e aebe 3622 b23d 4c50 62be
00000350: 5861 c4be 61cc d5be 6328 23be fe65 08be
00000360: 9b41 07be 11b6 f43d 29aa 983e 906c c93d
00000370: 19f0 b5be 023d 36be c812 c93d a248 d8bd
00000380: 12a5 e5bd 97bd 29bd 8cf6 3cbe f74b aabd
00000390: 42b7 8f3c 0484 a2be 9f83 183e d8ee 9f3c
000003a0: 27b8 483d 94d1 7a3e 3e8d 7dbd 88a8 d5bd
000003b0: 53d3 fdbd e22d 97bd 0ef0 babe aef1 0cbd
000003c0: 0249 df3d d75b 033e 5682 41bd b5a6 003d
000003d0: f7fe 9f3e c48a 92bb 9f8b 44be b55d 08be
000003e0: 3eba a33d fd54 10be 3c47 e1bc 9a9a 6dbe
000003f0: d9b7 3fbf ab33 0f3e 2b92 0fbe ffa1 6d3d

actor.2.bias f4 [64]
-0.0027211676 0.25979197 -0.09958807 0.17227703 0.026921142 -0.04125789 -0.09594165 0.09431983
-0.11610315 0.22195396 -0.24167053 0.27381727 -0.07526341 -0.041165594 -0.31334296 0.011018967
0.2057711 -0.1012977 0.046667986 0.04387047 0.06611903 -0.29017413 -0.27563474 0.057250686
0.11634292 -0.10546483 -0.047684744 -0.22429062 0.008018103 0.12652099 0.0024234292 0.021663202
-0.041923378 0.1960477 0.010349596 0.13342053 0.082394905 -0.017138632 -0.26589525 0.13188131
-0.044512838 -0.16871889 -0.25890815 -0.031454246 -0.15542032 -0.087209135 -0.13877091 -0.24306923
0.2915531 -0.30072534 -0.10778856 0.049566112 -0.1239075 0.06832343 -0.09411498 0.15082595
0.22073339 0.05917808 0.07822911 0.2810474 -0.16803123 0.19898692 0.05175725 0.0853053
00000000: 9e55 32bb 7403 853e d4f4 cbbd 6469 303e
00000010: ba89 dc3c 09fe 28bd 0e7d c4bd c12a c13d
00000020: 7dc7 edbd e647 633e 7b78 77be c731 8c3e
00000030: b423 9abd 419d 28bd 7d6e a0be e688 343c
00000040: a9b5 523e 2b75 cfbd ee26 3f3d 86b1 333d
00000050: 6a69 873d b491 94be ff1f 8dbe b27f 6a3d
00000060: 3245 ee3d f2fd d7bd 1451 43bd 71ac 65be
00000070: 5d5e 033c b88e 013e 65d2 1e3b 0777 b13c
00000080: d9b7 2bbd bac0 483e 5a91 293c 649f 083e
00000090: a9be a83d 5166 8cbc 6c23 88be e50b 073e
000000a0: 1853 36bd a5c4 2cbe 9c8f 84be 2bd6 00bd
000000b0: 8126 1fbe b49a b2bd f619 0ebe 24e7 78be
000000c0: 7346 953e acf8 99be 40c0 dcbd d605 4b3d
000000d0: 37c3 fdbd 28ed 8b3d 5bbf c0bd 1e72 1a3e
000000e0: ef07 623e b764 723d 9536 a03d 72e5 8f3e
000000f0: 6110 2cbe 3ac3 4b3e 69ff 533d 8cb4 ae3d

actor.4.weight f4 [9, 64]
-0.21587881 0.4975703 -0.17484231 0.06790977 -0.41474736 0.057015173 -0.19683446 -0.43148455
0.7300364 0.10221189 0.041004796 0.16601992 -0.11641463 0.16661878 1.0126232 -0.5057643
-0.70658106 -0.35901758 -0.005910172 0.3810697 -0.12071211 -0.24345684 -0.31497815 0.18575494
0.16221125 0.408595 -0.46691367 0.9718164 -0.38897008 0.3669005 -0.391267 -0.26256835
-0.5058423 0.33737642 0.08270653 -0.6081396 0.41923764 -0.51101655 -0.34762552 -0.017288709
0.3466059 -0.32702518 1.2120821 -0.0793713 1.1173295 -0.02679465 0.8595413 -0.1764501
0.11915379 1.0977956 -0.37466404 0.5061881 0.31499538 -0.87784904 0.1866255 0.13685198
0.08445287 -0.34694785 -0.6857733 -0.15265563 -0.3197793 -0.94649965 -0.38230824 -0.044750165
-0.03183047 0.21197504 -0.07069877 0.15990658 0.23388694 0.07180784 0.16034797 0.2643332
0.001877876 0.118514925 -0.1887478 0.07216914 0.10463249 -0.2659565 0.060764957 0.04103373
0.009328912 -0.114011034 0.32315794 0.01386094 0.04413104 -0.30898687 -0.08012165 0.10844169
0.100840904 -0.19497527 0.12419887 0.09442546 0.30812076 -0.0676886 0.14685242 0.35071775
-0.11501467 0.040106323 -0.1569104 0.041642983 0.052618634 0.07194558 -0.11264914 0.26725575
-0.31297365 0.10135289 0.13468598 0.19012628 0.0686725 -0.21448794 0.12422131 -0.26835957
0.24576671 0.045408074 0.035812695 0.052260008 0.066439226 0.008289872 -0.35478103 -0.06996889
0.004078871 0.005733092 -0.17455082 0.05353237 -0.14398816 -0.13371815 -0.16943236 0.12345856
-0.08934599 0.0680672 0.1028492 0.2220315 0.26198024 0.16473205 0.04691371 0.221886
-0.09388741 0.11527658 -0.0641067 0.113673694 0.17333518 -0.32164767 -0.13480286 0.05954336
0.05279034 -0.24411395 0.3944376 -0.02366939 -0.14950067 -0.2876844 0.1240872 -0.089763336
-0.010801651 -0.257007 0.10221728 0.1360011 0.44354218 -0.043533497 0.18967736 0.33521637
-0.23187484 -0.016476437 -0.2635196 0.071249865 0.20847426 0.08097964 -0.006767281 0.32710147
-0.4245345 0.16591425 -0.09029334 0.30891845 -0.1397004 -0.3258392 0.12566622 -0.16980164
0.07814593 -0.14341 0.115489125 -0.08692837 0.2566699 0.027512154 -0.32878414 -0.08492793
0.07144327 -0.18725476 -0.18198934 -0.18353254 -0.12049626 -0.1383821 -0.21417876 0.28317377
-0.011398267 0.066609405 -0.26498726 -0.03119372 -0.112437785 -0.17396903 -0.15095638 -0.085112266
-0.030485101 0.097043715 -0.2545513 0.24612398 -0.15794869 0.16911983 -0.11572477 -0.09477782
0.10034384 0.17480855 -0.18091749 0.20211217 0.17682083 -0.02626664 -0.2658878 0.18001986
0.03365197 0.038683996 -0.17827833 -0.09274751 -0.06481624 0.20712961 -0.07827674 -0.13759877
0.051022638 0.20587738 0.2883636 0.28510362 -0.048800115 -0.044630248 -0.062261853 -0.12197543
0.19316883 -0.22720972 -0.18006599 -0.16240196 -0.2688986 0.17598882 -0.24291585 -0.0070315963
0.047329064 -0.15293378 -0.013451261 0.09473671 -0.20996015 0.17182562 0.14190581 0.15047197
0.23679115 0.14612031 0.21026616 0.21904296 -0.11702826 0.24793793 0.1410812 -0.12169145
00000000: 560f 5dbe 89c1 fe3e dd09 33be 4714 8b3d
00000010: c459 d4be be88 693d f98e 49be 8beb dcbe
00000020: aae3 3a3f 7854 d13d a5f4 273d 2001 2a3e
00000030: cb6a eebd 1d9e 2a3e a39d 813f c579 01bf
00000040: 7fe2 34bf 27d1 b7be 1eaa c1bb 911b c33e
00000050: e937 f7bd c04c 79be d144 a1be 8b36 3e3e
00000060: b51a 263e 5d33 d13e 4f0f efbe f6c8 783f
00000070: 1627 c7be 62da bb3e 2654 c8be 5c6f 86be
00000080: e27e 01bf 9abc ac3e 0b62 a93d 09af 1bbf
00000090: 51a6 d63e fbd1 02bf f9fb b1be 0da1 8dbc
000000a0: 5476 b13e d86f a7be 8225 9b3f 6c8d a2bd
000000b0: a704 8f3f 7480 dbbc e60a 5c3f 56af 34be
000000c0: e706 f43d 9184 8c3f f7d3 bfbe 8b95 013f
000000d0: 1347 a13e b7ba 60bf c11a 3f3e ed22 0c3e
000000e0: a0f5 ac3d 26a3 b1be d78e 2fbf c251 1cbe
000000f0: 1dba a3be cd4d 72bf e8bd c3be f34b 37bd
00000100: ab60 02bd fc0f 593e 84ca 90bd 8dbe 233e
00000110: 0f80 6f3e fd0f 933d 4232 243e ae56 873e
00000120: 1023 f63a f4b7 f23d 1a47 41be 6acd 933d
00000130: 8f49 d63d 732b 88be ade4 783d fc12 283d
00000140: 4bd8 183c 9e7e e9bd f574 a53e ff18 633c
00000150: c0c2 343d 8733 9ebe d216 a4bd ad16 de3d
00000160: ad85 ce3d 99a7 47be fa5b fe3d 2362 c13d
00000170: 01c2 9d3e 52a0 8abd 7b60 163e 4791 b33e
00000180: d08c ebbd 8746 243d 1fad 20be d591 2a3d
00000190: a386 573d 3458 933d 98b4 e6bd bfd5 883e
000001a0: 153e a0be 1b92 cf3d 1feb 093e 77b0 423e
000001b0: 2ba4 8c3d baa2 5bbe be67 fe3d 6d66 89be
000001c0: 45aa 7b3e d1fd 393d 55b0 123d 970e 563d
000001d0: 4a11 883d 3ed2 073c dca5 b5be d94b 8fbd
000001e0: 0da8 853b a9dc bb3b 73bd 32be c244 5b3d
000001f0: a271 13be 69ed 08be ad7f 2dbe d7d7 fc3d
00000200: 08fb b6bd d166 8b3d 9aa2 d23d 3a5c 633e
00000210: 4622 863e 85af 283e 9728 403d 1536 633e
00000220: 0b48 c0bd 2116 ec3d 604a 83bd c1cd e83d
00000230: c77e 313e 01af a4be c309 0abe bde3 733d
00000240: af3a 583d 02f9 79be baf3 c93e 4fe6 c1bc
00000250: b416 19be 5f4b 93be 6e21 fe3d d7d5 b7bd
00000260: 68f9 30bc 6c96 83be 4b57 d13d df43 0b3e
00000270: f617 e33e 2e50 32bd c83a 423e 7ba1 ab3e
00000280: 9970 6dbe 98f9 86bc 0aec 86be 73eb 913d
00000290: 477a 553e a7d8 a53d 11c0 ddbb d879 a73e
000002a0: 965c d9be 6de5 293e b7eb b8bd 8f2a 9e3e
000002b0: 9f0d 0fbe 65d4 a6be a5ae 003e 7be0 2dbe
000002c0: f90a a03d 12da 12be 9085 ec3d 8007 b2bd
000002d0: 3d6a 833e 2b61 e13c 6556 a8be b2ee adbd
000002e0: d950 923d b6bf 3fbe 6a5b 3abe f4ef 3bbe
000002f0: bec6 f6bd 0ab4 0dbe ad51 5bbe 27fc 903e
00000300: ccbf 3abc 836a 883d 69ac 87be f989 ffbc
00000310: c845 e6bd f024 32be 4f94 1abe 574f aebd
00000320: e4bb f9bc dbbe c63d 8c54 82be ed07 7c3e
00000330: 4dbd 21be c02d 2d3e 1c01 edbd e01a c2bd
00000340: 1281 cd3d 0301 333e 6f42 39be 7ef6 4e3e
00000350: 8510 353e 232d d7bc 7222 88be 2057 383e
00000360: a6d6 093d 1c73 1e3d 988e 36be 68f2 bdbd
00000370: 60be 84bd c919 543e 8e4f a0bd b1e6 0cbe
00000380: 1dfd 503d 85d1 523e 65a4 933e 1af9 913e
00000390: a1e2 47bd 35ce 36bd 4906 7fbd 41ce f9bd
000003a0: 0dce 453e aaa9 68be 3863 38be b34c 26be
000003b0: 14ad 89be 6a36 343e efbe 78be 4e69 e6bb
000003c0: 1fdc 413d ac9a 1cbe ae62 5cbc 5205 c23d
000003d0: cbff 56be 0ef3 2f3e c24f 113e 5315 1a3e
000003e0: 6179 723e 90a0 153e 0350 573e cc4c 603e
000003f0: 83ac efbd 71e3 7d3e 9777 103e 5e39 f9bd

actor.4.bias f4 [9]
-0.11104601 -0.13603131 -0.07760012 0.24698278 0.19143571 0.18898547 0.25031376 0.08757748
-0.16891848
00000000: 176c e3bd cb4b 0bbe d0ec 9ebd 0ee9 7c3e
00000010: b907 443e 6885 413e 2029 803e d25b b33d
00000020: f7f8 2cbe

critic.0.weight f4 [64, 7]
0.16218705 0.020087691 -0.24796487 0.040359728 -0.09557096 -2.6684754 0.19386674 -0.052766483
-0.32363397 -0.049057834 -0.31851086 0.11595301 -2.6523352 0.2826175 -0.15125805 0.191759
0.24856906 0.26287463 -0.19361162 2.4357128 -0.016960489 0.04246715 -0.0066247364 0.1909909
0.13682781 -0.069277436 1.5507591 -0.19901714 -0.40719458 0.28522944 -0.16104351 0.0073993127
-0.50284797 2.5669258 0.0258107 -0.067145064 0.31442353 -0.31017843 0.24604821 -0.58954406
2.2971692 0.13376221 0.015449598 -0.08782874 -0.024726631 0.101691715 0.15724547 2.7192712
0.3412875 0.4631015 -0.50276446 -0.054759573 0.6781632 0.05681445 -1.709931 0.085520945
-0.10751799 0.2587135 0.10118974 -0.0024793518 0.30275834 2.559497 -0.0474816 0.39822215
-0.24463435 -0.14187594 0.27483988 -0.608463 -0.8381735 -0.042298485 -0.0007166156 0.10465338
-0.300047 -0.10089606 0.605446 -0.92914814 -0.13055152 0.46691006 -0.002587221 0.28584826
0.19302464 -0.2823293 1.3775291 -0.116351806 -0.406993 0.55405706 -0.20241536 -0.3282131
0.20875184 0.6092459 -0.06462275 0.20688081 -0.29601434 0.019502262 0.014259864 0.6812783
-2.0941992 -0.0043341964 0.3572841 0.074220695 -0.031921647 -0.20040293 0.11293027 2.0456958
0.08270268 0.03194325 0.13438523 -0.259235 0.41185722 -0.05566106 -1.7673845 -0.007602425
0.5455809 -0.20139429 -0.23594432 0.028532468 -0.15838346 2.6691713 -0.1904085 0.28585804
0.058917847 -0.4119804 0.2777613 0.40100005 -2.675533 -0.22902843 -0.08690449 0.21753624
-0.24852195 0.094152644 0.21227455 -2.8615088 -0.066811375 0.36632442 -0.13940795 -0.17344414
-0.09602454 0.7641213 1.2527277 -0.066077344 0.21372195 -0.20707922 0.23484984 0.11100705
0.3681943 0.7597967 -0.11607399 0.5134717 -0.3656795 -0.24741793 0.35243902 -0.1553812
-0.44134337 0.035759963 0.02324935 0.22834688 -0.18345189 0.10397186 -0.008883565 1.9582464
0.087040946 0.5252825 -0.55357486 0.0424266 0.70571476 -0.15903744 -1.1296674 0.18417549
0.20712726 -0.33667603 0.032345682 0.088546775 0.060336433 -1.8822678 0.34624574 -0.26453963
0.14418659 0.21945338 -0.31017917 -0.10877393 2.7456713 -0.02580557 0.23948406 0.01888382
-0.32187015 0.22108878 0.2872195 2.1452246 0.3337883 0.09634897 -0.4529701 -0.070858136
0.8030715 -0.6854236 -1.017473 0.20450373 -0.23338872 0.24296196 0.10911853 -0.20363528
0.15956686 2.3361301 0.21705312 0.18561065 -0.20484795 0.070674896 -0.058629792 -0.16213578
-1.9527258 0.3348744 -0.37720987 0.38372234 -0.24561359 0.13209277 -0.6656713 2.6729991
0.25863028 -0.04196195 0.24891385 -0.106119774 -0.19340284 0.13479662 -1.1986191 -0.12706554
0.40441155 -0.50673103 -0.053892657 0.3055798 -0.6604727 0.098847225 -0.008370191 0.012118831
0.084519535 0.057475314 -0.18597592 0.021322535 1.6501902 0.028282179 0.22981279 -0.3746604
0.15311682 0.13577434 -0.55036885 0.07761794 -0.08581661 0.21251117 -0.14231183 0.24943985
-0.29895112 -0.15047535 -2.807034 -0.1212638 0.46320495 -0.5248286 0.027457247 0.5593877
00000000: 5d14 263e f18e a43c 81ea 7dbe 3e50 253d
00000010: b5ba c3bd 4dc8 2ac0 0185 463e ab21 58bd
00000020: 5ab3 a5be def0 48bd db13 a3be c678 ed3d
00000030: dcbf 29c0 3eb3 903e 64e3 1abe 795c 443e
00000040: e388 7e3e 8197 863e 2042 46be b8e2 1b40
00000050: b9f0 8abc 09f2 2d3d 5114 d9bb 1e93 433e
00000060: 971c 0c3e 54e1 8dbd 467f c63f 26cb 4bbe
00000070: cf7b d0be 9809 923e 97e8 24be ef75 f23b
00000080: a5ba 00bf 8348 2440 f670 d33c 5a83 89bd
00000090: 1ffc a03e b5cf 9ebe 10f4 7b3e 5cec 16bf
000000a0: d204 1340 f6f8 083e 5020 7d3c 8edf b3bd
000000b0: 818f cabc bf43 d03d f504 213e 8a08 2e40
000000c0: 3cbd ae3e a41b ed3e 2cb5 00bf 934b 60bd
000000d0: 1a9c 2d3f 45b6 683d 05df dabf 9b25 af3d
000000e0: 6432 dcbd 1976 843e 913c cf3d 9f7c 22bb
000000f0: 2403 9b3e cdce 2340 117c 42bd c6e3 cb3e
00000100: 6d81 7abe ed47 11be d0b7 8c3e 3bc4 1bbf
00000110: 8a92 56bf 2d41 2dbd 42db 3bba 8354 d63d
00000120: c39f 99be 98a2 cebd 82fe 1a3f a7dc 6dbf
00000130: 4caf 05be d60e ef3e 5e8e 29bb b45a 923e
00000140: 40a8 453e 778d 90be e052 b03f db49 eebd
00000150: 6361 d0be afd6 0d3f f945 4fbe 8c0b a8be
00000160: 0bc3 553e 8af7 1b3f ef58 84bd 90d8 533e
00000170: 318f 97be 35c3 9f3c 34a2 693c 4168 2e3f
00000180: 5c07 06c0 e005 8ebb f1ed b63e 0501 983d
00000190: 46c0 02bd 6d36 4dbe fc47 e73d aeec 0240
000001a0: 0660 a93d edd6 023d 489c 093e 73ba 84be
000001b0: f3de d23e dafc 63bd a839 e2bf c31d f9bb
000001c0: 31ab 0b3f 4e3a 4ebe 639b 71be ecbc e93c
000001d0: 462f 22be b4d3 2a40 72fa 42be fc5b 923e
000001e0: d753 713d 18ef d2be bb36 8e3e e14f cd3e
000001f0: ef3b 2bc0 6e86 6abe fbfa b1bd d2c1 5e3e
00000200: 8a7c 7ebe 1ad3 c03d 805e 593e f622 37c0
00000210: 67d4 88bd e08e bb3e f5c0 0ebe 579b 31be
00000220: 84a8 c4bd 749d 433f 6259 a03f 8f53 87bd
00000230: edd9 5a3e 930c 54be 7a7c 703e aa57 e33d
00000240: f783 bc3e 0982 423f 33b8 edbd e272 033f
00000250: 583a bbbe 205b 7dbe e372 b43e 401c 1fbe
00000260: c2f7 e1be 0a79 123d 6c75 be3c c4d3 693e
00000270: d0da 3bbe 33ef d43d 5f8c 11bc d1a7 fa3f
00000280: 8642 b23d ea78 063f 15b7 0dbf 84c7 2d3d
00000290: b9a9 343f b6da 22be f198 90bf 8098 3c3e
000002a0: 2b19 543e cd60 acbe e87c 043d 0358 b53d
000002b0: 5623 773d 27ee f0bf 1f47 b13e bd71 87be
000002c0: a6a5 133e 63b8 603e cecf 9ebe dec4 debd
000002d0: 14b9 2f40 3466 d3bc 4f3b 753e 3eb2 9a3c
000002e0: 2acc a4be 1965 623e 6f0e 933e 5c4b 0940
000002f0: 4de6 aa3e 9c52 c53d b2eb e7be 121e 91bd
00000300: 1896 4d3f ec77 2fbf 8e3c 82bf 6d69 513e
00000310: 74fd 6ebe 05cb 783e 8979 df3d c485 50be
00000320: 7f65 233e 2883 1540 2c43 5e3e b810 3e3e
00000330: a9c3 51be 00be 903d cb25 70bd ec06 26be
00000340: ebf2 f9bf a874 ab3e a721 c1be 4177 c43e
00000350: 2182 7bbe 5443 073e 6f69 2abf 6b12 2b40
00000360: 306b 843e 4be0 2bbd 46e3 7e3e 5355 d9bd
00000370: 650b 46be 2008 0a3e 5a6c 99bf 781d 02be
00000380: 080f cf3e 20b9 01bf 8cbe 5cbd f574 9c3e
00000390: bd14 29bf 6a70 ca3d 2023 09bc 108e 463c
000003a0: 9418 ad3d 3c6b 6b3d 7970 3ebe 99ac ae3c
000003b0: 6f39 d33f 07b0 e73c 0b54 6b3e 7dd3 bfbe
000003c0: a8ca 1c3e 6e08 0b3e f9e4 0cbf 28f6 9e3d
000003d0: 9ec0 afbd 879c 593e 31ba 11be 296d 7f3e
000003e0: 1f10 99be 3616 1abe 72a6 33c0 2859 f8bd
000003f0: 3329 ed3e 2b5b 06bf 05ee e03c 0834 0f3f

critic.0.bias f4 [64]
0.117310345 0.30045038 -0.4292956 -0.2615124 0.05259154 -0.40259683 -0.30590078 0.2623543
-0.324425 -0.06328958 0.32726282 -0.34362262 -0.011886804 0.32934248 -0.37754774 0.14874868
-0.21311463 0.28577346 0.31120464 0.01207848 -0.21887602 0.08146016 -0.2929804 0.051531
-0.1123321 -0.11002734 -0.35050476 0.16597642 -0.3372669 -0.09530597 -0.19343938 0.18855007
0.10576155 -0.19216532 -0.07963548 0.1716118 0.22293057 -0.057598427 -0.041001998 -0.09295901
-0.17340875 -0.30288535 -0.10182094 0.1725352 0.12622668 0.19306387 -0.18784413 0.2852591
-0.08324833 -0.14376295 -0.25601435 0.25320542 -0.21325518 -0.10485707 -0.14804572 0.23845808
0.14711311 -0.06108255 -0.0038737822 0.02927851 -0.3614924 -0.16879907 0.28438067 -0.26526934
00000000: 6840 f03d a2d4 993e a2cc dbbe f4e4 85be
00000010: 3a6a 573d 2c21 cebe 079f 9cbe 4e53 863e
00000020: 091b a6be f89d 81bd fe8e a73e 4eef afbe
00000030: dfc0 42bc 949f a83e f04d c1be 9351 183e
00000040: b93a 5abe e650 923e 3756 9f3e d1e4 453c
00000050: 0921 60be 96d4 a63d 8701 96be 2b12 533d
00000060: 5f0e e6bd 0456 e1bd 5c75 b3be b9f5 293e
00000070: 3fae acbe c72f c3bd f914 46be 4513 413e
00000080: 8399 d83d fcc6 44be ed17 a3bd 01bb 2f3e
00000090: e947 643e 54ec 6bbd b6f1 27bd 4b61 bebd
000000a0: 1092 31be ca13 9bbe 7f87 d0bd 11ad 303e
000000b0: 9141 013e 89b2 453e 365a 40be 7b0d 923e
000000c0: 1a7e aabd 9836 13be 5014 83be 24a4 813e
000000d0: 915f 5abe 4ebf d6bd 4c99 17be 5b2e 743e
000000e0: d2a4 163e b231 7abd 48df 7dbb 7cd9 ef3c
000000f0: 8815 b9be aad9 2cbe 589a 913e 62d1 87be

critic.2.weight f4 [64, 64]
0.014729273 0.040006585 0.13368551 0.023665465 0.0028531773 -0.08762839 0.04139229 0.08506636
0.020394279 0.0928615 -0.0061497767 0.024562493 -0.08560367 0.032357506 -0.033425674 -0.021255607
-0.023824615 0.0070975604 0.044007305 0.040751763 -0.043113828 0.06978576 0.1088983 0.005932956
-0.12058562 0.00082323496 -0.047081195 -0.09201843 -0.08136759 -0.031069534 0.04347008 0.021935511
-0.045078777 0.0022751656 0.0608879 -0.020758059 -0.0049712406 -0.056034647 -0.0553933 -0.07802184
-0.08694085 0.07398817 -0.031053327 0.10391598 0.04808222 0.061743394 0.011848311 0.024559071
0.022132292 0.010102408 0.10067424 -0.060292833 -0.071147926 0.055305146 0.054622445 0.1200819
-0.012905891 -0.03398577 -0.14738998 0.047963228 0.01928705 0.035047185 -0.003963742 0.10463379
0.72365403 0.045541517 -0.2070515 0.097595364 -0.42788464 0.07422702 -0.55404556 0.13445781
-0.3918288 0.6248474 -0.21398982 0.09224809 -0.2903228 0.12123075 -0.090521574 0.31116644
-0.26768795 0.6066353 0.55557984 -0.20245498 -0.05511702 0.48754987 -0.12567404 0.35142612
0.3533319 -0.6775469 -0.15458062 0.0903894 -0.45057088 0.19472186 -0.07371648 0.091118276
0.25241727 -0.13752039 0.26886696 0.349778 0.20743631 0.11945253 0.48836896 -0.36762768
-0.29712635 -0.14974394 -0.38292408 -0.05616011 -0.44052985 -0.15108615 -0.079731055 0.35259992
0.19261298 -0.0075064665 0.24725433 0.16281031 0.44498456 -0.35868979 -0.4955909 0.118151866
0.21972793 -0.6904009 0.23176633 -0.8028182 -0.33033594 -0.30302933 0.1565396 -0.0642218
0.08486298 -0.02361052 -0.0020123108 0.028133858 0.074053615 -0.09776338 -0.06688575 -0.03968482
-0.020328902 0.016148586 0.12520425 0.09281121 -0.07805749 0.011667019 -0.047317993 0.0005387566
-0.009190992 0.051289603 0.008553813 0.0012503297 0.06937408 -0.044936884 0.03917323 -0.08757572
-0.05937196 0.009196235 -0.028742868 -0.021521306 -0.062030017 -0.15755402 -0.009516541 0.07850558
-0.02951059 0.080526285 -0.032440647 0.058469325 -0.064169906 -0.051257163 0.06421822 0.15288943
0.017703226 0.0043091336 -0.019093929 -0.0077775456 -0.08325815 -0.034027923 0.097995445 -0.15055971
0.013839965 0.078771986 0.10100799 -0.12748343 0.120755285 0.03550068 -0.03244735 -0.09139655
0.043509204 0.08053487 -0.10325282 -0.07049676 0.09146688 -0.052699927 0.03507287 -0.08492138
0.37024063 0.034598704 -0.29818332 -0.28215122 -0.19288747 -0.14222535 0.04600384 0.0064337356
-0.35593086 0.0550523 0.08751826 -0.12538272 -0.066989966 0.24881873 -0.20883161 0.18761109
-0.22037311 0.25342584 0.25547433 -0.28162006 -0.022558063 0.11333044 -0.1880559 0.17516024
0.11629988 -0.3859333 0.02582535 0.022309395 -0.18953891 0.05301186 -0.06762114 0.13678485
0.0036223375 -0.34016904 0.088085055 0.09952881 0.031633936 -0.19184785 0.036994144 0.028138403
-0.23728687 -0.15483552 -0.009924621 0.16336238 -0.11344763 -0.19135141 -0.20673984 -0.08279916
0.06584312 0.048562605 0.12114117 0.3111707 -0.01667326 -0.22094856 -0.22500174 0.06508335
0.06423949 -0.06094622 0.07163622 -0.1877866 0.039363123 -0.027742045 0.187621 -0.06719482
00000000: 0c53 713c f2dd 233d dbe4 083e 14de c13c
00000010: 5ffc 3a3b 8376 b3bd f68a 293d 4637 ae3d
00000020: e711 a73c 2c2e be3d 1184 c9bb 4837 c93c
00000030: fa50 afbd 4e89 043d 5ce9 08bd 3d20 aebc
00000040: d72b c3bc a792 e83b 0141 343d 52eb 263d
00000050: 2098 30bd d6eb 8e3d 1206 df3d 3e69 c23b
00000060: 98f5 f6bd 5dce 573a 36d8 40bd 2974 bcbd
00000070: 0da4 a6bd 8985 febc af0d 323d 1ab2 b33c
00000080: 86a4 38bd f21a 153b 9765 793d ce0c aabc
00000090: cae5 a2bb 9684 65bd 16e4 62bd eac9 9fbd
000000a0: 0b0e b2bd 1c87 973d 8c63 febc e7d1 d43d
000000b0: ddf1 443d a4e6 7c3d 6b1f 423c 1b30 c93c
000000c0: c84e b53c 9284 253c 4c2e ce3d 9ef5 76bd
000000d0: 01b6 91bd a687 623d c9bb 5f3d 80ed f53d
000000e0: 3b73 53bc aa34 0bbd 66ed 16be 1775 443d
000000f0: e0ff 9d3c a38d 0f3d 47e2 81bb 3e4a d63d
00000100: 6441 393f be89 3a3d 4f05 54be 14e0 c73d
00000110: b213 dbbe 5604 983d eed5 0dbf 4faf 093e
00000120: c99d c8be 00f6 1f3f 2620 5bbe 91ec bc3d
00000130: 31a5 94be d447 f83d 6063 b9bd 3551 9f3e
00000140: 650e 89be 734c 1b3f 7b3a 0e3f 5c50 4fbe
00000150: 62c2 61bd 23a0 f93e b2b0 00be 20ee b33e
00000160: ebe7 b43e b773 2dbf 624a 1ebe 141e b93d
00000170: 3ab1 e6be 2b65 473e aaf8 96bd 389c ba3d
00000180: d63c 813e 25d2 0cbe eea8 893e 1a16 b33e
00000190: 2f6a 543e 87a3 f43d 7f0b fa3e b239 bcbe
000001a0: f220 98be 7a56 19be a00e c4be 2508 66bd
000001b0: 218d e1be 54b6 1abe 094a a3bd fa87 b43e
000001c0: 563c 453e cef8 f5bb 3d30 7d3e bfb7 263e
000001d0: 04d5 e33e 30a6 b7be 17be fdbe 9bf9 f13d
000001e0: 5c00 613e 1dbe 30bf 2754 6d3e 7e85 4dbf
000001f0: cb21 a9be a926 9bbe eb4b 203e b886 83bd
00000200: a4cc ad3d d96a c1bc f9e0 03bb fa78 e63c
00000210: 6ca9 973d 2b38 c8bd 65fb 88bd 8d8c 22bd
00000220: cc88 a6bc 0a4a 843c 8b35 003e ce13 be3d
00000230: 9bdc 9fbd 0627 3f3c 83d0 41bd 583b 0d3a
00000240: d195 16bc 0c15 523d 4b25 0c3c 1ae2 a33a
00000250: ff13 8e3d bd0f 38bd 1c74 203d e65a b3bd
00000260: 0330 73bd ceab 163c 2a76 ebbc 734d b0bc
00000270: 3013 7ebd d755 21be 44eb 1bbc 89c7 a03d
00000280: 31c0 f1bc f7ea a43d 7ce0 04bd 887d 6f3d
00000290: 836b 83bd 08f3 51bd d884 833d 0c8f 1c3e
000002a0: 5b06 913c a233 8d3b df6a 9cbc c8da febb
000002b0: 4083 aabd dd60 0bbd d6b1 c83d 532c 1abe
000002c0: 05c1 623c 3553 a13d 47dd ce3d 048b 02be
000002d0: 8c4e f73d 2969 113d 83e7 04bd 1d2e bbbd
000002e0: b536 323d 77ef a43d 3776 d3bd 9b60 90bd
000002f0: fd52 bb3d e1db 57bd 92a8 0f3d 43eb adbd
00000300: 2e90 bd3e 5fb7 0d3d 7cab 98be 2076 90be
00000310: 4b84 45be 86a3 11be 866e 3c3d 16d2 d23b
00000320: 923c b6be 857e 613d c63c b33d 5464 00be
00000330: 0932 89bd 56ca 7e3e f4d7 55be 1f1d 403e
00000340: 7da9 61be 08c1 813e 88cd 823e 8130 90be
00000350: b0cb b8bc ca19 e83d ba91 40be 355d 333e
00000360: a22e ee3d 0d99 c5be af8f d33c 31c2 b63c
00000370: 7d16 42be f722 593d f47c 8abd 5411 0c3e
00000380: bd64 6d3b a32a aebe f065 b43d c3d5 cb3d
00000390: 9692 013d c373 44be 2c87 173d 8282 e63c
000003a0: 54fb 72be 348d 1ebe e19a 22bc 7848 273e
000003b0: 3b57 e8bd a0f1 43be 9cb3 53be 9b92 a9bd
000003c0: c2d8 863d 95e9 463d dd18 f83d c451 9f3e
000003d0: 5c96 88bc 5740 62be db66 66be 6b4a 853d
000003e0: fe8f 833d bea2 79bd 03b6 923d 214b 40be
000003f0: 3a3b 213d 4943 e3bc b81f 403e 709d 89bd

critic.2.bias f4 [64]
-0.07043519 0.028858453 0.041543733 0.04255161 0.070352584 -0.02707192 -0.23823783 0.33281884
-0.06522345 -0.031048449 -0.14600539 -0.0050332905 0.07187807 0.030509487 -0.07211689 -0.06799289
0.15900254 0.11493318 0.085527666 0.034312796 -0.046655145 0.0325651 -0.07731191 0.13681148
-0.17220356 0.20554763 -0.14609054 0.013510731 -0.10734748 -0.08997241 -0.021158589 -0.0017175426
-0.06315622 0.052661728 -0.042499445 0.11286859 0.13952063 -0.03975127 0.090577975 -0.05888305
0.063813224 0.0359299 -0.25748903 -0.094061345 0.021506209 0.014027933 -0.05498975 -0.05163371
-0.16599868 -0.05522981 -0.047519214 -0.23897278 0.0642854 0.010639808 -0.06595461 0.074678294
0.19797134 -0.032501206 0.043794986 0.024281459 0.0045405054 0.10177599 0.0022279192 0.011198403
00000000: 5340 90bd 9068 ec3c c329 2a3d 994a 2e3d
00000010: 0415 903d eec5 ddbc 9ef4 73be 3b67 aa3e
00000020: df93 85bd 5159 febc 7082 15be 4dee a4bb
00000030: cf34 933d 08ef f93c 05b2 93bd db3f 8bbd
00000040: 90d1 223e 1662 eb3d 2129 af3d 938b 0c3d
00000050: 7719 3fbd fb62 053d b555 9ebd 4f18 0c3e
00000060: 2156 30be 147b 523e c298 15be 1d5c 5d3c
00000070: ffd8 dbbd 7443 b8bd c754 adbc 2b1f e1ba
00000080: 0c58 81bd d3b3 573d e613 2ebd a627 e73d
00000090: 7fde 0e3e 3ad2 22bd f280 b93d 5a2f 71bd
000000a0: 82b0 823d 3b2b 133d 9ad5 83be 3ca3 c0bd
000000b0: ca2d b03c 6ad5 653c ef3c 61bd de7d 53bd
000000c0: 8ffb 29be a738 62bd 82a3 42bd 48b5 74be
000000d0: 10a8 833d 9752 2e3c 3613 87bd eff0 983d
000000e0: 00b9 4a3e fc1f 05bd 5f62 333d e9e9 c63c
000000f0: 85c8 943b ee6f d03d 4802 123b 8279 373c

critic.4.weight f4 [1, 64]
0.003624864 0.10056376 0.008746977 -0.059841875 -0.0030856994 -0.0030416914 0.034855 -0.10235921
0.00445415 0.007896995 -0.16937836 -0.008105267 -7.247667e-05 -0.006003262 0.0055649905 0.008634859
-0.029189369 -0.0077960044 -0.009572704 -0.006212567 -0.00073747616 -0.009943439 -0.34286496 0.3796225
-0.24967928 -0.08180999 0.31008792 -0.30770567 0.012569882 -0.0008654086 0.009834887 -0.0033210013
0.007006017 0.007676475 0.0063949353 0.17817156 -0.34692478 0.010915402 0.0021849833 -0.0020620252
0.0019987954 0.18363144 0.022040082 -0.00056150893 -0.0065370924 -0.0027113908 -0.0028669774 -0.0011867357
0.3355245 0.00505424 -0.23550521 0.021209063 0.004227229 0.006794535 -0.0029189636 -0.10918093
-0.27618828 -0.006312162 0.006372285 0.005123744 -0.0025236248 -0.009464104 -0.0027987703 0.0009356458
00000000: 208f 6d3b 5ff4 cd3d 7b4f 0f3c c11c 75bd
00000010: 7239 4abb 1d57 47bb 1ec4 0e3d b5a1 d1bd
00000020: 1ef4 913b 6662 013c 8571 2dbe f4cb 04bc
00000030: 9efe 97b8 03b7 c4bb 865a b63b 3979 0d3c
00000040: 8b1e efbc a075 ffbb d5d6 1cbc ca92 cbbb
00000050: 3053 41ba cee9 22bc ff8b afbe e15d c23e
00000060: edab 7fbe ff8b a7bd d8c3 9e3e 998b 9dbe
00000070: e8f1 4d3c 97dc 62ba 8222 213c 28a5 59bb
00000080: bb92 e53b f18a fb3b 9b8c d13b 9b72 363e
00000090: 20a0 b1be 84d6 323c f031 0f3b 0b23 07bb
000000a0: 39fe 023b e109 3c3e 678d b43c 3a32 13ba
000000b0: 1b35 d6bb 97b1 31bb e6e3 3bbb 3e8c 9bba
000000c0: dec9 ab3e 0a9e a53b 4728 71be a1be ad3c
000000d0: 9184 8a3b b1a4 de3b 154c 3fbb 409a dfbd
000000e0: 8d68 8dbe 41d6 cebb 9ace d03b 14e5 a73b
000000f0: 6663 25bb 540f 1bbc 936b 37bb 2046 753a
